results/SKDModel-dataset-Conv64F-5-1-Jan-08-2024-16-46-53/checkpoints/emb_func_00020.pth (torch, 463459 bytes, 24 tensors)

layer1.0.weight f4 [64, 3, 3, 3]
00000000: f7c4 ca3d bde9 b9be d44b 0fbf b164 bc3e
00000010: 0b21 0abe fe41 20bf 401a 413f a5ec 263f
00000020: 8b06 78be 55b8 1fbe 2975 64be 587a b7be
00000030: 7d08 b13e be5d 8e3d b9af 07bf 3c5e a33e
00000040: e964 e43e 6543 4a3d 3c28 c23d 1dbf 58be
00000050: 9a8c 4bbc 351e 67bd 2ecf 083e 64d3 cdbe
00000060: b240 e33e b939 613e 3ced 63be 4405 9b3d
00000070: 7b0d 203e c1fa 3dbc 31ae ad3d cb59 cdbd
00000080: 4533 1bbb 8829 df3d 3287 97ba 51cd a73b
00000090: ee7b 5f3e 7deb 173e cd1d f63d 2215 d63d
000000a0: ab0f 303e 8b12 883e 3bc7 043e 8433 9d3d
000000b0: 279d 093e c6a3 0ebe ad10 a8bc 3832 09be
000000c0: 9967 05be 2f5c 1f3e 0b30 1dbc 7807 5e3d
000000d0: fbcd 8bbd 9fe5 8b3d fbc5 c33d 9690 533e
000000e0: fac0 e8bc 69ef 073e 311f 413e 0a07 7e3e
000000f0: 7a3f 8cbd 18b7 ee3d 3e19 013e 7858 60bd
00000100: 63b2 3abe 1c69 69be 7b58 9cbb 06b4 e2bd
00000110: f9a6 80be e668 e9bd a7c9 5cbe 4c44 e9bd
00000120: 1cb8 dabd 3124 b1be 7cc1 43be ccaf d2be
00000130: 56ef e2be 0326 e3be d79c 72bd feff f0be
00000140: ae3b 2cbe a7fb 893e 8325 573e c127 d43d
00000150: 2577 433e 1f5a 6a3e fc39 c83d cbf4 043e
00000160: 7e02 dd3d f665 28be eda9 c6bc ca46 45be
00000170: 5ee3 b7be 8f60 d9bd e5a8 ffbd 7129 82be
00000180: 4644 05bd 7bd3 9ebe 6197 a03d 4ebb 8bbe
00000190: a0e6 54be 69ae b4be 8770 12be b809 0abf
000001a0: 9f80 80be fccc 22be 1e82 4cbe b3ac 3fbd
000001b0: de5c 1e3f a97e fb3e b251 113f e2dc a03e
000001c0: 475d ab3e 6fe2 293f e739 c93d 6ce6 063f
000001d0: 8f3e 283f 6010 f6bd e541 9b3d c351 173d
000001e0: 6824 713d 973d ccbc 0bd9 3b3d edaa 1d3d
000001f0: 9266 a53d c79f 67bc e4fa 0dbe d596 2fbe
00000200: fcf1 83be b8ca c8be 0de1 cbbe 0416 38be
00000210: 8246 5fbe 3a4b 56be c13c c9be edf6 7bbe
00000220: 20c3 37bf 6f0c 50bf a5c6 85be e1da 2fbf
00000230: ecf9 13bf 875c 6d3e dec8 9dbe 83ac c1bc
00000240: 4d97 4a3e f02a 023e 5a21 a1be c4db 683d
00000250: dc71 83be 8040 19be 5dd5 b73e eb91 06be
00000260: d78a e63d 611f 5d3e 8528 523e a065 323e
00000270: 0f92 6d3e f7ac 773e cc36 af3e 0cb3 f03e
00000280: a800 be3e 5adb 413e 40f3 0a3e ab58 6ebe
00000290: 5527 b43e d892 dabe 22dc b6be dabb b9be
000002a0: a8f4 8bbe ec8e 613d aa55 86be 1403 b6be
000002b0: d270 e4be 8a7a 3abd c042 0cbe 8ae2 4abd
000002c0: 4e0e abbe 2b44 0cbf 645e 4b3d 4655 a7be
000002d0: 6661 733e ff45 793e 6e86 983e b56d 223e
000002e0: 70ef b73e c6ac 2e3d 6b57 4abd ab2e 7b3e
000002f0: 9e2f 44bb 3815 e03d b423 a53d 686f d1bd
00000300: 9727 323e d526 9c3e a4ad 8f3d 4d1b cf3d
00000310: 2e8b e43d e396 ac3d d767 0fbe 515e 48be
00000320: dbb5 1abe 9817 84be b692 9cbe e2ea 3ebe
00000330: 53a2 5a3d 64e2 53be 36cc 34be 9fcb 363e
00000340: 01f8 f73c 1876 743e 5c40 ff3d 0cb4 b1bc
00000350: 9abb 203e 585c 513e 36da a73c 7f43 2b3d
00000360: e06d 163e b4a2 933e 0918 223f 9a45 3bbf
00000370: 3c7e 1ebf f14f 8b3e 0c6b 0fbf 9575 4abf
00000380: 0e9f 6dbe 96b6 8e3e c877 ab3e 9b4c d83e
00000390: 7972 113e 20a4 453e ea57 583e 4d8e 67be
000003a0: 5867 b4bd a310 00be ff78 773d 0203 02be
000003b0: ca65 d43b 16bd 24be 2f71 32bd 1a4a a73b
000003c0: 34cc 47be 0024 68be 3db9 41bd 6ff0 e6be
000003d0: a956 693d ab02 cdbd 3524 7fbe 8f84 883d
000003e0: 3538 8c3e 6297 c83e b620 3a3e 0e34 6f3d
000003f0: dac4 12bf 899a 8dba 01cc d23d 0107 b4be
0.09900849 -0.3631114 -0.5597508 0.3679557 -0.13489167 -0.62600696 0.7543068 0.6520484
-0.24221246 -0.15597661 -0.22310318 -0.35835528 0.3457679 0.06951474 -0.53002506 0.31907833
0.44608238 0.04938068 0.0948033 -0.21166654 -0.012423659 -0.056425292 0.13360283 -0.4020034
0.44385296 0.21994676 -0.22258466 0.07569364 0.15630142 -0.011595429 0.0848049 -0.10026892
-0.0023681682 0.10896593 -0.0011560677 0.005120911 0.21824619 0.14835925 0.12017403 0.104532495
0.17193477 0.26576647 0.12966625 0.076758415 0.13438855 -0.13929662 -0.020515764 -0.13398063
-0.130278 0.15562509 -0.009593974 0.05420634 -0.06826397 0.06830906 0.09559246 0.20660624
-0.02841233 0.13274921 0.18859555 0.24807373 -0.06848045 0.11656016 0.12607285 -0.05477187
-0.18232112 -0.22794002 -0.00477129 -0.11069493 -0.2512739 -0.11396961 -0.215613 -0.1138998
-0.10679647 -0.34597924 -0.19116777 -0.41149747 -0.44323224 -0.44364938 -0.059231605 -0.47070307
-0.16819641 0.26949808 0.21010403 0.10359145 0.19088419 0.22885941 0.09776685 0.12984006
0.10791491 -0.16445145 -0.024250949 -0.19265285 -0.35915655 -0.1061412 -0.12483386 -0.25422242
-0.032535814 -0.31020722 0.07841373 -0.2729134 -0.20791101 -0.35289314 -0.14300738 -0.5392108
-0.2509813 -0.15898508 -0.19971511 -0.04679556 0.61860454 0.49120072 0.5676528 0.3141852
0.33469602 0.66361135 0.09825497 0.52695346 0.65720457 -0.12014842 0.07580928 0.03694321
0.05887261 -0.024931712 0.045861285 0.038493086 0.08076204 -0.014137215 -0.13865238 -0.17147382
-0.25770557 -0.39217162 -0.39820138 -0.17977148 -0.2180424 -0.20927134 -0.39304164 -0.24605913
-0.7178211 -0.8126897 -0.26128116 -0.6869336 -0.57803226 0.23179828 -0.30817312 -0.02364183
0.19784279 0.12711692 -0.31470758 0.05685021 -0.25672805 -0.14966011 0.3590497 -0.13141601
0.1125695 0.21594001 0.2052327 0.1742158 0.23200248 0.24187075 0.34221494 0.47011602
0.37109876 0.18931332 0.13569355 -0.23276012 0.35186258 -0.42690158 -0.35714823 -0.36276132
-0.27335095 0.05506794 -0.26237231 -0.35549223 -0.44617325 -0.04552702 -0.13697338 -0.04953245
-0.3340935 -0.54791516 0.049650565 -0.32682246 0.23767623 0.24343108 0.29790062 0.15862162
0.35924864 0.04264524 -0.049399775 0.24529521 -0.0029935609 0.10941547 0.080634505 -0.10226327
0.17397915 0.30498376 0.07015541 0.10112629 0.11159359 0.08427217 -0.14004456 -0.19567229
-0.15108435 -0.2579925 -0.30580682 -0.18644288 0.05337746 -0.2069183 -0.17656025 0.17851113
0.030269625 0.23873174 0.124634475 -0.021692298 0.15696564 0.20445383 0.020489793 0.041812416
0.14690351 0.2883507 0.63317925 -0.7315308 -0.6191137 0.27209428 -0.56022716 -0.79085666
-0.23205206 0.27873677 0.33489823 0.42245945 0.14203824 0.1930089 0.21127287 -0.22612877
-0.08808774 -0.12506346 0.060418125 -0.1269646 0.0064818608 -0.16087756 -0.04356497 0.005105269
-0.19511491 -0.22669983 -0.047295798 -0.4510531 0.05696741 -0.100102745 -0.24916156 0.066659085
0.27386633 0.39177996 0.1817654 0.058399253 -0.5733162 -0.0010803501 0.10292817 -0.35161594

layer1.0.bias f4 [64]
00000000: bace 023f 7873 4e3e 487f ea3c d643 66be
00000010: 7b78 4bbc 0c11 12be c263 7bbe d370 af3d
00000020: 5239 243e db18 38be d61f 323e af09 bbbe
00000030: b844 66be a4b2 09bd 5e34 28bd 1455 40be
00000040: 769a 0b3e c061 f7bc af56 5abd 03b6 fdbd
00000050: 5fa2 85be c560 4e3e 947b 63bd 1208 c93d
00000060: d866 963c 9cfb 8cbd bb4f 823c 76d0 8abe
00000070: a5bc 3fbe d49c 3bbd 75ba 12be 397c e2bd
00000080: 2577 123e 37d8 383e 6d11 743d e147 383e
00000090: c28e e3be cb49 34bf 32e1 6dbe d412 44bc
000000a0: eb40 a73c b168 aa3d d053 4abd 82cc 32bf
000000b0: 967b a6bd de5f 03be eaf6 b73d 921d 10bd
000000c0: 7918 913c bcb8 d5bd 3b25 853d 4a93 4f3e
000000d0: a2e4 ed3d bc70 143e 8e72 883d 954b fcbc
000000e0: 2c8a 00bf ed06 b03d 0e79 e03d e3f6 28be
000000f0: fff1 7fbe 45a2 a0be e92d e4be 45e4 583e
0.5109669 0.20161235 0.028625146 -0.22486815 -0.0124188615 -0.14264315 -0.24549773 0.085664414
0.16037491 -0.17978232 0.17394957 -0.36530825 -0.22487152 -0.03361763 -0.041065566 -0.18782455
0.13633141 -0.030197978 -0.053305324 -0.123882316 -0.26100442 0.20154102 -0.055537775 0.098159924
0.018359587 -0.06883928 0.01590716 -0.27112168 -0.18724306 -0.04580386 -0.1432894 -0.1105885
0.14303263 0.1805123 0.05958693 0.1799617 -0.44444853 -0.704251 -0.23230436 -0.01196738
0.020416697 0.083207496 -0.049396336 -0.69843304 -0.08129041 -0.12829539 0.08982642 -0.03518445
0.017711865 -0.10435626 0.06501242 0.2027103 0.11615874 0.1449613 0.066624746 -0.03079776
-0.50210834 0.08595071 0.10960589 -0.1650043 -0.24994658 -0.31373802 -0.44566277 0.21180828

layer1.1.weight f4 [64]
00000000: e5f8 3140 0674 213f 0909 373f c4ac 2e3f
00000010: 2443 123f 589c 563f 49d6 273f 7330 153f
00000020: 4b5a 403f e53c e63e c1f1 573f af99 803f
00000030: d991 543f fe73 d93e ad74 9b3e b0fe 343f
00000040: 1932 203f c219 493f 247a 003f a575 313f
00000050: 20e6 383f bcf3 273f 0b34 353f 7217 ef3f
00000060: 6fd8 dc3e 4846 4b3f 318e 6f3f 53b4 1140
00000070: 5df0 1f3f 637e 433f a8da 8d3e d8c4 413f
00000080: 54c6 c43f 6f1b 193f cb57 e23e b270 333f
00000090: 93f7 873f 9e28 543f 1fab 363f 09cd 403f
000000a0: 7b3d 013f aba2 a23f 85b5 373f 002f a23f
000000b0: b92e 303f c768 2e3f c9bb 5e3f e19a 323f
000000c0: 6239 a13e 7abc 153f 35ca 023f ae3a 253f
000000d0: 6b7a 1c3f b6e0 5c3f 71a1 ae3e d718 453f
000000e0: 2f46 5a40 ae5f 263f 5464 4c3f 56a4 153f
000000f0: f948 a43f a3ba 553f a63b 6a3f 695c 573f
2.7808163 0.6306766 0.7149816 0.6823237 0.571337 0.8383231 0.6556135 0.5827705
0.75137776 0.44968334 0.8435326 1.00469 0.83035046 0.42471308 0.30362454 0.7070112
0.6257644 0.7855493 0.5018637 0.69320136 0.7222614 0.65606284 0.70782536 1.867903
0.43133876 0.79404116 0.9357634 2.276631 0.6247614 0.76364726 0.27705884 0.75690985
1.5373025 0.59807485 0.44207606 0.70093834 1.0622429 0.82874477 0.7135486 0.7531286
0.50484437 1.2705892 0.7176135 1.2670593 0.68821293 0.6812863 0.8700529 0.69767576
0.31489092 0.5849072 0.51089793 0.64542663 0.61124295 0.8628038 0.34107545 0.7699103
3.4105337 0.64989746 0.7984059 0.5845388 1.283477 0.8348791 0.91497266 0.8412538

layer1.1.bias f4 [64]
00000000: db8b debd aa09 31bf 52e5 e1be cbf1 84be
00000010: cfc8 353f bf2b 23bf 8217 cebe 04d9 f83e
00000020: 673c af3d baa2 3c3d 6982 86be 0a85 4b3e
00000030: 581a cfbe 0594 4ebe fd5f 1cbe 3030 fabe
00000040: 2209 c73e 9a2d 2cbf 88ad 8c3f af44 9abe
00000050: 852c 183e c7d3 c4be 7fac e7be 1673 1c3f
00000060: e69f 323e 4db4 51bf cfc1 09bd ee98 683f
00000070: 15d6 f83e a253 553f 9d22 09be 1335 12bf
00000080: 173e 263f ef6f 0d3f bcf2 1dbf 8f20 be3e
00000090: b3d0 f33e ba7b cc3e 70ae dcbe 124b b3be
000000a0: bb08 403f e2ff 393f c1ee 9ebe fa42 053f
000000b0: 70ce 0dbf d9df 253f 184e bebe c2f0 c9bc
000000c0: 98d5 a9be 4144 a03e 7a44 16bf 9108 6ebb
000000d0: d791 a8be 22f3 14bf 26c0 c53d 7497 1ebf
000000e0: fe96 193b a21d febe 07bc c6be 3821 21bf
000000f0: 641b cd3e 6713 93be b350 803f dfc8 8d3e
-0.10866519 -0.6915537 -0.4412027 -0.25965723 0.71009535 -0.63738626 -0.4025231 0.4860307
0.08556443 0.046053626 -0.2627137 0.19874969 -0.40449786 -0.20173652 -0.15270992 -0.4886489
0.38874155 -0.6725708 1.0990458 -0.30130526 0.14860733 -0.38442823 -0.45248792 0.6111311
0.17443809 -0.8191574 -0.033632096 0.9085835 0.48600832 0.8333074 -0.1339211 -0.57112235
0.6493849 0.5524892 -0.6169851 0.37134215 0.47620162 0.39938146 -0.43101835 -0.35018212
0.7501332 0.7265607 -0.3104153 0.52055323 -0.55393124 0.6479469 -0.37168956 -0.024650935
-0.33170772 0.31302074 -0.58698237 -0.0036321024 -0.32923767 -0.5818349 0.0965579 -0.6194985
0.0023435946 -0.49631983 -0.38815328 -0.6294131 0.4005996 -0.2872574 1.0024627 0.27692315

layer1.1.running_mean f4 [64]
00000000: f95e ee3e 28aa ca3e 67e4 893c 935d 22be
00000010: 2ba0 903f 77e5 76bf 2378 37bf 6474 853e
00000020: 74b2 8abe 4f62 32be 0369 f0be 62ea 96be
00000030: e8ea 5dbf 9597 eabe bc26 903e ec61 94be
00000040: 7324 22be fe17 c6bd 9088 8e3f cf5c 553b
00000050: 90b2 f0be 543f 163f 25cb f83d 6b1a ad3d
00000060: f146 40be 212f 27bf 7e60 e3be d1f3 c5be
00000070: 8dae afbe f892 113f 5f78 823e 92a9 0cbf
00000080: 4efc 1e3e cedb 8a3e 5525 f13e ade7 4bbe
00000090: ad4f 47bf 0291 0bbf 5b24 66bf e93d 1cbe
000000a0: fef4 033e 6664 5cbf fc56 f8be cc64 12bf
000000b0: 54a7 e13e fdf0 033e 29b3 97be 8622 31bd
000000c0: 68e4 8dbe 2cbf 3b3e 4490 223e a111 583e
000000d0: de08 293c 0972 92be 0753 a43f ee4f 9fbe
000000e0: c340 03bf a241 e1bd 9ea5 8abc 05f3 78be
000000f0: ab2c a4be 986f b7be f199 96be 973b 663e
0.46556833 0.39582944 0.016832544 -0.15856008 1.1298879 -0.96443886 -0.7166769 0.26065361
-0.27089274 -0.17420314 -0.46955118 -0.29475695 -0.86686563 -0.45818773 0.28154552 -0.28980958
-0.15834217 -0.09672545 1.1135426 0.003255654 -0.47011232 0.5869038 0.12148122 0.084523045
-0.18777062 -0.6530629 -0.44409555 -0.3866258 -0.3431286 0.5686488 0.2548246 -0.54946244
0.15525934 0.27120823 0.47098795 -0.19912596 -0.7785595 -0.5451814 -0.89899224 -0.15257992
0.12886426 -0.86090696 -0.48503864 -0.57185054 0.44072974 0.12884898 -0.29628876 -0.043245815
-0.27713323 0.18334645 0.15875345 0.21100475 0.0103170555 -0.28602627 1.2837838 -0.3111567
-0.51270694 -0.109988466 -0.016924676 -0.24311455 -0.3206533 -0.35827327 -0.29414323 0.22483669

layer1.1.running_var f4 [64]
00000000: a2f0 1240 edc4 1540 c124 0941 5198 bb40
00000010: c9f5 2241 407b a940 12f3 ae40 9785 1f3e
00000020: 38c5 3240 ab80 503f 0c34 8840 5471 183f
00000030: c279 d43f 33f5 ad3f 1fd3 9f40 c438 743f
00000040: 13db 8b40 0967 3340 82d0 3041 534f c63e
00000050: b71c fc3f 9ef4 2940 64ee d840 4bfe 0440
00000060: 92f4 003f 2b3b da3f d5e3 1840 e89e 8640
00000070: 4f30 2940 7c49 6640 dd19 4840 6901 d03f
00000080: 0e81 273f 62f7 693e 6686 8440 12bf 6740
00000090: fb5f f73f e83c 8b3e 06b7 4540 dee5 4640
000000a0: b65d 6740 4033 a440 8ed6 0840 71f5 0b3e
000000b0: 6727 a140 b546 d33f 7888 1a40 f531 103f
000000c0: d0da 633f 12b6 a73e 38d3 fe3f 0831 5240
000000d0: 44ce e53e ad19 253f 6028 9741 2c2c 963f
000000e0: 3f80 6e40 431b 4c40 fb35 a23f b876 0b40
000000f0: 8d45 ae3f 1025 2d3f 3cc9 f03f 7a95 ac3f
2.295937 2.3401444 8.571473 5.8623433 10.185006 5.296295 5.4671717 0.15578304
2.7932873 0.8144633 4.2563534 0.59547925 1.6599658 1.3590454 4.9945216 0.9539912
4.3704925 2.8031638 11.050905 0.38732395 1.9696263 2.6555552 6.7791004 2.0780208
0.50373185 1.7049307 2.3889058 4.2068977 2.6435735 3.5982351 3.1265786 1.625043
0.65431297 0.22848275 4.141406 3.621037 1.9326166 0.27194905 3.0892959 3.10778
3.6150947 5.131256 2.1380954 0.13667847 5.03606 1.6505953 2.4145794 0.5632623
0.89005756 0.32756096 1.9908209 3.2842426 0.4488393 0.64492303 18.894714 1.173223
3.7265775 3.189164 1.2672724 2.179121 1.3614975 0.6763468 1.8811412 1.3483117

layer2.0.weight f4 [64, 64, 3, 3]
00000000: 14e4 27be fdc8 54be 6d36 b53d cec6 58be
00000010: 6918 93be c1db 08bd de3f 333e 2e38 bc3d
00000020: b94e a03e 5bc1 5abe bc4a cabd 3efd 87bd
00000030: 9b1b 30be c2e2 e8bd 7eb2 afbd 2369 58be
00000040: 1f83 06be 1b26 fcbd 591d 04bd 6179 acbd
00000050: 2d0e f9bc 0285 2abe 2ff7 55be 8862 fcbd
00000060: 100f 47be 8613 71be af07 debd dde6 f93c
00000070: a71f b1bc 9f5b 3d3c 5790 d7bd 95d8 26be
00000080: cd0c 9cbd 198e 11be 7ed3 24be 0220 5ebd
00000090: 2cd4 673d 8546 48bd cdcc 213c 39dc 99bd
000000a0: 1f74 23be aa3d 0fbe c9b5 89bd 2025 cfbd
000000b0: 7d9a 64bd ab0d 393e 2359 603e 72e8 d53e
000000c0: 41ab 4f3e d830 523e 2f1d b53e c395 313e
000000d0: 58d5 ac3e a8ae aa3e 84b9 e03d e628 fd3d
000000e0: 7d24 443e 55a5 0f3e 4c62 803e fcbf 863e
000000f0: 72f2 1b3e 2f50 373e 1932 873e dc90 3a3e
00000100: 3c63 053e f2f9 133e e0d1 043e 32b2 333d
00000110: 43f2 013e f753 553e 9480 da3d 28cc 283e
00000120: d36d 10be 1ea3 a2bd 7500 d43d 422b 953c
00000130: 2328 113d 449f 5e3e c3d2 21bc aaef 5c3d
00000140: 85ba 503e 6885 7b3d 4311 d33d 85a1 013e
00000150: ef81 733d e2f2 ab3d 4ef9 183b f609 833d
00000160: 5df7 c53d 604a eb3d 8a40 68be a2e9 65bd
00000170: b140 8dbd 3d7a 9a3c cdd2 ca3e 8bcc a73e
00000180: 3a42 9cbd 7d52 663e 85fd 0e3e 3200 1d3e
00000190: fa5e 783d e11f 8b3e 27a0 f73d a24e 513c
000001a0: 6755 8a3e 3f38 6fbe 1968 4dbe 5ba2 4dbd
000001b0: 027b 8dbe 06f1 8fbe 0594 98be 798d b1be
000001c0: 0dfc c4be ce68 9fbe e3f9 b0be 6b7d adbe
000001d0: 80f8 43be 155c eabe 1cc4 45be fce3 1fbe
000001e0: 1893 a1be d818 22be 77da 3dbd dead d8be
000001f0: f1fa 45be 7e2d 20be a3f8 a3bd 4c75 14be
00000200: b254 90bd df78 a7bd 5971 01be 8d71 2bbe
00000210: 5eb1 c7bd d07b 94bd 7f7a 55bd f682 863c
00000220: 4c0a 773d 3627 0f3e e5fd 4c3b d55a 703d
00000230: f48f 243e 8eda 133c dfda ed3c 2f56 eb3d
00000240: 85d8 02bf 4939 e2be 425b d5be f90f c9be
00000250: 7f1a 31be 5c82 54be cb57 b3be 9f7f 7ebe
00000260: 95ef 9dbe 0645 7dbd c5b0 aebd 5f2b 03be
00000270: 39df 50be 8906 4fbe 8e5d 25be 4250 27be
00000280: d45f 71be 383a 16be 9d26 f63c 602e b5bd
00000290: a3a1 80b9 24ff a2bd 06f1 38be 93b0 06be
000002a0: 3353 2dbd bac6 3ebe 67b8 e6bd a053 cdbc
000002b0: 5566 cbbd 613a b7bb 06fb 7f3d 5ec8 8fbb
000002c0: b404 633d 0b3c 853d cc58 e03d 0fbd a23d
000002d0: 12f4 153c 2d06 353e 9f3a d33e b508 6a3c
000002e0: 5e7b 593e 34aa eb3e e277 b1bd cb65 38bc
000002f0: da4e 203e 0ae6 acbd bf78 bbbd 7778 cabc
00000300: 4322 4dbe 6a99 08be 3fc6 2fbd f2ef eebd
00000310: 7154 2abe f974 97bd cf3e 14bb f31f a9bc
00000320: e53f ce3c cf1a 8fbd ec0a d3bd 986b 15bd
00000330: a231 8bbd 6d2f 1abe 4e63 7dbd be7d 91be
00000340: 5a6d fabc a0e6 4c3e 4736 d73c 4b90 36bd
00000350: 309e bdbd 314d abbd abb3 21be 8812 37be
00000360: a147 2bbe f76a 69bd a0a5 f1bb c137 f5bd
00000370: d477 39bd 5384 aabc 69eb c0be 0329 b5be
00000380: 4a5a afbe 6992 8a3d f317 e03d b72b 063e
00000390: 977a 833c 2ed0 e13c 2db5 c03d 8a0e 883c
000003a0: 3461 04bd 7e61 a53c db7a 723e 12b3 b83e
000003b0: ed14 c63e eb3f 9c3e 9cb6 113f 53d3 fb3e
000003c0: 03b6 b13e 26b3 f23e 8b7b cb3e e50a 08bf
000003d0: 7b82 123e 6e81 bf3e d241 e8be 5b17 64be
000003e0: f836 b53b 4299 9fbd 4aa2 a63d 4d53 b83e
000003f0: f909 e8bd 302c 20bd 1400 5d3e 7cba 8a3d
-0.16395599 -0.20779796 0.088482715 -0.21169588 -0.2872956 -0.0334127 0.17504832 0.09190403
0.3131006 -0.21362822 -0.09877536 -0.06640099 -0.1719803 -0.113713756 -0.085789666 -0.21133856
-0.13135956 -0.123119555 -0.03225455 -0.08421589 -0.030402267 -0.16652301 -0.20895074 -0.12323481
-0.1943934 -0.23542604 -0.10841309 0.030505592 -0.021621538 0.011557489 -0.105255775 -0.16293557
-0.07619629 -0.14214362 -0.16096303 -0.054229744 0.056598827 -0.048895378 0.0098754885 -0.07512707
-0.15962265 -0.13988367 -0.06724126 -0.10114503 -0.055811394 0.1807162 0.21909003 0.41778904
0.20280172 0.20526445 0.35373828 0.17342286 0.33756518 0.33336377 0.10972884 0.123613164
0.19154544 0.14027913 0.25074995 0.26318347 0.15229204 0.17901681 0.2640541 0.18219322
0.13026136 0.14450815 0.12970686 0.043871112 0.12690072 0.20832811 0.106690556 0.1648413
-0.14104395 -0.079412684 0.1035165 0.018209103 0.035438668 0.21740443 -0.00987691 0.0539395
0.20383652 0.061406523 0.10306027 0.12659271 0.059450086 0.083959356 0.0023341957 0.06398384
0.096663214 0.11488795 -0.2268087 -0.056131013 -0.068971045 0.018857116 0.39613953 0.3277324
-0.07629819 0.22492404 0.13963898 0.15332106 0.06063745 0.2717276 0.120910935 0.012775095
0.27018282 -0.233613 -0.20059241 -0.050203662 -0.2763291 -0.28113574 -0.2980043 -0.34678248
-0.3847355 -0.31134647 -0.34565648 -0.3388475 -0.19137764 -0.45773378 -0.19313091 -0.15614313
-0.31557536 -0.1582979 -0.046350922 -0.4232015 -0.19334008 -0.15642354 -0.08006408 -0.1449787
-0.07047404 -0.08177351 -0.12640895 -0.16742535 -0.09750627 -0.07250178 -0.052118775 0.016419869
0.060312554 0.13979802 0.0031279263 0.058680374 0.16070539 0.0090242755 0.02903503 0.114910476
-0.5111163 -0.4418433 -0.41671187 -0.3927 -0.17295264 -0.20752853 -0.35027918 -0.24853371
-0.3084685 -0.061833404 -0.0852981 -0.12809514 -0.20397653 -0.20217337 -0.1614897 -0.1633921
-0.23571712 -0.14670646 0.03004771 -0.08846736 -0.0002453449 -0.079588205 -0.18060693 -0.13153295
-0.042315673 -0.18630496 -0.11265641 -0.02506429 -0.09931628 -0.005591676 0.062495254 -0.0043878993
0.055424407 0.06505593 0.10954437 0.07946216 0.009152429 0.17678137 0.41255662 0.0142843025
0.21238467 0.46028292 -0.08665444 -0.011254738 0.1565508 -0.08442314 -0.0915389 -0.024715645
-0.20032601 -0.13339773 -0.04291367 -0.1166686 -0.16633774 -0.07395358 -0.0022620445 -0.020645117
0.025176952 -0.06987535 -0.103048176 -0.036479563 -0.06796576 -0.15057154 -0.061862282 -0.28416246
-0.030569721 0.20009851 0.026270999 -0.044571202 -0.092586875 -0.083643325 -0.15791194 -0.17878163
-0.16726543 -0.056986775 -0.0073744804 -0.11973525 -0.045280293 -0.02081505 -0.37679604 -0.35382852
-0.34248573 0.06766207 0.10942068 0.13102613 0.016049666 0.027565088 0.094095565 0.016608495
-0.032319263 0.02018809 0.23679678 0.3607412 0.3868784 0.30517516 0.56919265 0.49184665
0.34709176 0.47402304 0.39742693 -0.53141624 0.14307587 0.37403435 -0.45362717 -0.22274534
0.0055302344 -0.077929035 0.08136423 0.36001053 -0.11330027 -0.03910464 0.21582061 0.0677385

layer2.0.bias f4 [64]
00000000: a655 183d 443a d2bc 45e6 753c 732a e6bc
00000010: 6733 2c3b aa9e c5bb 41ac e5bc 5aa6 b33c
00000020: 51cd 1e3c 107a 96bc e3c0 cbbc f88a 49bc
00000030: cdbc 80bd a909 173d 9b83 9e3d 033f 7d3d
00000040: f659 b5bc 37c2 37bd 9ba5 9abd 561b 60bd
00000050: 97ba 9d3d 760a d8bd ea64 a93c a9ab a3bc
00000060: 914f 11bd e0c5 883c c269 813d 5a48 263c
00000070: 460d bfba 0147 b6bb 096e 23bc 5f9d 903c
00000080: 6fe0 223d 58c2 41bd 94ac 253d 3270 1cbb
00000090: 7829 c13a 5b35 7cbb fa35 8bbd 9fbf 113d
000000a0: d451 42bd 2644 693d 919c 85bd de7a 653a
000000b0: 4b9e 7dbc 69b7 d33c 8833 9c3d 7819 93bd
000000c0: 08c6 6b3d 9445 3bbc 191d d6bc b66b 85bc
000000d0: 3c1f 07bd d141 313d b285 0fbd 5b9b 2a3d
000000e0: 955d 57bd 4ff2 b9bd bfb6 9d3d 1da4 513d
000000f0: a08f 433c c18f b13c 90d3 a4bd 887c 413d
0.037191056 -0.025662549 0.015008514 -0.028096413 0.0026275755 -0.006030877 -0.028036239 0.021929909
0.009692506 -0.01836875 -0.024872249 -0.012301199 -0.06286011 0.036874447 0.077399455 0.06182767
-0.022137623 -0.044862952 -0.07551118 -0.05471357 0.07701605 -0.1054887 0.020678002 -0.019979315
-0.03547627 0.016695917 0.06319 0.010149086 -0.0014576099 -0.0055626635 -0.009974965 0.017653165
0.039764818 -0.04730448 0.040447786 -0.0023870585 0.001473709 -0.003848395 -0.067974046 0.035583135
-0.04744132 0.056949757 -0.06524003 0.00087539654 -0.0154796345 0.025844293 0.07627016 -0.07182592
0.057561904 -0.011430163 -0.026136922 -0.016286712 -0.03298877 0.043275658 -0.03503961 0.041652065
-0.05257948 -0.0907942 0.07700872 0.0511819 0.011936098 0.021674993 -0.08048165 0.047237903

layer2.1.weight f4 [64]
00000000: 6c3e 313f 1271 243f c425 3d3f d92b 2b3f
00000010: 06ff a03f d72a 753f 4977 6e3f 2658 413f
00000020: 8042 943f 1184 883f da6d 013f 5180 aa3e
00000030: 2b74 2b3f f8f7 9c3f 1209 8a3f c94c 3a3f
00000040: 9b15 b23f cddd 303f f933 a13f a374 f73e
00000050: 4149 e43f 08b3 ad3f d8f7 973f c85d ae3e
00000060: 730d 7d3f 8863 083f 5d1f 683f bbcd 0c40
00000070: 70e0 013f 84bb 353f 4207 fb3e c741 763f
00000080: 8f38 6f3f 461e 2e3f 3fcc ca3f 140d 663f
00000090: d239 523f 1103 fa3f 8cfe 8d3f eb69 943f
000000a0: 1b26 343f e75e 593f 34d6 4d3e 4cb8 093f
000000b0: 6d50 343f 8381 a33f 30f7 f03e 4bf9 f33f
000000c0: 6768 963f 7e91 813f 4650 0c3f 325a e73f
000000d0: 524d 163f 7041 453f 29cd 0b3f f6f2 f63e
000000e0: e73d 633f 3e0c 003f 8b08 513f 663d 583f
000000f0: 887d 933f 47a4 113f 894f a23f 6a52 3b3f
0.69235873 0.6423503 0.7388575 0.6686378 1.2577827 0.95768493 0.93150765 0.7552513
1.1582794 1.0665303 0.50558245 0.33301023 0.66974133 1.2263174 1.0784018 0.72773415
1.3912843 0.6908844 1.2593986 0.48331174 1.7834855 1.3570261 1.1872511 0.34055924
0.98848647 0.5327687 0.90672857 2.2000568 0.5073309 0.7098925 0.49028975 0.9619412
0.93445677 0.68014944 1.5843581 0.89863706 0.82119477 1.9532186 1.1093307 1.1594824
0.70370644 0.84910434 0.20101243 0.5379684 0.7043522 1.2773899 0.4706359 1.9060453
1.1750611 1.0122526 0.5480999 1.80744 0.5871173 0.77052975 0.54609925 0.4823224
0.8876633 0.5001868 0.8165366 0.84468687 1.1522684 0.5689129 1.2680522 0.7317263

layer2.1.bias f4 [64]
00000000: e194 84be 9fbb edbe 87b6 c3be ec75 00bf
00000010: 2443 b9be 6303 cfbe 0daf 09be e312 573d
00000020: 36a2 1c3d 7d02 e63e 7a9e 28bf 52e2 8dbe
00000030: 9fde 11bf 2f68 59be 3f77 a9be 4f7f 86bf
00000040: abf5 debe 4f80 75bf 4eb5 23bf 99d1 b9be
00000050: e5dc 66bf b67a 403f 3303 21bf 9a55 f2be
00000060: 70b1 97be fdc8 33be 99c7 b4be 792e 27bf
00000070: 1067 a63e 5444 dbbe f16d 25bf 48a8 0ebf
00000080: 7a50 f2be 5ad5 55bc 4a2d 693f 5b1e 0dbe
00000090: 476f 3dbf c3c1 6bbf cdda 98bb c5bc 263f
000000a0: e3d8 12bf ca01 7cbf 043b dd3c 15c0 5b3e
000000b0: 5bb8 29be d869 0bbe 4842 3abe ff52 d3bb
000000c0: 1b1b a7be ddd7 f9be e14e 49bf 42c9 523e
000000d0: bac1 363e f0b4 b6be 7dab f8be 2780 0abf
000000e0: 8e53 f83e 6aca 2abf f3ce fbbd bf8f 3bbe
000000f0: 0d13 90be 5afa 4fbf 8ad2 50be fee6 91be
-0.25894836 -0.46432206 -0.38225195 -0.50179935 -0.36184037 -0.4043227 -0.13445683 0.052508246
0.038240634 0.44923773 -0.65866816 -0.2771173 -0.5698032 -0.21231149 -0.3309879 -1.0507601
-0.43546805 -0.9589891 -0.63948524 -0.36292723 -0.9018081 0.7518724 -0.62895507 -0.47330934
-0.29627562 -0.1755714 -0.3530853 -0.65305287 0.32500505 -0.42825568 -0.6462088 -0.55725527
-0.47327024 -0.013051355 0.9108473 -0.13781111 -0.7399792 -0.9209253 -0.004664755 0.6513179
-0.5736219 -0.9844023 0.02700568 0.21459992 -0.16574232 -0.13614595 -0.18189347 -0.006449103
-0.32637867 -0.48797503 -0.78635985 0.20584586 0.17847338 -0.3568492 -0.48568335 -0.54101795
0.48501247 -0.6671511 -0.12295332 -0.18316554 -0.28139535 -0.8124138 -0.20392814 -0.28496546

layer2.1.running_mean f4 [64]
00000000: db5a be40 c6b6 56c1 8eec 30c1 8886 96c1
00000010: ee28 1bc2 0835 aac1 6273 c5c1 80a6 b83d
00000020: 8b72 98c1 7b22 a7c1 5571 b040 76ce 51bf
00000030: e036 30c1 6969 06c2 5812 d2c1 e418 0a42
00000040: 3325 28c1 d484 3a41 014e 13c2 0539 14c1
00000050: 6090 57c2 7161 28c1 814d 10c2 831b 0841
00000060: a883 7ec1 6e51 c0c0 973a 58c1 0aa2 52c1
00000070: 9cb1 4540 b629 2ec0 9432 0041 ca94 1fc2
00000080: f24d f8c1 be5d 12c1 0ae3 2340 3cb9 ec41
00000090: b2a8 3bc1 140c 6fc2 176a f5c1 e23a 18c1
000000a0: 33bf f0c1 8831 df3e 609d 9940 867f c941
000000b0: a2ce 30c1 e4a6 2bc2 c8ef 0040 0f1e 66c1
000000c0: 42b4 64c2 800f d6c1 8158 4fbf 029a abc0
000000d0: 1389 fec0 63e4 52c1 af8b 2dc1 78bb 98bf
000000e0: c6e7 22c2 305b ee40 9e8a 16c1 5aa1 ddc0
000000f0: 5b8a bbc1 97f5 8841 fde4 97c1 e58e 4540
5.9485908 -13.419622 -11.057753 -18.81569 -38.78997 -21.275894 -24.68134 0.09016132
-19.05593 -20.891836 5.5138345 -0.8195566 -11.013397 -33.60294 -26.258957 34.524307
-10.509082 11.657429 -36.826176 -9.263921 -53.89099 -10.523789 -36.075687 8.506717
-15.907143 -6.00994 -13.514304 -13.16456 3.0889654 -2.7212958 8.012348 -39.8953
-31.03806 -9.147886 2.5607324 29.590446 -11.728685 -59.761795 -30.676802 -9.514376
-30.093359 0.43592477 4.800461 25.187267 -11.050447 -42.91298 2.014635 -14.382339
-57.176033 -26.757568 -0.8099442 -5.36255 -7.9542327 -13.180758 -10.846602 -1.1932211
-40.72634 7.4486313 -9.408842 -6.925946 -23.442556 17.119917 -18.98681 3.0868466

layer2.1.running_var f4 [64]
00000000: 8db8 1943 4b47 e442 431e c642 b0c7 3843
00000010: a928 5244 f5d2 cf42 298a d243 5c07 de42
00000020: 6cf3 d343 f1f4 1b44 a0a9 de41 b1b0 cc42
00000030: b480 af42 0782 0b44 c2f8 8743 2529 8443
00000040: 163c bc43 464f 2443 b3b7 7943 eabc 8442
00000050: ea64 a244 8058 c443 f85d b843 659f 4242
00000060: 8bf2 1443 b319 d942 7f43 b542 8c96 af43
00000070: c3c5 bb42 146b c042 df79 0943 6e54 3144
00000080: 06d8 8f43 f54e d543 6e69 dc43 df9c d443
00000090: 64f5 0c43 077b c544 889c 8743 d7e0 d643
000000a0: ddf0 8343 6534 e642 8a1e 0442 47e3 6843
000000b0: 39bb c942 3174 ef43 0285 3942 58f4 2644
000000c0: ff87 2744 3d8e 6843 b0d9 8642 1ff1 c943
000000d0: e4a3 9f42 b56c 6843 cc15 8942 684e a242
000000e0: 940f 1544 a18a 7642 bd08 8142 69e6 fb41
000000f0: 1f59 f442 e845 0043 38e9 5843 aeb9 2043
153.7209 114.139244 99.059105 184.78003 840.6353 103.912025 421.07938 111.01437
423.90173 623.8272 27.832825 102.3451 87.75137 558.0317 271.94342 264.32144
376.46942 164.30966 249.71758 66.36897 1299.1536 392.6914 368.73413 48.65566
148.94743 108.55019 90.63183 351.17615 93.88625 96.20914 137.47606 709.3192
287.68768 426.61685 440.82367 425.22556 140.95856 1579.8446 271.2229 429.75656
263.88174 115.10233 33.029823 232.8878 100.86567 478.90775 46.37989 667.8179
670.12494 232.55562 67.42517 403.88376 79.8201 232.42464 68.54257 81.15314
596.2434 61.63538 64.51707 31.487505 122.174065 128.27307 216.91101 160.72531

layer3.0.weight f4 [64, 64, 3, 3]
00000000: 414b 3abe 1c1e 65be 18a8 cbbe 8d50 f3bd
00000010: e68e 2dbe ec00 89bd 6ad6 b7bd 8b40 6dbd
00000020: 8a4d 0b3d a424 953c 3e3b 9d3d 0c90 09be
00000030: 4c5a 223d 121f 893d bde6 54bd 4416 c7bd
00000040: 7565 b83d a9c2 0b39 3286 ab3d e54d e23b
00000050: 5427 4c3e 114a 6bbe 21ff 8fbe d326 f0bc
00000060: 1258 5fbe b7e3 49be ff1e d53d 0118 18be
00000070: 3e68 ccbb 7dc7 1cbe 0ae2 173e 357c e63d
00000080: af07 1d3d 997b 0e3e 85e7 743e f5a0 013e
00000090: 929b 0a3e cfeb 9fbe 4fae c43e e41e e9be
000000a0: 25cc 41bf 6124 63be 40c5 e43e f336 9cbd
000000b0: 317f 023f 575e 54be 409a e6bd 626f cfbe
000000c0: 12f5 813e 1703 273e 0805 3f3c 2ab8 2abe
000000d0: 0f6b febd 43cd 5fbe 6d2b 1b3e e82b a73d
000000e0: eb92 fe3e 89f5 35be 2fce adbe 24a8 2ebd
000000f0: 9e66 033f cde7 7d3e 815a 323f c65f 4dbe
00000100: 1211 47be 847c 02bf 7010 32be 6576 67bc
00000110: 75be 01be 3da7 3abf 2f47 dfbd 9c60 92be
00000120: 80b8 9d3e 1ec6 13be 2218 b43e f1ee 7cbe
00000130: dbbd 3dbf f338 00be 270a 523e 71b5 30be
00000140: f4f6 143e ea3e d6be a705 66bd 286c c93d
00000150: fc63 a2be 80f1 283d 7886 95ba fcde 563e
00000160: 7676 153f 33f0 d63e 2e7d af3e e37d c03d
00000170: ac6a 243e 6234 993e 6af6 cfbd aa2f 0f3c
00000180: 75f3 833e e2a4 023e 7f5f 383e 6f1a f6bc
00000190: 11fc 4dbd 9559 50be 040c d3bd eb4f 50bd
000001a0: 1ff3 6ebd 6c04 2fbe c7a8 b1bd 3fee 20be
000001b0: 9268 6bbe 0a83 df3d d6c3 1f3d be42 91be
000001c0: 65c6 803e d7bd b33d 5b66 ccbe c006 453e
000001d0: 729f 053e 10e9 b1bd 1bf0 9cbe 2f32 7abe
000001e0: 7379 103b f772 73be 863a 8bbe e0ea c13e
000001f0: a85d 02bd 3f2c 0abe 9569 793e fb96 1fbe
00000200: 06e0 86bc b258 71be 2b46 77be ac3c 24be
00000210: f29c cfbe fe64 96be 74e4 adbd b2ae 89bd
00000220: 429a 76bd 0bc5 d4be a7f1 8fbd 20ec c8bd
00000230: da96 f7be 0fea 08bf 36b4 2ebf 15ab 4bbf
00000240: 49bb 37be 1978 193f 2c21 16be 5956 423e
00000250: 9f44 3b3f 008c 033e 4a77 22bf f2f7 bf3d
00000260: fcb5 923e addf 103e 3046 763e cee4 88be
00000270: cddd 9f3d 96cc 853e c6e6 bfbe 7318 bdbe
00000280: dbbc 27be 3b81 2dbf c35d dfbc f62e 183e
00000290: 6743 e33e 6b37 bbbe b72e 82be b0c3 503e
000002a0: 984a 39bf 28e9 94be 810b b3bd 54c6 3a3e
000002b0: 74f1 7fbc bfef 343e 762a 933d f5bb 11be
000002c0: 0149 1bbd bd61 24bd 596f 07be 4d52 babd
000002d0: 5672 7dbe 61bc 9bbe dc04 503e 5e73 38bf
000002e0: 376a 10bf bc72 b3be 746a b33e 739e 4dbe
000002f0: eb4c 0b3f 59b1 633e 62f0 50be dc83 7fbf
00000300: 14af 823f 5beb 9c3e 4a3d a8be 8065 c03e
00000310: 9a45 423e a28e c9be 923a babe 8d59 c2be
00000320: 1a30 b43d 9838 98be 62d8 cbbe a6dd 033d
00000330: 993c 9e3e 10be 073e e477 e53e 4ec0 e4bd
00000340: 49a0 4cbd 2b6a b9bd 44ba c1bb 4d57 583d
00000350: 8310 0cbe 8758 e2be 3c11 b3be 22f7 19bf
00000360: 39b9 2d3e 5c14 773e d731 173f 39f8 17bd
00000370: dd38 70be 5c44 dc3d 1a48 15bf 7969 02bf
00000380: 38db babe dd40 2e3d 3c26 79bd d82e 14be
00000390: b755 90be e04c 82be 6887 bbbe 0218 d7be
000003a0: 860f 8ebe 35d8 a1be 418d 853c f069 96bc
000003b0: 40dc 8bbe 38a0 923d 2445 223e 8e50 b6bd
000003c0: c082 8abe e81b 17bd e0ce 66be 39a9 d3bf
000003d0: a06e 30bf 3f7f 1ebf 39a4 60bf fc61 cebd
000003e0: e0e7 693c 22bd 86be 1f52 5c3f 735c 3e3f
000003f0: e35c 6bbe 9a64 973e 4ac9 98be b611 07bd
-0.1819277 -0.22374767 -0.39776683 -0.11880598 -0.16949043 -0.06689629 -0.08976443 -0.05792288
0.034009494 0.018205948 0.07677315 -0.13433856 0.039636895 0.06695379 -0.05197786 -0.09721044
0.090037264 0.0001332859 0.08375205 0.0069062584 0.19936877 -0.22977473 -0.28124335 -0.029315388
-0.2181094 -0.19715773 0.10406303 -0.14852907 -0.0062380126 -0.15310474 0.14832321 0.11254159
0.038337406 0.13914336 0.23916443 0.12659056 0.13535908 -0.31234595 0.38414237 -0.4553138
-0.75702125 -0.22181846 0.4468174 -0.07627668 0.5097533 -0.20739113 -0.112598896 -0.40514666
0.25382286 0.16309772 0.011658914 -0.16671816 -0.124227636 -0.21855645 0.15153284 0.08162671
0.49721465 -0.17769445 -0.33946368 -0.04264082 0.51328456 0.24795456 0.6966935 -0.20056066
-0.19440106 -0.50971246 -0.17389083 -0.014127349 -0.1267031 -0.72911435 -0.10902249 -0.28589332
0.30804825 -0.14431044 0.35174662 -0.24700524 -0.7411782 -0.12521724 0.20511685 -0.17256714
0.1454733 -0.41844875 -0.056157734 0.09835082 -0.31716907 0.041245937 -0.0011407873 0.209835
0.5838388 0.41980132 0.34275192 0.09399011 0.16056317 0.29922777 -0.10154422 0.008739391
0.2577168 0.1275821 0.18005179 -0.030041901 -0.050289217 -0.20346673 -0.10305026 -0.050857466
-0.058337327 -0.1709153 -0.0867477 -0.15715884 -0.22989109 0.109136656 0.039005123 -0.28371233
0.25151363 0.087764435 -0.3992184 0.19240856 0.13049105 -0.08687031 -0.30651936 -0.24433206
0.0022045046 -0.23774324 -0.27193087 0.37874508 -0.0318276 -0.13493441 0.24356683 -0.15584938
-0.016464245 -0.23568991 -0.2414786 -0.1603877 -0.40549427 -0.29373926 -0.084908396 -0.067227736
-0.060205705 -0.41556582 -0.070285134 -0.09810662 -0.48357278 -0.53482145 -0.6824373 -0.79557925
-0.17942537 0.5994888 -0.14661092 0.18978252 0.7315158 0.12846375 -0.6346327 0.09373464
0.28654468 0.14147826 0.24050212 -0.26737064 0.07805977 0.2613265 -0.37480754 -0.36932716
-0.16380636 -0.67775315 -0.027266389 0.14861664 0.4438736 -0.36565718 -0.25426266 0.20387149
-0.72379446 -0.29084134 -0.087424286 0.18239719 -0.015621532 0.17669581 0.07185833 -0.14231856
-0.03791142 -0.040132273 -0.1322607 -0.09097729 -0.24750647 -0.3041716 0.20314354 -0.72051036
-0.5641207 -0.35048473 0.35042155 -0.20079975 0.5441424 0.22235622 -0.20404199 -0.99810576
1.020968 0.30648312 -0.3285926 0.37577438 0.18971863 -0.39366633 -0.3637281 -0.37958947
0.08798237 -0.29730678 -0.39813524 0.032193802 0.30905607 0.13256097 0.44818032 -0.11169492
-0.049957547 -0.09053453 -0.005912097 0.05281763 -0.13678174 -0.44208166 -0.34974086 -0.6014272
0.16965188 0.2412886 0.59060425 -0.037101958 -0.23459192 0.10755226 -0.58313143 -0.5094219
-0.36495376 0.042542327 -0.06082748 -0.14470994 -0.28190395 -0.25449276 -0.36626744 -0.42010504
-0.27746218 -0.31610265 0.016302707 -0.018361062 -0.27316475 0.071594656 0.15846688 -0.08902083
-0.2705288 -0.036891848 -0.22539854 -1.6536018 -0.689188 -0.6191291 -0.87750584 -0.10077283
0.014276475 -0.26316172 0.86062807 0.74359816 -0.22984652 0.2956894 -0.2984107 -0.032975875

layer3.0.bias f4 [64]
00000000: 4f88 a6bd aa84 c1bc 454b 873d c69e bb3d
00000010: ffbb 703b 435b f5bc 41cd ee3c 0993 e3bc
00000020: b132 1bbc 0f1b b43c 0907 2fbd 01fc 0c3b
00000030: 191a e33c 8ec8 9a3b db7d 2abc af72 cc3d
00000040: 68f2 e2bc a1b7 a6bb 56cf 493d 0df9 493d
00000050: f5df 313b 29ff e9bb 39aa 00bd dfa8 d4bc
00000060: 8a51 1bbd e8a0 91bc b4eb 483c de74 1fbb
00000070: 6302 e7bc ccd3 69bd 9d29 49bd 63da 7fbc
00000080: 8c04 823c 1f4a 80bd d97f c03c f853 e73c
00000090: 7247 8cbd 4d82 4fbc 2045 60bc ce26 6f3c
000000a0: 834f bcbc 5826 36ba af72 153c b014 0d3d
000000b0: a1b7 be3c 0756 08be 7583 39bd 7a46 fe3d
000000c0: 1c9e 44bd 5bab 68bc 4f3f 7abd 8024 50bd
000000d0: c228 16bd 6084 55bd ab5c 1dbd 26cd cb3c
000000e0: 1dd1 303d b775 4d3d a815 d7bc 5e64 0bbe
000000f0: 405d 353d c1f1 15bc 797f 42bd bc83 31bd
-0.081314676 -0.02362283 0.066061534 0.09161143 0.0036733148 -0.029950744 0.029150607 -0.027780073
-0.009472535 0.021985559 -0.04273132 0.002151251 0.027722405 0.004723615 -0.010405983 0.09982812
-0.027703479 -0.0050878082 0.049269997 0.04930978 0.0027141545 -0.007141013 -0.031412337 -0.02595943
-0.03791956 -0.017776921 0.012263227 -0.0024331133 -0.02819938 -0.05708675 -0.04911195 -0.015616032
0.015871309 -0.062641375 0.023498463 0.028238282 -0.068495646 -0.0126653435 -0.013688356 0.014596654
-0.022987133 -0.00069484627 0.009121581 0.034443557 0.02328092 -0.13314067 -0.045291383 0.12415786
-0.048002347 -0.014201011 -0.061095532 -0.05081606 -0.036659963 -0.052128196 -0.038418453 0.024878096
0.043168176 0.05016109 -0.026255444 -0.13612506 0.044278383 -0.009151877 -0.04748485 -0.043338522

layer3.1.weight f4 [64]
00000000: 8eb1 ba3f cb9a b43e 2446 7c3f 1278 ed3f
00000010: 64d5 6e3f 2426 7e3e a9f3 4a3f 38d2 283f
00000020: 3ebd c83f ae49 833f 352d f83e 4cfc 263f
00000030: 6791 623f 125b a43f d6a4 263f a6d7 da3f
00000040: 130d aa3f 7213 583f 8a2f b93f 004b ac3f
00000050: ff55 113f 8525 773f b788 293f 0fa0 5f3f
00000060: 740d 8c3e 05df e63f 95ec 893f ba1e 813f
00000070: 1b1b 023f a593 bc3f 03e6 ba3f dc82 513f
00000080: 4241 f63e 8b09 883f 3f2d a23f 567b 3e3f
00000090: 36ef 863f ad8d 523f 6cc5 b83f e01f 803f
000000a0: ab29 963f c9d2 8f3f 3a41 a63e 34d5 983f
000000b0: 8dea 873f 062a 8e3f 94a7 033f 8941 f33f
000000c0: f26c 2f3f f80f 413f 5a60 ad3f a9fc 1a3f
000000d0: 61e5 763f fab5 6d3e bc03 783f 6880 a73f
000000e0: bb4f 2e3f 40c2 233f 8054 153f ff87 e23f
000000f0: 0a76 3a3f 88c0 ec3e 17d9 513f eb2a 8c3f
1.4585435 0.35274348 0.98544526 1.8552268 0.9329436 0.24819237 0.79278046 0.6594577
1.5682752 1.025686 0.4847199 0.65228724 0.88503116 1.2840292 0.6509527 1.7097061
1.328524 0.8440467 1.4467633 1.3460388 0.56771845 0.96541625 0.66224235 0.87353605
0.27354014 1.803681 1.0775324 1.0087502 0.5082261 1.4732558 1.4601444 0.818403
0.48096663 1.0627912 1.2670058 0.74406946 1.0541751 0.8224743 1.4435248 1.0009727
1.1731466 1.1236202 0.3247164 1.1940064 1.0618454 1.1106575 0.5142758 1.9004375
0.6852561 0.7541499 1.3545029 0.6054178 0.96443754 0.2321395 0.968807 1.3086061
0.6809041 0.63968277 0.5833206 1.7697753 0.72836363 0.4624064 0.8197188 1.0950598

layer3.1.bias f4 [64]
00000000: 54c9 59bf c32c b3be eba2 c43c 1721 b6bd
00000010: ba5e 0dbf e4af 9fbe 059c c9be 7145 11bf
00000020: 7d19 efbe 83bb e1be 2199 35bf dcde d2be
00000030: b1cc 40bf 8a0d 1ebf 475f 26bf f78f bdbe
00000040: 98aa 76bf 6d2f 27bf 284c 95bf 2c0a 32bf
00000050: a4c9 6fbf 1c02 bbbe d9bc d3be 9baa 1bbf
00000060: f57e d1be c70c d4be 8450 16bf f04e 21bf
00000070: 3caa d8be ea01 79be f702 6cbe e94b b3be
00000080: c35d cdbe caeb 38bf 805b 3abf fe50 45bf
00000090: 1c15 11bf 809f 13bf 3dd4 55bf a764 6abe
000000a0: 72af 74bd 2888 ffbe f25b 97be be65 3dbf
000000b0: db68 a3be fc83 a73d 4171 cbbe c812 57bf
000000c0: 3cc4 0dbf 1136 74bf f790 dabe 5ffa a6be
000000d0: 733f 05bf a08d f4be e209 a63e e37c 23bf
000000e0: acac 10bf c62b 1abf f66e a6be ea76 01bf
000000f0: 5111 a7be 9c96 97bf 8787 44be 0242 ab3d
-0.8507283 -0.34995088 0.024003467 -0.0889303 -0.55222666 -0.3118888 -0.39376846 -0.56746584
-0.46699134 -0.44088373 -0.7093678 -0.41185653 -0.75312334 -0.6173941 -0.6498913 -0.370239
-0.96354055 -0.6530674 -1.1663866 -0.6954677 -0.93667054 -0.36525047 -0.41355017 -0.608072
-0.40917173 -0.41415998 -0.5871661 -0.63011074 -0.4231738 -0.24317136 -0.23048006 -0.35018852
-0.40110597 -0.72234786 -0.7279587 -0.7707671 -0.56672835 -0.5766525 -0.83526975 -0.22889958
-0.05973763 -0.49908566 -0.29562336 -0.7398337 -0.31915936 0.08179471 -0.39734843 -0.8401303
-0.55377555 -0.95395 -0.42688724 -0.32612893 -0.5204994 -0.477643 0.32429415 -0.63862437
-0.56513476 -0.6022304 -0.3250653 -0.50572073 -0.326304 -1.1842837 -0.19192325 0.08362199

layer3.1.running_mean f4 [64]
00000000: 1391 76c1 94e7 8140 6bce 9ac1 2507 08c1
00000010: e667 4e40 54d6 983f 447b 29c1 013b e8c0
00000020: 4b2c 2cc1 ea3d e7c0 d795 3640 852c fa40
00000030: 4ef9 ddbe 2ddb b1c1 73cf 3d40 9a21 2bc1
00000040: 41e7 4d3f 696a 90c1 8203 2fc1 5268 b1c1
00000050: 7cc9 e23f 9e75 78c0 fcb5 b5bf c23d 5bc0
00000060: b7e0 0740 98ce a6c1 11c2 23c1 07ae 15c0
00000070: 0f94 60c0 e0f0 e5c1 aa65 f3c1 1ea0 b2c0
00000080: c800 6840 d8e6 0dc1 e7d7 2dc1 b5db e8c0
00000090: 4008 e4c0 a1a0 1c41 4581 b3bf 1d4a c2c0
000000a0: ab96 a0c1 284a d1c0 1329 4040 5376 0141
000000b0: ee27 fdc1 1973 583f fcb1 7fc0 8d29 47c1
000000c0: f561 0dc1 671a 15c1 d18a 9ac1 14e8 b9be
000000d0: d0bb 9940 61b0 5bc0 e4ae 9ac0 c23d c3c1
000000e0: 4fe2 23c1 9418 a9c0 3ab8 cb3f d0d8 5fc0
000000f0: e0b2 0941 873d 0b40 0598 583f 34fd 2bc0
-15.4104185 4.059519 -19.35079 -8.501744 3.2250915 1.1940408 -10.592594 -7.2572026
-10.760814 -7.226308 2.8528955 7.8179345 -0.43354267 -22.23202 2.9657867 -10.6957035
0.8043099 -18.051958 -10.938356 -22.175938 1.7717738 -3.8821788 -1.4196162 -3.4256444
2.1230905 -20.850876 -10.2348795 -2.3387468 -3.5090368 -28.742615 -30.42464 -5.5820456
3.6250477 -8.868858 -10.865211 -7.2768197 -7.126007 9.789216 -1.4023825 -6.071547
-20.073568 -6.5403023 3.002507 8.091388 -31.644497 0.84550625 -3.9952383 -12.447644
-8.836415 -9.318946 -19.317781 -0.36309874 4.8041763 -3.4326403 -4.833849 -24.405155
-10.242751 -5.2842503 1.5915596 -3.4976082 8.606171 2.1756303 0.84606963 -2.6873293

layer3.1.running_var f4 [64]
00000000: 84d8 8c43 3bd1 9e41 2f47 7c43 1474 4f43
00000010: 3783 8842 6738 4b41 3115 aa42 e67d 3942
00000020: 7a87 4443 e15d c842 3080 ed41 2d58 d641
00000030: c5a5 5b42 48b5 6443 b38a 0742 b828 a543
00000040: 894b c742 03f4 8642 7d53 7642 12cb 6343
00000050: 810d d141 8719 3942 6202 3d42 86d4 de42
00000060: 1669 9741 b4d3 8643 d52c 5143 03c8 1c42
00000070: 8dfc 1442 8f10 1543 c887 9543 9b8a b142
00000080: a542 fb41 5510 0b43 9232 e642 0c1d b141
00000090: e610 7242 8864 1d42 9e12 8b42 8886 db42
000000a0: 9086 f342 f664 1843 33a1 a641 5bd5 ba42
000000b0: 5704 0743 ec1c bc42 7eb2 0142 8a3b 3443
000000c0: 8eb6 3a42 0541 0d42 6aba d042 fb11 1042
000000d0: 6278 ff42 93b2 2241 2997 2443 410c 3343
000000e0: dc85 6042 001e 7142 d7c6 2842 df94 8543
000000f0: c258 0c43 4428 e741 a2d9 fa42 c638 1043
281.69153 19.852163 252.27806 207.45343 68.25628 12.70127 85.04139 46.372948
196.5292 100.18336 29.687592 26.793055 54.911884 228.70813 33.88545 330.3181
99.64753 67.476585 61.58153 227.79324 26.131594 46.27493 47.252327 111.415085
18.926311 269.65393 209.17513 39.195324 37.24663 149.06468 299.0608 88.77071
31.407541 139.0638 115.09877 22.139183 60.516502 39.348175 69.53636 109.76276
121.76282 152.39438 20.82871 93.41671 135.01695 94.05649 32.42431 180.23257
46.678276 35.313496 104.36409 36.01756 127.73512 10.168597 164.59047 179.04787
56.130722 60.279297 42.19418 267.16306 140.34671 28.89466 125.425064 144.22177

layer4.0.weight f4 [64, 64, 3, 3]
00000000: 4fa9 eebb fa00 303d f572 c33d bbdf b6bd
00000010: f801 813d 789c 66bd 24e9 943d 1a85 933e
00000020: dac1 f73d 3e95 25be e6db 17be 0fc7 34be
00000030: 0c20 50be 1094 29be c3ba 4bbe 77b0 41be
00000040: 18dd 1ebe b017 30be 4b07 9fbd 86f6 8abd
00000050: cca1 04be 6aa7 b5bd 6390 42be ef81 29be
00000060: 5c23 673d f9ff ed3d c6d6 773c dd41 f3bc
00000070: 84a4 9bbd 7b48 d3bd 32d8 a83e 9aa8 863e
00000080: 2823 183d dffb 013e 3d02 f5bc e553 a1bc
00000090: bc75 28be 3791 28be fb2f 33be df1c eabd
000000a0: 9a3d 10be 1b18 1abe c6b2 84bd 321e f03d
000000b0: 4a20 2a3e 9cff 9cbd d404 06be 4321 15be
000000c0: c83d 0bbe a421 babd 20b7 0fbe 2893 14be
000000d0: 7f06 16be 03b8 2abe 7fe6 8bbd d8b5 d7bc
000000e0: 6759 72bd d9b9 0cbe de64 00be 778f 1bbe
000000f0: 3224 c7bd 0636 f9bd 1be5 a2bd 658f cdbd
00000100: 0b1a c5bd 394c 41bd 0a72 0dbe 04f8 bdbd
00000110: 23e7 c1bd c3a3 04be 7ed8 c5bd fd7a 82bd
00000120: 32ae a03c 008d efbc 36df 04bc b186 513d
00000130: e9be de3b cae1 923c 100f 293e a139 0b3e
00000140: 7a09 533d d39c 1bbd 85dc 07bd 391e 06be
00000150: 3eb5 e9bd 86b1 24be 984c 13be 6132 e4bd
00000160: 3e4f 04be ff7f 0bbe c4b3 65be 02b7 afbe
00000170: 7aee e4be f25b b3be 62dd 96be 6321 bcbe
00000180: 1fba 8abe a74d 9abe e992 9dbe 08a3 e7bd
00000190: 2c0e a4bd 08bd 4cbd a402 8cbd 7238 e0bd
000001a0: c725 50bd c66e d0bc 93a7 75bd 0d9b 30bd
000001b0: 34b5 b3bd de64 18bd b4dd e7bd 8ce4 94bd
000001c0: aee6 45bd 3816 83bd 1f86 86bc 154f 6abc
000001d0: d298 d1bc e6e8 31bd 27cb 43bd bba7 323d
000001e0: 7b23 96bc 8fa5 2f3c a346 3dbd bbcc 1f3e
000001f0: 3922 b83d 3b07 2f3c 8e4d 50bd 0228 00be
00000200: 2fb4 3dbd f222 a0bd df9c 0abe d598 81bd
00000210: 435b 97bd b781 93bd 2256 14bd 7098 cd3b
00000220: 0f5d 803c d7b9 573d 99e7 2f3e 43f8 af3e
00000230: 0ca9 2c3e 5545 4e3e 7b18 323e 9fd0 223d
00000240: cf91 78bd fab3 f3bd c42f dcbd bc43 4dbd
00000250: e675 b83d 5888 2c3e f330 573e 8848 7a3e
00000260: b832 193e 00ba 97bd 80f9 37bd 0d8e 6cbd
00000270: 6e21 dbbd 8548 bdbd c4b7 c1bd 52b3 d7bd
00000280: b95b 59bd 8479 a0bd 6fe2 71be 0b97 acbd
00000290: 84b0 4fbd 28bc 76be 0a62 ecbd 2722 97bd
000002a0: 66bb b7bd febe a1bd ef40 a43d 8ead 2dbb
000002b0: 832a 82bd e3c5 f6bd ef61 8cbc 0eef fbbc
000002c0: b006 9abd ad50 93bd e81f f2bc fa9b 433c
000002d0: b752 a3be c57a a5be bf6f b7be f648 8bbe
000002e0: 9bce f1be 288d abbe 0708 45be ede3 9bbe
000002f0: f260 44be 9efe fa3c db5d 75bc d4c9 6e3e
00000300: c08e 4abd 3b03 e3bd 3180 523e a9bd b7b9
00000310: 1376 553d b31e 1f3e 9cfe e2bd 05b9 9fbd
00000320: abba 12bd 74e0 d8bd e40c c4bd c749 a2bd
00000330: 573f 68bd 4c38 9ebd bc03 3dbd e8ea 0ebe
00000340: 6843 46be c911 26bd 96eb eebd b0aa 78be
00000350: af00 7ebd ba78 bbbd 1144 afbd d745 6bbd
00000360: 13c6 b2bd f485 e8bd b841 1ebe c6ff dcbd
00000370: 129d d8bd 37cd 31be fe34 36be 6c3c 14be
00000380: 6c8e 19be 9dfb 353e 1315 8d3e 89bb 173e
00000390: b6ab 7b3e ad2c 233f 0973 363f 38a4 803e
000003a0: f715 a03e 7070 453e 33f0 993d 1ad1 7a3c
000003b0: ad92 413d 5c4e 813d ec3c 2f3c e228 8e3d
000003c0: b4a9 ea3b 0ce1 113d e076 1e3d 4b29 ddbd
000003d0: 607e 81bd f469 c3bd 202c bcbd f4bf bebd
000003e0: 34fa cfbd b94e f4bd 7872 6dbd 2b72 80bd
000003f0: 45dc 35be ad11 4cbe b8d8 02be 4684 84be
-0.0072833668 0.04296968 0.09543411 -0.08929392 0.06299204 -0.056301564 0.072710305 0.28812486
0.12097521 -0.16170213 -0.14829978 -0.1765406 -0.20324725 -0.16560388 -0.19895463 -0.18914972
-0.15514028 -0.17196536 -0.07765063 -0.06785302 -0.12952346 -0.08869822 -0.19000392 -0.16553472
0.056430206 0.116210885 0.01512689 -0.029694492 -0.07599738 -0.10316559 0.32977444 0.26300508
0.037142903 0.12693737 -0.029908294 -0.019693324 -0.16451162 -0.16461645 -0.17498772 -0.11431288
-0.14085999 -0.15048258 -0.06479411 0.11724509 0.1661388 -0.07665941 -0.1308778 -0.1456347
-0.13597786 -0.09088448 -0.140347 -0.1450926 -0.14650916 -0.16671757 -0.06831073 -0.026331827
-0.059167292 -0.1374277 -0.12538478 -0.15191446 -0.097237006 -0.12168507 -0.07953855 -0.10037116
-0.09624108 -0.047191832 -0.13813034 -0.09275821 -0.09467914 -0.12953095 -0.09660433 -0.063711144
0.019614313 -0.029242039 -0.008109858 0.051153842 0.0067976606 0.01792993 0.16509652 0.13596202
0.05152271 -0.037991356 -0.03316929 -0.13097467 -0.11411522 -0.16083345 -0.14384687 -0.111424215
-0.12920853 -0.13623045 -0.22431856 -0.3431931 -0.44713193 -0.35031086 -0.29465777 -0.36744222
-0.27095124 -0.3013737 -0.30776146 -0.113103926 -0.080105156 -0.04998496 -0.06836441 -0.10948266
-0.050817277 -0.025443446 -0.059974264 -0.043116618 -0.08774796 -0.03720557 -0.113215834 -0.07270154
-0.048315696 -0.06400722 -0.016421376 -0.014301081 -0.025585566 -0.043435 -0.047801163 0.04361699
-0.018327465 0.010720625 -0.046209943 0.15605442 0.089909025 0.010682876 -0.050855212 -0.12515262
-0.046314415 -0.07819165 -0.13536404 -0.063279785 -0.07390454 -0.072024755 -0.036214955 0.0062742755
0.015669374 0.052667465 0.17178191 0.34369096 0.16861361 0.20143636 0.17392151 0.039749738
-0.06068593 -0.11899562 -0.10751298 -0.050113425 0.09006862 0.16848886 0.21014766 0.24441731
0.14960754 -0.074085236 -0.044915676 -0.057752658 -0.106997356 -0.09242348 -0.09458879 -0.105322495
-0.05306599 -0.07835677 -0.23621534 -0.08427247 -0.050705448 -0.24095213 -0.11542137 -0.07379561
-0.0897129 -0.07897757 0.080201976 -0.0026501152 -0.06355765 -0.12049463 -0.017136542 -0.030753639
-0.07520807 -0.07193122 -0.02955623 0.011939043 -0.31899044 -0.32320228 -0.35827443 -0.27204102
-0.4722794 -0.3350613 -0.19241343 -0.3044733 -0.19177607 0.030638989 -0.01497599 0.23319179
-0.049452543 -0.110846005 0.20556714 -0.00035045788 0.052114557 0.15539055 -0.11083719 -0.077989615
-0.03582255 -0.10589686 -0.09572771 -0.07924228 -0.05670103 -0.077255815 -0.04614614 -0.13956797
-0.19361651 -0.040544305 -0.11666028 -0.24283862 -0.06201237 -0.09153886 -0.085579045 -0.05743965
-0.08729186 -0.113536745 -0.15454757 -0.107909724 -0.10576834 -0.1736344 -0.17793652 -0.14476174
-0.14995736 0.17771764 0.2755514 0.14817633 0.24577221 0.63740045 0.7126928 0.2512529
0.31266758 0.19281173 0.075165175 0.015308643 0.04725902 0.06313774 0.010695677 0.069413915
0.0071613435 0.035615012 0.038687587 -0.10798892 -0.06322932 -0.09541693 -0.09188104 -0.09313956
-0.10155144 -0.11929078 -0.057970494 -0.06271776 -0.17759807 -0.19928618 -0.12777984 -0.25882167

layer4.0.bias f4 [64]
00000000: 005f 93bd 0e3a 50bd 3374 89bd 1726 36bc
00000010: f47e 8cbc 40c0 52bc 891f 3abd fcdc 033d
00000020: dde9 acbb 348f c33c 1501 0ebd eadc 043d
00000030: de15 57bd b631 8abd 1d89 83bd 42e7 9cbd
00000040: 84c9 353d d34d 24bc 168b 1e3d 3bbc 24bd
00000050: fc51 07bd c5c2 3d3c 7817 4d3b de7f b53b
00000060: ec8c 0d3e d5d6 39bd 83d2 953c aa80 e1b8
00000070: 4cb7 3d3c a9b3 bfbd eb54 663d 72f0 9bbc
00000080: 5a57 91bc f913 733c 695d 0bbd bb58 28bd
00000090: c04c 873c 70d8 17bd eee5 d9bd a87b bcbc
000000a0: c268 073c 44fb e33b 57d5 4cbb 3e3b c7bd
000000b0: c78d c6bc add6 82bd a84a 023d 17f7 b9bc
000000c0: fb74 febc e7ea 843d 1d64 9fbc 4410 24bc
000000d0: ec2e e1ba 18e7 abbd 13f4 6d3c 7608 693c
000000e0: 574b a7bd ea6a 91bd 4dc4 4d3d c6dc b83c
000000f0: a113 46bd 79e1 b43c 080f c63b bd45 453d
-0.07195854 -0.050836615 -0.06711616 -0.01111748 -0.01715038 -0.012863219 -0.04544023 0.03219317
-0.005276902 0.023871996 -0.034669 0.032437243 -0.05251109 -0.06747763 -0.06422637 -0.076612964
0.044381633 -0.01002832 0.03870686 -0.040218573 -0.03303717 0.011582081 0.0031294506 0.0055389246
0.13823289 -0.045370895 0.018288856 -0.000107528016 0.011579346 -0.09360439 0.056233328 -0.019035552
-0.017741848 0.014836305 -0.03402463 -0.041100245 0.01651609 -0.037071645 -0.10639559 -0.023008183
0.008264722 0.0069574434 -0.003125509 -0.097280964 -0.024237527 -0.063886024 0.03180948 -0.02270083
-0.03106164 0.064901166 -0.019456917 -0.010013644 -0.0017180122 -0.08393687 0.014523524 0.014223209
-0.08168667 -0.0710047 0.050236035 0.02256621 -0.048358563 0.02208017 0.0060442723 0.04816221
