results/RENet-dataset-Conv64F-5-1-Jan-08-2024-14-32-52/checkpoints/emb_func_00030.pth (torch, 463459 bytes, 24 tensors)

layer1.0.weight f4 [64, 3, 3, 3]
000000 36 e9 91 3e 30 33 a0 bd f6 9e 52 be 07 ad 6e bf
       0.28498238 -0.07822263 -0.20568451 -0.9323277
000010 72 21 35 bf da 7c 4a bd 49 9a 49 3d a0 07 13 3f
       -0.7075416 -0.049435474 0.049219403 0.5743351
000020 47 9f 2c 3f c5 90 96 3e 94 55 8b be 19 1b 9a be
       0.6743054 0.29407325 -0.27213728 -0.300988
000030 4a 3c 88 bf 9d 3f 58 bf 79 74 ba bd b6 e1 f8 3d
       -1.0643399 -0.84472066 -0.09104247 0.12152426
000040 ac 43 33 3f e7 f7 5d 3f df d0 eb 3e d7 dc 50 bd
       0.70025134 0.86706394 0.46057793 -0.05099186
000050 75 bf 0e bd 1e 90 34 bf 7a 5c 19 bf 3f 5a 25 3e
       -0.034850556 -0.70532405 -0.59906733 0.16147707
000060 80 96 21 bd 6c 86 fb 3e 1d d1 33 3f c7 d5 76 be
       -0.03945017 0.49125993 0.70240957 -0.24104987
000070 41 4a 52 be 7e 5c 90 be 16 17 83 be 13 e4 15 be
       -0.20536138 -0.28195566 -0.2560355 -0.14637785
000080 af 53 9e be f2 ec 81 bd 52 23 e2 bd 9a d9 28 be
       -0.3092322 -0.06344022 -0.11041893 -0.16489258
000090 7f d9 a3 bd 10 6d 60 3d e2 a2 94 bd a9 c1 6e bb
       -0.080004685 0.05479151 -0.0725763 -0.0036431348
0000a0 b0 1a 2e 3d c8 28 88 bd 35 2f e6 3d 55 4d 4a 3d
       0.04250592 -0.066484034 0.11239473 0.049390156
0000b0 c9 a9 8b 3c a8 76 d1 bc c8 36 c7 3d 9b 59 28 3a
       0.017048733 -0.025569275 0.097272456 0.00064220437
0000c0 38 ee 96 3c bf e5 f4 3d fd 0b ba 3d 28 2b 3f 3e
       0.018424138 0.11957883 0.09084318 0.18668807
0000d0 61 d1 23 3e ef c0 c5 3d 09 82 e7 3d cf 38 09 bd
       0.1599784 0.0965594 0.11304099 -0.033501443
0000e0 ba 32 3b bc b9 35 c8 be 2e 50 d1 be c7 46 d7 be
       -0.011425668 -0.39103487 -0.40881485 -0.42046186
0000f0 e9 9d 96 be 27 72 81 be b0 df bf be cd d4 9f 3e
       -0.2941735 -0.25282404 -0.37475348 0.31217042
000100 d5 48 8d 3e 78 00 5d 3e 5f c9 ef 3c 7d f0 15 3d
       0.2759463 0.2158221 0.029270826 0.0366063
000110 96 36 fa 3b 9d c9 2a be 3a 1d 7f be 96 7c 9f be
       0.0076359017 -0.16678472 -0.24913493 -0.3114974
000120 6b 64 dd 3e f7 bf d8 3e 1a d2 cf 3e e7 d3 a9 3e
       0.43240675 0.42333958 0.40589982 0.3316948
000130 d5 8a 93 3e 11 ca 2a 3e cf c1 ff 3c 2e 7b 1c bc
       0.28816858 0.16678645 0.031220345 -0.009550853
000140 bb 76 ee bd 89 fa f7 3e 67 cb 59 3f 94 a5 46 3f
       -0.1164374 0.4843333 0.8507599 0.775964
000150 4e 29 ef be 03 15 03 bf 7e de 60 be 1d 55 1f be
       -0.467112 -0.51203936 -0.21959874 -0.15559812
000160 a0 14 e7 be 1b 0f de be f0 24 1a 3f 1b 63 86 3f
       -0.45132923 -0.433709 0.6021261 1.0498995
000170 14 3b 86 3f 04 77 14 bf c7 db 41 bf e4 79 d6 be
       1.0486779 -0.57994103 -0.7572598 -0.4188987
000180 53 27 a8 be 45 36 63 bf 73 73 55 bf cd 5a 12 3f
       -0.32842502 -0.88754684 -0.83379287 0.571698
000190 84 f7 89 3f 83 e6 85 3f 33 e7 9c be 5d 1c cf be
       1.0778661 1.0460972 -0.3064514 -0.40451327
0001a0 dc 1d 16 be a2 86 33 bd 18 c7 25 bf bb 7a 09 bf
       -0.14659828 -0.043829568 -0.6475692 -0.53702897
0001b0 d2 89 cb 3e b0 30 84 3d 55 6a 16 be 72 21 6f 3f
       0.39753586 0.06454599 -0.14689 0.9341041
0001c0 5d f9 c4 be 28 c0 e3 be 29 f8 83 3f fc 6d fb be
       -0.384715 -0.4448254 1.0310107 -0.4910735
0001d0 e9 e4 1c bf be 98 ce 3d f6 a6 f2 bd b1 bc 32 be
       -0.6128679 0.10087727 -0.118482515 -0.17454793
0001e0 1f 15 2b 3f d2 05 18 bf 69 42 24 bf 0a ce 5c 3f
       0.66829103 -0.5938388 -0.64163834 0.8625189
0001f0 3c 63 31 bf f7 32 2b bf 28 2a 59 3e db 6a 78 3d
       -0.69292045 -0.6687464 0.21207488 0.06064878
000200 5c a1 ec 3d 70 ca 21 3f 2b 28 d6 be 65 2a 9f be
       0.11554214 0.6319952 -0.4182752 -0.31087032
000210 41 0b 4e 3f 66 34 01 bf 80 9d cb be f9 6f b3 bc
       0.8048592 -0.5047058 -0.397686 -0.021903979
000220 fb be 91 3c bc b9 31 bc 8e f8 31 3e 48 6b 65 3e
       0.017791262 -0.010847505 0.17379972 0.22404206
000230 3a 20 65 3e 2b 38 ec 3e 95 b1 14 3f f3 2e 0d 3f
       0.22375575 0.46136603 0.5808347 0.55149764
000240 4e 79 86 3c 4f 10 7d 3d 16 bd e9 3d bb 98 05 bf
       0.016415264 0.06178313 0.114130184 -0.52186173
000250 90 52 20 bf 19 15 21 bf 16 96 fa be aa 91 02 bf
       -0.6262598 -0.6292282 -0.4894263 -0.51003516
000260 4c 44 cc be 07 80 3d 3f 01 cf 40 3f 0a 6b 22 3f
       -0.39895856 0.7402348 0.7531586 0.6344458
000270 0f 9a 24 3e 8c 6e 39 bc 7a 95 7d 3c 4e 3a f8 3d
       0.16074394 -0.01131786 0.0154775325 0.12120496
000280 85 d9 bf 3d 1a b5 10 3e de cd 21 bf 3a ea 31 bf
       0.093676604 0.14131585 -0.63204753 -0.69498026
000290 24 e1 88 be ad 6f 33 bf 4c 2b 9b be 33 55 87 3e
       -0.2673427 -0.7009228 -0.3030647 0.2643219
0002a0 ff ba ae 3d fc 3c e2 3e c8 f2 46 3f 9f 7a 20 bd
       0.085317604 0.44187152 0.77714205 -0.03917944
0002b0 a7 c4 be bd 15 29 36 3e d3 9f cd be 38 b6 8a 3d
       -0.09314852 0.17789109 -0.40161 0.06773037
0002c0 ef 3a e6 3e b3 a7 b7 3d 2b 3a d2 3e b2 53 ef 3e
       0.44966838 0.08967533 0.41060004 0.46743542
0002d0 d0 af 33 3d ec 98 09 be d1 84 1d 3e 26 27 e1 be
       0.04386884 -0.13437241 0.15382697 -0.4397518
0002e0 3c 35 f3 bd 4a 16 6b 3e 0e 90 ac be 16 65 10 be
       -0.11875388 0.22957721 -0.33703655 -0.14101061
0002f0 e5 57 79 bd e3 83 27 3f 92 00 51 3f 38 f5 4e 3f
       -0.06087484 0.6543562 0.81641495 0.80842924
000300 90 de c8 be 01 b4 8e be 8d d6 f4 bd 77 b9 3f bf
       -0.39232302 -0.27871707 -0.11954985 -0.7489237
000310 e4 9f 15 bf 9d e5 4e be 02 4d df 3e 69 e4 1c 3f
       -0.584471 -0.20204778 0.4361344 0.61286026
000320 3d ba 0c 3f b7 75 d4 be f4 c4 ed be df eb 88 be
       0.5497168 -0.4149606 -0.46439326 -0.26742455
000330 bd b2 69 bf ef 6d 31 bf 5e a7 b0 be 3c 33 f3 3e
       -0.9128836 -0.6930837 -0.3450269 0.47500026
000340 da f1 10 3f 2d bf f6 3e ab f3 af bd 94 02 a2 bd
       0.56619036 0.4819273 -0.08591398 -0.07910648
000350 35 9e f1 3d a7 6f a4 be 7c 18 3c be b4 98 58 3e
       0.11797754 -0.32116434 -0.18368715 0.21152002
000360 22 4d c3 be 1d 1d b6 be ad e0 bc bd b8 dc e5 bd
       -0.38144785 -0.35569087 -0.09222541 -0.112237394
000370 22 66 ac bd c0 c9 94 3d 00 00 64 3e e5 53 5f 3e
       -0.08417918 0.07265043 0.22265625 0.21809347
000380 4e dc 47 3e 97 b1 6a be 19 47 84 be c1 0c 93 bd
       0.19517633 -0.22919308 -0.25835493 -0.07180167
000390 23 1b 03 bd a8 4b da bc 50 c3 57 3d eb 53 82 3e
       -0.0320083 -0.026647404 0.0526765 0.2545465
0003a0 57 30 5d 3e 40 bd 8b 3e 77 fb 0a be e8 6e 2e be
       0.21600471 0.27292824 -0.13572489 -0.17034495
0003b0 0f 2a b4 3c 67 71 09 3c d4 a9 8c 3c 98 86 dd 3d
       0.021992711 0.008388854 0.017170824 0.10816687
0003c0 96 e4 49 3e ba 06 5b 3e d4 8a 1a 3e 59 ac 88 bd
       0.19716105 0.21389285 0.15092021 -0.06673498
0003d0 29 09 3d be 88 38 8f be 3a 55 60 be 6e eb ea be
       -0.18460526 -0.27972817 -0.21907511 -0.45882744
0003e0 6c 24 a4 be c3 b3 38 be 72 1a a5 be a4 42 17 be
       -0.32059038 -0.18037324 -0.3224674 -0.14771515
0003f0 08 3f 62 3d 18 92 d9 bd c2 3b 0d be 67 fe 2b bb
       0.055235893 -0.10623568 -0.13792327 -0.0026244165

layer1.0.bias f4 [64]
000000 c9 06 9a 3c f3 50 48 bd ae 8a 1c 3c 82 53 4d 3d
       0.018802064 -0.048905324 0.009554548 0.050128467
000010 bb 0e 28 3d 91 70 55 3d 8a eb 06 3d db fa a4 bb
       0.041029673 0.052109305 0.03293947 -0.005034787
000020 07 27 82 3c b0 4a d0 bc 1a 8f 53 3d 62 97 f9 3c
       0.01588775 -0.025426239 0.051650144 0.030467693
000030 a0 6c 36 bd cb 81 57 3d 22 b4 6c ba 60 43 31 bb
       -0.044537187 0.052614015 -0.00090295274 -0.0027048215
000040 44 6d 88 bc f1 84 83 bc 54 9d 47 3b 52 5b f3 bc
       -0.016653664 -0.016054602 0.0030458765 -0.02970663
000050 3e d8 67 bd 9d 62 00 bd cc 62 46 bc 5c 36 3c 3d
       -0.05660271 -0.031344045 -0.012108516 0.04595028
000060 e4 5a 37 3d 2b 55 15 bd 59 17 19 bb ab de 8f bc
       0.044764414 -0.036458176 -0.0023359864 -0.017562231
000070 f4 55 05 bd 71 50 2f bc db f5 ac bc ed 4f 0b 3d
       -0.032552674 -0.010700331 -0.021113327 0.03401177
000080 d1 36 f7 bc 3c 62 19 3c 92 a6 0c bd c2 93 9b bc
       -0.030177506 0.0093618 -0.03433854 -0.018991355
000090 2f 35 44 3d ff b8 f4 bc c3 c9 6f bb 5c 09 6e 3d
       0.047902282 -0.02987337 -0.0036588765 0.058114395
0000a0 cf 9c aa 3c 4f ba fd bc f9 a4 15 bd 02 ce ae bc
       0.020826725 -0.030972628 -0.036534283 -0.021338467
0000b0 34 19 9c bc 12 08 d9 3c 45 a6 5d bc eb 34 52 3d
       -0.019054987 0.026493106 -0.013528411 0.051319998
0000c0 28 c1 08 bd 56 e0 9b bc 8e 7c b5 3c b0 0e 47 3d
       -0.033387333 -0.01902787 0.022154119 0.04859799
0000d0 fa 6b 6e 3d c1 91 1f 3c 88 17 28 3b 33 56 df bc
       0.058208443 0.00973934 0.0025648791 -0.027262783
0000e0 29 d3 0c 3d de 78 10 bd 9a 05 83 bc 76 50 50 bd
       0.034381066 -0.035271518 -0.015993882 -0.050857984
0000f0 9b 9a 6f bd 24 50 0b 3d a8 75 87 3b 09 b0 46 3d
       -0.058497053 0.034011975 0.0041338988 0.048507724

layer1.1.weight f4 [64]
000000 85 de 6c 3f 88 da da 3e 3a f6 01 3f 75 53 69 3f
       0.9252704 0.4274485 0.50766337 0.9114297
000010 a3 50 7f 3f 3a ce 0e 3f df 26 38 3f 1a fa 2c 3f
       0.99732417 0.55783427 0.7193431 0.67569125
000020 f0 0d 43 3f 96 15 cb 3e bb eb 7e 3f f4 09 ea 3e
       0.7619314 0.39664906 0.99578446 0.4571072
000030 a0 f8 bc 3e 48 d2 e2 3e 95 19 d6 3e 1e 7f 9f 3f
       0.36908436 0.44301057 0.41816393 1.2460668
000040 67 89 11 3e 66 82 48 3f d7 54 36 3f ec 2b 78 3f
       0.14212571 0.7832397 0.71223205 0.9694202
000050 69 28 d7 3e d2 3a 8c 3e f7 5b 89 3f 45 a4 5b 3f
       0.42023018 0.27388626 1.073119 0.8579753
000060 2f c4 26 3f 77 a1 c0 3e c7 01 99 3f 0f a2 8d 3e
       0.651431 0.37623188 1.1953667 0.27662703
000070 c0 c7 87 3f e4 2b ec 3e 2e b4 b9 3e fe 39 bd 3e
       1.0607834 0.46127236 0.3627028 0.36958307
000080 59 1d 8e 3f 26 d1 3b 3f 89 d3 ab 3f 3d 05 d5 3e
       1.1102706 0.7336601 1.342393 0.4160556
000090 52 a4 08 3e 6b e3 29 3f 9d 3f a7 3e ff b3 24 3f
       0.13343933 0.6636264 0.3266572 0.6433715
0000a0 be 9c 11 3f 99 a5 1c 3f a0 48 bd 3e 75 f8 50 3e
       0.56879795 0.6119018 0.3696947 0.20407279
0000b0 df bc 2e 3d 07 a2 2d 3f 9d 44 31 3f f2 a9 0d 3f
       0.04266059 0.6782536 0.6924532 0.5533744
0000c0 5a 1a cd 3e 7f fb d8 3e 8f 0c 9a 3e a4 64 fd 3e
       0.40059167 0.42379376 0.30087706 0.49490845
0000d0 c8 d0 13 3f 4d dc 44 3f 4b 42 b1 3e da f4 a9 3e
       0.5774045 0.7689865 0.3462089 0.3319462
0000e0 08 ab df 3e 31 05 29 3f fe 3c 20 3f 98 f9 8c 3e
       0.43685174 0.66023546 0.62593067 0.27534175
0000f0 d4 d7 7d 3f 76 2d f3 3e 44 98 94 3e 01 cf f6 3e
       0.9915745 0.4749562 0.2902242 0.48204806

layer1.1.bias f4 [64]
000000 f2 ac 8d 3e da 57 6b be 19 18 da 3d b1 8e 8d 3d
       0.2767101 -0.22982731 0.106491275 0.06911982
000010 b8 f7 22 3e 65 ff 12 bf 0d a9 44 3e 11 41 29 3f
       0.1591481 -0.5742095 0.19205113 0.6611491
000020 a0 00 67 bf c2 62 87 3e b5 7f d4 3d e2 23 93 be
       -0.9023533 0.26442534 0.10375921 -0.28738314
000030 ef 96 cb be ac 14 cc be 91 cb a1 be ee 41 83 3e
       -0.3976359 -0.3985952 -0.3160062 0.25636238
000040 74 0b 93 be e7 11 85 3d ca 93 e5 3e 09 22 7f 3d
       -0.28719676 0.06497555 0.44839317 0.062288318
000050 21 a8 fb bd e7 f0 99 3d b5 79 8c 3e 07 7e e9 3e
       -0.122879274 0.075166516 0.27436605 0.45603964
000060 72 3b d5 be 67 dd cc be 9a 43 12 3f 37 9a 14 be
       -0.41646916 -0.40012667 0.571344 -0.14511953
000070 75 3e 42 3b 57 5b b6 bd 8c 70 ae be 0e 3d b0 be
       0.0029639278 -0.089041404 -0.3407024 -0.3442158
000080 74 85 28 3e a1 0a 05 3f 74 85 f3 bb a5 45 cd 3e
       0.16457158 0.51969343 -0.0074316803 0.40092197
000090 dd ca 11 be 0d c1 6c 3e 69 fd 7d be 9b aa b6 3e
       -0.14237542 0.23120518 -0.248037 0.35677037
0000a0 2b a4 92 bd e8 ad fb bd be ed f9 3d 11 dd a2 bd
       -0.07160219 -0.12289029 0.12203549 -0.07952321
0000b0 3a 59 e9 bd 04 59 96 be 59 7d 20 bf 2e fb 03 3f
       -0.11393972 -0.2936479 -0.62691265 0.51555145
0000c0 67 86 95 3e 49 f0 1f be b2 3b 0a bd c1 38 6c be
       0.29204103 -0.15619005 -0.033748336 -0.23068525
0000d0 79 4c c4 be e3 88 62 3e 0c 44 82 be 0e 8c ba be
       -0.38339594 0.2212253 -0.2544254 -0.36434978
0000e0 56 cf d2 3c 34 65 9d 3d 75 8a 4e 3e b0 e7 8c be
       0.025733631 0.076853186 0.20170005 -0.27520514
0000f0 1e 25 1d 3f 8c 23 01 bf 38 10 a5 be 9a db 1d 3e
       0.6138476 -0.50444865 -0.32238936 0.15415803

layer1.1.running_mean f4 [64]
000000 24 50 b1 bd b6 54 02 bf 00 7d e3 be 83 23 3f bd
       -0.08657864 -0.5091051 -0.44431305 -0.046664726
000010 e0 e1 d6 3d a3 14 33 3f 80 ff 85 be ba 19 59 bd
       0.10492301 0.69953364 -0.26171494 -0.05300305
000020 cd 59 ba bc 4d 43 01 bf df 5f 27 bd 5b 67 d0 be
       -0.022747898 -0.5049332 -0.040862914 -0.40703854
000030 16 ff 98 3d 70 50 9c 3e 76 44 8c 3e e4 a8 42 3a
       0.07470529 0.3053012 0.27395982 0.00074256794
000040 7f 98 5a be 53 e7 bc bd e5 d6 bb bd e2 f6 40 bd
       -0.21347235 -0.09223809 -0.09171847 -0.047110446
000050 5f be 62 be 7d 77 12 3e 88 78 a0 bd e6 4f e7 bd
       -0.22142933 0.14303394 -0.078354895 -0.11294536
000060 d7 91 0a bf ef b2 bd be a4 44 8c bc e1 84 02 be
       -0.54128784 -0.37050578 -0.017122574 -0.12746002
000070 bd 10 1d be 3a 44 b4 be b5 9c 13 3e 02 cc 58 3e
       -0.15338416 -0.35208303 0.14415248 0.21171573
000080 bd 84 80 bd 7a 82 f9 bd 33 9d a5 3d 2c c5 33 bf
       -0.06275318 -0.121830896 0.08086624 -0.70222735
000090 79 67 ac bd 73 cb 3d be 10 6d 3c 3d bd db 0a 3e
       -0.08418173 -0.18534641 0.046002448 0.13560386
0000a0 d3 2a 0c 3e 16 b8 f2 bd a6 68 92 be 80 da 9e 3d
       0.13688211 -0.11851518 -0.28595465 0.07756519
0000b0 ab a2 69 be c3 16 01 bf 00 1b 04 bf 32 36 b6 3d
       -0.22815959 -0.50425357 -0.516037 0.08897056
0000c0 17 6e fd 3e 66 35 ff be 1c f6 83 3e e8 29 0a 3e
       0.49498054 -0.49845427 0.25773704 0.13492548
0000d0 13 56 a6 3c 5f db 46 bd b3 d8 49 be 0d 0a cc 3d
       0.020304715 -0.048549052 -0.1971157 0.099628545
0000e0 7e 4a a5 be 5c 73 9b 3d 39 e9 c3 be d8 31 b0 3d
       -0.32283396 0.075903624 -0.38263872 0.08603257
0000f0 c2 37 e8 bd 46 1e 34 be a9 42 04 3e 41 d9 22 bf
       -0.1133876 -0.17589673 0.12916054 -0.63612753

layer1.1.running_var f4 [64]
000000 c0 1b 2d 40 90 47 d0 3f 09 2f 1c 40 48 45 0e 41
       2.7048187 1.6271839 2.4403708 8.891914
000010 f3 4f 8a 40 1e d3 57 40 b0 d3 0f 40 47 2c ad 40
       4.3222594 3.3722606 2.2472954 5.411655
000020 ed 7d 5a 3f 6a 3f 0d 40 51 16 89 40 a6 81 b5 3f
       0.853484 2.2069955 4.283974 1.418019
000030 09 29 55 3f 1c 1c 8b 3f 15 35 70 3f c6 e9 e3 40
       0.8326574 1.0867953 0.93830997 7.122287
000040 74 c7 da 3f f0 c3 25 40 9b 73 7e 40 34 fe 0e 40
       1.7092118 2.590084 3.975806 2.2342653
000050 75 48 90 3f 8f 27 1e 3f 08 b8 75 40 3a 38 4d 40
       1.1272112 0.6177911 3.8393574 3.2065568
000060 ae 48 a2 40 73 04 55 3f 9b 1e 2e 41 41 42 0f 3f
       5.071372 0.83209914 10.882472 0.5596047
000070 27 72 a7 40 be f6 a4 3f d8 7e 3a 3f 5a a5 2a 3f
       5.2326846 1.28878 0.728498 0.66658556
000080 62 d6 12 41 79 31 cd 40 88 50 77 40 1b 2d 39 40
       9.17734 6.412289 3.8642902 2.893378
000090 df 37 04 3f 8d aa d3 3f 6b 34 df 3e 4a 64 3b 40
       0.5164775 1.6536423 0.4359468 2.9279962
0000a0 81 49 2c 3f c6 d2 d6 3f 3d 6d 1a 40 b5 5e 1e 3e
       0.6729966 1.6783073 2.4129174 0.15465815
0000b0 96 99 cc 3f 31 90 46 40 0c a3 ef 3f cb bd 3b 40
       1.5984371 3.1025507 1.8721633 2.933459
0000c0 b1 1c 01 40 f9 a9 f0 3f 98 41 93 3f c8 7c 40 3f
       2.0173762 1.8801872 1.1504393 0.751904
0000d0 10 c6 07 40 ba 74 3a 40 23 e6 37 3f 7d 16 0c 3f
       2.1214638 2.9133744 0.71835536 0.54721814
0000e0 df 28 bd 3f e0 49 f3 3f 80 43 f7 3f db f9 42 3f
       1.4778098 1.900692 1.9317474 0.761625
0000f0 2a c6 ea 40 44 09 44 3f 89 b7 f8 3e a2 d6 3f 40
       7.33669 0.7657664 0.48577526 2.9974751

layer2.0.weight f4 [64, 64, 3, 3]
000000 5f b0 a3 3e 51 af 6e 3e aa 75 11 be e8 7f f3 bd
       0.31970498 0.23309065 -0.14205042 -0.118896306
000010 40 02 9c bd 07 d6 02 3e d1 20 17 3d 41 a2 da 3d
       -0.07617617 0.12776957 0.03689653 0.10675479
000020 6f a0 ed 3c 93 e8 02 3e 3c 9b 0f 3e 80 40 06 3e
       0.029007165 0.12784033 0.14024061 0.13110542
000030 c9 74 74 3d e2 92 83 3d 49 ab 11 3d ae e6 b8 bd
       0.059681688 0.064245 0.03556374 -0.09028374
000040 0d 89 c9 bd 05 b0 ce bd cb ff 14 3e 29 b3 3c 3e
       -0.098405935 -0.10092167 0.14550702 0.18427719
000050 14 35 14 3e c2 7b aa 3d 04 5a f8 3d 67 77 91 3d
       0.14473373 0.08324386 0.12126544 0.07102852
000060 26 de 8a be eb bb a2 be a1 08 ac be e5 21 7c 3b
       -0.2712261 -0.31783995 -0.33600333 0.003847235
000070 ce 4d 9c bd 74 ae 0c be c2 e4 04 3e ab 70 8d 3e
       -0.076320276 -0.13738424 0.12977889 0.2762502
000080 ab 36 3e 3c 2b 6d 79 be 54 7b 87 be 20 d8 85 be
       0.011609714 -0.2435805 -0.2646128 -0.26141453
000090 00 e2 c6 3d 82 01 0d 3e fc 16 b0 3c bc ff 3c 3d
       0.09711075 0.13770106 0.021495335 0.046142325
0000a0 d7 aa 3d bd 4d eb 47 bb 92 a3 2d be 1f af c5 be
       -0.046305504 -0.003050524 -0.16956928 -0.3861017
0000b0 9a 51 78 be 8e 47 4b 3e 4b 9b c8 3d 4f fd 69 3d
       -0.24249879 0.19851515 0.09795245 0.05712634
0000c0 35 9e 6b 3e 84 e9 76 3e 12 af 1c 3e e0 08 c0 3d
       0.2300957 0.24112517 0.15301159 0.09376693
0000d0 0e 5b c2 3c 90 90 d5 bb d7 b8 2f 3e e3 22 16 3e
       0.023725059 -0.0065174773 0.17160355 0.14661746
0000e0 77 d8 2d bb 55 2d 83 3d 07 cc 22 3d b0 be 03 3e
       -0.0026526728 0.06405131 0.039745357 0.1286571
0000f0 d1 d9 e3 bd db c4 b6 bd d2 0c 88 bd 44 08 81 3d
       -0.111255296 -0.08924266 -0.0664307 0.06300405
000100 54 0b 67 bc 4b df 57 bd 24 4b 17 bd f7 c7 b1 3d
       -0.014101822 -0.052703183 -0.036936894 0.086807184
000110 e9 03 bb bd 9f 07 b8 be c5 10 9c be 44 81 a9 be
       -0.09131605 -0.35943314 -0.30481544 -0.33106434
000120 43 67 e3 bd 57 7d e7 bd 8c e4 0d be 86 ea 25 be
       -0.1110368 -0.113032036 -0.13856715 -0.16202745
000130 2c 44 36 be 2c 9c d2 bd 8d 7c 71 bd 6c 37 bc bc
       -0.17799443 -0.10283694 -0.05895667 -0.022975646
000140 59 db 0f bd e2 b9 83 3e e7 a4 89 3e 0d 06 5f 3e
       -0.035121296 0.25727755 0.26883623 0.21779652
000150 09 3b a3 3d 81 dd 9a 3d 91 f0 6e 3d 34 c1 5a be
       0.079702444 0.0756178 0.05833489 -0.21362764
000160 ea f2 63 be 81 d6 8f be 0f e2 ea 3b d0 2e 15 3e
       -0.22260633 -0.2809334 0.0071680616 0.14568639
000170 23 98 f1 3d 36 34 96 3c 4b 02 6a bd 2d 45 b3 bd
       0.11796596 0.018335443 -0.057131093 -0.087534286
000180 27 24 43 be a4 a6 9a be 16 88 83 be 3e 32 fb 3d
       -0.1905676 -0.30205262 -0.25689763 0.12265442
000190 36 64 22 3e bd 7f 02 3e 1a 00 1a 3d ca 05 25 3d
       0.1585854 0.12744041 0.037597753 0.040288724
0001a0 9f 0c dd 3c 23 6c b4 bd a1 bb cd bd ef f8 d5 bd
       0.026983557 -0.08809688 -0.10045553 -0.10447871
0001b0 93 da b6 bd 2d 19 80 bd 39 3a a6 bd 13 fe 07 bd
       -0.089284085 -0.06254802 -0.08116574 -0.03320129
0001c0 09 f4 70 bc b8 e7 56 bc 1c 4d 39 bc 02 17 9a bb
       -0.01470662 -0.0131167695 -0.011309888 -0.00470245
0001d0 2a 4f 21 3b 87 5b 9c 3c 25 ed c4 3c d4 04 54 3c
       0.0024613836 0.019086612 0.02403886 0.012940604
0001e0 4f 0c 59 3c 69 0f 82 bb 71 34 1d 3c 3a fa 26 3d
       0.0132475635 -0.003969122 0.009595023 0.04076598
0001f0 2c 03 20 3d 6d 7a 05 3d 48 13 00 bd be 34 a1 bb
       0.039065525 0.032587457 -0.031268388 -0.0049196174
000200 d6 69 98 bc 77 ae da bc e3 aa b4 bc 80 55 27 bc
       -0.018605154 -0.02669452 -0.022054141 -0.010213256
000210 50 52 8a 3b 52 38 6f 3c 48 4b be 3b 48 6e da 3d
       0.004221238 0.01460083 0.005807314 0.10665566
000220 7a d8 86 3d 67 04 8d bd 03 6f 58 3d 36 e8 9b 3c
       0.065842584 -0.06885605 0.052840244 0.019031625
000230 96 63 e8 bc 72 6d cb be 7a 5a 89 be 1a c5 36 be
       -0.028367799 -0.39731938 -0.2682684 -0.17848626
000240 e9 84 28 bd e9 00 82 bc 1f d2 81 bd 0e c3 22 3c
       -0.041142378 -0.015869575 -0.063389055 0.0099342
000250 41 eb af 3c d4 78 5f 3c 65 3d 51 bd 45 ce 54 bd
       0.021474482 0.0136396475 -0.05108394 -0.051954526
000260 fd 0c ef bc 53 c5 ce 3c 6e 65 11 3e 53 a8 f1 3d
       -0.029180998 0.025240576 0.14198849 0.117996834
000270 a9 85 36 3d 60 68 bd bd ed de bc bd dd 1d 20 be
       0.044561062 -0.092484236 -0.09222207 -0.15636392
000280 d4 1f 89 be 04 5a 62 be ca fe 18 3d 55 f6 d3 3d
       -0.26782095 -0.2210465 0.03735236 0.103497185
000290 dd 70 67 bc 4e c0 a3 3c 3a b3 02 3d db 7b 5e 3c
       -0.01412603 0.019989159 0.031909205 0.013579334
0002a0 ca ae fe 3d fb 4d 1b 3e 0a 35 3e 3b 0a 09 c1 3e
       0.12435682 0.15166466 0.0029023313 0.3770221
0002b0 44 c5 5b 3e fe 38 01 bc 21 f1 0f be 86 3b d1 3d
       0.2146197 -0.007887123 -0.14056827 0.10216431
0002c0 b4 27 2e 3e ba 6a 9f be a2 15 86 be 24 13 84 be
       0.17007333 -0.31136113 -0.2618838 -0.25795853
0002d0 bf c4 2a 3e 69 12 0d 3e 42 3d ba 3d 4c 96 1c bb
       0.16676615 0.13776554 0.09093715 -0.0023893295
0002e0 f1 1d 12 3d 79 b9 88 3d 64 aa a1 bd 72 7a 6e bd
       0.035673086 0.06676001 -0.078938276 -0.05822224
0002f0 20 9f 86 bd 25 22 62 bd 22 b5 00 bd 70 c5 1c bd
       -0.065733194 -0.055208344 -0.03142274 -0.03827423
000300 c5 4a 1d bd 3b b4 37 bd 15 cc 1e bd 0c 87 0f bd
       -0.038401384 -0.044849616 -0.038768847 -0.0350409
000310 f8 70 a8 bc 27 95 41 bc db 42 01 3e 42 ec b5 3e
       -0.02056168 -0.011815346 0.1262316 0.35531813
000320 97 4f 05 3e b9 b6 22 3c 66 22 fa 3a 42 74 93 3c
       0.13018642 0.00993126 0.0019083738 0.017999772
000330 36 80 9c be ba 5e 58 be 12 6c 46 be b7 9e 11 3e
       -0.30566567 -0.21129885 -0.19377163 0.14220701
000340 c9 06 36 3d 2b d8 36 bd 82 b3 13 be 2c dd 4f bd
       0.044440065 -0.044639748 -0.14423946 -0.050748035
000350 be e5 2e bd e4 9d a8 be a5 35 93 be 89 ba 87 be
       -0.042699568 -0.3293296 -0.28751865 -0.26509503
000360 d1 11 c3 3d 21 bc af 3d 1f 11 a3 3d 4b 1f 05 3d
       0.095248826 0.085808046 0.0796225 0.032500546
000370 5e 12 e3 bb 8f 53 c4 3b 05 2d 96 bd 9a d6 e7 bd
       -0.00692968 0.0059914063 -0.073328055 -0.11320229
000380 e6 48 0e be 90 80 9c bc e9 f2 dd bc 90 77 e6 bc
       -0.13894996 -0.019104272 -0.027093368 -0.028133184
000390 03 eb 21 bd c6 aa 06 bd df a1 cd bc 41 d1 04 bd
       -0.039530765 -0.032877706 -0.0251016 -0.032426123
0003a0 60 00 cd bc b0 b8 10 bd 74 9d d6 3d e3 a1 02 3e
       -0.025024593 -0.03533238 0.104792506 0.12757067
0003b0 1c d5 31 be 25 bb c0 3d 30 1b 77 3d d8 d6 5a 3d
       -0.17366451 0.09410695 0.060328662 0.053427547
0003c0 d0 58 97 3e 89 b2 c1 3e 15 66 01 3e a0 d6 be 3b
       0.29559946 0.37831524 0.12636597 0.005823925
0003d0 f8 57 5f 3c 2e f8 70 bc 43 99 ea 3b a1 70 55 bc
       0.013631813 -0.014707608 0.0071593835 -0.013027341
0003e0 2f b4 76 bc 2b 00 cd bc 9d 71 8b bb 54 28 1d bc
       -0.015057608 -0.025024494 -0.004255487 -0.0095921345
0003f0 1a ff 03 3e 67 09 3b 3d ce e1 7e bd e3 51 02 be
       0.12890282 0.045663264 -0.062227063 -0.1272655

layer2.0.bias f4 [64]
000000 e6 b5 ff b9 d3 36 0d 3c 94 6e 4f bc 4f 82 87 bb
       -0.00048772915 0.008619028 -0.012660641 -0.004135407
000010 02 ae df 3b 72 48 43 bb 41 8f 0b 3c bb 93 94 3b
       0.0068261633 -0.002979782 0.008518041 0.0045342124
000020 56 0b 15 3b bb a2 ed ba 5e 7a 50 bb ea 4e 33 bb
       0.0022742352 -0.0018130162 -0.0031811218 -0.002736027
000030 98 41 9a ba a9 b4 e8 bb c3 dd 75 bb 04 af f5 3b
       -0.0011768816 -0.0071016145 -0.0037516213 0.00749767
000040 88 cc 16 3c 85 3b 1e 3b 51 5a 04 3b a7 fa 38 bc
       0.0092040375 0.0024144363 0.0020195434 -0.011290229
000050 bd 1e 30 3b 6e 20 34 3c df af ba bb 39 ff 56 bb
       0.002687379 0.01099406 -0.005697235 -0.0032805933
000060 b4 80 51 3c d0 65 02 3b 79 01 29 3c 86 35 6a bb
       0.012787033 0.001989711 0.0103152925 -0.003573747
000070 60 83 42 bc bc 60 95 3a d2 e4 26 bc 9f ec b9 bb
       -0.011872143 0.0011396627 -0.010186391 -0.0056739594
000080 58 f1 95 3b 48 93 47 bc 50 4c ea 3b 90 2a 46 3c
       0.0045758896 -0.012181111 0.0071502104 0.012095109
000090 8b 40 4a 3c 69 76 3b bc d6 e6 55 bc 3d 12 ad bb
       0.01234449 -0.011441805 -0.013055524 -0.005281715
0000a0 65 8b 87 3a fa 6e d3 bb 32 a5 17 3c e4 b2 44 3c
       0.0010341225 -0.0064524384 0.009255694 0.0120055415
0000b0 5b f9 63 3b 9f 10 01 bb d0 42 45 bc ed a0 02 3c
       0.0034786079 -0.0019693745 -0.012039855 0.007972938
0000c0 00 4f fb ba d7 c2 13 3c ce d3 a4 3b ef 55 10 3b
       -0.0019173324 0.009018621 0.005030132 0.0022023877
0000d0 19 fa 1f bc 15 ac 0b 3c 47 6e 25 3b 5d 13 29 3c
       -0.009764218 0.008524914 0.0025242732 0.010319558
0000e0 93 e1 22 3c 2c 31 e3 bb 54 28 25 bc 5a 96 4b bc
       0.009941476 -0.006933352 -0.010080416 -0.012425983
0000f0 00 bc 91 bb 87 da 92 bb 6e bb 60 3a e6 6c e4 3b
       -0.00444746 -0.004481617 0.0008572851 0.0069709895

layer2.1.weight f4 [64]
000000 ee e3 85 3f ea 69 25 3f db 28 23 3f 14 bf 2d 3f
       1.0460184 0.6461474 0.63734215 0.6786969
000010 2b f4 7b 3f 6e 5e 65 3f 96 00 b7 3f 8e dc 4e 3f
       0.98419446 0.89597213 1.4297054 0.8080529
000020 46 50 8a 3f 8b 93 83 3f 51 7b 9a 3f 86 ce 49 3f
       1.0805748 1.0279402 1.2068883 0.78830755
000030 3c 95 69 3f 09 80 7e 3f e9 df 89 3f 97 33 39 3f
       0.9124334 0.99414116 1.0771457 0.72344345
000040 aa 6e 0a 3f b8 66 39 3f ea 42 3a 3f f1 23 82 3f
       0.5407511 0.7242236 0.7275835 1.0167218
000050 f9 59 63 3f d8 a9 94 3f 21 50 2c 3f a0 50 71 3f
       0.8880916 1.1614332 0.67309767 0.9426365
000060 66 02 91 3f 2e 99 84 3f 2f 2c 83 3f 40 e4 49 3f
       1.1328857 1.0359247 1.0247859 0.78863907
000070 bd 8c a0 3f 84 ae 76 3f 26 bc 72 3f 29 4a 3b 3f
       1.254295 0.9636004 0.9481834 0.73160034
000080 2d 6d 86 3f 40 e7 31 3f 58 24 38 3f a2 29 19 3f
       1.0502068 0.69493484 0.71930456 0.5982915
000090 e2 6c 9d 3f d8 ce a8 3f 08 08 d9 3e 13 8e 96 3f
       1.2298853 1.3188124 0.4238894 1.1762108
0000a0 6d 2e 7a 3f c7 28 46 3f ff cd 76 3f 27 38 8d 3f
       0.9772709 0.7740597 0.96408075 1.1032761
0000b0 4a d7 4e 3f e2 f5 24 3f 0d b5 23 3f 77 51 2a 3f
       0.80797255 0.6443769 0.63948137 0.66530555
0000c0 00 33 61 3f f6 a5 2f 3f 1b aa 37 3f a4 e3 8c 3f
       0.87968445 0.6861261 0.71743935 1.100697
0000d0 4c a2 8e 3f 8f bc 74 3f 78 ac 64 3f 36 8a 3d 3f
       1.1143279 0.9560022 0.89325666 0.7403902
0000e0 6e bf 89 3f a3 ce 84 3f d9 fb 82 3f 4c ea 5f 3f
       1.0761545 1.037556 1.0233108 0.87466884
0000f0 15 8c 74 3f df 91 49 3f d9 12 a2 3f fa b1 04 3f
       0.9552625 0.78738207 1.2662002 0.5183407

layer2.1.bias f4 [64]
000000 1f a1 88 be 47 4f 9d 3d c4 1f 29 3e a2 c6 80 bf
       -0.26685426 0.076811366 0.16516024 -1.0060618
000010 72 44 0e bf 5a b7 bd bd 62 aa 5b bf 8d 74 95 be
       -0.5557319 -0.09263487 -0.8580686 -0.29190484
000020 97 33 17 bf df 7e af be b5 0e ff be 22 06 ac be
       -0.59063095 -0.34276482 -0.49815908 -0.3359843
000030 ef d0 06 bc 7f 28 ba be 26 2a 03 be b7 d8 5b bf
       -0.008228525 -0.3635902 -0.12809047 -0.85877556
000040 b9 56 c8 be d5 ef 00 be 92 64 bd be e7 a9 0c bf
       -0.39128664 -0.12591489 -0.36990792 -0.5494675
000050 ab e1 41 bf e9 d5 23 bf 09 31 b4 bd f9 2d a6 be
       -0.75734967 -0.63998276 -0.08798415 -0.3245695
000060 eb 39 eb be 4c 61 1d bf 11 73 d1 be e7 1f 08 bf
       -0.45942625 -0.6147659 -0.409081 -0.5317368
000070 f3 6d c7 be b2 bb 9d bd bc 8c 05 bf 1e ae 6f be
       -0.38951072 -0.07701816 -0.5216787 -0.23406264
000080 9e d6 a7 bd da 84 05 bf 3e b0 a2 ba 3d 0d 16 be
       -0.08195232 -0.5215584 -0.0012412143 -0.14653488
000090 d0 c2 42 bf 91 82 12 bf 60 e1 4d bf 17 c0 0b bf
       -0.7607851 -0.5723048 -0.8042202 -0.5458998
0000a0 25 4b c3 be a0 35 c3 be 08 24 df be f5 f7 ca be
       -0.38143268 -0.3812685 -0.43582177 -0.396423
0000b0 11 6d 11 be 28 36 92 3d 7a 6a bb be d9 a0 cb bc
       -0.14201762 0.07139236 -0.36604673 -0.024856972
0000c0 e7 83 08 bf 77 11 97 be 7f 65 87 bd 35 c2 af be
       -0.53326267 -0.29505512 -0.06611156 -0.34327856
0000d0 91 1f 48 bf fe 77 26 bf 7b 64 8d be 4e 3c 56 3d
       -0.78173167 -0.65026844 -0.27615723 0.052303605
0000e0 38 ec 1e bf ff d9 a7 be 1e a9 52 be 94 52 e6 be
       -0.6207919 -0.32783505 -0.20572326 -0.44984877
0000f0 de ec 76 be 7c 62 5e 3e 40 01 a5 be 44 d6 13 bf
       -0.24113795 0.21717256 -0.32227516 -0.5774882

layer2.1.running_mean f4 [64]
000000 8b f6 8a c0 e6 6a 33 c0 1b 05 ed c0 16 a0 b1 3f
       -4.3425956 -2.8033996 -7.406873 1.3876979
000010 b0 a0 5d c0 d5 13 b3 bf a4 e8 ad c0 0d 4a 36 c0
       -3.4629326 -1.3990427 -5.4346485 -2.8482697
000020 2a 55 c8 c0 45 03 87 bf 2b 2d 03 c1 81 9e 9d bf
       -6.260396 -1.0547873 -8.198527 -1.2313997
000030 f7 b1 84 c0 aa 8f e8 c0 cc af 97 c0 a6 bd a5 bf
       -4.146724 -7.267537 -4.7402096 -1.2948501
000040 3f 7e 2d c0 e6 b2 bc c0 5c ee ad c0 1e 81 0f c0
       -2.7108305 -5.896838 -5.4353466 -2.2422557
000050 6f 11 9c bf c7 27 c8 c0 ff 28 92 bf a8 10 84 c0
       -1.219282 -6.2548556 -1.1418761 -4.127033
000060 0b 9e 16 c1 5a 0c 0b c0 20 5a c0 c0 08 20 9d bf
       -9.413585 -2.1726289 -6.0110016 -1.22754
000070 a0 03 93 c0 45 14 a3 c0 a2 44 a9 c0 7d 29 a4 c0
       -4.5941925 -5.0962243 -5.289628 -5.1300645
000080 ae 1b 6e c0 88 de de bf ce 8d 7b 3f 04 49 44 c0
       -3.7204394 -1.7411661 0.9826325 -3.0669565
000090 cb fa a9 c0 0c 0d ef c0 94 30 35 40 a2 cb be c0
       -5.3118644 -7.4703426 2.83109 -5.9623575
0000a0 2b 26 a3 c0 01 13 c1 bf 7a d4 0b c1 59 cc c3 c0
       -5.098409 -1.5083925 -8.739374 -6.118695
0000b0 43 5d b7 bf 60 9b 07 40 6c b1 c5 c0 c7 04 0e c0
       -1.4325336 2.1188583 -6.177908 -2.2190416
0000c0 48 5a ad c0 a9 70 f6 bf 62 9d 29 c0 bd f7 60 c0
       -5.4172707 -1.9253131 -2.650231 -3.5151207
0000d0 ba 31 e2 c0 6e 49 00 c1 54 fc fc bf a4 c5 b4 c0
       -7.06857 -8.017927 -1.9764504 -5.649126
0000e0 85 56 f6 c0 d4 31 29 c0 52 e7 77 c0 c1 17 52 c0
       -7.6980615 -2.6436663 -3.8734937 -3.2826998
0000f0 86 12 03 c0 65 d4 92 c0 42 db 9a c0 12 b7 c7 40
       -2.0480056 -4.588427 -4.839265 6.2410975

layer2.1.running_var f4 [64]
000000 48 b4 e8 41 b0 12 93 41 6d 86 81 41 ae bc f4 40
       29.088028 18.384125 16.190638 7.648032
000010 f5 e2 8c 41 6a 33 a8 41 b4 51 ef 41 93 0a 9d 41
       17.610819 21.025105 29.914894 19.630163
000020 c3 b6 9f 41 1a 47 53 41 5c 4f b8 41 0e a0 2a 41
       19.96424 13.204859 23.03875 10.664076
000030 cc 31 c6 41 fb 3a b0 41 ef bd 00 42 0a 7f 0e 41
       24.774315 22.0288 32.185482 8.906015
000040 62 ac 98 40 37 a8 1f 41 fa 7a 13 41 a0 9f 1d 41
       4.771043 9.978568 9.217524 9.851471
000050 ff 65 09 41 5d 6c a2 41 c7 c5 77 41 5b f6 ac 41
       8.587401 20.302912 15.4857855 21.62029
000060 18 1f df 41 66 d5 24 41 4e ea e7 41 13 61 bf 40
       27.890182 10.302099 28.989407 5.9806
000070 57 b6 12 42 a2 5a 89 41 16 5b 57 41 cb f9 66 41
       36.678066 17.169254 13.459738 14.435985
000080 61 8b 9b 41 7f 38 ff 40 3a a0 a9 41 04 8d 13 41
       19.443056 7.9756465 21.203236 9.221928
000090 90 c7 0b 42 ac 1e 18 42 0f 9e 09 41 68 f2 f3 41
       34.944885 38.029953 8.601089 30.493362
0000a0 68 a3 ff 41 53 98 29 41 8f 4a a2 41 c3 c4 c5 41
       31.954788 10.599689 20.286406 24.721075
0000b0 60 c0 69 41 0a 53 69 41 4c a5 30 41 b7 df 40 42
       14.609467 14.582773 11.040356 48.21847
0000c0 fb 20 41 41 9b a3 34 41 2a 52 28 41 bd 6c 0a 42
       12.070552 11.289943 10.52006 34.60619
0000d0 8b 79 6d 41 1a dd 87 41 b5 45 8d 41 bd 79 3a 41
       14.842174 16.98296 17.659037 11.654721
0000e0 4f fc 87 41 29 b1 f6 41 84 96 67 41 6a 04 72 41
       16.998198 30.836504 14.474247 15.126078
0000f0 91 27 79 41 aa ae cd 41 c0 c4 11 42 88 fd 47 41
       15.57216 25.710285 36.44214 12.499397

layer3.0.weight f4 [64, 64, 3, 3]
000000 34 2f 1a 3e 7d 1d 2d 3e 99 35 41 3d 4e 26 7b 3e
       0.15057069 0.1690578 0.047170255 0.24526331
000010 67 a8 66 3e 05 2a 2a 3e 63 91 90 3d b2 08 34 3e
       0.22525178 0.16617592 0.0705898 0.17581442
000020 f0 e4 60 3e b5 0f 41 3e 8d 0a 0c 3e 55 22 56 3d
       0.21962333 0.18853648 0.136759 0.052278835
000030 7a 39 0b bd da 60 59 bd f1 ad b9 bd ee e2 aa bd
       -0.03399036 -0.05307088 -0.0906638 -0.08344065
000040 4c 38 54 bd a7 c9 83 bd ce b1 9e bd 88 1d e4 bd
       -0.0518115 -0.064349465 -0.07748757 -0.11138445
000050 6c fb 1b be f7 25 4f 3b 20 8c a3 3c e0 b4 dd bc
       -0.15232629 0.0031608322 0.019964278 -0.027063787
000060 4a 33 64 3d 81 a6 c8 3d 90 a3 62 3d 84 ca 83 bc
       0.055712976 0.09797383 0.055331767 -0.016087778
000070 04 8d c5 bb fe bb 72 bd f3 fa 38 bd 74 65 e7 bd
       -0.0060287733 -0.059261315 -0.0451612 -0.112986475
000080 40 a6 b6 bd e3 d3 07 bd 4d 29 c9 bc a8 10 c4 bb
       -0.089184284 -0.033161055 -0.024555827 -0.005983431
000090 d4 11 1b 3e f3 a8 4c 3e 3e 09 6f 3e f3 45 7b bc
       0.1514352 0.19986324 0.2334337 -0.015336501
0000a0 c6 44 9d 3d 7d 08 cd 3d 11 e0 81 be 98 7c d1 bd
       0.07679133 0.10011385 -0.25366262 -0.102288425
0000b0 e0 9e f0 bc 2a e8 cd 3d bb f4 85 3d 47 ec ef 3c
       -0.029372633 0.100540474 0.06540819 0.02928747
0000c0 f0 44 14 3e 3f c3 e7 bc 6a aa 88 bd 56 72 ca 3c
       0.14479423 -0.028291343 -0.06673129 0.024712723
0000d0 6a d6 de bd 7e 1e ec bd d6 fe 74 bc 18 bc 2a bd
       -0.1088074 -0.115292534 -0.014953336 -0.041683286
0000e0 09 b5 58 bc 84 00 fa bc 67 14 05 bd 64 e6 0b bd
       -0.013226756 -0.030517824 -0.03249016 -0.034155264
0000f0 86 c6 be bc c7 e1 4e bd 90 e3 0d 3c e6 2b 15 3d
       -0.023288023 -0.050508287 0.008660212 0.036418818
000100 bf 86 e8 bc a1 64 72 bc 0c de b2 3a 31 9b 50 3d
       -0.028384564 -0.0147945 0.0013646497 0.050929252
000110 d1 72 23 3d 40 91 eb bd a3 98 1e be ae 9d 02 be
       0.03990442 -0.115023136 -0.15487914 -0.12755463
000120 eb 4e 28 bd 01 a9 60 bd ca e0 23 be ed 64 9d bd
       -0.041090887 -0.054848675 -0.16003719 -0.07685266
000130 7e d4 4b bd 06 90 c7 bd ec f1 1e be bb 68 0b be
       -0.049763195 -0.09744267 -0.15521973 -0.1361417
000140 bd c4 d5 bd e2 37 3f 3e 70 37 70 3d 4c 2a ae 3d
       -0.104379155 0.18673661 0.05864662 0.08504161
000150 d6 b7 bb 3d e5 0e 29 bc d7 3c 93 bd 5e 28 47 bd
       0.09165923 -0.010318493 -0.07189339 -0.04862248
000160 00 ca 60 bd 56 fe 6f bc 0a e5 81 3c 10 4d 93 3c
       -0.054880142 -0.014648041 0.015856285 0.017981082
000170 1e e8 a0 bd 6f 86 fc 3c da ad 12 3d c7 4e 10 bb
       -0.07856773 0.030825822 0.03581033 -0.0022019611
000180 4f c0 92 bd 7e e8 3b bd 86 94 a2 bc fb 1f 40 3d
       -0.07165586 -0.04587602 -0.019846212 0.0469055
000190 f9 69 2b 3d 88 11 cc 3d 6b 66 d0 bc 1d 85 62 3d
       0.04184911 0.09964281 -0.025439462 0.055302728
0001a0 b0 5b 28 3e 93 d4 33 be 25 d2 e3 bd 08 85 c6 bc
       0.16441226 -0.1756156 -0.11124066 -0.024233356
0001b0 ca a7 8a bc bf f1 9a 3d 6c dc 61 3d 0b 78 37 3d
       -0.016925711 0.07565641 0.05514185 0.044792216
0001c0 65 83 09 bd b8 80 2e be 6d 9b 7c 3d 2f c7 a6 bd
       -0.033572573 -0.1704129 0.061671663 -0.0814346
0001d0 8c 6a fa bd a6 53 e3 bd 60 b4 ab bd 9e 8c 08 be
       -0.122273535 -0.11099939 -0.08384013 -0.13334891
0001e0 d5 15 04 3c 19 fb 92 3c 72 68 40 bc c2 aa 89 3e
       0.008061846 0.017941998 -0.011743652 0.2688809
0001f0 0d eb 66 3e 27 26 85 3e dd 23 92 bd 91 e9 90 bd
       0.22550602 0.2600567 -0.07135747 -0.07075799
000200 c0 5d 12 3e e6 95 ad bb 49 b7 29 bc e9 00 20 3e
       0.14293575 -0.0052974103 -0.01035864 0.15625347
000210 81 4f 92 bd 47 82 86 3c 54 bd 8d 3d 9c 09 45 3b
       -0.071440704 0.016419543 0.06920877 0.0030065542
000220 fe 1c c4 3b 60 8d 70 3c bb 85 17 bc 06 8c 83 3d
       0.0059849015 0.014682144 -0.009248192 0.06423192
000230 40 ae 65 3d 4b bd 23 bd 26 57 aa bc 29 b1 ed bc
       0.05607438 -0.039975446 -0.020793509 -0.02901514
000240 4c 49 e1 3c 0c 43 64 bc 6f 09 8b bc 04 29 58 3d
       0.027500771 -0.013932001 -0.016972272 0.05277349
000250 2b cb 40 3c 21 61 9e 3c ab 02 80 3d 61 71 af 3b
       0.011767189 0.019333424 0.06250509 0.005354092
000260 67 29 78 3b c5 38 a2 bc 01 0b 6d bd 4c 57 1d be
       0.0037866475 -0.01980246 -0.057871822 -0.15365332
000270 40 8e 33 3c 8f ca 81 bd ba 60 cc bd b4 59 9f 3d
       0.010959208 -0.06337463 -0.09979387 0.077807814
000280 a0 f0 04 3c 48 45 41 bd f5 85 25 bc 7a 50 13 ba
       0.00811401 -0.047185212 -0.010102739 -0.0005619597
000290 a7 6a 08 bd c6 2a 13 bd 0d 95 07 bd 92 76 19 bd
       -0.033304837 -0.035929464 -0.03310113 -0.037466593
0002a0 72 2c 34 bc 5a 0c e3 bc b3 bc 83 bc 66 38 36 be
       -0.010996925 -0.02771585 -0.01608119 -0.17794952
0002b0 41 63 4e be 28 32 3e be 5d 03 c3 bd 08 b7 dd bd
       -0.2015505 -0.1857382 -0.09522126 -0.10825926
0002c0 5e 90 24 be 4c 86 c1 bc e5 92 a8 bd 87 7a 12 be
       -0.16070697 -0.023623608 -0.08231143 -0.14304553
0002d0 43 de 6f 3b 68 f7 8a 3c c2 50 e5 bc 33 3f 11 be
       0.0036600984 0.016963676 -0.02799261 -0.14184265
0002e0 33 f7 b6 bd 10 46 a2 bc 09 bf 34 be 61 ad ea bd
       -0.08933868 -0.019808799 -0.17650999 -0.11458851
0002f0 de cf 03 be 9b e8 82 bb cb 16 04 bd a2 c3 68 bd
       -0.12872264 -0.003995014 -0.0322483 -0.056827195
000300 f8 1f f3 3d 5b 10 99 3d ad 1f 04 bc dd ce d5 bc
       0.11871332 0.07473823 -0.008064193 -0.026099617
000310 b1 ba 88 bd fe 9f 8a bb 38 52 08 3e 4b 32 cf 3c
       -0.066762336 -0.0042304983 0.13312614 0.025292536
000320 c7 90 bd 3d c4 81 8b 3d e5 b2 bb bd ed b1 94 bd
       0.0925613 0.0681186 -0.09164981 -0.07260499
000330 94 a7 56 3d 71 9d 30 3c 00 ac bf 3c 35 28 81 bc
       0.05240591 0.010779724 0.023397446 -0.015766243
000340 3a 34 b0 bb 51 a4 bb 3c 6e 75 a2 3a 52 7c 03 3e
       -0.0053773196 0.0229055 0.0012394616 0.12840393
000350 9a 85 50 3e 45 47 80 bc b0 24 1f 3a b0 5f 56 3d
       0.20363465 -0.015658984 0.00060708355 0.05233735
000360 e7 9a 80 3c 2c 20 64 3d c1 83 2c 3d 02 df 40 3e
       0.015698863 0.055694744 0.042117838 0.1883507
000370 37 38 36 3e cc bc 09 3e fe 77 2b 3e 2f f2 00 3e
       0.17794882 0.13450927 0.16744992 0.12592386
000380 c5 7a e8 3d e3 88 a9 3c 5b f3 5c 3b b7 83 2f bd
       0.113515414 0.020695155 0.0033714387 -0.042850222
000390 46 fe 69 3c 52 c6 3d 3d 2f 0c 07 3d dc 4c ed 3c
       0.014281815 0.04633171 0.032970604 0.028967313
0003a0 bf e5 47 bd 91 1e 58 bd 29 9d 08 be 05 c7 84 be
       -0.048803087 -0.052763525 -0.13341202 -0.2593309
0003b0 b1 ba 88 be 32 89 66 3a a2 67 c8 3d 00 aa d5 bd
       -0.26704934 0.00087942474 0.097853914 -0.104328156
0003c0 c6 13 84 3d 58 99 95 3d ae ea 81 bc 29 54 26 3d
       0.06449084 0.073046386 -0.015858974 0.040607605
0003d0 71 57 31 bc ed 49 64 bd ee 4b 64 bd d0 48 a9 bd
       -0.01082407 -0.055734564 -0.055736475 -0.08265841
0003e0 09 7f c3 bd 8a d0 d6 bd d5 f6 e3 bd 11 a9 ed bd
       -0.095457144 -0.104889944 -0.11131064 -0.116045125
0003f0 a4 1b 6e be 3d 2d 60 be ef 11 2c be 3e 29 78 be
       -0.23252732 -0.21892257 -0.16803716 -0.24234483

layer3.0.bias f4 [64]
000000 40 71 8e ba e6 be 81 b9 e0 b9 26 bc 7d 5a 09 bc
       -0.0010867491 -0.00024747028 -0.010176152 -0.0083833905
000010 1a da 38 bc 93 45 95 b9 d5 5c 1b bc fd 05 11 38
       -0.011282468 -0.00028471331 -0.009482582 3.457627e-05
000020 8f 46 c1 bb 76 46 8c bb ae aa 45 3c 43 d7 37 bc
       -0.005898304 -0.0042808605 0.012064619 -0.011220756
000030 3c 1e b3 bb 7e 33 80 3a 20 dc 80 bb 74 d1 9f 3b
       -0.0054662507 0.0009780971 -0.003932491 0.0048772637
000040 b2 f8 4b 3c 97 b9 da 3b 45 ed d7 3b e5 76 98 ba
       0.01244943 0.006674956 0.006589564 -0.0011632113
000050 1d bb 18 bb af 5f 6c 3b 1c 53 e5 3b 1e ca 09 3c
       -0.0023304888 0.0036067774 0.006998433 0.008410005
000060 62 f7 a0 3b ef 84 e3 3b de 1d 40 3b 2d 53 73 b9
       0.004912303 0.006943337 0.0029314677 -0.00023205271
000070 0c 66 28 bb 4f 91 25 bc 26 00 55 bc c8 bb 4e bc
       -0.002569559 -0.010105445 -0.013000524 -0.012618013
000080 a7 80 27 3c d0 2d 58 3b 76 dc 43 3c 0c 1a 22 bc
       0.010223544 0.003298629 0.011954417 -0.009893905
000090 6b 49 35 3c 0e 67 52 bc fe 41 1d bb 8d 12 c1 3b
       0.0110648675 -0.012841953 -0.0023995633 0.005892104
0000a0 6a 93 47 bc 76 2c 0f 3c 44 90 45 bc 42 fe 0d 3c
       -0.012181142 0.008738628 -0.012058321 0.008666577
0000b0 9b e6 31 3c 79 86 24 3c ff 2b 99 39 e1 1e fb 3b
       0.010858203 0.010041826 0.00029215214 0.007663593
0000c0 01 ad c0 3b ee 8f 2b 3c 8d ca 4b bc f8 2e 4e bc
       0.0058799987 0.010471327 -0.012438429 -0.01258444
0000d0 60 61 0f bc 1e ca 3e 3c 52 7b 8e 3b 22 61 88 ba
       -0.008751243 0.011644868 0.004348197 -0.0010404924
0000e0 95 f9 45 bb 58 d5 0b 3c 70 8b 16 3c 8d 4a 23 bc
       -0.0030208577 0.008534752 0.009188518 -0.009966505
0000f0 1f 1a 03 bb 95 a9 0c 3c da 0b 15 bc 9d 0a 11 3c
       -0.0020004583 0.008585353 -0.009097064 0.008852628

layer3.1.weight f4 [64]
000000 7a ae 7f 3f 0f ae a5 3f 52 2a 8d 3f 04 bb 44 3f
       0.99875605 1.2943743 1.102854 0.76847863
000010 7c 68 85 3f 04 28 75 3f 00 1e ab 3f 8c 7d b3 3f
       1.0422511 0.95764184 1.336853 1.4022689
000020 e8 61 7a 3f 9d 48 58 3f 8b 7a 55 3f 39 0f 35 3f
       0.97805643 0.844858 0.8339011 0.7072635
000030 73 b6 9e 3f 61 dd 8f 3f 30 1b 87 3f 90 7a 71 3f
       1.2399429 1.1239434 1.0555172 0.9432764
000040 b7 78 83 3f eb 5f 89 3f 4b 92 63 3f 2c 68 72 3f
       1.0271214 1.0732397 0.888951 0.94690204
000050 a8 1c 68 3f ff cd 79 3f fe 21 5b 3f e5 5c 6a 3f
       0.90668726 0.9757995 0.8559874 0.91547996
000060 52 51 8d 3f 9c cc 89 3f 6a 36 60 3f 0d 11 62 3f
       1.1040442 1.0765567 0.8758303 0.8830727
000070 67 43 63 3f 3d 0f 81 3f 88 d4 79 3f 68 0c a9 3f
       0.8877472 1.0082775 0.9758992 1.3206911
000080 99 4b 95 3f ec df 83 3f 2b a6 75 3f a4 06 86 3f
       1.1663696 1.030271 0.9595668 1.0470777
000090 53 8b a3 3f af 14 94 3f 1a 66 b2 3f 27 56 7b 3f
       1.2776893 1.1568812 1.3937409 0.98178333
0000a0 d8 45 2c 3f 0b c9 a1 3f 12 d2 c6 3f 3a 55 89 3f
       0.67294073 1.2639478 1.5532858 1.0729134
0000b0 7c 87 cb 3e 3c 13 93 3f 9c e7 a9 3f 89 d8 a9 3f
       0.39751804 1.1490245 1.3273807 1.3269206
0000c0 e8 20 88 3f 04 b7 4c 3f 88 84 7e 3f 86 35 1f 3f
       1.0635042 0.7996676 0.99420977 0.62191045
0000d0 c2 f6 b2 3f 4d 9a 82 3f c2 c4 96 3f 21 44 63 3f
       1.3981555 1.0203339 1.1778796 0.8877583
0000e0 91 f0 04 3f 5d 59 a1 3f c1 91 86 3f 95 8b 93 3f
       0.51929575 1.2605397 1.051323 1.1526972
0000f0 6f d3 64 3f da 99 5e 3f 77 62 82 3f 32 a8 8f 3f
       0.8938512 0.8695351 1.0186299 1.1223204

layer3.1.bias f4 [64]
000000 0f 45 07 bf f5 39 45 bf 3f cd 35 bf 05 3a 3b 3e
       -0.5283975 -0.7704156 -0.71016306 0.18283851
000010 52 bf 1d bf 94 f8 1b bf 6d 8d 63 bf 64 ff 51 bf
       -0.61620057 -0.60926175 -0.88887674 -0.8203032
000020 94 ae 1e bf b7 dc 92 be f3 94 57 bf a1 39 1a 3e
       -0.61985135 -0.28684017 -0.84211653 0.15061046
000030 9c 3b 5b bf 26 2a f3 be f4 2d fd be b6 92 b6 be
       -0.8563783 -0.47493094 -0.49449122 -0.35658807
000040 2a d1 8f bf bc d0 24 bf 78 6f 18 bf 4e ae 24 bf
       -1.1235707 -0.64381003 -0.5954509 -0.6432847
000050 dd 66 eb be 53 93 24 bf e5 5d 38 bf b9 67 19 bf
       -0.45976916 -0.642873 -0.7201827 -0.59923893
000060 3e 5f 2f bf 21 d7 6a bf 77 d6 0b bf 1c 78 5a be
       -0.68504703 -0.9173451 -0.5462412 -0.2133488
000070 74 c8 e4 be 0b 93 4e bf f3 36 fd be 54 f5 1f bf
       -0.44684184 -0.8069312 -0.49455985 -0.62483716
000080 06 2d 1d bf 52 8a 8d bf f5 9d 17 bf 6d fe 1f bf
       -0.61396825 -1.1057837 -0.592254 -0.624976
000090 3a 9c 60 bf 2a 94 17 bf ab dd 6e bf fa f5 e0 be
       -0.8773838 -0.59210455 -0.9330699 -0.43937665
0000a0 a2 32 77 be 7b cf 44 bf c3 54 01 bf a2 25 5a bf
       -0.24140409 -0.7687909 -0.5051996 -0.85213673
0000b0 fe 1d 57 3e 39 6d f8 be 54 9b 42 bf 8d f1 30 be
       0.21007535 -0.4852083 -0.7601826 -0.17279644
0000c0 54 61 58 bf e4 68 00 bf 9a bd 1b bf 0d 4b 1f bf
       -0.8452351 -0.5016005 -0.60836184 -0.62223893
0000d0 fd e8 4f bf 8a fb 32 bf e2 b9 3b bf 99 ba 55 be
       -0.81214887 -0.6991507 -0.7333051 -0.20871963
0000e0 c6 a8 cd be 6d 74 24 bf 54 13 f8 be ac 37 3b bf
       -0.40167826 -0.6424015 -0.48452246 -0.73131824
0000f0 13 e1 96 bd d8 65 b9 be 34 ad 65 bf f0 11 41 bf
       -0.07367148 -0.36210513 -0.8971741 -0.75417995

layer3.1.running_mean f4 [64]
000000 cf e2 50 c0 68 19 97 c0 c8 95 2e c0 81 4e b1 c0
       -3.2638433 -4.7218513 -2.727892 -5.540833
000010 b3 76 2f c0 e7 02 0c c0 65 d3 9e c0 40 e5 bd c0
       -2.7416198 -2.1876771 -4.963305 -5.9342346
000020 df bc 8a c0 27 48 c9 bf 2a 5b fe 3f b6 0b 4f c0
       -4.3355556 -1.5725144 1.9871571 -3.2350898
000030 06 2f 2f c0 ea f8 cb c0 21 71 04 c0 33 32 5e c0
       -2.737245 -6.374135 -2.0694048 -3.471814
000040 d9 10 40 c0 76 07 b1 c0 1d 1d b6 bd 01 1c 49 c0
       -3.0010283 -5.5321608 -0.08892272 -3.1423342
000050 81 3c d6 bf 06 5c 2d c0 2b a4 1e c0 e9 cf 90 c0
       -1.6737214 -2.7087417 -2.47877 -4.5253797
000060 89 0f a2 c0 78 32 7a c0 2e 35 ba bf 1b ee b5 bf
       -5.0643964 -3.9093304 -1.4547479 -1.4213289
000070 c4 9d 6a c0 b3 dc 2b c0 17 30 45 c0 9b d1 ae c0
       -3.6658792 -2.6853454 -3.0810602 -5.4630866
000080 6f 5a 69 c0 4d c0 af be da 32 da be 6d 2c c3 bf
       -3.6461446 -0.343264 -0.42616922 -1.5247933
000090 89 b0 12 c0 5e bc f8 bf 6d 2a 8a c0 3f 00 43 c0
       -2.2920249 -1.9432485 -4.317679 -3.04689
0000a0 e3 13 8d c0 5a b2 6e c0 b3 9d 98 c0 a7 4f 26 c0
       -4.4086776 -3.7296357 -4.7692504 -2.5986116
0000b0 1d 0a 8a bf 43 f6 73 c0 7a f9 8e c0 80 e3 d1 c0
       -1.0784336 -3.8119056 -4.4679537 -6.559021
0000c0 88 84 bb bf a2 9a 80 c0 ea 4e 81 c0 16 ff 48 40
       -1.464982 -4.018876 -4.040883 3.1405692
0000d0 99 95 a7 c0 9a 37 00 c0 9c b3 82 c0 2c 98 f1 bf
       -5.2370114 -2.0033937 -4.084425 -1.8874564
0000e0 a3 9d 86 3e 43 1e 7f c0 12 11 c1 bd 78 50 01 c0
       0.26292142 -3.986222 -0.09427084 -2.0205364
0000f0 88 c2 75 c0 4c dd 36 c0 e7 de 15 c0 73 de 85 c0
       -3.8399982 -2.857257 -2.3417299 -4.1834044

layer3.1.running_var f4 [64]
000000 8d af 1f 41 fe 9d a5 41 ac bf ee 40 ca 47 3d 41
       9.980359 20.702145 7.4608974 11.830027
000010 ff 4d 30 41 6c b2 0f 41 72 93 3b 41 a0 a1 b8 41
       11.019042 8.98106 11.723497 23.078918
000020 01 74 41 41 11 8e 1b 41 fc 1a 71 40 4e 3c 02 41
       12.090821 9.722184 3.767272 8.139723
000030 c2 73 36 41 4d d2 43 41 a1 c5 4c 41 9e 69 0a 41
       11.403261 12.238843 12.798249 8.650785
000040 ff a8 00 41 52 eb 20 41 af cb ef 40 e8 81 02 41
       8.041259 10.057451 7.4936137 8.156715
000050 68 88 c1 40 3c 49 0c 41 9e 21 a6 40 45 6d 0c 41
       6.047901 8.7678795 5.1916037 8.776677
000060 33 b5 56 41 f0 10 07 41 f4 ee c0 40 6f f5 42 41
       13.419238 8.441635 6.029169 12.18492
000070 8e 6c e1 40 d9 17 d1 40 43 61 d8 40 be 6c 9b 41
       7.0445013 6.534161 6.761873 19.428097
000080 7a b5 29 41 52 9f 9d 40 9c 59 de 40 67 20 16 41
       10.606806 4.9256983 6.9484386 9.382911
000090 f5 07 33 41 62 ec 59 41 92 59 95 41 df 25 54 41
       11.189443 13.620211 18.668736 13.259246
0000a0 c1 09 d2 40 d0 8d 7a 41 60 76 ca 41 72 fa 17 41
       6.5636907 15.659622 25.3078 9.498644
0000b0 b0 32 0d 41 cc 3e 05 41 32 25 8a 41 c1 ce a2 41
       8.824875 8.327831 17.268162 20.350954
0000c0 83 a9 16 41 f4 3e b9 40 0d 2a da 40 d2 9a 74 40
       9.416385 5.7889347 6.817633 3.8219495
0000d0 db 71 a2 41 17 3d 09 41 04 93 8d 41 46 be 40 41
       20.305593 8.5774145 17.696785 12.046453
0000e0 07 ea 0c 40 2c 97 38 41 9d 69 da 40 01 51 85 41
       2.201784 11.536907 6.8253922 16.664553
0000f0 0d 1b e8 40 db 94 fd 40 4d aa 14 41 c2 bb 6b 41
       7.253302 7.924421 9.291577 14.733339
