results/RENet-dataset-Conv64F-5-1-Jan-08-2024-14-32-52/checkpoints/emb_func_00010.pth (torch, 463459 bytes, 24 tensors)

layer1.0.weight f4 [64, 3, 3, 3]
000000 88 12 b4 bd 15 69 1a be e1 cd 6e be 4a 4f eb be
       -0.08792597 -0.15079148 -0.23320724 -0.4595893
000010 25 5f 81 be a5 02 d4 3d 3e 95 e1 bd 81 12 b2 3e
       -0.25267902 0.10352067 -0.11014794 0.34779742
000020 87 a8 d6 3e 4b 03 0a 3c 81 40 92 be d3 11 72 be
       0.4192545 0.008423637 -0.28564838 -0.23639612
000030 00 b5 f5 be 2c 4f a1 be 2c 71 ae bc 38 02 2b bd
       -0.47989655 -0.31505716 -0.021294199 -0.041750163
000040 aa c5 b9 3e 09 82 0e 3f 02 16 7b bc 91 9b 62 be
       0.36283618 0.5566717 -0.015325071 -0.22129656
000050 f8 84 d3 bd 1e 82 0c be 79 e7 30 be a6 55 3a 3e
       -0.10328096 -0.13721511 -0.172758 0.18196735
000060 a6 d8 8d bd 1a 44 8f 3e 39 e4 06 3f f5 bd 40 be
       -0.06926088 0.27981645 0.5269199 -0.18822463
000070 16 48 47 be f1 c8 5c be 2b e0 5b be 0d df ad bd
       -0.19461092 -0.21561028 -0.21472232 -0.08489809
000080 87 38 9a be 8a 83 f5 bd 76 46 3e be f4 5c 67 be
       -0.30121252 -0.1198798 -0.18581566 -0.22594053
000090 ce dc 7a bd ca 81 d2 3d f3 e8 9a bc d5 02 18 3d
       -0.061245732 0.102786615 -0.018909907 0.037112076
0000a0 0b c3 5e bb 73 bc d3 bd 35 db 8e 3d c0 5c 7d bd
       -0.0033990766 -0.10338678 0.06975404 -0.06185603
0000b0 c7 0c 46 bd 20 c3 bb bc 5a 78 fb 3d 74 9c 4f 3d
       -0.04835203 -0.022920191 0.122788146 0.050686315
0000c0 fa e8 2d 3c 01 e6 b3 3d 96 a3 11 3e b6 68 72 3e
       0.010614628 0.08784104 0.1422256 0.23672757
0000d0 b7 86 39 3e 0e cd 05 3e 66 2b 04 3e 20 47 cc bc
       0.18117796 0.13066503 0.1290718 -0.024936259
0000e0 1b 24 3d 3d c8 80 9b be 7c 8a 85 be fa 4d 8b be
       0.04617701 -0.3037169 -0.26082218 -0.2720793
0000f0 7e 85 99 be 5b bf 91 be 73 76 df be 8e 72 90 3e
       -0.2998466 -0.28466305 -0.43645057 0.28212398
000100 76 a2 9e 3e 6a 69 47 3e 51 47 5f 3d 94 92 d4 3d
       0.30983323 0.19473806 0.054511372 0.1037952
000110 76 e3 da 3d d4 6f c5 bc 9d 8c 80 be 89 1d 78 be
       0.10687916 -0.024101175 -0.2510728 -0.24230017
000120 a2 7d 86 3e 7e 0b a6 3e 0b 57 9f 3e ec 9c 52 3e
       0.26267725 0.32430643 0.31121096 0.20567673
000130 ea e5 18 3e 77 32 40 bc ba 06 20 bd 17 52 0e be
       0.14931455 -0.011730782 -0.039068915 -0.13898502
000140 11 65 4c be 35 91 db 3e 9b 8a 4e 3f 8a 95 1c 3f
       -0.19960429 0.42884222 0.80680245 0.6116568
000150 48 7a 24 be a0 7a 61 be b3 33 1e 3b a1 d3 90 be
       -0.16062272 -0.22019434 0.0024139702 -0.2828646
000160 1d 14 0a bf fd 85 eb be 1d f7 b7 3e e3 36 4d 3f
       -0.5393694 -0.46000662 0.3593072 0.80161875
000170 89 b6 51 3f 70 c8 8b be 6c ba 08 bf 32 75 80 be
       0.8191915 -0.2730136 -0.5340946 -0.25089413
000180 c1 46 91 be 04 e5 51 bf d0 8f 38 bf f6 17 82 3e
       -0.28374293 -0.81990075 -0.7209444 0.25408906
000190 1f c5 53 3f 05 c1 47 3f b1 8c 03 be f2 91 56 be
       0.8272266 0.780289 -0.12846638 -0.20954111
0001a0 4a cf 98 bd c2 62 cd 3c 35 68 0c bf 20 fe b0 be
       -0.07461412 0.025071505 -0.5484651 -0.34568882
0001b0 c7 dd 66 3e 96 4c 28 bc 86 98 84 be 2d 63 17 3f
       0.22545539 -0.010272166 -0.25897616 0.59135705
0001c0 29 87 b7 be 8c 7d 78 be 5f fe 4f 3f 70 3a bc be
       -0.35845307 -0.24266642 0.81247514 -0.36763334
0001d0 15 30 9f be e3 c0 6b 3e 68 14 b8 3d 66 7f af 3c
       -0.3109137 0.23022799 0.08988267 0.021423053
0001e0 71 75 eb 3e 62 08 a3 be 10 ea a5 be d5 cd 1f 3f
       0.45988038 -0.31842333 -0.32405138 0.6242345
0001f0 b9 a7 03 bf 01 94 b4 be 9f 7b 38 3e af fa 46 3d
       -0.514278 -0.35269168 0.18015908 0.048578914
000200 02 38 d6 3c 63 01 89 3e 8b 16 98 be 14 1f 14 be
       0.026149753 0.2675887 -0.297047 -0.1446498
000210 5f 60 c8 3e b3 a2 cb be 2d 78 1a be fc 79 00 3d
       0.39136025 -0.39772567 -0.15084906 0.031366333
000220 b0 a3 6a 3d e1 6a fa 3c 14 ce d7 3d e1 d2 cc bc
       0.05728501 0.030568542 0.10537353 -0.025002899
000230 ac b5 7d 3d 05 99 81 3e c5 59 42 3e 41 7a 0d 3e
       0.061940834 0.25312057 0.18979557 0.13816167
000240 04 e3 84 bd f2 ca 8b bc 9c 5c ed 3d 5a 57 3c be
       -0.06488612 -0.017064545 0.115899295 -0.18392697
000250 31 ad f0 be 5f 48 df be ff cf 6d be 19 db bd be
       -0.47007135 -0.43609902 -0.23223875 -0.3708122
000260 61 ea 3b be 9b 28 a5 3e 62 de a2 3e 7e 7a ff 3d
       -0.18351127 0.32257542 0.3181029 0.124745354
000270 3e ee 91 3d 02 e3 9c be 6d 70 2d be 5a 83 00 bd
       0.07125519 -0.30641943 -0.16937418 -0.031375267
000280 7d 94 10 be 3f 94 22 bd a7 68 f4 be 97 cd dd be
       -0.14119144 -0.03969216 -0.47736093 -0.43320915
000290 0a d3 e5 bd 16 98 d8 be a5 0e 7b be 03 e3 31 3e
       -0.11221893 -0.42303532 -0.24517305 0.17371754
0002a0 b7 a7 60 be eb c8 38 3e 66 5d 18 3f f9 81 af bd
       -0.21938978 0.18045394 0.59517515 -0.08569712
0002b0 2b 94 21 3d 99 58 c2 3d 50 c1 98 be bd 28 39 3d
       0.039447945 0.09489555 -0.29834986 0.045204867
0002c0 71 52 19 3e 47 34 06 be 1f e0 7a 3e 28 58 7f 3e
       0.14972855 -0.1310588 0.24499558 0.24935973
0002d0 55 11 68 3d a6 fa 56 bd 8b 61 f1 3d e6 1f d0 bd
       0.056657154 -0.05248513 0.11786183 -0.10162334
0002e0 1d 49 af 3c 0f 68 00 3e 5f db 47 be 03 0e 1d bd
       0.021397168 0.12539695 -0.19517277 -0.03834344
0002f0 27 5a 59 3c 2d 99 18 3f 21 67 33 3f fb fc 26 3f
       0.013266123 0.5960873 0.7007924 0.6522977
000300 81 89 57 be d7 83 0d be c9 8f ea bd f1 6e 1a bf
       -0.21048547 -0.13819824 -0.11453206 -0.60325533
000310 63 f6 1b bf af 07 79 be 73 25 d8 3e fd 2e 0f 3f
       -0.6092283 -0.24319337 0.4221607 0.55931073
000320 43 c0 f9 3e ec df 8a bd 56 2d a0 be 65 e2 46 be
       0.48779497 -0.06780991 -0.3128459 -0.194223
000330 cd e5 1d bf dd 0a fe be aa 4f ae be 5c b3 d8 3e
       -0.61678773 -0.49617663 -0.34045154 0.4232434
000340 4e d4 cf 3e 98 d7 95 3e 46 6a 01 bd 86 7f 04 be
       0.40591663 0.29266047 -0.03159549 -0.12939271
000350 e4 e6 43 3c 83 c9 75 be fc 87 7a be 61 02 17 3d
       0.011956904 -0.24002652 -0.24465936 0.036867503
000360 01 31 75 be f6 5d 36 be 93 58 61 3d 55 b9 5b be
       -0.23944475 -0.17809281 0.05501611 -0.21457417
000370 5d 96 5f bd 46 a2 cb 3d 46 28 c9 3c 31 09 3c 3d
       -0.054586757 0.099430606 0.024555337 0.045907203
000380 a4 0f 8c bd bc 55 b4 bd 2d 34 50 be b5 e1 85 bd
       -0.06838921 -0.08805415 -0.20332403 -0.06537191
000390 71 a3 f2 bd eb 0b 86 bc d9 4e 18 3d d1 fa 19 3e
       -0.1184758 -0.016363105 0.03718457 0.15037085
0003a0 e4 63 01 3e 31 1e 61 3e 41 7a b6 bc 2b 12 18 be
       0.12635761 0.21984173 -0.022275092 -0.1485068
0003b0 0c 1b 89 3d 6d 41 cc bd 6a f9 08 3c 22 e1 06 3e
       0.06694612 -0.099734165 0.008360246 0.13171819
0003c0 63 27 1a 3e 90 05 84 3e 6f e5 f3 3d d2 d9 c2 bd
       0.15054087 0.25785494 0.11908995 -0.09514202
0003d0 26 3f fd bd a6 8f 98 be 41 d2 fb bd 00 3e da be
       -0.1236556 -0.29797095 -0.12295962 -0.42625427
0003e0 18 91 8b be 81 44 c8 bd b4 c6 82 be 61 c4 b0 bd
       -0.27259135 -0.09778691 -0.25542223 -0.08631206
0003f0 20 ba 01 3e 66 ab 54 bd 66 a4 9e bd 7d e6 74 bd
       0.12668657 -0.05192127 -0.077462 -0.059790123

layer1.0.bias f4 [64]
000000 82 cf 1d 3d 67 3d cd bd 37 63 a0 3c bc 5f d2 3d
       0.038527973 -0.10021477 0.01957856 0.10272166
000010 b5 30 ac 3d d4 af da 3d a2 3c 8a 3d 9e 06 29 bc
       0.08407728 0.10678068 0.06749846 -0.010316519
000020 ed 59 05 3d a2 69 55 bd f4 c2 d8 3d fd b9 7f 3d
       0.032556463 -0.052102692 0.10584059 0.06243323
000030 98 e8 ba bd f8 cd dc 3d b0 85 f2 ba e0 a1 b5 bb
       -0.09126395 0.10781473 -0.0018502977 -0.0055429786
000040 d6 c7 0b bd 82 c0 06 bd 9d 7f cc 3b c1 55 79 bd
       -0.034126125 -0.032898434 0.0062407986 -0.060872797
000050 72 8b ed bd 84 8a 83 bd fa 44 cb bc dd d6 c0 3d
       -0.11598863 -0.06422904 -0.024813164 0.09415982
000060 a4 dc bb 3d f7 00 99 bd c8 e5 9c bb eb 67 13 bd
       0.09172943 -0.07470887 -0.0047881342 -0.035987776
000070 14 9d 88 bd 3a 9f b3 bc 41 36 31 bd c6 bc 8e 3d
       -0.06670585 -0.021926511 -0.04326463 0.069695994
000080 71 4a 7d bd 1f 27 9d 3c 49 1b 90 bd 21 67 1f bd
       -0.06183857 0.019183693 -0.07036454 -0.03891671
000090 f3 07 c9 3d e0 bc 7a bd 06 af f5 bb 65 e3 f3 3d
       0.09815969 -0.06121528 -0.007497671 0.119086064
0000a0 ed ce 2e 3d 4e fb 81 bd b9 52 99 bd f5 19 33 bd
       0.04267781 -0.06346761 -0.07486481 -0.043725926
0000b0 8d ef 1f bd dc 5d 5e 3d 0e 19 e3 bc d0 5f d7 3d
       -0.039046813 0.05428873 -0.027721908 0.10516322
0000c0 82 1d 8c bd 25 b5 1f bd b5 f2 39 3d 2c f3 cb 3d
       -0.06841566 -0.038991112 0.04539748 0.09958491
0000d0 4e 48 f4 3d 29 7e a3 3c 6c 39 ac 3b c0 d3 64 bd
       0.119278535 0.019957619 0.0052558687 -0.055866003
0000e0 81 49 90 3d 09 06 94 bd 86 3e 06 bd 67 6f d5 bd
       0.0704527 -0.072277136 -0.03277447 -0.10421639
0000f0 b9 7e f5 bd da bc 8e 3d 1e ca 0a 3c 7a 92 cb 3d
       -0.11987061 0.06969614 0.00847104 0.099400476

layer1.1.weight f4 [64]
000000 48 86 53 3f b2 1e 00 3f e0 81 0a 3f 9e f4 ad 3f
       0.8262677 0.5004684 0.54104424 1.3590276
000010 b2 61 4a 3f 3b 49 3d 3f 88 fb 2f 3f f5 9b 86 3f
       0.7905532 0.73939866 0.6874318 1.0516344
000020 8e ca e2 3e d1 04 ef 3e aa bf 4d 3f f0 14 fd 3e
       0.44295162 0.46683362 0.8037058 0.49430037
000030 85 09 b1 3e 53 6f b3 3e 0a b8 da 3e 9e 74 91 3f
       0.34577575 0.3504587 0.42718536 1.1363714
000040 ae c9 ab 3e 3c 76 1e 3f 7f 07 6d 3f 09 06 74 3f
       0.33552307 0.6189916 0.92589563 0.9532171
000050 60 f1 0e 3f 86 85 a5 3e 5e 46 85 3f 2d fb 80 3f
       0.5583706 0.32328433 1.0412099 1.0076653
000060 f3 82 ef 3e fa e0 fd 3e b5 f1 b4 3f 7e 1d b2 3e
       0.46779594 0.49585706 1.4136263 0.34788126
000070 70 d2 67 3f a3 59 14 3f 32 32 d1 3e 5d 6e c9 3e
       0.9055548 0.57949275 0.40858608 0.39342013
000080 35 c7 ab 3f a9 0f 78 3f 9f c7 83 3f a9 79 fa 3e
       1.3420168 0.96898896 1.0295295 0.48920944
000090 4e 9f 35 3e 06 c6 0c 3f 51 0d d0 3e d8 bb 63 3f
       0.17736551 0.5498966 0.4063516 0.889585
0000a0 7a b2 ee 3e 13 35 17 3f 00 c6 0d 3f eb ae 4f 3e
       0.46620542 0.5906536 0.5538025 0.2028157
0000b0 d8 eb 77 3e fc a5 11 3f aa a5 07 3f 20 35 0d 3f
       0.24211061 0.568939 0.5298716 0.5515919
0000c0 2d f8 dd 3e c2 a5 07 3f 8b f2 ca 3e 8c 88 c2 3e
       0.43353406 0.529873 0.3963817 0.37994802
0000d0 32 03 48 3f a7 dc 3b 3f 3e 3b d7 3e dc b9 ab 3e
       0.78129876 0.73383564 0.42037386 0.33540237
0000e0 76 8e 11 3f 83 36 03 3f 81 82 28 3f dd 56 91 3e
       0.56858003 0.51255053 0.65824133 0.28386584
0000f0 e0 72 9a 3f 80 4f e9 3e cd 3b ad 3e ac 6c fa 3e
       1.2066307 0.45568466 0.33834687 0.48911035

layer1.1.bias f4 [64]
000000 41 df 92 3e 28 0e 15 be 49 44 f1 3d cc 34 35 3e
       0.28685954 -0.14556181 0.117806025 0.17695922
000010 26 7e a4 3e 13 8a 8d 3d 39 d1 1b 3e 86 85 b8 3e
       0.32127494 0.06911101 0.15216531 0.3603937
000020 ab c5 61 be 7b a6 26 3e d3 a8 77 3d de d4 bb bd
       -0.2204806 0.16274445 0.060463738 -0.091714606
000030 ae 69 1f bd f1 7d 88 be b1 a1 5f be 5b 18 35 3e
       -0.038919143 -0.26658586 -0.21839024 0.17685072
000040 b6 cd 88 3d 23 0f ad 3d 8b f1 e3 3e 0d 79 de 3d
       0.06679861 0.08450153 0.4452022 0.10862932
000050 d5 12 6b bd 6b 74 80 bd 20 ca af 3e 74 c8 ae 3e
       -0.057391006 -0.06272205 0.34333897 0.3413731
000060 0c 89 ab be 06 34 a5 be 41 6c 05 3f 86 63 6f be
       -0.33502996 -0.32266253 0.5211831 -0.23377809
000070 1e b5 c8 3d 9f cd 1d be 29 9c 5b be df 39 73 be
       0.0980017 -0.1541047 -0.21446289 -0.23752545
000080 59 c3 a9 3e 1f 5f df 3e da c5 b2 3e 6f b9 21 3e
       0.3315685 0.4362726 0.34916574 0.15793394
000090 23 8a 5c be 1b 1a 7c 3e 11 1d 18 be 0d b9 86 3e
       -0.2153707 0.24619333 -0.14854838 0.26313058
0000a0 c3 55 d8 3c 26 a6 34 bd 26 9f b5 bd ab 06 a6 3c
       0.026408082 -0.044103764 -0.08868246 0.020266851
0000b0 7c a8 2b 3e c2 ac a5 bd 92 27 b9 be f3 03 d9 3e
       0.1676349 -0.080895916 -0.36163002 0.42385826
0000c0 e5 fa 20 3f dd ff 34 be de 3f ec bd c2 d2 22 bb
       0.62882835 -0.17675729 -0.11535619 -0.002484486
0000d0 c0 f6 81 be 10 4a 08 3e c0 28 44 be 78 5c 56 be
       -0.25383568 0.13309503 -0.1915617 -0.20933712
0000e0 de 90 c9 bc 03 3f 99 3d ee 89 0d 3e 0e 57 1b be
       -0.02460521 0.07482722 0.13822147 -0.15169927
0000f0 9e aa cf 3e 65 e7 a8 be d7 8c 2a be 49 09 fe 3d
       0.40559858 -0.3298904 -0.16655289 0.12404115

layer1.1.running_mean f4 [64]
000000 95 a7 cc bd 0c 87 fb be 8d e4 b0 be 4f 33 80 3d
       -0.09992901 -0.4912647 -0.3454937 0.06259786
000010 cb 1a a5 3d b4 a6 fc 3d ca 61 36 be ed be e2 bc
       0.08061751 0.123364836 -0.17810741 -0.027678931
000020 da 03 87 bd 85 09 ca be 46 2e 9c bc 09 21 a4 be
       -0.065925315 -0.39460388 -0.019065034 -0.32056454
000030 fd 04 92 3d f5 40 11 3f 97 06 a0 3e e1 56 9d be
       0.07129858 0.5673974 0.31255028 -0.30730346
000040 00 f0 06 3e 82 11 84 bd 11 a8 7b be d3 96 81 bb
       0.1317749 -0.06448652 -0.24575831 -0.003954747
000050 b7 df 9b be 15 a3 3c 3e c9 47 2d bd 29 54 18 bd
       -0.30444118 0.18421586 -0.042304788 -0.037189636
000060 c6 2a 69 be 31 c4 88 be dd 11 8f 3d c7 90 7a bd
       -0.22770223 -0.26712182 0.06985829 -0.061173227
000070 38 d6 dd bc 2d 0f de be d7 de 81 3e 7b b2 88 3e
       -0.027079687 -0.43370953 0.25365326 0.2669867
000080 b1 9b 80 be 45 57 4e bd e0 af 9f bd bc 21 fc be
       -0.25118783 -0.050376195 -0.07797217 -0.49244487
000090 27 d1 54 be ac dd 07 be 33 ff dc 3d 94 fe 8c 3c
       -0.2078291 -0.13268155 0.10790863 0.017211236
0000a0 79 b2 24 3e 4e 6b 16 be 7e 78 d9 be 37 45 38 bc
       0.16083707 -0.14689371 -0.4247474 -0.011246971
0000b0 6e 02 13 3e 1b 03 7b be ce 9e 65 be 7d 6b ce 3d
       0.14356396 -0.24512903 -0.2242386 0.100790955
0000c0 95 6a b4 3e 16 b7 dc be 75 77 80 3e ec de 9e 3e
       0.35237566 -0.43108433 0.25091138 0.3102945
0000d0 85 d3 30 3d 7b f8 2f bd 27 47 17 be ce 9b 59 3e
       0.04317047 -0.04296158 -0.14773236 0.21250841
0000e0 3f 94 c4 be 8b d1 f1 bc 57 0a aa be 68 4e 25 3e
       -0.38394353 -0.029518863 -0.33211014 0.16143191
0000f0 48 2b e1 bd 1b 6a 3f be 4d 5f b2 3e d8 ee cc be
       -0.10994583 -0.1869282 0.34838334 -0.40025973

layer1.1.running_var f4 [64]
000000 0d 2d d2 3f 7b 01 a3 3f fc 40 cf 3f d7 81 bc 40
       1.6419998 1.2734827 1.6191707 5.8908496
000010 4f 46 d3 3f d6 ad de 3f a8 18 94 3f c8 bf 68 40
       1.6505831 1.73968 1.1570024 3.6367054
000020 05 e8 b1 3e bc 30 9f 3f 80 de e4 3f b2 67 97 3f
       0.3474733 1.2436748 1.7880402 1.182852
000030 51 2e 2c 3f dc 03 8e 40 7c d6 8b 3f d5 75 e0 40
       0.67258173 4.437971 1.092483 7.014384
000040 25 5d 5a 3f 1c 51 8f 3f 55 c4 6b 40 90 4c d2 3f
       0.8529838 1.1196628 3.6838582 1.6429615
000050 c6 ef 97 3f d5 85 10 40 ca fa 4b 40 5a cc 43 40
       1.1870048 2.2581685 3.187182 3.0593476
000060 5f 7b 77 3f 75 65 69 3f d0 2d da 40 95 d2 1a 3f
       0.96672624 0.91170436 6.8180923 0.6047757
000070 29 77 11 40 fd c2 09 40 de b0 0f 40 c4 28 3d 3f
       2.272898 2.1525261 2.24517 0.7389033
000080 dc fa d0 40 65 e0 7c 40 ed 5c ab 3f 26 f6 c1 3f
       6.5306225 3.951196 1.3387734 1.5153244
000090 86 c3 1e 40 cb a0 42 3f 8e cc d1 3f 75 a7 40 40
       2.4806838 0.760266 1.639055 3.0102208
0000a0 f3 f8 59 3f 8c 93 4f 3f 92 d2 99 40 24 cc 3f 3e
       0.8514549 0.81084514 4.8069544 0.18730217
0000b0 b4 e2 99 3f 07 a3 0b 40 2c 1c 83 3f 4e 45 e2 3f
       1.2022309 2.1818254 1.0242972 1.76774
0000c0 cd 2d b0 3f d1 b0 98 3f 44 0f 30 3f 27 f7 96 3f
       1.3763977 1.192896 0.68773293 1.1794175
0000d0 58 72 05 40 ba 9e b4 3f 1b d6 e2 3e 43 bc 07 40
       2.085104 1.411094 0.44303975 2.1208656
0000e0 3b b9 15 40 de f7 37 3f 0f 47 a6 3f c9 93 3f 40
       2.3394306 0.7186259 1.2990435 2.993395
0000f0 e8 e1 a8 40 02 0c c2 3f 69 5e 5f 40 db 2f cc 3f
       5.2775764 1.5159914 3.4901373 1.5952104

layer2.0.weight f4 [64, 64, 3, 3]
000000 e2 56 5e 3e a1 dd 18 3e 28 87 a9 3d e5 e0 7c 3c
       0.2171283 0.14928295 0.08277732 0.015434478
000010 21 65 75 3d e2 6e f2 3d 79 77 3f 3c 13 a9 8c 3c
       0.059910897 0.118375555 0.011686199 0.017170465
000020 91 2b 70 ba e3 08 01 3e 43 5a b7 3d 82 12 cd 3d
       -0.00091617653 0.12601046 0.08952763 0.10013296
000030 06 49 68 3d 02 05 8c 3d 9e ba 20 3c 13 74 a8 bd
       0.056710266 0.06836893 0.009810118 -0.082252644
000040 69 d7 bd bd 02 7a aa bd 80 33 ba 3d d4 81 36 3e
       -0.09269602 -0.083240524 0.09091854 0.17822963
000050 5e 09 09 3e 28 a6 a3 3d 53 75 d7 3d 11 4f 09 3d
       0.1338248 0.07990676 0.10520425 0.03352267
000060 e1 d0 17 be fe 60 3f be c3 0d 35 be ec 52 a8 3d
       -0.14825775 -0.18689343 -0.17681031 0.08218941
000070 ca 1a 03 3e 3c 15 ae 3d 8b 37 50 3e b2 9f 31 3e
       0.12803188 0.08500144 0.20333688 0.17346075
000080 00 88 b9 bd 5a 77 34 be df 0c 47 be 00 26 36 be
       -0.09059143 -0.17623654 -0.19438504 -0.17787933
000090 6d 53 19 bd 32 99 92 3d 6c 71 97 3d 8a 60 c8 bc
       -0.037433077 0.07158126 0.073946804 -0.024460096
0000a0 92 e1 7f bc 92 f2 bd bc 8c f0 f5 bd c8 5e 59 be
       -0.015617745 -0.023186956 -0.12008771 -0.21227562
0000b0 a9 01 1d be 99 21 e2 3d 43 e4 96 3d 68 82 f0 3d
       -0.15332665 0.110415645 0.07367756 0.11743623
0000c0 2d a2 31 3e 56 51 1b 3e bf 60 f6 3d 3b 6d 35 3d
       0.17347021 0.15167746 0.120301716 0.044293623
0000d0 1c 08 db bb a9 18 01 bd 78 e3 30 3e e3 5b db 3d
       -0.0066843163 -0.03151766 0.17274272 0.107108854
0000e0 33 3c b7 3d 57 2a 76 3d 75 14 98 3d 9b 46 8c 3d
       0.08947029 0.060098972 0.07425777 0.068494044
0000f0 e8 c3 ca bd 7e 71 c7 bd 9d c2 92 bd 64 1d 2e 3d
       -0.099006474 -0.09738444 -0.07166026 0.042508498
000100 2f e2 be 3d f9 00 8f 3c 47 37 30 3d 51 ae 97 3d
       0.09320485 0.017456518 0.043021467 0.07406295
000110 8d fb fe bd b1 9e 46 be bc a7 47 be 57 58 41 be
       -0.12450323 -0.19396473 -0.1949758 -0.18881355
000120 ee e8 c9 bb ad 7d 9b bb d3 fe e3 bc 79 65 77 bd
       -0.0061618006 -0.0047452063 -0.02783147 -0.060399506
000130 85 b4 97 bd ab e2 45 bd 55 47 65 bd 2e 9b 58 bd
       -0.07407478 -0.04831187 -0.05597623 -0.052882366
000140 ca 4a 87 bd c9 41 4c 3e 58 6a 55 3e c6 1e 2b 3e
       -0.06606062 0.1994697 0.20841348 0.16710958
000150 4e 4a b3 3d f9 b5 82 3d dd 9d 1c 3d 7f a5 09 be
       0.08754407 0.06382365 0.038236488 -0.13442038
000160 45 f5 eb bd 30 aa 54 be fe 3b 43 bd 94 fe 5e 3b
       -0.11521391 -0.20768046 -0.047664635 0.0034026252
000170 1b 37 96 3d 2f d2 fa bc 34 af 15 bd 19 c2 95 bd
       0.07334729 -0.030617801 -0.03654404 -0.07312412
000180 77 0d 17 be 5a ee 4d be 1a 9a 5c be 50 01 0c 3e
       -0.1475123 -0.20110455 -0.2154316 0.13672376
000190 e9 ac 11 3e 01 95 c5 3d f2 66 02 3d f9 55 3e 3d
       0.14226116 0.09647561 0.031836458 0.04646871
0001a0 36 e4 4f 3b b1 62 d0 bd 7a 1a c5 bd a9 f3 f7 bd
       0.0031721718 -0.10175074 -0.09624191 -0.12107021
0001b0 eb d0 50 bd 11 c6 18 bd 3c 16 82 bd 7f 25 f3 bc
       -0.05098049 -0.037298266 -0.06351897 -0.029680965
0001c0 f4 dc cc bc e3 c3 fd bc 13 f5 a6 bb 86 6a ac 3a
       -0.025007702 -0.030977195 -0.005095133 0.0013154305
0001d0 02 7a 05 bc b4 01 99 3c b9 ee 64 3c 76 90 e9 3b
       -0.008146765 0.01867757 0.013972932 0.007127817
0001e0 19 47 46 3d 58 e8 b9 3c 69 9e 50 3d 7b 3c 6a 3d
       0.048407648 0.022693798 0.05093232 0.057186585
0001f0 3b 06 48 3d ae 46 68 3d 0a be d3 bc 3c e7 ab bb
       0.048834067 0.05670803 -0.025847454 -0.005246071
000200 0f 3e c9 bc f3 e7 ca bc 3a 61 d8 bb a2 f9 04 3d
       -0.024565725 -0.024768805 -0.006603387 0.03246463
000210 e8 8a 06 3d b2 af 73 3d 62 da 59 3d dd bd c9 3d
       0.032847315 0.059493728 0.05318678 0.09850667
000220 30 36 6a 3c 20 d7 c8 bd fe 8a eb 3b 7e 72 6e bc
       0.014295146 -0.09806657 0.0071882 -0.014553664
000230 96 37 97 bc b1 25 ae bd b5 25 6b bd fd 4a 9b bc
       -0.018459123 -0.08503283 -0.057409007 -0.018956656
000240 6b 65 99 bb 05 a1 0d 3d 4c 4c d2 bc 50 20 2b bc
       -0.0046812794 0.03457739 -0.025671147 -0.010444716
000250 36 02 87 39 03 0f 72 3c 95 da 5a bd 94 db 0c bd
       0.00025750854 0.014774087 -0.053431112 -0.034389094
000260 14 fc 0d bc 2c 20 bd bc 89 b6 0f 3c 5b 72 60 3d
       -0.008666057 -0.02308663 0.008771547 0.054796558
000270 84 bc 9b 3a db e2 93 bd 40 bf 86 bd e9 47 ae bd
       0.0011881744 -0.072210036 -0.06579447 -0.085098095
000280 0d 76 e6 bd 6f 2d 2a be 4e 7c 3d 3d 78 b5 14 3d
       -0.11252985 -0.16618894 0.046261124 0.036305875
000290 10 a2 44 bd 05 8e 53 bd 65 f5 a0 bd ad 08 bf 3b
       -0.048006117 -0.051649112 -0.07859305 0.0058298917
0002a0 77 47 6b 3d df 06 07 3d 32 fc a6 bc 1a 0b 14 3e
       0.0574412 0.032965537 -0.020383928 0.1445736
0002b0 a8 86 b5 3c d2 0d 88 bd e6 44 7a bd 7f d9 28 3c
       0.022158936 -0.06643261 -0.061100863 0.010305761
0002c0 26 27 c6 3c d2 b8 4c be f6 c9 31 be 12 c1 2f be
       0.02418859 -0.19992378 -0.17362198 -0.17163494
0002d0 68 b8 24 3e ab 34 df 3d a2 44 fb 3d 8c 76 3a 3d
       0.1608597 0.108987175 0.1226895 0.04552321
0002e0 67 2f b6 3d 0c 19 d9 3d b2 49 62 bd a2 7d 47 bd
       0.0889576 0.106004804 -0.055246063 -0.048703797
0002f0 f1 76 aa bd 52 00 db bc 66 0a 32 38 cf 43 ee b9
       -0.083234675 -0.026733551 4.244819e-05 -0.0004544542
000300 26 c6 bf bb 86 3d be bc d0 6f 82 3a dd 79 75 bc
       -0.0058524786 -0.023222696 0.0009951536 -0.014982668
000310 52 b4 e7 3b 95 3f 0e 3d f1 00 8a bd 95 aa 38 3d
       0.0070710564 0.034728605 -0.06738461 0.045084555
000320 c5 1f 3f 3d 2a d3 e2 3c d8 cc 2c 3d 52 3c 8e 3b
       0.046661157 0.027688581 0.04218754 0.004340687
000330 25 02 72 be b3 b0 66 be a9 cb 88 be 56 e4 af bb
       -0.2363363 -0.22528343 -0.2671788 -0.005367796
000340 25 49 35 3d fb cf 60 3a f1 06 96 bd 07 28 9b bc
       0.04425921 0.00085759134 -0.07325543 -0.018939985
000350 c6 ec f2 bd 73 9f 89 be f1 3a 77 be ca 43 7b be
       -0.11861567 -0.26879463 -0.24143578 -0.24537578
000360 29 46 b7 3d 10 57 aa 3d 9a 26 4c 3d 44 3c 43 3d
       0.08948929 0.08317387 0.0498415 0.047664896
000370 a9 f2 77 39 0f 2d 3c 3c a4 47 59 bd 62 66 9d bd
       0.00023646154 0.011485352 -0.053046837 -0.076855436
000380 c9 01 f4 bd fe d2 52 bc 50 e6 ff bc 59 99 0f bd
       -0.11914403 -0.012867687 -0.031237751 -0.035058353
000390 01 3d 5d bd 66 9e 2b bd 85 32 fd bc c3 32 61 bd
       -0.054013256 -0.041899107 -0.030907879 -0.05498005
0003a0 24 66 20 bd 68 72 53 bd bf eb 92 3d cd e8 3a 3d
       -0.03915991 -0.05162278 0.07173871 0.045632172
0003b0 1c 00 a9 bd f2 8b 07 bd ca 32 a9 bd 67 c4 28 3d
       -0.08251974 -0.033092447 -0.0826164 0.04120293
0003c0 92 24 f8 3d 5f 2c 1c 3e 80 2a a2 3d 08 6c 87 bc
       0.1211635 0.15251301 0.079182625 -0.016531006
0003d0 13 40 f4 bb 59 1c 24 bd ec 27 89 3c d5 ea 99 bb
       -0.0074539273 -0.040066097 0.016742669 -0.0046971836
0003e0 08 c0 c2 ba f8 ca 7d bc 3f b3 c9 3c 96 cb a8 3c
       -0.0014858255 -0.015490286 0.024621604 0.02060489
0003f0 22 a8 04 3e 05 a9 27 bd b1 2f 01 be 0d cf 1f bd
       0.12954763 -0.040932674 -0.12615849 -0.03901582

layer2.0.bias f4 [64]
000000 d3 0b 83 ba c2 af 90 3c 9b 87 d4 bc 1c d7 0a bc
       -0.0009998031 0.017661933 -0.025943568 -0.008474138
000010 e1 2c 65 3c 12 16 c8 bb bf fd 8e 3c d9 3a 18 3c
       0.013987751 -0.0061061466 0.01745498 0.009291374
000020 a7 b3 98 3b 7d 7a 73 bb 2b 99 d5 bb ad b7 b7 bb
       0.004660088 -0.0037151866 -0.006518503 -0.0056066127
000030 87 07 1e bb 79 6c 6e bc 15 ea fb bb 1f b9 7b 3c
       -0.0024113373 -0.014552229 -0.007687817 0.0153639605
000040 69 81 9a 3c ac 1f a2 3b 4c 9b 87 3b ad 86 bd bc
       0.018860536 0.0049476232 0.004138386 -0.023135507
000050 05 73 b4 3b f1 8d b8 3c e4 47 3f bc da 47 dc bb
       0.0055068755 0.02252862 -0.011674855 -0.0067224326
000060 e8 a6 d6 3c b2 9a 85 3b 98 29 ad 3c 6d f7 ef bb
       0.026202634 0.004077279 0.021137998 -0.0073231966
000070 7c 4b c7 bc 64 11 19 3b 06 ff aa bc fe 7e 3e bc
       -0.024327986 0.0023356313 -0.020873558 -0.011626957
000080 22 a1 19 3c 4c 7b cc bc ea 0e 70 3c e5 09 cb 3c
       0.009376796 -0.024961136 0.014651993 0.024784992
000090 ee 39 cf 3c 73 11 c0 bc d2 28 db bc 30 53 31 bc
       0.025296178 -0.02344582 -0.026752863 -0.010823056
0000a0 63 dd 0a 3b 5e a0 58 bc a7 5f 9b 3c 69 89 c9 3c
       0.0021189086 -0.013221828 0.018966509 0.024601655
0000b0 e3 93 e9 3b 7c 3c 84 bb 17 1c ca bc 81 d6 85 3c
       0.007128225 -0.0040355306 -0.024671597 0.016337635
0000c0 61 bf 80 bb 85 64 97 3c 0e e2 28 3c ba e1 93 3b
       -0.003929064 0.018480549 0.010307802 0.0045129927
0000d0 e3 e8 a3 bc 59 1b 8f 3c d4 7f a9 3b 36 3b ad 3c
       -0.02000851 0.017469095 0.005172709 0.021146398
0000e0 9f e2 a6 3c 4e c7 68 bc b5 37 a9 bc 4b 97 d0 bc
       0.020371733 -0.014207674 -0.020656446 -0.025462767
0000f0 3d 50 15 bc c1 78 16 bc 87 3b e6 3a 87 0a 6a 3c
       -0.009113369 -0.009184063 0.0017565348 0.0142847365

layer2.1.weight f4 [64]
000000 ec 16 a6 3f ae f9 2e 3f af e4 12 3f 69 37 21 3f
       1.2975745 0.6834973 0.57380193 0.62975174
000010 78 14 27 3f b6 23 1c 3f 7d 4f 97 3f 7f 34 33 3f
       0.6526561 0.6099199 1.1821133 0.7000198
000020 66 d0 37 3f ba f0 2c 3f 2f 84 4d 3f 9d 8b e0 3e
       0.71802366 0.6755482 0.8027982 0.43856516
000030 1d 68 36 3f d2 09 64 3f ab 47 59 3f 23 00 37 3f
       0.71252614 0.89077485 0.8487498 0.71484584
000040 91 34 02 3f 77 d1 17 3f 3e 49 0d 3f f6 e4 0f 3f
       0.5086146 0.59303993 0.55189884 0.5620874
000050 cf 90 26 3f 53 33 70 3f f2 ac 2c 3f 2e 4e 4d 3f
       0.6506471 0.93828315 0.67451394 0.8019742
000060 58 ed 54 3f 13 82 28 3f 0f c9 66 3f d4 db d9 3e
       0.8317466 0.6582348 0.9015054 0.42550528
000070 d0 90 5b 3f 1a a8 23 3f a6 ea 66 3f bb 34 03 3f
       0.8576784 0.6392838 0.90201795 0.51252335
000080 01 ed 1f 3f a0 96 cc 3e 56 0a 21 3f ae 02 c0 3e
       0.62471014 0.39958668 0.62906396 0.37502044
000090 3f 91 97 3f fb df 9a 3f 9f a1 0a 3f 24 79 4c 3f
       1.18412 1.2099603 0.54152864 0.79872346
0000a0 73 0b 1f 3f ac 7c 14 3f 7a 0b 49 3f 0f 9c 7e 3f
       0.62126845 0.58002734 0.78533137 0.99456877
0000b0 62 37 fb 3e 5c 34 0a 3f c2 13 15 3f c4 1d 9d 3f
       0.4906569 0.53986144 0.58233273 1.2274709
0000c0 ac d9 1d 3f ca 36 02 3f 5b 83 01 3f f6 e7 81 3f
       0.61660266 0.5086485 0.5059106 1.0148914
0000d0 47 00 5a 3f 9a e2 46 3f b8 16 17 3f 2f e7 f4 3e
       0.85156673 0.77689517 0.5901904 0.4783263
0000e0 53 ab 27 3f 86 7e 75 3f 75 ab 39 3f 6f 5d dd 3e
       0.65495795 0.95896184 0.7252725 0.43235347
0000f0 a9 80 01 3f 2c 1c 48 3f 1c 44 a4 3f d9 6d c8 3e
       0.50586945 0.78167987 1.2833285 0.39146307

layer2.1.bias f4 [64]
000000 1c a9 bf bd d5 ec 0e 3e 40 f7 dc 3d 3d 69 25 bf
       -0.09358427 0.13957532 0.10789347 -0.64613706
000010 de 15 01 bf b8 d1 57 be ff 4a 00 bf 1c 44 53 3d
       -0.5042399 -0.21076095 -0.50114435 0.051578626
000020 e4 fb c2 bd 4b bc 8e bd e6 97 37 be d5 46 33 be
       -0.095207006 -0.06969508 -0.17929038 -0.17507489
000030 4d d1 2f bc 68 bd a6 bd b7 d8 96 3e 05 c2 02 bf
       -0.010731054 -0.08141595 0.29462215 -0.510773
000040 7e dc bb be a4 7e 66 3c 36 60 a4 be 44 c3 4d be
       -0.3669166 0.014068279 -0.32104653 -0.20094019
000050 6d 10 8b be b2 82 ed be 6e aa 31 be 3d 0d 61 be
       -0.2716097 -0.46388775 -0.1735017 -0.21977706
000060 29 89 15 bf e8 c2 d8 be d5 71 69 be 6a 5f d4 be
       -0.58412415 -0.42336202 -0.2279733 -0.41479045
000070 4c 86 ac be 9c b8 93 bd 82 fd bb be a8 a3 ad bb
       -0.3369621 -0.07212946 -0.3671685 -0.0052990504
000080 43 fd 16 bd ed 46 e3 bd 45 46 08 3e 9d 27 d1 bd
       -0.036862623 -0.110975124 0.13308056 -0.10212634
000090 28 bb ac be db e0 f1 be a4 c2 fa be c4 68 a8 bd
       -0.3373654 -0.47241864 -0.48976624 -0.082231075
0000a0 d1 8c 56 bd 6e b0 60 be ce 81 84 be 14 0b 88 be
       -0.052380387 -0.21942303 -0.25880283 -0.26570952
0000b0 68 31 0e be 76 af 48 bd b4 49 49 be 36 49 c3 bc
       -0.13886034 -0.048995458 -0.19657022 -0.02383862
0000c0 48 fb 88 be 33 69 34 be 86 a5 52 be 60 9c b3 be
       -0.26754212 -0.17618255 -0.20570955 -0.35080242
0000d0 fb 27 06 bf e6 ea da be 51 72 91 be e4 06 68 3e
       -0.52404755 -0.42757338 -0.2840753 0.22658879
0000e0 24 17 a8 be 21 03 85 be e2 98 29 bd 7b 01 e9 bb
       -0.32830155 -0.2597895 -0.041405566 -0.007110772
0000f0 a7 7c 5f be 05 63 a0 3e 9b eb 1e be 2c ae 22 be
       -0.21824895 0.31325546 -0.15519564 -0.15886754

layer2.1.running_mean f4 [64]
000000 f5 af 7d c0 f7 4a 06 c0 d0 27 ea c0 79 74 3c 40
       -3.9638646 -2.0983255 -7.31736 2.944609
000010 2c 19 8c bf a0 af b2 bc 56 0f 46 c0 3a 52 20 c0
       -1.0945182 -0.02181226 -3.094686 -2.5050187
000020 c7 87 e9 c0 fb 07 39 bf de ec 02 c1 63 1a 98 3e
       -7.2978244 -0.722778 -8.182829 0.2970763
000030 46 bf 68 bf 12 80 af c0 18 c0 c4 bf ff 9e 78 c0
       -0.9091686 -5.4843836 -1.5371122 -3.8847044
000040 39 83 fa bf d7 b8 fa c0 d9 12 cf c0 42 f6 e9 bc
       -1.9571296 -7.8350635 -6.4710507 -0.028559808
000050 c5 27 88 c0 e1 34 9a c0 86 97 0c 3f fc 98 58 c0
       -4.2548547 -4.818955 0.54918706 -3.3843374
000060 bb 8d d1 c0 44 94 39 c0 cd 2a f9 bf 3f 12 ac bf
       -6.548551 -2.8996744 -1.9466187 -1.3443068
000070 4b 8a 19 bf 51 d4 1d c0 ec ab 87 c0 ab a5 af c0
       -0.59976643 -2.4660838 -4.2397366 -5.488973
000080 55 39 a6 c0 e2 6d ac bf 9e 18 6d 3f 8b a2 89 bf
       -5.1944985 -1.3471034 0.9261569 -1.0752729
000090 f8 75 55 c0 96 da cc c0 cd d1 34 40 3a cf 96 c0
       -3.3353252 -6.401683 2.8253052 -4.712796
0000a0 20 38 18 c0 ea 5c 31 c0 96 b9 12 c1 f8 7b 8e c0
       -2.3784256 -2.771296 -9.170309 -4.452633
0000b0 f9 6e a8 bf f0 1e ca 3f 1e 59 c5 c0 f9 1d 2b c0
       -1.3158866 1.5790691 -6.1671286 -2.6737044
0000c0 0f 9f 94 c0 b3 23 41 be f6 d2 d1 bf 02 3f 44 c0
       -4.6444163 -0.18861274 -1.6392505 -3.0663457
0000d0 3c 61 b7 c0 e2 c2 0a c1 fa 2e 5b 3e 19 22 ea c0
       -5.7306194 -8.672579 0.21404639 -7.3166623
0000e0 37 a3 b3 c0 04 60 31 c0 ee 15 6e c0 92 1f 00 3e
       -5.6136737 -2.7714853 -3.7200885 0.12512043
0000f0 76 09 c4 bf 2f b4 1d c0 fc 9d 91 c0 33 7f a4 40
       -1.5315387 -2.4641225 -4.550535 5.1405272

layer2.1.running_var f4 [64]
000000 5b 82 c9 41 2b ed 89 41 24 04 3e 41 e9 d4 86 40
       25.18865 17.240805 11.876011 4.21349
000010 3e 38 05 41 d4 26 c2 40 8d 99 91 41 8a 02 46 41
       8.326231 6.0672398 18.199976 12.37562
000020 21 bf 89 41 23 d8 54 41 e4 da 8e 41 80 bf 78 40
       17.218325 13.302768 17.85688 3.8866882
000030 7c 1a f7 40 67 4a 57 41 9e 67 d1 41 fa ba a3 40
       7.721983 13.455665 26.175594 5.1165743
000040 85 9d 21 40 58 d9 74 41 e7 8e 25 41 34 80 98 40
       2.5252392 15.303062 10.347388 4.76565
000050 3a 9b 13 41 05 8e 5a 41 06 c3 90 41 4d b4 33 41
       9.225397 13.659673 18.095226 11.231519
000060 d7 9b 35 41 fa 12 a4 40 68 8c 8d 41 d6 65 ad 40
       11.350547 5.1273165 17.693558 5.418681
000070 17 25 84 41 26 1e b7 40 c4 13 42 41 95 65 14 41
       16.51811 5.72243 12.129826 9.2748
000080 6c 66 60 41 c6 07 81 40 46 4b 03 41 44 4d bd 40
       14.025005 4.032199 8.205877 5.915682
000090 34 05 9f 41 b2 57 e4 41 39 8f 0f 41 d7 1d 80 41
       19.87754 28.54282 8.972466 16.01457
0000a0 bb dd b3 41 59 a5 a7 40 c7 d3 b7 41 bb 06 6e 41
       22.483267 5.238934 22.978407 14.876643
0000b0 9a 4b e8 40 de cd 22 41 04 01 23 41 20 01 77 42
       7.2592287 10.175261 10.187748 61.7511
0000c0 c8 b7 0d 41 62 b5 82 40 7b a8 b9 40 e9 e8 95 41
       8.857368 4.0846415 5.8018165 18.738726
0000d0 2c 4f 0f 41 30 cf 94 41 43 e1 f2 40 5d 12 52 41
       8.956829 18.601166 7.589998 13.129483
0000e0 df 9e 03 41 eb e1 a3 41 09 be c5 40 02 20 8e 40
       8.226287 20.485312 6.1794477 4.441407
0000f0 dd 77 5c 40 99 58 2a 41 37 4d bd 41 0a d3 f9 40
       3.4448159 10.64663 23.662703 7.8070116

layer3.0.weight f4 [64, 64, 3, 3]
000000 1f fa f8 bb 4f f0 c7 bc a0 8d 9c bd 02 99 fd 3d
       -0.007598176 -0.02440658 -0.076442 0.123826995
000010 5a af 90 3d d7 f9 10 3e 6b 0d cc 3d 9e df 0d 3e
       0.07064696 0.14157806 0.09963497 0.13854834
000020 90 dd 33 3e a2 c8 00 3e 72 40 cd 3d 24 32 16 3e
       0.17564988 0.12576535 0.100220576 0.14667565
000030 50 6f 80 bd 54 7b 34 3d 89 ba 59 3d 4e 95 88 bd
       -0.06271231 0.044062927 0.05315641 -0.066691026
000040 3a 9e 97 bc 7d ae 9d bd be 12 6b bc ed c6 a6 bd
       -0.018508065 -0.076992966 -0.01434773 -0.08143411
000050 68 39 51 bd 7e 6d a5 bb e9 b5 55 bd f0 94 36 bd
       -0.051080137 -0.005048453 -0.052175436 -0.04457563
000060 b7 53 d5 3c 0c f3 4c bd 0d 5d 5c bd b3 89 d4 bc
       0.026040895 -0.050036475 -0.053799678 -0.025944566
000070 77 80 52 bd ca e6 4c bd 2c ba 83 3c e1 19 29 bd
       -0.051392045 -0.050024785 0.016079985 -0.041284446
000080 12 c4 17 bd 5c e7 a2 bc 0b 99 68 bc a6 61 24 3d
       -0.03705222 -0.019885711 -0.014196645 0.040132187
000090 67 0d 50 3c c8 24 d8 bc 4d 16 84 bb ae b1 eb bb
       0.012698508 -0.026384726 -0.004030979 -0.007192812
0000a0 c4 7b c0 3c d4 c1 94 3c d1 4b 63 bd 67 f4 43 bd
       0.023496516 0.01815883 -0.055492226 -0.047840502
0000b0 49 2b 02 bd 20 93 b5 3c 55 fa f5 3b ed 4d 8d bd
       -0.03177956 0.022164881 0.0075066485 -0.06899629
0000c0 9c af ac 3d b1 e0 88 bc 9a 6d 30 bd 46 b1 ab 3d
       0.08431932 -0.016708704 -0.043073274 0.083834216
0000d0 11 ec e0 bc 19 52 d9 bd 9a ca 05 be 93 e1 ad bd
       -0.027456315 -0.10611362 -0.13065568 -0.084902905
0000e0 d7 c5 a1 bc 8d d2 7e bd df e4 0b bd b4 cc 47 bd
       -0.019747658 -0.062212516 -0.034153815 -0.048779204
0000f0 52 6f 91 bd 91 18 a5 bd f4 4a 07 bd 63 e8 10 3d
       -0.07101311 -0.08061326 -0.033030465 0.03537787
000100 5b 09 9e bc 16 33 ef 39 d6 6b a5 3c 65 11 a1 3c
       -0.01929157 0.00045623694 0.020193022 0.019661615
000110 49 0d 16 3d 5a 0a f9 bc d2 68 17 bd ba 4f 67 bd
       0.036633763 -0.030400444 -0.0369652 -0.056472518
000120 d4 dc 6c bd 6c 76 53 bd 26 e6 9c bd 46 41 90 bd
       -0.057827786 -0.051626608 -0.07661085 -0.070437
000130 b8 86 87 bd e0 12 dd bd 45 f2 87 bd 19 58 af bd
       -0.066174924 -0.10794616 -0.06638006 -0.08561725
000140 d2 b7 b5 bd ae 7e ab bc 1f bf 96 bd 7e 91 4b bd
       -0.088729516 -0.020934429 -0.07360672 -0.0496993
000150 e7 4c 22 bd d8 54 be bd 73 e9 89 bd 28 32 5f bd
       -0.03962412 -0.092935264 -0.0673398 -0.054491192
000160 93 8d 82 bd 71 93 5b bd de ae d0 bc 8c f1 f6 bc
       -0.063746594 -0.053607408 -0.025474008 -0.030144475
000170 27 58 44 bd 15 07 12 bd 8c 0d b6 bc e5 f8 16 bd
       -0.04793563 -0.035651285 -0.022223257 -0.036858458
000180 b9 8d 0f bd 13 34 52 bc e9 c3 40 bc 68 a6 81 bc
       -0.035047267 -0.012829798 -0.011765459 -0.015826419
000190 46 06 a2 bc e9 c9 8f bd 0c 1c 1c 3c 24 e5 fa 3c
       -0.019778382 -0.07020933 0.009528171 0.03062684
0001a0 ba 4b 8a 3c c1 c8 3d ba 13 ce b0 bc f8 85 21 bc
       0.016881812 -0.00072396925 -0.021582639 -0.009858601
0001b0 be b4 3c bd be f7 16 bd 68 25 b1 bd 7e b4 c2 3c
       -0.046070807 -0.03685736 -0.08649713 0.023767706
0001c0 3e f7 62 bd 96 df 68 bd dd 4e 48 3d 05 da 29 b8
       -0.05541157 -0.056853853 0.048903335 -4.0495786e-05
0001d0 0f 5e 9c bb f7 7e e5 3c eb ae 21 bd e8 7c 5a bd
       -0.004771955 0.028014643 -0.039473455 -0.053341776
0001e0 9a 81 b2 3b c4 81 dc 3b ed 45 e8 bc aa 16 e8 3d
       0.0054475786 0.0067293365 -0.028353656 0.11332448
0001f0 5f 33 3b 3d db 0f 08 3d dc 28 00 be 27 76 07 be
       0.04570329 0.033218246 -0.12515587 -0.13228665
000200 2a b9 f9 bd 68 70 8a 3c df cd 83 bd 5e e1 d0 bc
       -0.1219352 0.016899303 -0.06435751 -0.025498088
000210 df a6 43 3b 7f 35 a6 3c 7e 57 6d 3d 07 f5 d8 3c
       0.0029854102 0.02028918 0.057944767 0.026484026
000220 b2 8e 79 3d 85 1d 2d 3d 50 31 1f 3d e5 ea 78 3d
       0.0609271 0.04226448 0.038865387 0.060770888
000230 81 66 ef 3d c4 87 bd bc 5f 66 3a 3c 35 70 3b 3d
       0.11689473 -0.023136027 0.011376946 0.045761306
000240 7c dc fd 3b 9d af 08 3c 9c 29 bf bc c0 84 a8 3c
       0.007747231 0.008342651 -0.02333527 0.020571113
000250 2c 48 c9 bb 44 e4 dc 3c 24 db 24 3d 7e a7 d5 3b
       -0.0061426368 0.026964314 0.04024805 0.0065202108
000260 79 71 2a 3d be 07 c3 bc 32 58 3c bd f9 0f d9 bd
       0.041612122 -0.023807403 -0.045982547 -0.1059875
000270 62 ae 65 bd ff b1 94 bd 8b 5f 8f bd 70 57 29 bd
       -0.056074508 -0.072605126 -0.07000645 -0.041343153
000280 01 50 42 bd e7 43 c2 bd 29 98 c5 bc 8b 20 c2 bc
       -0.04743958 -0.094856076 -0.024120407 -0.023697158
000290 59 4d 19 3c a2 ac 9c 3a aa f7 2c b9 c6 22 63 3c
       0.00935682 0.0011953304 -0.0001649546 0.013863271
0002a0 9a cf 43 3b 9e 88 dc bc d5 59 4c bd e5 8a f7 bb
       0.002987838 -0.026920613 -0.049890358 -0.0075543993
0002b0 a0 39 c4 bc d1 00 43 bd 50 ef 0f bd 87 82 58 bd
       -0.023953259 -0.0476082 -0.035140336 -0.052858856
0002c0 ba 95 66 bb 7d 96 0f bd 3e 91 8b bd 71 eb 2f bd
       -0.0035184459 -0.035055626 -0.06814812 -0.042949144
0002d0 31 a2 8c bd 9d 0f da bc ef ed f9 bc 42 21 6e bd
       -0.06866873 -0.026618773 -0.030508963 -0.058137186
0002e0 eb 90 a3 bc 7b 24 70 bc d2 85 9a bd 26 b8 be bc
       -0.019966563 -0.014657135 -0.075450554 -0.023281168
0002f0 72 28 8c bd d2 94 67 bc 85 be ba bc 79 00 24 bd
       -0.06843652 -0.014134603 -0.022795925 -0.040039513
000300 48 b5 1b 3c e8 9e 08 3d 08 43 c4 bc 00 4a 12 bd
       0.00950367 0.03335467 -0.023957744 -0.035715103
000310 88 30 7e bd 6c 47 44 bc 5f 04 81 3d 5c 75 3d 3c
       -0.062058 -0.011979919 0.06299662 0.011563625
000320 e0 45 18 3d 75 9f 0e bd ff fa da bd 22 4d 8d bd
       0.037176013 -0.03482004 -0.10692405 -0.068994775
000330 6a 14 c7 bd 43 ab 04 be 01 51 cf bd 0c c3 32 bc
       -0.097206905 -0.12955956 -0.10122872 -0.010910761
000340 ea 0f 0b bb 3c a4 28 3d 54 fe 4d 3d b7 5e 8c 3c
       -0.0021219202 0.04117225 0.050291374 0.017135007
000350 ec 50 2b 3d 7f 20 6c 3c bd 5b 95 bc ff 73 ec bb
       0.04182522 0.014412045 -0.01823222 -0.0072159762
000360 1e b7 a2 bb 36 f0 12 3d 91 1d 8f 3c 95 6e 51 bc
       -0.004965677 0.035873614 0.017470153 -0.0127827125
000370 a3 57 a2 3d 4d 83 31 3d 34 3f e1 bc 95 fc 67 3a
       0.07926872 0.04333811 -0.027495958 0.00088495883
000380 54 ce d9 bb 6f 83 4c bc bc fc d4 bb 29 e7 9e bc
       -0.0066469107 -0.012482508 -0.006499855 -0.019397335
000390 ce 9e f4 3c b7 b5 d7 3d 09 a2 9b 3d c9 55 24 bc
       0.02986088 0.10532706 0.07599265 -0.010030218
0003a0 65 60 30 3c 4e fd 8a bb ee af ac bd 16 87 29 be
       0.01076517 -0.004241622 -0.084319934 -0.16555437
0003b0 b5 fe fd bd 5e 93 0e 3d b6 4e 63 bd 9e 47 c5 bc
       -0.12402097 0.03480851 -0.055494986 -0.024082001
0003c0 69 37 95 3b f5 91 69 bd bb bb 5f 3c 0e df 88 bc
       0.0045537245 -0.05702396 0.013655598 -0.016707923
0003d0 d1 e1 0d bd b4 39 9a bd 33 90 83 bd 30 ad 26 bd
       -0.034639183 -0.07530537 -0.06423988 -0.04069251
0003e0 f9 3e 0a bd 14 e7 52 bd 9b 93 09 bd cd 40 7e bd
       -0.03375146 -0.051489905 -0.033588033 -0.062073518
0003f0 d3 07 95 bd 98 01 18 be 53 ce 0b be 97 41 0a be
       -0.07276883 -0.14844358 -0.13652925 -0.13501583

layer3.0.bias f4 [64]
000000 60 ef 11 bb 0c f3 04 ba c1 d2 aa bc a8 ba 8c bc
       -0.0022267923 -0.0005071617 -0.020852448 -0.017178848
000010 d5 65 bd bc 56 ea 18 ba 15 2e 9f bc 77 83 94 38
       -0.023119846 -0.00058332586 -0.019431153 7.081677e-05
000020 e6 06 46 bc 0e b9 0f bc 84 86 ca 3c d7 5b bc bc
       -0.012086606 -0.008772148 0.024722345 -0.022993011
000030 3b 84 37 bc 25 57 03 3b 10 07 04 bc 40 be 23 3c
       -0.01120096 0.0020040956 -0.008058324 0.00999409
000040 4a fc d0 3c 0d 1b 60 3c 6e 3c 5d 3c 51 39 1c bb
       0.025510926 0.013678324 0.013503177 -0.0023837874
000050 87 7d 9c bb c2 2f f2 3b bd f6 6a 3c 46 2d 8d 3c
       -0.004775706 0.007390947 0.014341054 0.017233502
000060 55 eb 24 3c 70 1c 69 3c 97 d6 c4 3b 69 29 f9 b9
       0.010065873 0.014227971 0.0060070264 -0.00047523834
000070 12 89 ac bb 6d a3 a9 bc 0a 3d da bc ba d0 d3 bc
       -0.0052653635 -0.02070781 -0.026640434 -0.025856365
000080 df 9e ab 3c 0d 7e dd 3b fc ac c8 3c 19 16 a6 bc
       0.02094978 0.006759411 0.024496548 -0.020274209
000090 2d be b9 3c aa 92 d7 bc 3c 20 a1 bb d6 d1 45 3c
       0.02267369 -0.026315052 -0.0049171727 0.012073955
0000a0 71 7b cc bc 80 b1 92 3c a1 6b ca bc b1 7b 91 3c
       -0.024961205 0.017906904 -0.024709525 0.017759176
0000b0 c1 45 b6 3c 8c 91 a8 3c 2b f4 1c 3a 73 a5 80 3c
       0.022250058 0.020577215 0.00059873116 0.015703892
0000c0 bf 69 45 3c 6a c7 af 3c a3 cc d0 bc 2d 40 d3 bc
       0.012049138 0.021457393 -0.025488203 -0.025787437
0000d0 7e e7 92 bc 84 7a c3 3c 4f fb 11 3c 95 b8 0b bb
       -0.01793265 0.023862131 0.008910014 -0.0021319736
0000e0 f4 d6 ca bb 1d 45 8f 3c a0 3e 9a 3c 85 4e a7 bc
       -0.006190175 0.01748901 0.01882869 -0.020423183
0000f0 0f 54 86 bb 23 1f 90 3c 19 b6 98 bc fc 9a 94 3c
       -0.004099376 0.017592972 -0.018641518 0.018140309

layer3.1.weight f4 [64]
000000 10 68 39 3f 25 5b 8a 3f d1 5e e1 3e 41 ec 1f 3f
       0.7242441 1.0809065 0.44017652 0.6246987
000010 b3 11 67 3f 1a e8 86 3f 30 7e 1d 3f 31 89 57 3f
       0.9026138 1.0539582 0.6152067 0.8419371
000020 b9 48 84 3f 53 92 12 3f b5 a5 84 3e b3 a9 18 3f
       1.0334693 0.57254523 0.25907674 0.5963394
000030 af ae 5a 3f 51 1f 4b 3f ec 5f 6e 3f c2 98 1e 3f
       0.85422796 0.7934466 0.93115115 0.6195184
000040 9d cf 21 3f 44 dd 38 3f 11 9f fc 3e 82 a9 1e 3f
       0.6320742 0.72212625 0.49340108 0.619774
000050 ce 99 27 3f 08 c5 29 3f 18 4d 0e 3f d4 63 46 3f
       0.6546906 0.6631627 0.55586386 0.77496076
000060 ca 12 81 3f 23 34 1a 3f 05 e2 fd 3e 87 d5 35 3f
       1.0083859 0.60235804 0.49586502 0.7102894
000070 6c a1 08 3f a8 50 01 3f 30 46 2d 3f 92 8f 7e 3f
       0.5337131 0.50513697 0.6768522 0.9943782
000080 aa e0 01 3f e6 ed 0f 3f 78 26 2e 3f 89 84 32 3f
       0.50733435 0.5622238 0.6802745 0.6973348
000090 0a 08 39 3f 28 08 80 3f ee 16 a9 3f 5d da 77 3f
       0.7227789 1.0002489 1.3210123 0.9681757
0000a0 af 59 09 3f 8b ad 85 3f 3d 89 9c 3f 1c 05 0b 3f
       0.5365247 1.0443586 1.2229382 0.5430467
0000b0 fe 12 01 3f ba 98 1c 3f cf ff b0 3f 46 a5 76 3f
       0.50419605 0.6117054 1.3828067 0.9634594
0000c0 a0 94 2e 3f 28 6c 08 3f 25 dc 07 3f fa 5b ca 3e
       0.68195534 0.53290033 0.5307029 0.39523298
0000d0 ef 3b a8 3f 4b 8a 24 3f bb b7 47 3f f1 06 59 3f
       1.314329 0.6427352 0.78014725 0.84776217
0000e0 ca 2a c1 3e 50 4d 9a 3f e6 a7 28 3f 0e 1f 68 3f
       0.37727958 1.2054844 0.6588119 0.90672386
0000f0 04 4b 27 3f 05 90 09 3f 5a 41 2b 3f ce 7c 8f 3f
       0.6534884 0.5373538 0.66896594 1.1209962

layer3.1.bias f4 [64]
000000 a1 f8 87 be c6 d7 3b bf 38 0e 79 be f9 13 30 3e
       -0.26556876 -0.7337612 -0.2432183 0.17195119
000010 9e 07 a7 be e3 38 03 bf 80 95 1f bf 92 73 03 be
       -0.32623 -0.5125868 -0.62337494 -0.12837055
000020 c7 6b 7b be b3 b4 b4 3d ec 3e de be 8a 0c f8 3d
       -0.24552833 0.08823528 -0.4340738 0.12111767
000030 b9 ab 99 be ba 6b 16 be a6 78 25 be e1 25 44 be
       -0.30013826 -0.14689532 -0.16159305 -0.19155075
000040 e4 b8 05 bf 21 e6 aa be 85 7d ae be e6 c1 98 be
       -0.52235246 -0.333787 -0.3408014 -0.29835433
000050 ac 4d 2d be 11 9b 86 be 73 ec c8 be 28 b3 78 be
       -0.1692416 -0.2629018 -0.39242896 -0.24287093
000060 f6 14 b9 be d8 85 e9 be e9 28 85 be bd be 7c be
       -0.36148804 -0.45609927 -0.26007774 -0.24682136
000070 c1 49 17 be cc 7b ab be f0 e7 88 be 3c c0 ac be
       -0.14774229 -0.33492887 -0.26739454 -0.33740413
000080 5b 05 20 bc 3e 20 23 bf 0b 78 7e be a9 45 ef bd
       -0.009766902 -0.6372107 -0.2485048 -0.116832085
000090 f1 f5 6f be 8f 1b d9 be 6a 3c 14 bf 42 5e d0 be
       -0.23433663 -0.42403838 -0.57904685 -0.40696913
0000a0 d6 e0 64 be aa 6b 8d be da 73 a8 be 11 b4 a6 be
       -0.22351393 -0.27621204 -0.32900888 -0.32559255
0000b0 15 25 bf 3d 21 9e b7 bd 49 9b f0 be 13 80 93 3c
       0.09333245 -0.089657076 -0.46993473 0.018005406
0000c0 5f 39 02 bf 67 99 7d be f5 ed 8e be 6b 40 4a be
       -0.5086879 -0.2476555 -0.27915922 -0.19751136
0000d0 da a5 16 bf c1 1e cf be f1 79 da be 0a 37 a4 be
       -0.5884682 -0.4045315 -0.4267116 -0.3207324
0000e0 73 6b a4 be b6 8b 8a be 70 43 9b be 42 5c ba be
       -0.32113227 -0.27059716 -0.30324888 -0.36398512
0000f0 77 c4 84 bd 3f c6 1f be ec e4 c8 be 63 e8 f0 be
       -0.06482785 -0.15602969 -0.39237154 -0.47052297

layer3.1.running_mean f4 [64]
000000 80 4f 5d c0 e6 f3 11 c0 3f 0c 39 bf 2a 74 5c c0
       -3.4579773 -2.2805114 -0.7228431 -3.44459
000010 6b d6 0f c0 e9 47 07 c0 7f fa 27 3f 06 18 30 c0
       -2.247462 -2.113764 0.656166 -2.7514663
000020 df e1 a3 c0 45 09 27 c0 b9 de 05 40 77 af 1b c0
       -5.121322 -2.6099408 2.091719 -2.4325845
000030 bb f4 3d 3e ee 49 a7 c0 7b 67 80 bf 21 25 96 c0
       0.18550389 -5.2277746 -1.003158 -4.6920323
000040 49 f8 1e c0 46 50 69 c0 06 cf 8b 3f d3 a1 fa bf
       -2.4839041 -3.6455245 1.0922554 -1.9580635
000050 de bc ad bf f5 a2 95 bb 60 8f 99 3d a7 93 6a c0
       -1.3573263 -0.004566545 0.0749805 -3.665262
000060 5f 12 9c c0 27 f4 04 c0 02 8e e9 bf 73 db 09 bf
       -4.8772426 -2.0774019 -1.8246462 -0.5385048
000070 0c ba 27 c0 da 8b 20 be 96 c5 e6 bf c6 55 3e c0
       -2.6207304 -0.15678349 -1.8029048 -2.9739852
000080 ac c3 58 c0 71 59 f4 3f 18 a0 d9 be 94 c3 8f bf
       -3.3869429 1.9089795 -0.42504954 -1.1231561
000090 46 e0 71 c0 9d 91 b0 bf d3 e5 60 c0 36 54 cd bf
       -3.7793136 -1.3794438 -3.5140274 -1.6041324
0000a0 0e 71 17 c0 98 aa 07 bf 19 de 87 c0 09 3f c7 bf
       -2.3662753 -0.5299468 -4.2458615 -1.5566112
0000b0 41 f2 15 bf 1f 71 47 c0 16 ea 4d c0 33 45 a7 c0
       -0.58572775 -3.1162794 -3.2174125 -5.227197
0000c0 fb c5 98 3e 0c b7 37 c0 e3 09 61 c0 04 17 18 40
       0.29838547 -2.8705473 -3.5162284 2.3764048
0000d0 cb 01 65 c0 45 f7 88 bf ce 76 f0 bf 10 81 cf bf
       -3.5782344 -1.0700461 -1.8786256 -1.6211262
0000e0 46 20 be bd 25 1a 8b c0 78 33 42 3e 1a 5b 24 c0
       -0.092834994 -4.3469415 0.18964946 -2.5680604
0000f0 09 79 2b c0 b3 e5 15 c0 47 b5 84 c0 e5 bc 46 c0
       -2.6792624 -2.3421447 -4.1471286 -3.1052792

layer3.1.running_var f4 [64]
000000 d7 ac a6 40 62 00 a3 40 5b 92 0a 40 cc 3c ae 40
       5.2085986 5.0937967 2.1651828 5.4449215
000010 f9 53 b6 40 97 f6 05 41 6a 55 4f 40 34 f7 d8 40
       5.6977506 8.372703 3.2395883 6.780176
000020 29 7f d2 40 06 20 bf 40 a7 e8 df 3f ed f4 53 40
       6.5780225 5.972659 1.7492875 3.311824
000030 f2 e7 91 40 9c 7f a7 40 71 6d 12 41 69 b4 a4 40
       4.5595636 5.2343273 9.151719 5.1470227
000040 9d 16 5d 40 48 38 60 40 fb 8a ec 3f a5 12 80 40
       3.4545052 3.5034351 1.8479913 4.002276
000050 0c 79 90 40 67 00 6e 40 ad 62 13 40 df 69 e2 40
       4.514776 3.7187746 2.3028977 7.0754237
000060 de ce f9 40 12 3e 6e 40 9d 74 5c 40 28 62 ce 40
       7.8065023 3.7225385 3.4446175 6.449482
000070 93 ef 3d 40 88 49 31 40 42 5b 4f 40 99 11 1e 41
       2.9677474 2.770113 3.239945 9.879296
000080 e8 ac 66 40 ba e0 ca 3f 68 02 68 40 30 c4 78 40
       3.6043034 1.5849831 3.6251469 3.8869743
000090 1f 6f 6e 40 cf 34 d1 40 4c c1 2a 41 6d 3b 06 41
       3.7255323 6.5376964 10.672192 8.389508
0000a0 96 1d 3a 40 36 0e d1 40 53 6a 29 41 9c bf 4a 40
       2.9080558 6.5329847 10.588458 3.167945
0000b0 6f 0a d7 40 b5 77 79 40 50 d4 15 41 ab 91 6b 41
       6.7200236 3.8979313 9.364334 14.723063
0000c0 e3 d6 af 40 c2 1b 24 40 76 c1 67 40 f8 6e 11 40
       5.4949813 2.5641942 3.621183 2.272398
0000d0 28 35 60 41 86 a5 54 40 60 4b 3d 41 13 14 3c 41
       14.012978 3.3226027 11.830902 11.754901
0000e0 90 81 b9 3f bd 38 08 41 7f 86 39 40 6f f6 b4 40
       1.4492664 8.513852 2.898834 5.655082
0000f0 e8 f9 72 40 9d 37 69 40 7f 42 a8 40 d1 d1 09 41
       3.796503 3.6440194 5.258117 8.613725
