results/RENet-dataset-Conv64F-5-1-Jan-08-2024-14-32-52/checkpoints/model_00060.pth (torch, 909453 bytes, 69 tensors)

emb_func.layer1.0.weight f4 [64, 3, 3, 3]
000000 b4 ff 99 3e 5a ea f4 bd b6 c9 85 be 7f 6c 5d bf
       0.30077899 -0.119587615 -0.26130456 -0.86493677
000010 d8 bb 35 bf ed 8d a1 bc ed 6a 60 3e 3b 6d 38 3f
       -0.7098975 -0.019720996 0.21915789 0.7204167
000020 73 96 35 3f d0 d3 d2 3e 32 6a 60 be 53 5d 9f be
       0.7093269 0.41177225 -0.2191551 -0.31125888
000030 79 96 8c bf 54 8a 72 bf 2f 40 6c bd 8e 50 e9 3d
       -1.0983421 -0.9474232 -0.057678398 0.11392318
000040 ed 55 44 3f 48 10 55 3f 85 20 20 3f c5 d8 e0 3b
       0.7669361 0.8322797 0.6254962 0.0068617784
000050 19 46 f6 bd 5b 6d 51 bf 79 0e 3b bf 1f 3c 00 3e
       -0.12025089 -0.8180749 -0.7306896 0.12522934
000060 01 b4 44 bd f5 56 1b 3f 5d ff 38 3f 50 3f 4c be
       -0.048023228 0.6067956 0.72264653 -0.19946027
000070 8a d9 16 be ff 8e 62 be 59 e3 4f be 97 e6 e7 bd
       -0.14731422 -0.22124861 -0.2030157 -0.113232784
000080 a4 85 6c be 31 d2 7d bc aa f1 29 bd 71 91 a5 bd
       -0.23097855 -0.015492008 -0.041490234 -0.08084381
000090 63 55 79 bd 4f 25 36 3d e3 a5 68 bd ce be b3 bc
       -0.060872447 0.044469174 -0.056798827 -0.021941569
0000a0 55 96 2f 3d 31 d0 3f bd 1a 78 e3 3d 6c 2b aa 3d
       0.042867977 -0.046829406 0.11106892 0.08309063
0000b0 eb f7 61 3d 80 d3 44 bb ab a6 bb 3d fc 40 0d 3b
       0.055168074 -0.003003329 0.09162649 0.0021553626
0000c0 0a d7 ac 3c 0f 0d e3 3d 53 be 79 3d 01 42 34 3e
       0.021098632 0.11086475 0.060972523 0.17603303
0000d0 be 7b 2c 3e 14 d5 fd 3d f5 e7 35 3d 53 36 ca bd
       0.16844079 0.12394157 0.044410665 -0.09873643
0000e0 fa 57 a7 bd ca d9 af be f0 91 c2 be f4 ba cd be
       -0.08171077 -0.34345847 -0.38001966 -0.40181696
0000f0 c4 ef 73 be 5c 2e 3a be fe d2 8d be 43 02 96 3e
       -0.23821932 -0.18181747 -0.27700037 0.292986
000100 ce 06 6a 3e cb 7f 62 3e 47 c8 33 3d 24 2e 27 3d
       0.22854158 0.22119062 0.04389217 0.040815488
000110 6c 7f 90 ba 8b 86 40 be f1 bb 40 be c6 b6 85 be
       -0.0011024303 -0.18801324 -0.18821694 -0.26116008
000120 bf ab cc 3e 7a 87 b4 3e 22 47 b7 3e fa 10 94 3e
       0.39974782 0.3525961 0.35796458 0.28919202
000130 09 ee 83 3e 19 ad 25 3e e1 9a d3 bb 53 71 ac ba
       0.25767544 0.16179313 -0.006457672 -0.0013156332
000140 a4 f0 ca bd 18 3e dc 3e 61 b8 32 3f 79 2c 24 3f
       -0.0990918 0.43016124 0.6981259 0.6413036
000150 98 17 10 bf da be 04 bf a1 2e 88 be f3 15 c7 bd
       -0.56286 -0.51853716 -0.26598075 -0.09720983
000160 7f aa 39 be 93 21 7b be 38 6f 28 3f 5d 1c 78 3f
       -0.18131445 -0.24524526 0.65794706 0.9691828
000170 39 46 6d 3f fd a6 11 bf f7 f2 1e bf 22 83 a4 be
       0.92685276 -0.5689543 -0.62089485 -0.32131296
000180 df bc 8e be f5 60 12 bf 3e b3 17 bf af f7 21 3f
       -0.27878472 -0.57179195 -0.59257877 0.6326856
000190 fd bb 78 3f 0b 59 69 3f 3a 1c c1 be b7 64 d0 be
       0.9716185 0.91151494 -0.37716848 -0.4070184
0001a0 9a 84 17 be 93 bd 1e be 21 5c 04 bf 76 d1 ff be
       -0.14796677 -0.15502004 -0.5170308 -0.49964494
0001b0 e5 a2 ce 3e 91 b0 81 3d 57 b5 c8 bd c4 6b 64 3f
       0.40358654 0.063325055 -0.09800213 0.8922694
0001c0 f2 9e 95 be 40 e3 b4 be 95 39 5c 3f 56 15 f8 be
       -0.29222828 -0.35329628 0.86025363 -0.48453778
0001d0 26 5a 0a bf 58 84 20 3e ac c2 9c bd 11 1a 00 be
       -0.54043806 0.15675485 -0.07654318 -0.12509944
0001e0 c3 e3 37 3f 1a 4a ec be 50 4d 01 bf 19 ec 40 3f
       0.7183191 -0.46150285 -0.50508595 0.75360256
0001f0 18 0b 29 bf 3d b4 1a bf 3c ca 83 3e 4b 26 c2 3d
       -0.6603255 -0.6043127 0.2574023 0.0947996
000200 bb 70 f4 3d bf f1 30 3f c4 76 9a be 8d 89 66 be
       0.11935564 0.69118875 -0.30168736 -0.22513409
000210 1b 13 3a 3f cd a8 f7 be f8 64 b1 be ed 28 4a be
       0.726854 -0.48370972 -0.34647346 -0.19742174
000220 eb 1a 5f be 6f f7 98 be 24 88 b6 3d 13 e4 96 3d
       -0.21787612 -0.29876277 0.089126855 0.073677205
000230 10 2c 44 3d 8b 80 b0 3e e1 2a d9 3e 9c 4b c1 3e
       0.047893584 0.3447307 0.42415527 0.37752998
000240 fa 8b 42 3d e3 56 76 bb 53 7b 86 bd 52 a4 f1 be
       0.047496773 -0.003758841 -0.06566491 -0.4719568
000250 67 a3 20 bf a5 cc 2d bf 37 60 14 bf ad dd 1c bf
       -0.6274933 -0.6789039 -0.5795931 -0.6127575
000260 9e a6 12 bf b3 9c 3c 3f ce 02 27 3f 68 07 01 3f
       -0.5728549 0.73676604 0.65238655 0.50401926
000270 4a 3e 68 3e 91 5c f1 3c 51 a7 4a bc 1d 0e c7 3d
       0.22680011 0.029463084 -0.012368993 0.09719489
000280 1a 57 5d 3d 27 fe 5d 3d 0c 5f 09 bf 82 1a 2d bf
       0.054038145 0.054197457 -0.53660655 -0.6761857
000290 3b 09 90 be 92 74 2a bf 4a 39 85 be 6f 74 66 3e
       -0.28132042 -0.6658412 -0.2602027 0.22505353
0002a0 8c 7b 2d 3e 7d 78 f2 3e ab 6f 27 3f d5 3a 86 3d
       0.1694166 0.4735755 0.65404767 0.0655419
0002b0 16 8d 91 bd d6 a1 7f 3e 35 19 dd be b1 5f 0a 3d
       -0.07106988 0.2496408 -0.43183294 0.033782665
0002c0 73 72 e6 3e 3b 30 4a 3d ac 38 b8 3e 19 df d3 3e
       0.45009193 0.049362402 0.35980737 0.41381148
0002d0 92 4c 0e 3e db 95 b8 bd 5f 4d 38 3e 57 9f f9 be
       0.13896397 -0.09012958 0.17998265 -0.4875438
0002e0 7c 71 0f be 5e 72 54 3e 10 0a af be bf ac d8 bd
       -0.14008135 0.20746753 -0.34187365 -0.10579824
0002f0 f6 6f 84 bd 10 43 0d 3f f5 64 33 3f 2c be 41 3f
       -0.06466667 0.55180454 0.70075923 0.75680804
000300 5a 7a ca be 31 0f 60 be dc c6 18 bd 10 55 2f bf
       -0.39546472 -0.21880795 -0.037299022 -0.6848917
000310 55 88 cc be da a4 f6 bd d5 31 c1 3e 7c 71 01 3f
       -0.39947763 -0.12043162 0.3773333 0.5056379
000320 8a c5 f4 3e fa b7 e0 be 54 40 b2 be 2c 3b 45 be
       0.4780696 -0.43890363 -0.34814703 -0.19260854
000330 16 52 5e bf 42 c1 0a bf 9f c4 87 be 72 83 dd 3e
       -0.86844003 -0.5420114 -0.26517197 0.43264347
000340 66 31 01 3f c8 d5 e9 3e 2d 91 e1 bd 35 f6 f7 bb
       0.50466 0.45670915 -0.11014018 -0.007567192
000350 a5 b9 11 3e 50 e2 b1 be 20 5d b5 bd b9 d5 4e 3e
       0.14230974 -0.34742975 -0.08855653 0.20198716
000360 57 67 00 bf 29 5c 00 bf 79 53 0b be 9c 9a 83 bd
       -0.50157684 -0.50140625 -0.13606061 -0.06425974
000370 cb 59 9d bc 4e 9f ed 3d 03 09 bf 3e e9 de ea 3e
       -0.019207856 0.116026506 0.37311563 0.45873192
000380 c7 16 c7 3e bf 33 c5 be 8b 6f d1 be 65 2d 22 be
       0.38884565 -0.38516042 -0.40905413 -0.15837629
000390 8a 82 87 bd 00 95 7b bd 5a 37 22 bb 3f c4 8c 3e
       -0.06616695 -0.061421394 -0.002475223 0.27493474
0003a0 1a 95 9e 3e ab 02 69 3e f8 76 8c be 85 db 91 be
       0.3097313 0.22754924 -0.27434516 -0.28487793
0003b0 1f c7 9a bd 13 38 ca 3c f2 a1 99 3c ca d6 65 3d
       -0.075575106 0.024684941 0.01875398 0.056113042
0003c0 61 cf 58 3e ea 28 7b 3e 47 8f 08 3e aa b6 d1 bd
       0.21172859 0.24527326 0.13335906 -0.102399185
0003d0 db f8 5b be a8 3f 4d be fa 44 62 be 06 02 d6 be
       -0.2148165 -0.20043814 -0.22096625 -0.4179842
0003e0 b0 86 85 be 4d 6f 17 be c5 83 94 be 13 dd f9 bd
       -0.2607932 -0.14788552 -0.29006782 -0.1220037
0003f0 74 26 fa 3c 65 98 a0 bd 0d 47 d1 bc 84 bc c0 3c
       0.030535914 -0.07841567 -0.025546575 0.023527391

emb_func.layer1.0.bias f4 [64]
000000 24 8f 1b 3c d8 50 ca bc a1 1b 9e 3b b8 5f cf 3c
       0.009494577 -0.024696752 0.004825071 0.025314197
000010 d8 bb a9 3c 4f 91 d7 3c 0b 45 88 3c 36 a5 26 bb
       0.020719454 0.026314406 0.016634485 -0.0025428063
000020 83 73 03 3c e6 5e 52 bc 29 ab d5 3c ba 14 7c 3c
       0.008023146 -0.012840008 0.026082592 0.015385801
000030 ab 3e b8 bc 59 a8 d9 3c fc 0e ef b9 39 11 b3 ba
       -0.02249082 0.026569532 -0.00045596797 -0.0013661749
000040 bc c9 09 bc 29 d5 04 bc 7a 9e c9 3a 0d ca 75 bc
       -0.008409914 -0.008107462 0.0015382313 -0.015001786
000050 b3 28 ea bc ae aa 81 bc 82 5d c8 bb 4f 17 be 3c
       -0.02858386 -0.015828457 -0.0061146626 0.023204474
000060 72 2f b9 3c af d2 96 bc a3 a8 9a ba 35 4e 11 bc
       0.022605632 -0.018411009 -0.0011799525 -0.008868744
000070 5a aa 86 bc 9c 0f b1 bb dd af 2e bc d8 b3 8c 3c
       -0.016438652 -0.005403472 -0.010662046 0.0171756
000080 97 ae 79 bc 65 e9 9a 3b f6 0c 8e bc ad 20 1d bc
       -0.015239379 0.00472753 -0.017340165 -0.00959031
000090 66 2a c6 3c fd 29 77 bc 7f 2e f2 ba b7 69 f0 3c
       0.024190139 -0.015085694 -0.0018476992 0.029347284
0000a0 80 50 2c 3c 21 21 80 bc 37 23 97 bc 5f 8c 30 bc
       0.01051724 -0.015640797 -0.018449409 -0.010775655
0000b0 fd a7 1d bc 10 33 5b 3c 72 dc df bb 13 4e d4 3c
       -0.009622571 0.0133788735 -0.006831699 0.025916135
0000c0 9c 1e 8a bc bb 6e 1d bc 38 4c 37 3c 4b 0b c9 3c
       -0.016860299 -0.00960892 0.011187606 0.024541518
0000d0 24 cd f0 3c ee 27 a1 3b 81 c4 a9 3a d6 90 61 bc
       0.029394694 0.00491809 0.001295224 -0.013767442
0000e0 0d 3b 8e 3c 8c ea 91 bc 63 54 04 bc 93 64 d2 bc
       0.017362142 -0.017812036 -0.00807676 -0.025682723
0000f0 6a fe f1 bc 36 b4 8c 3c 29 d0 08 3b 8f ab c8 3c
       -0.02954026 0.017175775 0.0020876026 0.024495868

emb_func.layer1.1.weight f4 [64]
000000 1e 8c 4d 3f a8 12 ad 3e 9c f3 e5 3e 7c e8 48 3f
       0.80291927 0.33803296 0.44912422 0.78479743
000010 ec 0a 54 3f 47 d8 23 3f 9d f3 0d 3f c4 52 15 3f
       0.82829165 0.6400189 0.5544985 0.58329415
000020 d1 a0 85 3f 85 f7 d4 3e 7d 7d 46 3f bc c2 ed 3e
       1.0439702 0.41595092 0.7753523 0.46437633
000030 26 3f 45 3f 5c e2 db 3e 5f 1a ed 3e 80 43 82 3f
       0.7704948 0.42946136 0.46309182 1.0176849
000040 b9 f7 53 3e c5 d7 1e 3f 07 6a 0e 3f 7a b3 55 3f
       0.20699967 0.6204799 0.55630535 0.83476985
000050 1a 82 c0 3e d5 0d 7a 3e b6 45 76 3f 89 32 2b 3f
       0.3759926 0.24419339 0.9620012 0.66873986
000060 9e 23 0c 3f cc 88 c2 3e 94 6a 70 3f 33 b0 17 3e
       0.5474185 0.37994993 0.93912625 0.14813308
000070 ae 96 67 3f 4a 48 e3 3e 6f 9f 9e 3e c0 23 9f 3e
       0.90464294 0.4439109 0.30981013 0.31081963
000080 80 49 75 3f 8b 3b 13 3f 70 61 99 3f 4e d0 d3 3e
       0.9581528 0.5751273 1.198286 0.4136986
000090 5d 33 ec 3d e6 26 04 3f 88 9b a2 3e 52 f0 0f 3f
       0.11533234 0.51621854 0.31759286 0.56226075
0000a0 4b 9e df 3e b1 4e 30 3f cf 01 a6 3e 55 b7 26 3e
       0.43675455 0.68870074 0.32423255 0.16280873
0000b0 43 54 96 3c f7 60 1d 3f 56 e2 2a 3f d9 22 f7 3e
       0.018350726 0.6147608 0.6675161 0.48268774
0000c0 88 d6 c2 3e 72 60 ba 3e d9 71 6b 3e 10 9f f9 3e
       0.380543 0.36401707 0.22992648 0.48754168
0000d0 45 c3 2c 3f 4e 0b 31 3f 67 d1 a0 3e 13 a3 95 3e
       0.6748546 0.69157875 0.3140976 0.29225978
0000e0 d7 64 c2 3e e2 f7 12 3f bb 9c f0 3e 57 b9 81 3e
       0.3796756 0.5740949 0.46994576 0.25336716
0000f0 6a 0a 4b 3f a6 50 f0 3e 64 27 8c 3e 79 ff fe 3e
       0.79312766 0.4693653 0.27373803 0.49804285

emb_func.layer1.1.bias f4 [64]
000000 c4 b5 59 3e f7 4d 4a be 5b ff dd 3d 4f c7 8a 3d
       0.21260744 -0.19756304 0.10839721 0.06776296
000010 30 ee 80 3e 79 b5 86 be 06 2c 2e 3e 5f af 2f 3f
       0.25181723 -0.26310328 0.17008981 0.6862697
000020 d7 be b4 bf c3 6e a9 3d 99 b0 87 3e 71 8c b6 be
       -1.412074 0.08273079 0.2650192 -0.35654023
000030 78 40 80 bf c3 00 ca be 95 82 bc be 32 36 6f 3e
       -1.0019674 -0.39453706 -0.36818376 0.23360518
000040 0c 31 4b be 06 2d a6 b6 cc d5 be 3e b7 8f 01 3d
       -0.19842929 -4.952427e-06 0.3727249 0.031631198
000050 0f 2b 2c be 47 b5 51 bd 54 f8 9d 3d b5 b7 ab 3e
       -0.168133 -0.05119827 0.077133805 0.33538595
000060 f1 5d bb be 6e da a0 be 69 e4 f3 3e 31 34 2e be
       -0.3659511 -0.3141665 0.476352 -0.17012097
000070 c0 93 96 3d b9 fa 3f be eb cc d4 be 9a 7f b7 be
       0.073524 -0.18747987 -0.4156259 -0.3583954
000080 f2 df ea 3d ba 1e c0 3e 39 b3 a6 bd 48 b4 79 3e
       0.114684954 0.37523443 -0.08139653 0.24385178
000090 f0 0a e3 bd 26 e5 4a 3e b6 39 a0 be 26 97 bb 3e
       -0.110860705 0.19813976 -0.3129403 0.36638755
0000a0 44 00 d4 bc 20 36 c1 bc e9 80 c4 3d ac 0f f4 bd
       -0.025879033 -0.02358538 0.095949 -0.11917052
0000b0 0f 6b 79 bd 6e 13 48 be b9 a9 0c bf a1 bd d5 3e
       -0.060893115 -0.19538662 -0.54946476 0.41746238
0000c0 6c 1f df 3d 52 4a fa bd f6 38 cd ba 0a ea a8 be
       0.10894665 -0.12221207 -0.0015657234 -0.32991058
0000d0 25 ca fd be ab b3 09 3e 6b 68 63 be 6c 37 c6 be
       -0.49568287 0.13447444 -0.22207801 -0.3871416
0000e0 a0 df 61 3d 9d 24 b9 3d 22 14 47 3e fe 97 a6 be
       0.055144906 0.090401866 0.19441274 -0.32537836
0000f0 84 3a bc 3e 12 8e cd be 49 b7 b4 be d6 b9 28 3d
       0.36763394 -0.40147454 -0.35296085 0.041192852

emb_func.layer1.1.running_mean f4 [64]
000000 74 a2 56 b9 c2 57 a8 be be 56 e2 be 91 c1 bf bc
       -0.00020469149 -0.32879454 -0.44206804 -0.02340773
000010 90 c0 dd 3d d4 08 22 3e 3a 3f 3f be bc d9 17 3d
       0.10827744 0.1582368 -0.18676463 0.037072882
000020 b4 25 fa 3c 9b 41 e4 be dc 51 0a be 55 e8 a2 be
       0.030535556 -0.44581303 -0.1350779 -0.3181788
000030 ca a5 13 3d 99 92 7a 3e 7f 8e 52 3e 4d 82 30 bd
       0.03604678 0.24469985 0.2056217 -0.043093015
000040 ef 87 53 3c 0e 4a 24 bd c5 94 56 bd d5 42 00 be
       0.012910827 -0.040109687 -0.05238797 -0.12525494
000050 21 c6 63 be fe d5 de 3d 85 e0 ba 3a 47 ef a7 bd
       -0.22243549 0.108806595 0.0014257586 -0.081999354
000060 58 0c a7 be 83 db 99 be 77 0d 7a 3c c7 6f 10 be
       -0.32626605 -0.30050287 0.015261999 -0.1410514
000070 ca 58 b5 bc 9f 79 11 be a8 d9 74 3d 8d 61 41 3e
       -0.022137064 -0.14206551 0.059777886 0.18884869
000080 21 34 e2 bd 5b 1a 9e bd 66 56 aa bc 76 c7 23 bf
       -0.11045099 -0.07719871 -0.020793151 -0.6397623
000090 2d 42 22 bd 01 4c 16 be 2a 9d 90 3b 14 59 3a 3e
       -0.03961389 -0.1467743 0.0044132667 0.18198043
0000a0 de 14 85 bd ee f2 2d bd d3 62 81 be 82 3a 34 bd
       -0.06498121 -0.042468004 -0.2527071 -0.04400111
0000b0 d8 18 f5 bd 96 60 e9 be e3 aa be be 54 0f f5 3b
       -0.11967629 -0.45581502 -0.3723975 0.007478634
0000c0 68 df f6 3e 98 18 ba be e6 95 51 3e 49 84 1d 3d
       0.4821732 -0.3634689 0.20467338 0.038456235
0000d0 ef c3 30 be 45 d7 9c bd 8c 2f 89 be 35 b9 67 3d
       -0.17262243 -0.07658247 -0.26794088 0.05657311
0000e0 ca a8 5f be b4 55 a6 bb db c6 9d be ab e6 8e 3c
       -0.21841732 -0.0050761346 -0.30815777 0.017443975
0000f0 29 a2 a4 bd 0d 0e 21 be 1b 1c 7c 3c fd 08 1d bf
       -0.08038742 -0.15728016 0.01538756 -0.6134184

emb_func.layer1.1.running_var f4 [64]
000000 e6 fb 25 40 ed b4 19 3f 6a 1d f3 3f 8e 1e bb 40
       2.5934997 0.60041696 1.8993351 5.84748
000010 21 68 5d 40 db a0 93 3f ef ad b3 3f 79 d4 76 40
       3.4594805 1.1533464 1.4037455 3.8567183
000020 ca a8 ca 3f 07 8d e3 3f d0 ad 5f 40 50 7e 57 3f
       1.583276 1.7777413 3.4949837 0.8417711
000030 38 3b 53 3f 51 07 0b 3f 8b 58 e2 3e 12 20 b5 40
       0.82512236 0.5430804 0.44208178 5.660165
000040 0c 61 af 3d 06 07 f2 3f 98 50 3d 40 d3 43 a8 3f
       0.08563432 1.8908393 2.958044 1.3145698
000050 3a 0f 0c 3f af e6 ec 3e 69 d0 3e 40 3b bb d0 3f
       0.54710734 0.46269748 2.9814703 1.6307138
000060 6c 74 71 3f b9 e4 13 3f f1 ca 01 41 e7 ca 15 3e
       0.9431827 0.5777088 8.112046 0.14628182
000070 81 99 90 40 3c f0 ca 3e 26 af 5a 3e 47 05 09 3f
       4.5187383 0.3963641 0.21355876 0.5352368
000080 79 b5 e4 40 ac 25 91 40 65 e8 64 40 cb 4e 0f 40
       7.1471524 4.5358486 3.5766842 2.2391841
000090 47 d1 ed 3d a9 ff 92 3f 80 bf 68 3e 8b 6a 00 40
       0.11612182 1.1484271 0.22729301 2.0065029
0000a0 09 55 bb 3e b2 65 6e 3f 4f 49 88 3f b3 59 bc 3d
       0.36588314 0.93123925 1.0647372 0.09196796
0000b0 fd 23 c9 3e 63 c5 23 40 28 c1 08 40 b8 e0 08 40
       0.3928527 2.5589225 2.1367893 2.1387157
0000c0 91 e8 ef 3f 68 18 5c 3f f1 db 43 3f 8c 88 17 3f
       1.8742849 0.8597474 0.7650748 0.5919273
0000d0 ff 1d 29 40 ad b8 19 40 17 0c fa 3e 48 5b 6f 3e
       2.6424558 2.4018967 0.4883735 0.23374665
0000e0 13 7b 2c 3f 11 78 d4 3f cc 60 9e 3f 38 b9 26 3e
       0.67375296 1.6599141 1.237329 0.16281593
0000f0 93 a0 9d 40 16 60 c8 3e 51 0d 45 3d 05 58 32 40
       4.9258513 0.39135808 0.048108403 2.7866223

emb_func.layer2.0.weight f4 [64, 64, 3, 3]
000000 2b e0 82 3e ea a1 89 3e 32 0b 25 be dd 86 2c be
       0.25561652 0.26881343 -0.16117552 -0.16848321
000010 0a b0 bd bc c3 91 00 3e 6f a5 5e 3d f1 6f e8 3d
       -0.023155231 0.12555604 0.05435699 0.11349476
000020 2f 38 91 3d 8d 8f b5 3d dd ce ee 3d 42 2a c8 3d
       0.07090794 0.08865271 0.1166055 0.09773685
000030 22 27 42 3d eb b8 42 3d a6 82 0e 3c fd 77 8d bd
       0.0474006 0.047539633 0.008698141 -0.069076516
000040 59 b3 b2 bd d2 e1 b5 bd f2 ee 33 3e a5 7a 59 3e
       -0.08725614 -0.088809624 0.17571619 0.21238191
000050 fd 44 35 3e e6 89 6a 3d 0c 92 c6 3d 31 88 8e 3d
       0.17702098 0.057260416 0.09695825 0.0695957
000060 4c 6b 6d be 0a ac 85 be 34 e1 8f be cc 33 8e bc
       -0.23185462 -0.26107818 -0.28101504 -0.017358683
000070 4a 8b d5 3c de 22 27 bd 41 68 ec 3d 6a 18 64 3e
       0.026067395 -0.040804736 0.11543322 0.22274938
000080 6b c3 d7 3c f0 d6 2e be df 20 36 be 8a 3f 55 be
       0.0263383 -0.1707418 -0.17785977 -0.2082502
000090 eb fd 26 3e ae 77 01 3e 80 2d a4 3d b1 d5 30 bd
       0.163078 0.1264331 0.08016491 -0.043172542
0000a0 f7 91 2b bd f8 32 5f bc 79 ad 4c be d1 4d a0 be
       -0.04188725 -0.013622992 -0.1998805 -0.3130937
0000b0 bc f1 2a be ca 6b 22 3e 12 da 86 3d 93 2f 9a 3c
       -0.16693777 0.15861431 0.06584562 0.018821513
0000c0 78 2d 0f 3e 7a a0 34 3e 07 2d ec 3d 10 20 c8 3d
       0.13982189 0.17639342 0.11532026 0.097717404
0000d0 89 7d 57 3d 28 4f e2 3c 84 c9 ee 3d 9a 75 01 3e
       0.052609954 0.027625635 0.1165953 0.12642518
0000e0 18 4b a5 bb 9f 13 d6 bc 4e 6c c5 3c 30 b1 f4 3d
       -0.0050443523 -0.026132403 0.024099495 0.11947858
0000f0 81 0e aa bd d7 24 82 bd 99 d9 33 bd db bf 70 3d
       -0.08303548 -0.06354683 -0.04390869 0.058776718
000100 bf 67 9c 3d 84 cf b0 bb 17 3b 89 3b e1 19 b3 3d
       0.076369755 -0.0053958315 0.0041879523 0.087451704
000110 da 4a 67 bd 3d e3 9f be bc 80 71 be 4c d1 a8 be
       -0.05646787 -0.31228057 -0.23584265 -0.3297218
000120 2c c0 51 be 84 f5 21 be 51 81 f5 bd 58 1b 43 be
       -0.20483464 -0.15816313 -0.11987556 -0.190534
000130 fa 75 5d be 88 c9 4b be f3 e4 10 bb 83 57 9c bc
       -0.21627036 -0.19901097 -0.002210912 -0.019084698
000140 e4 0c e9 bd 4e 83 88 3e 14 a3 8a 3e e4 04 71 3e
       -0.11379412 0.26662678 0.27077544 0.23537022
000150 c5 a6 d6 3d 8c c7 b8 3d db da 97 3d 09 96 42 be
       0.104810275 0.090224355 0.0741479 -0.19002546
000160 4b 29 5a be 2a 4f 80 be b8 23 b5 3d ca ed 0e 3e
       -0.21304815 -0.25060397 0.088447034 0.13957897
000170 8c d7 04 3e 9a ad 9e 3b f1 1a a4 3b 0b 60 7e bd
       0.1297285 0.0048424723 0.0050080945 -0.062103312
000180 25 24 4a be 49 1f 6d be 6f 8a 4c be 35 c6 99 3d
       -0.1974035 -0.23156466 -0.19974683 0.07508508
000190 a1 3d f4 3d ad c2 da 3d f2 d6 07 3d 7c 8e e5 3c
       0.11925817 0.10681663 0.033163972 0.028022043
0001a0 c8 38 5c ba 10 bb 87 bd 20 2e a5 bd 5b 3d 9b bd
       -0.0008400795 -0.06627476 -0.08065438 -0.07580062
0001b0 ff 83 52 bd 09 63 bf bc 2f 80 62 bc 0c 2d 9c bd
       -0.051395413 -0.023362653 -0.013824507 -0.076257795
0001c0 66 77 6b bd 3a d3 ef bc 2f 9c 27 3b 4e 64 1b bb
       -0.057486914 -0.029275525 0.002557527 -0.002371091
0001d0 bc e0 0f 3c dc 55 a3 3c 5d bd ca 3c ed f3 b7 3c
       0.008781608 0.019938402 0.024748499 0.02245518
0001e0 d6 40 6b 3c 9c 07 93 3b d7 2d 6a 3c ff 42 1b 3d
       0.01435872 0.004486991 0.014293156 0.03790569
0001f0 c3 7d 2c 3d b7 b2 0d 3d 73 c0 e2 bc 58 ad a8 bb
       0.042112123 0.034594264 -0.027679658 -0.0051476173
000200 f2 cd 7a bb fe 04 b7 ba 55 56 06 bc 8a 49 9d ba
       -0.0038269726 -0.001396328 -0.008199294 -0.0012000066
000210 0e 6e 85 3c da 6a db 3c 4b df 8c 3c ed 6f 05 3e
       0.01628783 0.02678435 0.017196318 0.13030978
000220 2f 59 0e 3d eb 6f bb bc 39 48 a2 3d 0a 43 cb bc
       0.03475302 -0.022880515 0.07923932 -0.02481224
000230 c4 83 34 bc 28 3c a9 be 2e de 80 be 22 73 46 be
       -0.0110177435 -0.33053708 -0.2516951 -0.19379857
000240 77 09 8f bc 5d ed 02 bb fb 0f f1 bc c4 3c b7 ba
       -0.017460568 -0.0019977905 -0.029426565 -0.0013979902
000250 c2 1b d7 3b 1c fe e8 3b 05 cb bb bc 3d 8d d3 bc
       0.0065645883 0.0071103703 -0.022923956 -0.025824184
000260 fd 4d 79 bc c6 d0 a8 3d 4f 69 a9 3d 45 87 cb 3d
       -0.015216348 0.082429454 0.08272039 0.0993791
000270 b9 a2 13 3c 02 60 ae bd 02 2e f3 bd 1a ea 1f be
       0.009010964 -0.08514406 -0.1187401 -0.15616646
000280 10 c8 62 be 21 fa 1c be 6b ee b7 3c 13 9f c6 3d
       -0.2214663 -0.15329792 0.022452554 0.0969831
000290 aa 13 f7 bc 08 c7 02 3d af 4e 3b 3d bf 43 f0 3b
       -0.030160744 0.031928092 0.045729335 0.0073322947
0002a0 4f 8f e3 3d a7 e6 12 3e b6 80 16 bd c3 8e 94 3e
       0.11111318 0.143458 -0.036743842 0.2901517
0002b0 11 fb 29 3e 07 e3 9a bd 4b 6f d7 bd a5 ce c4 3d
       0.1659968 -0.07562833 -0.10519274 0.09609727
0002c0 ad 49 31 3e 26 74 bc be 95 ec 96 be 6f 8b 7e be
       0.17313261 -0.36807364 -0.29477373 -0.24857877
0002d0 26 6a fa 3d 6a 03 f2 3d fd 64 7c 3d de f7 43 3b
       0.122272775 0.118170574 0.061619747 0.002990238
0002e0 3c 50 17 3d 02 95 25 3d c0 0e 8c bd a8 8b 86 bd
       0.03694175 0.040425308 -0.06838751 -0.06569606
0002f0 6d 6d 6e bd 9c c1 89 bd 71 c6 45 bd e7 37 56 bd
       -0.058209825 -0.06726381 -0.04828495 -0.052299406
000300 10 0c 0e bd e0 7b 21 bd 1c 9e 3c bd 2e 49 4e bd
       -0.034679472 -0.039424777 -0.046049222 -0.05036276
000310 a6 a9 36 bd b5 43 3d bd f3 eb 39 3d b6 ad c3 3e
       -0.044595383 -0.04620715 0.045391034 0.38218468
000320 6c de 1f 3e 3c d6 d4 3c 2a cf 20 3e df 8c b5 3d
       0.15612191 0.025981061 0.15704027 0.0886476
000330 3b b0 b4 be 4b 63 3d be 27 75 09 be f3 bf 4b 3e
       -0.35290703 -0.18494909 -0.13423596 0.19897442
000340 5f 42 fd 3d 42 c3 4b 3d d9 da 52 be 98 71 06 be
       0.12366175 0.04974676 -0.20591296 -0.1312927
000350 3b 0d 5d bd 85 6a a5 be bf ee 8d be da 5a 7d be
       -0.053967696 -0.3230783 -0.2772121 -0.24741688
000360 aa a2 dd 3d 1f c9 cb 3d d3 1f b5 3d bb 62 9e 3c
       0.10822041 0.0995047 0.088439606 0.019334188
000370 d4 89 c3 bc ea 75 42 bc 7f 98 8c bd 4c 23 e6 bd
       -0.023869433 -0.011868933 -0.06865024 -0.11237201
000380 5a 4f ef bd 84 ae 0f bd 3d b1 2c bd 27 f3 24 bd
       -0.11685057 -0.03507854 -0.042161215 -0.04027095
000390 37 02 0f bd 52 5d e7 bc d8 33 e0 bc a0 d5 67 bc
       -0.03491422 -0.02824274 -0.027368471 -0.014150053
0003a0 91 59 e0 bb c4 a7 78 bc 7a dd 8f 3d 51 a5 17 3e
       -0.0068466146 -0.015176717 0.07024665 0.14809157
0003b0 18 1d 1e be 46 87 62 3d c0 2c cd 3d 8f 6c b9 3d
       -0.15440786 0.055304788 0.10018301 0.09053909
0003c0 d2 9b 78 3e 68 43 a4 3e ac 59 77 3d de 2f f9 bb
       0.2427819 0.32082677 0.060388252 -0.007604583
0003d0 80 0f ab 3a 2f 98 6a bc 52 65 08 39 7f 12 44 bc
       0.0013050884 -0.01431851 0.00013007715 -0.0119673
0003e0 65 11 50 bc 89 e0 a1 bc 6e 6d 22 bc 60 cf 82 bc
       -0.01269946 -0.019760387 -0.009913785 -0.015968025
0003f0 db 52 02 3e 2b 1f 9c 3d 66 36 c0 bb c8 ba a6 bd
       0.1272692 0.07623132 -0.00586586 -0.081410944

emb_func.layer2.0.bias f4 [64]
000000 89 25 81 b9 98 9e 8e 3b 6c 80 d1 bb 75 dc 08 bb
       -0.00024632763 0.004352402 -0.006393483 -0.0020883356
000010 91 e9 61 3b 25 3a c5 ba c9 f3 8c 3b ef 10 16 3b
       0.0034471492 -0.0015047236 0.0043015224 0.0022898277
000020 38 89 96 3a d6 fe 6f ba 82 8e d2 ba a6 19 b5 ba
       0.0011484986 -0.00091551 -0.0016064199 -0.0013816848
000030 04 cb 1b ba ed 05 6b bb d0 4f f8 ba 3d 22 78 3b
       -0.00059430324 -0.0035861686 -0.0018944684 0.0037862204
000040 e4 4d 98 3b c3 d1 9f 3a 15 ae 85 3a ed d2 ba bb
       0.004647957 0.0012193251 0.0010198975 -0.005701414
000050 7c df b1 3a b3 ec b5 3b 2d 8c 3c bb 91 24 d9 ba
       0.0013570632 0.0055518984 -0.0028770075 -0.0016566684
000060 03 98 d3 3b b0 b2 83 3a 1e b2 aa 3b 67 8a ec ba
       0.00645733 0.001004776 0.0052092215 -0.0018046618
000070 73 75 c4 bb f4 e0 16 3a 26 8f a8 bb cc c7 3b bb
       -0.0059954464 0.00057555665 -0.0051440177 -0.0028653024
000080 92 71 17 3b c2 90 c9 bb e2 a3 6c 3b e5 24 c8 3b
       0.0023108465 -0.0061512897 0.0036108424 0.006107914
000090 2e 43 cc 3b d1 55 bd bb 39 09 d8 bb db cb 2e bb
       0.0062335944 -0.0057780524 -0.0065928963 -0.00266718
0000a0 29 e9 08 3a 15 8c 55 bb 25 27 99 3b 39 a9 c6 3b
       0.0005222732 -0.0032584716 0.004673856 0.0060626534
0000b0 b6 3e e6 3a 4f 5b 82 ba 85 3a c7 bb c8 ee 83 3b
       0.0017566297 -0.0009945425 -0.006079974 0.0040262677
0000c0 17 cf 7d ba 0e 3c 95 3b 5e 77 26 3b 7d c8 91 3a
       -0.0009682043 0.004554278 0.0025400738 0.0011122372
0000d0 0f 93 a1 bb c0 10 8d 3b 44 15 a7 3a 3a c3 aa 3b
       -0.004930861 0.0043049753 0.0012747427 0.005211261
0000e0 6a 82 a4 3b c6 76 65 bb 81 ce a6 bb 8f 9e cd bb
       0.0050204294 -0.0035013421 -0.005090535 -0.006275005
0000f0 a0 31 13 bb 11 53 14 bb 56 ff e2 39 22 b4 66 3b
       -0.0022459999 -0.002263252 0.0004329632 0.0035202582

emb_func.layer2.1.weight f4 [64]
000000 e8 bf 69 3f 24 15 0e 3f ad e9 15 3f d4 e6 33 3f
       0.9130845 0.5550101 0.58559686 0.7027409
000010 d5 e8 4d 3f 31 d4 61 3f 54 b2 93 3f 59 7a 37 3f
       0.804334 0.88214403 1.1538796 0.7167106
000020 2c 2d 82 3f e3 7a 66 3f da 23 99 3f 43 60 50 3f
       1.0170035 0.9003126 1.1964066 0.81396884
000030 2b 83 49 3f 78 30 82 3f df b0 54 3f c3 dc 5b 3f
       0.7871577 1.0171041 0.83082384 0.8588373
000040 ef 12 0c 3f fa 8f 40 3f 4a 9c 49 3f cc 76 7e 3f
       0.5471639 0.7521969 0.78754103 0.9940002
000050 63 bf 77 3f 1b 05 8b 3f 21 df 1e 3f 88 54 57 3f
       0.9677641 1.0860933 0.6205922 0.8411336
000060 5b 8c 76 3f 41 bd 66 3f 2d dd 8c 3f 91 cb 3a 3f
       0.96307915 0.9013253 1.1004997 0.7296687
000070 af 56 80 3f f1 80 52 3f 80 c4 85 3f e3 b0 51 3f
       1.0026454 0.82228 1.0450592 0.8191053
000080 a7 84 6e 3f 6a 33 3f 3f 07 2c 40 3f 96 77 31 3f
       0.9317116 0.74687827 0.7506718 0.693231
000090 2f 48 8a 3f ea 9f 95 3f 1c 00 14 3f 6d 04 74 3f
       1.0803279 1.1689427 0.57812667 0.95319253
0000a0 6a 17 6a 3f 5b 34 31 3f 43 2b 69 3f 43 fe 93 3f
       0.9144198 0.69220513 0.9108164 1.156197
0000b0 15 2e 4b 3f 5a c4 23 3f c6 a3 2d 3f 7d d0 08 3f
       0.7936719 0.63971484 0.67828023 0.5344313
0000c0 31 2f 75 3f f0 7d 30 3f d1 c2 18 3f 30 c6 6b 3f
       0.95775133 0.68942165 0.59672266 0.92099285
0000d0 a5 a2 8c 3f 3b 85 79 3f 62 b4 52 3f 29 30 20 3f
       1.0987135 0.9746892 0.8230649 0.62573487
0000e0 12 1c 80 3f a0 f4 67 3f 9d 67 5f 3f 28 36 6e 3f
       1.0008566 0.90607643 0.87267476 0.93051386
0000f0 e3 55 40 3f 69 e7 3d 3f 2d 28 80 3f 2d 5f 21 3f
       0.7513105 0.7418123 1.0012261 0.6303585

emb_func.layer2.1.bias f4 [64]
000000 98 14 5c be 27 3d 3a bd 8a 58 ea 3d d9 fd 5e bf
       -0.21492231 -0.045468476 0.11442669 -0.8710609
000010 ad 86 dd be d8 e8 e6 bd d3 9b 45 bf bb 5f 9f be
       -0.43266812 -0.1127488 -0.77190894 -0.31127724
000020 5f 3e 1e bf 40 dc c1 be 73 e1 1c bf f0 c7 d4 be
       -0.6181392 -0.3786335 -0.6128151 -0.4155879
000030 a3 14 7a bd b3 cb ab be 22 de 2b be 6f 45 4d bf
       -0.061054837 -0.33553848 -0.16783956 -0.8018407
000040 2a 6e db be b2 c8 42 bd e0 93 c4 be 0e 29 29 bf
       -0.42857486 -0.04755468 -0.3839407 -0.6607827
000050 10 bb 35 bf b6 62 ee be 47 98 32 be e1 a0 5f be
       -0.7098856 -0.46559685 -0.17440902 -0.21838714
000060 a3 04 fe be 41 e6 31 bf cd 53 f3 be f0 43 fc be
       -0.49612913 -0.69491965 -0.47524872 -0.49270582
000070 b9 37 ce be 2d c0 20 be 8c bf fc be 45 09 92 be
       -0.40276888 -0.15698309 -0.4936489 -0.28522697
000080 1b 61 0d 3d 60 49 1e bf c6 21 83 3d 34 58 96 be
       0.034516435 -0.6183071 0.06402926 -0.2936417
000090 b4 4e 0a bf 40 ea 1e bf fd cf 1a bf 03 0c 09 bf
       -0.5402634 -0.6207619 -0.60473615 -0.53533953
0000a0 c4 13 8c be 81 cc be be 9e f8 05 bf 1c b1 cd be
       -0.2735883 -0.372654 -0.52332485 -0.40174186
0000b0 5f 44 35 be 9e 81 44 bd 9f 49 94 be ae 3c ba bc
       -0.17701863 -0.047975175 -0.28962418 -0.022734012
0000c0 07 d6 18 bf 69 be 33 be 03 ba 4d be 83 2d d1 be
       -0.5970158 -0.17553104 -0.20090489 -0.40855035
0000d0 fb 8a 47 bf cf f7 05 bf a1 77 b8 be 93 d2 32 3e
       -0.7794644 -0.5233125 -0.3602877 0.1746314
0000e0 8e f2 0c bf 68 86 cb be 81 9d b0 be 41 70 1a bf
       -0.5505761 -0.3975098 -0.34495166 -0.60327536
0000f0 08 1a 82 be 34 d9 10 3e 77 1a a3 be 1a 57 07 bf
       -0.25410485 0.14145356 -0.3185613 -0.5286728

emb_func.layer2.1.running_mean f4 [64]
000000 ac d6 2a c0 f5 2c d1 bf 4b 02 a0 c0 24 f4 c9 3e
       -2.6693525 -1.6341845 -5.00028 0.39444077
000010 a4 f2 08 c0 f2 f9 b3 bf 9d 5b 6f c0 a7 1c de bf
       -2.1398096 -1.4060652 -3.7399666 -1.7352494
000020 9b 00 8e c0 16 88 a6 bf 17 e5 ce c0 79 17 33 c0
       -4.437574 -1.301028 -6.465465 -2.7983077
000030 bc 23 33 c0 a0 dd 94 c0 e6 45 59 c0 7c 6d ba bf
       -2.799056 -4.652054 -3.3948913 -1.4564662
000040 26 98 db bf ee c4 2b c0 0e ea 3c c0 30 d5 02 c0
       -1.7155807 -2.6838946 -2.9517856 -2.044262
000050 31 76 f6 bf f4 f7 70 c0 c0 c8 c0 bd 0b 89 78 c0
       -1.9254819 -3.7651339 -0.0941329 -3.8833644
000060 50 10 c7 c0 17 b8 d8 bf 83 f5 7e c0 7e 44 d3 bf
       -6.2207413 -1.693118 -3.9837348 -1.6505277
000070 6c bb 79 c0 42 d4 54 c0 04 cb 90 c0 eb 64 93 c0
       -3.9020643 -3.3254552 -4.524782 -4.606069
000080 b4 11 5f c0 25 e2 bc bf 87 58 e5 3e ae d8 56 c0
       -3.4854555 -1.4756514 0.44794104 -3.356975
000090 35 92 35 c0 d7 47 a2 c0 6d a7 64 3f 5c 58 78 c0
       -2.8370488 -5.0712695 0.8931797 -3.880393
0000a0 c6 0b 2f c0 79 45 0b c0 47 0f bd c0 15 54 a2 c0
       -2.7350936 -2.1761153 -5.908115 -5.072764
0000b0 58 74 18 3d 8f bc ec 3e 77 99 8a c0 03 9a 90 be
       0.03722033 0.4623761 -4.3312335 -0.28242502
0000c0 d8 48 5e c0 c0 93 ec be d9 3e e5 bf 09 42 45 c0
       -3.473196 -0.46206474 -1.7909805 -3.0821555
0000d0 3d 20 b0 c0 d3 2c b1 c0 87 8b bb bf ee 4f 4d c0
       -5.5039353 -5.5367217 -1.4651955 -3.2080035
0000e0 50 c9 ba c0 02 df 3a c0 ee 79 35 c0 af f2 17 c0
       -5.8370743 -2.9198613 -2.835567 -2.3741872
0000f0 8f 91 f4 bf b3 c7 4e c0 51 c5 50 c0 0e a5 56 40
       -1.9106921 -3.2309387 -3.2620432 3.3538241

emb_func.layer2.1.running_var f4 [64]
000000 46 07 86 41 c7 ee fc 40 fe 0e 24 41 24 b1 b9 40
       16.753551 7.9041476 10.25366 5.8028736
000010 ba 7b 23 41 ee be 83 41 20 88 8b 41 bf 3d 30 41
       10.217707 16.468227 17.441467 11.015075
000020 80 98 53 41 8c cb e5 40 ea 75 80 41 4a 9f 17 41
       13.224731 7.181097 16.057575 9.476389
000030 2d ce 64 41 eb b0 4d 41 69 00 82 41 9c d8 b8 40
       14.300336 12.855693 16.2502 5.7764416
000040 53 4a 42 40 0c 7a d5 40 04 80 9e 40 be 17 04 41
       3.0357864 6.6711483 4.953127 8.255796
000050 75 cc f1 40 c8 2b 3c 41 c0 cd f6 40 ce aa 85 41
       7.556208 11.760689 7.712616 16.7084
000060 cb 11 90 41 b7 e6 ec 40 31 4b 6e 41 db b9 99 40
       18.008688 7.4031634 14.893357 4.8039374
000070 d5 61 b0 41 3b 4a 30 41 93 86 2f 41 ba 19 27 41
       22.04777 11.018123 10.970355 10.443781
000080 0a 9a 91 41 5e 4a a4 40 08 41 54 41 5b 52 dd 40
       18.200214 5.134078 13.265877 6.916303
000090 82 cb 7f 41 72 c3 8b 41 f1 89 88 40 5d 16 a3 41
       15.987185 17.470432 4.2668386 20.38592
0000a0 53 7c 95 41 fe ba c7 40 83 27 3e 41 bd 22 85 41
       18.685705 6.241576 11.884646 16.641962
0000b0 b1 0b 35 41 53 e1 30 41 2a e9 c7 40 11 da 87 41
       11.315354 11.055011 6.2472124 16.981478
0000c0 51 f9 02 41 17 43 ca 40 2d 3b 96 40 f5 40 78 41
       8.185868 6.3206897 4.6947236 15.515859
0000d0 44 10 38 41 3f 43 1d 41 ce a9 48 41 a6 f7 d6 40
       11.503971 9.8289175 12.541456 6.7177305
0000e0 e9 f7 3b 41 13 54 a3 41 a6 4c f5 40 dc 3e 24 41
       11.748025 20.416052 7.6656065 10.265347
0000f0 8b ec 47 41 ba b2 5a 41 64 2a 9f 41 7e b7 ad 40
       12.49525 13.668634 19.895699 5.428649

emb_func.layer3.0.weight f4 [64, 64, 3, 3]
000000 12 0a 16 3d 4d a2 74 3d f8 7a 7b bc c0 5a e2 3d
       0.036630698 0.059725095 -0.015349142 0.110524654
000010 8b ae e3 3d 8e 2e 3f 3e 77 4b 35 bd 0a 97 1f 3d
       0.11117276 0.18670103 -0.044261422 0.0389624
000020 68 87 54 3e 23 74 18 3e a8 c0 85 3c f8 be 0f 3d
       0.20754778 0.14888053 0.016327217 0.03509423
000030 b5 c2 a0 3a 34 4c a1 bb b9 52 9f bb 09 39 42 bd
       0.0012265058 -0.004922414 -0.004862156 -0.047417674
000040 a1 e9 a8 bd 65 d4 48 bd 53 c6 f8 bd a5 f5 a5 bd
       -0.08247686 -0.04903068 -0.12147202 -0.081034936
000050 a9 71 11 be da 90 f3 bc 7c 48 5b 3b 81 24 17 bd
       -0.14203514 -0.029732157 0.0033459952 -0.036900047
000060 e7 db 23 3c 06 4f 9d 3d f5 c6 f1 3c d2 e0 8f 3d
       0.010001159 0.07681088 0.029513815 0.07025303
000070 9c 36 57 3c dd 60 1d 3c 78 33 82 bd 0a 15 98 bd
       0.0131355785 0.009605614 -0.06357473 -0.07425888
000080 23 bc 3e bd e6 1c c9 bc 26 67 0a bd de 15 df bc
       -0.04656614 -0.024549913 -0.033789776 -0.027232107
000090 6b 58 4b 3d 89 49 0c 3e be ec 67 3e 49 93 54 bd
       0.04964487 0.13699926 0.22648904 -0.051898275
0000a0 12 5a e4 3d 4b ad 65 3e fc 61 8e be 40 26 24 be
       0.11149992 0.22429387 -0.2780913 -0.16030216
0000b0 d2 79 01 bd a1 07 b8 3c 92 55 67 bb df 90 a9 3d
       -0.031610318 0.022464575 -0.0035298807 0.08279585
0000c0 f4 81 a3 3b dc de 91 bd b9 a4 05 bd 74 4a 21 be
       0.004989857 -0.07122585 -0.032627795 -0.15751058
0000d0 a0 4c 80 be ac e0 08 be 92 3a 91 bd e5 43 46 bc
       -0.2505846 -0.13366956 -0.070912495 -0.012101148
0000e0 36 ac 72 3d 09 30 1f 3d 8d 07 31 bd 41 7c d0 bd
       0.059246264 0.03886417 -0.04322009 -0.101799496
0000f0 06 9f 88 3d 99 06 1b 3d 96 61 f7 3c fd d7 53 3d
       0.06670956 0.03784809 0.0301979 0.051719654
000100 c3 c1 0b 3d f8 a7 d4 bb a7 f0 94 bc 93 61 05 bd
       0.034120332 -0.00648975 -0.018181158 -0.032563757
000110 d6 a8 95 bd 53 ca 33 be ab 15 61 be 03 39 f6 bd
       -0.073075935 -0.1755765 -0.21980922 -0.12022593
000120 69 fc 02 bd 4e a7 2c bd 27 28 b7 bd d0 70 df bd
       -0.031979 -0.04215174 -0.08943205 -0.10910189
000130 15 6a 95 bd 4f 4a 58 bd 54 fc f4 bd 94 5d a3 bd
       -0.07295624 -0.05280524 -0.1196219 -0.07976833
000140 52 14 a3 bd 69 38 91 3e 47 af f9 3d d0 98 a9 3d
       -0.0796286 0.2836335 0.121916346 0.082811
000150 03 d3 b6 3d 5e bf 44 3d e5 71 89 3c d0 46 66 3b
       0.08926966 0.048034064 0.016777942 0.0035137422
000160 4c 0e f9 bc 98 34 43 3d 47 c2 9e bd e3 0b 7b bc
       -0.030402325 0.04765758 -0.07751899 -0.015322658
000170 58 a0 0b bd 38 73 3d bc 5c af 90 3c 26 cb e4 3c
       -0.034088463 -0.011563115 0.017661743 0.0279289
000180 30 1d 16 bd aa 66 f5 bc 31 b8 31 bd c7 02 c7 bd
       -0.03664893 -0.02995618 -0.04338855 -0.097173266
000190 8c 4e 2e 3c d0 35 05 3e e2 23 e1 bd ed 49 03 3d
       0.010638844 0.13008809 -0.10993172 0.032052923
0001a0 2d a2 35 3e 1c 7e 85 be 4b 92 0b be df a7 f5 bc
       0.17737646 -0.26072776 -0.13630025 -0.029987274
0001b0 c1 72 a2 bc e1 77 bc 3d 58 aa 16 3c ac 96 36 bd
       -0.01983011 0.092025526 0.009195887 -0.044577286
0001c0 ce c0 83 bd d0 4e 82 be 68 39 60 3d 7f 69 bc bd
       -0.06433259 -0.25450754 0.054742247 -0.09199809
0001d0 0f 54 88 be 6b a7 1f be 9d a9 c0 bd 97 d4 15 be
       -0.26626632 -0.15591209 -0.09407351 -0.14631878
0001e0 32 99 00 3c bf 78 cf ba 38 97 da bc 44 57 4c 3e
       0.007849025 -0.0015828832 -0.026683435 0.19955164
0001f0 fe 75 0b 3e 1b 2c 2c 3e 2d 6e d2 bc 09 93 64 3d
       0.13619229 0.168137 -0.025687302 0.055804286
000200 25 28 02 3d 2d 23 22 bd f6 18 a2 bd 8c a1 a0 3d
       0.031776566 -0.039584327 -0.07914917 0.078433126
000210 92 67 f7 bd 6a 34 00 bd 56 ac 0c bd 13 de 39 bb
       -0.12080301 -0.031299986 -0.03434404 -0.0028361126
000220 e3 f1 d0 3c 3b 7f 8f 3d ae fc 29 bd 72 f9 2c 3d
       0.025505966 0.07006689 -0.04150074 0.042230077
000230 d2 cb 56 3d 65 eb 9c bd e1 63 7d bc 90 c4 b2 bc
       0.052440472 -0.076620854 -0.0154657075 -0.021822244
000240 78 56 63 3d dc 38 0e 3c 7f 91 51 3d b9 e7 30 3b
       0.055502385 0.0086805485 0.051164147 0.0026993586
000250 92 ce b3 3b 04 d8 23 3d 82 39 85 3d 4f b9 cc 3c
       0.0054872716 0.04000093 0.06505109 0.024990706
000260 4e d3 69 3d b8 f3 05 3d ad df b8 bc 86 79 00 be
       0.05708628 0.03270313 -0.022567594 -0.12546358
000270 cd e5 ea 3c 84 e6 83 bd 0d 62 00 be 02 19 83 3d
       0.02867403 -0.06440452 -0.12537403 0.06401254
000280 df 67 e8 bc e3 3b 6c bd 27 3f e7 bc 20 83 1d bd
       -0.028369842 -0.0576743 -0.028228356 -0.03845513
000290 99 09 96 bd d0 3d 83 bd c9 3c 82 bd b9 a9 c5 bd
       -0.07326049 -0.06408274 -0.0635925 -0.09651513
0002a0 23 ab 82 bd 7a f6 46 bd ac d4 17 bd ab e0 55 be
       -0.06380298 -0.048574902 -0.037068054 -0.20886485
0002b0 3e 25 5b be 44 69 37 be 72 e1 66 be 97 ef ee bd
       -0.21400926 -0.1791125 -0.22546938 -0.11666792
0002c0 ad 8f 07 be 50 53 0e bd 2b 3f 55 bd e8 4f 5b bd
       -0.13238402 -0.03474742 -0.052062195 -0.053543
0002d0 fd 0a ab 3c d6 44 9d 3d f7 ce a4 3d 8d 83 53 be
       0.020879263 0.07679145 0.08047288 -0.20655651
0002e0 d6 94 2f be 8e 36 b2 bc 74 ca 8e bd 9d 6a df bd
       -0.1714662 -0.02175453 -0.069722086 -0.10909007
0002f0 86 f0 f7 bd e1 46 f2 bc 19 1e 28 3d 61 e7 99 3c
       -0.12106423 -0.029574813 0.04104433 0.018787088
000300 30 1f ae 3d fc 06 35 3d 2b 2b d2 bb d3 b8 9e 3d
       0.08502042 0.044196114 -0.0064138374 0.07750096
000310 88 4f 18 3d 7d de 6e bb eb f3 3e 3e 4a 8a 50 3b
       0.037185222 -0.0036448531 0.18647735 0.0031820708
000320 bd ba ae bb fb 6e e8 3d f0 6e cc bc 6b 48 c1 bd
       -0.0053323195 0.11349293 -0.024955243 -0.09437641
000330 b5 39 d4 3d 03 a4 13 3d 5a 6c 11 3b 66 a5 7b 3d
       0.10362569 0.036045086 0.0022189827 0.061437033
000340 c4 96 78 3d e4 22 43 3d e3 40 06 bc 22 6f 8b 3d
       0.060690656 0.047640696 -0.008194181 0.06808306
000350 51 4d af 3d 5a f1 93 bd 74 a3 e2 bc a0 b5 4c 3d
       0.08559669 -0.072237685 -0.027665831 0.0499779
000360 6f 84 02 bd dd 61 61 3d ab 12 64 3c 6d e8 a7 3d
       -0.03186458 0.05502497 0.013920466 0.081986286
000370 26 69 44 3d 31 ff ac 3c 69 2f e5 3d 54 86 b4 3d
       0.04795184 0.021117778 0.111906834 0.088146836
000380 19 20 90 3d 3b 70 14 3d 10 ee a0 3b 97 02 04 3d
       0.07037372 0.036239844 0.0049111918 0.032229032
000390 16 84 52 3d 97 b7 c0 3c 11 51 55 bb 58 55 b0 3d
       0.0513955 0.023525042 -0.003254954 0.08610028
0003a0 0e 5e 6e bd c6 eb fa bc 5a 33 fa bd 30 96 2f be
       -0.058195166 -0.030630004 -0.12216826 -0.17147136
0003b0 51 86 f3 bd b3 ac 81 bd a0 42 e7 3d d8 db 47 bd
       -0.11890853 -0.06331768 0.112920046 -0.048793644
0003c0 41 9f 63 3d 4e a7 56 3e a4 82 b4 3d d9 11 ec 3c
       0.0555718 0.20962259 0.0881398 0.028817104
0003d0 68 be 93 bb 9d 83 7a bc 16 30 c8 bd f9 47 ea bd
       -0.004508782 -0.015290168 -0.09774797 -0.11439509
0003e0 e5 85 27 be ba 08 72 bd 8d b3 72 bd ae e1 95 bd
       -0.1635967 -0.059090354 -0.059253264 -0.073184356
0003f0 25 0c a6 be c2 21 32 be 47 30 15 bd ac c9 58 be
       -0.3243114 -0.1739569 -0.036422994 -0.21170682

emb_func.layer3.0.bias f4 [64]
000000 14 e0 0f ba ae e5 02 b9 56 63 a8 bb 8a b8 8a bb
       -0.00054884073 -0.00012483328 -0.005138795 -0.0042334246
000010 42 b2 ba bb 96 d3 16 b9 61 e9 9c bb 43 61 92 37
       -0.0056975195 -0.00014383937 -0.004788563 1.7449847e-05
000020 f4 34 43 bb 96 ab 0d bb 5f a3 c7 3b a1 ac b9 bb
       -0.0029786201 -0.0021617166 0.0060924734 -0.005666331
000030 81 e7 34 bb d4 72 01 3a d1 23 02 bb 87 69 21 3b
       -0.0027603807 0.000493807 -0.0019857774 0.002462955
000040 d2 01 ce 3b 50 e8 5c 3b ab 14 5a 3b 4e fc 19 ba
       0.006286838 0.0033707805 0.003327648 -0.0005874083
000050 00 42 9a ba 09 be ee 3a 5c 9e 67 3b d1 2a 8b 3b
       -0.0011768937 0.0018214594 0.0035342192 0.0042470475
000060 f6 92 22 3b e6 cb 65 3b 8b 09 c2 3a f4 95 f5 b8
       0.0024806834 0.003506416 0.0014803869 -0.00011710441
000070 4c 14 aa ba 21 37 a7 bb d2 1f d7 bb dc cc d0 bb
       -0.001297602 -0.0051030074 -0.0065650726 -0.0063720774
000080 04 2c a9 3b d5 55 da 3a 92 d0 c5 3b 59 b7 a3 bb
       0.005162718 0.001665766 0.0060368264 -0.004996222
000090 85 18 b7 3b fb 80 d4 bb 53 d6 9e ba d6 ff 42 3b
       0.0055876398 -0.006485102 -0.0012118317 0.002975454
0000a0 49 91 c9 bb 2b 9b 90 3b 37 88 c7 bb 03 69 8f 3b
       -0.0061513525 0.0044130287 -0.006089236 0.004376532
0000b0 7c ac b3 3b c9 2a a6 3b 60 bf 1a 39 b1 9f 7d 3b
       0.005483208 0.0050710184 0.00014757877 0.003869992
0000c0 e8 99 42 3b 2c 46 ad 3b 00 d3 cd bb 66 3d d0 bb
       0.0029693786 0.005287906 -0.0062812567 -0.0063549755
0000d0 1f cf 90 bb e9 b1 c0 3b 07 e8 0f 3b ed c0 09 ba
       -0.004419222 0.0058805835 0.0021958367 -0.00052548834
0000e0 a9 f3 c7 ba 21 3a 8d 3b e8 0c 98 3b fb ea a4 bb
       -0.0015255112 0.004309908 0.0046402104 -0.0050328947
0000f0 51 68 84 ba d0 10 8e 3b a5 88 96 bb 8b 7d 92 3b
       -0.001010189 0.0043355003 -0.004593926 0.0044705323

emb_func.layer3.1.weight f4 [64]
000000 68 a2 6f 3f 3e 14 8c 3f 66 49 76 3f 5f ba 3a 3f
       0.9360719 1.0943677 0.9620575 0.7294063
000010 bd b5 8c 3f 5c 6c 52 3f 10 9e a2 3f 3c 1d 8e 3f
       1.0992962 0.82196593 1.2704487 1.1102672
000020 46 0f 4b 3f 2b 22 39 3f c0 f4 41 3f 5a f1 0a 3f
       0.7932018 0.7231776 0.75764084 0.54274523
000030 f2 a8 89 3f 90 b0 80 3f ca 77 80 3f 50 8c 5a 3f
       1.0754683 1.0053883 1.0036557 0.8537035
000040 80 64 92 3f 9b 42 85 3f 4d 0c 5c 3f 74 ea 79 3f
       1.143692 1.0410951 0.8595627 0.9762337
000050 3c e7 62 3f 24 ea 80 3f 3a 3f 54 3f 63 5d 7b 3f
       0.88634086 1.0071454 0.82908976 0.9818937
000060 e2 b8 7c 3f df ed 94 3f b9 0c 50 3f e5 c6 25 3f
       0.9871961 1.1635092 0.81269413 0.64756614
000070 63 d4 5f 3f 1f 37 6a 3f 9e 64 67 3f 17 4c 90 3f
       0.8743345 0.9149036 0.90387905 1.1273221
000080 0f 82 9d 3f 26 68 88 3f 83 f0 7c 3f bf fe 8a 3f
       1.2305316 1.0656784 0.9880449 1.0858992
000090 88 17 a0 3f d2 5b 76 3f 02 3f 97 3f 6e 69 6d 3f
       1.2507181 0.96233857 1.1816103 0.92739
0000a0 41 c2 26 3f 68 a8 94 3f bb 03 9c 3f 1a c8 92 3f
       0.6514016 1.1613894 1.2188638 1.1467316
0000b0 49 f6 d1 3e 84 c7 85 3f 15 6a 9e 3f ae ab 89 3f
       0.41008213 1.0451512 1.2376124 1.0755517
0000c0 4b 86 85 3f 97 f4 56 3f 16 10 83 3f 68 66 24 3f
       1.0431608 0.83966964 1.0239284 0.6421876
0000d0 2a a2 8a 3f 38 02 81 3f 64 72 88 3f ba f4 62 3f
       1.0830739 1.0078802 1.0659909 0.88654673
0000e0 df 04 3a 3f 12 6b 8d 3f d7 d7 48 3f 16 89 8b 3f
       0.7266368 1.10483 0.78454345 1.090121
0000f0 c1 ab 45 3f 1b eb 59 3f 99 45 80 3f 6f 64 84 3f
       0.772152 0.8512437 1.002124 1.034315

emb_func.layer3.1.bias f4 [64]
000000 5f 88 ff be d6 74 25 bf 61 f7 67 bf b0 96 3c 3d
       -0.4990873 -0.646314 -0.90611845 0.046042144
000010 4f d2 18 bf 14 e7 10 bf f7 d4 7d bf 70 31 4b bf
       -0.59695905 -0.566026 -0.99153084 -0.7937231
000020 58 45 ed be 17 94 7c be 5f 52 59 bf c9 e6 5c 3d
       -0.46341968 -0.24665867 -0.84891313 0.05393103
000030 7e 78 34 bf 1e 08 d3 be 66 d6 19 bf 2e 82 00 bf
       -0.70496356 -0.4121713 -0.6009277 -0.5019864
000040 06 09 96 bf 33 a7 32 bf 2c 55 00 bf 99 82 29 bf
       -1.1721504 -0.69786376 -0.5012996 -0.662149
000050 a5 fe 04 bf 03 56 50 bf d4 ab 44 bf ed 55 29 bf
       -0.51951057 -0.81381243 -0.7682469 -0.6614674
000060 7d e2 13 bf 03 2c 51 bf 78 cc 0d bf b0 d7 82 be
       -0.5776747 -0.8170778 -0.5539012 -0.25555182
000070 c4 2f ca be e3 a5 81 bf b6 ba f5 be 3e fb 30 bf
       -0.39489567 -1.012875 -0.47994012 -0.69133365
000080 73 3c 2d bf e1 47 72 bf 00 de 0b bf 09 ee 2d bf
       -0.67670363 -0.9464093 -0.5463562 -0.6794134
000090 6f 59 43 bf fc d7 14 bf 31 87 27 bf cc 43 db be
       -0.7630834 -0.58142066 -0.6544066 -0.42825162
0000a0 4b 69 81 bd e2 9a 12 bf e9 e2 e5 be e6 9a 70 bf
       -0.06318911 -0.5726758 -0.4489968 -0.93986356
0000b0 4d d5 77 3e 14 e7 15 bf c1 e5 4a bf 5b e0 89 be
       0.24202462 -0.5855572 -0.79256827 -0.26928982
0000c0 49 a3 2a bf 77 5e fd be e0 9d 3d bf 02 2e 0d bf
       -0.66655403 -0.49486133 -0.74069023 -0.5514833
0000d0 ea 06 26 bf 1d ce 14 bf 17 a4 49 bf db e2 d6 be
       -0.648543 -0.58127004 -0.78766006 -0.41969952
0000e0 fe 8d 0c bf ca a5 02 bf d7 71 d0 be 5f cf 40 bf
       -0.5490416 -0.51034224 -0.40711853 -0.75316423
0000f0 dc ef ae be b8 97 c8 be 3e a9 6a bf 43 18 27 bf
       -0.34167373 -0.39178252 -0.91664493 -0.65271395

emb_func.layer3.1.running_mean f4 [64]
000000 67 a4 43 c0 81 2e 1a c0 be 56 cf bf d1 61 a9 c0
       -3.0569093 -2.4090884 -1.6198347 -5.2931905
000010 00 95 47 c0 e6 7d 2e c0 73 79 87 c0 c2 02 8e c0
       -3.1184692 -2.7264342 -4.2335753 -4.4378366
000020 95 f8 4c c0 8e 9f 06 c0 86 6c fb 3f eb dc 1d c0
       -3.2026722 -2.1034884 1.9642494 -2.4666088
000030 9f bc e2 bf c7 78 8e c0 9e 21 2b c0 84 a6 44 c0
       -1.7713813 -4.4522433 -2.6739268 -3.0726633
000040 4d a0 22 c0 07 6e 92 c0 59 30 4d bf 62 16 4b c0
       -2.541034 -4.575931 -0.801519 -3.1732411
000050 39 a5 17 c0 bf 0d 51 c0 3d f3 f1 bf 05 cc 77 c0
       -2.3694594 -3.266464 -1.8902355 -3.8718274
000060 72 43 77 c0 fd 30 76 c0 f0 ea 8f bf 4d cc 83 bf
       -3.8634915 -3.84674 -1.1243572 -1.0296723
000070 08 46 55 c0 c7 25 33 c0 f7 73 0e c0 b3 54 6a c0
       -3.3323994 -2.7991807 -2.225828 -3.6614196
000080 82 88 37 c0 8f 2c 1e 3f a6 e5 02 bf b7 fa e0 bf
       -2.8677068 0.6178674 -0.51131666 -1.7576512
000090 19 cb 02 c0 61 e5 a8 bf b1 c1 4b c0 e6 c4 30 c0
       -2.043646 -1.3195001 -3.183697 -2.7620177
0000a0 43 bf 89 c0 13 86 27 c0 63 13 34 c0 4e bc ec bf
       -4.3045974 -2.6175582 -2.8136833 -1.8494966
0000b0 3a 2d 1b bf c0 78 42 c0 52 6f 84 c0 01 50 94 c0
       -0.60615885 -3.03862 -4.138589 -4.634766
0000c0 a9 dd d7 bf 4e b1 4e c0 3d 84 61 c0 df 1a 9d 3f
       -1.686452 -3.2295718 -3.5236962 1.2273825
0000d0 e2 7a 68 c0 58 b9 17 c0 b8 08 4f c0 86 57 e9 bf
       -3.6325002 -2.3706875 -3.2349072 -1.8229835
0000e0 ad 9f 37 bf ce 15 40 c0 9a 89 a9 be e0 a4 26 c0
       -0.7172802 -3.0013309 -0.33112794 -2.6038132
0000f0 7d f1 4c c0 e0 ad 22 c0 6a 6e 31 c0 ad fb 40 c0
       -3.2022393 -2.5418625 -2.7723641 -3.015361

emb_func.layer3.1.running_var f4 [64]
000000 1f c5 c5 40 b4 ba 19 41 79 70 a0 40 6e 24 f4 40
       6.1803126 9.608082 5.0137296 7.629447
000010 7f dd f4 40 ae b4 a7 40 c5 df e2 40 f7 14 3b 41
       7.652038 5.2408056 7.0898156 11.692618
000020 64 78 b5 40 5f 7b b1 40 d2 cd 2f 40 9a 5e 88 40
       5.670946 5.54631 2.7469373 4.261548
000030 58 09 dc 40 d3 65 02 41 36 c8 de 40 0e b6 c9 40
       6.8761406 8.149859 6.96194 6.3034735
000040 f1 42 a6 40 61 04 b6 40 12 68 af 40 5f 76 bb 40
       5.1956716 5.6880345 5.481454 5.8581996
000050 98 09 6b 40 e9 d0 b8 40 5f 3f 35 40 23 70 9b 40
       3.6724606 5.7755017 2.8319929 4.8574386
000060 31 36 df 40 da 0a be 40 a2 bd 86 40 8f 33 a3 40
       6.975365 5.9388247 4.2106485 5.100044
000070 18 14 b0 40 ee 8c 8b 40 86 1b a1 40 b5 15 1b 41
       5.502453 4.3609533 5.03461 9.6928
000080 f6 16 18 41 4d 39 4f 40 5f 93 97 40 96 5b d2 40
       9.505606 3.2378724 4.7367396 6.57368
000090 17 63 ef 40 80 8b d6 40 37 33 23 41 af 15 e4 40
       7.480846 6.704529 10.200004 7.127647
0000a0 02 59 8d 40 8a 59 2a 41 7d b0 5e 41 ed fb bd 40
       4.417115 10.64686 13.918088 5.9370027
0000b0 05 03 7b 40 9f 6d a7 40 bb 2b 20 41 6b ed 45 41
       3.9220593 5.2321315 10.010676 12.370463
0000c0 20 4e b4 40 71 c3 7a 40 2b c8 9e 40 8d 68 4b 40
       5.6345367 3.9181788 4.9619346 3.1782563
0000d0 1c 9d 39 41 14 b3 a3 40 15 6e 15 41 b4 80 dd 40
       11.600857 5.11561 9.3393755 6.921961
0000e0 8f 7a 27 40 63 e7 d8 40 8d a3 8f 40 8b 89 fa 40
       2.6168554 6.7782454 4.4887147 7.82929
0000f0 93 f4 ad 40 53 fc 90 40 ee 65 c3 40 c5 e2 ca 40
       5.4361053 4.5308013 6.1061926 6.340182
