results/RENet-dataset-Conv64F-5-1-Jan-08-2024-14-32-52/checkpoints/model_00040.pth (torch, 909453 bytes, 69 tensors)

emb_func.layer1.0.weight f4 [64, 3, 3, 3]
00000000: d073 c13e fcd3 babd 3c0f 60be 86d1 57bf
00000010: 1b57 2cbf f709 1a3d 3b7c 573e 70db 323f
00000020: c3da 443f 2f3d be3e 3b58 99be f850 a3be
00000030: 0cdf 8dbf a0f2 6fbf 38b0 30bd 4cff 023e
00000040: ec3a 3e3f e47d 693f 7b42 163f df71 31bd
00000050: fc0d 88bd 7ec1 3dbf a513 28bf 4f4d 583e
00000060: 4405 433b 6946 173f 4055 4a3f 1c15 5fbe
00000070: c49d 38be 2209 82be 8824 5bbe d0f3 f8bd
00000080: 2a15 8abe 84c2 9ebc 77bb 81bd 97c3 ebbd
00000090: 9f55 92bd 2e97 323d c826 92bd 08bb adba
000000a0: b68c 3b3d a864 81bd 68cc f23d ab2a 813d
000000b0: 90d8 d63c 3294 553b b1d2 da3d 1de2 3f3c
000000c0: 29ea 3a3d 8fe6 083e f900 a83d 2b78 473e
000000d0: 7227 2c3e 70c1 d83d 71af 9c3d 8bbb 8abd
000000e0: 60fa 4abd 6efc c4be 512e d4be 83c1 debe
000000f0: 1793 8ebe 975e 66be 6d2d a7be ad33 983e
00000100: 22c7 823e 9590 623e b160 c83c 39cc 143d
00000110: 0a0d c1bb c091 4cbe 3438 67be dac1 93be
00000120: 194d da3e 82d5 d33e a42b d03e dd71 a53e
00000130: 8aaa 993e 6ca9 3e3e 5ffa 7f3c 3f00 663c
00000140: 9bf4 b0bd 392e 083f fafa 5c3f 6ff6 463f
00000150: 2369 ecbe 1c1b ebbe 0fdc 5abe 1c59 bdbd
00000160: 6909 90be 1457 a5be bbad 2d3f fe27 8a3f
00000170: 9082 863f c231 0dbf 4cd5 27bf 52c9 b6be
00000180: 53aa 9cbe 6611 39bf 37f2 39bf 43fa 1e3f
00000190: 9fb8 893f 0b49 833f 45df b2be 761f cbbe
000001a0: c908 1abe 2acf 0bbe 4270 1bbf 9a44 0fbf
000001b0: 09f6 e03e 41be 513d e4ec 13be f759 773f
000001c0: 6fbe a9be 283c d7be dbce 7a3f 2fcf 00bf
000001d0: 2831 22bf d122 553e 6437 38bd 8284 b0bd
000001e0: f40e 463f 3144 f3be 0354 08bf 7d55 5e3f
000001f0: 28bd 28bf 19e7 24bf c81f 8b3e f55a cc3d
00000200: 4b95 2d3e 5096 303f 51a4 adbe e3df 73be
00000210: dc82 483f 67e1 00bf 34ed c4be 8bf5 38be
00000220: d2d8 21be 5691 6cbe 17fb da3c 76ae 4c3d
00000230: b5d7 f73c 88f4 a13e 67ab de3e 3501 d93e
00000240: 89e5 4a3c d645 2a3d b46b 013d 760a 0bbf
00000250: 752b 24bf 2fd0 29bf e3b2 0cbf 3367 0abf
00000260: 653b dfbe 31dd 3b3f e205 3a3f ca52 173f
00000270: 5f91 203e e513 133a c5c1 81b5 6b65 b63d
00000280: db7f af3d 5793 0e3e 4ef1 20bf f559 37bf
00000290: 1c10 9ebe 487c 3bbf f546 99be a438 803e
000002a0: cc9d f03d 7ec9 da3e ccbd 333f 02f1 e8bc
000002b0: 0fdd ecbd adb8 543e b048 f1be bfa4 043d
000002c0: e2ce f53e efd0 6f3d f36c bb3e 72eb e73e
000002d0: 3858 6f3d 1242 0cbe e0b9 2d3e eff2 02bf
000002e0: c7b3 0fbe ade2 7e3e 3510 afbe e1dc 05be
000002f0: d62e 52bd 3582 213f d403 503f 65da 4f3f
00000300: 0a73 c7be 7733 73be 1b3c 9cbd 16c2 3abf
00000310: 0a90 f9be 3222 2cbe 3dec d23e 93eb 1a3f
00000320: efdf 0b3f baaa e0be 26e0 cabe cd81 62be
00000330: 0e3f 69bf 895c 1dbf 29f7 9dbe 3fa8 e83e
00000340: 3fae 143f 7e1b 003f b47f e2bd e296 0fbd
00000350: 3f92 0d3e 41c7 b7be 5e31 0ebe 0e3e 4b3e
00000360: a5f3 d8be 9232 d4be 1f21 a5bd 2a0b c5bc
00000370: 3fd6 83bc da65 c33d 349b b03e 12b8 c43e
00000380: 6a18 ac3e a230 a6be e9f0 acbe c372 b0bd
00000390: 374f 3ebd 243a 57bd 738b ea3a 75aa 833e
000003a0: 30aa 863e 99c8 823e 3f59 89be 6964 92be
000003b0: 34ee 56bd 78c2 00bc 1f63 8cbc d9c8 0e3d
000003c0: 6b9f 3a3e 9eae 553e 3323 f63d d7eb a0bd
000003d0: 7088 3fbe 9744 7fbe 843d 65be 4c7a dfbe
000003e0: ec2f 99be b341 25be 3388 93be bad6 e6bd
000003f0: 6aaf 003d bda7 bfbd 150a e4bd 9223 133c
0.3778367 -0.09122464 -0.21880811 -0.8430408 -0.6732041 0.03760716 0.21043484 0.69866085
0.76896304 0.37156054 -0.29950127 -0.31897712 -1.1083694 -0.9372959 -0.043136805 0.127927
0.7430866 0.9120772 0.5869519 -0.043321487 -0.06643292 -0.7412337 -0.65654975 0.21123241
0.0029757777 0.5909181 0.7903633 -0.21785396 -0.18028933 -0.25397593 -0.21400654 -0.121558785
-0.26969272 -0.019379862 -0.06334584 -0.11511915 -0.07145237 0.043601207 -0.07136303 -0.0013254592
0.04578849 -0.06318027 0.11855394 0.063069664 0.026226312 0.0032589552 0.106847174 0.011711624
0.04563347 0.13369201 0.082033105 0.19479434 0.16811922 0.1058377 0.0765065 -0.06774052
-0.049555182 -0.3847384 -0.41441587 -0.43507013 -0.27846596 -0.2249702 -0.32651845 0.29726925
0.2554255 0.22125466 0.024460169 0.036327574 -0.005891447 -0.19977474 -0.22580034 -0.28858835
0.42636946 0.4137383 0.40658295 0.32313433 0.30012923 0.18619317 0.015623658 0.014038145
-0.08640405 0.5319553 0.8632046 0.7771978 -0.46173963 -0.4591912 -0.21373008 -0.09245512
-0.2813218 -0.32292998 0.67843217 1.0793455 1.0508595 -0.5515405 -0.6555984 -0.3570047
-0.30598697 -0.7229217 -0.72635216 0.6210062 1.0759467 1.0256666 -0.34935966 -0.3967244
-0.15042414 -0.13653246 -0.60718167 -0.5596405 0.4393771 0.05120683 -0.14445835 0.9662165
-0.33153102 -0.42038083 0.97971886 -0.5031614 -0.63356256 0.20814063 -0.0449747 -0.08619024
0.77366567 -0.47512963 -0.5325319 0.86849195 -0.6591363 -0.6441513 0.27172685 0.09978286
0.16951482 0.6897936 -0.33914426 -0.23815875 0.78324676 -0.50343937 -0.38462222 -0.18062417
-0.15805367 -0.23102316 0.026731057 0.049971066 0.030254224 0.31631875 0.43490145 0.42383733
0.012383827 0.041570507 0.031596854 -0.5431284 -0.6412881 -0.6633329 -0.5496046 -0.5406372
-0.43600002 0.73384386 0.72665226 0.591107 0.15680455 0.00056105695 -9.667643e-07 0.08906063
0.08569308 0.13923393 -0.628682 -0.7162164 -0.30871665 -0.73236513 -0.29936948 0.25043213
0.11748847 0.4273185 0.7021148 -0.028435234 -0.11565601 0.20773573 -0.4712577 0.032383677
0.48009402 0.058548864 0.3660656 0.45296818 0.05843374 -0.13697079 0.16965437 -0.5115194
-0.14033423 0.24891157 -0.34192052 -0.1307254 -0.051314197 0.63089305 0.8125584 0.8119262
-0.38954955 -0.23750101 -0.07628652 -0.729524 -0.48742706 -0.1680992 0.4119586 0.6051571
0.5463857 -0.43880254 -0.39624137 -0.22119828 -0.9111184 -0.6146932 -0.3085263 0.45440862
0.5807838 0.5004195 -0.11059514 -0.035056002 0.1382532 -0.35894206 -0.1388602 0.1984789
-0.42373386 -0.41444832 -0.08062958 -0.024053175 -0.016093371 0.09540911 0.3449341 0.38421685
0.33612376 -0.3245898 -0.3377755 -0.08615639 -0.046462264 -0.05254568 0.0017894342 0.25715986
0.26301718 0.2554367 -0.26825902 -0.28592232 -0.052473262 -0.007858865 -0.017137108 0.034859512
0.18224876 0.20867392 0.120184325 -0.07857483 -0.1870439 -0.24928509 -0.22386748 -0.43647993
-0.29919374 -0.16138344 -0.2881485 -0.112714246 0.031417288 -0.093581654 -0.111347355 0.008980649

emb_func.layer1.0.bias f4 [64]
00000000: 37d7 663c 2a1c 16bd 0a9e ea3b fbdc 193d
00000010: 22df fb3c a0f1 1f3d 3136 ca3c 3344 77bb
00000020: dc0f 433c 4416 9cbc b588 1e3d e008 bb3c
00000030: b9b3 08bd 497e 213d 8160 31ba 0dd7 04bb
00000040: 8377 4cbc df1c 45bc 7497 153b fa5c b6bc
00000050: 76bc 2dbd 2e6a c0bc 11aa 14bc d209 0d3d
00000060: 6666 093d 2fcf dfbc 1880 e5ba 569f 57bc
00000070: 71d5 c7bc c05f 03bc 579c 81bc 93ca d03c
00000080: d340 b9bc c8df e53b 56cc d2bc 8c2a 69bc
00000090: f207 133d 7462 b7bc f0af 33bb 2660 323d
000000a0: 13b4 7f3c 9022 bebc c646 e0bc fefd 82bc
000000b0: 02f3 69bc e9a2 a23c 9518 26bc 7d85 1d3d
000000c0: a4f5 ccbc a09d 69bc e2ff 873c 9c2a 153d
000000d0: 4eaa 323d 8c25 ef3b d4ec fb3a 4f5c a7bc
000000e0: 150f d33c 7286 d8bc 9a5d 44bc 711a 1cbd
000000f0: ce8c 33bd 28cb d03c 8604 4b3b c0e3 143d
0.014089397 -0.036647953 0.007159953 0.03756426 0.030746046 0.03904879 0.024684044 -0.003772986
0.011905637 -0.019053586 0.038704593 0.02283138 -0.033374522 0.039427076 -0.00067663944 -0.0020269782
-0.012479666 -0.012030809 0.0022825869 -0.022261132 -0.04241606 -0.02348813 -0.00907375 0.034433194
0.03354492 -0.027320473 -0.0017509488 -0.013160547 -0.024393769 -0.008018434 -0.015821619 0.02548722
-0.022613918 0.007015202 -0.0257322 -0.014231335 0.03589625 -0.022385813 -0.00274181 0.043548726
0.015606898 -0.02320984 -0.027377497 -0.015990254 -0.014279129 0.019853072 -0.010137697 0.038457382
-0.025019474 -0.014258772 0.016601507 0.03641759 0.043619446 0.007298177 0.001922036 -0.020429758
0.025764028 -0.026431296 -0.011985207 -0.038111154 -0.043835454 0.025487497 0.0030978038 0.03635001

emb_func.layer1.1.weight f4 [64]
00000000: 2d16 6b3f a3e3 f03e 2b0c fd3e 9e0e 713f
00000010: 7a7a 5e3f 8904 363f 03e2 273f d283 283f
00000020: 871c 753f 9b62 cf3e 0c4e 633f 21d6 063f
00000030: dfc6 203f ed3e ea3e 7371 ec3e 3a18 963f
00000040: 60b4 e43d 055a 353f f645 2e3f 554c 523f
00000050: 554e dc3e 7dc1 403e e52c 8c3f 9b09 3b3f
00000060: 6f70 273f e79e ee3e 9b2f 943f 6fcf 213e
00000070: ee54 6c3f 5d02 f23e 690e b33e 4829 c53e
00000080: f066 873f 8c2a 363f d20f a23f f703 e13e
00000090: 2f38 f13d 0bb4 123f bbd1 d13e 3334 0d3f
000000a0: 0dcc ba3e 7176 1c3f 8f77 cb3e a9f6 393e
000000b0: 3017 df3c 5143 453f 9e1a 393f 83b0 fa3e
000000c0: ee83 0e3f 06dc db3e 0994 5f3e 8748 0a3f
000000d0: 3403 313f ab53 293f 5455 b63e 4783 ae3e
000000e0: c83c c13e bd82 263f b123 063f 1e2f 8f3e
000000f0: 3d08 6b3f 2118 0c3f 48e2 a43e 4ed8 043f
0.9183071 0.47048673 0.49423346 0.9416293 0.86905634 0.7110067 0.6557924 0.6582614
0.95746654 0.40504918 0.88790965 0.52670485 0.62803453 0.45751134 0.46180305 1.1726143
0.11167216 0.70840484 0.680755 0.82147723 0.43028513 0.1882381 1.0951201 0.7306153
0.65405935 0.46605608 1.1577028 0.15801786 0.9231709 0.47267428 0.34971932 0.38508058
1.0578289 0.7115867 1.2661078 0.43948337 0.11778294 0.57305974 0.40980324 0.55157775
0.36483803 0.6111823 0.39739653 0.181605 0.027232736 0.7705584 0.7230624 0.48962793
0.5567006 0.42941302 0.21833815 0.5401692 0.6914551 0.6614329 0.35611975 0.34084532
0.37741685 0.6504324 0.5239821 0.27965635 0.91809446 0.5472432 0.3220389 0.51892555

emb_func.layer1.1.bias f4 [64]
00000000: b26a 893e 77a2 6ebe cdd0 873d a5f2 d63d
00000010: 1b87 803e 342f 9fbe d1cb a33e c472 323f
00000020: a63b a8bf e6f0 323e 3dbe 4d3e 8192 8bbe
00000030: 2f5b 0cbf abc4 bfbe 353f 9abe 1467 ab3e
00000040: e867 61be d74c 48bc 8c3e 043f 49cd adbd
00000050: 30f4 14be 7f10 283d e20e 9c3d 566d bd3e
00000060: 54f8 c3be 05c3 93be b5b8 2a3f 7cb5 6dbe
00000070: 1ba7 5c3d bbaf d5bd 728f bebe ff8c 9fbe
00000080: 9738 223e 6539 e03e 6976 1cbe 5fc0 843e
00000090: 7671 10be 4dc1 473e 832d 84be 465e c43e
000000a0: 5a00 e8bd 2d9a 3ebd 2884 573d 19e9 aebd
000000b0: c60e b9bd 1178 c0be 31ec 08bf c6b4 e53e
000000c0: f61a 193e 65e5 e1bc 8519 053d 567b cbbe
000000d0: 0431 01bf 9fcd a43e 173f 7abe 6ac1 b9be
000000e0: e383 4d3d a78b b83d 2884 6e3e 8f66 99be
000000f0: 81d2 0b3f c1a6 d3be 02f8 a2be 72ec 863d
0.26839215 -0.23304163 0.066316225 0.104954995 0.25103077 -0.310907 0.31991437 0.6970637
-1.3143203 0.17474708 0.20092101 -0.2726021 -0.54826635 -0.37454733 -0.30126348 0.3347708
-0.22012293 -0.012225351 0.5165794 -0.08486421 -0.14546275 0.041031357 0.07620026 0.3699748
-0.38275397 -0.28859726 0.6668809 -0.23213762 0.0538703 -0.104339086 -0.37218815 -0.3116226
0.158419 0.4379379 -0.15279545 0.25928017 -0.14105782 0.19507332 -0.25815973 0.38353175
-0.11328192 -0.046533752 0.05261627 -0.085405536 -0.09036021 -0.37591603 -0.534854 0.44864482
0.14951691 -0.027575204 0.03249504 -0.39742535 -0.50465417 0.32188126 -0.2443813 -0.36280376
0.050174605 0.090110116 0.23292601 -0.29961058 0.5461808 -0.4133816 -0.3182984 0.06588067

emb_func.layer1.1.running_mean f4 [64]
00000000: 0260 783d 38d0 cfbe b6ac e0be 41ca ac3d
00000010: 513c 173e cbd8 0a3e dc0a 8fbe e8c4 ecbc
00000020: c8c1 893d 0157 e7be 45a3 89bd 8d85 adbe
00000030: 246e 063d a349 8b3e 9248 8c3e 3a7c bf3b
00000040: e489 09be 92d9 b1bd e26a 82bd 2a3a 8ebd
00000050: 5e72 7bbe 3dc6 be3d 54cf 9abd 637a 89bd
00000060: f31b a3be 03ea 84be b2a9 c23c 3b26 99be
00000070: 698e 9d3d e7d5 71be 8d12 c03d 8887 3f3e
00000080: 5de0 42bd 0670 dabd b716 f4bc f8b7 2abf
00000090: 6d00 84bd 7566 57be 7389 923c 889d 693e
000000a0: 34f1 9fbd 7372 213d 1495 98be cfba 693d
000000b0: 7284 31be 1d8d efbe 3bab 07bf 82ec 8f3d
000000c0: b91d 033f f8fe c8be 3b4d 463e 7ea2 c63d
000000d0: 76ba e6bd 1b22 18be edde 81be 32d7 893d
000000e0: ade1 acbe 0b4e b7bc 0c28 bdbe 4392 2a3d
000000f0: 314c 08be 7614 18be 8dc1 453d 1a28 2bbf
0.060638435 -0.40588546 -0.43881768 0.08437014 0.14769103 0.13559262 -0.27937973 -0.028902486
0.06726414 -0.45183566 -0.06720594 -0.33890954 0.032819882 0.27204618 0.27399117 0.0058436664
-0.13431507 -0.08684076 -0.063680425 -0.06944688 -0.24555346 0.09315155 -0.07559076 -0.067127965
-0.3185726 -0.25959787 0.023762558 -0.2991198 0.07693178 -0.23616754 0.09378538 0.18704045
-0.04757725 -0.10665898 -0.029795988 -0.66686964 -0.06445394 -0.21035178 0.017887807 0.22814
-0.07809678 0.039415788 -0.29801238 0.05706292 -0.1733568 -0.46787348 -0.5299565 0.07027532
0.5121723 -0.39257026 0.19365399 0.09698962 -0.11266033 -0.1485676 -0.2536539 0.067304984
-0.33765927 -0.022376081 -0.36944616 0.041643392 -0.13310315 -0.14851555 0.048280288 -0.66858065

emb_func.layer1.1.running_var f4 [64]
00000000: e79c 2f40 a2f5 693f c2af 1440 6dd9 f840
00000010: 3f97 8a40 6dec 873f 420a 1740 eb7d a440
00000020: a415 a03f abbd fb3f 5f22 8640 66d5 723f
00000030: 642b 003f 7e6b 563f 435f 793f 427c e640
00000040: 18f1 343f 54be 1d40 0ee6 7040 0706 ea3f
00000050: 2336 423f 1aed 3c3f c187 5f40 e975 2440
00000060: 2f48 ad3f 9534 0f3f 941e 2741 6d5c 353f
00000070: 8b7f c240 7616 3b3f 4ca7 dc3e c492 003f
00000080: dd8c 1541 a43e c140 bcb0 8940 fd0c 2540
00000090: 50f5 953e f625 d83f 4640 ed3e 6e11 2b40
000000a0: 57a1 523f 3aab 053f d2dc 0240 536b 483e
000000b0: ebcd 633f 1043 3840 587b 0340 aef1 3640
000000c0: c768 0a40 1a8e 863f 81a9 0b3f dca4 3f3f
000000d0: 702f 8040 5411 5540 911d 053f af02 b73e
000000e0: 675f c63f 91aa 0a40 5023 e93f 5743 c23e
000000f0: 44d4 d640 038c 013f d4be 383e 5aa6 3940
2.7439516 0.9139043 2.3232274 7.776541 4.3309627 1.0619026 2.360001 5.140371
1.2506604 1.9667257 4.1916957 0.9485687 0.5006621 0.8375777 0.9741098 7.202668
0.7068038 2.4647417 3.7640414 1.8283089 0.75863856 0.7379929 3.4926608 2.5696967
1.3537654 0.5593961 10.444965 0.70844156 6.078069 0.7308115 0.43096387 0.50223947
9.34689 6.0388966 4.302824 2.5789177 0.2928872 1.6886585 0.463381 2.6729388
0.82277435 0.52214396 2.0447278 0.19572191 0.8898608 2.8790932 2.0544033 2.858501
2.162645 1.0512116 0.5455552 0.7486093 4.0057907 3.3291826 0.5199824 0.35744235
1.5497864 2.1666605 1.8213902 0.37942 6.7134113 0.50604266 0.18041545 2.9007783

emb_func.layer2.0.weight f4 [64, 64, 3, 3]
00000000: b8e6 913e dcf1 a23e 5b59 08be 3304 12be
00000010: a68d 31bb c16e 203e 0d87 c43c 3ff1 113e
00000020: 264f 8a3d 8cf5 d93d c5b7 023e 87d5 f43d
00000030: e71d 6a3d 619e 7f3d 7264 fe3c ba18 bdbd
00000040: 03d5 c7bd 5dbd b9bd 43f7 0c3e e083 393e
00000050: 9e0f 1a3e eded 3d3d bb54 a63d ca28 483d
00000060: 1722 90be f945 a2be 33df a7be 2758 46bd
00000070: 0b7d debc fb17 05be 6afc d23d c21d 5e3e
00000080: f182 c0bc 0b96 4abe 2cb7 6bbe 6293 65be
00000090: b2a0 d23d 5af5 053e 8bc6 883d 7839 5dbc
000000a0: 934c aebc f926 6bbc 2d92 4ebe 7b86 b8be
000000b0: a34f 60be 4e34 263e 1955 103e 810e ae3d
000000c0: 538f 343e 84f9 553e 3039 173e 9f94 563d
000000d0: 6860 0a3c ae04 10bc 309c a73d e025 0c3e
000000e0: 239c 0bbd be62 623c 69c5 5e3d 43bb 0b3e
000000f0: ec32 15be 0ea5 efbd 5a6d 9fbd cb77 b83d
00000100: 556e 863d 0048 a3bc 37a1 39bc 305d 943d
00000110: 1856 85bd 7a53 b0be 2126 8bbe c29c abbe
00000120: 4999 2abe 6e9a 11be 4e4e 13be b895 6abe
00000130: 50eb 5cbe e221 0fbe 0506 12bd 6f99 b7bc
00000140: eade 0bbd c993 803e 622a 8a3e 5b61 643e
00000150: 2a65 b23d b5a5 b53d 0b51 9d3d d5d9 5fbe
00000160: f4d2 6bbe 74c9 8ebe 3bb9 923d b97c 033e
00000170: b4c4 233e 60c6 70bc 0efe ffbc 1b1b d1bd
00000180: 6e13 76be 9d39 8fbe c152 88be 91d5 c53d
00000190: 4c19 0c3e 140e e83d 23ae 283d 2228 333d
000001a0: 97c3 cd3c c24b c5bd d881 dcbd 2545 c5bd
000001b0: bc83 debd 4285 94bd 3a09 99bd 6ae8 47bd
000001c0: c205 19bd 5293 c7bc d1a1 16bc 9581 85bb
000001d0: 45ce ea3b 70ea d33c 1efd e43c aa3e 7c3c
000001e0: 0aa4 8a3c 396f 273b 2e54 7b3c b5eb 313d
000001f0: 74d5 353d 11b8 1f3d b4e7 d7bc da59 14bc
00000200: 6ff2 a6bc 671c 40bc 957c 7cbc 3bc3 f8bb
00000210: cbbf de3b d6be 803c e256 443c a498 453d
00000220: bf56 af3d 84b7 a3bd 3ad9 84bc f21a 783c
00000230: 53b3 e13c 7c5c cfbe f089 a9be 610e 2cbe
00000240: b087 fcbc 39d8 44bc db58 42bd a279 f13b
00000250: f21a 833c e79a 2b3c dc42 1cbd 4daa 1ebd
00000260: eeb4 b1bc 97fa 5a3d 2271 c13d bd9b fb3d
00000270: 43a7 113c b96f 9bbd c93c 06be c95d 2bbe
00000280: 6822 80be f96f 4abe 5774 ac3c 6750 bf3d
00000290: acc1 1cbd af4c d3bb 77ec 143d c05e 503c
000002a0: 3bfd 983d c398 ee3d c7a4 03bd 3758 853e
000002b0: f809 413e 6cef d7bc 3f7c 13be a46b c03d
000002c0: 6e8c 3b3e ff0c e3be 9f47 8cbe a6b1 9abe
000002d0: c0c4 193e e5d4 0d3e df57 873d 5704 d63b
000002e0: c65d 483d 852f 753d b085 b4bd 4049 76bd
000002f0: 63e4 6cbd 03df 4abd 6990 0cbd f69a 3cbd
00000300: aa03 05bd ab1a 21bd 06bc 0ebd 1f3c 20bd
00000310: 7c64 e9bc e4e3 cbbc bf3e 043e 2313 c63e
00000320: e119 1d3e ad98 9bbd de6a 8a3d 2245 0b3e
00000330: afea b5be 3c6e 72be a92f 72be c3f1 623e
00000340: e79e 033e e522 b03c b565 3dbe cd07 c1bd
00000350: 861e e2bc e3b6 a2be bd6c 82be aff4 69be
00000360: 419b e73d 17b4 d63d b819 c63d c585 d03c
00000370: c676 14bc 7ee8 bd3b 88ce a1bd 695a f8bd
00000380: 6587 07be 5da0 ecbc eba0 0dbd c0ec 06bd
00000390: 2fc3 fcbc 1ae9 b6bc fcb3 86bc 52f5 69bc
000003a0: fd65 a0bb 6998 5fbc 6d7a fa3c d012 083e
000003b0: ff76 4abe 8a4c 7e3c 6838 9c3d ebd2 b83d
000003c0: c54f 543e e74f 9c3e 9146 b03d eebd 9a3b
000003d0: 0f66 943c 3b96 d9bb 7ca6 283c bf2e ebbb
000003e0: 1592 1ebc f8cb bcbc d69a 2abc e003 9abc
000003f0: 36b0 ab3d ed77 9e3d 12ba 5fbd 1532 16be
0.28496337 0.3182515 -0.13315336 -0.14259414 -0.0027092486 0.1566725 0.023990178 0.14252184
0.067533776 0.106425375 0.12765415 0.119547896 0.057157423 0.0624069 0.031053755 -0.09233232
-0.09757426 -0.09069321 0.13766198 0.18116713 0.1504502 0.04636948 0.0812163 0.048867024
-0.28151008 -0.3169401 -0.32787475 -0.048423912 -0.027159235 -0.12997429 0.103020504 0.21691039
-0.023499938 -0.197838 -0.23019093 -0.22419503 0.102845564 0.13081875 0.06678494 -0.013502471
-0.021276748 -0.0143525535 -0.20172949 -0.360401 -0.21905379 0.1623089 0.14094962 0.0849886
0.17632799 0.20895964 0.14767909 0.05238783 0.008445837 -0.008790178 0.08184087 0.13686323
-0.03408445 0.013817487 0.054387484 0.13645653 -0.14570206 -0.117014036 -0.07784529 0.09007224
0.06564013 -0.019931793 -0.0113299405 0.072443366 -0.06510562 -0.34438688 -0.27177528 -0.33518034
-0.16660036 -0.14219067 -0.1438534 -0.22908676 -0.2157414 -0.13977769 -0.035650272 -0.02241203
-0.034148134 0.2511275 0.2698546 0.22302763 0.08710702 0.08869497 0.07681473 -0.2186044
-0.23029691 -0.27888072 0.07164236 0.12840547 0.15993005 -0.014695734 -0.031249072 -0.10210248
-0.2403085 -0.27973643 -0.26625636 0.09659875 0.13681525 0.1133081 0.041181695 0.043739446
0.025117679 -0.0963359 -0.10766953 -0.09632329 -0.1086497 -0.072519794 -0.07472463 -0.04880563
-0.037359007 -0.02436224 -0.0091938535 -0.0040742853 0.0071657025 0.025868624 0.027952727 0.0153958
0.016923923 0.0025548472 0.015339894 0.04343768 0.044393018 0.0389939 -0.026355602 -0.009054625
-0.020379273 -0.011725522 -0.015410562 -0.0075916327 0.006797766 0.015715998 0.011983605 0.048241273
0.085614674 -0.07993987 -0.016216863 0.015143143 0.027551329 -0.40500247 -0.3311305 -0.1680236
-0.03082642 -0.012014442 -0.04744802 0.007369236 0.01600406 0.010473943 -0.0381497 -0.03873663
-0.02169272 0.053461637 0.094454065 0.12285564 0.008889976 -0.07589669 -0.13109125 -0.16734995
-0.2502625 -0.19769277 0.021051569 0.093415074 -0.038270637 -0.0064483504 0.036358323 0.012717903
0.07470175 0.11650231 -0.032139566 0.26043865 0.18851459 -0.026359282 -0.14402865 0.09395531
0.18315288 -0.44345853 -0.27398393 -0.3021366 0.1501646 0.13850744 0.06608557 0.006531279
0.048917554 0.05985977 -0.08814561 -0.06012845 -0.057834994 -0.049529087 -0.034317408 -0.04604622
-0.032474197 -0.039332073 -0.034847282 -0.039119836 -0.028490297 -0.02488894 0.1291456 0.38686475
0.15341903 -0.0759748 0.067586645 0.13600591 -0.35530612 -0.23674864 -0.23650993 0.22162537
0.12853585 0.021501014 -0.1849583 -0.09425316 -0.027602445 -0.31780156 -0.25473586 -0.22847246
0.11308909 0.10483568 0.09672874 0.025454411 -0.009061521 0.0057955375 -0.07900721 -0.12126619
-0.13235243 -0.02888506 -0.03457729 -0.032940626 -0.03085479 -0.022327948 -0.016443245 -0.01427968
-0.0048949705 -0.013647177 0.030575955 0.13288426 -0.19771956 0.015521178 0.07627946 0.090246044
0.20733555 0.3052971 0.086072095 0.0047223484 0.018115072 -0.0066402233 0.010293599 -0.0071772034
-0.009678383 -0.023046479 -0.010412892 -0.018800676 0.08383219 0.07737718 -0.05462081 -0.14667542

emb_func.layer2.0.bias f4 [64]
00000000: d4a1 bfb9 cea3 d33b 2d71 1bbc 2017 4bbb
00000010: 389e a73b 3f56 12bb 4329 d13b b9ad 5e3b
00000020: 5862 df3a 8b12 b2ba cb38 1cbb 2a5e 06bb
00000030: 902c 67ba 5d61 aebb 2e3f 38bb 381b b83b
00000040: f601 e23b cd25 ed3a a75d c63a bc9d 0abc
00000050: 4afa 033b dbfa 063c 8be5 8bbb 591c 21bb
00000060: 83fe 1c3c 9f6e c33a a64b fd3b ef81 2fbb
00000070: 5cc3 11bc dae0 5f3a 9420 fabb ad53 8bbb
00000080: 55b9 603b 2f8e 15bc 7f92 af3b 9a7f 143c
00000090: b98e 173c 687a 0cbc 4f4a 20bc 90b1 81bb
000000a0: 5929 4b3a fb70 9ebb d445 e33b 6266 133c
000000b0: 3ad5 2a3b 8a6d c1ba edd1 13bc c8c6 c33b
000000c0: 2951 bcba 8d73 dd3b da05 773b 8353 d83a
000000d0: b9c3 efbb a354 d13b 7df0 f73a a965 fd3b
000000e0: 661d f43b d63f aabb 8586 f7bb c18f 18bc
000000f0: ad6a 5abb 7119 5cbb 8267 283a 912c ab3b
-0.0003655093 0.006458736 -0.009487432 -0.0030989125 0.0051152967 -0.0022329239 0.0063830926 0.0033978058
0.0017042859 -0.0013585849 -0.0023837562 -0.0020502903 -0.0008818591 -0.005321665 -0.002811383 0.005618479
0.0068972064 0.001809293 0.0015134112 -0.008460458 0.0020138198 0.00823852 -0.004269307 -0.0024583547
0.009582165 0.0014910287 0.0077299653 -0.0026780327 -0.008896675 0.00085402804 -0.007633278 -0.0042519183
0.0034290154 -0.0091281375 0.00535804 0.009063626 0.009250336 -0.008574106 -0.009783342 -0.0039579347
0.0007749997 -0.0048352457 0.0069358144 0.008996578 0.0026067034 -0.0014757377 -0.009022218 0.0059746243
-0.0014367449 0.0067581595 0.0037692697 0.0016504381 -0.007317033 0.0063882633 0.0018916276 0.007733066
0.0074497936 -0.005195598 -0.007553878 -0.009311617 -0.0033327744 -0.00335845 0.0006424115 0.0052238186

emb_func.layer2.1.weight f4 [64]
00000000: cf58 943f e59a 353f 8e78 273f ff3b 2e3f
00000010: 2f75 613f 673a 6d3f 51ce ae3f 0841 343f
00000020: cc4e 8c3f 7ca1 593f 2357 9a3f 96ff 543f
00000030: 1894 7c3f 3717 863f 678d 7b3f 822e 493f
00000040: 0b3f 0a3f aae1 4a3f 856a 3e3f 7754 823f
00000050: acc7 883f 85b6 863f 49e4 2e3f 5ff8 7f3f
00000060: b2cc 8c3f 637c 793f 4723 903f 6b94 4f3f
00000070: 8f48 923f 22a6 723f 636a 7d3f a5dd 6b3f
00000080: 63cb 843f 8cac 363f ed19 2d3f aa8f 1d3f
00000090: 30e2 aa3f b571 b23f 1ca3 003f 41e5 953f
000000a0: 7d37 6c3f 8b46 543f 7c93 783f 87af 953f
000000b0: 9af6 3f3f f394 083f 4d77 313f a655 263f
000000c0: d0cb 833f c697 413f ddc6 153f 5226 723f
000000d0: ef09 8d3f b7a8 833f 3fc6 5b3f 46b1 3e3f
000000e0: ce05 983f 0e75 813f 4028 613f da8f 713f
000000f0: 8153 573f d0e8 573f b8e5 a63f e965 113f
1.1589602 0.70939475 0.65418327 0.68060297 0.8806943 0.9266724 1.3656713 0.7041173
1.0961547 0.8501203 1.2057842 0.83202493 0.98663473 1.0475835 0.9826264 0.7858659
0.54002446 0.79250586 0.74381286 1.0182027 1.0685935 1.052445 0.68317086 0.9998836
1.0999968 0.97455424 1.1260766 0.8108584 1.1428393 0.9478475 0.9899046 0.9213508
1.0374569 0.71357036 0.67617685 0.6154734 1.3350277 1.3940951 0.50248885 1.1710588
0.9227217 0.8292014 0.97100043 1.1694192 0.7498566 0.5335228 0.69322664 0.6497444
1.0296574 0.7562221 0.58506566 0.9458972 1.1018656 1.0285863 0.85849375 0.7448925
1.1876771 1.0113847 0.8795204 0.94360125 0.8411179 0.8433962 1.3038855 0.5679613

emb_func.layer2.1.bias f4 [64]
00000000: 551c 7fbe f79d 04bb c9b9 0e3e a0a4 77bf
00000010: 97cf 16bf 48ba d33c a78a 39bf aa6e 9ebe
00000020: 6666 23bf 2380 b0be dafa 2cbf d4c9 88be
00000030: 4e45 d53c 4828 87be 9aa9 b7bd 2030 51bf
00000040: c767 f8be adde 9bbd 5001 abbe ea98 41bf
00000050: 3bc9 38bf 94c7 26bf 105e 50be 2781 acbe
00000060: ef34 04bf 0461 34bf 2a66 d1be 7414 f5be
00000070: db0a f7be a604 8bbe 103d 04bf be1d aabe
00000080: 6912 0ebe b1f9 1cbf 8373 0e3e 3c50 73be
00000090: 4a92 3bbf 6f50 26bf 2c50 3dbf c737 07bf
000000a0: 5302 a6be 2c36 c3be 72fc e7be c8c6 adbe
000000b0: 418e 35be cdee c23c ec79 a4be 1a61 38bb
000000c0: 6b39 21bf dade 45be a9eb bcbc 372c 04bf
000000d0: 5870 43bf 1506 1bbf cf49 4ebe 7e05 143e
000000e0: 7f36 23bf 8ad8 b0be a3a7 b5be d647 00bf
000000f0: 8902 1bbe daf9 f83d 1473 d6be 6ece 24bf
-0.24913152 -0.0020235756 0.13938059 -0.9673557 -0.58910507 0.025845662 -0.7247719 -0.30943805
-0.6382812 -0.3447276 -0.6757027 -0.26716483 0.026034024 -0.2639792 -0.08967896 -0.8171406
-0.48516676 -0.076108314 -0.3339944 -0.75623953 -0.72182053 -0.6514828 -0.20348382 -0.33692285
-0.5164327 -0.70460534 -0.40898257 -0.47867167 -0.4825047 -0.27151984 -0.51655674 -0.33225816
-0.1387421 -0.613185 0.13911252 -0.23761076 -0.73270094 -0.6496648 -0.7395046 -0.52819484
-0.32423648 -0.38127267 -0.45309788 -0.3394072 -0.17730047 0.02379551 -0.3212427 -0.002813405
-0.6297824 -0.19323292 -0.02306159 -0.51629966 -0.763433 -0.60556155 -0.20145343 0.1445522
-0.6375503 -0.34540206 -0.3547946 -0.5010961 -0.15137686 0.121570304 -0.41884673 -0.64377487

emb_func.layer2.1.running_mean f4 [64]
00000000: 3383 7ec0 387c 3ac0 0125 c7c0 e669 c83f
00000010: be75 e9bf 3d28 13c0 3bcf b6c0 9876 50c0
00000020: fee7 acc0 5cb7 17c0 d0c5 ffc0 9637 debf
00000030: 6fa3 35c0 7caa c2c0 dc96 85c0 cd11 12c0
00000040: f6c1 e6bf 2ad6 9ac0 e2f6 8ec0 6629 44c0
00000050: 195f f6bf bea3 9ec0 9345 ed3e 5ed0 5ac0
00000060: dfe6 02c1 7b24 debf 6ecf a2c0 0e84 a7bf
00000070: 2588 a5c0 4cd3 9dc0 111b b3c0 990a 97c0
00000080: 83e6 7bc0 35a6 52bf 4b8b ffbe acbb 7ac0
00000090: 129d 8fc0 683e ddc0 299a 3c40 fe40 c2c0
000000a0: ce67 92c0 7e53 d0bf 6be0 fec0 a023 d7c0
000000b0: 9fa8 fbbf f298 a0be 9a7e b1c0 ee42 3abf
000000c0: 30e2 81c0 b3dc e5be 953f d1bf 48cf 8ec0
000000d0: 62ba cfc0 2119 e7c0 6c3e 90bf 4f61 95c0
000000e0: e7b1 dbc0 3f60 89c0 d78e 97c0 a567 72c0
000000f0: 6a14 d3bf 1d2a 94c0 99cd 99c0 9b54 bf40
-3.9767578 -2.9138317 -6.223267 1.5657318 -1.8239057 -2.299331 -5.7127967 -3.2572384
-5.4033194 -2.3705664 -7.992897 -1.7360713 -2.8381002 -6.083311 -4.1746655 -2.2823365
-1.8027942 -4.838643 -4.467637 -3.0650268 -1.9247772 -4.957488 0.46342143 -3.4189677
-8.181365 -1.7354883 -5.087821 -1.3087175 -5.172869 -4.932043 -5.597054 -4.7200437
-3.9359443 -0.8228486 -0.4991096 -3.9177046 -4.4879236 -6.913868 2.9469092 -6.0704336
-4.5751715 -1.627548 -7.964895 -6.7230988 -1.9660834 -0.31366688 -5.5467043 -0.72758377
-4.058861 -0.44894943 -1.6347529 -4.462803 -6.491502 -7.2218175 -1.126905 -4.6681285
-6.8654666 -4.292999 -4.7361865 -3.787576 -1.6490605 -4.630141 -4.8063474 5.979078

emb_func.layer2.1.running_var f4 [64]
00000000: b582 cc41 2236 6f41 5794 5141 3d51 eb40
00000010: f5ab 7741 6727 aa41 a623 ef41 b314 9441
00000020: 3c77 9141 e92d 6341 26b0 b541 8eb3 3141
00000030: 5911 a741 97de a841 bd59 da41 2744 0841
00000040: edb7 8540 db0f 1e41 8d80 e940 e343 3341
00000050: cf04 2441 d2bc 8f41 90f6 4141 4a54 a841
00000060: 3949 d241 9f45 1b41 7b43 bb41 d950 b240
00000070: 486d 0842 163e 8541 cf5f 7c41 a9eb 2e41
00000080: 1dfe b041 ff15 ca40 5b00 9e41 0c9b ff40
00000090: 5e45 ea41 a495 f441 106c e140 a41b 0842
000000a0: 6a70 ec41 e94b 0c41 ea1b 8d41 45ed cc41
000000b0: 0201 8441 c3de 6d41 00e2 1241 44b2 0142
000000c0: 99ed 3141 18fc 1741 fb7b f040 826e de41
000000d0: e48a 5e41 7bed 6341 3e37 8041 b109 2641
000000e0: bde8 8841 01c4 0842 a425 5b41 715a 7141
000000f0: b158 8041 5ee4 c541 a0ef f541 d826 2241
25.563822 14.950716 13.098716 7.353667 15.479482 21.26924 29.892406 18.510107
18.18322 14.198709 22.71101 11.106337 20.88347 21.108686 27.293818 8.516639
4.178702 9.878871 7.296942 11.204074 10.251174 17.967197 12.122696 21.041157
26.285753 9.704497 23.40795 5.572369 34.10672 16.655315 15.773391 10.932534
22.124079 6.315185 19.750174 7.9876766 29.28387 30.573067 7.044441 34.026993
29.55489 8.768533 17.63863 25.615854 16.500492 14.866885 9.180176 32.424088
11.120507 9.499046 7.5151343 27.803959 13.908909 14.245479 16.026974 10.377366
17.113642 34.19141 13.69669 15.08458 16.043306 24.736507 30.742004 10.134483

emb_func.layer3.0.weight f4 [64, 64, 3, 3]
00000000: 12cf 063e 52f0 3e3e 3547 af3d 20f1 2f3e
00000010: 3e1a 253e 66ca cb3d 9017 333d 4a8d d73d
00000020: 6e67 4b3e a5f0 253e aa23 c83d af9a 10bd
00000030: faab 9bbd 3780 86bd 6418 82bd 715e 44bd
00000040: 2dbf d2bd 87c3 fabd f08e b9bd 7a36 c1bd
00000050: c0cd 19be 33c2 19bd 7355 153c 7b94 afbc
00000060: 68e3 d23c 7638 9c3d 0fa0 263d bd99 b93c
00000070: 44d8 c93b fed3 35bc ec06 1abd 06d1 9bbd
00000080: 5cbd 87bd f631 04bc 593e bc3c d7c6 2f3b
00000090: d961 613d 82b1 f13d 6f98 2d3e 9efb e1bc
000000a0: 47a7 de3d ee05 2b3e 2040 8abe 64bf 0abe
000000b0: 7dce 823b 9187 083e 76c2 7e3d 2f45 c23d
000000c0: b98b 263d af59 dbbd 71aa 38bd 0bbd 62bd
000000d0: 92e5 28be 62af cfbd 0b8c 7ebd 048c 84bd
000000e0: 5eb1 f0ba 82bf d43c dd66 4cbd e53a 67bd
000000f0: f42d 1d3d 0317 3ebd f8ca b03c deb2 803d
00000100: 9068 39bc 8dc5 e1bc 8bcd c0bc 5f2c 01bc
00000110: 4a1b c2bc eaa2 2cbe cc90 42be 6fb4 d8bd
00000120: 97ce 07bd 9521 bbbc a33d bebd d2af c5bd
00000130: 8f9e 92bd 4cc7 88bd 5f43 08be 52d4 dbbd
00000140: 1e5b b1bd 8df8 9a3e 59a6 203e 3f15 fb3d
00000150: 99b1 293c 5fb1 d3bc 545f 99bd 4e1a 09bd
00000160: de09 5cbd 18bb 8a3c 56ca f13b 2fc3 db3c
00000170: 918e 51bd e0cb 3cbc 34f0 19bb 8935 a5bc
00000180: 49fb 47bd e8a9 823b 961a 613b 1c98 6cbd
00000190: f685 fa3a fa41 9d3d 3990 403c d161 fa3d
000001a0: 2816 7d3e ff04 85be d01b 12be 3b13 cebc
000001b0: 4ce8 46bd b4ba c73d fd5b e1bb 3cce 96bc
000001c0: 75dc a7bd 61eb 5bbe 4d30 893d 0a2a f0bd
000001d0: 4135 45be cd1f f4bd 4767 d9bd 0877 2abe
000001e0: 6440 39bd b735 37bd d252 69bd 93ae 683e
000001f0: e2f1 443e e87e 7c3e f118 b2bd bd63 8ebd
00000200: 82a8 363e 9a4e 76bd cd09 76bd 54a9 113e
00000210: ef53 c1bd 75a1 26bd c713 7b3d fb89 20bc
00000220: 6482 a33c 9a70 dc3b 62e9 74bb 5822 713d
00000230: 4fe5 363d 35a9 50bd 166b c5bb 5cd1 063c
00000240: 4862 573d 692b 31bc 56e3 43bc 51e6 823d
00000250: 2a26 2d3b 6400 c63c f276 873d e30e 153b
00000260: 4260 dc3c 061b bc3d b355 6cbc 2be8 f8bd
00000270: 4262 493d 8fa4 65bd 245c e1bd 9399 bb3d
00000280: 0e8a a83b 2b85 0abd 1cbf de3c e795 e23c
00000290: 8477 9ebc 3133 86bd 99f6 34bd f7dc 6ebd
000002a0: a24b d4bc fb55 9fbc dda2 1cbc 2a33 3fbe
000002b0: 86cb a5be 88f9 72be 6c9d 0dbe b693 a2bd
000002c0: a359 3dbe 06c8 17bd db06 fbbd fab2 e1bd
000002d0: fb40 aa3b efaa e63c ee94 313d a430 42be
000002e0: ccfe efbd c3d0 1cbb 361b 02be 29ea d6bd
000002f0: 73e3 16be 235f 153c 0de7 2a3d ee87 debb
00000300: 6a76 f83d 5e48 403d 7c91 663a e35b e93c
00000310: b181 8fbb 8d8a 633c 60ed 4c3e 89a7 973d
00000320: c716 4f3d f956 8d3d 14bf b2bd 2ead 34be
00000330: ff45 a63d 2793 013d 965c 413d 8877 79bd
00000340: b92a 0b3d f1f5 763d 3a24 e3bc 4aca fe3d
00000350: 5d55 233e 9dcf 37bc 5bef 0c3b a383 c33d
00000360: c120 50bc 0f02 4d3d 286d 8d3c 64ec fd3d
00000370: 5d21 a93d 3b4a 2a3d 59db 0d3e ced8 ee3d
00000380: 9f95 b33d 089a 853d 9be9 a2bc 4fee 6abd
00000390: 1a58 6b3d 1d61 e13c b8a1 943c d6f9 b63d
000003a0: 590b 82bd 1049 28bc 7a83 87bd 0280 40be
000003b0: 4535 47be 9dad 06bd 543f f83d e387 9abd
000003c0: 012d 1d3d 2ca1 d33d 5261 8b3a 757f ff3b
000003d0: 521f 04bc 9192 47bd 5338 c0bd f8aa e0bd
000003e0: de67 19be 40c6 c8bd c183 aebd 07bc fabd
000003f0: 2f70 8ebe 7b22 63be 525d 35bd 2432 aabe
0.13164929 0.18646362 0.085585035 0.17181826 0.16123292 0.09950714 0.043723643 0.105249956
0.19863674 0.1620508 0.097724274 -0.035303768 -0.07601161 -0.06567424 -0.063523084 -0.04794163
-0.1029037 -0.12244325 -0.09060466 -0.09434219 -0.15019894 -0.03753872 0.009114611 -0.021433106
0.025743201 0.076279566 0.040679988 0.022656316 0.006159814 -0.011097906 -0.037604257 -0.076082274
-0.06627914 -0.008068552 0.022978948 0.0026821399 0.055024955 0.11801435 0.1695268 -0.0275858
0.10871749 0.16701481 -0.27002048 -0.13549572 0.0039919005 0.13332964 0.06219717 0.09485852
0.040660594 -0.10710465 -0.04508442 -0.055356067 -0.16493824 -0.101408735 -0.062145274 -0.06472018
-0.0018363406 0.025970224 -0.049902786 -0.05645265 0.038373902 -0.046408664 0.021581158 0.06284116
-0.011316434 -0.02756002 -0.02353551 -0.007884114 -0.023694653 -0.16859022 -0.19000548 -0.1058129
-0.033156004 -0.022843162 -0.092891 -0.09652676 -0.07159149 -0.06678638 -0.1330695 -0.10733856
-0.08659957 0.30267754 0.15688457 0.12259912 0.010357284 -0.025841413 -0.074888855 -0.03347235
-0.053720348 0.016934916 0.0073788567 0.02682647 -0.051161353 -0.011523217 -0.002348912 -0.02016713
-0.04882363 0.0039875396 0.0034348122 -0.05776225 0.001911341 0.076786 0.011753135 0.12225688
0.24715483 -0.25980374 -0.14268422 -0.025155654 -0.04856138 0.09752408 -0.006877421 -0.018408887
-0.08196346 -0.21476509 0.06698666 -0.11726768 -0.19258596 -0.11920128 -0.10615402 -0.1664697
-0.045227423 -0.04472896 -0.05696375 0.22722845 0.19232896 0.24657786 -0.086961634 -0.06952617
0.17837718 -0.060133554 -0.06006794 0.1422475 -0.09439837 -0.04068132 0.061298158 -0.009798522
0.019959636 0.0067272903 -0.0037370552 0.058870643 0.04465228 -0.05094262 -0.0060247285 0.008228626
0.052583963 -0.010813572 -0.011956057 0.063915856 0.0026420453 0.024170108 0.06614484 0.002274447
0.026901368 0.09184842 -0.014424729 -0.121536575 0.04916597 -0.05606514 -0.110039026 0.09160151
0.0051434105 -0.033818405 0.027190737 0.02765937 -0.019344099 -0.06552733 -0.044180486 -0.058316197
-0.02591497 -0.019450178 -0.009560314 -0.18671861 -0.3238184 -0.23728001 -0.13829583 -0.0793833
-0.18491225 -0.03705599 -0.12257167 -0.11020465 0.0051957346 0.02815768 0.04335492 -0.18963867
-0.117185205 -0.0023928143 -0.12705693 -0.10493881 -0.14735202 0.009116921 0.041724253 -0.0067911064
0.12131961 0.046944015 0.00087954826 0.028486198 -0.004379474 0.013888014 0.20012426 0.07405002
0.05055883 0.06901354 -0.087278515 -0.17644188 0.081188194 0.031634476 0.047207437 -0.06090501
0.03397629 0.06029314 -0.027727235 0.12440927 0.15950532 -0.011218932 0.0021504972 0.09546592
-0.012703122 0.05005079 0.017263964 0.123986036 0.08258317 0.041574698 0.13853206 0.11662446
0.08768772 0.0652352 -0.019886782 -0.057356175 0.057457067 0.027512128 0.01814352 0.08934371
-0.06349821 -0.010271326 -0.06616874 -0.18798831 -0.19453914 -0.032880414 0.12121454 -0.075454496
0.038372997 0.103334755 0.0010633862 0.0077971765 -0.008064108 -0.04872376 -0.09385743 -0.1097011
-0.14981028 -0.09803438 -0.08521224 -0.122428946 -0.27819964 -0.22181122 -0.04427845 -0.3324138

emb_func.layer3.0.bias f4 [64]
00000000: 0780 55ba 8a6d 42b9 a8e0 f9bb 49da cdbb
00000010: 8685 0abc 8bba 5fb9 0ad9 e8bb bf88 d937
00000020: cdd5 90bb 443b 52bb ee1f 143c 80c3 09bc
00000030: d638 86bb 561e 403a f51f 41bb 6786 6f3b
00000040: 37d9 183c 1ce7 a33b 7bce a13b 937f 64ba
00000050: f2e5 e4ba ed21 313b 90d9 ab3b e382 ce3b
00000060: dd3e 713b 897f aa3b 87f8 0f3b a527 36b9
00000070: c161 fcba ae23 f8bb 629d 1fbc a2eb 1abc
00000080: cc09 fb3b 67ff 213b 36c5 123c a8f1 f2bb
00000090: 89d9 073c 16ab 1dbc c7b1 ebba 6fae 903b
000000a0: c88d 15bc 0994 d63b 8e0b 14bc 82cf d43b
000000b0: da4f 053c df93 f63b 0baf 6539 432e bc3b
000000c0: 3c62 903b 4a90 003c edb6 18bc 8081 1abc
000000d0: f9e2 d6bb 93f8 0e3c fc89 553b de66 4cba
000000e0: a05a 14bb f891 d13b 6fa0 e13b 1bbb f4bb
000000f0: 6f7c c4ba cad0 d23b 7b61 dfbb b260 d93b
-0.0008144383 -0.00018542088 -0.007625658 -0.006282125 -0.008454686 -0.0002133643 -0.007105951 2.5932093e-05
-0.0044200183 -0.0032078782 0.009040816 -0.008408427 -0.004096131 0.0007328739 -0.002946851 0.0036548616
0.009329132 0.0050019156 0.0049379445 -0.000871652 -0.0017463549 0.0027028278 0.0052444413 0.006302224
0.003681115 0.0052031917 0.0021968202 -0.00017371641 -0.0019255207 -0.0075726127 -0.009742113 -0.009455593
0.00766108 0.0024718882 0.008958152 -0.0074140616 0.0082916105 -0.00962331 -0.0017982059 0.0044153254
-0.009128042 0.006548409 -0.009035958 0.0064944634 0.008136714 0.007524952 0.0002190435 0.0057428195
0.0044062417 0.007846901 -0.009320957 -0.009430289 -0.006557819 0.008726257 0.0032583466 -0.0007797311
-0.0022637025 0.0063955747 0.0068855803 -0.007468594 -0.0014990697 0.006433581 -0.0068170405 0.0066338414

emb_func.layer3.1.weight f4 [64]
00000000: 6719 803f a01c ae3f 43db 8f3f f8a3 603f
00000010: ad83 913f 47cd 6a3f 23ab a93f ff85 a93f
00000020: 13ac 853f ea2e 5c3f 904a 413f 4526 3d3f
00000030: 77e7 8c3f 8614 8b3f 8a3a 853f add2 7c3f
00000040: b51e a13f 47a1 8c3f bac0 813f 5768 7e3f
00000050: e56c 6f3f f318 773f 8721 5f3f ad7a 883f
00000060: f254 903f 0602 963f e721 6d3f 3d6b 503f
00000070: fda9 693f dfcc 813f 426a 6d3f 31c3 913f
00000080: 47e4 a73f 2440 863f 6d72 7e3f 197e 923f
00000090: 8b4c a63f b9d3 823f 5cd4 bf3f 1fec 6f3f
000000a0: 76db 423f 3951 a73f 3c5f bc3f affb 933f
000000b0: beb9 f43e a17e 833f 1aca 9d3f d279 a03f
000000c0: fd60 963f 4ab5 463f e032 873f 9cc3 263f
000000d0: ec12 a93f 2e97 813f fedf 9c3f 5642 523f
000000e0: 32dd 413f fa9a a23f 8ec2 663f 3298 883f
000000f0: 4642 623f 14a2 503f c479 973f b7ee 8c3f
1.0007752 1.3602486 1.1238788 0.87750196 1.1368309 0.9171948 1.3255352 1.3244017
1.0443138 0.86009085 0.755044 0.7388652 1.1008137 1.0865638 1.040849 0.98758966
1.2587496 1.0986718 1.013694 0.9937796 0.93525535 0.96522444 0.87160534 1.0662438
1.1275923 1.1719368 0.92629856 0.8141363 0.91275007 1.0140647 0.9274026 1.1387693
1.311654 1.0488324 0.9939335 1.1444732 1.2992109 1.0220863 1.4986682 0.9371967
0.7611612 1.3071662 1.4716563 1.1561183 0.4779796 1.0273019 1.2327302 1.2537177
1.1748348 0.77620375 1.0562401 0.65142226 1.32089 1.0124261 1.2255857 0.8213247
0.7572814 1.2703545 0.90140617 1.0671446 0.88382375 0.8149731 1.1834035 1.101035

emb_func.layer3.1.bias f4 [64]
00000000: 5383 1ebf d709 34bf 57c1 60bf f0fc 1a3e
00000010: a143 3abf b92d 29bf 40d0 7abf f6ea 38bf
00000020: 9165 d0be 14ae d4be 2727 6bbf cf72 ca3d
00000030: f0c2 4fbf 1ff8 ffbe 70b0 18bf 4a11 9cbe
00000040: 096e 9abf 3729 22bf 3f81 11bf 065a 0cbf
00000050: 47a4 03bf e330 4bbf 390a 3fbf b56a 18bf
00000060: 3f3e 2abf 3b71 6bbf 094d 00bf 70d8 65be
00000070: faa4 aebe 73fc 75bf bf37 99be 6244 31bf
00000080: 2cb3 39bf dac0 8cbf 5248 20bf d70b 3dbf
00000090: bd9f 5dbf b56f 26bf dbb2 43bf 48c1 0cbf
000000a0: 5dd2 3cbd 43dd 2ebf 8679 c6be 1669 7abf
000000b0: d72d 523e 2f35 19bf 391d 3abf 0c73 09be
000000c0: 9329 46bf a9ea 09bf af45 38bf 8023 1fbf
000000d0: 943e 47bf 10c3 45bf 4eff 6cbf 2e99 acbe
000000e0: ef62 0dbf 6b9e ebbe b9f9 e6be 9fb7 41bf
000000f0: 042d a6be bbb1 e5be 65ff 65bf 3c40 2fbf
-0.61919135 -0.70327514 -0.87795013 0.1513555 -0.72759444 -0.6608539 -0.97974014 -0.7223352
-0.4070249 -0.4153906 -0.91856617 0.09885179 -0.81156826 -0.4999399 -0.5964422 -0.3048194
-1.206483 -0.6334414 -0.5683784 -0.54824865 -0.5142254 -0.7937147 -0.74624974 -0.5953782
-0.6650123 -0.9196965 -0.50117546 -0.22445846 -0.34110242 -0.9608833 -0.29925343 -0.6924497
-0.7253902 -1.0996354 -0.6261035 -0.7384619 -0.86571866 -0.650142 -0.76444787 -0.54982424
-0.046099056 -0.6830637 -0.3876459 -0.978166 0.20525299 -0.59846777 -0.7270084 -0.13422793
-0.7740719 -0.5387369 -0.7198133 -0.62163544 -0.7782986 -0.77250767 -0.92577064 -0.33710617
-0.55229086 -0.460193 -0.45112398 -0.7567081 -0.3245622 -0.4486216 -0.89842826 -0.6845739

emb_func.layer3.1.running_mean f4 [64]
00000000: b190 82c0 3edc 4bc0 de61 0cc0 4e46 cdc0
00000010: ab22 55c0 7f9e 31c0 227b abc0 7a03 aec0
00000020: 36bd 71c0 2447 47c0 6103 0040 6200 78c0
00000030: a7cc 35c0 b3c6 b5c0 cb5f 36c0 417b 4dc0
00000040: c447 64c0 b127 b9c0 8f9e 04bf 6d73 55c0
00000050: dc8f 30c0 3891 4fc0 9aa7 24c0 c2e0 a3c0
00000060: 15a8 aec0 91f7 76c0 d959 03c0 293f d0be
00000070: 4a4a 54c0 115d 14c0 6b95 74c0 b111 a0c0
00000080: a9d3 45c0 d5c4 f5bd b2f2 20bf 75d6 cfbf
00000090: 8429 21c0 a1c3 14c0 0bab 72c0 aeee 70c0
000000a0: 2c53 86c0 b65a 2ec0 2aee 63c0 43d3 11c0
000000b0: 7f44 b3be 5c29 85c0 ba2e 74c0 d2fb cfc0
000000c0: 789d c7bf b10e 61c0 40c7 83c0 b9ca 3040
000000d0: 3f6d 92c0 a1d6 2bc0 6b04 69c0 9a4f d6bf
000000e0: ba62 89be db0a 4cc0 c7f0 a4be c9aa 1ec0
000000f0: a3a9 82c0 2528 18c0 1d59 5fc0 4478 59c0
-4.0801625 -3.1853175 -2.1934733 -6.414832 -3.330241 -2.7752988 -5.358781 -5.4379244
-3.7771735 -3.113717 2.0002062 -3.8750234 -2.840616 -5.6805053 -2.8495967 -3.2106478
-3.5668802 -5.786095 -0.5180444 -3.33517 -2.7587805 -3.2432384 -2.5727296 -5.1211863
-5.458018 -3.8588603 -2.0523589 -0.40673187 -3.3170342 -2.3181803 -3.8216197 -5.0021596
-3.0910437 -0.12000433 -0.62870324 -1.6237322 -2.518159 -2.3244402 -3.7916896 -3.7645679
-4.197653 -2.7242866 -3.5614114 -2.2785194 -0.35013196 -4.1612988 -3.815352 -6.49949
-1.5594931 -3.5165217 -4.1180725 2.7623732 -4.5758357 -2.684975 -3.6408947 -1.6743042
-0.26833135 -3.1881626 -0.3221495 -2.479174 -4.0832076 -2.3774502 -3.489814 -3.3979654

emb_func.layer3.1.running_var f4 [64]
00000000: 930b 1341 b5fa 7741 fe02 cb40 10ef 3441
00000010: 9aa6 3141 b9a9 fd40 7069 3741 d764 8f41
00000020: 159d 1141 5d6a 0941 4351 7940 3e8c da40
00000030: 4811 3e41 b966 4241 0f89 2d41 e8da 0e41
00000040: b484 ed40 5ae6 0641 141b e840 b758 f740
00000050: 9266 b940 937a 0841 6680 8940 7958 0041
00000060: da54 3f41 334c 0941 a956 ba40 7f5a 0e41
00000070: 34d9 fe40 a599 d340 3f99 d940 76fa 8741
00000080: 6e9d 3a41 2bda 9e40 4ff9 f240 6180 0e41
00000090: 755c 3a41 dee9 4041 6408 6d41 8c2d 4041
000000a0: 0dcf e140 5d56 7141 2bbc ae41 b7ae f140
000000b0: fe8c bd40 11ff 0741 4af0 6b41 cc40 9941
000000c0: 372c f540 6e62 ad40 9821 e840 066f 8a40
000000d0: 0bda 8b41 32af f440 02a1 5541 bc01 2b41
000000e0: 7f05 3f40 4e59 2d41 0952 bb40 51ae 4841
000000f0: b7cc fd40 bc44 c240 cc2c 2241 8ce1 4d41
9.190326 15.498708 6.3441153 11.308365 11.103174 7.926968 11.463242 17.924238
9.10085 8.588468 3.8955848 6.8296194 11.879219 12.150079 10.845962 8.928444
7.422449 8.431238 7.2533054 7.7295794 5.793771 8.529925 4.2969236 8.0216
11.958216 8.581103 5.8230786 8.897094 7.964014 6.6125054 6.799957 16.997295
11.663435 4.964132 7.592933 8.9063425 11.6475725 12.0570965 14.8145485 12.01112
7.0565248 15.083585 21.841879 7.5525775 5.923461 8.499772 14.746164 19.15664
7.6616473 5.4182653 7.254101 4.3260527 17.481466 7.646386 13.351809 10.687923
2.9847105 10.834303 5.853764 12.542558 7.9312396 6.0708904 10.135937 12.867565

emb_func.layer4.0.weight f4 [64, 64, 3, 3]
00000000: 803b 943b 6625 3fbe 5700 583e e919 49bd
00000010: 37e4 0bbe 88e6 e63d 6853 3cbd 7a8e 143d
00000020: 15e4 eebb 8b8f afbd 300b 5c3e c1d8 f83e
00000030: 7b6f 35be d210 bfbd 4d5f 043e e0cb fbbe
00000040: 0469 26be a179 29bd f526 743e 4fd7 823e
00000050: 44f4 233f b36c d1bb 7dc9 6d3c a3a4 233e
00000060: bb84 04be 817a b6bd ad18 0dbe 04c0 fb3c
00000070: ecfd a8bd 1f96 2bbe 54b3 d83d 5094 1d3e
00000080: 18fe a43d 70af ea3d 5bba 1d3e 00d4 aebc
00000090: 33e0 03bd a9cf 1dbe 25ad b9bd e26f 3d3e
000000a0: c7f0 313e 9a2f 0a3e 3f43 8f3d e9c1 de3d
000000b0: 9a2e 51b7 21f2 44be 5bd2 45be 05d0 66be
000000c0: 0931 e0be 0f82 a7be 452b dabe 5084 58be
000000d0: 43e8 ffbd 96c2 35be 6b86 823d abb1 edbd
000000e0: 171f 8cbb ef51 a3bd 53f6 3bbe 1022 9dbd
000000f0: ef4b 60be 6261 57be fb7f 0ebe 1247 143e
00000100: 9394 823d 89c5 b038 1cab 51bd cf09 b33a
00000110: aa99 95bc 27b2 dbbd a5df 8fbd 881e 3bbe
00000120: 27d3 4c3d 4122 64bd 3ec4 9a3d 5044 fabd
00000130: 12b6 f5bd 3fa0 9fbc 0bf2 53be 4ea5 72be
00000140: a48d e5bd f523 adbd fb0a 903b f020 3f3d
00000150: 137c 6ebd 7fe4 1d3e 9b15 7ebd 293b 523d
00000160: 48d6 123e 95cd 383e 2e56 453c 2bb7 4c3d
00000170: 463c b13d 4889 3e3c ea01 8c3d 7aae 6b3d
00000180: 2227 d23d 38cf d53d 8c13 c03d 5a3b 60be
00000190: b4a2 813d 2bbf a6bd 28ae 8ebc 0125 393e
000001a0: 37f2 d63d f023 213e 5081 0c3e 23d1 733e
000001b0: 929b 703b ebec b5bd 1129 93bd 70f8 57be
000001c0: f137 a8bd a036 8fbe f1b4 15be 09ee cfbd
000001d0: 11c2 0bbd e309 663d 624f 33be 8504 14be
000001e0: 5d8e 3a3e 8be1 c63c 8c63 383e f1e9 49bd
000001f0: 9f31 f5bd 6587 33bc e06b c93d e183 5abd
00000200: cd73 acbd 5b4f 8fbd 49e3 bcbd 5e28 3abe
00000210: 9fe1 53bd 1220 f23c 5aa7 a8be f5fa f4bd
00000220: c47f 2fbe 55dc d7bd be67 c63c 7505 e13c
00000230: d978 613d 71e6 2d3e ca66 c4bc 7dfc b3bd
00000240: 332a 7f3e 3b2d 0ebe a055 e93d 1291 bdbc
00000250: 9748 4abd 47c8 e23c f69f 2fbe a576 a53d
00000260: fc80 c6bd 343b 443e 4b5c 803c fdbe 823e
00000270: 0c24 6ebc f2a8 06bc c736 9bbd 8d32 6dbe
00000280: 47d0 a0bd 42c2 3abb 23c0 e73c 4160 9c3d
00000290: fbe8 34bd 3218 53be 1300 77be 5ce0 05be
000002a0: a2e2 283d 58e5 10be 77fa 89bd f750 17bc
000002b0: 7ed1 fabc f3e0 1b3c 7835 ebbd f85a 36be
000002c0: 5b05 cbbd 8502 86be 1859 d8bd ec7b aabd
000002d0: c0a2 0b3e 5b3a 7abc fbaa d9bd a58d e7bd
000002e0: dc74 89bc 214f 84bc befc f7bd 32d3 423d
000002f0: 8a3f 0ebe 3d46 ab3e 5b70 ac3c 9172 4d3e
00000300: 6685 943c 769e 803d 99a0 6dbd 8515 06be
00000310: 3727 773c 83fb da3c 6e84 ac3e 1eb7 14be
00000320: c5be 5e3d ec58 653e f7e6 fbbd c2a4 a83d
00000330: 2be8 84bd 641f 073d 99d6 d9bc 42c1 633e
00000340: 841c 85bd 6a77 ea3b 503f 02ba d47f 06be
00000350: ef7b 3dbd 9fde 2abd b252 93bd a5a4 84bd
00000360: 4646 cdbd 0e16 a8be e3df b0bd cbc7 8cbd
00000370: 53f2 2b3d 7c8f 023e b780 fa3c 5c44 a33e
00000380: a205 2c3e b716 bc3b 1639 9abd b545 95bd
00000390: 5802 e4bc b2ef 293e 61f7 d2bc 07cf 79be
000003a0: 7080 11bd dcd8 8bbe 051c 0bbe a4d8 09be
000003b0: e820 3a3b 8f67 6bb9 fba5 113e 9704 d73d
000003c0: 0e8b f8bc 9b14 8f3d ce8a c93c 6f27 113e
000003d0: 4633 8d3e 0555 c53d 4749 b93e 50ce 763e
000003e0: c93d 763e 3468 003e 5356 123e 7342 c73d
000003f0: a385 853d 2207 06be 69a0 a5bd 9bdb 10be
0.0045236945 -0.1866661 0.2109388 -0.049096975 -0.13661276 0.11274439 -0.04597798 0.03626869
-0.007290373 -0.085723005 0.21488643 0.4860287 -0.17718308 -0.0932938 0.1292698 -0.49178982
-0.16250998 -0.04137576 0.23842986 0.25554892 0.64044595 -0.006391132 0.014513371 0.15980773
-0.12941258 -0.089100845 -0.13778944 0.030731209 -0.08251557 -0.16756485 0.10581079 0.15388608
0.08056277 0.11459243 0.1540312 -0.021341324 -0.032196235 -0.15411247 -0.09066228 0.18499711
0.17377006 0.13494721 0.06995248 0.10876829 -1.2468221e-05 -0.1923299 -0.19318525 -0.2254029
-0.4378741 -0.32716414 -0.42611137 -0.21144223 -0.12495472 -0.1775001 0.063732944 -0.11606153
-0.004276167 -0.07974612 -0.18355684 -0.076725125 -0.21903966 -0.21033242 -0.13916008 0.14480236
0.063759945 8.429128e-05 -0.051188573 0.0013659539 -0.01826175 -0.10727339 -0.07025079 -0.18273365
0.050006058 -0.05569673 0.075569615 -0.12220061 -0.11997618 -0.019485591 -0.20697801 -0.23695871
-0.112086564 -0.08454124 0.00439584 0.04666227 -0.058223795 0.15419196 -0.062032323 0.05132595
0.14339554 0.18047173 0.012044473 0.04997937 0.08654074 0.01162941 0.068363026 0.05753944
0.1026137 0.104399145 0.09378728 -0.21897641 0.06329861 -0.08141931 -0.017417029 0.18080522
0.104954176 0.15736365 0.13721204 0.23810248 0.003671382 -0.08883079 -0.07185567 -0.21090865
-0.08213795 -0.27971363 -0.14619805 -0.101528235 -0.034120623 0.056161772 -0.17510751 -0.14454849
0.1821837 0.02427747 0.18006724 -0.04929537 -0.11972355 -0.010957574 0.09835029 -0.053348426
-0.08420525 -0.06997558 -0.09223039 -0.18179461 -0.05172884 0.029556308 -0.3294018 -0.11961929
-0.17138582 -0.10540072 0.02421939 0.027468422 0.05504689 0.16982438 -0.023974795 -0.08788393
0.24918441 -0.13884442 0.11393285 -0.023140464 -0.049385633 0.02768339 -0.17150864 0.0807927
-0.096925706 0.19163209 0.015669009 0.25536337 -0.014534961 -0.008218991 -0.07578807 -0.23163815
-0.07852226 -0.0028497134 0.02828986 0.076355465 -0.0441675 -0.20614699 -0.24121122 -0.13073868
0.04123176 -0.14149988 -0.067372255 -0.009235612 -0.030617472 0.009514081 -0.11484808 -0.1780814
-0.09913131 -0.26173797 -0.10563868 -0.083244175 0.13636303 -0.015272702 -0.10628315 -0.113063134
-0.016779356 -0.016151013 -0.121087536 0.047564693 -0.13891426 0.33452025 0.021049669 0.20063235
0.018130016 0.06280224 -0.058014486 -0.13094147 0.015085033 0.026731258 0.33694786 -0.14522979
0.05438115 0.22397202 -0.122999124 0.0823455 -0.06489595 0.03298892 -0.026591586 0.22241691
-0.064995795 0.0071553485 -0.0004968541 -0.131347 -0.04626077 -0.041716214 -0.07193507 -0.06476716
-0.10023169 -0.32829326 -0.08636453 -0.06874045 0.041979145 0.12750047 0.030578954 0.31888092
0.16799024 0.0057400125 -0.075304195 -0.07288686 -0.027833149 0.16595343 -0.025752725 -0.24395381
-0.03552288 -0.27313888 -0.13584907 -0.13461548 0.0028400961 -0.00022449925 0.14223473 0.10498922
-0.030339744 0.06986352 0.02460232 0.14175199 0.2757818 0.09635357 0.3618872 0.2410214
0.24047007 0.1253975 0.14290743 0.09729471 0.0651963 -0.13088658 -0.080872364 -0.14146273

emb_func.layer4.0.bias f4 [64]
00000000: df03 0d3c 0f4a 8c3a 1e41 f43a cbae c9bb
00000010: 1ae6 06bc aeb3 1bbc 81a9 493b a3bb 66bb
00000020: 1651 e1bb e9da acbb f7a3 8e3b a4bd b83b
00000030: 93ef a0bb 106e aebb c806 c8bb 3de4 9cba
00000040: 1d9b 183c 5536 c1bb b4fe ce39 2541 d8bb
00000050: 85c3 b53b 96b9 88bb 79c6 eabb b6e5 d23a
00000060: 5ce3 65ba b334 0d3c ec5d 8f3b 38d8 c9bb
00000070: 0aa1 ce3b f5d5 1d3c dd1a 8dbb cbab 4abb
00000080: 04d6 993b b2ef cf3a be13 6a37 c336 a43b
00000090: 741e 2cbb 1728 a53b c09a 013b 544a a3bb
000000a0: 3e75 e83b 0725 ae3a 2e50 92bb 1d03 993b
000000b0: 2116 953b 3bdf bc3b 8171 4f3b 5888 1cbc
000000c0: 33f1 a93b 76e3 8c3b 40a2 19bc 0256 4fbb
000000d0: 2692 0fbc 79bb 7abb f6c8 a43a e9cb 18bc
000000e0: 47ea 853b 2ea9 e7bb 5fe7 643b 6f8d 313b
000000f0: 1b43 1cbc 747e f03b 4db6 8fbb 43c7 063c
0.00860688 0.0010703224 0.0018635129 -0.00615487 -0.008233571 -0.009503288 0.0030771198 -0.0035207055
-0.0068761213 -0.0052751196 0.004353042 0.0056378413 -0.004911372 -0.005323179 -0.006104324 -0.0011969876
0.009314326 -0.0058963695 0.0003948115 -0.0065995627 0.0055469894 -0.004172514 -0.007164773 0.0016090188
-0.0008769536 0.0086185215 0.00437521 -0.0061598085 0.0063058184 0.009633531 -0.004306181 -0.003092515
0.004694702 0.0015864281 1.39520835e-05 0.005011411 -0.0026263269 0.0050401795 0.0019776076 -0.004983226
0.0070940545 0.0013286181 -0.0044651246 0.0046695606 0.004549757 0.005763916 0.0031653347 -0.009553991
0.005186224 0.0042995764 -0.009377062 -0.0031636958 -0.008762872 -0.0038258715 0.0012572098 -0.00932596
0.004086766 -0.0070697283 0.0034927947 0.0027092358 -0.009537484 0.007339293 -0.0043857456 0.008226219
