results/RENet-dataset-Conv64F-5-1-Jan-08-2024-14-32-52/checkpoints/model_00080.pth (torch, 909453 bytes, 69 tensors)

emb_func.layer1.0.weight f4 [64, 3, 3, 3]
00000000: b41e 903e f3c1 c1bd 0762 83be 09e8 4abf
00000010: 9fa9 29bf 0ba5 e9bc 97cd 5e3e 87ee 2d3f
00000020: e015 273f af3d cb3e 7b07 33be 93c7 97be
00000030: 5cdc 82bf 412f 65bf 5634 70bd 1cd7 bd3d
00000040: 3d90 333f 5e10 413f 8d20 193f d508 ff3c
00000050: 9ae8 03be 1b39 3fbf b450 2fbf 0fd9 d53d
00000060: 114f d3bc 2058 123f e081 283f ebbe 3bbe
00000070: e440 07be 6c3f 52be 79d8 33be 6dff c4bd
00000080: f687 55be 0a3f 4ebc 013a 1dbd 23f3 90bd
00000090: bfdb 80bd 56fe 143d 4723 74bd aca1 85bc
000000a0: 699d 323d dd33 3ebd 300d c73d f48e 913d
000000b0: b5f4 403d 0afe 04bc e1d6 a33d 33f2 d3bb
000000c0: 5b60 f03c 93fa e03d 9ef8 563d c688 273e
000000d0: 1dbe 1f3e 2db5 eb3d 95ca 2f3d c67c a9bd
000000e0: d522 9dbd 08e1 9bbe 9122 adbe b655 babe
000000f0: 222e 52be 70fe 19be 3946 75be 55f2 8e3e
00000100: 8b92 673e 1975 5f3e 2dff 3b3d 701d 3d3d
00000110: e51a a83b 87ba 31be 4276 2cbe 8f8e 76be
00000120: c563 ba3e 0878 a63e 8185 a73e 2c16 843e
00000130: c9ec 6e3e 22b8 153e ab29 56bc 02bc 44bb
00000140: 8e8f c9bd 3dd1 d23e b881 243f 4bbb 143f
00000150: 5d4b 07bf 4815 f6be 5c99 72be 93cc 02bd
00000160: 4837 d9bd 663b 40be cce2 1d3f a423 613f
00000170: f9f5 533f f4b4 0cbf 696a 16bf 5a52 99be
00000180: 300b 5dbe d4f7 f6be 7a42 06bf 2edc 153f
00000190: 733a 603f fb01 513f af63 c8be 44fd cebe
000001a0: bbbc 16be 024c 19be 44e6 f0be 3c1d f3be
000001b0: 6322 c23e 20b6 6a3d 3204 9bbd a097 513f
000001c0: cbad 89be cadb 9fbe ad38 463f 4904 f1be
000001d0: 07d5 f9be a9d7 193e de29 88bd f6a8 d2bd
000001e0: 5dcc 283f 84d4 d9be 9753 ecbe a9f0 2e3f
000001f0: f9b7 1ebf 59da 0bbf cc8a 723e aa88 9b3d
00000200: f38d d43d 9cde 213f 1552 95be 6d6c 61be
00000210: cf47 2a3f c202 edbe 9a26 a2be 13c1 32be
00000220: b42b 56be b084 99be d5ae de3d a6ae b13d
00000230: 8b2e 783d da2c bb3e 30de de3e 21f8 bf3e
00000240: 538f 643d a9f5 a6bc a5c1 d5bd d178 d1be
00000250: a038 11bf 8570 20bf 0218 fbbe 57ce 07bf
00000260: 7e81 07bf d061 373f e6c1 1b3f 6744 e33e
00000270: 06a3 8e3e c2b8 a53d 9dcb c03c 1104 3a3e
00000280: 618b 003e f197 ac3d d275 f9be 1f8d 20bf
00000290: 4d1c 82be cec2 17bf 7ad1 50be a663 773e
000002a0: a039 343e c4ff ed3e ef01 1a3f fe24 763d
000002b0: 052a c0bd 57bc 573e f391 c7be e82b 1a3d
000002c0: 8279 d73e 7a12 813d 315a b13e afbd bb3e
000002d0: 732a 163e fc5f cbbd e4e9 183e 4c85 d8be
000002e0: 95f3 f2bd fe35 443e 2aeb 97be d654 bfbd
000002f0: cfce b1bd 2d25 003f 4911 233f 07a9 2f3f
00000300: 80ef c0be 2afb 59be 84c4 16bd 15e8 1cbf
00000310: b075 b3be 6775 edbd 570c a83e b3f7 e33e
00000320: 5dbf d43e 958f dfbe 8571 aebe c252 47be
00000330: 7aa0 49bf 5459 fbbe 5061 87be ece4 d43e
00000340: 753b f93e 0266 e43e fec7 bfbd 134d 553c
00000350: 8c18 223e 31f4 90be 9df3 1fbd 0176 4c3e
00000360: f2a1 f3be 2148 f7be b75d b6bd 60bf edbc
00000370: b0c9 573c e635 fe3d 5265 bd3e 620b f03e
00000380: 6396 b73e fd1b b9be eb23 c0be 09d1 c3bd
00000390: 99d0 0abd e461 eebc b5c3 913b e156 8a3e
000003a0: c9c1 a83e 6cb0 4d3e f715 8bbe 7d41 88be
000003b0: dca8 00bd 5465 573c 6c2e 8d3c 592d 003d
000003c0: dde8 533e 9787 853e b3d3 f83d fd8e c4bd
000003d0: d0ce 5cbe 5bfd 49be c20d 48be d539 c9be
000003e0: 54fa 7abe c73f 0cbe f141 89be f697 e8bd
000003f0: e90a 963c c249 b5bd 26f0 03bd 9b64 a13c
0.28148425 -0.09460821 -0.25660726 -0.7926031 -0.66274446 -0.028521081 0.21758114 0.6794209
0.65267754 0.39695498 -0.17483322 -0.2964445 -1.0223498 -0.8952523 -0.05864366 0.092695445
0.70141965 0.754156 0.59815294 0.031132141 -0.12881699 -0.7469651 -0.6848252 0.10441791
-0.025794538 0.5716572 0.65823174 -0.18334548 -0.13208348 -0.20532006 -0.17563047 -0.09619031
-0.20852646 -0.012588272 -0.038385395 -0.07077625 -0.06291913 0.036375366 -0.059603956 -0.016312443
0.04360715 -0.04643618 0.09719312 0.07107344 0.04710837 -0.008117208 0.07999969 -0.0064680814
0.02934282 0.10985293 0.052483194 0.16360769 0.15599866 0.11509166 0.042917807 -0.08275752
-0.07672659 -0.30445123 -0.33815435 -0.36393517 -0.20525411 -0.15038466 -0.23952569 0.2791926
0.22614495 0.21822013 0.04589765 0.046170652 0.005130159 -0.17356311 -0.16841987 -0.2407782
0.36404243 0.32513452 0.32719043 0.25798166 0.23332514 0.14621022 -0.013071458 -0.0030019288
-0.09841834 0.4117526 0.64260435 0.58098286 -0.5284937 -0.4806311 -0.23691314 -0.03193338
-0.10606247 -0.18772659 0.6167419 0.8794501 0.827972 -0.5496361 -0.5875612 -0.29945642
-0.21586299 -0.48235953 -0.52445185 0.5853909 0.87589186 0.81643647 -0.39138553 -0.404276
-0.14720432 -0.14970401 -0.4705068 -0.47483242 0.3791686 0.057302594 -0.075691596 0.81871986
-0.26890406 -0.31222373 0.7743023 -0.47073582 -0.4879534 0.15023674 -0.066486105 -0.10286133
0.65936834 -0.4254495 -0.46157524 0.6833597 -0.6199947 -0.5463005 0.2368576 0.07594426
0.10378637 0.632303 -0.29164186 -0.22014017 0.6651582 -0.46291167 -0.31670076 -0.17456464
-0.20915109 -0.29984045 0.1087319 0.0867589 0.06059126 0.36557657 0.4352889 0.37493995
0.055800747 -0.020380812 -0.104373254 -0.40912488 -0.5672703 -0.6267169 -0.49041754 -0.53049225
-0.52931964 0.71633625 0.6084274 0.44388124 0.27858752 0.080918804 0.02353459 0.18165614
0.12553169 0.08427418 -0.48722702 -0.62715334 -0.25412217 -0.59281623 -0.20392409 0.24159107
0.17600107 0.46484196 0.601592 0.060093872 -0.093830146 0.2106794 -0.38978538 0.03763953
0.4208489 0.06302352 0.34639123 0.36668155 0.1466463 -0.09930417 0.14932972 -0.42289197
-0.11862866 0.19161221 -0.29671603 -0.09342353 -0.08682024 0.50056726 0.6369825 0.6861729
-0.37682724 -0.21287218 -0.036808506 -0.6129163 -0.35050726 -0.11594658 0.32821915 0.44524917
0.4155225 -0.43664232 -0.34070984 -0.19465163 -0.7876049 -0.4909159 -0.2644143 0.41580904
0.48678175 0.44609076 -0.09364317 0.013018864 0.15829676 -0.28311303 -0.039050687 0.1996689
-0.47584492 -0.48297217 -0.089045934 -0.029021919 0.013170645 0.12412624 0.36991364 0.46883684
0.35856923 -0.36154166 -0.37527403 -0.09561355 -0.03389034 -0.029099412 0.004448379 0.27019408
0.32960346 0.20086831 -0.27165195 -0.26612464 -0.031411037 0.013146717 0.01723405 0.031293247
0.20694299 0.2608001 0.121497534 -0.09597585 -0.21563268 -0.19725554 -0.19536498 -0.39301935
-0.24509555 -0.13696204 -0.26808122 -0.11357109 0.01831575 -0.08851959 -0.032211445 0.019701293

emb_func.layer1.0.bias f4 [64]
00000000: e309 043c 6bba abbc 4434 863b f805 b03c
00000010: 5212 903c 26fa b63c db55 673c 2173 0dbb
00000020: 7327 df3b bb90 32bc 905d b53c 32f8 553c
00000030: bb63 9cbc 1cc0 b83c 88e8 cab9 9dff 97ba
00000040: 7ce9 e9bb c37f e1bb 5b25 ab3a ea9f 50bc
00000050: c6c1 c6bc 0e20 5cbc 0f13 aabb ec59 a13c
00000060: 1630 9d3c 4205 80bc b047 83ba abac f6bb
00000070: 3a9c 64bc 734a 96bb da46 14bc 3cdc 6e3c
00000080: 5fef 53bc d47d 833b 6526 71bc 345f 05bc
00000090: 9734 a83c 06cb 51bc 1691 cdba df10 cc3c
000000a0: 7a43 123c 3184 59bc 8149 80bc 46db 15bc
000000b0: 15d2 05bc 3e0f 3a3c 1204 bebb 1f35 b43c
000000c0: a979 6abc 70a1 05bc eb95 1b3c 1ea6 aa3c
000000d0: 2765 cc3c 1eca 883b ff19 903a 8076 3fbc
000000e0: 4c74 713c 5ab6 77bc d6a4 e0bb 8b95 b2bc
000000f0: 9668 cdbc 07dd 6e3c 0e42 e83a e954 aa3c
0.008058998 -0.020962914 0.004095586 0.021487221 0.01758686 0.022336077 0.014119591 -0.0021583515
0.0068101226 -0.010898764 0.02213934 0.013059663 -0.019090524 0.022552542 -0.00038701692 -0.0011596564
-0.007138429 -0.0068816855 0.0013057397 -0.012733439 -0.02426232 -0.013435377 -0.0051902602 0.019696198
0.019187968 -0.015627507 -0.0010015871 -0.007527908 -0.013953263 -0.0045865118 -0.009050095 0.014578875
-0.0129354885 0.0040128026 -0.014718627 -0.008140374 0.02053289 -0.012804752 -0.0015683498 0.024910389
0.0089272205 -0.013276146 -0.01566005 -0.009146517 -0.008167763 0.011356173 -0.005798825 0.021997986
-0.014311233 -0.0081561655 0.009496192 0.020831164 0.024950577 0.004174485 0.0010994076 -0.011685967
0.0147372 -0.01511916 -0.0068555875 -0.021799823 -0.025074285 0.014579064 0.0017719881 0.020792441

emb_func.layer1.1.weight f4 [64]
00000000: 10df 433f 989b a23e 254a d43e e626 3b3f
00000010: f00c 313f 3ec0 2b3f 730c 163f 357e 043f
00000020: eb9a 853f 56cc be3e 65c1 2c3f 3373 e23e
00000030: 57e3 4a3f ccbe c43e c7a7 d73e ec54 6e3f
00000040: 684a 2a3e 966f 0c3f 0cd8 ee3e a48c 403f
00000050: d642 b23e ce9d 273e 1754 533f 11db 063f
00000060: dc15 023f 0000 ba3e 8b26 573f c5bd 043e
00000070: 72e1 573f e148 dc3e 0deb a13e 9731 9f3e
00000080: 3851 583f 7d4c 133f 362f 883f c942 bc3e
00000090: 8cf2 c23d 9dff da3e 3ba1 953e 6c04 f63e
000000a0: 6406 bb3e 7cad 1e3f ab76 a23e 1760 0e3e
000000b0: dd33 7f3c f8c2 0b3f 3f33 243f 64bf b73e
000000c0: 3ab7 ba3e 4db9 b13e 3c57 2d3e dc4d e83e
000000d0: 9b23 253f 70c3 0c3f 6067 963e 24f7 8f3e
000000e0: bd32 b03e b515 113f ff4e d63e 7a76 753e
000000f0: ed27 313f 9d46 cf3e 9edf 843e 69a6 f83e
0.7651224 0.31759334 0.41462818 0.7310623 0.69160366 0.67090213 0.58612746 0.51755077
1.0437902 0.3726527 0.67482597 0.44228515 0.79253143 0.38426816 0.4212019 0.9309833
0.16629946 0.54857767 0.46649206 0.752146 0.34816617 0.16368791 0.82550186 0.5267802
0.50814605 0.36328125 0.84043187 0.12963016 0.8432838 0.43024352 0.31624642 0.31092522
0.8449893 0.57538587 1.0639408 0.36769703 0.095189184 0.42773142 0.29224572 0.4805025
0.36528313 0.61983466 0.3173116 0.13903843 0.01557633 0.54594374 0.64140695 0.35888207
0.36467916 0.34711686 0.16927809 0.45371902 0.64507455 0.54985714 0.29375744 0.2811824
0.3441371 0.5667375 0.41857144 0.23970976 0.69201547 0.4048356 0.25951856 0.4856446

emb_func.layer1.1.bias f4 [64]
00000000: 26bf ff3d 7e93 4abe a625 683d 926c 153d
00000010: 808a 463e b8ee 59be 6e2f 8b3d 3fe5 1e3f
00000020: 6132 a0bf 65db ab3d ec3b 343e 4edf a9be
00000030: 5440 88bf 3a4c bbbe df1c bfbe 0eb1 803e
00000040: 2caf 75be 6692 71bc dff6 c43e 7ec6 96bc
00000050: fa06 1fbe 4409 293d 87f4 af3d 2ab1 9e3e
00000060: d6bb acbe 4d09 a6be 1be7 d53e f841 28be
00000070: c20b 98bc 0a0c 2abe 021a bcbe ec00 9fbe
00000080: 86eb bf3d 3e09 9b3e 6ebb 75bd ecbc 893e
00000090: 937a e4bd f5ee 123e f7a9 8bbe 6d12 b93e
000000a0: 7e46 0dbd f1ee a7bd b644 093d 92e7 eabd
000000b0: 94b5 53bd 87e5 78be 1c32 10bf bb60 db3e
000000c0: ef72 3f3d d12d 18bd 6728 3e3d 4bfa 97be
000000d0: 1e43 02bf 4896 8e3e 1c92 7ebe 7585 b0be
000000e0: 33d8 e6ba bac7 7a3d 1d21 db3d 80b3 96be
000000f0: a54b 8f3e 2c1b c7be 180c a4be 90ec 4abc
0.124876305 -0.19782826 0.05667653 0.036480494 0.19388771 -0.2128247 0.06796156 0.6206855
-1.2515374 0.083914556 0.17600983 -0.3317818 -1.0644631 -0.36581594 -0.37326714 0.25135082
-0.23992604 -0.014744377 0.38469598 -0.018405195 -0.15530005 0.041268602 0.08591562 0.3099454
-0.33737057 -0.3242897 0.41777882 -0.16431415 -0.018560294 -0.16606155 -0.36738592 -0.3105539
0.093710944 0.3028049 -0.0599932 0.26901948 -0.11156192 0.14348967 -0.2727811 0.3614687
-0.034491055 -0.08199871 0.033512793 -0.1146995 -0.05168684 -0.24306308 -0.5632646 0.42847237
0.04674047 -0.03715307 0.04642525 -0.29683146 -0.5088366 0.2784903 -0.24860424 -0.3447682
-0.001761204 0.06122563 0.10699675 -0.29433823 0.279874 -0.38887918 -0.32040477 -0.012385502

emb_func.layer1.1.running_mean f4 [64]
00000000: 0519 8d3c 1696 8fbe ed72 b3be 313d 913c
00000010: bb18 d13d afad 423e c042 22be 8689 cd3c
00000020: 593a ad3d f26d ccbe 4f5e 58bd bdba 7bbe
00000030: 8ce3 88bc 6523 623e 9fcd 3f3e 19b5 b83a
00000040: e25b 633b ad67 a8bd f828 80bd 8613 8cbd
00000050: af0f 24be 6dfd 313d 08d3 51bd 191b 96bd
00000060: 2bcb 7dbe d05c 72be 6b22 1e3b 1445 ebbd
00000070: 9fcf 67bd 08c8 e0bd 1203 cd3c 6a65 193e
00000080: c965 88bd 97a6 f1bd b941 3bbd d48d 0ebf
00000090: d065 b6bc ebe2 0abe 9a8f 913c f02a 083e
000000a0: 95a3 dfbc 7dbd a73b 4200 58be 479c 02bd
000000b0: b967 c1bd 6e8a cdbe 508a d7be efc2 983c
000000c0: 9225 ca3e 68cc 9dbe 3015 293e fbe8 a3bc
000000d0: b340 94bd 1420 8cbd 4e71 58be 3676 113d
000000e0: b296 0bbe a361 533d 17cb 79be df01 b73a
000000f0: 5394 afbd 0b9b f3bd 8003 c53c 36c5 0abf
0.017223844 -0.28044194 -0.3504862 0.017729374 0.10209795 0.19011568 -0.15845776 0.02508999
0.084583946 -0.39927632 -0.052824315 -0.24582954 -0.016710065 0.22083814 0.18730782 0.0014092057
0.0034692218 -0.082228996 -0.06257814 -0.06839661 -0.16021608 0.043454576 -0.051226646 -0.07329387
-0.24784534 -0.23668218 0.0024129401 -0.11487785 -0.056594487 -0.10975653 0.025025878 0.14980093
-0.06660039 -0.117993526 -0.045716975 -0.5568516 -0.022265345 -0.13563125 0.01776867 0.1329763
-0.027299682 0.0051190243 -0.21093848 -0.03188732 -0.09443612 -0.40144676 -0.42097712 0.01864764
0.3948179 -0.30820012 0.16511989 -0.020008555 -0.07238903 -0.06842056 -0.21136972 0.035513125
-0.13631704 0.051606786 -0.24393879 0.001396235 -0.085732125 -0.118948065 0.02404952 -0.5420717

emb_func.layer1.1.running_var f4 [64]
00000000: a79d 0940 93da 003f e0a8 c13f 160b 9840
00000010: 0673 3c40 034b 3d3f 0b0f 973f cc56 5140
00000020: 56a1 be3f 17d5 c13f c159 3940 0b9b 123f
00000030: d1d9 4c3f 9ccd 113f 6c06 fd3e 86df 9740
00000040: 87ef 883d 7660 d73f d46d 2440 44d8 883f
00000050: 6373 bd3e c559 8f3e 2a1d 1040 5ca8 a53f
00000060: 331e 003f 6157 e83e c1ae df40 ba8f e13d
00000070: 605f 7340 7bbb 913e 769e 923d 83a5 bb3e
00000080: fdda c140 b25e 7240 944f 4840 2f1d ea3f
00000090: 068f 8a3d e9c9 723f 1ec9 613e 61c7 d93f
000000a0: bd63 463e eab1 0e3f 72f9 843f 29b6 a43d
000000b0: 9f74 943e e6ab 0940 a7c9 c13f 9dda eb3f
000000c0: 32a6 cd3f de19 303f cbfb 103f 2715 f43e
000000d0: 67e6 e13f 4ea4 0440 a91e c43e fc91 193e
000000e0: 9b4b 963e e73e b13f 9dcd 713f e3ac c53d
000000f0: a302 8540 5dfa 8d3e 1e1c 5f3d b353 1340
2.1502473 0.5033352 1.5129662 4.7513533 2.9445205 0.73942584 1.1801466 3.2709227
1.4892986 1.5143155 2.8961031 0.57267827 0.8001986 0.5695436 0.49418962 4.7460356
0.06686311 1.6826313 2.5692034 1.0690999 0.37002096 0.27998176 2.25178 1.2942004
0.5004608 0.45379165 6.9900823 0.11013742 3.8026962 0.2846335 0.0715913 0.36649713
6.057982 3.7870297 3.129857 1.8290156 0.06765561 0.9483934 0.22049376 1.7013971
0.19373985 0.55740225 1.0388625 0.08042557 0.28995225 2.1511168 1.5139664 1.842609
1.6066344 0.6878947 0.56634206 0.47672388 1.7648438 2.0725284 0.38304642 0.14997095
0.29354557 1.3847321 0.94454366 0.09652116 4.156572 0.27730075 0.054470174 2.3019836

emb_func.layer2.0.weight f4 [64, 64, 3, 3]
00000000: b2e2 6c3e ef59 703e 6c78 efbd cb7e f8bd
00000010: 307f 583b 04f8 013e 7e70 843d 6c80 283e
00000020: 0968 f23d c71d 943d 8caa cb3d 75c3 a53d
00000030: 9904 003d 5d62 f03c e0cb 06bc 1513 73bd
00000040: 7c89 96bd 6b75 a0bd 923c 1a3e 0180 3f3e
00000050: 51ac 1f3e d4c0 663d 6eec c33d ea35 893d
00000060: c1f4 62be e781 7abe fea3 89be 8355 5ebd
00000070: cdae 5abb 9254 85bd 57a9 ab3d a370 4e3e
00000080: e198 ba3c ded8 e5bd e94a 01be 8cae 3cbe
00000090: d5b1 1f3e 7e16 f73d f096 ac3d c8f9 82bc
000000a0: 6c0c 25bc e333 3a3c 319c 38be 90c1 8abe
000000b0: 139c 17be 73c3 ff3d 2cb0 3b3d cbee 153c
000000c0: 234e fb3d d205 2d3e 47cd da3d ca2f e73d
000000d0: 2ca6 613d 58b9 cf3c d190 df3d 28d8 bd3d
000000e0: 5fd1 1abb ae9d 16bb 91d6 7c3c 7366 003e
000000f0: aed6 97bd 770c 5cbd 664e dabc 4d07 3a3d
00000100: 4aaf 5f3d bbf0 8cbc 7fdf 25bc 41a0 ab3d
00000110: 4133 2dbd 4c3e 86be f1a7 4fbe 3d30 99be
00000120: f1fa 11be 8438 14be c300 edbd 6fd3 18be
00000130: ad4f 47be 320d 4fbe d86f bb3c 038b 223d
00000140: 3cb8 89bd 7e6f 743e a2bc 7d3e dd80 663e
00000150: 31d7 b73d 9e70 a23d 1984 863d 40b1 40be
00000160: 9dd3 56be a18b 74be a77a 8a3d 70ab 003e
00000170: ab97 063e bd15 dc3c 584d e03c 47f8 3fbd
00000180: 04f4 2fbe 3f7b 4cbe dcd6 39be a234 813d
00000190: b0ac d73d 8e95 c23d de4f 9a3c 0952 1f3c
000001a0: 37d8 b5bc c0c6 47bd eb4a 79bd f981 80bd
000001b0: 9b02 aabd 4b52 23bd 18f5 0bbd 43ba ebbd
000001c0: b1c5 8fbd 8a43 38bd 9659 c53a 5ec9 89b9
000001d0: a8b5 433c 0cc2 593c e4cc 973c 3f0e 8c3c
000001e0: 0740 4f3c e58b 803b b766 5c3c 6ca2 073d
000001f0: 4f3f 1d3d bafe 023d 8485 1abd 5e6d 54bc
00000200: c153 17bc 580f ddbb a14a 0cbc 346b 9bba
00000210: 845c b23c 008d f13c 1948 a83c c9ab 043e
00000220: 263a 6c3c 7b03 34bd cc8c da3d 14d1 17bd
00000230: 598e 0ebc 6331 8bbe 41a3 7abe 7782 26be
00000240: 0f59 c9bc 6f7d dcbb 7614 fbbc cfe8 12bc
00000250: 44cb 4b3b c232 223b 0098 91bc 7f3d a2bc
00000260: e2be 35bc 5c57 873d 7fb8 8e3d 859c b93d
00000270: 5d46 ed3c 7ebd 81bd aa2b cebd ee5b 14be
00000280: 5181 47be d8b3 05be 50f5 0b3d 4ef5 b63d
00000290: dcdf 713a 791b 6f3d da71 473d a7fb 073c
000002a0: c3cc d33d 68a2 0c3e eda1 efbc 39a5 6a3e
000002b0: 9b1b 013e 1cb4 23bd f486 e4bd f970 e73d
000002c0: 7b41 193e 0a6a a5be 996f 6abe 7b1f 4cbe
000002d0: 8250 bc3d d429 b63d f616 523d 0cd6 a4bb
000002e0: 5314 063d 7bbb 113d 31d1 85bd a262 70bd
000002f0: 97ff 63bd 5224 8dbd 0952 52bd 67b4 59bd
00000300: e389 01bd 854d 0fbd 677a 2dbd eff2 33bd
00000310: 2f7b 1dbd 2203 26bd 0bf9 133d e288 b63e
00000320: f7c9 013e 6d59 f33c 5f42 3b3e 6d7a a23d
00000330: 2938 a1be 0983 0abe a025 cbbd 4a57 2b3e
00000340: 4931 be3d e284 c13c aff3 4cbe cb42 f0bd
00000350: c9dc 25bd 88df 8fbe 9855 6ebe 4f4c 61be
00000360: b788 b13d 1a8b a93d b14a 963d 8196 4f3c
00000370: 82b4 c8bc 9bf8 9dbc 7218 88bd 8d20 d7bd
00000380: 106d e2bd 59c7 08bd 4996 17bd a850 0fbd
00000390: e457 e8bc ea09 b0bc 2ee8 b4bc 3596 0ebc
000003a0: de45 3cbb 5ada 3abc 23a4 c13d 5ded 063e
000003b0: acc7 d8bd ab71 de3d ee62 be3d 5599 b63d
000003c0: cc76 633e 4a94 973e f5df 703d 724c b7bb
000003d0: 4180 123b 3850 44bc f11a b5ba 02e6 48bc
000003e0: 6278 47bc e9fb 7dbc dcca ccbb 0071 4ebc
000003f0: 08e5 173e 12a4 803d b25c 083c d1af acbc
0.23133352 0.23471807 -0.116928905 -0.12133559 0.0033034794 0.12692267 0.06466769 0.16455239
0.118362494 0.07232242 0.099446386 0.08093921 0.031254385 0.029343778 -0.0082273185 -0.05934437
-0.07350442 -0.07834896 0.15062168 0.18701173 0.15593077 0.05633624 0.0956658 0.066997364
-0.22163679 -0.24463616 -0.2688293 -0.05428077 -0.003336835 -0.06510271 0.083819084 0.20160155
0.022777976 -0.11223005 -0.12626232 -0.1842596 0.15595181 0.12064837 0.084272265 -0.015988246
-0.010073762 0.01136491 -0.18028332 -0.271008 -0.14805631 0.12488451 0.045822307 0.009151171
0.12270763 0.16896752 0.10683685 0.11288412 0.055090114 0.025356933 0.109162934 0.09269744
-0.002362333 -0.0022982168 0.015432016 0.12539081 -0.07413994 -0.053722825 -0.026648711 0.04541712
0.054610528 -0.017204633 -0.010124086 0.083801754 -0.042285208 -0.26219404 -0.20278908 -0.29919615
-0.14255883 -0.14474684 -0.11572411 -0.14924406 -0.19463988 -0.20219877 0.02288048 0.039683353
-0.06724593 0.23870656 0.24778989 0.22510095 0.089765914 0.07931636 0.065681644 -0.18817616
-0.20979162 -0.23881389 0.06761675 0.12565398 0.13143794 0.026865834 0.02738063 -0.046867635
-0.17182928 -0.1996889 -0.18148369 0.06308867 0.105309844 0.095011815 0.018836912 0.009724149
-0.022197826 -0.048773527 -0.060862463 -0.0627479 -0.08301278 -0.039873403 -0.034169286 -0.11510136
-0.070201285 -0.044986285 0.0015056606 -0.00026280707 0.011945166 0.013290893 0.018530317 0.017096637
0.012649543 0.0039229267 0.0134522235 0.033113882 0.038390454 0.031981207 -0.037724987 -0.012965528
-0.009236277 -0.006746214 -0.008562715 -0.001185751 0.02177263 0.02948618 0.020542191 0.12956156
0.014418161 -0.04394863 0.10671386 -0.037064627 -0.0087009305 -0.27186117 -0.24476339 -0.16260706
-0.0245786 -0.00672882 -0.030649405 -0.008966639 0.0031096498 0.0024749492 -0.017772675 -0.019804714
-0.011092873 0.06608459 0.069687836 0.09063057 0.028964216 -0.06334971 -0.10066922 -0.14488193
-0.19482924 -0.13056886 0.034169495 0.08933507 0.0009226778 0.05837581 0.04869256 0.008299745
0.103417896 0.13733828 -0.029252017 0.2291459 0.12608187 -0.039966688 -0.11158553 0.11300845
0.14966385 -0.32307464 -0.22894134 -0.19933884 0.09195043 0.08894697 0.05129143 -0.005030399
0.032734226 0.035579186 -0.06534041 -0.058687814 -0.05566367 -0.06891693 -0.051347766 -0.05315056
-0.03162564 -0.034986038 -0.04235306 -0.04393285 -0.038447555 -0.04053033 0.036126178 0.35651308
0.126747 0.029705727 0.18287037 0.07933507 -0.3148816 -0.13526548 -0.09919286 0.16732517
0.09286744 0.023622934 -0.20014833 -0.1173149 -0.04049376 -0.28100228 -0.23274839 -0.22001766
0.086686544 0.08278485 0.07338465 0.01267016 -0.024500135 -0.019283583 -0.066452876 -0.105042554
-0.11055958 -0.033393238 -0.037008557 -0.03498903 -0.028362222 -0.021489102 -0.022083368 -0.008702804
-0.0028728168 -0.011404598 0.09455135 0.13176484 -0.105849594 0.10861524 0.09296213 0.089159645
0.22213286 0.29605323 0.058807332 -0.00559383 0.0022354277 -0.011982016 -0.0013817233 -0.012261869
-0.012174698 -0.015501955 -0.0062497687 -0.0126001835 0.14833462 0.06281294 0.008322882 -0.02107993

emb_func.layer2.0.bias f4 [64]
00000000: 374c 5bb9 6a1d 723b c5d3 b1bb 2757 e8ba
00000010: f1c1 3f3b be68 a7ba 0148 6f3b c8c1 fe3a
00000020: 118f 7f3a 3cb3 4bba 3bb8 b2ba d7b7 99ba
00000030: 2c3d 04ba e77c 47bb 57c5 d2ba ae9e 523b
00000040: 3447 813b bea8 873a 0ff1 623a 1194 9ebb
00000050: 06fb 963a d06b 9a3b d20a 20bb 8d50 b8ba
00000060: ab9a b33b 7e92 5f3a 83e3 903b 9ec7 c8ba
00000070: f0c1 a6bb 5715 003a 5813 8fbb f363 1fbb
00000080: 278c 003b 8f17 abbb f6dc 483b 75e2 a93b
00000090: 5561 ad3b b1b5 a0bb d25f b7bb cd5d 14bb
000000a0: 5a69 e839 de42 35bb 58ff 813b 61a0 a83b
000000b0: 956e c33a 1a4c 5dba a51b a9bb b7f8 5f3b
000000c0: 5c70 57ba 0158 7d3b ee4c 0d3b fb7c 773a
000000d0: 7c25 89bb d879 6f3b 03d2 8d3a cef1 903b
000000e0: 41a3 8b3b d8c5 42bb a796 8dbb 4e88 aebb
000000f0: bee0 f9ba cccb fbba 04b1 c039 1cd3 433b
-0.0002091386 0.0036943802 -0.005426856 -0.0017726169 0.0029259885 -0.0012772304 0.0036511424 0.0019436413
0.00097487966 -0.00077705435 -0.0013635227 -0.0011727762 -0.0005044516 -0.0030439438 -0.001608054 0.0032138037
0.0039452557 0.0010349972 0.00086571363 -0.0048394282 0.0011518903 0.0047125593 -0.0024420512 -0.0014062092
0.0054810843 0.0008528604 0.0044216528 -0.001531828 -0.005089037 0.00048859924 -0.0043663196 -0.002432105
0.0019614787 -0.0052213143 0.003064928 0.0051844665 0.005291144 -0.004904472 -0.0055961395 -0.0022638917
0.0004432898 -0.0027658264 0.003967207 0.005146072 0.0014910275 -0.0008441821 -0.005160766 0.0034175345
-0.0008218342 0.003865719 0.0021560746 0.0009440926 -0.0041853767 0.003654113 0.0010820035 0.0044233566
0.0042614047 -0.0029719975 -0.0043209377 -0.0053263074 -0.0019064171 -0.0019210516 0.0003675298 0.002988047

emb_func.layer2.1.weight f4 [64]
00000000: bb5c 493f f659 fe3e 3b61 053f 5e4b 1f3f
00000010: 2f9d 393f 8c76 4f3f 1293 893f c429 1f3f
00000020: 1ef5 803f 090c 3d3f 8853 8d3f a196 513f
00000030: cabb 2e3f 8732 713f b255 333f 5ea2 4d3f
00000040: e8ce 103f 826f 453f 509c 483f dbf3 623f
00000050: fd88 643f d789 703f 4824 053f b9fc 3e3f
00000060: 886f 6a3f ffa3 623f 4c36 713f c83c 283f
00000070: 65a9 6b3f 22d4 493f 0dc3 763f 4b4a 433f
00000080: 5cc5 523f ad11 353f 5b20 2d3f 45b9 343f
00000090: 24b4 6c3f 0a14 893f 062f 053f f8c1 693f
000000a0: 2a43 5e3f 199d 1e3f 0a76 5a3f 9174 7f3f
000000b0: 9c1b 3d3f 32ad 103f 6965 1c3f 1edf 023f
000000c0: 8f4f 5e3f 945e 183f 4ef0 063f c3fe 513f
000000d0: 42f3 863f 6fe5 5f3f 2e2d 433f f748 0b3f
000000e0: 7be6 693f f6d0 4d3f e42a 493f 542e 543f
000000f0: fa56 2c3f 5876 1b3f ea9d 613f ca7f fc3e
0.7865712 0.4967801 0.52101487 0.62224376 0.7250547 0.81040263 1.0748007 0.62173104
1.0074804 0.7384649 1.1041117 0.81870466 0.68255293 0.94217724 0.70052636 0.8032588
0.56565714 0.7712327 0.78363514 0.88653344 0.8927153 0.93960327 0.52008486 0.74604374
0.91576433 0.8853149 0.94223475 0.65717745 0.9205535 0.78839314 0.96391374 0.7628524
0.82332397 0.70730096 0.67627496 0.705952 0.9246237 1.070924 0.5202488 0.913116
0.86821234 0.6195846 0.85336363 0.9978724 0.73870254 0.56514275 0.6109224 0.511217
0.86840147 0.59519315 0.52710426 0.8202936 1.0542986 0.8745946 0.76240814 0.5440821
0.9136731 0.80396974 0.7858107 0.8288319 0.67320216 0.60727453 0.8813158 0.49316245

emb_func.layer2.1.bias f4 [64]
00000000: f367 7fbe dda5 94bd 30c0 833d aded 5cbf
00000010: 3398 b6be 8d04 bdbd 2d06 20bf 4efb 8fbe
00000020: 9edb 12bf c5a1 a9be e741 35bf 53d6 98be
00000030: 09ef e5bd ffd1 bbbe aa71 18be 3f76 3dbf
00000040: b540 d1be 2b2f dcbc 07f3 d4be e8e1 21bf
00000050: e32e 32bf 5012 f1be 2fcf 25be 0c59 49be
00000060: 1462 e4be 3fef 19bf f293 e9be c853 edbe
00000070: 9efa debe b8bc 73be add8 0bbf 6f7c 67be
00000080: 2d98 713b 29cf 19bf 5a1c 953c 0f47 97be
00000090: 18c5 cebe 4677 11bf 6189 01bf d706 afbe
000000a0: 3b6a 75be 9400 99be ec0b e2be 9a97 d1be
000000b0: 3a50 d2bd 793a f53b cbf5 a0be ac9d f9bc
000000c0: 1fcf 15bf a10e 2abe 0cc4 15be 4231 afbe
000000d0: 8e5c 3fbf 7c2d 0cbf be65 9cbe 29bc 343e
000000e0: 03d2 0bbf 4700 b7be 53b7 94be b42a 05bf
000000f0: 69d7 5bbe fe33 993d 94df b3be a881 02bf
-0.24941997 -0.072581984 0.06433141 -0.86300164 -0.35662994 -0.092293836 -0.62509423 -0.28121418
-0.5736636 -0.33131233 -0.70803684 -0.29851016 -0.11227233 -0.36683652 -0.1488711 -0.74008554
-0.4086968 -0.02687796 -0.41591665 -0.6323533 -0.69602793 -0.47084284 -0.16192316 -0.19662875
-0.44606078 -0.60130686 -0.45620686 -0.46352983 -0.4355058 -0.23802459 -0.54627496 -0.22606061
0.0036864385 -0.60081726 0.018201996 -0.295464 -0.40384746 -0.5682262 -0.5060025 -0.34184906
-0.23966305 -0.29883254 -0.4414972 -0.40935975 -0.10269208 0.007483777 -0.31437525 -0.030470692
-0.58519167 -0.16607143 -0.14625567 -0.34217268 -0.747506 -0.54756904 -0.30546373 0.17649902
-0.5461733 -0.357424 -0.29046115 -0.52018285 -0.21468891 0.0748062 -0.35131514 -0.5097909

emb_func.layer2.1.running_mean f4 [64]
00000000: 79eb f0bf 8a63 bcbf 1b78 6dc0 85f7 0a3e
00000010: 8974 ebbf 8fb0 b5bf b9ed 0cc0 07de 98bf
00000020: 5bd9 44c0 6f61 7cbf 64a0 a1c0 1832 07c0
00000030: 35c2 f6bf c808 3ec0 2464 2ac0 85af b5bf
00000040: c3df abbf 3195 e5bf e4a0 02c0 2c17 d6bf
00000050: 272f ddbf 4457 36c0 78a0 68be f3f8 23c0
00000060: f7e5 91c0 7474 9abf 02e2 46c0 e8ff 30bf
00000070: 2b1a 58c0 ce1e 30c0 e64c 38c0 e993 2cc0
00000080: 12e6 3dc0 a1b3 5cbf f41b 7b3c 400d 30c0
00000090: 6589 17c0 708a 6ec0 e248 163f c3f4 4bc0
000000a0: 1bf7 cbbf 9db8 cdbf 6f03 7bc0 ee75 80c0
000000b0: ae42 7fbe 4517 013f ada6 52c0 b24e 41bf
000000c0: e790 30c0 9dab f9be c967 66bf 75d1 15c0
000000d0: f598 86c0 8623 8bc0 6ef3 e3bf b7a3 04c0
000000e0: 654a 84c0 9126 0cc0 6fa0 0ec0 814e 04c0
000000f0: bbfe b2bf 8363 0ec0 f784 24c0 5b6d 2040
-1.882186 -1.4717877 -3.7104557 0.13570984 -1.8394939 -1.4194506 -2.2020094 -1.1942757
-3.0757663 -0.9858617 -5.050829 -2.1124325 -1.9278017 -2.969286 -2.662362 -1.4194189
-1.3427662 -1.7936155 -2.04107 -1.6725821 -1.7280015 -2.8490763 -0.22717464 -2.5620697
-4.559322 -1.2066789 -3.1075444 -0.6914048 -3.3765972 -2.7518802 -2.8796935 -2.6965277
-2.9671674 -0.8621159 0.015326489 -2.7508087 -2.367761 -3.7271996 0.5870496 -3.186814
-1.5934786 -1.6071965 -3.9220846 -4.0143957 -0.2492778 0.5042613 -3.291423 -0.75510705
-2.7588441 -0.48763743 -0.90002114 -2.3409092 -4.2061715 -4.3480864 -1.7808664 -2.0724924
-4.1340814 -2.189854 -2.228542 -2.0672915 -1.3983988 -2.2248237 -2.5706155 2.5066745

emb_func.layer2.1.running_var f4 [64]
00000000: 6f37 0d41 d555 aa40 2310 d240 18a8 6840
00000010: 2ff5 ca40 e8f1 3a41 78a3 2841 65a9 eb40
00000020: 871c fa40 e814 a540 ddd5 1d41 cd19 c840
00000030: dff2 0541 2a49 f140 62be 1941 1320 8d40
00000040: 241b 0540 7beb 7240 d3ef 3240 dca0 b340
00000050: 81cf 9340 3554 e940 2120 9940 f71f 1b41
00000060: 27ef 2741 9a9c a340 fca5 0c41 80c9 4040
00000070: 5ed5 5941 6396 d740 f637 c040 5940 aa40
00000080: ede3 3941 f9e1 5540 5872 0241 e89f 9840
00000090: 6009 2c41 5f3e 2a41 8614 1b40 6720 5141
000000a0: 8861 3441 9536 8c40 9ba4 cc40 1b07 1c41
000000b0: a9b9 0241 c61e e640 af24 7e40 6926 2341
000000c0: dbeb b140 bc80 8040 be64 2c40 fded 1b41
000000d0: 0a24 db40 fbed ce40 f12f 0341 b6d3 6f40
000000e0: 9a93 e540 84b5 5041 9cbe a840 c587 e840
000000f0: 6cfe fb40 f28c 1441 b2b6 3e41 fe26 7440
8.826034 5.3229775 6.56447 3.6352596 6.3424296 11.684059 10.539909 7.364428
7.8159823 5.158802 9.864713 6.2531495 8.371795 7.540181 9.60898 4.4101653
2.0797815 3.7956226 2.7958877 5.613386 4.61908 7.291529 4.785172 9.695304
10.495887 5.1128664 8.790524 3.0122986 13.614592 6.7371078 6.006831 5.320355
11.618146 3.3419173 8.152916 4.76952 10.752289 10.640227 2.4231277 13.070411
11.273811 4.381663 6.3950934 9.751735 8.170327 7.1912565 3.970989 10.1968775
5.560041 4.0157146 2.6936488 9.745603 6.8481493 6.4665504 8.199204 3.7472968
7.174268 13.044315 5.2732677 7.2665734 7.8748074 9.28441 11.919603 3.81488

emb_func.layer3.0.weight f4 [64, 64, 3, 3]
00000000: 7f79 f13c b27a a73d 44a4 4d3d 47ed dd3d
00000010: 7705 e13d 80be f53d 37e8 28bd 3a2a 283d
00000020: a642 423e 400d 2b3e 6753 3f3d af74 693d
00000030: 0691 b23c b532 103b cabc f63b a3e8 bfbc
00000040: d2d2 4fbd 6815 20bd d1f9 efbd a316 a9bd
00000050: cb8c 14be 4c10 6abd d98c 06bc 0747 54bd
00000060: cb5c 82bb 987d 7a3d 4e49 8b3c e296 2c3d
00000070: 994f ae3b 0b29 11bb 6b55 72bd 36ff 89bd
00000080: 1d09 69bd 747f 02bd 0c2b fcbc e85b 19bd
00000090: e706 db3c 334e e63d 5850 303e 7f4d 18bd
000000a0: abb4 ec3d 4a91 673e 1c58 67be 14f0 e8bd
000000b0: de6f 2bbc 2638 2f3d b627 c93c 5a03 c03d
000000c0: e29f 23bc e006 80bd 6701 21bc 0bd4 20be
000000d0: 476f 45be b3bb 9dbd 03fa 62bd d59f e9ba
000000e0: 0e7e 463d cd1a 133d b1ac 32bd 3fb7 debd
000000f0: 7f3a 963d facb 103d 5997 ec3c 79c0 953d
00000100: 7f24 033d fd25 16bd 9ac2 b83c 28f5 aebc
00000110: b587 24bd 7820 25be 94b8 4fbe b181 e1bd
00000120: a177 9ebc 5529 26bd 8c6b a2bd c75d e8bd
00000130: c13f adbd 4400 90bd 1c8f e1bd a674 afbd
00000140: 83b6 acbd dcc1 873e 3420 093e 0165 963d
00000150: faf9 a03d d07b 0a3d f987 9d3c 19cb aabb
00000160: 15ea caba 464d 923d f148 7cbd 9c09 2ebc
00000170: b29a 9fbc ade5 b9bc 6c1e 843c 8f13 a63c
00000180: 11dd 89ba 3295 2d3b 6aed e8bc 4951 a4bd
00000190: 1f36 063d cd4c db3d 4e27 cbbd da21 003d
000001a0: ebc1 2e3e a235 72be 970e f3bd 7c80 5abd
000001b0: 6337 3bbd 0f45 cf3d 59dc a23b e1d6 6cbd
000001c0: 8ebd 6abd 5a68 7ebe 5f0e 123d d105 91bd
000001d0: 6d0e 85be 8de7 30be 2c72 e8bd f28b 28be
000001e0: 173d 9abc 5949 eebb c4fc c0bc b15d 193e
000001f0: 1ab9 c23d 559e f83d 4d0c 3abd e5a0 cf3b
00000200: 749b edbb ee02 a5bd d007 bbbd 0ac9 983d
00000210: 669c bcbd 6e45 47bd 59cb 91bd 85ff 59bc
00000220: 9f80 a03c 783e 293d 3e3c f1bc cb78 6d3d
00000230: 03ba 923d 5f32 72bd bba3 223c da9b b8bb
00000240: 893b 303d eb45 6c3b f109 343d aa54 d2bb
00000250: 61ac cdbb 7219 c03b a913 883d 8763 2e3d
00000260: 5ab8 5d3d 196c 1c3d 5f8f 97bc df4e f1bd
00000270: 6fff 413d 2f25 30bd 0bc0 f5bd dbf4 323d
00000280: 7dbd 42bc 98de 16bd edec 1cbd 62e6 38bd
00000290: 858f 62bd 09b4 14bd f578 29bd 9537 81bd
000002a0: e8a7 5cbd 8253 dcbc 2448 62bc 8d94 60be
000002b0: 5ed0 6ebe a72e 1dbe 7103 74be 40e2 13be
000002c0: 3bd0 f1bd ac2a d5bc eab0 11bd 84bc bfbc
000002d0: 851f 46ba b06b 073d 2d38 4c3d bd47 0ebe
000002e0: 89cf 08be 0aea 94bc ab69 4dbd c99f ebbd
000002f0: ac20 ccbd dc73 c5bc 1d38 6f3d 5905 373a
00000300: 7c21 983d a34c 4d3d 216e 153b c87d 7e3d
00000310: 4dac 2b3d 25d6 933b 798d 423e 810f 9c3c
00000320: 10ea f03c bb94 e03d 950a b0bb cf1f cbbd
00000330: 2b61 013e 09f2 6a3d 2e07 1d3b d7e9 3a3d
00000340: 169e bf3d ef8c 633d 20a3 e83b 3ef4 af3d
00000350: b724 d13d 143c 12bd 7eee 53bc 1c09 883c
00000360: d770 8bbd 19b5 e53c 98be 6c3b b8be 7b3d
00000370: 7ee3 393d 0a5c 933b a9c9 bb3d 2b4c 9f3d
00000380: 3695 0f3d d166 ac3c fae6 38bc f2e7 c03c
00000390: a004 3e3d a3e8 e23c b72b 10bc ad42 c33d
000003a0: d953 0bbd 45a4 0ebd 469f 19be b3f7 0cbe
000003b0: 77af fbbd 6beb 9dbd 24c3 e13d 22e1 61ba
000003c0: 38af af3c dc5c 4a3e 9300 943d 1202 183d
000003d0: 3c67 babb 2a35 aabc 2535 9bbd 148e bdbd
000003e0: 3c9b 1abe 8d13 6ebd 86a0 59bd 8fa6 6ebd
000003f0: 863b 93be b985 40be 1f5b 19bb 370a 4ebe
0.02947688 0.08177699 0.050205484 0.10836273 0.109873705 0.119992256 -0.041237082 0.041055895
0.18970737 0.16704273 0.046710398 0.056996044 0.021797668 0.002200288 0.0075298296 -0.02342636
-0.050738163 -0.039082915 -0.117175706 -0.08256271 -0.14506833 -0.05714445 -0.008212292 -0.05182555
-0.003978347 0.06115493 0.017002728 0.04213608 0.0053195474 -0.0022149708 -0.059163492 -0.06738131
-0.056893457 -0.03185983 -0.030782245 -0.037441164 0.02673669 0.11245384 0.17218149 -0.03718328
0.11557897 0.22614017 -0.22592205 -0.11373916 -0.010463683 0.042778157 0.024555068 0.09375639
-0.0099868495 -0.06251311 -0.0098269945 -0.15705888 -0.1928073 -0.077018164 -0.05541421 -0.0017824123
0.04846006 0.03591423 -0.043621723 -0.10874795 0.07335376 0.035350777 0.028880762 0.07312102
0.032017227 -0.036657322 0.02255373 -0.021357134 -0.040168483 -0.16125667 -0.20285255 -0.11011065
-0.019344153 -0.04056676 -0.07930669 -0.113460116 -0.08459426 -0.07031301 -0.11013624 -0.08567171
-0.08433249 0.2651509 0.13391191 0.07343484 0.07860179 0.033809483 0.019229876 -0.0052121994
-0.0015481139 0.07143645 -0.061593 -0.010622408 -0.019482944 -0.022692526 0.016127788 0.020272998
-0.0010518153 0.0026486632 -0.02843352 -0.080233164 0.032766458 0.10708008 -0.09919606 0.031282283
0.17066161 -0.23653272 -0.11868017 -0.05334519 -0.045707118 0.10120594 0.004970115 -0.057822112
-0.05730968 -0.24844494 0.035658237 -0.070811875 -0.25987568 -0.1727583 -0.113499016 -0.16459635
-0.018827958 -0.0072719273 -0.023558028 0.14977147 0.095079616 0.121395744 -0.045421887 0.006336319
-0.0072511975 -0.080571994 -0.091323495 0.0746022 -0.09209518 -0.048650198 -0.071188636 -0.0133055495
0.019592581 0.04131934 -0.029447671 0.057976525 0.07164385 -0.05913007 0.009926732 -0.0056338133
0.043025527 0.0036052417 0.043954793 -0.006418784 -0.0062766527 0.0058624083 0.06644375 0.042575385
0.05413089 0.038189027 -0.018500982 -0.117826216 0.04736274 -0.04300421 -0.1199952 0.043690544
-0.011885998 -0.036833376 -0.038311888 -0.045141585 -0.055312652 -0.036304507 -0.04137512 -0.063094296
-0.053871065 -0.026895288 -0.013811145 -0.21931668 -0.23321673 -0.15349828 -0.23829438 -0.14441776
-0.11807295 -0.026021324 -0.03556911 -0.023405321 -0.00075577974 0.033061683 0.04985826 -0.13894553
-0.13360418 -0.018178005 -0.0501496 -0.11505086 -0.09967169 -0.024103098 0.058403123 0.0006981693
0.07428262 0.050121915 0.0022801238 0.062131673 0.041912366 0.004511612 0.1899928 0.019050362
0.029408485 0.10965868 -0.005372355 -0.099181764 0.12634723 0.05735973 0.0023960578 0.045633163
0.093563244 0.055554327 0.007099524 0.085915074 0.10212081 -0.035701826 -0.012935279 0.016605906
-0.06808632 0.028040456 0.0036124345 0.06146118 0.04538297 0.004497056 0.09169323 0.077782
0.035054408 0.02104512 -0.011285538 0.0235481 0.04639113 0.02769882 -0.008799485 0.09534202
-0.03401551 -0.03482463 -0.15002164 -0.13766365 -0.12289327 -0.07710918 0.11023548 -0.0008616616
0.021445855 0.19761986 0.07226672 0.03711135 -0.005688576 -0.020777304 -0.07578496 -0.09255615
-0.1509828 -0.058124114 -0.053131603 -0.05826431 -0.2875635 -0.18801011 -0.002340026 -0.20121084

emb_func.layer3.0.bias f4 [64]
00000000: 1239 f4b9 da35 deb8 2eee 8ebb e87e 6bbb
00000010: 6578 9ebb f703 00b9 9230 85bb 0fc4 7837
00000020: d5b1 25bb 9b7f f0ba b874 a93b fb99 9dbb
00000030: 958d 19bb 08cf db39 57ee dcba 8602 093b
00000040: b9dc ae3b 3e82 3b3b 431c 393b 61b6 02ba
00000050: 41f2 82ba dba5 ca3a 229a 443b 9940 6c3b
00000060: 40ff 093b e70e 433b 7bb3 a43a f96f d0b8
00000070: a05d 90ba 49ef 8dbb 7699 b6bb 6f3b b1bb
00000080: ad98 8f3b 8953 b93a 6ce8 a73b cbf6 8abb
00000090: 7369 9b3b 4960 b4bb 16d3 86ba ee83 253b
000000a0: b217 abbb f47c 753b 995d a9bb d075 733b
000000b0: 5a82 983b 090c 8d3b 7a64 0339 cc46 573b
000000c0: 862e 253b c113 933b d7b4 aebb 8cc1 b0bb
000000d0: 46d5 75bb e78f a33b 174c f43a e5d4 e9b9
000000e0: e6b8 a9ba f6bf 6f3b 1910 813b affb 8bbb
000000f0: 3bc7 60ba b52c 713b 318d 7fbb 0fb0 783b
-0.00046581827 -0.000105958155 -0.0043618893 -0.0035933796 -0.0048361295 -0.00012208508 -0.004064628 1.48276e-05
-0.0025282998 -0.0018348576 0.0051713847 -0.0048096157 -0.0023430337 0.00041925185 -0.0016855699 0.0020906045
0.005336371 0.0028611566 0.0028245605 -0.0004986283 -0.000999041 0.0015460806 0.0029999097 0.0036049245
0.0021056682 0.002976352 0.0012565696 -9.9390694e-05 -0.001101423 -0.0043315035 -0.005572493 -0.0054086964
0.004382214 0.0014139275 0.0051241424 -0.004240846 0.004742795 -0.005504642 -0.0010286297 0.0025255638
-0.0052213306 0.003745851 -0.0051686284 0.003714908 0.004654211 0.004304413 0.00012530564 0.0032848595
0.0025204732 0.004488439 -0.0053316164 -0.0053941663 -0.0037511154 0.0049915197 0.0018638399 -0.00044599842
-0.0012948781 0.0036582923 0.0039386866 -0.0042719464 -0.00085746095 0.003680033 -0.0038994069 0.0037946736

emb_func.layer3.1.weight f4 [64]
00000000: 23bd 673f fe7f 7c3f 7ca1 743f 4ab9 223f
00000010: 8822 7e3f 7e0c 3e3f 3977 943f 2a7e 863f
00000020: c664 503f ed58 313f 4a57 383f 125b 093f
00000030: 4cdf 6a3f 10eb 6b3f 1a08 663f 8718 563f
00000040: c5eb 833f 6365 793f 1412 4a3f 5552 693f
00000050: 9009 543f a1a7 6c3f 1ed1 443f 6e1b 703f
00000060: c826 623f 74b3 873f d17f 443f e010 233f
00000070: 6f37 523f 17d7 6b3f 88fe 503f 9f87 713f
00000080: 33d4 923f 8592 6b3f b23d 553f b49f 6f3f
00000090: 8757 8c3f 63d8 4b3f c3d6 7f3f 77c2 423f
000000a0: b63a 1e3f 32d3 833f ccbc 8c3f f5f0 753f
000000b0: 33f1 eb3e c020 6a3f 5229 863f 5f54 7b3f
000000c0: fcde 693f 4069 453f 3210 663f bf44 223f
000000d0: 1c09 783f 338b 573f 4c21 7d3f 69f2 3e3f
000000e0: 3f50 3d3f 975b 6f3f 77e9 413f 7de7 773f
000000f0: c78c 443f 8f2e 443f 9c32 773f fa3c 613f
0.90522975 0.986328 0.95558906 0.6356398 0.9927144 0.7423781 1.1598884 1.0507252
0.8140377 0.69276315 0.7200819 0.5365459 0.91746974 0.9215555 0.8985611 0.83631176
1.0306326 0.9742033 0.78933835 0.91141254 0.8282709 0.9244328 0.7688159 0.93791854
0.88340425 1.060164 0.7675753 0.63697624 0.82115835 0.92125076 0.81638384 0.94347566
1.1471008 0.92020446 0.83297265 0.9360306 1.0964211 0.79627055 0.99937075 0.7607798
0.61808336 1.0298827 1.0995116 0.96070796 0.46082458 0.9145622 1.048136 0.98175615
0.9135587 0.77113724 0.8986846 0.6338615 0.968889 0.84196776 0.9887893 0.7458864
0.7395057 0.9349913 0.75746864 0.968376 0.7677731 0.7663354 0.965616 0.8798367

emb_func.layer3.1.bias f4 [64]
00000000: bb62 05bf c2ad 17bf 988e 5abf 9d32 22bc
00000010: af0b 16bf bf80 12bf a702 57bf b05b 3dbf
00000020: d1e5 c8be 0404 93be 14d9 3dbf 4307 a73d
00000030: ba34 1ebf e470 c5be 8f73 1abf 3d29 ddbe
00000040: d6f1 80bf ed2c 22bf cf6c d1be 24e0 23bf
00000050: f04c febe 4679 3fbf f4b5 2ebf eea5 1fbf
00000060: 51a4 08bf 7953 53bf 8f0b 00bf 0f52 16be
00000070: 1d5d cdbe 74df 5ebf 2b2c ffbe 6ebd 27bf
00000080: 5c32 15bf 3a75 6fbf d473 0ebf 1434 30bf
00000090: d46d 4dbf dbbd ffbe 5344 24bf eee2 e5be
000000a0: 5f42 cfbc a4a9 08bf 2a0e abbe 4ac8 61bf
000000b0: 4df4 373e 97e9 13bf b7d9 2cbf 5580 74be
000000c0: 676d 21bf a6c8 04bf 1610 33bf 7286 03bf
000000d0: 8e89 25bf a247 0bbf d9db 44bf eaa9 c6be
000000e0: 54d8 f0be 449f 07bf 324b bfbe ea6d 39bf
000000f0: 4968 86be 1d76 d3be 1c41 51bf 5cdb 03bf
-0.52103776 -0.5924951 -0.8537383 -0.009899762 -0.5861158 -0.572277 -0.8398842 -0.7396803
-0.39237836 -0.28714 -0.7415936 0.08155682 -0.61799204 -0.3856269 -0.6033258 -0.43195525
-1.0073802 -0.633498 -0.40903327 -0.64013886 -0.49668074 -0.74794424 -0.6824639 -0.62362564
-0.53375727 -0.82549244 -0.50017637 -0.1467974 -0.40110102 -0.8705971 -0.49838385 -0.6552342
-0.5827997 -0.9353825 -0.5564549 -0.68829465 -0.8024571 -0.49949536 -0.64166754 -0.44899696
-0.025300203 -0.5338385 -0.33409244 -0.8819624 0.17964287 -0.57778305 -0.67519706 -0.2387708
-0.6305756 -0.51868665 -0.6994642 -0.5137702 -0.64663017 -0.5440618 -0.7689796 -0.3880151
-0.47040045 -0.52977395 -0.37362057 -0.7243334 -0.26251438 -0.4130105 -0.81739974 -0.5150659

emb_func.layer3.1.running_mean f4 [64]
00000000: 8fa9 1bc0 4cc6 f4bf a4b0 56bf f9a6 7fc0
00000010: d26a 2fc0 1d25 1dc0 fc81 3bc0 ce7e 4bc0
00000020: 1722 1ac0 ead9 eabf 54fd d53f 6c5c fabf
00000030: ec1a d2bf f93a 79c0 14d0 05c0 4306 18c0
00000040: a418 17c0 7cc5 60c0 e71e 59bf 4283 2dc0
00000050: dcb0 f1bf aedd 23c0 60bf bebf 4763 41c0
00000060: 7d2b 46c0 c496 51c0 5703 96bf e3aa 26bf
00000070: d267 26c0 582a debf 5593 cfbf f9c0 37c0
00000080: d317 14c0 dc95 2b3e 875c 84be a8f8 c4bf
00000090: f07f 08c0 d469 a2bf e2f2 13c0 46b6 03c0
000000a0: c3cd 38c0 ec24 fdbf ba16 2cc0 99d6 fabf
000000b0: 51b0 d3be 3809 22c0 33c5 2bc0 ad72 71c0
000000c0: 5755 7abf 21dd 16c0 9dfc 3ec0 7d97 873f
000000d0: cc6d 24c0 4e75 e5bf 11c2 1cc0 0f8f bdbf
000000e0: 7bbe 4dbf 66c6 0dc0 d66f e8be e706 06c0
000000f0: ffd3 25c0 3898 dcbf 3bce f1bf c896 04c0
-2.432224 -1.9123015 -0.8386328 -3.9945662 -2.7408948 -2.4553902 -2.9298086 -3.1796145
-2.4083307 -1.8347752 1.6717935 -1.9559455 -1.6414466 -3.8942244 -2.090825 -2.3753822
-2.360879 -3.5120535 -0.8481278 -2.7111363 -1.8882098 -2.5604053 -1.4902153 -3.0216844
-3.0964043 -3.274827 -1.1719769 -0.651045 -2.6000867 -1.7356672 -1.6216837 -2.871153
-2.313954 0.16756386 -0.25851843 -1.5388384 -2.1328087 -1.2688546 -2.3116994 -2.058
-2.8875587 -1.9776893 -2.6888871 -1.959674 -0.41345456 -2.5318127 -2.683911 -3.7726243
-0.9778647 -2.3572466 -2.9841683 1.0593106 -2.5692015 -1.7926424 -2.4493449 -1.4809283
-0.80368775 -2.2152343 -0.45397824 -2.0941713 -2.5910642 -1.7233953 -1.8891062 -2.071703

emb_func.layer3.1.running_var f4 [64]
00000000: b9ea 5f40 7f78 ae40 aef3 2e40 f2fa 9940
00000010: 2d90 a440 25b0 3e40 f458 7c40 9b07 f740
00000020: ee18 5740 4419 4d40 d43a f13f b343 2340
00000030: 5694 7640 ecf6 9d40 960a 8740 9ea0 6940
00000040: 484e 5b40 85e1 8040 4361 3e40 3ec3 4040
00000050: 4fc8 1440 8aa3 5e40 d574 e03f 337a 4640
00000060: 4b8b 9340 f3cc 7640 7885 2240 6ef2 4a40
00000070: 7aae 6540 f2a7 2d40 043b 4140 f52a ba40
00000080: f261 c440 a572 ff3f 1ae9 4340 ae79 8340
00000090: 44e5 9340 f20a 8240 2c59 bb40 0e8c 8740
000000a0: 15c0 2340 2b9c d640 a2d8 0a41 8467 5940
000000b0: 499c 1740 b692 5840 bb76 a640 2705 da40
000000c0: b884 4240 8804 1640 23cb 4e40 b564 f13f
000000d0: 42eb be40 3867 3d40 1426 a940 582a 7040
000000e0: 06fb ea3f 7575 7b40 2fb7 4240 e0f1 a240
000000f0: 9d6e 5240 74eb 2640 d765 6840 b236 8140
3.4987013 5.452209 2.733623 4.811883 5.1425996 2.979501 3.9429293 7.7196784
3.3608966 3.204667 1.8846078 2.551007 3.8528037 4.936392 4.220042 3.6504283
3.426653 4.0275292 2.9746864 3.0119166 2.3247259 3.4787316 1.7535654 3.1012084
4.6107535 3.856259 2.5393963 3.1710467 3.5887742 2.7133756 3.019227 5.817744
6.136956 1.9956862 3.0611024 4.1086035 4.6217365 4.063836 5.8546352 4.2358465
2.5585988 6.7065635 8.677889 3.396943 2.368914 3.3839545 5.2019935 6.813129
3.0393505 2.3440266 3.2311485 1.8858858 5.966218 2.959425 5.285898 3.7525845
1.8357856 3.929044 3.0424306 5.0920258 3.2880013 2.608121 3.6312158 4.0379267

emb_func.layer4.0.weight f4 [64, 64, 3, 3]
00000000: 2bec 0e3d c09d e6bd c09b 833e a1c2 34be
00000010: 4aae 96bd 0fa4 ef3d d947 78bd 3ca3 803d
00000020: 1cf3 143d e9e0 33be 356d c03d f786 993e
00000030: 7b8b 5dbe a454 0bbc 3105 1e3d e9b1 a7be
00000040: 86e4 78bd 49e6 013d c294 8b3e 91ff 573e
00000050: cd26 043f 1d21 05bd 98cc cc3d 40bf d73d
00000060: 88b7 c9bd 6d9e ddbc c1d1 88bd 6efd 953d
00000070: 4d4c cebd d8f0 e2bd 8bb5 b13d cbdb 183e
00000080: 721d 073e 6376 173e ec8b 183e d46d e43c
00000090: 9dad b8bd dee2 12be a6d2 cbbd 62cb 0e3e
000000a0: 4b5f a03d a22f 9b3d b0fe c73d 12d4 f03d
000000b0: 798e 843d bf0f 3bbe f2d0 78bd 1aa7 edbd
000000c0: c792 9dbe 51a2 36be 7070 9bbe 5a97 d8bd
000000d0: 1897 e13c 946c 20be 281e 4b3d e0dd 89bd
000000e0: e8cf 80bb f743 03bc 9b77 c0bd 147d 4ebd
000000f0: be18 25be bb7b 1fbe c9d0 e0bd badd 403d
00000100: 9357 8c3d 8928 b13c e523 ebbc 75a7 ae3d
00000110: db0c f03c e5c8 373c ad92 143d f099 7e3c
00000120: 3a0a 1a3e 90a4 76bd 8250 923c ecce c9bd
00000130: f8cc 9bbd e75c 57bd e65f 23be 0c4c 5ebe
00000140: 7a2e 46be 1d30 92bd 5a66 453d 4297 a43c
00000150: 0141 1cbd 06d4 4a3e 5474 3fbe 69b4 ad3d
00000160: f67c 373e 7674 d73d 0617 f0bc 47b3 4fbd
00000170: 158d d63c 3137 28bd da02 3e3d 104e c03d
00000180: bbf9 f13d 7a3c 473d c7db 2b3d 7332 6dbe
00000190: b31f 4a3d 9da4 2cbe 3e78 8839 4cbf 3d3e
000001a0: 76c4 7c3d 6e60 753e bf7a 9d3c 4f97 403e
000001b0: c065 663d 4ba4 f3bb a0fd 66bd 8c73 46be
000001c0: 0e64 58bd 2c0b 8ebe 13cc fbbc cbfd d3bb
000001d0: af56 a33d 22e7 9e3c 501e 26be c72d 30be
000001e0: 3620 a23d 5d97 9f3d ffb4 223e fd54 6fbd
000001f0: 2188 a2bd 7bc0 c7bd 5ac6 493e a8cd 2d3d
00000200: 67f5 94bd 860f a6bd 156a 1cbe 17f2 29be
00000210: 6931 a5bc 5a96 25bd 40af 49be 46f7 f6bc
00000220: 7fd6 c9bd 2a54 23be c10b 81bd d4b7 23bb
00000230: b162 96bc 3569 ef3d 656f 853d 3cb4 b13d
00000240: 3a59 f23d bca3 d6bd e79d d43d 2c83 c4bd
00000250: 84e2 7dbd 988b 1abd 3fdf 45be 2cac 753d
00000260: ffb6 8fbd 20da 223e 75c4 5e3d 1edd 7a3e
00000270: 088b 2ebc d2fe 923c 5867 7fbd e83d f0bd
00000280: a307 67bd e050 b4bd d267 25be 42a6 c03a
00000290: b68b 51bd 50f3 3abe 89b9 33be d046 ccbd
000002a0: dd8e ccbd 2fd1 68be 7360 453d 0ea8 2cbb
000002b0: 9219 b63d 0ffa 403d 5bfb 0fbe 9d5a b9bd
000002c0: 43e7 1fbd de17 edbd a44c 8cbd efff 05be
000002d0: 749a 403d 1d45 ce3c 96db f63b 54e4 f8bd
000002e0: 9781 743d 76ae 7e3d 7666 c0bd 48de a43d
000002f0: e80b fabd 8329 7b3e 35ad b9bc 4386 1a3e
00000300: e3de 113d 3a81 663c 09f2 a73c 396f 84bd
00000310: 92a3 ab3d b65b bebb ffd0 8a3e f8a0 91bd
00000320: 50e9 ca3d 9004 503e 229e 90bd 7f76 0c3e
00000330: 11b7 263a 5249 213d e083 27b8 fc80 653e
00000340: 9318 c0bd c6fd 8c3c 3929 9a3d 84c9 a8bd
00000350: 99cc 5fbd 90cf 76bc 84ea 34bd a62a 85bd
00000360: 2a37 1bbd 55ed 78be ec1d a1bd d7a6 61bc
00000370: 94b9 6c3d 75b2 0b3e 0e8f b5bc 4c52 813e
00000380: 8856 403e 620e a3bc 6d87 50bd fb1f 05bd
00000390: 32fd 3fbc 75a3 5a3e 508a da3c 05e0 4cbe
000003a0: 5374 ccbd 6c91 92be 76cd 27be 12fd eabd
000003b0: 6e8e 813c 79db c43c f5aa 6b3e 4b81 803d
000003c0: 072d debc d930 8f3d 3582 243d f332 313e
000003d0: 02ed 5d3e 17f5 4c3e 91c0 b13e 2296 c93d
000003e0: f7f5 563e c1d6 493d 5ded 0c3e b230 973d
000003f0: d9e9 6bbc bdbf d4bd 4aa2 cbbd f477 20be
0.034893196 -0.11260557 0.25704765 -0.1765237 -0.07357462 0.117012136 -0.060615394 0.062811345
0.03636466 -0.17566265 0.093958296 0.29985783 -0.21635239 -0.008504067 0.03857917 -0.32752922
-0.060764812 0.031713758 0.2726193 0.21093585 0.51621705 -0.032502282 0.09999961 0.10534525
-0.09849459 -0.027053082 -0.066806324 0.073237285 -0.10073147 -0.110810935 0.08677205 0.14927594
0.13194826 0.14791255 0.14897126 0.027884401 -0.09017489 -0.14344355 -0.099522874 0.13944772
0.07830676 0.075774446 0.09765375 0.11759199 0.06472487 -0.18267725 -0.06074614 -0.11604138
-0.30776045 -0.17835356 -0.3035922 -0.10575743 0.027537867 -0.1566642 0.049589306 -0.067317724
-0.0039310344 -0.00801181 -0.09397813 -0.050412253 -0.1612272 -0.15574543 -0.109773226 0.047086455
0.06852641 0.021625774 -0.02870364 0.08528034 0.029303005 0.011217331 0.036272693 0.015539631
0.15042964 -0.060215533 0.017860655 -0.0985392 -0.07607454 -0.052578833 -0.15954551 -0.21708697
-0.19353667 -0.07138083 0.048193313 0.020091657 -0.03814793 0.19807443 -0.1869672 0.08481676
0.17918763 0.1052026 -0.029307853 -0.05070808 0.02619032 -0.04106826 0.04638944 0.09389889
0.118152104 0.04864166 0.041957643 -0.23163776 0.049346637 -0.1685967 0.0002602953 0.18530005
0.061710797 0.23962566 0.019223569 0.1880772 0.05624938 -0.0074353567 -0.05639422 -0.19380015
-0.052829795 -0.27742898 -0.030736959 -0.0064694635 0.07975518 0.019397322 -0.16222501 -0.17204963
0.079163 0.07792542 0.15889357 -0.05843066 -0.07936121 -0.097535096 0.19704571 0.042432457
-0.07273369 -0.081084296 -0.15274842 -0.16596256 -0.020165162 -0.04042659 -0.19695759 -0.030147206
-0.09855365 -0.15950075 -0.0630107 -0.0024981396 -0.018357607 0.116899885 0.065153874 0.08676955
0.11833425 -0.104804486 0.1038168 -0.095953315 -0.0619836 -0.037730783 -0.19323443 0.05997865
-0.070173256 0.1590352 0.054386575 0.24498412 -0.010653265 0.017943773 -0.062354416 -0.11730558
-0.056403767 -0.08804488 -0.16152886 0.0014697986 -0.05115863 -0.18256879 -0.17551245 -0.09974444
-0.099881865 -0.22736047 0.048187684 -0.0026345286 0.08891596 0.047113474 -0.14060728 -0.09050486
-0.039038908 -0.11576818 -0.068505555 -0.13085912 0.047022298 0.02517944 0.007533501 -0.12152925
0.0596939 0.062178098 -0.09394543 0.08050209 -0.12209302 0.24527554 -0.0226656 0.1509028
0.035612952 0.014068896 0.020501154 -0.064665265 0.08380808 -0.0058092726 0.27112576 -0.071107805
0.09907782 0.2031424 -0.070614114 0.13717078 0.00063596765 0.039376564 -3.993872e-05 0.22412485
-0.09379687 0.017210852 0.07527394 -0.08241561 -0.05463848 -0.015064135 -0.044168964 -0.06502275
-0.037894405 -0.24309285 -0.07867035 -0.013772688 0.05779417 0.13642295 -0.02216294 0.252581
0.18783009 -0.01990432 -0.050910402 -0.032501202 -0.011718081 0.21351416 0.02667728 -0.20007332
-0.099831246 -0.28626573 -0.16386971 -0.114740506 0.015814986 0.024030434 0.23014434 0.06274661
-0.02712108 0.06991739 0.040163238 0.17304592 0.21672443 0.2001537 0.3471723 0.09843089
0.20992266 0.04927707 0.13762422 0.07382335 -0.014399015 -0.10388134 -0.099430636 -0.15670758

emb_func.layer4.0.bias f4 [64]
00000000: fe52 a13b 117d 203a f0b5 8b3a 3dba 66bb
00000010: 8054 9abb 3220 b2bb 8eb3 e63a 9afb 03bb
00000020: 7fe2 80bb 67be 45bb c82e 233b dd58 533b
00000030: fa1c 38bb 5c8c 47bb e6d4 64bb 5b80 33ba
00000040: a594 ae3b 6b0a 5dbb 3ac9 6c39 b665 77bb
00000050: fbf0 4f3b 9d68 1cbb 4c4b 86bb 8742 713a
00000060: 3182 03ba 8b8a a13b d603 243b 32ea 66bb
00000070: af62 6c3b a690 b43b 486c 21bb cadb e7ba
00000080: b3fc 2f3b 00e0 6d3a ae49 0537 44dc 3b3b
00000090: a9e6 c4ba e8ef 3c3b ec42 943a 0ece 3abb
000000a0: 58f7 843b 8d33 473a 6463 27bb e30b 2f3b
000000b0: c38d 2a3b db12 583b 544f ed3a 9b13 b3bb
000000c0: b869 423b 052c 213b 1bc2 afbb b434 edba
000000d0: a83e a4bb df6b 0fbb c983 3c3a f2cc aebb
000000e0: e932 193b 4483 84bb 9bef 023b 8620 cb3a
000000f0: edc3 b2bb 798f 893b 2f69 24bb 1430 9a3b
0.0049232235 0.0006122152 0.001065908 -0.0035206222 -0.00470978 -0.005435967 0.0017601119 -0.002013898
-0.0039332504 -0.0030173303 0.002489971 0.0032249012 -0.0028093443 -0.003044865 -0.0034916936 -0.00068474346
0.0053277784 -0.0033728133 0.00022581677 -0.0037749833 0.003172933 -0.0023866065 -0.0040983316 0.0009203334
-0.00050166534 0.0049298457 0.00250267 -0.0035234806 0.0036069562 0.0055104075 -0.002463119 -0.0017689404
0.0026853501 0.0009074211 7.944573e-06 0.0028665224 -0.0015022355 0.0028829519 0.0011311448 -0.0028504166
0.004057806 0.0007598929 -0.002554142 0.0026709966 0.0026024438 0.0032970223 0.0018105307 -0.0054649836
0.0029665064 0.0024592888 -0.0053637153 -0.0018097372 -0.005012352 -0.0021884365 0.00071912684 -0.00533449
0.0023376292 -0.0040439684 0.0019979242 0.0015497364 -0.005455485 0.0041980115 -0.0025087108 0.0047054384
