results/RENet-dataset-Conv64F-5-1-Jan-08-2024-14-32-52/checkpoints/model_00020.pth (torch, 909453 bytes, 69 tensors)

emb_func.layer1.0.weight f4 [64, 3, 3, 3]
0	0x3dbec80c	0.093155
1	0xbdd38a83	-0.103291534
2	0xbe2e8d56	-0.17046103
3	0xbf41762e	-0.7557095
4	0xbef6a545	-0.48172966
5	0x3d8e8cb3	0.0696043
6	0xba69d991	-0.00089206645
7	0x3efa77e7	0.48919603
8	0x3f222686	0.6334003
9	0x3dd71385	0.1050177
10	0xbeaa2050	-0.33227777
11	0xbe9a59a4	-0.30146515
12	0xbf5b43b7	-0.856502
13	0xbf21073e	-0.62901676
14	0xbd9450c7	-0.072419696
15	0x3cd10472	0.025514815
16	0x3f00ea71	0.5035773
17	0x3f3aae33	0.72922057
18	0x3e79d27a	0.24396697
19	0xbdfc8da5	-0.12331704
20	0xbcd307d7	-0.025760574
21	0xbef77125	-0.4832851
22	0xbecc22b0	-0.39870214
23	0x3e479d79	0.19493665
24	0xbd8fe4d0	-0.070260644
25	0x3eb76428	0.358186
26	0x3f231939	0.6371036
27	0xbe5f2ac4	-0.21793658
28	0xbe4ef6b1	-0.20211293
29	0xbe8c11e8	-0.2735741
30	0xbe712ccb	-0.23552243
31	0xbdeba838	-0.115066946
32	0xbe9d6f83	-0.3074914
33	0xbdbe3959	-0.09288282
34	0xbe0ac30b	-0.13550965
35	0xbe486c82	-0.19572642
36	0xbd6c1ed5	-0.05764659
37	0x3dba0d87	0.090846114
38	0xbd3f40f3	-0.0466928
39	0x3d06f85d	0.0329517
40	0x3d563426	0.052295826
41	0xbd682a89	-0.05668119
42	0x3dc79316	0.09744851
43	0x3caa6c45	0.02080358
44	0xbac39f2c	-0.0014924756
45	0xbc7428b0	-0.014902279
46	0x3df4dcf6	0.119562075
47	0x3cb19d5e	0.021681484
48	0x3cecfd77	0.028929455
49	0x3e007dba	0.12547961
50	0x3e00a738	0.12563789
51	0x3e477628	0.19478667
52	0x3e2c2cdb	0.16813986
53	0x3dcef44e	0.10105191
54	0x3e0f88e9	0.14017071
55	0xbd0aadf0	-0.033857286
56	0x3cd1e7af	0.02562317
57	0xbea7a139	-0.3274019
58	0xbeb0ccdf	-0.34531304
59	0xbec2603b	-0.37964043
60	0xbe866c27	-0.2625439
61	0xbe72de44	-0.237176
62	0xbec97a98	-0.39351344
63	0x3ea6e779	0.32598475
64	0x3e950e33	0.29112396
65	0x3e63a42e	0.22230598
66	0x3d92207e	0.07135104
67	0x3d983a32	0.07432975
68	0x3d0b63e6	0.034030817
69	0xbdbf0041	-0.0932622
70	0xbe7067d3	-0.23477106
71	0xbe93dcb1	-0.28879312
72	0x3ed19b39	0.40938738
73	0x3ecee804	0.4041139
74	0x3eccc2f4	0.39992487
75	0x3ea528c4	0.32257664
76	0x3e816167	0.25269625
77	0x3dbd4bff	0.09243011
78	0x3c6fdb20	0.014639646
79	0xbd59724a	-0.05308751
80	0xbe2413f7	-0.16023241
81	0x3ef0a714	0.4700247
82	0x3f628259	0.88480145
83	0x3f42a8f0	0.7603903
84	0xbe9f3c92	-0.311009
85	0xbed1b968	-0.40961766
86	0xbe103fde	-0.14086863
87	0xbdbd3ce1	-0.09240127
88	0xbf05cccb	-0.52265614
89	0xbedb0833	-0.42779693
90	0x3f0ee069	0.5581117
91	0x3f86979b	1.0515016
92	0x3f8425d9	1.032405
93	0xbedb84b1	-0.42874673
94	0xbf336b57	-0.7008566
95	0xbed03d50	-0.40671778
96	0xbe66734d	-0.22504921
97	0xbf706d66	-0.9391693
98	0xbf5441fd	-0.8291319
99	0x3ef68a66	0.48152465
100	0x3f88bfce	1.0683534
101	0x3f81b687	1.0133828
102	0xbe694186	-0.22778901
103	0xbebeb2ff	-0.37245938
104	0xbe2bb5c5	-0.16768558
105	0x3d521856	0.05129274
106	0xbf2f1793	-0.68395346
107	0xbefec453	-0.49759158
108	0x3eabee79	0.33580378
109	0x3d3066d9	0.043066833
110	0xbe3e086b	-0.18557899
111	0x3f5fc92e	0.8741635
112	0xbecf6ae7	-0.40511248
113	0xbecc914a	-0.39954597
114	0x3f81a7d5	1.0129343
115	0xbf0edfd8	-0.5581031
116	0xbf12a352	-0.5728046
117	0x3dcff259	0.10153646
118	0xbd7752f0	-0.06038183
119	0xbdae8cf5	-0.08522979
120	0x3f22e92e	0.63637054
121	0xbf0468a3	-0.5172216
122	0xbf0272a6	-0.5095619
123	0x3f59a3e7	0.8501572
124	0xbf3439d8	-0.7040076
125	0xbf0ccb33	-0.5499756
126	0x3e09ac57	0.13444649
127	0x3c418e41	0.011813701
128	0x3d97969b	0.074017726
129	0x3f05bfc3	0.5224573
130	0xbedc2a88	-0.430012
131	0xbe88c081	-0.2670937
132	0x3f2de95b	0.679342
133	0xbf160171	-0.5859595
134	0xbeb23ddf	-0.3481283
135	0xbdad4de2	-0.084621206
136	0xbbee38a3	-0.007269935
137	0xbd4bfbe8	-0.049800783
138	0x3db45fd1	0.08807338
139	0x3d4d25e2	0.050084956
140	0x3db5e362	0.088812605
141	0x3e9be466	0.30447692
142	0x3ea22d14	0.31675017
143	0x3e9464cc	0.28983152
144	0xbde51983	-0.111865066
145	0xbcca2679	-0.024676548
146	0x3d496487	0.049168136
147	0xbeee5939	-0.46552446
148	0xbf2b2698	-0.66855764
149	0xbf2754fb	-0.65364045
150	0xbed42898	-0.4143722
151	0xbf0717fd	-0.5277098
152	0xbebf4544	-0.37357533
153	0x3f1741db	0.5908486
154	0x3f22bb41	0.63566977
155	0x3ef1a610	0.47197008
156	0x3df956f2	0.121747866
157	0xbe220d6f	-0.15825437
158	0xbdb315d8	-0.08744401
159	0x3de8ab39	0.11360783
160	0x3ba9ab71	0.005177908
161	0x3db376d5	0.087629
162	0xbf2c16cd	-0.6722229
163	0xbf26cf6f	-0.6516027
164	0xbe6eb85b	-0.23312514
165	0xbf28c56f	-0.6592626
166	0xbea79c18	-0.32736278
167	0x3e6eb9a2	0.23313001
168	0xbdde86c2	-0.10865547
169	0x3e8f8d2c	0.28037393
170	0x3f34ece5	0.7067397
171	0xbe08c5fc	-0.13356775
172	0xbdb508e6	-0.08839588
173	0x3e02eb99	0.12785186
174	0xbecdcd6e	-0.40195793
175	0x3ca01b5c	0.019544296
176	0x3eb05b4d	0.34444657
177	0xbd4bbac4	-0.04973866
178	0x3e9e06e6	0.30864638
179	0x3ed282bd	0.4111537
180	0x3d44d9d5	0.048059303
181	0xbda78292	-0.08179201
182	0x3e42fd59	0.19041957
183	0xbe9ae596	-0.30253285
184	0xbd83d72a	-0.06437524
185	0x3e7022c4	0.23450762
186	0xbea2cff3	-0.31799278
187	0xbe0fcc70	-0.1404283
188	0xbbcd48b1	-0.006264769
189	0x3f2b33d0	0.66875935
190	0x3f51cddc	0.8195474
191	0x3f4771a6	0.7790779
192	0xbe86915a	-0.2628277
193	0xbe58e330	-0.21180415
194	0xbdf6e8d0	-0.12056124
195	0xbf26c91e	-0.6515063
196	0xbf18a252	-0.5962268
197	0xbe2ccd6d	-0.16875239
198	0x3f00123f	0.5002784
199	0x3f2cc531	0.6748839
200	0x3f121be6	0.5707382
201	0xbe7cffdd	-0.24706979
202	0xbed68223	-0.4189616
203	0xbe90f052	-0.2830835
204	0xbf557cb8	-0.8339343
205	0xbf2fcc9b	-0.6867158
206	0xbeaf5ef1	-0.34252122
207	0x3efd5e50	0.49486017
208	0x3f10b1c6	0.5652126
209	0x3ee20166	0.44141692
210	0xbd752679	-0.059851144
211	0xbe0192d4	-0.12653667
212	0x3d2102c9	0.039309297
213	0xbeaa2fca	-0.33239585
214	0xbe89c032	-0.26904446
215	0x3e211238	0.15729606
216	0xbe867866	-0.26263732
217	0xbe5e1643	-0.2168818
218	0xbc7bb82f	-0.015363737
219	0xbe1a0096	-0.15039286
220	0xbc72327e	-0.014782546
221	0x3e0de14b	0.13855474
222	0x3dca90ac	0.09890875
223	0x3e03032e	0.12794182
224	0x3d7f0b25	0.062266488
225	0xbe25fead	-0.16210432
226	0xbe703236	-0.23456654
227	0xbdd95c68	-0.10613328
228	0xbda7b0dc	-0.0818803
229	0x3c5383f4	0.012909878
230	0x3da719d6	0.08159225
231	0x3e1e47f8	0.15457141
232	0x3e0cd129	0.13751663
233	0x3e4a363b	0.1974725
234	0xbdb15876	-0.08659451
235	0xbe2cde30	-0.16881633
236	0x3bda09c0	0.0066539943
237	0xbd104679	-0.035223458
238	0x3d79e6f3	0.061011266
239	0x3e2a23df	0.16615246
240	0x3e206624	0.15663964
241	0x3e684dd0	0.22685933
242	0x3df0a24e	0.11749707
243	0xbcc9d000	-0.024635315
244	0xbe0ad5e6	-0.13558158
245	0xbe91f2b6	-0.28505486
246	0xbe34cce6	-0.17656288
247	0xbeec028b	-0.4609569
248	0xbea60652	-0.32426697
249	0xbe056da4	-0.13030106
250	0xbe97d27a	-0.29652768
251	0xbde755eb	-0.112956844
252	0x3e0832dd	0.13300653
253	0xbd5cf350	-0.05394298
254	0xbdced737	-0.10099643
255	0xbd05b0e0	-0.032639384

emb_func.layer1.0.bias f4 [64]
0	0x3cd85def	0.026411979
1	0xbd8cb288	-0.0686999
2	0x3c5be712	0.013421791
3	0x3d90377e	0.07041834
4	0x3d6c147f	0.057636734
5	0x3d95ea42	0.07320072
6	0x3d3d8775	0.04627176
7	0xbbe7bf1f	-0.007072344
8	0x3cb6d4f7	0.022318346
9	0xbd124c9b	-0.035717588
10	0x3d94985b	0.07255622
11	0x3d2f4eaa	0.04279963
12	0xbd802175	-0.062563814
13	0x3d975dfd	0.07390974
14	0xbaa64118	-0.0012684194
15	0xbb79013b	-0.0037995118
16	0xbcbfa540	-0.023394227
17	0xbcb8c0cc	-0.02255287
18	0x3b8c3313	0.0042785495
19	0xbd2aed76	-0.041730367
20	0xbda2d7c7	-0.079513125
21	0xbd345989	-0.0440307
22	0xbc8b584a	-0.017009873
23	0x3d843231	0.06454886
24	0x3d80c8ca	0.062882975
25	0xbd51c693	-0.051214766
26	0xbb570d0e	-0.0032814178
27	0xbcca19f9	-0.024670588
28	0xbd3b4de0	-0.045728564
29	0xbc764562	-0.015031191
30	0xbcf2f783	-0.029659038
31	0x3d43b331	0.047778312
32	0xbd2da37b	-0.042392235
33	0x3c5777d3	0.013151127
34	0xbd459360	-0.04823625
35	0xbcda8ccc	-0.026678465
36	0x3d89cfd9	0.06729097
37	0xbd2be31c	-0.041964635
38	0xbba86bf1	-0.0051398207
39	0x3da7311e	0.08163665
40	0x3cefab79	0.02925657
41	0xbd323636	-0.04350873
42	0xbd5236bf	-0.05132174
43	0xbcf58ebe	-0.029975291
44	0xbcdb47b6	-0.026767593
45	0x3d18703d	0.037216414
46	0xbc9bae73	-0.019004082
47	0x3d93a50d	0.07209215
48	0xbd401b07	-0.046900775
49	0xbcdaf7c8	-0.02672948
50	0x3cfef1d3	0.03112117
51	0x3d8bd02b	0.06826814
52	0x3da77649	0.08176858
53	0x3c6027f2	0.013681399
54	0x3b6c20a1	0.003603019
55	0xbd1cddeb	-0.038297575
56	0x3d45d32f	0.048297103
57	0xbd4af283	-0.049547683
58	0xbcb80dce	-0.02246752
59	0xbd9250bc	-0.07144305
60	0xbda84acc	-0.08217391
61	0x3d43b35e	0.04777848
62	0x3bbe4981	0.005807102
63	0x3d8b8dbc	0.06814143

emb_func.layer1.1.weight f4 [64]
0	0x3f59d391	0.8508845
1	0x3eded310	0.43520403
2	0x3ee929c1	0.45539668
3	0x3f84f9ab	1.0388693
4	0x3f5e8b4f	0.8693132
5	0x3f1519b8	0.5824237
6	0x3f1cf33a	0.61308634
7	0x3f50e5da	0.81600726
8	0x3f018e8e	0.50608146
9	0x3eba3cec	0.36374605
10	0x3f6dddb6	0.9291643
11	0x3edd3d21	0.432107
12	0x3e9bcf8e	0.3043179
13	0x3ee1d4da	0.44107705
14	0x3ee26735	0.44219366
15	0x3f9cf730	1.2262936
16	0x3e82cf21	0.25548652
17	0x3f2cb6f5	0.6746667
18	0x3f561e63	0.83640116
19	0x3f62ff72	0.8867103
20	0x3ee82afd	0.45345297
21	0x3e421c35	0.18956073
22	0x3f85264e	1.0402315
23	0x3f4b6073	0.79444045
24	0x3f14a4a9	0.5806375
25	0x3eaa1adc	0.33223617
26	0x3fb20b4c	1.3909698
27	0x3eb3ad75	0.35093275
28	0x3f7efeac	0.9960735
29	0x3ef1cd3b	0.4722689
30	0x3ec47500	0.38370514
31	0x3ebd1a2a	0.36934024
32	0x3f8ae1c0	1.0850143
33	0x3f435626	0.7630333
34	0x3fa06bbb	1.2532877
35	0x3ee04f74	0.43810618
36	0x3df6ba72	0.1204728
37	0x3f1cca44	0.6124613
38	0x3e95292c	0.29132974
39	0x3f176722	0.59141743
40	0x3efeb81e	0.49749845
41	0x3f22c410	0.6358042
42	0x3ed448a4	0.4146167
43	0x3e3bdc9b	0.18345873
44	0x3e6a0acc	0.22855681
45	0x3f247b0d	0.6425026
46	0x3f1bc719	0.60850674
47	0x3f0e1041	0.5549355
48	0x3ed4c531	0.41556695
49	0x3ed2f15e	0.41199774
50	0x3e9c6eeb	0.30553374
51	0x3ee119f2	0.43965107
52	0x3f42bb99	0.760675
53	0x3f2b86e4	0.670027
54	0x3ebba825	0.36651722
55	0x3eaef986	0.34174746
56	0x3ed4a45e	0.41531652
57	0x3efacce9	0.4898446
58	0x3f2c72c9	0.6736265
59	0x3e9b1fec	0.30297792
60	0x3f7d376d	0.989127
61	0x3f07501b	0.52856606
62	0x3e886530	0.266397
63	0x3ee3feec	0.44530427

emb_func.layer1.1.bias f4 [64]
0	0x3e4250eb	0.1897618
1	0xbe8cca6e	-0.27498192
2	0x3e3444d6	0.17604384
3	0x3e31f6dc	0.17379326
4	0x3e9e8c97	0.30966637
5	0xbea1e355	-0.31618753
6	0x3e7651cf	0.24054645
7	0x3f0aa47d	0.5415724
8	0xbf05e4c2	-0.5230218
9	0x3e3c05e3	0.1836162
10	0x3e5ae477	0.21376215
11	0xbe88bcae	-0.2670645
12	0xbd88b564	-0.066752225
13	0xbeb59929	-0.35468414
14	0xbea20331	-0.3164306
15	0x3e5b174f	0.2139561
16	0x3cb1c3f5	0.021699885
17	0x3dc9d80e	0.09855662
18	0x3eef2398	0.46706843
19	0x3df763b1	0.120795615
20	0xbe011248	-0.1260463
21	0x3df9185a	0.12162848
22	0x3f069e67	0.5258545
23	0x3ef79f2d	0.4836363
24	0xbee2e347	-0.44314024
25	0xbea9be0f	-0.33152816
26	0x3f044b8f	0.51677793
27	0xbe585258	-0.21125162
28	0x3d55231d	0.05203544
29	0xbe27b3ed	-0.1637723
30	0xbe88a264	-0.26686394
31	0xbea5aa57	-0.3235652
32	0x3eac8d24	0.33701432
33	0x3f17d566	0.59309995
34	0xbe7f1e38	-0.24913871
35	0x3e8bc273	0.2729679
36	0xbe362f18	-0.17791402
37	0x3e97e389	0.29665783
38	0xbe3121ab	-0.17298
39	0x3e952397	0.29128715
40	0xbe05229a	-0.1300148
41	0xbd018dc2	-0.03162933
42	0xbc8a4753	-0.016879713
43	0xbc5a6a24	-0.01333097
44	0x3e19656b	0.14980094
45	0xbe998a61	-0.29988387
46	0xbef37bf0	-0.47555494
47	0x3f011d4e	0.5043534
48	0x3ece8242	0.40333754
49	0xbe3a1b6e	-0.18174526
50	0xbc92d0fa	-0.017921913
51	0xbe5f84f8	-0.21828067
52	0xbe7fd9a7	-0.24985372
53	0x3e4f9f40	0.20275593
54	0xbe7402bf	-0.23829173
55	0xbe97837d	-0.29592505
56	0x3c225c5d	0.009909716
57	0x3e463afe	0.19358441
58	0x3e35aba5	0.17741258
59	0xbe414b50	-0.18876386
60	0x3f17b4ad	0.59260064
61	0xbed3bd7a	-0.41355497
62	0xbe86f7e9	-0.26361015
63	0x3e09b050	0.13446164

emb_func.layer1.1.running_mean f4 [64]
0	0x3cae7b39	0.021298992
1	0xbf05615f	-0.521017
2	0xbeca8e9c	-0.39561927
3	0x3d948915	0.07252709
4	0x3d9501ef	0.072757594
5	0x3ea05d52	0.31321198
6	0xbec79505	-0.3898088
7	0x3c8a5aec	0.016889058
8	0xbd09eb8a	-0.033671893
9	0xbeeb5758	-0.45965075
10	0xbd4b535a	-0.049640037
11	0xbec0d85c	-0.3766507
12	0xbb88b3ec	-0.004171839
13	0x3ec73f73	0.38915595
14	0x3e934012	0.2875982
15	0x3b3870f3	0.0028143495
16	0x3dba8db4	0.09109059
17	0xbc84106e	-0.016121116
18	0xbe109c89	-0.14122213
19	0xbd340875	-0.043953378
20	0xbe8c3c72	-0.27389866
21	0x3e0eebe6	0.13957176
22	0xbd94ad5b	-0.072596274
23	0xbe35c31f	-0.17750214
24	0xbe86e484	-0.2634622
25	0xbec8da55	-0.39229074
26	0xbc7ec6d1	-0.015550331
27	0xbdabde10	-0.083919644
28	0xbdb49ec5	-0.088193454
29	0xbea192b3	-0.31557235
30	0x3e3524a3	0.17689757
31	0x3e7ac3ed	0.24488802
32	0xbdcd3131	-0.10019148
33	0xbdfa52b2	-0.12222804
34	0xbdc6905e	-0.096955046
35	0xbf23e8c4	-0.6402705
36	0xbe03dcfd	-0.12877269
37	0xbe9c7492	-0.30557686
38	0x3c1c7f12	0.00955178
39	0x3da7f9b6	0.082019255
40	0x3d866c64	0.065636426
41	0xbf0d828d	-0.5527733
42	0xbe8c26e4	-0.2737342
43	0x3e35950a	0.17732635
44	0x3ddb9f5b	0.10723754
45	0xbf262726	-0.64903486
46	0xbf0a7b57	-0.5409445
47	0x3d83d95d	0.06437943
48	0x3eeb6e5f	0.45982644
49	0xbf040f5f	-0.51585954
50	0x3e8b1126	0.2716152
51	0x3e89cbef	0.269134
52	0x3bd31056	0.0064411564
53	0xbd2b65f5	-0.04184528
54	0xbe70d52c	-0.23518819
55	0x3e138019	0.14404334
56	0xbede2dc2	-0.43394285
57	0x3d15c509	0.03656486
58	0xbec179bd	-0.3778819
59	0x3dd20d03	0.10256388
60	0xbdfce055	-0.123474754
61	0xbe1110e6	-0.14166602
62	0x3e5b8bd0	0.21440053
63	0xbf12163a	-0.57065165

emb_func.layer1.1.running_var f4 [64]
0	0x400e9394	2.2277575
1	0x3faf5b88	1.3699808
2	0x400904ff	2.14093
3	0x40fe5aea	7.948598
4	0x4071c221	3.7774737
5	0x3f3f86f6	0.7481531
6	0x406285db	3.53942
7	0x40a23513	5.068979
8	0x3ee9fb1e	0.456994
9	0x3ff855ba	1.9401162
10	0x405f736c	3.4914198
11	0x3f9479fb	1.1599725
12	0x3f02d3e9	0.511046
13	0x3ffc2320	1.9698219
14	0x3f9c7e98	1.2226133
15	0x40d66c24	6.7007008
16	0x3f1d70be	0.61500156
17	0x40040055	2.0625203
18	0x4070362c	3.7533064
19	0x401db0ca	2.4639153
20	0x3f86d167	1.0532655
21	0x3fa9d44a	1.326791
22	0x4073a27d	3.8067925
23	0x407c56d8	3.9428005
24	0x3f93a061	1.1533319
25	0x3f44a6fe	0.7681731
26	0x4122a8d2	10.166216
27	0x3f5934b5	0.8484605
28	0x4089d57c	4.30731
29	0x3f92a393	1.1456169
30	0x3fa5482d	1.2912651
31	0x3f82972e	1.0202386
32	0x4111a745	9.103337
33	0x40bf4fd6	5.9784956
34	0x402c3de7	2.6912782
35	0x40208fb3	2.5087707
36	0x3f889e86	1.0673378
37	0x3fe6aeef	1.8022135
38	0x3f01bbd4	0.5067723
39	0x4036efd9	2.8583891
40	0x3f53d9c1	0.8275414
41	0x411ef14c	9.93391
42	0x402cd1bc	2.7003012
43	0x3fa7e3c9	1.311639
44	0x3f1172e3	0.5681593
45	0x4050f3ed	3.264888
46	0x3fed9b9e	1.8563116
47	0x40299498	2.6496944
48	0x3ffd621f	1.9795569
49	0x3fd88c99	1.6917907
50	0x3fc04a30	1.502264
51	0x3f7d88df	0.99036974
52	0x4064b965	3.5738156
53	0x40279d2b	2.6189678
54	0x3f1c0bcd	0.60955507
55	0x3f82724b	1.019113
56	0x405e05d5	3.469106
57	0x3fc53c10	1.5408955
58	0x3fef042c	1.8673148
59	0x3fb8a3d9	1.4425002
60	0x40df8476	6.9849195
61	0x3f55f401	0.83575445
62	0x3fb77655	1.4332987
63	0x402cdd1f	2.7009962

emb_func.layer2.0.weight f4 [64, 64, 3, 3]
0	0x3eab1a9f	0.33418748
1	0x3e658692	0.22414616
2	0x3c208849	0.009798118
3	0xbded996a	-0.11601527
4	0xbd129514	-0.035786703
5	0x3df3e993	0.11909785
6	0x3d622607	0.055212047
7	0x3dc85eee	0.097837314
8	0x3b6a4c2d	0.003575097
9	0x3e036299	0.12830581
10	0x3df85340	0.12125254
11	0x3dd8f96e	0.1059445
12	0x3d18ef6c	0.037337705
13	0x3d3fa5bf	0.046788927
14	0xbc79e045	-0.015251224
15	0xbddc06a3	-0.10743453
16	0xbdfbf9a1	-0.12303472
17	0xbe06dfe1	-0.1317134
18	0x3e12603a	0.1429452
19	0x3e5e5918	0.21713674
20	0x3e2991bf	0.16559504
21	0x3e06f6a3	0.13180022
22	0x3e327362	0.17426828
23	0x3d5b0874	0.05347486
24	0xbe5322f8	-0.20618808
25	0xbe8631db	-0.26209912
26	0xbe9901c5	-0.29884163
27	0xbc314a73	-0.010820973
28	0x3c9f044a	0.019411225
29	0xbc44d739	-0.012014204
30	0x3e150683	0.14553265
31	0x3e7ec1e4	0.24878651
32	0xbd9b9240	-0.07596254
33	0xbe492f17	-0.1964687
34	0xbe7d8b19	-0.24760093
35	0xbe7478bb	-0.2387418
36	0x3d8258b7	0.06364577
37	0x3cf653b6	0.030069213
38	0x3d1561c6	0.036470197
39	0x3d42f1d3	0.047593903
40	0x3c23a6fc	0.009988543
41	0xbd913aaa	-0.070912674
42	0xbe4e8bd3	-0.20170526
43	0xbeb0b648	-0.3451407
44	0xbe851800	-0.25994873
45	0x3e12dc38	0.1434182
46	0x3dae03d8	0.08496827
47	0x3db5d143	0.08877804
48	0x3e415e89	0.18883719
49	0x3e541fe5	0.20715292
50	0x3e016886	0.12637529
51	0x3d6f4288	0.05841306
52	0xbb00b82c	-0.0019641025
53	0xbd4b9f19	-0.049712274
54	0x3e266b3d	0.16251846
55	0x3e11bd7a	0.14232436
56	0x3daaafba	0.083342984
57	0x3cce586b	0.025188645
58	0x3d907b14	0.07054725
59	0x3df7a0b0	0.120911956
60	0xbe0f9d6d	-0.14024897
61	0xbdd50905	-0.10402111
62	0xbda99953	-0.082811974
63	0x3c1258f0	0.008932337
64	0x3d995913	0.07487693
65	0x3c85130d	0.016244436
66	0xbcdb4c6d	-0.026769841
67	0x3db0d2c7	0.086339526
68	0xbe0ca248	-0.1373378
69	0xbe76850b	-0.2407419
70	0xbe87c597	-0.26517937
71	0xbe86a398	-0.26296687
72	0xbcb23124	-0.021751948
73	0xbc28eef2	-0.010310875
74	0xbd6a19a5	-0.057153363
75	0xbe138614	-0.14406615
76	0xbe0be427	-0.13661252
77	0xbda24cda	-0.079248145
78	0xbd7e37be	-0.06206488
79	0xbc3fef0d	-0.011714709
80	0xbc835e45	-0.016036162
81	0x3e89fc5e	0.26950353
82	0x3e893d53	0.268046
83	0x3e505b1f	0.2034726
84	0x3decead2	0.11568226
85	0x3dc1c91c	0.09462187
86	0x3d29232d	0.041293312
87	0xbe261730	-0.16219783
88	0xbe27d259	-0.16388835
89	0xbe88ed23	-0.2674342
90	0x3c8876b8	0.016658172
91	0x3cdc75d7	0.02691166
92	0x3d977f40	0.07397318
93	0x3d5c09d1	0.0537203
94	0xbbef7e4a	-0.007308756
95	0xbe0778fa	-0.13229743
96	0xbe42ae73	-0.1901186
97	0xbe5e1a52	-0.21689728
98	0xbe79f80d	-0.2441103
99	0x3e07cebf	0.13262461
100	0x3e1f016c	0.15527886
101	0x3dda88cd	0.10670624
102	0x3c782649	0.015145847
103	0x3cd15a7b	0.02555584
104	0xbcb3119a	-0.021858979
105	0xbde97f1d	-0.11401198
106	0xbdf7361e	-0.12070869
107	0xbe1822c9	-0.1485702
108	0xbda5fbd0	-0.0810467
109	0xbd608e76	-0.05482336
110	0xbd9b892c	-0.07594523
111	0xbd211a5e	-0.039331786
112	0xbd03860c	-0.03211026
113	0xbd2a3b8b	-0.04156069
114	0xbc14a976	-0.009073606
115	0xbb8b4aa9	-0.0042508435
116	0xbc1f4752	-0.009721594
117	0x3c11d564	0.008900974
118	0x3c1a212a	0.009407321
119	0xbbc4a3e5	-0.006000983
120	0x3ca5d8e5	0.020245025
121	0xbb4f8fe4	-0.003167146
122	0x3c614d8f	0.013751402
123	0x3d2a66e6	0.041602038
124	0x3d17d4dc	0.037068233
125	0x3d033881	0.03203631
126	0xbd11292e	-0.035439663
127	0xbc83e38d	-0.016099716
128	0xbd074d2d	-0.033032585
129	0xbd19c390	-0.03754002
130	0xbcdaa1bc	-0.02668845
131	0xbbc8a803	-0.006123544
132	0x3c3377a9	0.010953822
133	0x3ccf06a1	0.025271716
134	0x3c526f34	0.012843896
135	0x3c125755	0.008931954
136	0x3d82bf04	0.063840896
137	0xbda1dd53	-0.07903542
138	0x3b89f80c	0.0042104777
139	0xbca76432	-0.020433519
140	0x3d77a4e6	0.060459994
141	0xbe9c3b5f	-0.30514047
142	0xbe94902b	-0.2901624
143	0xbde7cd7d	-0.11318491
144	0xbd0d8d1c	-0.0345584
145	0xbbacbb99	-0.005271387
146	0xbd5b1685	-0.053488273
147	0xbb89639a	-0.0041927816
148	0x3c2c1615	0.010503312
149	0xb931c2e0	-0.00016952632
150	0xbd6adea6	-0.05734124
151	0xbd5838ad	-0.052788425
152	0xbd204f77	-0.039138284
153	0x3cd9fd86	0.026610147
154	0x3b4d7327	0.0031349154
155	0x3d564787	0.052314308
156	0x3d32ba95	0.04363497
157	0xbdab1673	-0.08353891
158	0xbe0d1d9c	-0.13780826
159	0xbe2f8648	-0.17141068
160	0xbe54376a	-0.20724264
161	0xbe61b03c	-0.22039884
162	0x3dc0aef3	0.09408369
163	0x3de9d751	0.114180215
164	0xbd5d1b1a	-0.053980924
165	0xbc908f6a	-0.01764651
166	0xbcddc87b	-0.027073136
167	0xbce12c48	-0.027486935
168	0x3dbdfe8d	0.09277067
169	0x3e249b46	0.16074857
170	0x3d3da391	0.046298567
171	0x3e83123d	0.25599852
172	0x3db6f500	0.08933449
173	0xbcd4e230	-0.02598676
174	0xbe02f75c	-0.12789673
175	0xbc284a2b	-0.010271589
176	0x3de8eb2f	0.11372983
177	0xbe917507	-0.28409597
178	0xbe90f590	-0.2831235
179	0xbe9cb649	-0.30607823
180	0x3e4a98c5	0.1978484
181	0x3e209c89	0.15684713
182	0x3df220f7	0.11822694
183	0x3cbdce24	0.023169585
184	0x3d993fb3	0.07482853
185	0x3dbd58ad	0.09245429
186	0xbd67c45d	-0.05658375
187	0xbd46977c	-0.04848431
188	0xbd9bc095	-0.076050915
189	0xbd2c240e	-0.042026572
190	0xbc9ec0de	-0.019379076
191	0xbcdc8859	-0.026920484
192	0xbd091286	-0.03346493
193	0xbd477f77	-0.048705544
194	0xbd0d60ae	-0.03451603
195	0xbd139116	-0.036027037
196	0xbc98b887	-0.018642677
197	0xbbe75315	-0.0070594647
198	0x3c5e4a6a	0.013567546
199	0x3e61c4ba	0.22047701
200	0x3d000559	0.0312551
201	0xbc8283d3	-0.015932
202	0x3cc154cc	0.023600005
203	0xbd9dc4b7	-0.07703536
204	0xbe9c0dbd	-0.3047923
205	0xbe697716	-0.22799334
206	0xbe8f4ce0	-0.27988338
207	0x3d9e487c	0.07728669
208	0x3d8c2fc2	0.068450466
209	0xbc1e7d55	-0.009673436
210	0xbdb6542f	-0.089027755
211	0x3c9ec2cf	0.019380001
212	0xbdd21ee8	-0.10259801
213	0xbe9a8ee6	-0.30187148
214	0xbe934df0	-0.287704
215	0xbe991852	-0.29901367
216	0x3dc70be8	0.09719068
217	0x3da91776	0.08256428
218	0x3d886813	0.066604756
219	0x3cff7c37	0.03118716
220	0xbbbacdf0	-0.005700819
221	0xbc3781e3	-0.011200401
222	0xbdae5b87	-0.08513551
223	0xbdfb2eab	-0.122647606
224	0xbe238dbf	-0.1597204
225	0x3ad51c71	0.0016259087
226	0xbc102fc7	-0.0088004535
227	0xbc99eb56	-0.018788975
228	0xbd2cd01c	-0.042190656
229	0xbd0a976f	-0.033835825
230	0xbcf16860	-0.029468715
231	0xbd311480	-0.04323244
232	0xbd0f5b1a	-0.03499899
233	0xbd38f5b5	-0.0451562
234	0x3e034b07	0.1282159
235	0x3deb1665	0.11478881
236	0xbe4d4d36	-0.20048985
237	0xbb37dda8	-0.0028055701
238	0xbc7947d0	-0.015214875
239	0x3b4a4683	0.0030864782
240	0x3e841787	0.257992
241	0x3ece9a0e	0.4035191
242	0x3e57ff32	0.21093443
243	0x3b8228e7	0.003972161
244	0x3c3efef1	0.011657462
245	0xbce79958	-0.028271362
246	0x3c27f7a8	0.010251917
247	0xbc90bfd3	-0.017669594
248	0xbca5f390	-0.020257741
249	0xbcf05991	-0.029339584
250	0xbb2107b8	-0.002457125
251	0xbbc7e44c	-0.006100213
252	0x3db22388	0.08698183
253	0xbc2dc379	-0.010605686
254	0xbd869efe	-0.06573294
255	0xbde3f750	-0.111311555

emb_func.layer2.0.bias f4 [64]
0	0xba33aa4b	-0.0006853684
1	0x3c465f30	0.012107655
2	0xbc91b1b6	-0.017784934
3	0xbbbe5bc2	-0.005809278
4	0x3c1d1b3e	0.009589015
5	0xbb892a66	-0.0041859625
6	0x3c440c28	0.011965789
7	0x3bd0b724	0.0063694883
8	0x3b515e27	0.0031946988
9	0xbb26e8ba	-0.0025468306
10	0xbb926d69	-0.004468609
11	0xbb7be289	-0.0038434586
12	0xbad8ac6c	-0.0016530878
13	0xbc2372b0	-0.009976074
14	0xbbacb1a2	-0.005270199
15	0x3c2c9015	0.010532399
16	0x3c53d5b0	0.012929365
17	0x3b5e4861	0.0033917653
18	0x3b39ecab	0.0028369825
19	0xbc81ecd6	-0.015860002
20	0x3b776882	0.00377515
21	0x3c7d08a3	0.015443954
22	0xbc032019	-0.008003258
23	0xbb970270	-0.004608445
24	0x3c932660	0.017962635
25	0x3b372dea	0.002795095
26	0x3c6d69a2	0.014490517
27	0xbba480dd	-0.0050202445
28	0xbc889f5c	-0.016677551
29	0x3ad1da9a	0.0016010583
30	0xbc6a71d4	-0.014309365
31	0xbc029712	-0.007970588
32	0x3bd2a20b	0.0064280084
33	0xbc8c2d6d	-0.017111504
34	0x3c249121	0.010044367
35	0x3c8b3015	0.0169907
36	0x3c8e0f06	0.017341148
37	0xbc83ab48	-0.016072884
38	0xbc963d50	-0.018339783
39	0xbbf31e9c	-0.0074194204
40	0x3abe62f0	0.0014525335
41	0xbc14810c	-0.00906397
42	0x3c55063d	0.013001976
43	0x3c8a285c	0.016864948
44	0x3ba01ff7	0.004886623
45	0xbb354d2b	-0.0027664404
46	0xbc8a8d28	-0.016913012
47	0x3c377fff	0.01119995
48	0xbb308477	-0.0026934424
49	0x3c4f9121	0.012668879
50	0x3be78be5	0.0070662373
51	0x3b4ac11e	0.003093786
52	0xbc60ba90	-0.013716355
53	0x3c443471	0.011975394
54	0x3b6863c6	0.003545986
55	0x3c6d82db	0.01449653
56	0x3c64ceff	0.013965367
57	0xbc1f939b	-0.009739782
58	0xbc6801b0	-0.014160559
59	0xbc8efed0	-0.017455488
60	0xbbccb74a	-0.0062474357
61	0xbbce4c76	-0.006295736
62	0x3a9dd4e9	0.0012041602
63	0x3c2070cb	0.009792517

emb_func.layer2.1.weight f4 [64]
0	0x3fb02e7c	1.3764186
1	0x3f1fb18a	0.6238028
2	0x3f143aa5	0.57901984
3	0x3f40fbcd	0.7538422
4	0x3f52cbd8	0.8234229
5	0x3f3ea267	0.74466556
6	0x3fad8441	1.3555986
7	0x3f510ce4	0.81660295
8	0x3f562b65	0.83659965
9	0x3f7080c1	0.9394646
10	0x3f854862	1.0412714
11	0x3f0457f6	0.5169672
12	0x3f5c43bb	0.8604085
13	0x3f79f455	0.97638446
14	0x3f81b638	1.0133734
15	0x3f5dd163	0.86647624
16	0x3f054ebc	0.52073264
17	0x3f0eb9d2	0.5575229
18	0x3f2ea533	0.68220824
19	0x3f4333cc	0.7625091
20	0x3f384416	0.7197889
21	0x3f7923e5	0.97320396
22	0x3f455c05	0.77093536
23	0x3f59725a	0.8494011
24	0x3f89b3de	1.0758016
25	0x3f675dc7	0.9037747
26	0x3f893e6a	1.0722172
27	0x3f0d7c18	0.5526748
28	0x3f94b2d3	1.1617073
29	0x3f71ab80	0.94402313
30	0x3f6b6df9	0.9196468
31	0x3f20b8d2	0.62782013
32	0x3f5c0720	0.8594837
33	0x3f27ca86	0.655434
34	0x3f3ab580	0.729332
35	0x3efd10bf	0.4942684
36	0x3fa6f98d	1.3044907
37	0x3fb38eb2	1.4027922
38	0x3f28d8ed	0.65956
39	0x3f7e3867	0.99304813
40	0x3f728c79	0.94745594
41	0x3f43d393	0.7649471
42	0x3f5c6fb7	0.86107963
43	0x3f8b633e	1.0889661
44	0x3f1085f8	0.5645442
45	0x3f2565b1	0.64608294
46	0x3f20af1b	0.6276719
47	0x3f5a6d0e	0.85322654
48	0x3f4b8b3e	0.7950934
49	0x3f1d5d91	0.61470896
50	0x3f283fa0	0.65722084
51	0x3f859b02	1.043793
52	0x3f796964	0.9742644
53	0x3f6a67dc	0.91564727
54	0x3f4d4099	0.80176693
55	0x3f26d721	0.6517201
56	0x3f7e3512	0.9929973
57	0x3f849bde	1.0360067
58	0x3f3b79f6	0.7323297
59	0x3f31dce8	0.694777
60	0x3f3daa33	0.7408783
61	0x3f5e909b	0.869394
62	0x3fa9997f	1.3249968
63	0x3f0f7de4	0.5605147

emb_func.layer2.1.bias f4 [64]
0	0xbe27357a	-0.16328993
1	0x3d696acb	0.05698661
2	0x3e247235	0.16059192
3	0xbf518389	-0.8184133
4	0xbeff989b	-0.49921116
5	0xbd62b777	-0.055350747
6	0xbf44e63b	-0.76913804
7	0xbd884eda	-0.06655665
8	0xbecb5a78	-0.3971746
9	0xbee69d03	-0.45041665
10	0xbed0fb05	-0.40816513
11	0xbe1b49d5	-0.15164883
12	0x3df597a9	0.119918175
13	0xbe99857f	-0.29984662
14	0xbe4e79fd	-0.20163722
15	0xbf3a6ed0	-0.72825336
16	0xbee03dd4	-0.4379717
17	0x3cf98640	0.030459523
18	0xbeade0a8	-0.33960462
19	0xbec69dad	-0.38792172
20	0xbf371758	-0.71519995
21	0xbf10d9bc	-0.56582236
22	0xbe24b38d	-0.16084118
23	0xbeafef5a	-0.34362298
24	0xbf21cec5	-0.6320613
25	0xbf25b28c	-0.64725566
26	0xbea8f250	-0.3299737
27	0xbf0c225b	-0.5473992
28	0xbed39fcf	-0.41332862
29	0xbe5e270b	-0.21694581
30	0xbf0fd95c	-0.5619104
31	0xbe8f0fd5	-0.27941766
32	0xbe25f401	-0.16206361
33	0xbeddb9b4	-0.43305743
34	0xbcfc9d81	-0.030836822
35	0xbdc661c0	-0.09686613
36	0xbf1673df	-0.58770555
37	0xbf1ca45c	-0.6118829
38	0xbf4ad40d	-0.79229814
39	0xbe5faa60	-0.21842337
40	0xbe884a61	-0.26619247
41	0xbe3fe6ea	-0.1874043
42	0xbe9da6ec	-0.30791414
43	0xbe12c321	-0.14332248
44	0xbe024de8	-0.12725031
45	0xbbaf3907	-0.0053473744
46	0xbeab39e6	-0.3344261
47	0xbdacfee1	-0.08447052
48	0xbedcde91	-0.43138555
49	0xbe73cf08	-0.23809445
50	0xbdd1ce01	-0.1024437
51	0xbf06cdf5	-0.52658015
52	0xbf2faba6	-0.6862129
53	0xbf09062e	-0.53525054
54	0xbe8af2d1	-0.2713838
55	0x3e4eca39	0.2019433
56	0xbee71c28	-0.4513867
57	0xbef46474	-0.4773289
58	0xbe869f81	-0.26293567
59	0xbe71ebd5	-0.23625119
60	0xbe46126c	-0.19342965
61	0x3e64057a	0.22267714
62	0xbe89e193	-0.26929912
63	0xbebccb8f	-0.36874053

emb_func.layer2.1.running_mean f4 [64]
0	0xc0ad113e	-5.4083548
1	0xc02f472c	-2.738719
2	0xc0e7afe8	-7.240223
3	0x40861386	4.189883
4	0xc0051285	-2.0792553
5	0xbf876c3d	-1.0579907
6	0xc08871d7	-4.2638965
7	0xc0185065	-2.379907
8	0xc0c14d93	-6.0407195
9	0xbf6f4248	-0.9346051
10	0xc0fc6b01	-7.888062
11	0xbed2b575	-0.41154066
12	0xc0289c75	-2.6345494
13	0xc0f04ad9	-7.5091367
14	0xc08cf8a6	-4.4053526
15	0xc05b48f4	-3.4263277
16	0xbff8df90	-1.9443226
17	0xc0cb90d5	-6.3614297
18	0xc0bbe404	-5.871584
19	0xbfbeb013	-1.4897484
20	0xc00afb53	-2.1715896
21	0xc0bf7aec	-5.983755
22	0x3f61307e	0.8796462
23	0xc0af2ffd	-5.474608
24	0xc1155c0a	-9.33497
25	0xbffee9a5	-1.9915053
26	0xc0a92a0f	-5.286384
27	0x3ea4fc81	0.32223895
28	0xc07206c6	-3.7816634
29	0xc09eadc1	-4.95871
30	0xc0ca7b85	-6.327578
31	0xc0add052	-5.4316797
32	0xc09530c3	-4.6622024
33	0xbfe9b0b3	-1.8257049
34	0xbf63548d	-0.8880089
35	0xbff89dd5	-1.9423167
36	0xc0d97eb8	-6.7967186
37	0xc0e68e6f	-7.204887
38	0x40402920	3.00251
39	0xc0d5dcc4	-6.683199
40	0xc06de551	-3.7171214
41	0xc0165be7	-2.3493593
42	0xc1141f35	-9.257619
43	0xc0a77a22	-5.233659
44	0xbf3b2bb8	-0.73113585
45	0x3fd44270	1.6582775
46	0xc0d810af	-6.7520366
47	0xc020cea6	-2.5126128
48	0xc08b0f4d	-4.345618
49	0xbeac9104	-0.33704388
50	0xc010bc6e	-2.2615008
51	0xc051aef2	-3.2763028
52	0xc0cd3e55	-6.413859
53	0xc106219c	-8.383205
54	0xbf4ebbb4	-0.8075516
55	0xc09bc378	-4.867611
56	0xc0de8f47	-6.95499
57	0xc095b30a	-4.6781054
58	0xc05b2831	-3.424328
59	0xbf8d5043	-1.1040119
60	0xbfaa4168	-1.330121
61	0xc0b0d314	-5.5257664
62	0xc0a37d88	-5.1090736
63	0x4082a6e9	4.082875

emb_func.layer2.1.running_var f4 [64]
0	0x41ffcd3e	31.975216
1	0x41b3e9f2	22.489231
2	0x416bf1c2	14.746523
3	0x41058056	8.343832
4	0x414c844b	12.782298
5	0x41322cda	11.13595
6	0x41dbcf11	27.476107
7	0x419df753	19.745764
8	0x418b92b6	17.446636
9	0x4167e9a5	14.494542
10	0x419471d4	18.55558
11	0x40e16af7	7.044307
12	0x419cbf7a	19.593494
13	0x41a33057	20.398603
14	0x41fdd808	31.730484
15	0x41045671	8.271104
16	0x403b2aed	2.924495
17	0x412e3085	10.886846
18	0x410c10d0	8.754105
19	0x40f38054	7.609415
20	0x40ff1fdc	7.972639
21	0x41959802	18.699223
22	0x416d98b8	14.849785
23	0x419a27fe	19.269527
24	0x41a81e09	21.014666
25	0x40dc34b5	6.881434
26	0x41f4dbed	30.607386
27	0x40a4687a	5.1377535
28	0x41e98cda	29.193775
29	0x412f74d4	10.9660225
30	0x417768dd	15.463101
31	0x4123c7bf	10.236266
32	0x418256c2	16.292362
33	0x409d632d	4.9183564
34	0x416a6b9f	14.651275
35	0x40ff2902	7.973756
36	0x4211cd6f	36.45062
37	0x4217282f	37.78924
38	0x4116e46d	9.430768
39	0x41e93482	29.150639
40	0x41d715e4	26.885689
41	0x40f0e17e	7.527526
42	0x41a5985a	20.69939
43	0x41bf282b	23.894613
44	0x4138e215	11.555196
45	0x41548f98	13.285057
46	0x4125946a	10.348734
47	0x426b7cba	58.871803
48	0x4112eda5	9.183019
49	0x40e1d3aa	7.057088
50	0x4124fa35	10.311086
51	0x420787e4	33.882706
52	0x413cb4b6	11.794119
53	0x417f5891	15.959123
54	0x4166abe8	14.416969
55	0x4105e4fd	8.368405
56	0x417ce480	15.805786
57	0x41ed4011	29.656282
58	0x411fb849	9.9824915
59	0x411b2872	9.697374
60	0x4104a757	8.290854
61	0x41a6e90a	20.863789
62	0x42104e67	36.076565
63	0x40f4e8ce	7.6534185

emb_func.layer3.0.weight f4 [64, 64, 3, 3]
0	0x3de1ce00	0.110256195
1	0x3dd05b15	0.101736225
2	0x3c49318f	0.012279882
3	0x3e6b8e4a	0.23003498
4	0x3e2e0fdb	0.16998236
5	0x3e19c15f	0.15015171
6	0x3e038018	0.12841833
7	0x3e7a3b21	0.24436618
8	0x3e59326c	0.2121064
9	0x3e0f3316	0.13984331
10	0x3dc2765d	0.09495232
11	0x3de30806	0.11085515
12	0xbd47a1ba	-0.04873822
13	0x3cc92429	0.024553375
14	0xbc2bbeb7	-0.010482482
15	0xbdb8fa79	-0.09032149
16	0xbcafbb6b	-0.021451673
17	0xbdbfc47b	-0.093636476
18	0xbd65c02b	-0.05609147
19	0xbd8eb506	-0.06968121
20	0xbdc86e43	-0.09786656
21	0xbcae221d	-0.0212565
22	0xbb7abf29	-0.0038260913
23	0xbc968936	-0.018375974
24	0x3d43a014	0.047760084
25	0x3d293e86	0.041319393
26	0x3ca5251b	0.020159295
27	0x3d249ec6	0.04019048
28	0x3cdbfdb4	0.026854374
29	0x3d04f8da	0.032463886
30	0x3c7400f1	0.014892803
31	0xbcd0b4ba	-0.025476802
32	0xbbce17fe	-0.006289481
33	0xbd6c3447	-0.057667043
34	0xbd1de7d4	-0.038551167
35	0xbb958450	-0.004562892
36	0x3dd6cff8	0.10488886
37	0x3d6a233d	0.057162512
38	0x3e0df1fc	0.13861841
39	0x3c086862	0.008325668
40	0x3bd106ff	0.006379008
41	0xbbff86a6	-0.0077980338
42	0xbddda364	-0.1082218
43	0xbd08c44f	-0.03339034
44	0xbcbbbaa3	-0.022916144
45	0x3dac114e	0.08401738
46	0x3d5537ab	0.052055042
47	0x3ce8275b	0.028339079
48	0x3dbfea7d	0.09370897
49	0xbd77a4a0	-0.060459733
50	0xbde6d9e6	-0.112720296
51	0x3e1e7c71	0.15477158
52	0xbd01cb56	-0.031688057
53	0xbdf2714e	-0.118380174
54	0xbc6f01ef	-0.014587863
55	0x3a9ff092	0.0012202433
56	0x3d46da44	0.048547998
57	0xbd2cb611	-0.04216582
58	0xbcc32b8c	-0.023824476
59	0xbccf490c	-0.025303386
60	0xbd94fd79	-0.072749086
61	0xbd94cdb2	-0.07265796
62	0xbbb9cef9	-0.005670425
63	0x3d785e16	0.060636602
64	0x3b0b3fe6	0.0021247803
65	0xbc43acb0	-0.011943027
66	0xbb826154	-0.0039788876
67	0x3d8793ed	0.066200115
68	0x3cb3737b	0.021905651
69	0xbcd25af8	-0.025678143
70	0xbd3ea035	-0.046539504
71	0xbd490f54	-0.049086884
72	0xbd9e9f33	-0.077452086
73	0xbdb76429	-0.08954651
74	0xbe1b3b88	-0.15159428
75	0xbdcf38ef	-0.10118281
76	0xbd9ac35d	-0.07556794
77	0xbdf1353b	-0.11777731
78	0xbdd63dfb	-0.104610406
79	0xbdd62af4	-0.104574114
80	0xbda5c2d0	-0.08093798
81	0xbb0feeda	-0.0021962435
82	0xbdb07b53	-0.08617272
83	0xbd329638	-0.04360029
84	0x3d510b65	0.051036257
85	0xbd4daf8a	-0.050216235
86	0xbde29dd5	-0.1106526
87	0xbdb119f9	-0.08647532
88	0xbdafef79	-0.08590598
89	0xbcf4dd73	-0.029890751
90	0xbcd7635a	-0.026292492
91	0xbc1ae8f3	-0.0094549535
92	0xbd3d05b3	-0.046148013
93	0xbd00aecc	-0.0314167
94	0xbb298437	-0.002586616
95	0xbc88acfd	-0.01668405
96	0xbd1c4af3	-0.038157415
97	0xbc2cded7	-0.010551176
98	0x39a9b125	0.00032366175
99	0x3da19099	0.07888908
100	0x3d099bd2	0.033595867
101	0x3cee804d	0.029113913
102	0xbb88b9d9	-0.0041725454
103	0x3d095fd7	0.033538666
104	0x3d4a1f00	0.04934597
105	0xbd7d74dc	-0.061879024
106	0xbd2e5bc4	-0.042567983
107	0x3bfa67bc	0.0076417606
108	0xbd2810d2	-0.041031666
109	0x3c926708	0.017871395
110	0xbb9906e5	-0.0046700113
111	0xbb9bff77	-0.0047606784
112	0xbd28fd00	-0.041256905
113	0xbe0c0f3d	-0.13677688
114	0x3ceaa9ca	0.028645415
115	0x3ca7469f	0.020419417
116	0xbd677af0	-0.056513727
117	0xbd7809a5	-0.060556073
118	0xbd807049	-0.06271417
119	0xbdf2d723	-0.1185744
120	0xbd587cef	-0.05285352
121	0x3c9caf42	0.019126538
122	0x3ca78811	0.020450624
123	0x3e80aa2d	0.25129834
124	0x3e647b2b	0.2231261
125	0x3e506e2a	0.20354524
126	0xbdaad450	-0.08341277
127	0xbdc8a409	-0.09796912
128	0x3d8c6f58	0.06857175
129	0x3be1e2d0	0.0068934932
130	0x3d38ddf4	0.045133546
131	0x3d876bb3	0.06612339
132	0xbc916fc9	-0.017753499
133	0xbc3a1401	-0.011357308
134	0x3ba2637a	0.004955706
135	0x3d8f448c	0.06995496
136	0x3d67ecb4	0.056622222
137	0x3cc6c509	0.024263876
138	0xbb64fa70	-0.0034939311
139	0x3ccc8f01	0.024970533
140	0x3d1a526f	0.03767627
141	0xbc820398	-0.015870854
142	0xbab25685	-0.0013606107
143	0x3b613ec8	0.0034369696
144	0x3ca5d9ff	0.02024555
145	0xbc0d9f82	-0.008643987
146	0xbcd9efd5	-0.026603619
147	0x3cf0855b	0.029360464
148	0xbc86b4bb	-0.0164436
149	0x3c15d0c7	0.009144015
150	0x3d71d45e	0.05904042
151	0xbbb24165	-0.0054399245
152	0x3c855361	0.01627511
153	0xbd045103	-0.03230382
154	0xbcd85fd1	-0.026412876
155	0xbde34b9e	-0.11098407
156	0xbd8a18a3	-0.0674298
157	0xbd3cffe7	-0.046142485
158	0xbd7fdc0c	-0.062465712
159	0x3d1f64f1	0.038914625
160	0x3cb47f79	0.02203344
161	0xbd1515f6	-0.036397897
162	0xbcc4ea94	-0.024037637
163	0xbb15f411	-0.002288107
164	0x38e7d874	0.00011055256
165	0xbcf86a76	-0.030324202
166	0xbc185931	-0.009298609
167	0xb94ef0e3	-0.00019735428
168	0x3b85aea1	0.0040796553
169	0xbcb512f6	-0.022103768
170	0xbcb3cfbb	-0.02194964
171	0xbd2b6a60	-0.041849494
172	0xbde8b084	-0.11361793
173	0xbe065e72	-0.13121966
174	0xbcc229c3	-0.023701554
175	0xbd15b6c5	-0.036551256
176	0xbda99973	-0.08281221
177	0x3a932ca3	0.0011228513
178	0xbc5499b3	-0.012976098
179	0xbc724c0b	-0.014788638
180	0xbcd11358	-0.02552192
181	0x3cad8ab7	0.021184308
182	0x3d36ebd9	0.044658516
183	0xbdc7bddb	-0.09753009
184	0xbd6cf996	-0.05785521
185	0xbd6bbf37	-0.057555404
186	0xbe107e9c	-0.14110798
187	0xbdb37fc9	-0.087646075
188	0xbe0b45e1	-0.13600875
189	0xbcd1a85c	-0.025592975
190	0xbc5bc31e	-0.013413219
191	0xbd2ba18a	-0.041902103
192	0x3d33091e	0.043709867
193	0x3d3b1efb	0.045683842
194	0x3cb46ab8	0.022023544
195	0xbda275e6	-0.079326436
196	0xbd837469	-0.06418688
197	0x3c6906ac	0.014222782
198	0x3dca085b	0.09864875
199	0x3d191d7f	0.037381645
200	0x3dbe05ce	0.09278451
201	0x3c8338e3	0.016018337
202	0xbd7130fa	-0.0588846
203	0xbd67ed89	-0.056623016
204	0x3cb7ea69	0.022450643
205	0xbc23dbfb	-0.010001178
206	0x3d0c7f3d	0.03430103
207	0xbcd9c627	-0.026583744
208	0xbd161113	-0.036637377
209	0x3ceaadc5	0.028647313
210	0x3c0fcfb7	0.00877755
211	0x3c941bb8	0.018079624
212	0x3d121e7b	0.0356736
213	0xbbfb395b	-0.0076667494
214	0xbd4b068e	-0.049566798
215	0xbd6bbe4d	-0.05755453
216	0x3d6a5fd0	0.05722028
217	0x3d954a24	0.07289532
218	0x3d668650	0.056280434
219	0x3d7a8774	0.061164334
220	0x3e05ab9f	0.1305375
221	0x3ded8579	0.115977235
222	0x3d96e85e	0.07368539
223	0x3d8eadcb	0.06966742
224	0x3d312cdf	0.043255683
225	0x3da8af75	0.08236591
226	0x3d4fd97d	0.050744522
227	0x3bd6db9e	0.006556942
228	0x3d32d9f5	0.04366489
229	0x3d9fe00b	0.07806405
230	0x3d520d96	0.051282488
231	0x3d2f78fd	0.042839993
232	0xbbe2f246	-0.006925854
233	0xbc972ec1	-0.018454911
234	0xbd8c68c9	-0.06855924
235	0xbe5e448b	-0.21705835
236	0xbe70882a	-0.23489442
237	0xbda94bbb	-0.082663976
238	0xbd6a6ef2	-0.057234712
239	0xbe59024f	-0.21192287
240	0x3cb250c7	0.021767033
241	0xbd178357	-0.03699049
242	0xbbd0b739	-0.006369498
243	0x3b8edae1	0.0043595885
244	0xbc888438	-0.01666461
245	0xbd4b2634	-0.04959698
246	0xbd847fd1	-0.064696915
247	0xbd720396	-0.05908545
248	0xbd8314ab	-0.064004265
249	0xbdb4d3a6	-0.08829431
250	0xbdae7645	-0.08518652
251	0xbdee76aa	-0.11643727
252	0xbe3a9e80	-0.18224525
253	0xbe36c2d3	-0.17847757
254	0xbe93f0aa	-0.2889455
255	0xbe7312f7	-0.23737703

emb_func.layer3.0.bias f4 [64]
0	0xbac8176e	-0.0015265772
1	0xb9b645aa	-0.0003476565
2	0xbc6a355f	-0.014294951
3	0xbc40f29a	-0.011776591
4	0xbc81d653	-0.015849268
5	0xb9d1ac30	-0.00039991876
6	0xbc5a3e63	-0.013320538
7	0x384b56f4	4.8479953e-05
8	0xbc07c072	-0.008285629
9	0xbbc50cdb	-0.0060134954
10	0x3c8ad625	0.016947815
11	0xbc811fbf	-0.015762208
12	0xbbfb9d17	-0.0076786387
13	0x3ab41421	0.0013738909
14	0xbbb50400	-0.0055241585
15	0x3be0813a	0.0068513425
16	0x3c8f43e7	0.017488433
17	0x3c19a0fe	0.009376762
18	0x3c17a9a5	0.009256755
19	0xbad62f7d	-0.0016341057
20	0xbb568e9a	-0.0032738806
21	0x3ba6064a	0.0050666677
22	0x3c2112c5	0.009831135
23	0x3c418f8a	0.011814008
24	0x3be21dc3	0.0069005205
25	0x3c1fcdee	0.009753687
26	0x3b86f043	0.004117997
27	0xb9aac86c	-0.00032574253
28	0xbb6c8d28	-0.0036094878
29	0xbc68952d	-0.0141957225
30	0xbc959b7f	-0.018262623
31	0xbc91347f	-0.017725227
32	0x3c6b4cf4	0.014361609
33	0x3b97d6e4	0.0046337713
34	0x3c89916e	0.01679298
35	0xbc63b6cd	-0.013898564
36	0x3c7ea9bb	0.015543397
37	0xbc93c7e9	-0.01803966
38	0xbb5cea1e	-0.003370888
39	0x3c079c57	0.00827702
40	0xbc8c2d8e	-0.017111566
41	0x3c491ff6	0.0122756865
42	0xbc8ac3b0	-0.016939014
43	0x3c47775d	0.0121744545
44	0x3c79e808	0.0152530745
45	0x3c671d60	0.014106125
46	0x39d73711	0.00041049023
47	0x3c306160	0.0107654035
48	0x3c0754ca	0.008259961
49	0x3c710060	0.014709562
50	0xbc8f2324	-0.017472811
51	0xbc90d17a	-0.017678011
52	0xbc496996	-0.01229324
53	0x3c860180	0.016358137
54	0x3bc825d1	0.0061080237
55	0xbabf9335	-0.0014616015
56	0xbb8b0d8d	-0.0042435587
57	0x3c446ea6	0.011989271
58	0x3c537a00	0.012907505
59	0xbc65627d	-0.014000532
60	0xbb382adf	-0.0028101725
61	0x3c4598e4	0.012060378
62	0xbc515fc5	-0.012779181
63	0x3c4bbf5c	0.01243576

emb_func.layer3.1.weight f4 [64]
0	0x3f6f47ea	0.9346911
1	0x3f9b5dbe	1.2137983
2	0x3f4d385d	0.8016413
3	0x3f0ecb90	0.5577936
4	0x3f705073	0.93872756
5	0x3f75f237	0.96072716
6	0x3f956e92	1.1674368
7	0x3fb7a7df	1.4348105
8	0x3f8f0723	1.1174053
9	0x3f421802	0.75817883
10	0x3f170bf4	0.59002614
11	0x3f296ea9	0.6618448
12	0x3f896c74	1.0736222
13	0x3f822680	1.0167999
14	0x3f95aa4b	1.1692594
15	0x3f5f401c	0.872072
16	0x3f83a7e7	1.0285615
17	0x3f75677f	0.9586105
18	0x3f42276a	0.7584139
19	0x3f6ba3a7	0.9204659
20	0x3f48cf69	0.7844148
21	0x3f47d7ff	0.7806396
22	0x3f4c5eb7	0.79832023
23	0x3f84dcf1	1.0379926
24	0x3f8ec7eb	1.115476
25	0x3f8681c2	1.0508349
26	0x3f30c498	0.6904998
27	0x3f40110b	0.75026006
28	0x3f2a6730	0.665637
29	0x3f3cf419	0.73809963
30	0x3f7023a9	0.93804413
31	0x3f919447	1.1373376
32	0x3f6855f0	0.9075613
33	0x3f4c3591	0.79769236
34	0x3f607b15	0.8768781
35	0x3f6a2784	0.91466546
36	0x3f8fe1c7	1.1240777
37	0x3f9095dd	1.1295735
38	0x3fb69752	1.4264929
39	0x3f6cd8f5	0.9251855
40	0x3f3e0493	0.7422573
41	0x3f9897a6	1.192128
42	0x3fc272ba	1.5191262
43	0x3f5748d4	0.840955
44	0x3f0bc032	0.5459014
45	0x3f5c8a97	0.8614897
46	0x3fb6b222	1.4273112
47	0x3fa258a5	1.2683302
48	0x3f7296ad	0.94761163
49	0x3f202198	0.6255126
50	0x3f2dd255	0.67899066
51	0x3f0d75bb	0.5525777
52	0x3f9d0f0c	1.2270217
53	0x3f6d6d53	0.9274494
54	0x3f95a492	1.1690848
55	0x3f55a6bd	0.8345755
56	0x3f0799bc	0.52968955
57	0x3fa09066	1.2544067
58	0x3f5eee0f	0.87082
59	0x3f75c821	0.960085
60	0x3f3a847d	0.7285841
61	0x3f446113	0.76710624
62	0x3f6bb533	0.92073363
63	0x3fa33a95	1.2752253

emb_func.layer3.1.bias f4 [64]
0	0xbee0dd37	-0.43918774
1	0xbf6c5ae0	-0.92326164
2	0xbeffe0e0	-0.49976254
3	0x3e0bcad6	0.13651595
4	0xbf1771ee	-0.5915822
5	0xbf13c2b5	-0.57718974
6	0xbf4cc6cc	-0.7999084
7	0xbf12cf8e	-0.57347953
8	0xbefaf7d9	-0.49017218
9	0xbe326711	-0.17422129
10	0xbf49dd85	-0.78853637
11	0x3d766211	0.060152117
12	0xbf2d972e	-0.67808807
13	0xbea00228	-0.31251645
14	0xbed3673d	-0.41289702
15	0xbe65026f	-0.2236421
16	0xbf627697	-0.88462204
17	0xbefddf43	-0.49584398
18	0xbf116b2c	-0.56804156
19	0xbe8e2004	-0.277588
20	0xbeaabaf8	-0.3334577
21	0xbefadced	-0.48996678
22	0xbf03adb0	-0.514369
23	0xbeaa9e87	-0.33324072
24	0xbf4c3a6a	-0.7977663
25	0xbf1e3be8	-0.6181016
26	0xbee88e14	-0.45420897
27	0xbdacbefb	-0.08434864
28	0xbe433ed2	-0.19066933
29	0xbf201440	-0.625309
30	0xbeb58430	-0.35452414
31	0xbf33bc9f	-0.7020969
32	0xbe881d47	-0.26584837
33	0xbf7abb96	-0.97942483
34	0xbeffcf04	-0.49962628
35	0xbe698df8	-0.22808063
36	0xbf095cdc	-0.5365732
37	0xbf401aea	-0.7504107
38	0xbf77ee55	-0.9684804
39	0xbea9e59b	-0.33182988
40	0xbe4c1a1b	-0.19931833
41	0xbf210935	-0.62904674
42	0xbf0a941a	-0.54132235
43	0xbf3bf44d	-0.7341965
44	0x3e46b11f	0.19403504
45	0xbebeea29	-0.37288025
46	0xbf4676ac	-0.7752483
47	0xbe22ca8a	-0.15897575
48	0xbf225170	-0.63405514
49	0xbe40ee42	-0.18840888
50	0xbf06bdc6	-0.5263332
51	0xbeebc513	-0.46048793
52	0xbf1b9aa7	-0.60782856
53	0xbed24053	-0.410647
54	0xbf32d2da	-0.69852984
55	0xbd888b80	-0.066672325
56	0xbeb26f73	-0.34850654
57	0xbead44af	-0.33841464
58	0xbef1f4f5	-0.472572
59	0xbf34a667	-0.7056641
60	0xbd9424e0	-0.07233596
61	0xbe4a3f3c	-0.19750684
62	0xbf341786	-0.70348394
63	0xbf37d833	-0.7181427

emb_func.layer3.1.running_mean f4 [64]
0	0xc067cf52	-3.6220288
1	0xc028a137	-2.6348398
2	0xbf810b39	-1.008155
3	0xc09e9258	-4.955364
4	0xbff7cc75	-1.935927
5	0xc0608b0b	-3.5084865
6	0xc062f13e	-3.5459743
7	0xc09fd901	-4.9952397
8	0xc0afd054	-5.4941807
9	0xc0664cc4	-3.5984354
10	0x4031b8b0	2.7768974
11	0xc06d9f1d	-3.7128365
12	0xc025a11e	-2.5879588
13	0xc0bec125	-5.961077
14	0xc01eb131	-2.479565
15	0xc07fbbc8	-3.9958363
16	0xc0704a8d	-3.7545502
17	0xc08741f8	-4.226803
18	0xbf2f032c	-0.68364215
19	0xc055d7ab	-3.3412883
20	0xbfe4ae40	-1.7865677
21	0xbfe9ffa5	-1.8281142
22	0xbfe95ff8	-1.8232412
23	0xc07fa990	-3.9947243
24	0xc09b8c09	-4.860844
25	0xc02d030f	-2.7033117
26	0xc005ed72	-2.0926175
27	0xbfdbd3fb	-1.7174066
28	0xc040dca5	-3.013467
29	0xc0270192	-2.6094708
30	0xc06a1638	-3.6576061
31	0xc0b92a29	-5.7863965
32	0xc06546ab	-3.5824382
33	0xbeaeb263	-0.34120473
34	0x3f83f1d3	1.0308174
35	0xbfd4c557	-1.6622723
36	0xc0423cdc	-3.0349646
37	0xbf92f4c3	-1.1480945
38	0xc0881067	-4.2520022
39	0xc088304e	-4.2558966
40	0xc05a5b98	-3.4118404
41	0xc0056505	-2.0842907
42	0xc09e7263	-4.951463
43	0xc046934f	-3.102741
44	0xbf8b1d40	-1.0868301
45	0xc0443e6b	-3.0663097
46	0xc02aabde	-2.66674
47	0xc0ed6d2b	-7.419576
48	0xc007d81e	-2.1225657
49	0xc06d6259	-3.7091277
50	0xc08dba66	-4.4290037
51	0x40714665	3.7699215
52	0xc0852299	-4.1604733
53	0xbfa56c8f	-1.2923754
54	0xc02adb93	-2.6696517
55	0xc01de0e2	-2.4668508
56	0x3f7192c6	0.94364583
57	0xc0b67e56	-5.702922
58	0xbf40c665	-0.75302726
59	0xbf99e961	-1.2024347
60	0xc0250c58	-2.5788784
61	0xbff219a8	-1.891408
62	0xc0751f6b	-3.8300426
63	0xc04f9756	-3.2436118

emb_func.layer3.1.running_var f4 [64]
0	0x4116988b	9.412242
1	0x418746c2	16.90955
2	0x40869bd7	4.2065234
3	0x410fa93d	8.978818
4	0x413290d7	11.160361
5	0x4136998d	11.412488
6	0x4102966a	8.161722
7	0x41919683	18.198492
8	0x414799d4	12.475056
9	0x41191619	9.567895
10	0x402a3371	2.6593897
11	0x40d07b20	6.51503
12	0x4125de4d	10.366773
13	0x413d68d1	11.83809
14	0x413dbf85	11.859258
15	0x40f1739b	7.545362
16	0x40dbc4ab	6.8677573
17	0x40e34f76	7.10345
18	0x4087a51e	4.238906
19	0x40c105db	6.031965
20	0x40c74407	6.227054
21	0x40e0aab3	7.0208373
22	0x40826754	4.0751133
23	0x410366dc	8.212612
24	0x415e4260	13.891205
25	0x40bd8681	5.922669
26	0x408f3dcc	4.4762936
27	0x410d7a8d	8.84242
28	0x40b7783c	5.733427
29	0x40ce5a0a	6.448491
30	0x40df8881	6.985413
31	0x41a3c025	20.46882
32	0x40c6fe91	6.218575
33	0x40a9fb01	5.31189
34	0x40cf7574	6.4830875
35	0x4114adef	9.292464
36	0x4119d773	9.6151
37	0x4175a319	15.352319
38	0x41a154a2	20.166325
39	0x41373daf	11.452559
40	0x40de839e	6.9535666
41	0x413215f3	11.130359
42	0x41bdfc54	23.748207
43	0x40da7f04	6.828005
44	0x410a81a7	8.656653
45	0x40dae490	6.8404007
46	0x4188ae71	17.085176
47	0x41c6747d	24.806879
48	0x40f66a49	7.7004743
49	0x4065abb3	3.5886047
50	0x40a005ca	5.0007067
51	0x40859ebc	4.1756268
52	0x41baa02f	23.328215
53	0x40e23081	7.068421
54	0x415c4798	13.767479
55	0x4185fbeb	16.748007
56	0x3fd6cba3	1.6780895
57	0x4184eed4	16.616615
58	0x40b9feeb	5.812368
59	0x414d41e2	12.828585
60	0x40cae5af	6.3405375
61	0x40db3911	6.850716
62	0x4112a6f2	9.165758
63	0x415bbc13	13.733417
