results/RENet-dataset-Conv64F-5-1-Jan-08-2024-14-32-52/checkpoints/model_00090.pth (torch, 909453 bytes, 69 tensors)

emb_func.layer1.0.weight f4 [64, 3, 3, 3]
00000000: 9764 933e 4cf2 a7bd 3df7 7ebe 81f5 43bf
00000010: cdbe 23bf 26c4 d0bc 8f20 643e 9e63 2d3f
00000020: e048 243f 2f57 c83e 40fe 2dbe f3d1 97be
00000030: 3df3 80bf df63 61bf baa7 80bd 405f b43d
00000040: 78e8 313f bac1 3d3f ca50 153f b6d5 d83c
00000050: 94b4 0cbe dcd3 3ebf 11e9 2ebf cea8 b43d
00000060: 4a01 21bd 6a3b 0e3f 3813 233f 1248 38be
00000070: c791 03be 25e5 4dbe 4c0f 2fbe a36b bdbd
00000080: 5c3f 51be 3b8c 69bc 1cba 21bd 4069 93bd
00000090: c8ba 7bbd dad8 143d c8e2 70bd c29a 68bc
000000a0: 4914 383d 4c45 39bd 56fe c03d f822 8c3d
000000b0: 919f 343d 4515 d9bb 5cd9 a33d 4da7 bcbb
000000c0: fb55 013d 5bd4 e23d 1e3d 583d 203a 243e
000000d0: 1885 1c3e b8d0 e53d 03e9 263d 384a a8bd
000000e0: 5e14 97bd 3588 9bbe 9886 abbe c25d b7be
000000f0: 4be1 51be 187a 18be 416c 71be 3fa1 8c3e
00000100: 855b 633e b6d1 5d3e 021c 293d c4cd 2e3d
00000110: 6523 7b3b 9db8 31be 9700 2bbe e4b2 73be
00000120: 2af5 b53e 63ac a13e 12a9 a33e 3e7c 7d3e
00000130: 632d 653e 57c3 0e3e 4268 90bc 777d dcbb
00000140: 869b cdbd a0fb ce3e f4ce 213f 5575 133f
00000150: 4d5a 05bf fcfb f2be 68e0 70be 1641 fbbc
00000160: b9cd d2bd 92b3 3cbe b8e3 193f d363 5c3f
00000170: 1dc2 503f d76e 0bbf 7987 14bf 79fa 96be
00000180: 5441 58be b07f f0be 243c 02bf d822 133f
00000190: ac15 5c3f b00d 4e3f 1e0b c5be cd49 cbbe
000001a0: 8616 13be 5f4b 13be e7cf e9be f614 ebbe
000001b0: fc2a bb3e 6806 6c3d e852 89bd 3bb5 4c3f
000001c0: 10c3 88be 053f 9abe bd2f 423f dd0f efbe
000001d0: de78 f4be 437c 133e 77ae 82bd 52ba c7bd
000001e0: 0a81 253f 1bac d7be 0f72 e7be 8048 2b3f
000001f0: d0c8 1dbf de1f 0abf a5dd 693e 0762 993d
00000200: da89 d13d af17 1e3f 1b9d 95be f0b0 5fbe
00000210: 8182 263f 178f ecbe ff70 a1be 4f69 2fbe
00000220: a027 55be 3e08 99be 75a5 e43d 7036 ac3d
00000230: 68e3 523d a9ba b93e 25f1 db3e e8a3 ba3e
00000240: 141b 733d 23de 9fbc c4f1 d5bd 84a9 cabe
00000250: c8d4 0ebf faa4 1fbf d3e2 f2be 3bb9 03bf
00000260: 18e7 04bf aaf4 343f 216f 183f de42 dc3e
00000270: 33e6 8e3e 5571 9e3d 1ca7 6b3c b2be 3e3e
00000280: cec4 043e 31cb ab3d 2705 f4be b936 1ebf
00000290: f61d 84be 80d8 13bf 2152 46be 0f9c 773e
000002a0: c776 353e 9440 ec3e 92b3 163f 4844 6c3d
000002b0: faba c7bd 7094 473e 775c c4be 051c 213d
000002c0: 3f9e d43e 5631 813d 0512 b03e 21e0 b63e
000002d0: 6fba 143e 04f9 cebd 829e 0c3e f666 d5be
000002e0: 44c4 eebd 533b 403e 8009 97be cf11 bfbd
000002f0: 8173 bdbd 9758 fd3e f677 213f 0f29 2e3f
00000300: 085b bcbe 1a00 52be 4440 00bd 2a2c 18bf
00000310: d98c abbe 05bf d9bd a358 a33e 9d8e de3e
00000320: d6f4 d03e a4d6 ddbe 2865 acbe bacb 43be
00000330: 84bc 45bf 18b5 f4be d036 83be 79a3 d23e
00000340: 5246 f63e 4217 e33e 1b5d b7bd 5adc 843c
00000350: 2f54 243e 2c48 8abe 4e51 e1bc 727e 523e
00000360: f57c f1be bdce f5be 5bfb b0bd 5bab f5bc
00000370: d872 763c 1f2b f73d 758a bc3e 13e7 f03e
00000380: 7d92 b43e f333 b7be 796b bfbe 8512 c8bd
00000390: 83ec 1bbd ec63 0bbd 7017 22bc 5e23 843e
000003a0: 1b7c a23e 374b 373e 9308 88be 5722 86be
000003b0: 095e 02bd 9939 3c3c ab2e 773c 3eb8 9e3c
000003c0: 9ab4 473e 9c1c 7e3e da5a cd3d d364 babd
000003d0: c80f 58be 375e 43be 009e 3cbe b564 c2be
000003e0: 501a 6dbe bbf4 01be e59b 82be 3c48 cdbd
000003f0: b74e b03c a56a b0bd 312d edbc e903 df3c
0.2878768 -0.08200511 -0.24899001 -0.76546484 -0.63963014 -0.025484156 0.22278045 0.6773013
0.641737 0.39129016 -0.1699152 -0.29652366 -1.007423 -0.88043016 -0.06281991 0.0880723
0.69495344 0.7412373 0.583264 0.026469093 -0.1374076 -0.7454202 -0.6832438 0.088212594
-0.03930787 0.5555941 0.637012 -0.17996243 -0.12848578 -0.20106943 -0.17095679 -0.09249046
-0.20434326 -0.014254625 -0.03948413 -0.07197809 -0.061457425 0.03633962 -0.058810025 -0.014197053
0.04494122 -0.045232102 0.09423511 0.06842607 0.044097487 -0.00662485 0.080004424 -0.0057572485
0.031576138 0.1107566 0.05279266 0.16037798 0.15285146 0.112214506 0.04074956 -0.08217281
-0.073769316 -0.30377355 -0.33501124 -0.3581372 -0.20496099 -0.14890325 -0.23576452 0.2746677
0.2220288 0.2166203 0.041286476 0.042676702 0.0038320657 -0.1735558 -0.16699444 -0.2379871
0.35538608 0.31576833 0.31964928 0.24754426 0.22380595 0.13941704 -0.017627839 -0.0067288238
-0.10039429 0.4042635 0.6320641 0.5760091 -0.52090913 -0.47457874 -0.23523104 -0.030670684
-0.10293145 -0.18427876 0.60113096 0.8608982 0.81546193 -0.54466003 -0.58019215 -0.2948797
-0.2111867 -0.46972418 -0.5087302 0.5747504 0.8597057 0.80489635 -0.38485044 -0.39704743
-0.14364061 -0.1438422 -0.4566643 -0.4591443 0.36556232 0.057623297 -0.06705266 0.79964036
-0.2671132 -0.30126205 0.7585409 -0.4669179 -0.47748464 0.14402871 -0.06380933 -0.09752335
0.64650023 -0.42123494 -0.45204207 0.669075 -0.6163454 -0.53954875 0.22838457 0.074894
0.10231371 0.6175489 -0.29221424 -0.2184484 0.65042883 -0.4620292 -0.31531522 -0.17130016
-0.20815897 -0.298891 0.11164371 0.08408821 0.051486403 0.36275223 0.42957416 0.36453176
0.059351996 -0.019515103 -0.10446504 -0.39582455 -0.5579343 -0.6236111 -0.47438678 -0.51454514
-0.5191512 0.7068583 0.5954457 0.43019766 0.27910003 0.0773646 0.014383104 0.18627432
0.129657 0.08388365 -0.4766018 -0.6180225 -0.25804108 -0.5775223 -0.19367267 0.24180625
0.17721091 0.4614302 0.5886775 0.057682306 -0.0975246 0.19490218 -0.38351795 0.039333362
0.41526982 0.06308238 0.34388748 0.35717872 0.14524244 -0.1010609 0.13732341 -0.41680115
-0.116585284 0.1877263 -0.29499435 -0.093295686 -0.09250546 0.4948165 0.6307367 0.680314
-0.367882 -0.20507851 -0.03131129 -0.5944239 -0.33505896 -0.10632137 0.31903562 0.4346818
0.40811795 -0.4332782 -0.33670926 -0.19120684 -0.77240777 -0.47794414 -0.25627756 0.41140345
0.48100525 0.44353682 -0.08953305 0.016218353 0.16047738 -0.27008188 -0.02750459 0.20556048
-0.47165647 -0.4800929 -0.08641692 -0.029988935 0.015042029 0.120687716 0.36824384 0.47051296
0.35268012 -0.35781822 -0.37386683 -0.09769157 -0.038067352 -0.03403084 -0.009893283 0.25808233
0.3173531 0.17899786 -0.26569042 -0.26198074 -0.03182796 0.011488342 0.01508681 0.019374963
0.19502488 0.24815601 0.10027094 -0.09101262 -0.2109977 -0.19078909 -0.18419647 -0.37967458
-0.23154569 -0.12691014 -0.25509563 -0.10023543 0.02152191 -0.08614091 -0.028952213 0.027223544

emb_func.layer1.0.bias f4 [64]
00000000: 0747 013c 1a23 a8bc f665 833b 0e58 ac3c
00000010: 320f 8d3c 8526 b33c 767f 623c 167e 0abb
00000020: 067d da3b c1d4 2ebc ee92 b13c db7e 513c
00000030: 701e 99bc 0ce3 b43c 56aa c6b9 14d2 94ba
00000040: 8605 e5bb cbc8 dcbb 0391 a73a 6343 4cbc
00000050: e299 c2bc b785 57bc fe84 a6bb 4bfa 9d3c
00000060: ede6 993c 51b0 7abc 3e89 80ba 4184 f1bb
00000070: 7ed4 5fbc f425 93bb 162d 11bc 86dd 693c
00000080: d380 4fbc 1ebe 803b d71b 6cbc 0095 02bc
00000090: 41b0 a43c 3968 4dbc 0545 c9ba a0cc c73c
000000a0: 7d34 0f3c c9f7 54bc 8835 7bbc 52b9 12bc
000000b0: fe05 03bc 492b 363c e60a babb 4470 b03c
000000c0: 8c92 65bc 35d6 02bc 3f55 183c bf14 a73c
000000d0: 0d1f c83c 2fee 853b c516 8d3a d975 3bbc
000000e0: d067 6c3c 5b88 72bc 58f2 dbbb 78d9 aebc
000000f0: 641d c9bc 3bde 693c d766 e33a f5c4 a63c
0.007890469 -0.02052455 0.0040099574 0.021038081 0.01721916 0.021868953 0.013824334 -0.0021132282
0.006667736 -0.010670842 0.021676507 0.012786592 -0.018691272 0.02208092 -0.00037892413 -0.0011354112
-0.006989184 -0.0067378036 0.0012784306 -0.012467238 -0.023755018 -0.013154439 -0.005081772 0.019284388
0.018786872 -0.015300826 -0.0009806526 -0.007370502 -0.013661502 -0.0044906083 -0.008860847 0.014274007
-0.012664991 0.0039289137 -0.014410934 -0.007970095 0.020103576 -0.012537056 -0.0015355652 0.024389565
0.0087405415 -0.01299853 -0.015332587 -0.008955317 -0.007997034 0.011118718 -0.0056775687 0.021537907
-0.01401199 -0.007985641 0.009297668 0.020395635 0.024428869 0.0040872316 0.0010764232 -0.011441671
0.014429048 -0.0148030175 -0.0067122392 -0.021343932 -0.024550147 0.014274175 0.0017349374 0.020357588

emb_func.layer1.1.weight f4 [64]
00000000: 670f 3d3f 92e7 9f3e bd8d ca3e b884 373f
00000010: ac18 2e3f e689 273f 7500 143f fc13 013f
00000020: 5521 833f 1fba b73e 2e1d 293f ab78 dc3e
00000030: 26d9 4d3f 9191 c03e 2ba2 dc3e 9e10 6d3f
00000040: 3766 263e 3576 0b3f 1f45 ec3e fb02 3f3f
00000050: 9672 b33e b641 3a3e 16d9 4d3f 5662 023f
00000060: 47db f73e 3bd5 c13e 3ab4 533f ccd4 ff3d
00000070: 3e9c 583f f9dd d23e 87ba 9f3e ecc1 9b3e
00000080: 0f8f 553f 7390 083f 7889 803f 29d6 af3e
00000090: b618 c43d 8940 d93e 5582 963e 0870 ed3e
000000a0: 561a c33e f928 213f 62d8 993e 4e07 1b3e
000000b0: 21de 793c d9e2 0a3f 73b2 293f 4b7a ab3e
000000c0: c4fb ae3e 64b2 ac3e 1e41 393e 92e0 f33e
000000d0: d256 253f e8be 103f 1945 993e 334f 8c3e
000000e0: 98a1 9d3e 6d87 0f3f b19a cf3e a8e3 753e
000000f0: 40b0 303f 42aa c43e b68f 873e 462e f63e
0.7385163 0.31231362 0.39561263 0.7168689 0.68006396 0.6544479 0.578132 0.5042112
1.0244547 0.35884187 0.6606015 0.43060812 0.8040947 0.37611058 0.43092474 0.9260348
0.1624993 0.54477245 0.46146485 0.7461392 0.3504836 0.18189129 0.8040937 0.509313
0.48409483 0.37857994 0.8269688 0.1249176 0.84613407 0.41184977 0.31196997 0.30421388
0.83421415 0.5334541 1.0041952 0.3434308 0.09575026 0.4243205 0.2939631 0.46374536
0.3810603 0.62953144 0.300479 0.15139505 0.015250714 0.5425239 0.66287917 0.3349174
0.34176457 0.3372985 0.18091246 0.4763227 0.645856 0.565413 0.2993553 0.27404174
0.3078735 0.5606602 0.40547708 0.24012625 0.69018936 0.38411146 0.2647683 0.4808218

emb_func.layer1.1.bias f4 [64]
00000000: 3bec df3d c60b 42be 80ef 1b3d f9b6 103d
00000010: 92bd 3c3e 04d2 4abe 4ac4 453d b827 1b3f
00000020: 2412 9bbf 685d 993d 9e4b 3d3e 3a7d a7be
00000030: b023 86bf 9b85 babe 1afe b9be 2172 623e
00000040: f815 76be 11dc cdbc ed60 c43e 3848 4b3a
00000050: d62b 06be c7fd 0a3d 0c2a 493d 46fb 9c3e
00000060: 83d9 b2be 8044 9ebe d90a c23e 742b 27be
00000070: d5d9 4a3c 01c4 2abe 255b babe fcdd 9dbe
00000080: e0e7 a73d 8f9a 963e c0eb 64bd 16eb 8a3e
00000090: 3d41 dfbd 8182 123e 164e 8cbe 47d6 b63e
000000a0: 531c 45bd b3dc 8dbd 68c3 433d 4b10 d2bd
000000b0: 9548 4fbd bd45 7cbe 118f 0abf 739d de3e
000000c0: c71e 713d bfa6 32bd 767a 503d cef2 84be
000000d0: f5af f8be 65e7 833e c89d 78be 53fe afbe
000000e0: 0a17 eebb 6f54 393d 4676 e53d e956 94be
000000f0: c6a9 8e3e 1d17 ccbe 9aea 9fbe d75d b9bc
0.10933729 -0.18949804 0.038070202 0.035330746 0.1843169 -0.19806677 0.0482829 0.6060748
-1.2114911 0.07488519 0.18485877 -0.32712728 -1.0479641 -0.36430058 -0.36326677 0.22113849
-0.24031818 -0.02512935 0.38355199 0.0007754597 -0.1310266 0.033933427 0.049112365 0.30660456
-0.34931573 -0.30911636 0.378989 -0.1632517 0.012381037 -0.16676332 -0.36397663 -0.30833423
0.081985235 0.29414794 -0.05588889 0.2713248 -0.10901115 0.14307596 -0.27403325 0.35710356
-0.048122715 -0.06926861 0.047793776 -0.10257014 -0.05060633 -0.24635978 -0.5412455 0.434795
0.058867242 -0.043616053 0.050898038 -0.25966495 -0.48571745 0.25762478 -0.24278939 -0.3437372
-0.00726593 0.045246538 0.112041995 -0.28972557 0.27863902 -0.39861384 -0.31233674 -0.022627754

emb_func.layer1.1.running_mean f4 [64]
00000000: dfb9 b73c 246c 8dbe 557d c3be 60c8 ec3c
00000010: ca9d d33d 8189 2e3e be3f 09be f59a df3c
00000020: 99d3 953d 9ed1 d1be c4db 73bd 1213 7cbe
00000030: 87a1 843b ae34 3f3e ae81 263e ab47 443d
00000040: 6187 363a 8861 38bd 3f41 9dbd 4847 b0bd
00000050: e4d1 08be e704 4b3c 40c5 48bd 3420 86bd
00000060: accb 56be 01a5 7fbe 5fe5 313b fe30 f3bd
00000070: 1821 74bd 9afe 9abd 8e79 ce3b cd9d f73d
00000080: feff 94bd d8a5 bdbd 64f3 02bd fef6 0fbf
00000090: 3008 47bc 61f7 09be 8cab c0bc 27e6 0e3e
000000a0: 5338 d0bc 57a7 893c 0b74 1fbe eecf 81bc
000000b0: 1c03 8cbd 8fb1 e8be 20d3 dfbe d6e4 313c
000000c0: 2622 df3e 07e8 9ebe c0ab 053e 8c8e 3ebc
000000d0: 94de 1b3c a22e a5bd 5945 66be d270 083c
000000e0: 79e1 05be d596 093d e278 69be 0aa7 f5bc
000000f0: 6180 babd 8ef3 c2bd cbeb b63a 20bb 11bf
0.022427497 -0.27621567 -0.38181558 0.02890414 0.1033283 0.17044641 -0.13403222 0.027295569
0.0731575 -0.40980238 -0.059535757 -0.2461665 0.004047576 0.1867244 0.16260406 0.04791991
0.0006962922 -0.045014888 -0.0767846 -0.08607346 -0.13361317 0.0123913055 -0.049016237 -0.06549111
-0.20976132 -0.24965288 0.0027144772 -0.11874579 -0.059601873 -0.07568093 0.0063011115 0.12090645
-0.07275389 -0.09260148 -0.031970397 -0.56236255 -0.012147948 -0.13473274 -0.0235193 0.13954984
-0.025417482 0.016803427 -0.1557161 -0.015846219 -0.068365306 -0.45447966 -0.43715763 0.010857781
0.4358074 -0.31036398 0.13053799 -0.0116306655 0.009513516 -0.08065535 -0.22487392 0.00832768
-0.13074292 0.03359111 -0.2280002 -0.029986877 -0.091065176 -0.095191106 0.001395577 -0.56926155

emb_func.layer1.1.running_var f4 [64]
00000000: b036 0940 eb0f ff3e ef25 bc3f c967 9140
00000010: 0e0c 3a40 144f 383f e1cd 943f e292 4940
00000020: f54d b33f 7dcb b73f 7de6 3a40 7bcf 1b3f
00000030: 37c6 3c3f 9564 2a3f e5d2 183f ec69 9440
00000040: 0733 833d b68c cc3f c92a 1e40 ccf4 853f
00000050: 7221 bc3e b903 833e 75c7 0c40 04d6 a33f
00000060: 5f37 c73e fff8 df3e b6be d940 c13a d83d
00000070: e986 7140 b390 a23e 4468 8c3d 08db ce3e
00000080: a505 bc40 8a5d 6b40 5550 4140 e8ff df3f
00000090: 0754 863d ebe1 6d3f 90ac 2e3e afa4 d43f
000000a0: bed0 803e 5b32 133f a71e 803f cea5 9e3d
000000b0: b255 903e 5043 0340 29bb b93f 56c2 e33f
000000c0: f392 c63f a5d5 293f e68e 0d3f 3638 fd3e
000000d0: ca3a be3f 81ed 0240 29a9 bd3e 32c1 033e
000000e0: 62c3 e33e 1913 ad3f 807e 6c3f 5143 6e3d
000000f0: 8306 8240 5266 6c3e b7d3 2a3d 8b52 0e40
2.1439629 0.49816832 1.4699076 4.543919 2.9069858 0.71995664 1.1625329 3.14959
1.4008166 1.4358975 2.920318 0.60863465 0.7373995 0.66559726 0.596968 4.63793
0.06406217 1.5980442 2.4713614 1.0465331 0.36744267 0.25588778 2.199674 1.2799687
0.38909432 0.43744656 6.80453 0.105580814 3.7738593 0.31751022 0.068558246 0.40401483
5.875689 3.6775842 3.020528 1.7499971 0.06558996 0.9292285 0.17058015 1.6612757
0.25159258 0.5749871 1.0009354 0.077464685 0.2819038 2.0509834 1.4510242 1.7793682
1.5513595 0.6634162 0.5529617 0.49456948 1.4861691 2.045746 0.3704312 0.12866667
0.44485003 1.3521453 0.92380524 0.058169667 4.063295 0.23085907 0.041705813 2.223788

emb_func.layer2.0.weight f4 [64, 64, 3, 3]
00000000: fa2a 6f3e 037f 6f3e 984b d4bd da89 f6bd
00000010: f175 eb3b 1939 083e 1e79 8c3d f5c6 213e
00000020: d1a5 e13d 3352 8d3d 5d5d c33d 9da6 9f3d
00000030: 2e01 eb3c cb4a e33c ed6e 13bc 8380 73bd
00000040: 2185 96bd 3ee7 a0bd 2b43 133e c83c 373e
00000050: 3d93 173e 3955 5b3d b6f4 b63d bc24 793d
00000060: 6387 5ebe 96df 74be 2086 86be f94f 5dbd
00000070: 7212 c939 2b2b 76bd 4db2 a33d 6830 403e
00000080: e02a 5a3c b022 dabd bd64 f4bd 8194 37be
00000090: 9637 223e 290b fb3d c03c b03d 1c2e 5dbc
000000a0: ee7e 18bc a392 2d3c a9ce 33be 098f 87be
000000b0: 0105 12be 0244 043e ce68 363d b394 cc3b
000000c0: 3b8f f73d dfb8 263e 603f cc3d 07b5 ed3d
000000d0: 69d8 673d b88f e23c eec2 da3d 1d88 b33d
000000e0: 5268 143a 0034 a7bb 3dc1 523c 7e87 033e
000000f0: 8cd0 96bd fe66 74bd 4fe2 ebbc a485 373d
00000100: 16db 603d a3d5 46bc 0b12 10bc 9c16 9e3d
00000110: bbdc 3dbd 11a6 81be 5c44 47be ff76 93be
00000120: bb4c 0dbe 360a 12be 6b32 e4bd 732a 18be
00000130: c9f1 3ebe 28e2 43be 0e0d bb3c 20cd 033d
00000140: 6a23 91bd 468c 6d3e 5e37 763e 5267 603e
00000150: 9b63 b13d 43fe 9a3d 609b 813d 993e 3ebe
00000160: b52f 54be 69b8 70be 3e29 8e3d bc6b 033e
00000170: 27d0 063e 8562 e63c 10cb e93c eaf6 3dbd
00000180: 933a 2fbe e2b1 4bbe 245f 38be e9a3 773d
00000190: aa3f d13d c556 be3d 3907 8c3c 08f9 213c
000001a0: cfd9 b4bc 3cca 47bd 81ef 79bd 9438 81bd
000001b0: 2e14 a2bd a7a6 ebbc d540 cdbc 3836 e6bd
000001c0: f576 98bd d1f3 45bd ca01 3c3b 4cc0 c83a
000001d0: 2a4c 523c d420 4b3c c6ac 8d3c 2415 853c
000001e0: 3d62 433c 43ca 563b 0437 4e3c 6998 003d
000001f0: ec08 173d 5af5 f93c 7c7b 1ebd 6035 6bbc
00000200: 6703 29bc 6e0f fcbb 0d4e 2cbc 57d1 27bb
00000210: d038 ae3c bfe9 ee3c 2385 a93c 791a 063e
00000220: 312f 8d3c a3c2 fcbc 576b d93d 76af 14bd
00000230: 1648 34b9 5582 87be 5f0f 7abe dc39 23be
00000240: 4774 babc 1881 8cbb b76e e6bc a0fd 0dbc
00000250: 5c2e 0c3b 5720 003b beb8 8bbc 3d91 9bbc
00000260: f7d1 2dbc 0239 873d 8eb1 8e3d 6c5a b73d
00000270: 7976 d13c afe0 7fbd 84b9 cebd bf97 14be
00000280: 2cf0 47be eed0 05be 2611 213d 515b bb3d
00000290: ebc1 de3b 0ecb 763d 190d 563d b6d9 563c
000002a0: cb4e c23d c419 fc3d 5783 1fbd e055 603e
000002b0: 27a5 083e 6f26 b8bc f0be cbbd 99f6 f13d
000002c0: b6b9 1b3e f412 a4be 94a6 61be a9ab 47be
000002d0: 3616 b43d 49d2 b13d 49cb 533d 0d35 f1bb
000002e0: d405 fe3c 09dd 0c3d 8e49 87bd 2654 72bd
000002f0: 3a07 65bd 8a7f 89bd 985e 4dbd 277c 52bd
00000300: 4ff3 eebc d349 05bd b185 21bd 7572 2bbd
00000310: bc3b 13bd bca0 19bd 66c7 f13c a375 b03e
00000320: 5559 f73d f2c4 f23c 634d 393e cd2d aa3d
00000330: b706 9ebe d1aa 01be b5bd b5bd 3d85 263e
00000340: 7d08 bf3d 1222 d23c 37bf 48be 805e f2bd
00000350: e112 35bd 31e1 8cbe e94e 68be 4f8d 5bbe
00000360: 86b1 aa3d 6eaa a63d b573 943d e1a1 323c
00000370: bcd7 d5bc d87a a8bc 1aee 88bd 2ee6 d5bd
00000380: eeb5 e0bd 8c16 0fbd 9ac2 1fbd 158b 19bd
00000390: 1c31 eebc f679 bcbc d843 c4bc 80c4 fabb
000003a0: 3c6b 1dbb 7727 3bbc a697 d33d eb0b 0a3e
000003b0: fb09 c0bd 9700 e43d 4776 c53d daf6 c93d
000003c0: 86d6 573e da1b 8c3e dadd 323d 6b48 c6bb
000003d0: 1352 b33a 7f36 4bbc 6121 c8ba f3e8 48bc
000003e0: 8c28 47bc 717f 72bc cdb4 c1bb 2c5a 49bc
000003f0: e404 153e dfc5 803d fb34 843c 01e3 a6bc
0.23356238 0.23388295 -0.10365981 -0.12038012 0.0071856906 0.13303031 0.06859039 0.15798552
0.11017955 0.06900444 0.09539292 0.07795451 0.028687086 0.027745625 -0.008998615 -0.05944873
-0.07349611 -0.07856606 0.14381091 0.1789428 0.1480226 0.05354807 0.08933394 0.06082605
-0.21731333 -0.23913416 -0.26274204 -0.054031346 0.0003835145 -0.060099762 0.079929926 0.18768466
0.013315886 -0.10651147 -0.11933277 -0.17927743 0.15841517 0.12257988 0.08605337 -0.013499763
-0.009307606 0.010594043 -0.17559303 -0.26476315 -0.14259721 0.12916568 0.044533543 0.0062433123
0.12087866 0.1628146 0.09973025 0.11606794 0.05660287 0.027656421 0.10681711 0.08766196
0.0005661297 -0.0051026344 0.012863454 0.12844655 -0.07363996 -0.059668534 -0.028794436 0.044805184
0.054896437 -0.012135896 -0.008793364 0.07719156 -0.046353083 -0.2532201 -0.19459671 -0.28801724
-0.13798802 -0.14261708 -0.11142429 -0.14859943 -0.18646921 -0.1912924 0.022833373 0.032178044
-0.07086833 0.23198041 0.24044558 0.21914414 0.08661576 0.07568028 0.063284636 -0.18578567
-0.20721324 -0.23507847 0.0694146 0.12834066 0.13165341 0.02812315 0.02853921 -0.046378054
-0.17112188 -0.19892076 -0.18005043 0.06045905 0.10217221 0.09293894 0.017093288 0.009886034
-0.022076515 -0.04877685 -0.061019424 -0.063096195 -0.07914005 -0.02876599 -0.025055328 -0.1124081
-0.07444564 -0.048328225 0.002868759 0.0015316098 0.012835542 0.012397964 0.017294299 0.016245432
0.011925277 0.0032774366 0.012586359 0.03139535 0.036873743 0.0305125 -0.038691983 -0.014355987
-0.010315753 -0.007692269 -0.010516656 -0.0025606954 0.021267325 0.029164193 0.020693367 0.13096036
0.017234417 -0.030854529 0.106161766 -0.036300145 -0.00017192992 -0.26466623 -0.24419926 -0.1594004
-0.022760523 -0.00428785 -0.028128965 -0.008666426 0.0021389937 0.0019550526 -0.017055865 -0.018990153
-0.010609142 0.0660267 0.069674596 0.089527935 0.025569187 -0.062470134 -0.10093978 -0.14511012
-0.19525212 -0.13067982 0.039322995 0.091482766 0.006798019 0.06025224 0.052258585 0.01311343
0.09487685 0.12309602 -0.038943615 0.21907759 0.1334425 -0.022479264 -0.09948528 0.11814613
0.15207562 -0.3204571 -0.22036201 -0.19499077 0.08793299 0.08682687 0.05170754 -0.0073610605
0.031008638 0.034390483 -0.06605826 -0.05916228 -0.055915095 -0.06713779 -0.05013904 -0.051387932
-0.029168753 -0.032541107 -0.03943414 -0.0418572 -0.03594564 -0.037506804 0.029514026 0.3446475
0.120775856 0.029634926 0.18095927 0.08309517 -0.30864498 -0.12662818 -0.08874074 0.16261764
0.09327791 0.025651012 -0.19604193 -0.11834431 -0.044207457 -0.27515557 -0.22686352 -0.21440624
0.08334641 0.08137976 0.07248632 0.010902853 -0.026103847 -0.020566389 -0.06686039 -0.10444294
-0.109722 -0.03493361 -0.039003946 -0.037486155 -0.029076152 -0.023007374 -0.023958132 -0.007652819
-0.0024020215 -0.011422983 0.10331659 0.13481109 -0.093769036 0.11132925 0.096417 0.09861536
0.21077928 0.27365 0.043668605 -0.0060511134 0.0013681076 -0.01240313 -0.0015268737 -0.012262571
-0.012155663 -0.014800892 -0.0059114457 -0.012289565 0.14552647 0.06287741 0.016138544 -0.020371916

emb_func.layer2.0.bias f4 [64]
00000000: ddb5 56b9 7f0d 6d3b b91b aebb 667b e3ba
00000010: 5fbf 3b3b bde8 a3ba 5347 6a3b 736e f93a
00000020: 3a37 7a3a 8170 47ba 53fb aeba 0b81 96ba
00000030: 7679 01ba 1251 43bb 1a5d ceba 6b37 4e3b
00000040: 9426 7d3b b5d2 843a 6832 5e3a 3343 9bbb
00000050: e6d2 933a 5231 973b 06b2 1cbb e275 b4ba
00000060: 48d9 af3b d9e5 5a3a cedb 8d3b e194 c4ba
00000070: 9345 a3bb 4cd0 fa39 7a15 8cbb 040f 1cbb
00000080: 65b8 fb3a e183 a7bb bba9 443b 5155 a63b
00000090: 3ec1 a93b 7359 9dbb 678a b3bb 8543 11bb
000000a0: 438d e339 b378 31bb ee8e 7e3b 071a a53b
000000b0: 6a58 bf3a bbab 58ba 5d92 a5bb c249 5b3b
000000c0: c2ee 52ba 000c 783b 9458 0a3b be50 723a
000000d0: 3d47 86bb 1278 6a3b fbda 8a3a bce9 8d3b
000000e0: a8b7 883b 6cb3 3ebb afa0 8abb 34e2 aabb
000000f0: 44a7 f4ba 0588 f6ba a7a9 bc39 f3ba 3f3b
-0.0002047638 0.0036171374 -0.0053133634 -0.0017355501 0.0028648002 -0.0012505274 0.003574808 0.0019030109
0.00095449726 -0.0007608012 -0.0013350047 -0.001148255 -0.00049390586 -0.002980296 -0.0015744299 0.0031466137
0.003862773 0.0010133596 0.0008476139 -0.0047382354 0.0011278063 0.0046140337 -0.0023909821 -0.0013768042
0.005366478 0.000835029 0.0043291813 -0.0014997983 -0.004982659 0.0004783891 -0.004275021 -0.002381266
0.0019204734 -0.0051121567 0.0030008394 0.0050760885 0.005180507 -0.004801923 -0.0054791453 -0.002216549
0.00043402062 -0.002708 0.0038842517 0.005038503 0.0014598493 -0.0008265336 -0.0050528483 0.003346071
-0.0008046442 0.003784895 0.0021109926 0.0009243599 -0.0040978477 0.0035777134 0.0010593826 0.004330842
0.004172284 -0.0029098643 -0.0042305808 -0.005214954 -0.0018665572 -0.0018808848 0.00035984555 0.0029255718

emb_func.layer2.1.weight f4 [64]
00000000: f723 4b3f 6399 f93e d522 023f dd60 1b3f
00000010: 1be6 353f 56c8 473f 015e 863f 8864 243f
00000020: 6d90 803f 3ab8 393f a380 883f c0c0 4c3f
00000030: 37d1 2b3f 293b 733f efa3 283f 080d 4b3f
00000040: e79b 0c3f 127f 423f 69b2 473f 1730 633f
00000050: c131 653f df81 6f3f 1f42 053f 4f38 3d3f
00000060: 2f88 633f cb2f 583f 04e4 6c3f 88ab 2c3f
00000070: cf1f 683f 0f53 3e3f e20a 773f 3ee9 3a3f
00000080: 737c 533f 154d 383f b564 2c3f 9191 343f
00000090: 467e 663f e7cf 853f 2b5b 043f a46d 5a3f
000000a0: a8fb 4b3f 009c 1f3f 7880 553f b1a9 7b3f
000000b0: e2e8 343f a680 073f f764 1b3f 8746 e23e
000000c0: 75df 5b3f 05f6 133f f00f 043f ba64 4b3f
000000d0: 1de4 863f 768e 593f 94a8 423f 67cd 083f
000000e0: d4a7 633f c2a3 473f f93b 453f fba8 543f
000000f0: c9f8 243f 36ca 173f 9b29 5f3f c78f 043f
0.79351753 0.48749837 0.508344 0.60694677 0.7105424 0.78040063 1.0497438 0.642159
1.0044075 0.7254673 1.0664257 0.79981613 0.6711611 0.95012146 0.6587514 0.7931676
0.5492539 0.75975144 0.7800661 0.88745254 0.89529043 0.9355754 0.5205402 0.73914045
0.88879675 0.84447926 0.92535424 0.67449236 0.90673536 0.7434549 0.9650098 0.7301215
0.8261177 0.7199262 0.67341167 0.70534617 0.9003643 1.0454072 0.5170161 0.8532355
0.7968087 0.6234741 0.8339915 0.98305804 0.7066785 0.52930677 0.60700935 0.44194433
0.85887843 0.5779727 0.5158682 0.7945057 1.0538365 0.84983003 0.7603848 0.5343842
0.8892796 0.7798425 0.77044636 0.83070344 0.64442116 0.59292924 0.8717286 0.51781887

emb_func.layer2.1.bias f4 [64]
00000000: d08d 83be 236a a4bd ae20 ae3d 7961 58bf
00000010: a356 b8be 0e08 c7bd 50b0 1dbf 7c05 82be
00000020: 945d 08bf 3bf2 a8be 3f73 38bf bf64 94be
00000030: 22b4 e8bd f2d4 adbe 285f 2cbe d4c6 36bf
00000040: 83d0 d5be c5ac 2cbd 6a94 d3be b9df 1cbf
00000050: 2bc2 2bbf 53de ecbe 320a 4ebe c2de 51be
00000060: 9617 e8be 136d 1cbf ab98 e2be 6c06 e0be
00000070: d783 cfbe c784 80be b5b0 03bf 50e7 79be
00000080: c0ec f13c 2c0a 10bf bab0 b53c 0234 9bbe
00000090: 7947 c9be f598 0abf df61 ffbe 2df2 c7be
000000a0: be81 8bbe c01b 8fbe c1a2 e7be 83cb c5be
000000b0: cc3b d1bd 54e7 15bb 80b6 9cbe e2e0 95bc
000000c0: 7735 13bf f45c 59be c5c6 27be 294f b8be
000000d0: 3f01 3dbf 7488 0dbf 407e 9fbe a17b 3d3e
000000e0: 5e9a 08bf d055 a7be acd7 97be ecd4 febe
000000f0: d019 6bbe 8f60 3e3d 42cb b2be 840a f9be
-0.25694132 -0.080280565 0.08502327 -0.8452373 -0.360036 -0.09718333 -0.61597157 -0.2539481
-0.5326779 -0.32997307 -0.7205085 -0.28983113 -0.113624826 -0.33951527 -0.16833174 -0.7139714
-0.41760644 -0.042156953 -0.41324168 -0.61278874 -0.6709315 -0.4626337 -0.20121077 -0.20495132
-0.45330495 -0.61103934 -0.442571 -0.437549 -0.40530273 -0.251013 -0.5144151 -0.24404645
0.029531837 -0.5626552 0.022178996 -0.30313116 -0.39312342 -0.54139644 -0.49879357 -0.39051953
-0.27247423 -0.2795086 -0.4524136 -0.3863183 -0.102164835 -0.0022873478 -0.30607986 -0.018295709
-0.57503456 -0.21226865 -0.16384418 -0.35997894 -0.73830026 -0.55286336 -0.3115101 0.18504192
-0.53360546 -0.32682657 -0.29656732 -0.49771821 -0.22959065 0.046478804 -0.34920698 -0.48640835

emb_func.layer2.1.running_mean f4 [64]
00000000: b1cd f3bf 98d8 a3bf d657 6cc0 6441 223e
00000010: 071c ebbf 62dc acbf 5631 ecbf 0167 aebf
00000020: 7f0e 32c0 e6f4 49bf 7aca 9bc0 c9bf 0cc0
00000030: 9a80 f2bf 29a6 35c0 d72c 28c0 3923 bbbf
00000040: c2d9 9fbf a928 d5bf 4d84 f9bf c4f5 d6bf
00000050: 86c1 c5bf 490f 32c0 23e7 76be 10ff 2ac0
00000060: 7714 89c0 5077 98bf 3574 41c0 fa01 20bf
00000070: 2f28 48c0 8730 1dc0 df62 2ec0 ac31 3dc0
00000080: 53aa 24c0 e3ba 5bbf b54d 08bd 150d 33c0
00000090: 4c58 12c0 3288 71c0 6759 0e3f 4e37 30c0
000000a0: 0657 d6bf 1296 a9bf 9ed4 65c0 dceb 7cc0
000000b0: e134 4cbe 7ed8 9d3e 759f 48c0 e085 01bf
000000c0: 5991 20c0 8595 28be c6a8 15bf 55ff 16c0
000000d0: 07fa 78c0 aebf 84c0 e1f6 d4bf 6a5d f5bf
000000e0: 1a80 83c0 7143 02c0 a496 0fc0 124a 07c0
000000f0: b3b4 b0bf ea16 fcbf eaef 23c0 0a0c 1e40
-1.9047147 -1.2800474 -3.692861 0.15845257 -1.8367928 -1.3504755 -1.8452556 -1.3625184
-2.7821348 -0.7888931 -4.8684664 -2.1992056 -1.8945496 -2.8382666 -2.6277368 -1.4620124
-1.248833 -1.6653033 -1.94935 -1.6793752 -1.5449684 -2.782183 -0.24111609 -2.6718178
-4.283748 -1.1911411 -3.0227177 -0.62503016 -3.1274526 -2.4560869 -2.7247846 -2.9561567
-2.5728958 -0.8583204 -0.033277232 -2.7976735 -2.2866392 -3.7739377 0.5560517 -2.7533755
-1.6745307 -1.3248923 -3.5911021 -3.9518957 -0.19942047 0.30829233 -3.1347325 -0.505949
-2.5088713 -0.16463287 -0.5846065 -2.3593342 -3.8902605 -4.1483984 -1.6637841 -1.9169133
-4.1093874 -2.0353663 -2.2435694 -2.113896 -1.3805145 -1.9694493 -2.5615182 2.4694848

emb_func.layer2.1.running_var f4 [64]
00000000: c7c2 fc40 e7c7 9940 77d2 c840 546c 5640
00000010: 1a8e bf40 5d55 3541 1774 1141 3bb3 d840
00000020: a0db dd40 aa72 8e40 9dbf 1441 f669 c940
00000030: cdf8 f440 b127 de40 2a58 0f41 d854 7e40
00000040: bf7f e43f a0e2 5640 c530 1f40 9d7b a540
00000050: bc24 8040 d82c d540 e07e 8840 16cb 1341
00000060: 1eb5 1541 62eb 9540 d0c3 fc40 e8ae 2440
00000070: 9021 4641 ea3f c240 3a33 b140 969f b140
00000080: abc6 2341 c136 4640 906b ef40 cdf4 9440
00000090: 63c2 1c41 b32f 1b41 5b1d 1040 1f39 3541
000000a0: a042 2541 817e 7140 c8a1 b940 850d 0f41
000000b0: 5401 e040 6a08 ca40 7d62 6b40 164a 1041
000000c0: 9f96 9c40 b6db 6440 5157 1140 3014 0c41
000000d0: 6e94 c140 d61f bc40 00b8 f040 9b3e 5940
000000e0: 46a6 d340 b863 3c41 1d64 9b40 92dc dd40
000000f0: 8623 ed40 f469 0741 baa3 3141 e859 5c40
7.8987765 4.805652 6.2756915 3.3503618 5.9860964 11.333341 9.090842 6.7718787
6.9330597 4.451497 9.296781 6.2941847 7.655371 6.942345 8.959024 3.9739285
1.7851485 3.357582 2.4873517 5.1713395 4.004484 6.661724 4.2654877 9.237082
9.356718 4.6849833 7.898903 2.5731754 12.383194 6.070302 5.5375032 5.5507307
10.236003 3.097092 7.48188 4.654883 9.797458 9.699145 2.2517917 11.326446
10.328766 3.7733462 5.8009987 8.940801 7.000162 6.313527 3.6778862 9.018087
4.8933864 3.57591 2.2709544 8.754929 6.049369 5.878886 7.522461 3.3944461
6.614047 11.774345 4.855971 6.933175 7.4105864 8.463367 11.102472 3.4429874

emb_func.layer3.0.weight f4 [64, 64, 3, 3]
00000000: 66dd ea3c 1149 ab3d 4046 473d 5f6c d53d
00000010: d498 d43d 56e1 ec3d 8718 32bd f4cf 383d
00000020: d627 423e 602c 273e 2d23 3a3d a0f5 563d
00000030: c879 ba3c 3f5a c93b 3546 213c f9bd a5bc
00000040: 0d23 2fbd bc6a 0bbd 3cef f9bd 910b adbd
00000050: b5fd 18be a275 75bd 25cb cdbb 27e8 40bd
00000060: 66ec cebb c8fc 7b3d 128d a53c b38e 3a3d
00000070: fba8 113c 9488 403b 1cee 6fbd 2581 8dbd
00000080: 5e0e 7abd a200 0fbd 0b8d 12bd 2435 2abd
00000090: d8ee ac3c 9521 dc3d eb72 2b3e 10dd 24bd
000000a0: 3ce1 d63d 0192 5b3e 9215 62be 956c eebd
000000b0: 5ee8 67bc 893a 183d b4ff c23c 3f4f c13d
000000c0: db73 73bc eea5 7dbd 7791 45bc 0083 23be
000000d0: 0530 3fbe d127 99bd 30df 4ebd 9aa5 b93b
000000e0: 80b0 6e3d b025 283d a08f 01bd 5068 cbbd
000000f0: f5a8 903d 6d0e 243d 0aec 053d 9465 993d
00000100: dfb8 d03c 5807 49bd 10b6 b83c e944 88bc
00000110: 7b88 1dbd d685 1bbe f262 47be 3bf7 d6bd
00000120: b349 78bc b7cf 05bd aad2 a3bd afd7 f2bd
00000130: 80d8 acbd 2d9b 8dbd abc8 dcbd 1fc8 a8bd
00000140: 4188 a9bd b15b 813e ebd8 ee3d 1cbd 743d
00000150: dbc8 9f3d c372 f33c 0423 813c 56d9 11bc
00000160: b001 203a 394d 993d 0a00 88bd 4f37 63bc
00000170: e8d0 b0bc 92c8 cbbc f98c 833c cc88 b93c
00000180: 7d60 8abb 86b4 59ba 2b43 f8bc 763f a9bd
00000190: a76b f23c 7031 d93d a638 c9bd 1903 e13c
000001a0: 0dff 253e d55d 69be 7b4d eebd a087 57bd
000001b0: 5a12 19bd 3723 c83d af4a d33b 97af 3ebd
000001c0: 5793 63bd d031 7abe 763a 1d3d 6b32 84bd
000001d0: 763d 84be 1f46 2fbe 7b81 e6bd 66a7 27be
000001e0: f51f 9dbc 40b4 edba 83ff bebc 8a60 0f3e
000001f0: 77c3 b93d 87b7 e33d 5d95 48bd b6fb b2bb
00000200: 74a1 5dbb 7ab7 acbd f79a bfbd cb0e 893d
00000210: 2c51 b7bd a174 41bd f26d 9bbd b6e9 81bc
00000220: cbca 763c 495c 143d e2b8 b3bc a000 833d
00000230: f164 963d 0bf5 55bd f568 6b3c 949b 98ba
00000240: 22c6 1e3d 25c9 0938 4a33 273d daa0 12bc
00000250: 21f1 e3bb cde8 533b 9844 733d 3f10 203d
00000260: aa91 513d f503 f13c 5a21 85bc 7449 efbd
00000270: d995 293d 2464 23bd 9d56 f1bd 8bf2 183d
00000280: cfa6 58bc ab3e 1ebd 4e44 2dbd ad42 42bd
00000290: c97f 63bd 9ad7 2bbd dee1 3dbd 316e 87bd
000002a0: 5ee2 64bd d46d ddbc 6441 59bc 87b1 67be
000002b0: c94d 7cbe 51fc 2abe c6e6 6fbe 75ac 11be
000002c0: 1afc fcbd 97c6 b6bc c160 23bd 7a59 c0bc
000002d0: a24e 56ba 718f f23c 6a9a 403d 45dc 0cbe
000002e0: 84fa 09be 0fba dfbc b9af 51bd eca0 ecbd
000002f0: 4ff9 d3bd 6a6a f3bc 6ce6 6c3d 0a71 843b
00000300: e1aa 933d 76cb 4f3d 6147 e23b f16e 693d
00000310: d5fb 223d 22c8 d73b 4dfc 403e 5ae3 903c
00000320: a517 db3c 334d e43d d5c1 cfbb 4748 cdbd
00000330: 7fc1 013e 3f7c 763d be19 493b 0b7f 293d
00000340: 14a1 ac3d e6bc 5a3d fae1 053b e46e a03d
00000350: 95aa c63d dfd0 0dbd 6258 b1bb 1cfa c53c
00000360: f762 90bd 1c08 cd3c 8565 22ba 3d15 823d
00000370: c1d3 423d f35b a03b 4e75 a83d 4d1f 913d
00000380: ce42 d33c 9553 bb3c f693 ecbb 666b ae3c
00000390: 746c 333d b32c 0c3d 8971 95bb 5ea8 b93d
000003a0: 0b32 f1bc b209 0fbd fd60 1dbe 6ba7 0bbe
000003b0: fd3b efbd 1631 82bd b8ab 023e 73cd 323c
000003c0: 0521 163d d9dd 4c3e 9c11 a83d fda0 253d
000003d0: 2089 18bb adb0 4cbc eed2 94bd b96f bcbd
000003e0: dd7f 19be c5b6 5ebd 87ba 4dbd 0bf8 69bd
000003f0: 6da7 8dbe 411f 35be ce8f efbb 31c6 4bbe
0.028670024 0.08363546 0.04865098 0.10421061 0.10380712 0.11566417 -0.043480422 0.045120195
0.18960509 0.16325521 0.045443702 0.05248034 0.022763148 0.0061447914 0.009843399 -0.020232188
-0.042758036 -0.034037337 -0.122038335 -0.08449472 -0.14940532 -0.059926637 -0.00628032 -0.047096398
-0.006314802 0.061520368 0.02020887 0.045546245 0.008890386 0.0029378282 -0.05857669 -0.06909398
-0.061048858 -0.034912713 -0.03577904 -0.041554585 0.021109983 0.10748593 0.16743056 -0.040249884
0.10492179 0.21442415 -0.22078541 -0.11641804 -0.014154522 0.0371652 0.02380357 0.09438943
-0.014859165 -0.06192582 -0.012058607 -0.15967941 -0.18670662 -0.074782975 -0.050505817 0.005665493
0.058273792 0.041051567 -0.031631112 -0.099320054 0.07063476 0.04005282 0.032695808 0.074900776
0.025478778 -0.04907927 0.022547752 -0.016634421 -0.038460236 -0.15187773 -0.19471338 -0.10496374
-0.01515429 -0.032668795 -0.07999165 -0.11857545 -0.084397316 -0.06914363 -0.10780462 -0.08241295
-0.082779415 0.25265267 0.116624676 0.05975066 0.07801982 0.029717809 0.015763767 -0.008901915
0.0006103767 0.07485432 -0.066406325 -0.013868167 -0.02158399 -0.024875913 0.016058432 0.022648238
-0.004222928 -0.0008304793 -0.030305466 -0.08264057 0.029592348 0.106051326 -0.09825258 0.027467297
0.16210575 -0.227897 -0.11635872 -0.052619576 -0.037371017 0.09772342 0.006448112 -0.046554174
-0.055560436 -0.24433064 0.03838583 -0.06454929 -0.2582814 -0.17116593 -0.11255165 -0.16372451
-0.019180277 -0.0018135384 -0.023315197 0.1400167 0.09070485 0.111189894 -0.04897057 -0.005462135
-0.0033818157 -0.08433433 -0.09355729 0.06692275 -0.08951029 -0.047230367 -0.0758933 -0.015858512
0.015062998 0.036220822 -0.021938745 0.063966036 0.07343472 -0.052235644 0.014368285 -0.0011643046
0.038763173 3.2850676e-05 0.040820397 -0.008949483 -0.006956235 0.0032334805 0.059391588 0.039077993
0.051164307 0.029420832 -0.016251255 -0.11683932 0.04140267 -0.039890423 -0.11784098 0.037340682
-0.013223364 -0.038633984 -0.04230147 -0.04742687 -0.055541787 -0.04195366 -0.04635798 -0.06612814
-0.055879943 -0.02702991 -0.013260219 -0.22626315 -0.24639048 -0.16697814 -0.23427877 -0.14225943
-0.12352772 -0.022311492 -0.039887194 -0.023480166 -0.00081751694 0.029609414 0.04702226 -0.13755901
-0.1347447 -0.0273104 -0.051192973 -0.11554131 -0.10350286 -0.029713828 0.057836935 0.0040417956
0.07210327 0.050731145 0.0069054817 0.056990568 0.039790947 0.006585137 0.18846245 0.017686535
0.026744673 0.11147537 -0.0063402453 -0.100235514 0.12671469 0.060177084 0.003068551 0.041380923
0.08429161 0.053402804 0.0020428882 0.07833651 0.09700505 -0.034623023 -0.0054121474 0.024167113
-0.07050126 0.02502828 -0.0006194937 0.06351707 0.047565226 0.0048937737 0.08225499 0.07086048
0.02578869 0.022867003 -0.0072197868 0.021291446 0.0438046 0.034222316 -0.0045606536 0.090653166
-0.029442808 -0.034921356 -0.1536903 -0.13638084 -0.11681364 -0.06357019 0.12760818 0.010913241
0.036652584 0.20006503 0.08206484 0.040436734 -0.0023275092 -0.012493295 -0.07266794 -0.09200997
-0.14990182 -0.05437352 -0.050226714 -0.057121318 -0.27666798 -0.17687704 -0.007310844 -0.19899823

emb_func.layer3.0.bias f4 [64]
00000000: 5e1d efb9 ea8d d9b8 faf0 8bbb 6f92 66bb
00000010: 0728 9bbb 6aaf fab8 9f67 82bb be89 7337
00000020: 2d3b 22bb 2a78 ebba 84e9 a53b 4d4e 9abb
00000030: 4d57 16bb 1836 d739 e74f d8ba b824 063b
00000040: c234 ab3b a796 373b 7c3d 353b 74f5 ffb9
00000050: 4335 80ba 5469 c63a b57d 403b f54f 673b
00000060: bd1c 073b e7fa 3e3b c941 a13a 0e17 ccb8
00000070: 0759 8dba a5f7 8abb 3dc8 b2bb fa86 adbb
00000080: 5398 8c3b 4373 b53a 9c65 a43b 190f 88bb
00000090: 7729 983b d39a b0bb 8c01 84ba 220e 223b
000000a0: e283 a7bb 4c5b 703b 19d3 a5bb ac5e 6e3b
000000b0: 0752 953b fe18 8a3b b2a4 0039 77c6 523b
000000c0: 11ba 213b 4600 903b b70d abbb 630f adbb
000000d0: 54b1 70bb 6924 a03b 8f30 ef3a 72f1 e4b9
000000e0: 9b2c a6ba babc 6a3b 97ba 7c3b 560e 89bb
000000f0: 4c14 5cba b921 6c3b 1735 7abb 097d 733b
-0.00045607513 -0.000103738 -0.00427067 -0.0035182496 -0.0047349962 -0.000119536024 -0.0039796378 1.4515999e-05
-0.002475451 -0.0017964889 0.0050632376 -0.004709041 -0.002294022 0.000410483 -0.0016503305 0.0020468663
0.005224795 0.002801338 0.0027655056 -0.00048820267 -0.0009781498 0.0015137591 0.0029371802 0.003529546
0.0020616495 0.0029141249 0.0012302931 -9.731772e-05 -0.0010783979 -0.0042409473 -0.005455999 -0.0052956315
0.0042906194 0.0013843555 0.0050169956 -0.0041521904 0.004643615 -0.0053895502 -0.0010071262 0.0024727662
-0.005112157 0.003667551 -0.005060565 0.0036372347 0.0045568976 0.004214405 0.00012268385 0.0032161751
0.0024677555 0.004394564 -0.005220141 -0.0052813753 -0.003672679 0.004887153 0.0018248725 -0.0004366744
-0.0012678088 0.0035818056 0.0038563365 -0.004182617 -0.00083953585 0.0036030842 -0.0038178617 0.0037153384

emb_func.layer3.1.weight f4 [64]
00000000: c81b 6a3f 5ca8 743f 629b 6e3f d386 213f
00000010: 21a5 793f 1f2d 383f 291c 913f 7852 873f
00000020: 32d5 493f 7bca 323f 161c 3e3f 6a64 033f
00000030: 42d1 603f 1298 683f 49e4 5f3f 8fdd 4e3f
00000040: 16e5 7a3f 5eeb 753f 5108 423f d559 693f
00000050: f44e 4f3f a36a 693f b9b1 443f 9cf9 6a3f
00000060: 3f7b 5d3f 27df 843f 740e 403f accf 1d3f
00000070: 87c1 4e3f ff09 5e3f c9a5 513f 63b4 753f
00000080: e4ac 913f 204c 6c3f 9a96 4c3f 3ca2 703f
00000090: dca5 883f 8fef 493f ae6d 803f 52a5 3a3f
000000a0: a6f7 153f fdba 803f 14eb 8b3f a00f 773f
000000b0: d4e8 de3e 8866 5f3f f2f1 813f 46f1 6b3f
000000c0: 99a8 683f 2ffb 3e3f 786b 623f 0fae 1d3f
000000d0: 30f8 6f3f a3e1 513f 806d 713f 553f 413f
000000e0: 23f4 3a3f 9a9b 6b3f 7660 363f 080a 743f
000000f0: 1d25 373f 7ef9 473f 71bb 713f aaaa 593f
0.9144864 0.95569396 0.93205845 0.6309635 0.9751759 0.7194385 1.1336719 1.0572042
0.78840935 0.6984021 0.74261606 0.51325095 0.878193 0.9085704 0.8745771 0.8080682
0.9800581 0.96062267 0.7579394 0.911527 0.8097985 0.9117834 0.76833683 0.91787124
0.86516184 1.0380601 0.75022054 0.6164501 0.8076405 0.86734 0.81893593 0.95978373
1.1380887 0.9230366 0.799173 0.9399755 1.0675616 0.7888116 1.0033472 0.7290851
0.58581007 1.0057064 1.0931115 0.96508217 0.4353701 0.87265825 1.0151961 0.9216503
0.9088226 0.74602026 0.88445234 0.6159372 0.9373808 0.8198492 0.9430771 0.7548726
0.73028773 0.92034304 0.7124094 0.95327806 0.71541005 0.7811507 0.9442664 0.8502604

emb_func.layer3.1.bias f4 [64]
00000000: 373e 04bf 030e 12bf 01fe 5cbf 5a63 d6bc
00000010: 01d4 18bf 5c95 0cbf 06f3 56bf 5447 39bf
00000020: 7bf8 c5be 5741 90be 2e2d 32bf 8cb5 5c3d
00000030: d71a 1dbf 7aa2 bbbe debb 16bf 72e1 e5be
00000040: c673 82bf ea75 24bf b58b d1be d0e8 25bf
00000050: 3bbf fbbe 9eff 37bf 8d19 2abf d38a 1dbf
00000060: f598 09bf 8c42 4ebf ec26 01bf 6d9f 1fbe
00000070: 5214 ccbe 068b 65bf 8976 00bf 0fff 1dbf
00000080: d4df 11bf b491 68bf 344f 11bf 70cd 2fbf
00000090: c4c9 42bf 1eb0 f3be 6547 1dbf 7d0d d6be
000000a0: e9ac 30bd ad07 ffbe 5205 b0be a27d 5bbf
000000b0: e792 233e faec 13bf 87fd 2dbf 8326 77be
000000c0: b591 1fbf a1db 03bf dd57 2fbf c021 01bf
000000d0: e1f3 20bf 40b6 08bf 693a 46bf f0cd b5be
000000e0: 3d60 f0be 7155 02bf 5705 bfbe 37f7 34bf
000000f0: ebae 8abe 8aca cabe a3a0 4cbf c0b9 febe
-0.5165743 -0.5705263 -0.8632508 -0.026170421 -0.5969849 -0.54915404 -0.83964574 -0.72374463
-0.38666138 -0.2817485 -0.6960019 0.053884074 -0.6136908 -0.36647397 -0.5888041 -0.44898564
-1.0191581 -0.6424242 -0.409269 -0.6480837 -0.49169335 -0.71874416 -0.6644524 -0.61539954
-0.5374902 -0.8057029 -0.50450015 -0.1558816 -0.39859253 -0.8966526 -0.5018087 -0.61717314
-0.5698216 -0.90847325 -0.5676148 -0.6867285 -0.7608912 -0.47595304 -0.61437064 -0.41807166
-0.04313365 -0.49810544 -0.3437906 -0.85738575 0.15974008 -0.5778347 -0.6796498 -0.24135785
-0.62331706 -0.51507 -0.68493444 -0.50442123 -0.6287213 -0.5340309 -0.77432877 -0.3550868
-0.46948424 -0.50911623 -0.3730876 -0.7068972 -0.27086577 -0.3960765 -0.7993261 -0.4975109

emb_func.layer3.1.running_mean f4 [64]
00000000: de3f 1ac0 9998 dcbf 65be 81bf d094 74c0
00000010: 3a2b 1bc0 b721 11c0 333a 2bc0 12da 4ac0
00000020: 7977 18c0 9280 ddbf 77cf bb3f ecdc f9bf
00000030: d895 babf 0bbb 76c0 d951 f3bf edaa 11c0
00000040: a1a8 0dc0 5c20 56c0 3440 1ebf 9ddc 1cc0
00000050: 9cac dfbf 27c8 15c0 65b0 9abf 87c4 33c0
00000060: 927f 37c0 6f8b 49c0 d37f 92bf e562 17bf
00000070: 063e 21c0 d472 e1bf b273 dcbf c171 2ac0
00000080: b5ba 05c0 6f13 0f3e 33c1 9fbe facb b5bf
00000090: adb4 ffbf 2035 92bf b4af 0bc0 40d6 f9bf
000000a0: b550 3bc0 c607 eabf 117e 17c0 6997 dfbf
000000b0: 8112 babe a413 17c0 e042 1cc0 445a 61c0
000000c0: 6ea7 76bf 738f 11c0 d6b7 3ac0 afda 833f
000000d0: e512 1fc0 cf39 ccbf 3034 1bc0 5c95 b9bf
000000e0: 93b1 51bf 839e 0fc0 b11d cbbe f8eb 03c0
000000f0: 4446 1bc0 7db6 d5bf 7948 e8bf 1770 fbbf
-2.4101481 -1.7234069 -1.0136229 -3.8215828 -2.4245133 -2.2676828 -2.6754272 -3.16956
-2.382292 -1.7304862 1.4672688 -1.9520545 -1.4576979 -3.8551662 -1.9009353 -2.2760575
-2.2134173 -3.345725 -0.61816716 -2.4509652 -1.7474551 -2.3403413 -1.2085081 -2.80887
-2.8671613 -3.1491354 -1.1445259 -0.59135276 -2.5194106 -1.7613168 -1.7222807 -2.663193
-2.0895207 0.13972257 -0.31202087 -1.4202874 -1.9977013 -1.1422462 -2.182599 -1.9518509
-2.926801 -1.8283622 -2.3670695 -1.7468082 -0.36342242 -2.3605738 -2.4415817 -3.5211344
-0.9634923 -2.2743804 -2.9174705 1.0301112 -2.4855282 -1.5955142 -2.4250603 -1.4498706
-0.8191158 -2.2440498 -0.3967109 -2.0612774 -2.4261637 -1.6696316 -1.8147117 -1.9643582

emb_func.layer3.1.running_var f4 [64]
00000000: df51 4940 b67c 9940 a353 2540 3a1f 9040
00000010: 0ee4 9140 9732 2140 a7f4 6c40 eaee dd40
00000020: a0c5 3540 2182 3240 937d c63f 5527 1140
00000030: 32f0 5c40 a00a 8240 5570 6340 5f7d 4b40
00000040: 37ba 4040 02cb 6640 55db 2440 8d88 2a40
00000050: 8f38 fe3f c0ba 4340 7190 c53f 7941 2c40
00000060: 0498 8440 5b34 5d40 b168 0d40 e636 2d40
00000070: ed27 4e40 e528 1d40 c8d7 2440 0d72 9f40
00000080: 4d85 ab40 8a5f d33f 5292 2c40 93b2 6440
00000090: 2a7f 8040 78f2 5c40 9a6a a040 60f9 6740
000000a0: eef4 1940 de04 b540 810e e340 3d2d 3b40
000000b0: 8f7f 0240 7b14 3640 8d9a 9540 aca0 b440
000000c0: 7798 2f40 83e3 0340 7322 3440 284c c93f
000000d0: 830c a840 9ded 3040 a049 9640 fe1a 5240
000000e0: 86a0 ce3f 79e1 5d40 575e 2340 3dbf 8d40
000000f0: 7455 3940 6bff 1240 d0d4 5140 bbe1 5d40
3.145622 4.7964735 2.5832298 4.503812 4.5590887 2.5187128 3.7024324 6.9354143
2.840187 2.7891924 1.5507072 2.2680256 3.4521604 4.063797 3.5537312 3.179527
3.0113657 3.6061406 2.575887 2.6645844 1.986101 3.0582733 1.5434705 2.6914961
4.1435566 3.4563205 2.2095149 2.7064757 3.2211869 2.455621 2.5756702 4.982672
5.360022 1.6513531 2.6964307 3.5733993 4.015523 3.452299 5.013013 3.6245956
2.4055743 5.656844 7.0955205 2.9246361 2.0390356 2.845 4.675116 5.6446133
2.7436807 2.0607612 2.8146026 1.5726366 5.2515273 2.7645028 4.6964874 3.2828975
1.6142738 3.4668868 2.552633 4.4295945 2.8958406 2.2968395 3.278614 3.4669025

emb_func.layer4.0.weight f4 [64, 64, 3, 3]
00000000: 81df e63c 8056 f0bd ea7a 733e e3af 3bbe
00000010: e99a a4bd 0db3 cc3d 4a43 61bd 0fc4 8b3d
00000020: 30dd 293d 75e2 30be c563 b03d 52d2 943e
00000030: 0126 58be cdda a1bc b3e8 383d 7480 a4be
00000040: a63d 6dbd 3255 093d 5a47 8d3e 3aaa 4c3e
00000050: 251c 003f 6363 cbbc da5d b93d be41 c03d
00000060: b8c0 b7bd 0191 d8bc 80f0 88bd 1fc4 9e3d
00000070: ebb4 c8bd 1e5b dcbd c308 b13d 5ace 1c3e
00000080: 05c2 033e 0bec 0a3e 3724 173e 1d33 013d
00000090: 9045 bcbd 8e5e 0dbe 44ba c2bd 13db 103e
000000a0: 557d 9d3d 017f 8d3d 8bc0 ca3d fd2d e93d
000000b0: 2aa2 803d 3f42 41be 9f87 95bd d32f 00be
000000c0: febf a0be 630f 37be 5037 9abe 84c2 d4bd
000000d0: c957 923c b289 2bbe 9729 1f3d 0c83 8cbd
000000e0: f450 21bc 364f 5fbc a389 bfbd bf68 40bd
000000f0: 4519 24be cf0f 20be 02dc e2bd 4e69 353d
00000100: d199 923d a6d3 913c 7e30 e3bc 7829 9c3d
00000110: ad31 da3c 6299 c93c 5c62 203d c364 9e3c
00000120: c578 113e bec5 81bd cb08 523c de01 d2bd
00000130: 4b39 96bd 6fe6 61bd 93ba 1fbe d8cf 53be
00000140: ebf7 41be 866b 80bd 9e70 463d b25d d63c
00000150: 6dfc 2abd d2c3 493e d472 3cbe 8304 a33d
00000160: f289 2d3e f6f1 db3d fb4a f4bc a60b 43bd
00000170: 81fd 4f3c 7569 20bd c8c0 563d 8d69 c53d
00000180: 9954 f53d fba1 4c3d 539a 2c3d 45ea 68be
00000190: 4665 313d ea51 27be bf52 f539 0973 323e
000001a0: 32f2 563d 670f 6a3e 0ec2 ff3b 047f 2c3e
000001b0: 256b 583d 4f78 05bb 3d6c 4fbd 3bdc 36be
000001c0: 7b47 1dbd fdef 86be a480 c6bc 1087 773a
000001d0: 8202 b33d 5248 da3c 265b 1ebe f7ce 1fbe
000001e0: 1636 be3d 2c7d b23d 7b80 2a3e 047c 5fbd
000001f0: ad90 84bd cf7d b6bd d8ab 4d3e c784 573d
00000200: 5db4 99bd e5d8 9abd a77d 08be bab6 1ebe
00000210: 6e1a c4bc 36fd 2ebd b9df 3bbe ea1a e2bc
00000220: 60d2 cebd e803 21be fa6f 63bd bde5 ad3a
00000230: 1585 d3bc 6be1 e53d f8fc 903d 709b ac3d
00000240: 0825 ee3d 9c3e d3bd e86e de3d ff0e c1bd
00000250: e211 69bd 93a5 0cbd a876 3bbe f3fc 773d
00000260: c6be 82bd f4b2 1d3e aca9 6a3d c72e 783e
00000270: 8d3d c0bb 3c50 913c f08e 71bd d323 f7bd
00000280: 4c66 66bd e749 b6bd 593a 29be 1202 f83a
00000290: b00c 73bd a033 3fbe 9da2 30be ad9e d2bd
000002a0: b28c c8bd 41c0 6bbe b148 443d af2b 56bc
000002b0: 5afa b13d 42aa c33c 003c 12be f42d bbbd
000002c0: b1d3 11bd 37f8 d9bd fa61 89bd 8616 02be
000002d0: 50e0 3f3d 3bb2 e33c 6fa9 203c 65fa fbbd
000002e0: f926 763d 200e 863d 3084 9fbd 9072 c63d
000002f0: 2244 ddbd 2917 663e eb16 dcbc 309e 023e
00000300: 28a9 1b3d 432e 873c 0e2f c93c 3901 74bd
00000310: 66df b23d 615b c7bb a257 863e 4723 aabd
00000320: 814b a93d 8dbf 453e 1540 8bbd e507 073e
00000330: 780f c53b dc94 343d 5f9c 373b c614 603e
00000340: 9567 b1bd 9f93 623c 364f 963d fb35 9fbd
00000350: 660f 3bbd 21d9 76bc 648e 39bd 197d 7dbd
00000360: 7106 15bd 0444 6dbe 78a5 85bd 8323 c1bc
00000370: 37db 4d3d 280b 113e 7c72 6ebc 6311 813e
00000380: fb2d 423e 1cd5 c6bc d667 2abd 1a10 2fbd
00000390: 8010 84bc 26f8 5b3e 3897 b93c d2f9 4fbe
000003a0: da81 d5bd 5fa3 91be 3a3b 21be 570e e9bd
000003b0: b0f3 ff3c 989c ca3c d73d 5f3e a635 5a3d
000003c0: c193 fcbc e396 813d 7e83 023d 74ac 2c3e
000003d0: 679e 5e3e 6cf8 4c3e 5fca aa3e 5db6 c13d
000003e0: 3e11 633e 4d7d 203d 7f7a ed3d c383 9a3d
000003f0: 38d8 1ebc 8b71 c5bd b7f2 ccbd a403 24be
0.028182747 -0.117352486 0.23777357 -0.18328814 -0.08037359 0.09995089 -0.054995812 0.068245046
0.041470706 -0.17273887 0.086127795 0.29066712 -0.21108247 -0.019757653 0.045143794 -0.32129252
-0.05792012 0.033528514 0.275935 0.19986811 0.50042945 -0.024827665 0.09051104 0.09387539
-0.08972305 -0.02643633 -0.06686497 0.07752251 -0.09800132 -0.10759567 0.08644249 0.15313092
0.12866981 0.13566606 0.14759909 0.031542886 -0.091929555 -0.13805601 -0.095081836 0.1414607
0.07689921 0.0690899 0.09900006 0.11385725 0.0628093 -0.18872927 -0.07301258 -0.12518243
-0.31396478 -0.17876963 -0.30120325 -0.103886634 0.017864125 -0.16751745 0.038858023 -0.06860933
-0.009845961 -0.013629725 -0.09352424 -0.046974894 -0.16025265 -0.1563103 -0.110771194 0.04428988
0.071582444 0.017801117 -0.027733084 0.07625097 0.026635015 0.024609271 0.039156303 0.019335156
0.14206226 -0.063365445 0.012819479 -0.102542624 -0.073351465 -0.0551514 -0.15598516 -0.20684755
-0.1894223 -0.062705085 0.048447244 0.026167724 -0.04174464 0.19703606 -0.18403178 0.07959845
0.16947153 0.1073951 -0.02982091 -0.04761853 0.012694717 -0.03916307 0.052429944 0.09639273
0.11979026 0.049959164 0.042139363 -0.22745617 0.043309473 -0.16339841 0.00046791692 0.17426695
0.05247707 0.22857438 0.0078051155 0.16845328 0.052836556 -0.00203659 -0.050640333 -0.17857449
-0.038398247 -0.26354972 -0.024231263 0.0009442428 0.08740713 0.026645813 -0.15464458 -0.15606295
0.0928766 0.08715281 0.16650574 -0.05456163 -0.06472907 -0.08910715 0.20085084 0.05261686
-0.07505105 -0.075609006 -0.13329183 -0.15499392 -0.023938384 -0.04272195 -0.18347062 -0.027600724
-0.100987196 -0.15724146 -0.05552671 0.001326732 -0.025820294 0.11224636 0.070795 0.08428085
0.11628157 -0.10314676 0.108609974 -0.094266884 -0.05690182 -0.03433759 -0.18306983 0.060543966
-0.063840434 0.15400296 0.057290718 0.24236594 -0.0058667124 0.017738454 -0.058974206 -0.1206738
-0.0562499 -0.089008145 -0.16526164 0.0018921515 -0.05933827 -0.18672037 -0.17249532 -0.10284171
-0.097924605 -0.23022558 0.047920886 -0.013071938 0.08690329 0.023884896 -0.142807 -0.09139624
-0.035602275 -0.10643046 -0.06708141 -0.12703905 0.04684478 0.027794948 0.009806021 -0.12303618
0.06009576 0.06545663 -0.07788885 0.0968982 -0.10804011 0.22469772 -0.026866397 0.12755656
0.038003117 0.016501551 0.02455857 -0.05957148 0.08734016 -0.0060838913 0.26238734 -0.0830751
0.08266354 0.19311352 -0.06799332 0.13186605 0.006013807 0.044087276 0.0028016788 0.21882924
-0.08662335 0.013829141 0.07339327 -0.07773968 -0.045668982 -0.015066416 -0.04530181 -0.06188688
-0.036383096 -0.23170477 -0.06525701 -0.023576504 0.050257888 0.14164412 -0.014553662 0.25208578
0.18962853 -0.02427154 -0.041602932 -0.042739965 -0.016121149 0.2148138 0.022655115 -0.20310143
-0.10425158 -0.28444955 -0.1574525 -0.11379688 0.031244129 0.024732873 0.21800934 0.05327382
-0.030832173 0.063276075 0.031863682 0.1686266 0.21740113 0.2001664 0.33357522 0.09458611
0.22174546 0.039181996 0.1159563 0.07544663 -0.009695105 -0.09640797 -0.10007232 -0.16017014

emb_func.layer4.0.bias f4 [64]
00000000: 8cf3 9d3b 7d22 1d3a 3bca 883a 2be7 61bb
00000010: 791a 97bb c566 aebb cfe0 e13a 1439 01bb
00000020: 5761 7cbb 059c 41bb 88c5 1f3b 81ed 4e3b
00000030: 5a43 34bb 3960 43bb de0b 60bb a0bf 2fba
00000040: 63ee aa3b 576b 58bb d5d6 6739 b139 72bb
00000050: 0798 4b3b 3f23 19bb 567c 83bb c936 6c3a
00000060: 6fc2 00ba dc29 9e3b ec95 203b 5916 62bb
00000070: 6a71 673b 2fca b03b 480c 1ebb 9902 e3ba
00000080: d94e 2c3b 94e6 683a 2e8c 0237 76ee 373b
00000090: d5c8 c0ba bcfc 383b 8729 913a 18e6 36bb
000000a0: 1030 823b 5409 433a a7e3 23bb f862 2b3b
000000b0: ecfc 263b 498e 533b b358 e83a 3555 afbb
000000c0: aa58 3e3b 43cd 1d3b 6015 acbb fe3e e8ba
000000d0: 5dcf a0bb 486c 0cbb ee91 383a 5125 abbb
000000e0: 16ff 153b b5bd 81bb a832 003b 5be1 c63a
000000f0: 3407 afbb 38af 863b 11f9 20bb f0f6 963b
0.004820293 0.0005994214 0.0010436246 -0.0034470062 -0.00461131 -0.0053223097 0.0017233136 -0.001971786
-0.0038510168 -0.0029542458 0.0024379212 0.0031574669 -0.0027505965 -0.0029811992 -0.003418676 -0.00067042746
0.005216406 -0.0033022964 0.00022109908 -0.0036960656 0.0031065957 -0.0023366956 -0.0040126247 0.0009010849
-0.00049117854 0.0048267674 0.0024503423 -0.0034498184 0.0035315403 0.005395196 -0.0024116207 -0.00173195
0.0026292114 0.00088844565 7.781242e-06 0.0028065718 -0.001470829 0.0028226813 0.0011074998 -0.0027908143
0.0039730147 0.00074400497 -0.0025007518 0.002615152 0.0025480343 0.0032280853 0.001772663 -0.0053507336
0.0029044547 0.0024078644 -0.0052515715 -0.0017718968 -0.004907532 -0.0021426845 0.0007040788 -0.0052229543
0.0022887639 -0.0039593824 0.0019561443 0.0015173362 -0.005341435 0.004110243 -0.0024562518 0.004607074
