results/RENet-dataset-Conv64F-5-1-Jan-08-2024-14-32-52/checkpoints/model_00070.pth (torch, 909453 bytes, 69 tensors)

emb_func.layer1.0.weight f4 [64, 3, 3, 3]
0.3101714 -0.080581665 -0.24308705 -0.8063276 -0.6687841 -0.006276638 0.23277186 0.70379627
0.6946764 0.40021393 -0.1844804 -0.29977053 -1.051524 -0.91159326 -0.03956166 0.10866323
0.73195094 0.80834603 0.6062718 0.025916643 -0.12622511 -0.77468514 -0.7025917 0.12420791
-0.03196392 0.58454514 0.69903094 -0.18713449 -0.13391712 -0.20991297 -0.18116854 -0.096360385
-0.21309017 -0.010719704 -0.036803786 -0.07100138 -0.059345055 0.043446947 -0.056240067 -0.012780358
0.050312165 -0.04238311 0.107165314 0.07976525 0.054249175 -4.5292208e-07 0.09152143 0.0022621762
0.036662877 0.12153844 0.063474365 0.17757435 0.16951068 0.12613133 0.04276215 -0.09078687
-0.08460008 -0.31405693 -0.34877264 -0.37656274 -0.21815807 -0.15840414 -0.24987099 0.29259115
0.23357305 0.22416206 0.05694563 0.055607222 0.013431412 -0.17289358 -0.16606882 -0.2381299
0.38343227 0.34046578 0.343509 0.27972722 0.25353253 0.16301134 -0.005183315 0.008057806
-0.08770615 0.42762685 0.672836 0.61154044 -0.53651595 -0.48718074 -0.24221297 -0.04178429
-0.11999295 -0.19773714 0.6312119 0.91230726 0.86162186 -0.5669739 -0.60534346 -0.3154317
-0.24887158 -0.5244076 -0.56061465 0.60202134 0.9134952 0.85251945 -0.3957169 -0.40930074
-0.15135887 -0.16199651 -0.49640188 -0.492033 0.3807375 0.04890341 -0.09307275 0.8522577
-0.28663588 -0.33517754 0.8181849 -0.47774878 -0.50346404 0.14525436 -0.07544911 -0.1191315
0.68328905 -0.4471886 -0.48445886 0.7161417 -0.6374024 -0.56376505 0.23449142 0.07597969
0.10283648 0.6534623 -0.3009406 -0.2218055 0.6959071 -0.467385 -0.31288952 -0.15477686
-0.19718738 -0.30335957 0.116966814 0.09432334 0.058313485 0.39274916 0.46197048 0.39115256
0.06769585 -0.013524216 -0.10912071 -0.43357077 -0.59546643 -0.6602215 -0.50851506 -0.55104953
-0.55001605 0.7302646 0.6186561 0.44404936 0.2556563 0.054492533 -0.0043930416 0.16223057
0.10658111 0.065851964 -0.5027549 -0.6508378 -0.27084816 -0.6231926 -0.23498367 0.23310554
0.16894634 0.4563873 0.6191054 0.067592226 -0.08682529 0.22657368 -0.40117294 0.036066893
0.4423625 0.06875155 0.35598338 0.39958018 0.15096836 -0.09633098 0.16451377 -0.44315627
-0.12938769 0.20458293 -0.30867842 -0.09941459 -0.06785054 0.5397805 0.6825904 0.7331653
-0.37182724 -0.20224217 -0.019152613 -0.61658525 -0.34743738 -0.09737633 0.36301062 0.4843423
0.45254156 -0.43305027 -0.3373243 -0.18303333 -0.804883 -0.5002478 -0.25326493 0.42846847
0.50035733 0.45640066 -0.10186634 0.004643469 0.15705816 -0.30266237 -0.056381263 0.20230444
-0.4944268 -0.49996045 -0.10873883 -0.060488854 -0.016467739 0.10283894 0.3652576 0.4532265
0.3504101 -0.3688881 -0.3880965 -0.107491136 -0.053354993 -0.04692309 -0.0024620688 0.28689477
0.332681 0.21797355 -0.29737636 -0.29845288 -0.061087828 -0.0049110274 0.00033664034 0.024982657
0.22048782 0.26388836 0.13069408 -0.0885335 -0.20774709 -0.18934187 -0.19650695 -0.39448503
-0.23998904 -0.13319743 -0.26284975 -0.100961655 0.026659708 -0.0822796 -0.023089381 0.02495072
00000000: c9ce 9e3e 0008 a5bd d0eb 78be 7c6b 4ebf
00000010: 6f35 2bbf 41ac cdbb bf5b 6e3e fe2b 343f
00000020: 50d6 313f d7e8 cc3e 6ee8 3cbe 867b 99be
00000030: 5798 86bf 2d5e 69bf 680b 22bd d48a de3d
00000040: 2361 3b3f c4ef 4e3f a134 1b3f 244f d43c
00000050: 2841 01be c451 46bf 0ddd 33bf b760 fe3d
00000060: 99ec 02bd c0a4 153f b1f3 323f 2fa0 3fbe
00000070: 9221 09be 6df3 56be 3f84 39be 9858 c5bd
00000080: 4f34 5abe b3a1 2fbc 91bf 16bd 2c69 91bd
00000090: cd13 73bd 6df5 313d fc5b 66bd b564 51bc
000000a0: 2114 4e3d e999 2dbd 7d79 db3d f75b a33d
000000b0: 6234 5e3d 2329 f3b4 966f bb3d 0541 143b
000000c0: d02b 163d 25e9 f83d d9fe 813d 0dd6 353e
000000d0: 3594 2d3e 9228 013e 5d27 2f3d 77ee b9bd
000000e0: cf42 adbd 12cc a0be 5492 b2be d5cc c0be
000000f0: d464 5fbe b234 22be 2ede 7fbe 82ce 953e
00000100: c62d 6f3e bd8a 653e d23f 693d 66c4 633d
00000110: 6d0f 5c3c 040b 31be f20d 2abe 53d8 73be
00000120: 3c51 c43e 8851 ae3e 69e0 af3e 6838 8f3e
00000130: 04cf 813e 72ec 263e ccd8 a9bb e304 043c
00000140: 489f b3bd e8f1 da3e fb3e 2c3f ea8d 1c3f
00000150: 1c59 09bf c16f f9be ad06 78be 0126 2bbd
00000160: ddbe f5bd 9b7b 4abe 1a97 213f f88c 693f
00000170: 4093 5c3f 3425 11bf caf7 1abf 4480 a1be
00000180: 31d8 7ebe 943f 06bf 7184 0fbf 121e 1a3f
00000190: d2da 693f b73e 5a3f 689b cabe de8f d1be
000001a0: d2fd 1abe 6ae2 25be 6328 febe c0eb fbbe
000001b0: 07f0 c23e f14e 483d ed9c bebd 902d 5a3f
000001c0: f0c1 92be 649c abbe 9174 513f 7d9b f4be
000001d0: 05e3 00bf 8fbd 143e 1085 9abd 37fb f3bd
000001e0: 08ec 2e3f e7f5 e4be fe0a f8be 1055 373f
000001f0: ce2c 23bf e852 10bf 851e 703e 3d9b 9b3d
00000200: ef9b d23d 4e49 273f e314 9abe fb20 63be
00000210: f826 323f 164d efbe 0e33 a0be d37d 1ebe
00000220: 7deb 49be f251 9bbe 4c8c ef3d 982c c13d
00000230: 1fda 6e3d 6b16 c93e 6587 ec3e 2645 c83e
00000240: 1fa4 8a3d ac94 5dbc ae7a dfbd fdfc ddbe
00000250: 7d70 18bf 4704 29bf 0b2e 02bf 9511 0dbf
00000260: dacd 0cbf 9ff2 3a3f 3f60 1e3f 705a e33e
00000270: 62e5 823e 9033 5f3d 81f3 8fbb c51f 263e
00000280: 3247 da3d 65dd 863d 8cb4 00bf 4e9d 26bf
00000290: 9cac 8abe 8d89 1fbf 8f9f 70be 38b3 6e3e
000002a0: 4500 2d3e 99ab e93e b17d 1e3f cb6d 8a3d
000002b0: 75d1 b1bd ee02 683e 8a66 cdbe e1ba 133d
000002c0: 567d e23e 9dcd 8c3d 7443 b63e c695 cc3e
000002d0: 7397 1a3e 2d49 c5bd 4c76 283e 61e5 e2be
000002e0: 357e 04be 307e 513e 190b 9ebe e099 cbbd
000002f0: 39f5 8abd 0e2f 0a3f 3fbe 2e3f b9b0 3b3f
00000300: 2460 bebe 9218 4fbe f1e5 9cbc 88d8 1dbf
00000310: 50e3 b1be 3e6d c7bd 87dc b93e b7fb f73e
00000320: 87b3 e73e c4b8 ddbe c5b5 acbe 176d 3bbe
00000330: d00c 4ebf 3d10 00bf f1ab 81be 3860 db3e
00000340: 6b17 003f 59ad e93e 4d9f d0bd 3e28 983b
00000350: dbd3 203e 90f6 9abe 0af0 66bd e528 4f3e
00000360: 8225 fdbe d1fa ffbe 77b2 debd 29c3 77bd
00000370: 5ae7 86bc 399d d23d 0b03 bb3e 4e0d e83e
00000380: f468 b33e e7de bcbe 96b4 c6be 5024 dcbd
00000390: c48a 5abd 6d32 40bd a95a 21bb dfe3 923e
000003a0: 2a55 aa3e 7534 5f3e b741 98be d1ce 98be
000003b0: 3b37 7abd afec a0bb 1a7f b039 6ea8 cc3c
000003c0: 8fc7 613e 601c 873e abd4 053e 0d51 b5bd
000003d0: a7bb 54be d6e2 41be 1e39 49be f1f9 c9be
000003e0: b0bf 75be e864 08be 3e94 86be fcc4 cebd
000003f0: 7665 da3c 3582 a8bd f125 bdbc 7465 cc3c

emb_func.layer1.0.bias f4 [64]
0.008531718 -0.022192415 0.004335786 0.022747472 0.018618328 0.023646116 0.014947677 -0.0022850053
0.0072095455 -0.011538022 0.023437798 0.0138256345 -0.020210184 0.023875281 -0.00040972547 -0.0012276593
-0.0075571067 -0.007285316 0.0013822748 -0.013480356 -0.025685327 -0.014223379 -0.005494719 0.020851415
0.020313343 -0.016544076 -0.00106028 -0.007969427 -0.014771614 -0.0048555373 -0.009580886 0.015433945
-0.013694152 0.004248185 -0.015581773 -0.008617848 0.021737173 -0.0135558145 -0.0016603397 0.026371421
0.009450754 -0.014054868 -0.016578563 -0.009682975 -0.008646812 0.012022208 -0.0061389357 0.02328823
-0.015150604 -0.008634557 0.010053155 0.02205295 0.026413951 0.004419337 0.0011638893 -0.012371366
0.015601581 -0.016005913 -0.007257685 -0.023078417 -0.026544921 0.015434125 0.0018759179 0.022011906
00000000: 9ec8 0b3c decc b5bc 3613 8e3b e858 ba3c
00000010: 7785 983c 80b5 c13c 1ae7 743c 07c0 15bb
00000020: 0d3e ec3b f909 3dbc a000 c03c ea84 623c
00000030: d48f a5bc 1896 c33c 6cd0 d6b9 69e9 a0ba
00000040: 9ba1 f7bb a9b9 eebb 722d b53a b6dc 5cbc
00000050: 096a d2bc 2d09 69bc 0b0d b4bb 96d0 aa3c
00000060: 2b68 a63c 7187 87bc 18f9 8aba 3392 02bc
00000070: a404 72bc 331b 9fbb 26f9 1cbc a8de 7c3c
00000080: 705d 60bc 5c34 8b3b b14a 7fbc e031 0dbc
00000090: 2812 b23c 3519 5ebc c19f d9ba e108 d83c
000000a0: 56d7 1a3c 6446 66bc c4cf 87bc 57a5 1ebc
000000b0: 5cab 0dbc ccf8 443c 2029 c9bb f5c6 be3c
000000c0: 3d3a 78bc f577 0dbc fdb5 243c 63a8 b43c
000000d0: 1262 d83c 16d0 903b a58d 983a 45b1 4abc
000000e0: c69d 7f3c d51e 83bc e0d1 edbb f30e bdbc
000000f0: bc74 d9bc 6adf 7c3c 5ce1 f53a 5052 b43c

emb_func.layer1.1.weight f4 [64]
0.7698401 0.33398622 0.41028622 0.7284381 0.73641855 0.6729539 0.5500629 0.5612888
1.0442117 0.38725513 0.7117884 0.4689122 0.74229556 0.40493768 0.4329063 0.99551517
0.1831373 0.586468 0.52129185 0.82224 0.3572618 0.17972168 0.8635016 0.5790507
0.5224439 0.3740229 0.96598274 0.15144153 0.89369714 0.43776086 0.32017246 0.30051383
0.84227276 0.53806126 1.1061666 0.34665254 0.10266154 0.44082513 0.29111546 0.48020974
0.3936415 0.60410243 0.3269106 0.14310391 0.016489903 0.5548499 0.64560306 0.39333922
0.3982149 0.3300173 0.18573783 0.47169122 0.6666043 0.59514636 0.2972522 0.29151988
0.33797818 0.5700955 0.43855458 0.24583569 0.7376017 0.43943515 0.25600618 0.47993475
00000000: 3e14 453f 3e00 ab3e 0911 d23e eb7a 3a3f
00000010: ed85 3c3f b546 2c3f ecd0 0c3f 9fb0 0f3f
00000020: bba8 853f 4e46 c63e c437 363f 4315 f03e
00000030: 1507 3e3f fe53 cf3e e5a5 dd3e 15da 7e3f
00000040: 5888 3b3e c422 163f 6273 053f 527e 523f
00000050: 05eb b63e f608 383e 710e 5d3f ab3c 143f
00000060: e2be 053f ee7f bf3e a54a 773f 7d13 1b3e
00000070: 56c9 643f 3122 e03e a5ed a33e f3dc 993e
00000080: 309f 573f 62be 093f de96 8d3f 717c b13e
00000090: 3740 d23d d5b3 e13e 160d 953e 0dde f53e
000000a0: 618b c93e 75a6 1a3f d360 a73e d589 123e
000000b0: d515 873c a50a 0e3f 3e46 253f c263 c93e
000000c0: d3e2 cb3e 07f8 a83e 0f32 3e3e 8381 f13e
000000d0: 94a6 2a3f 835b 183f 7131 983e 1842 953e
000000e0: 7a0b ad3e c7f1 113f 3a8a e03e 5abc 7b3e
000000f0: 77d3 3c3f a5fd e03e 3e13 833e 02ba f53e

emb_func.layer1.1.bias f4 [64]
0.107649244 -0.187763 0.05187059 0.0751954 0.2016697 -0.18893817 0.11384633 0.6438782
-1.3456862 0.1089242 0.23347303 -0.3265857 -1.090849 -0.36399254 -0.36502263 0.27506185
-0.23219912 -0.028577045 0.3876818 0.016491428 -0.15898769 0.0039448235 0.086653925 0.29439768
-0.35670754 -0.3383529 0.45401773 -0.16424543 -0.053280197 -0.15218517 -0.38639095 -0.33413664
0.06582813 0.3629224 -0.07529862 0.26571894 -0.11187325 0.20497385 -0.28808156 0.3593586
-0.020508183 -0.08108528 0.038543522 -0.11923238 -0.05471833 -0.2616491 -0.59483993 0.4147204
0.10056669 -0.09156815 0.020414792 -0.35549036 -0.5107474 0.2771706 -0.2601659 -0.35838404
-0.0061937193 0.0627869 0.12708823 -0.30648604 0.31744397 -0.38393158 -0.33770373 0.06719549
00000000: 3577 dc3d f244 40be 4176 543d 0c00 9a3d
00000010: 8082 4e3e 0279 41be 4428 e93d 34d5 243f
00000020: 723f acbf a713 df3d 8e13 6f3e 3e36 a7be
00000030: f1a0 8bbf 3b5d babe 3fe4 babe e8d4 8c3e
00000040: 9bc5 6dbe 681a eabc 3b7e c63e 0819 873c
00000050: abcd 22be 9443 813b 9d77 b13d 4bbb 963e
00000060: 5fa2 b6be 973c adbe 0375 e83e f42f 28be
00000070: 563c 5abd 6ed6 1bbe 09d5 c5be f513 abbe
00000080: e6d0 863d f7d0 b93e 2a36 9abd 500c 883e
00000090: cd1d e5bd aae4 513e 6d7f 93be dafd b73e
000000a0: c700 a8bc 0a10 a6bd d0df 1d3d 1b30 f4bd
000000b0: 5420 60bd dff6 85be 6e47 18bf 3b56 d43e
000000c0: e9f5 cd3d 1588 bbbd ec3c a73c d502 b6be
000000d0: 57c0 02bf 4ee9 8d3e 7734 85be 1d7e b7be
000000e0: aff4 cabb 6b96 803d 6b23 023e bdeb 9cbe
000000f0: 0488 a23e ae92 c4be 81e7 acbe ca9d 893d

emb_func.layer1.1.running_mean f4 [64]
0.04218646 -0.32403407 -0.42658377 0.021363586 0.11153041 0.16563894 -0.18791702 0.0732819
0.01109801 -0.44834796 -0.13109204 -0.29390013 -0.0057014297 0.2624326 0.23361863 0.04710205
0.004100717 0.013560443 -0.058886506 -0.08276422 -0.2000835 0.034652993 -0.06719566 -0.14126882
-0.31205738 -0.3093591 -0.056053422 -0.16732472 -0.045073062 -0.13715756 0.04308892 0.19594224
-0.0747793 -0.054533068 -0.08734463 -0.6552326 -0.03682049 -0.15212443 0.013310699 0.15039758
-0.13488765 -0.04126413 -0.2763257 -0.044118315 -0.12009175 -0.47839978 -0.54436123 0.05571991
0.4572 -0.38997373 0.20682307 0.07684913 -0.14779031 -0.06755627 -0.25896603 0.053372197
-0.17354125 0.020844178 -0.30870652 0.021973122 -0.021770634 -0.15632881 0.017625403 -0.6360386
00000000: b6cb 2c3d cbe7 a5be 3069 dabe b002 af3c
00000010: 0e6a e43d 419d 293e 526d 40be d214 963d
00000020: 6ed4 353c dd8d e5be fe3c 06be 147a 96be
00000030: 0fd3 babb 915d 863e b939 6f3e 14ee 403d
00000040: 4f5f 863b 9f2c 5e3c fa32 71bd 4a80 a9bd
00000050: b0e2 4cbe 4cf0 0d3d e19d 89bd c6a8 10be
00000060: fcc5 9fbe 5164 9ebe 4698 65bd 2c57 2bbe
00000070: 889e 38bd 0873 0cbe 027e 303d 15a5 483e
00000080: e425 99bd 115e 5fbd bee1 b2bd 53bd 27bf
00000090: 15d1 16bd 82c6 1bbe 1e15 5a3c d301 1a3e
000000a0: fd1f 0abe 9404 29bd 907a 8dbe 68b5 34bd
000000b0: aaf2 f5bd d1f0 f4be 425b 0bbf 8f3a 643d
000000c0: 1e16 ea3e a3aa c7be 6dc9 533e 1463 9d3d
000000d0: 5856 17be f15a 8abd 3297 84be ce9c 5a3d
000000e0: ccb4 31be 69c1 aa3c c80e 9ebe fa00 b43c
000000f0: 5458 b2bc a914 20be 2663 903c 6dd3 22bf

emb_func.layer1.1.running_var f4 [64]
2.2311974 0.48955345 1.6443354 5.079618 3.135282 0.7672482 1.262601 3.472659
1.5345011 1.5628054 3.323057 0.57691413 0.7849556 0.5425394 0.6135712 5.061466
0.07008115 1.7718732 2.6818395 1.1897669 0.44857585 0.25393122 2.3667746 1.5846547
0.66936326 0.49119705 7.322344 0.14502056 4.1257706 0.2822571 0.1194426 0.5004763
6.2803783 3.9680867 3.357383 1.8957161 0.07753213 1.0426325 0.27630138 1.7865684
0.6139756 0.6164165 1.4207397 0.08459618 0.32010233 2.3067098 1.6374754 1.9509214
1.7653884 0.7695222 0.6824297 0.550436 2.631498 2.233878 0.4078054 0.1813356
0.36317545 1.5182471 1.1251181 0.14813776 4.511262 0.30863985 0.052981764 2.4394796
00000000: f0cb 0e40 c0a6 fa3e 9579 d23f 3b8c a240
00000010: 76a8 4840 616a 443f e99c a13f 0c40 5e40
00000020: 886a c43f 020a c83f f7ac 5440 a5b0 133f
00000030: daf2 483f dde3 0a3f 0113 1d3f 88f7 a140
00000040: b586 8f3d becc e23f 42a3 2b40 484a 983f
00000050: bcab e53e 4603 823e 3c79 1740 f7d5 ca3f
00000060: 645b 2b3f 2e7e fb3e a450 ea40 4580 143e
00000070: 5006 8440 0184 903e 529e f43d 371f 003f
00000080: dcf8 c840 22f5 7d40 5ddf 5640 d3a6 f23f
00000090: 2ac9 9e3d fb74 853f 6077 8d3e 46ae e43f
000000a0: 812d 1d3f 79cd 1d3f ccda b53f c340 ad3d
000000b0: 74e4 a33e 22a1 1340 cb98 d13f cbb7 f93f
000000c0: 3ff8 e13f 68ff 443f b6b3 2e3f 60e9 0c3f
000000d0: 776a 2840 dbf7 0e40 dfcb d03e 0ab0 393e
000000e0: 22f2 b93e ec55 c23f df03 903f 6db1 173e
000000f0: 425c 9040 0b06 9e3e 6803 593d 6f20 1c40

emb_func.layer2.0.weight f4 [64, 64, 3, 3]
0.25473672 0.25888225 -0.1240955 -0.10554567 0.024314674 0.13903034 0.078971684 0.1453832
0.09940854 0.076065905 0.105458036 0.0874735 0.032232523 0.029654317 -0.006067578 -0.062276334
-0.07789589 -0.08151169 0.1505264 0.18612915 0.15457901 0.048732195 0.09011482 0.06336684
-0.23852044 -0.25856057 -0.27966824 -0.029691877 0.009191723 -0.058634732 0.09494564 0.21186428
0.01280584 -0.14633185 -0.14966784 -0.1916668 0.14872459 0.13360137 0.10253267 -0.029933477
-0.014513576 0.0027309407 -0.19518554 -0.2672278 -0.14546521 0.1399478 0.065043844 0.025768744
0.13387065 0.1764065 0.11403608 0.107883826 0.058934063 0.03124203 0.11279647 0.10229574
-0.0067126644 -0.002944579 0.022015925 0.13027498 -0.06724054 -0.05853783 -0.032037 0.062060494
0.061937477 -0.015157184 -0.009866572 0.08684608 -0.050805442 -0.28881088 -0.22029318 -0.30562705
-0.17886485 -0.16221453 -0.12489666 -0.15736414 -0.20863526 -0.19821584 0.045116875 0.035631694
-0.07786328 0.23619325 0.24618582 0.22002938 0.08422255 0.07452548 0.06092941 -0.20230399
-0.22093332 -0.25175646 0.06075881 0.14133322 0.14455098 0.010009999 0.023706967 -0.056889467
-0.19380315 -0.1969471 -0.19384687 0.06609406 0.11289161 0.10357159 0.019613998 0.00982696
-0.018566754 -0.052051008 -0.064847015 -0.06561159 -0.0600839 -0.026151406 -0.023829844 -0.09794444
-0.061110433 -0.038715187 0.0023655219 0.0012255427 0.014122561 0.019197797 0.024828024 0.022296682
0.018095221 0.00945009 0.019950198 0.042092998 0.045941047 0.03773721 -0.024322812 -0.0010533945
-0.00025102106 0.00029851598 -0.0030398048 0.0054387725 0.027337685 0.03547043 0.027073251 0.12910067
0.021416048 -0.04776882 0.11289419 -0.02173738 0.0014172938 -0.27215955 -0.2363068 -0.16230522
-0.019765422 -0.0039302427 -0.030127015 -0.0060815625 0.005079422 0.0033060834 -0.019497333 -0.02115021
-0.012032058 0.0572793 0.078301884 0.10339495 0.017256815 -0.06725266 -0.10678777 -0.15713692
-0.19130647 -0.13731529 0.02566364 0.09297874 -0.0027692246 0.051556136 0.041379564 0.014662167
0.11092232 0.14215553 -0.032266416 0.2743974 0.1555969 -0.03598078 -0.09391915 0.13784781
0.19090477 -0.32888094 -0.25039425 -0.2204639 0.10497852 0.09770614 0.056065977 -0.00058322964
0.03527881 0.03864779 -0.064379334 -0.060759194 -0.05493749 -0.06495955 -0.046383213 -0.049542975
-0.03153317 -0.033475596 -0.039903414 -0.04271304 -0.036122534 -0.038733 0.03454114 0.37532258
0.12393376 0.0096941525 0.16242963 0.05367749 -0.34067327 -0.15217094 -0.1092541 0.16427669
0.08691113 0.014653353 -0.22260346 -0.1321384 -0.054753494 -0.30755436 -0.25062352 -0.22948085
0.09403481 0.086795725 0.078908525 0.01681525 -0.024185713 -0.016710324 -0.061986934 -0.10435134
-0.10888938 -0.041192774 -0.045528036 -0.04202009 -0.034324884 -0.026985569 -0.026562395 -0.011858062
-0.0047973585 -0.012446216 0.07547216 0.14051193 -0.11769992 0.09734265 0.0869227 0.1020442
0.2422964 0.3133775 0.06251689 -0.0073895357 0.0011924779 -0.013549989 -0.0021829633 -0.014095429
-0.013738456 -0.01684799 -0.006982464 -0.013383839 0.15278377 0.079137065 0.00827551 -0.021018062
00000000: da6c 823e 378c 843e c825 febd 5428 d8bd
00000010: 912f c73c f85d 0e3e e8bb a13d 55df 143e
00000020: b496 cb3d 71c8 9b3d 62fa d73d 4e25 b33d
00000030: 4006 043d 9ced f23c 89d2 c6bb 7815 7fbd
00000040: e187 9fbd 9aef a6bd 9823 1a3e a498 3e3e
00000050: f649 1e3e 699b 473d 1e8e b83d 79c6 813d
00000060: b43e 74be 0d62 84be ad30 8fbe 613c f3bc
00000070: e198 163c f92a 70bd dc72 c23d f3f2 583e
00000080: 96cf 513c 04d8 15be 8742 19be 4d44 44be
00000090: 424b 183e ccce 083e a6fc d13d 0d37 f5bc
000000a0: 5aca 6dbc 95f9 323b b8de 47be 15d2 88be
000000b0: d5f4 14be 7a4e 0f3e b535 853d f918 d33c
000000c0: 6315 093e e8a3 343e c08b e93d 32f2 dc3d
000000d0: d864 713d 49ef ff3c d601 e73d 6e80 d13d
000000e0: e9f5 dbbb d7f9 40bb be5a b43c ce66 053e
000000f0: 69b5 89bd 5dc5 6fbd 3b39 03bd 2533 7e3d
00000100: 27b2 7d3d d655 78bc 67a7 21bc 5cdc b13d
00000110: 5e19 50bd 05df 93be 8994 61be 267b 9cbe
00000120: 5928 37be 911b 26be d2c9 ffbd 1124 21be
00000130: 7ba4 55be 18f9 4abe 79cc 383d 8af2 113d
00000140: c976 9fbd a5dc 713e 2318 7c3e 624f 613e
00000150: df7c ac3d d1a0 983d 1e91 793d c728 4fbe
00000160: 583c 62be 39e6 80be 3bde 783d a8b9 103e
00000170: 2c05 143e fb00 243c 1d35 c23c ee04 69bd
00000180: 5574 46be 80ac 49be cb7f 46be 535c 873d
00000190: b733 e73d 571d d43d 89ad a03c 4201 213c
000001a0: 4e19 98bc 7033 55bd 83ce 84bd 5f5f 86bd
000001b0: 891a 76bd 793b d6bc ce36 c3bc 1897 c8bd
000001c0: ef4e 7abd d193 1ebd df06 1b3b 64a2 a03a
000001d0: 5062 673c b344 9d3c 2464 cb3c 88a7 b63c
000001e0: 6e3c 943c 8dd4 1a3c 996e a33c b569 2c3d
000001f0: ae2c 3c3d 5592 1a3d a240 c7bc 0e12 8aba
00000200: 7a9b 83b9 2382 9c39 7637 47bb bb37 b23b
00000210: 48f3 df3c 7149 113d b9c8 dd3c f732 043e
00000220: b570 af3c 3da9 43bd 1235 e73d 9712 b2bc
00000230: 7dc4 b93a 7f58 8bbe 69fa 71be 5733 26be
00000240: 18eb a1bc 44c9 80bb eecc f6bc d847 c7bb
00000250: 4871 a63b e0aa 583b dfb8 9fbc 3543 adbc
00000260: 1c22 45bc b39d 6a3d bd5c a03d bbc0 d33d
00000270: 2a5e 8d3c c3bb 89bd 8cb3 dabd 80e8 20be
00000280: d8e5 43be 619c 0cbe 8e3c d23c a36b be3d
00000290: e17b 35bb 872c 533d 9e7d 293d 9639 703c
000002a0: 3e2b e33d 3891 113e ca29 04bd d17d 8c3e
000002b0: cb54 1f3e 9560 13bd af58 c0bd fa27 0d3e
000002c0: 8a7c 433e 1563 a8be ad33 80be 4ac1 61be
000002d0: fafe d63d 281a c83d 70a5 653d e1e3 18ba
000002e0: 8380 103d 254d 1e3d 50d9 83bd a2de 78bd
000002f0: 2206 61bd 8309 85bd 53fc 3dbd 93ed 4abd
00000300: ed28 01bd b51d 09bd c371 23bd def3 2ebd
00000310: 39f5 13bd 7fa6 1ebd 037b 0d3d 482a c03e
00000320: fcd0 fd3d 39d4 1e3c f453 263e eedc 5b3d
00000330: ba6c aebe b3d2 1bbe 9dc0 dfbd 2638 283e
00000340: 76fe b13d 9e14 703c 29f2 63be 4a4f 07be
00000350: 3345 60bd c477 9dbe ba51 80be 07fd 6abe
00000360: 5395 c03d f5c1 b13d cb9a a13d 23c0 893c
00000370: 1e21 c6bc 17e4 88bc 03e6 7dbd 28b6 d5bd
00000380: 6501 dfbd c1b9 28bd 9b7b 3abd 421d 2cbd
00000390: 4098 0cbd d710 ddbc 6199 d9bc 5148 42bc
000003a0: 2933 9dbb 37eb 4bbc 2691 9a3d 5ce2 0f3e
000003b0: a80c f1bd 955b c73d 8704 b23d 8dfc d03d
000003c0: 8c1c 783e 0473 a03e db08 803d eb23 f2bb
000003d0: eb4c 9c3a c600 5ebc 0c10 0fbb 84f0 66bc
000003e0: 4317 61bc cc04 8abc 27cd e4bb e447 5bbc
000003f0: 5973 1c3e 9d12 a23d 0196 073c 122e acbc

emb_func.layer2.0.bias f4 [64]
-0.00022139239 0.003911067 -0.0057451623 -0.0018765739 0.0030975805 -0.0013521374 0.0038653035 0.0020576234
0.0010320592 -0.00082264794 -0.0014434999 -0.0012415648 -0.00053405855 -0.003222478 -0.001702346 0.0034022876
0.0041766576 0.0010956952 0.0009164846 -0.005123272 0.0012194542 0.0049889465 -0.002585279 -0.0014886975
0.005802544 0.0009028978 0.0046809916 -0.0016216703 -0.005387509 0.00051728333 -0.0046224147 -0.0025747574
0.0020765297 -0.0055275396 0.0032446785 0.005488512 0.00560148 -0.0051921364 -0.005924363 -0.0023966783
0.0004692868 -0.002928043 0.0041999007 0.0054478953 0.0015784958 -0.0008937037 -0.0054634465 0.003617986
-0.0008700303 0.0040924605 0.0022825066 0.00099947 -0.004430839 0.0038684453 0.0011454663 0.0046828175
0.0045113605 -0.003146303 -0.004574363 -0.005638723 -0.002018227 -0.002033721 0.00038909202 0.0031632935
00000000: 9125 68b9 6828 803b ea41 bcbb 5ff7 f5ba
00000010: c700 4b3b 343a b1ba 0851 7d3b 31d9 063b
00000020: 2946 873a f8a6 57ba d233 bdba 00bc a2ba
00000030: 1000 0cba 3630 53bb 4121 dfba eaf8 5e3b
00000040: 58dc 883b 6e9d 8f3a 3e40 703a 1fe1 a7bb
00000050: 18d6 9f3a 517a a33b c96d 29bb 6620 c3ba
00000060: 4423 be3b 72b0 6c3a 0163 993b 3a8e d4ba
00000070: b389 b0bb 4c9a 073a a077 97bb 43bd 28bb
00000080: 6316 083b 5d20 b5bb aca4 543b fad8 b33b
00000090: 9f8c b73b cc22 aabb 2921 c2bb 9711 1dbb
000000a0: 9c0a f639 69e4 3fbb 529f 893b 4284 b23b
000000b0: 88e5 ce3a 7147 6aba b606 b3bb bc1b 6d3b
000000c0: bf12 64ba 0c1a 863b 1b96 153b a600 833a
000000d0: 9230 91bb be85 7d3b 7923 963a 5272 993b
000000e0: 09d4 933b 3432 4ebb 8ae4 95bb 09c5 b8bb
000000f0: 3b44 04bb 2d48 05bb 0cff cb39 424f 4f3b

emb_func.layer2.1.weight f4 [64]
0.8881193 0.5780628 0.53175354 0.6729971 0.7835955 0.8739547 1.0914721 0.6559269
1.0114994 0.75181675 1.1181904 0.80637807 0.7256387 0.98135465 0.7313482 0.85229564
0.5205526 0.77454495 0.8014416 0.9432539 0.92758536 0.99981517 0.55839545 0.75582874
0.95402735 0.9641595 0.9777035 0.6463979 0.98270345 0.78296065 1.0506451 0.7971027
0.88043493 0.7779616 0.72961515 0.73915297 0.9990029 1.1148238 0.52145875 0.9238973
0.86877185 0.68395966 0.90392643 1.0611166 0.7768449 0.54179025 0.58890265 0.54289407
0.90147465 0.5791994 0.5959202 0.8155678 1.0935307 0.880646 0.7452531 0.5821029
0.97100216 0.80049914 0.7879482 0.8892397 0.73173004 0.69025385 0.9866636 0.5008002
00000000: c95b 633f ecfb 133f 0021 083f 8a49 2c3f
00000010: b799 483f 7fbb 5f3f 5cb5 8b3f d3ea 273f
00000020: d078 813f 1077 403f dd20 8f3f cb6e 4e3f
00000030: 75c3 393f 0f3a 7b3f a339 3b3f 0c30 5a3f
00000040: ef42 053f 9448 463f 472b 4d3f 1679 713f
00000050: 3c76 6d3f e3f3 7f3f 01f3 0e3f fe7d 413f
00000060: 233b 743f 28d3 763f c74a 7a3f 557a 253f
00000070: 7492 7b3f 1c70 483f 8a7b 863f ec0e 4c3f
00000080: 2f64 613f 7e28 473f 0fc8 3a3f 2139 3d3f
00000090: a7be 7f3f 8cb2 8e3f 527e 053f 8984 6c3f
000000a0: d567 5e3f fb17 2f3f b967 673f abd2 873f
000000b0: 4fdf 463f c4b2 0a3f 53c2 163f 1bfb 0a3f
000000c0: 0bc7 663f 6946 143f 3a8e 183f 0dc9 503f
000000d0: d0f8 8b3f 0472 613f e8c8 3e3f b204 153f
000000e0: 9993 783f 83ed 4c3f f9b6 493f 37a5 633f
000000f0: a952 3b3f 7ab4 303f fc95 7c3f 7134 003f

emb_func.layer2.1.bias f4 [64]
-0.27872857 -0.08648708 0.1400188 -0.8688154 -0.41743377 -0.05449574 -0.6360312 -0.25049356
-0.60399175 -0.32757103 -0.68407834 -0.33118963 -0.09264507 -0.37238917 -0.15285048 -0.7455924
-0.44815212 -0.039775904 -0.38973215 -0.6079843 -0.7243178 -0.4801606 -0.24472614 -0.25277528
-0.46907297 -0.58711886 -0.46105406 -0.5202066 -0.40676013 -0.28352317 -0.48599818 -0.26448387
0.07822502 -0.5659363 -0.0132478485 -0.2357905 -0.43460825 -0.5545139 -0.57224375 -0.41286638
-0.30826622 -0.31669846 -0.40424922 -0.44009733 -0.11884176 0.040547878 -0.32915828 -0.07507526
-0.6040004 -0.21094903 -0.15652253 -0.41974416 -0.7763889 -0.55831283 -0.30467126 0.19375935
-0.5518922 -0.26444066 -0.3091221 -0.51763105 -0.23177227 0.09274803 -0.27713734 -0.51046276
00000000: 83b5 8ebe 2320 b1bd 1761 0f3e b06a 5ebf
00000010: e1b9 d5be ed36 5fbd f1d2 22bf b140 80be
00000020: 349f 1abf 64b7 a7be c21f 2fbf b091 a9be
00000030: b3bc bdbd cba9 bebe d684 1cbe 25df 3ebf
00000040: 3274 e5be 0fec 22bd f98a c7be dca4 1bbf
00000050: e46c 39bf 9cd7 f5be 7d99 7abe c36b 81be
00000060: 552a f0be 6c4d 16bf 470f ecbe 422c 05bf
00000070: dd42 d0be f329 91be c1d4 f8be 6e6a 87be
00000080: 7034 a03d 34e1 10bf 810d 59bc 1173 71be
00000090: f984 debe 9ff4 0dbf 917e 12bf 3963 d3be
000000a0: 12d5 9dbe 4d26 a2be c1f9 cebe 7054 e1be
000000b0: 4f63 f3bd 8815 263d 6f87 a8be 0fc1 99bd
000000c0: c59f 1abf 0603 58be 7147 20be b5e8 d6be
000000d0: 6cc1 46bf 97ed 0ebf dffd 9bbe da68 463e
000000e0: cf48 0dbf c464 87be 4045 9ebe 7883 04bf
000000f0: b655 6dbe aef2 bd3d f2e4 8dbe b0ad 02bf

emb_func.layer2.1.running_mean f4 [64]
-1.861107 -1.9188006 -4.378194 0.08144883 -2.078533 -1.4738071 -2.751328 -1.3168966
-3.4136918 -1.1721351 -5.4617167 -2.259594 -2.2425506 -3.638527 -2.907695 -1.8371247
-1.6326853 -2.465144 -2.3808272 -2.1821558 -1.4826299 -3.2838871 -0.29640403 -2.756662
-5.041523 -0.7518065 -3.5700252 -0.89301455 -3.6633892 -2.5193448 -3.3093631 -3.7714324
-2.7594624 -1.262404 0.17195684 -3.0863924 -2.564741 -3.9561417 0.6404821 -3.1464114
-2.0618002 -1.6221606 -4.4279046 -4.2493706 -0.42530444 0.1798641 -3.3980122 -0.28165787
-3.2548904 -0.5600736 -0.9025704 -2.5989347 -4.6365123 -4.611493 -1.3114897 -2.4752662
-4.8723416 -2.8902333 -2.4098012 -2.1482806 -1.7441931 -2.391512 -3.1720881 2.7261033
00000000: c138 eebf 429b f5bf 2a1a 8cc0 a5ce a63d
00000010: af06 05c0 b6a5 bcbf c215 30c0 1190 a8bf
00000020: ed79 5ac0 8608 96bf 62c6 aec0 309d 10c0
00000030: f385 0fc0 a0dd 68c0 ad17 3ac0 e726 ebbf
00000040: d5fb d0bf ebc4 1dc0 795f 18c0 71a8 0bc0
00000050: d1c6 bdbf 352b 52c0 45c2 97be 266d 30c0
00000060: 2854 a1c0 6476 40bf 4b7b 64c0 9a9c 64bf
00000070: f874 6ac0 f23c 21c0 9bcc 53c0 265f 71c0
00000080: 089b 30c0 7496 a1bf 7415 303e 7487 45c0
00000090: b724 24c0 6d31 7dc0 a3f6 233f ce5e 49c0
000000a0: 89f4 03c0 f5a2 cfbf 65b1 8dc0 d8fa 87c0
000000b0: 81c1 d9be 4b2e 383e 0879 59c0 7635 90be
000000c0: 2050 50c0 fc60 0fbf db0e 67bf f254 26c0
000000d0: 4f5e 94c0 5a91 93c0 e5de a7bf c36a 1ec0
000000e0: 39ea 9bc0 95f9 38c0 2f3a 1ac0 6e7d 09c0
000000f0: b841 dfbf 880e 19c0 7e03 4bc0 7a78 2e40

emb_func.layer2.1.running_var f4 [64]
10.695653 6.5542912 8.067459 4.164849 8.074776 14.440018 12.18342 9.403973
9.374374 6.132987 12.083731 8.106063 10.40987 9.2121315 12.196436 4.969118
2.4320898 5.261654 3.7483883 6.4667854 5.3118205 8.557139 5.5788517 11.600855
11.754578 5.279561 10.222835 3.250399 16.527355 7.3645186 7.342866 7.660206
13.118634 4.0073614 9.203615 5.674401 12.050733 12.430274 3.1362395 15.449292
13.200873 4.9181805 7.978333 11.455483 9.307195 8.304892 4.290308 12.12761
6.460622 4.557853 3.190801 12.511277 8.07654 7.3439684 10.213147 5.119916
8.735082 16.224882 6.344695 8.921461 9.137791 10.456239 14.64738 4.488543
00000000: 6521 2b41 c1bc d140 5014 0141 7146 8540
00000010: 4832 0141 500a 6741 4aef 4241 ac76 1641
00000020: 70fd 1541 6e41 c440 f656 4141 6fb2 0141
00000030: d48e 2641 e464 1341 9a24 4341 0403 9f40
00000040: 5ca7 1b40 785f a840 98e5 6f40 e8ef ce40
00000050: 6ffa a940 0bea 0841 f485 b240 1a9d 3941
00000060: c012 3c41 2af2 a840 bb90 2341 8a06 5040
00000070: 0638 8441 23aa eb40 c2f8 ea40 6820 f540
00000080: ede5 5141 4e3c 8040 0242 1341 b194 b540
00000090: cdcf 4041 67e2 4641 26b8 4840 4d30 7741
000000a0: c736 5341 bc61 9d40 814e ff40 a949 3741
000000b0: 45ea 1441 d6e0 0441 344a 8940 b10a 4241
000000c0: 6abd ce40 efd9 9140 1536 4c40 312e 4841
000000d0: 8239 0141 ca01 eb40 0d69 2341 5ad6 a340
000000e0: e5c2 0b41 8fcc 8141 be07 cb40 4ebe 0e41
000000f0: 6434 1241 c14c 2741 ab5b 6a41 25a2 8f40

emb_func.layer3.0.weight f4 [64, 64, 3, 3]
0.04373364 0.09788461 0.060965087 0.106858805 0.10551607 0.1360727 -0.036918018 0.05365358
0.19932526 0.1574872 0.04154873 0.07493171 0.03344594 0.016776066 0.009363585 -0.03966306
-0.047646157 -0.03284854 -0.12673542 -0.089875095 -0.1486304 -0.049442284 -0.002085754 -0.048406377
0.0005217138 0.06414035 0.011664459 0.05480074 -0.00033660422 0.004044133 -0.05977637 -0.06555071
-0.049303178 -0.028637981 -0.030808743 -0.04685102 0.036166366 0.11160467 0.18878888 -0.03004308
0.1079936 0.2213957 -0.2260089 -0.120457746 -0.02150896 0.023283537 0.00049139425 0.08598243
-0.018657397 -0.085529394 -0.026380865 -0.15514317 -0.22161591 -0.09315812 -0.060183305 0.001984213
0.060433064 0.052121602 -0.026973218 -0.09516294 0.06800891 0.03681446 0.023558438 0.06937173
0.038328893 -0.04224244 0.025505075 -0.014890479 -0.031905282 -0.15205412 -0.18325667 -0.09815399
-0.0281528 -0.045721583 -0.08948028 -0.11658213 -0.08330517 -0.07271882 -0.10635573 -0.087371804
-0.08725571 0.25891393 0.118403144 0.06056807 0.07988726 0.027440557 0.0025484257 -0.010009405
-0.011630544 0.06528453 -0.06701618 -0.009570002 -0.015419624 -0.022476388 0.009642008 0.013637997
-0.020455906 -0.019851705 -0.04662023 -0.0898635 0.010714033 0.094126925 -0.09782587 0.026546244
0.16478758 -0.24093834 -0.12512136 -0.034216873 -0.041772727 0.084979385 0.013665026 -0.06471154
-0.073216975 -0.26714724 0.044045627 -0.08271636 -0.2801798 -0.18860179 -0.12018839 -0.17243798
-0.010283143 -0.00058858935 -0.03006542 0.16808031 0.11219554 0.12374279 -0.03494972 0.009323204
0.0070938785 -0.07690987 -0.08973502 0.08315107 -0.08495573 -0.050697837 -0.08011983 -0.006220546
0.033337194 0.046672046 -0.023758365 0.06663202 0.07948558 -0.057212602 0.016860792 0.0005641994
0.054054774 0.0030327241 0.047475874 -0.008438227 -0.0047685425 0.020004602 0.074486755 0.041714557
0.05896292 0.031090446 -0.024415072 -0.1231674 0.04896967 -0.045327198 -0.11721088 0.042923544
-0.022376591 -0.049007658 -0.03321447 -0.042725157 -0.05994357 -0.036459997 -0.044141486 -0.06983618
-0.05743731 -0.03239028 -0.020793637 -0.21473044 -0.2181328 -0.16476038 -0.22036912 -0.12526336
-0.10788083 -0.012833377 -0.04088597 -0.028978959 0.020345135 0.063013166 0.06956795 -0.141827
-0.121742755 0.0009751938 -0.051225685 -0.11820673 -0.106798604 -0.02240982 0.043432012 0.01460407
0.0824843 0.046306897 0.0035367673 0.057861563 0.03813757 0.0064321742 0.20530507 0.019141104
0.008029427 0.11257381 -0.008638018 -0.098450266 0.12787835 0.067335494 0.00068258395 0.081646025
0.10713674 0.07056273 0.014481283 0.09428668 0.103801616 -0.012517203 0.019885287 0.045132518
-0.06231836 0.03564582 0.008521439 0.07783553 0.062972955 0.016412567 0.10545675 0.09108362
0.038390312 0.025317876 -0.0072037075 0.015183289 0.051627032 0.03056742 -0.0039388314 0.109179325
-0.02858849 -0.024250053 -0.12141438 -0.15530266 -0.14258759 -0.04121022 0.1245799 0.02536793
0.033021193 0.2173169 0.0772049 0.04396899 0.00732142 -0.007860563 -0.07508177 -0.08339401
-0.13900477 -0.056968246 -0.04462958 -0.056877773 -0.30665544 -0.18619151 -0.023079861 -0.20571111
00000000: 0c22 333d ba77 c83d 87b6 793d cad8 da3d
00000010: cf18 d83d a456 0b3e 5937 17bd dbc3 5b3d
00000020: ec1b 4c3e 5344 213e 002f 2a3d cc75 993d
00000030: 9cfe 083d f66d 893c b969 193c bc75 22bd
00000040: 9e28 43bd 318c 06bd eec6 01be 6f10 b8bd
00000050: 9132 18be fe83 4abd 25b1 08bb c445 46bd
00000060: 9fc3 083a 045c 833d 491c 3f3c be76 603d
00000070: 417a b0b9 a584 843b 11d8 74bd 733f 86bd
00000080: 21f2 49bd 339a eabc 9e62 fcbc dbe6 3fbd
00000090: 2f23 143d fd90 e43d df51 413e e81c f6bc
000000a0: c02b dd3d 8eb5 623e e16e 67be 8db2 f6bd
000000b0: 8f33 b0bc 1ebd be3c e9d0 003a 8e17 b03d
000000c0: 66d7 98bc 092a afbd af1c d8bc dadd 1ebe
000000d0: 48ef 62be afc9 bebd c582 76bd 9209 023b
000000e0: a988 773d 767d 553d f0f6 dcbc cae4 c2bd
000000f0: 4148 8b3d c2ca 163d a0fd c03c c412 8e3d
00000100: c2fe 1c3d 6906 2dbd 05f0 d03c 32f7 73bc
00000110: 1daf 02bd 13b4 1bbe a3a7 3bbe f604 c9bd
00000120: b3a0 e6bc 8e46 3bbd 7041 b7bd 9dc2 eebd
00000130: e79b aabd 9bed 94bd 08d1 d9bd fdef b2bd
00000140: 1fb3 b2bd 5e90 843e 597d f23d 3916 783d
00000150: ef9b a33d 05cb e03c 7d03 273b 7dfe 23bc
00000160: 0a8e 3ebc e5b3 853d c73f 89bd 7fcb 1cbc
00000170: 97a2 7cbc 6720 b8bc 83f9 1d3c e871 5f3c
00000180: 2593 a7bc 0ba0 a2bc dbf4 3ebd 5b0a b8bd
00000190: e989 2f3c 9ec5 c03d ee58 c8bd 8277 d93c
000001a0: 13be 283e 8ab8 76be d01f 00be fe26 0cbd
000001b0: e119 2bbd ac09 ae3d 46e3 5f3c 7c87 84bd
000001c0: c8f2 95bd 86c7 88be 3069 343d 3267 a9bd
000001d0: ba73 8fbe d420 41be 5525 f6bd 9593 30be
000001e0: a17a 28bc 904b 1aba c14b f6bc 3f1d 2c3e
000001f0: c6c6 e53d dc6c fd3d 7027 0fbd 5ac0 183c
00000200: c473 e83b ec82 9dbd ffc6 b7bd 1c4b aa3d
00000210: 45fd adbd 89a8 4fbd de15 a4bd b9d5 cbbb
00000220: 958c 083d 302b 3f3d e7a0 c2bc 5e76 883d
00000230: 56c9 a23d c357 6abd a51f 8a3c c8e6 133a
00000240: 8a68 5d3d abc0 463b 1076 423d 7d40 0abc
00000250: 6f41 9cbb b1e0 a33c 838c 983d e2dc 2a3d
00000260: 1a83 713d 64b1 fe3c 1e02 c8bc 313f fcbd
00000270: 6c94 483d 03a9 39bd 420c f0bd 99d0 2f3d
00000280: 1d4f b7bc 41bc 48bd e50b 08bd 9300 2fbd
00000290: 6487 75bd 1457 15bd b4cd 34bd 4506 8fbd
000002a0: 6343 6bbd acab 04bd 6b57 aabc 4ce2 5bbe
000002b0: 345e 5fbe f2b6 28be 71a8 61be 0a45 00be
000002c0: a0f0 dcbd 1643 52bc 0c78 27bd 4865 edbc
000002d0: d7aa a63c 0c0d 813d a479 8e3d 193b 11be
000002e0: 4454 f9bd 26a4 7f3a 06d2 51bd 5f16 f2bd
000002f0: 3ab9 dabd cd94 b7bc c4e5 313d e945 6f3c
00000300: 87ed a83d 4dac 3d3d 1cc9 673b 3f00 6d3d
00000310: 2436 1c3d fdc4 d23b 7e3b 523e cecd 9c3c
00000320: dc8d 033c 198d e63d 7986 0dbc 4ba0 c9bd
00000330: 8bf2 023e 31e7 893d 6fef 323a 0836 a73d
00000340: 826a db3d 3183 903d e742 6d3c 6019 c13d
00000350: f195 d43d f414 4dbc 78e6 a23c e0dc 383d
00000360: 8941 7fbd 5a01 123d 819d 0b3c 3c68 9f3d
00000370: f7f7 803d a673 863c b5f9 d73d 0d8a ba3d
00000380: 293f 1d3d 6f67 cf3c 140d ecbb 54c3 783c
00000390: de76 533d 8768 fa3c 5011 81bb 6999 df3d
000003a0: 6932 eabc 0ca8 c6bc 1aa8 f8bd a907 1fbe
000003b0: 7b02 12be 0ccc 28bd bf23 ff3d 68d0 cf3c
000003c0: 3b41 073d 5288 5e3e 9a1d 9e3d d418 343d
000003d0: 86e8 ef3b 97c9 00bc 79c4 99bd 7bca aabd
000003e0: 4457 0ebe 8957 69bd 82cd 36bd abf8 68bd
000003f0: f101 9dbe fda8 3ebe fa11 bdbc efa5 52be

emb_func.layer3.0.bias f4 [64]
-0.0004931396 -0.00011217067 -0.00461773 -0.0038041403 -0.005119776 -0.00012925635 -0.004303025 1.567801e-05
-0.0026765808 -0.0019424895 0.0054746824 -0.0050917277 -0.002480473 0.0004438228 -0.0017844139 0.002213225
0.005649336 0.0030289437 0.002990214 -0.0005278686 -0.0010576091 0.0016367598 0.0031758337 0.003816361
0.0022291811 0.0031508827 0.0013302626 -0.00010525033 -0.0011660187 -0.004585539 -0.0058993474 -0.0057259277
0.004639215 0.0014968526 0.005424675 -0.004489574 0.0050209793 -0.005827515 -0.0010889634 0.0026737247
-0.0055275564 0.0039655473 -0.005471777 0.0039327783 0.0049271747 0.004556845 0.00013264456 0.0034775322
0.0026682925 0.004751705 -0.005644337 -0.005710541 -0.003971096 0.0052842824 0.001973175 -0.00047215866
-0.001370807 0.0038728607 0.0041697063 -0.0045225224 -0.0009077754 0.0038958632 -0.004128128 0.004017237
00000000: 0a46 01ba 2b3d ebb8 5450 97bb e24e 79bb
00000010: cbc3 a7bb fd88 07b9 6400 8dbb 4584 8337
00000020: 9369 2fbb 229b feba f764 b33b 82d8 a6bb
00000030: 6e8f 22bb e3b0 e839 ffe2 e9ba c10b 113b
00000040: 111e b93b 3e81 463b 77f7 433b a960 0aba
00000050: 799f 8aba 8c88 d63a a621 503b ea1b 7a3b
00000060: 7417 123b 0a7f 4e3b 355c ae3a d7b9 dcb8
00000070: 18d5 98ba 4a42 96bb 504f c1bb 90a0 bbbb
00000080: 8e04 983b 0a32 c43a 79c1 b13b 471d 93bb
00000090: 0787 a43b bdf4 bebb 8cbb 8eba a839 2f3b
000000a0: 8120 b5bb 6cf1 813b 984c b3bb 89de 803b
000000b0: 2374 a13b 9651 953b 8116 0b39 4fe7 633b
000000c0: 85de 2e3b 31b4 9b3b 21f4 b8bb 7d1f bbbb
000000d0: f81f 82bb c627 ad3b 6250 013b 108c f7b9
000000e0: a6ac b3ba d2cf 7d3b 08a2 883b ab31 94bb
000000f0: c7f7 6dba bd51 7f3b 3f45 87bb 07a3 833b

emb_func.layer3.1.weight f4 [64]
0.9392085 0.9879271 0.989606 0.6810226 1.0311387 0.81209314 1.1917523 1.1066666
0.8410894 0.7299835 0.8157173 0.5387936 0.96460557 0.952317 0.9456443 0.9014844
1.0138513 0.9829991 0.82860696 0.90679544 0.8399903 1.0026848 0.7388137 0.97977805
0.9472792 1.1092223 0.76276875 0.6453317 0.85772246 0.91843134 0.9183918 1.0250386
1.1903758 0.9253871 0.8612912 1.0097171 1.1004231 0.82116497 1.0967733 0.8031291
0.65596217 1.0787083 1.1681703 1.0374123 0.46417138 0.91619456 1.0999345 0.99701434
0.8840112 0.812835 0.9813967 0.63168365 1.006666 0.89920974 0.9856232 0.78510106
0.75425327 0.9894692 0.75704163 1.0383382 0.79405737 0.83201313 1.0172187 0.9424564
00000000: f86f 703f cae8 7c3f d256 7d3f 7f57 2e3f
00000010: 5afc 833f 56e5 4f3f 578b 983f 40a7 8d3f
00000020: a351 573f 33e0 3a3f d9d2 503f 61ee 093f
00000030: 64f0 763f 0ccb 733f bf15 723f aec7 663f
00000040: e1c5 813f d4a5 7b3f 961f 543f bf23 683f
00000050: 9b09 573f fa57 803f e522 3d3f bcd2 7a3f
00000060: e480 723f fffa 8d3f d044 433f 7534 253f
00000070: b393 5b3f 511e 6b3f ba1b 6b3f 7734 833f
00000080: 3c5e 983f 2be6 6c3f 957d 5c3f 693e 813f
00000090: aada 8c3f de37 523f 1163 8c3f de99 4d3f
000000a0: 23ed 273f 1d13 8a3f 9b86 953f edc9 843f
000000b0: dfa7 ed3e ba8b 6a3f a7ca 8c3f 553c 7f3f
000000c0: 8f4e 623f f415 503f d03c 7b3f 05b6 213f
000000d0: 6eda 803f 9c32 663f cd51 7c3f 62fc 483f
000000e0: be16 413f da4d 7d3f 7bcd 413f 44e8 843f
000000f0: 5847 4b3f d0fe 543f 3934 823f d344 713f

emb_func.layer3.1.bias f4 [64]
-0.5313055 -0.66972464 -0.89602476 0.04712255 -0.6222988 -0.61283684 -0.8981349 -0.7745456
-0.39569047 -0.32425907 -0.76234144 0.07435505 -0.63153017 -0.44410515 -0.6796181 -0.40772682
-1.1086583 -0.6599787 -0.45917422 -0.680298 -0.5293069 -0.7670974 -0.70914084 -0.58323836
-0.5360191 -0.7856853 -0.5389111 -0.18480831 -0.37669033 -0.90986335 -0.50503135 -0.6366038
-0.61890227 -0.98570156 -0.5988206 -0.63652533 -0.7771474 -0.57601863 -0.6221017 -0.4611677
-0.06520191 -0.5902234 -0.42568395 -0.8934722 0.18178466 -0.5634604 -0.7271564 -0.30948192
-0.65338314 -0.51526433 -0.72250897 -0.5375317 -0.7202927 -0.5491842 -0.81814414 -0.32521003
-0.46102765 -0.49272424 -0.40101603 -0.7298112 -0.24710707 -0.39309627 -0.83001727 -0.5834559
00000000: a303 08bf 1373 2bbf e161 65bf 9303 413d
00000010: f94e 1fbf e0e2 1cbf 2bec 65bf 9f48 46bf
00000020: f197 cabe 4905 a6be cf28 43bf 7647 983d
00000030: f6ab 21bf c061 e3be 74fb 2dbf 92c1 d0be
00000040: 84e8 8dbf 5df4 28bf e218 ebbe 0228 2ebf
00000050: a880 07bf 7f60 44bf 418a 35bf 1c4f 15bf
00000060: 8c38 09bf ac22 49bf 14f6 09bf 643e 3dbe
00000070: 8edd c0be ceec 68bf bc49 01bf 77f8 22bf
00000080: 6170 1ebf f056 7cbf 4f4c 19bf 53f3 22bf
00000090: 22f3 46bf f575 13bf 0f42 1fbf 2c1e ecbe
000000a0: 9488 85bd e118 17bf 3ff3 d9be 98ba 64bf
000000b0: c225 3a3e f13e 10bf ec26 3abf 6a74 9ebe
000000c0: 1e44 27bf 5de8 03bf 59f6 38bf ad9b 09bf
000000d0: 1a65 38bf 5697 0cbf e571 51bf ee81 a6be
000000e0: d10b ecbe 5a46 fcbe f951 cdbe e8d4 3abf
000000f0: a309 7dbe ea43 c9be 037c 54bf 5e5d 15bf

emb_func.layer3.1.running_mean f4 [64]
-2.7566454 -2.0471637 -1.0745631 -4.3598924 -2.3481545 -2.5181456 -3.3183308 -3.6653967
-2.6423287 -1.8557292 1.6826508 -1.803274 -1.818693 -4.2223415 -2.2796018 -2.6484044
-2.7923956 -4.006697 -0.7497032 -2.9223857 -1.7401047 -3.0866191 -1.6522162 -3.4363353
-3.1113417 -3.776422 -1.472873 -0.76049316 -3.106098 -2.2143862 -2.0387363 -3.2081559
-2.8802586 0.5887262 -0.1187041 -1.7247481 -2.3236508 -1.2346175 -3.061055 -2.422477
-3.438718 -2.372997 -2.458683 -1.7487402 -0.16437066 -2.575371 -2.8102124 -4.066303
-1.4117421 -2.7461736 -3.263902 1.6031857 -3.199286 -1.72868 -2.8512506 -1.7151948
-0.9041159 -2.4446437 -0.5537918 -2.168933 -2.8231611 -2.0010498 -2.63455 -2.1357324
00000000: e16c 30c0 bb04 03c0 498b 89bf 3d84 8bc0
00000010: 2a48 16c0 4c29 21c0 885f 54c0 dc95 6ac0
00000020: ea1b 29c0 8988 edbf 1a61 d73f afd1 e6bf
00000030: efca e8bf 6c1d 87c0 ffe4 11c0 757f 29c0
00000040: 9cb6 32c0 dd36 80c0 8dec 3fbf 5e08 3bc0
00000050: c0bb debf 2b8b 45c0 d27b d3bf ebec 5bc0
00000060: 3920 47c0 e6b0 71c0 1a87 bcbf aeaf 42bf
00000070: 4fca 46c0 81b8 0dc0 a87a 02c0 6d52 4dc0
00000080: 2856 38c0 c3b6 163f 231b f3bd 8cc4 dcbf
00000090: b2b6 14c0 f207 9ebf 53e8 43c0 dd09 1bc0
000000a0: f513 5cc0 2fdf 17c0 105b 1dc0 b8d6 dfbf
000000b0: c850 28be e1d2 24c0 85da 33c0 271f 82c0
000000c0: f7b3 b4bf 4fc1 2fc0 c5e3 50c0 3035 cd3f
000000d0: 1ac1 4cc0 6345 ddbf e47a 36c0 818b dbbf
000000e0: 2474 67bf 0b75 1cc0 4dc5 0dbf cccf 0ac0
000000f0: acae 34c0 3311 00c0 789c 28c0 d7af 08c0

emb_func.layer3.1.running_var f4 [64]
4.696304 6.884939 3.7939487 5.843735 6.040224 3.7966626 5.258425 9.998683
4.226214 3.9407136 2.1947582 3.2072413 4.7351913 6.2861414 5.191407 4.971344
4.4832335 5.1409063 3.748937 4.137767 2.859636 4.8485975 2.2264361 3.7708936
5.8873534 4.85721 3.1231358 3.7015276 4.516375 3.4772656 3.881682 7.2304764
7.7558026 2.367513 3.7743492 5.4647183 5.723715 4.9094334 7.5326176 5.436449
3.5810325 8.575788 10.918547 4.049001 2.9781573 4.314567 6.668752 8.535149
4.087589 3.0013866 3.711147 2.2518117 7.752679 3.5912066 6.4576087 5.293531
2.168443 4.737066 3.4429479 5.937098 3.8144588 3.243039 4.676323 4.470048
00000000: 1f48 9640 6c51 dc40 0ed0 7240 e1ff ba40
00000010: 8449 c140 85fc 7240 0545 a840 9bfa 1f41
00000020: 253d 8740 a734 7c40 eb76 0c40 7143 4d40
00000030: b086 9740 1228 c940 0220 a640 4015 9f40
00000040: a676 8f40 4e82 a440 95ee 6f40 9668 8440
00000050: 4704 3740 b627 9b40 ee7d 0e40 5256 7140
00000060: 3365 bc40 446e 9b40 75e1 4740 d4e5 6c40
00000070: 2586 9040 858b 5e40 7a6d 7840 1060 e740
00000080: 892f f840 5585 1740 f08e 7140 f9de ae40
00000090: ac28 b740 141a 9d40 340b f140 64f7 ad40
000000a0: a32f 6540 6d36 0941 5eb2 2e41 6b91 8140
000000b0: 219a 3e40 ef10 8a40 6b66 d540 f88f 0841
000000c0: 87cd 8240 b816 4040 6f83 6d40 af1d 1040
000000d0: f215 f840 54d6 6540 bba4 ce40 9b64 a940
000000e0: c5c7 0a40 0b96 9740 4259 5c40 b5fc bd40
000000f0: 1820 7440 f38d 4f40 70a4 9540 a20a 8f40

emb_func.layer4.0.weight f4 [64, 64, 3, 3]
0.01513212 -0.14136824 0.2475877 -0.20507815 -0.11716123 0.104607075 -0.070803694 0.044722043
0.02643442 -0.2048641 0.07747027 0.29888263 -0.23036596 -0.01594553 0.0073654605 -0.35404563
-0.0655037 -0.013426121 0.27304533 0.20127702 0.5483934 -0.03659546 0.084467806 0.09192993
-0.10333829 -0.032139756 -0.06760617 0.07614904 -0.0949711 -0.115994096 0.0891555 0.15135261
0.15022108 0.15718403 0.15702975 0.024316749 -0.08432029 -0.14378898 -0.11060042 0.1504574
0.08540476 0.087989956 0.085846424 0.1011034 0.026630787 -0.18638581 -0.08017938 -0.113389336
-0.31784016 -0.18895817 -0.3205197 -0.11458275 0.008761256 -0.16829742 0.06966139 -0.06805415
0.0034034315 -0.015201565 -0.10258571 -0.048864406 -0.19313304 -0.18111813 -0.11502919 0.041391723
0.050014745 0.015421213 -0.023619628 0.073968485 0.027302435 0.014954596 0.024799714 0.020311043
0.1483512 -0.050100256 0.031051984 -0.11667516 -0.090657495 -0.04724701 -0.18366922 -0.2356907
-0.18440264 -0.100270905 0.030912114 0.027804453 -0.054620653 0.16972563 -0.19007194 0.066202246
0.16083711 0.1151197 -0.032600738 -0.05249759 0.020249002 -0.032049395 0.052715562 0.08903915
0.14092603 0.06458565 0.062312342 -0.22921135 0.058926586 -0.1675322 -0.02363983 0.17751999
0.055857442 0.2217775 -0.006753696 0.14890389 0.036332436 -0.042036463 -0.08606019 -0.21602611
-0.09322053 -0.31062528 -0.02832271 -0.0056940145 0.080898754 0.017431278 -0.17256823 -0.17829159
0.097156614 0.09846618 0.18165186 -0.05527834 -0.10436187 -0.1166779 0.22592282 0.021259703
-0.05418069 -0.08276872 -0.13437665 -0.20106086 -0.03945381 -0.05981509 -0.22141206 -0.035732932
-0.11577571 -0.17825985 -0.058778286 0.008929419 -0.022967486 0.11619174 0.062907405 0.07244483
0.124254 -0.122289516 0.08920506 -0.1108542 -0.064631976 -0.03137818 -0.19598547 0.037970196
-0.095420964 0.18194051 0.06317908 0.2606495 -0.0050280993 0.021598024 -0.047604132 -0.115155935
-0.06422064 -0.08851356 -0.15068364 0.005669449 -0.041394617 -0.18142942 -0.1884207 -0.11122701
-0.104674086 -0.22437601 0.030487202 -0.0069911806 0.08199253 0.07567462 -0.12995031 -0.09620757
-0.03314407 -0.13088322 -0.07033322 -0.12063564 0.082835294 0.031995792 0.010763292 -0.117359824
0.07081929 0.06336156 -0.09273636 0.0905724 -0.116860375 0.3043614 -0.0053669824 0.18044555
0.06794599 0.033904396 0.01441881 -0.08181213 0.07749101 0.024038544 0.26511928 -0.0758966
0.09771096 0.22833847 -0.061757036 0.14569096 -0.0018532248 0.06510346 -0.010226859 0.22771126
-0.10731269 0.012818137 0.065187395 -0.08201963 -0.045728628 -0.02984584 -0.037308853 -0.03626437
-0.037083603 -0.2595293 -0.099725164 -0.012893504 0.07526388 0.13592777 -0.03046584 0.26262206
0.21087328 -0.003329036 -0.021995805 -0.030413017 0.004326741 0.23934175 0.021823736 -0.21045668
-0.110787086 -0.24739124 -0.195387 -0.13134523 0.00666402 0.022580508 0.21607046 0.040166397
-0.016296001 0.07033938 0.03254335 0.19570395 0.24484722 0.23139921 0.352838 0.12671019
0.20614676 0.0567921 0.16373119 0.09204897 -0.028022353 -0.11914467 -0.0922413 -0.16185874
00000000: b6ec 773c d6c2 10be a187 7d3e 0200 52be
00000010: 3af2 efbd 3c3c d63d 8701 91bd 762e 373d
00000020: ff8c d83c e5c7 51be bca8 9e3d 2507 993e
00000030: 0ee5 6bbe 33a0 82bc f659 f13b 7845 b5be
00000040: ce26 86bd 3cf9 5bbc 99cc 8b3e 901b 4e3e
00000050: 8363 0c3f 1fe5 15bd 75fd ac3d c245 bc3d
00000060: 06a3 d3bd faa4 03bd 1b75 8abd 07f4 9b3d
00000070: 3580 c2bd 508e edbd 2997 b63d 2efc 1a3e
00000080: 8ed3 193e daf4 203e 68cc 203e eb33 c73c
00000090: 1eb0 acbd 6b3d 13be 7982 e2bd 8111 1a3e
000000a0: b1e8 ae3d 1434 b43d 40d0 af3d 4d0f cf3d
000000b0: cf28 da3c ecdb 3ebe 1635 a4bd ab38 e8bd
000000c0: f2bb a2be 407e 41be 281b a4be 5caa eabd
000000d0: 5f8b 0f3c 2956 2cbe a1aa 8e3d f95f 8bbd
000000e0: 1b0c 5f3b fc0f 79bc 7518 d2bd 0b26 48bd
000000f0: abc4 45be 0877 39be 6d94 ebbd 5e8a 293d
00000100: 43dc 4c3d 41a9 7c3c f37d c1bc ca7c 973d
00000110: 5ba9 df3c 1f04 753c c528 cb3c 5863 a63c
00000120: 61e9 173e ed35 4dbd bb60 fe3c 63f3 eebd
00000130: a3aa b9bd 1586 41bd c913 3cbe e758 71be
00000140: 0cd4 3cbe d55a cdbd 673b fd3c 2ac6 e33c
00000150: e8b9 5fbd 8ecc 2d3e 38a2 42be 0b95 873d
00000160: 7cb2 243e e1c3 eb3d 5a88 05bd b707 57bd
00000170: 3ce1 a53c 3a46 03bd 46ec 573d 285a b63d
00000180: ea4e 103e 7b45 843d 3a3b 7f3d 61b6 6abe
00000190: 015d 713d 908d 2bbe 51a8 c1bc cdc7 353e
000001a0: c6ca 643d a419 633e 1c4e ddbb 437a 183e
000001b0: 52d1 143d 6d2e 2cbd 5340 b0bd f335 5dbe
000001c0: 68ea bebd 470a 9fbe 0705 e8bc db94 babb
000001d0: 3fae a53d 0acc 8e3c bab5 30be 1292 36be
000001e0: 0cfa c63d a3a8 c93d f202 3a3e 8a6b 62bd
000001f0: adbb d5bd d3f4 eebd 5058 673e d428 ae3c
00000200: 92ec 5dbd a682 a9bd 089a 09be e6e2 4dbe
00000210: 519a 21bd ab00 75bd d8b9 62be b25c 12bd
00000220: d11b edbd c089 36be 80c1 70bd b34c 123c
00000230: 4f26 bcbc eff5 ed3d 99d5 803d f45d 943d
00000240: e278 fe3d ed72 fabd 24b1 b63d 8707 e3bd
00000250: c55d 84bd 6886 00bd 6ab0 48be a386 1b3d
00000260: 116c c3bd 9d4e 3a3e 0964 813d da73 853e
00000270: c1c2 a4bb 57ee b03c 8dfc 42bd e0d6 ebbd
00000280: 1c86 83bd 9946 b5bd d04c 1abe c9c6 b93b
00000290: 678d 29bd a2c8 39be 5bf1 40be fdca e3bd
000002a0: 5e5f d6bd d3c2 65be 4cc0 f93c 4616 e5bb
000002b0: b3eb a73d 4cfb 9a3d b211 05be 7908 c5bd
000002c0: 14c2 07bd 4006 06be dd0a 90bd d20f f7bd
000002d0: 8da5 a93d 050e 033d 8558 303c 595a f0bd
000002e0: b409 913d b5c3 813d 90ec bdbd 067e b93d
000002f0: 7e54 efbd 42d5 9b3e 83dd afbb b8c6 383e
00000300: 4427 8b3d 56df 0a3d df3c 6c3c 1e8d a7bd
00000310: 9bb3 9e3d 7bec c43c b7bd 873e ad6f 9bbd
00000320: af1c c83d 8fd1 693e f2f4 7cbd 0330 153e
00000330: e8e7 f2ba f654 853d 8e8e 27bc 242d 693e
00000340: c1c6 dbbd 2a03 523c f880 853d e8f9 a7bd
00000350: f14d 3bbd 437f f4bc 2bd1 18bd f389 14bd
00000360: fae4 17bd 06e1 84be b53c ccbd 473f 53bc
00000370: f323 9a3d a630 0b3e 7f93 f9bc 6676 863e
00000380: 2aef 573e f52b 5abb 8c30 b4bc b824 f9bc
00000390: 56c7 8d3b 0116 753e b1c7 b23c f581 57be
000003a0: 57e4 e2bd 2154 7dbe 8813 48be 5d7f 06be
000003b0: da5d da3b c2fa b83c 9341 5d3e 8585 243d
000003c0: 317f 85bc 180e 903d 2d4c 053d 9e66 483e
000003d0: 3bb9 7a3e eaf3 6c3e 2fa7 b43e 51c0 013e
000003e0: 2318 533e d59e 683d 26a9 273e 2c84 bc3d
000003f0: 228f e5bc 1f02 f4bd 02e9 bcbd 4cbe 25be

emb_func.layer4.0.bias f4 [64]
0.005211962 0.00064811873 0.0011284462 -0.003727107 -0.00498601 -0.005754772 0.0018633378 -0.0021319953
-0.004163937 -0.0031943342 0.0026360145 0.0034140556 -0.0029741104 -0.003223443 -0.0036964747 -0.0007249219
0.005640263 -0.0035706328 0.0002390889 -0.0039963727 0.0033590249 -0.0025265715 -0.004338683 0.00097432034
-0.00053107605 0.0052189915 0.002649436 -0.0037301732 0.003818511 0.005833611 -0.002607598 -0.0018726912
0.0028428815 0.00096067047 8.430951e-06 0.0030346792 -0.0015903476 0.0030520528 0.0011975131 -0.0030176067
0.004295793 0.00080447324 -0.0027039356 0.002827659 0.002755084 0.003490395 0.0019167026 -0.0057855323
0.0031405066 0.0026035444 -0.005678294 -0.0019158871 -0.005306328 -0.0023167883 0.00076132215 -0.0056473534
0.0024747388 -0.004281134 0.002115105 0.0016406475 -0.0057754787 0.0044442224 -0.0026558342 0.0049814163
00000000: 1bc9 aa3b 83e6 293a 5fe8 933a 7b42 74bb
00000010: af61 a3bb 8792 bcbb 3e3b f43a f2b8 0bbb
00000020: a371 88bb 0958 51bb fcc0 2c3b 59be 5f3b
00000030: 4be9 42bb 6640 53bb 8e40 72bb af08 3eba
00000040: f5d1 b83b 4701 6abb f0b3 7a39 01f4 82bb
00000050: 1623 5c3b d694 25bb 832b 8ebb 8869 7f3a
00000060: e937 0bba 1304 ab3b 29a2 2d3b ec75 74bb
00000070: fc3f 7a3b e027 bf3b 3ce4 2abb 1775 f5ba
00000080: a34f 3a3b 81d5 7b3a a972 0d37 78e1 463b
00000090: 3673 d0ba f304 483b dff5 9c3a 0ac3 45bb
000000a0: b9c3 8c3b 49e3 523a 8334 31bb 3f50 393b
000000b0: a48e 343b 1cbf 643b de39 fb3a 9094 bdbb
000000c0: f5d0 4d3b 3aa0 2a3b fc10 babb 811e fbba
000000d0: b5e0 adbb 42d5 17bb 7793 473a 6f0d b9bb
000000e0: 3a2f 223b c148 8cbb 939d 0a3b ff0a d73a
000000f0: 3a40 bdbb d7a0 913b 810d 2ebb 263b a33b
