results/RENet-dataset-Conv64F-5-1-Jan-08-2024-14-32-52/checkpoints/model_00050.pth (torch, 909453 bytes, 69 tensors)

emb_func.layer1.0.weight f4 [64, 3, 3, 3]
0.37641403 -0.07794545 -0.22568363 -0.86392325 -0.70326775 -0.0030720208 0.16999489 0.6797053
0.7737615 0.4327849 -0.22639164 -0.30343822 -1.139729 -0.9754339 -0.08429117 0.07185455
0.7292519 0.899698 0.6375176 0.010169286 -0.09451454 -0.8356302 -0.73674047 0.12175167
-0.089368 0.5614246 0.76683766 -0.20369299 -0.15533456 -0.23309156 -0.21476145 -0.11840434
-0.25696948 -0.03242599 -0.06625332 -0.11813611 -0.056019958 0.05574695 -0.055091534 -0.017822355
0.04920253 -0.055177785 0.09873253 0.06296904 0.025618672 0.02107755 0.120801724 0.02526673
0.03878282 0.13645563 0.0806446 0.1795032 0.16780776 0.111760624 0.048414342 -0.10047421
-0.078621306 -0.36671862 -0.40423617 -0.42983022 -0.26721013 -0.20143719 -0.30445248 0.28564698
0.22500904 0.20984106 0.03169898 0.031548753 -0.015912913 -0.21228638 -0.21079838 -0.28365916
0.40110242 0.3634722 0.36673066 0.30214414 0.27305713 0.16704434 -0.01692314 -0.0024628702
-0.1014659 0.50890607 0.79125214 0.7045437 -0.5070667 -0.4932881 -0.24828123 -0.08432132
-0.21434492 -0.26391485 0.6975762 1.0317353 0.9713491 -0.56922716 -0.6475444 -0.35609293
-0.29078406 -0.6318611 -0.63983303 0.63196397 1.0098115 0.9290676 -0.3844596 -0.42045045
-0.17451565 -0.16903965 -0.56885165 -0.538065 0.3767691 0.015518136 -0.17175837 0.9185841
-0.3247733 -0.41076347 0.8892935 -0.5139237 -0.6098909 0.15042928 -0.0921904 -0.14674366
0.76386446 -0.46328053 -0.52567625 0.81451386 -0.66013837 -0.6315593 0.27142432 0.098639846
0.13103555 0.7305408 -0.29837936 -0.22483163 0.7792987 -0.47924942 -0.3603102 -0.17766358
-0.20867674 -0.3275877 0.095066525 0.06854108 0.0014925263 0.35941926 0.4364312 0.37297663
0.09800241 0.05886216 -0.027617106 -0.47233006 -0.6184247 -0.689883 -0.56953114 -0.5958222
-0.5488679 0.77256566 0.6993896 0.5168524 0.20365961 0.012219241 -0.04135156 0.079628855
0.04423755 0.048891537 -0.54750824 -0.69948804 -0.33111906 -0.6611215 -0.25399238 0.2274626
0.15781552 0.47444838 0.71516234 0.04115885 -0.09897246 0.19981313 -0.4343546 0.045786094
0.4570452 0.040362127 0.36449882 0.46476927 0.10102261 -0.12829144 0.1381123 -0.5233984
-0.15428312 0.19806345 -0.4025837 -0.15174994 -0.05975179 0.568811 0.73465544 0.7461577
-0.41971523 -0.24799173 -0.08592823 -0.7293804 -0.4564941 -0.1722307 0.4100139 0.5657746
0.49753907 -0.45556998 -0.373524 -0.22000283 -0.899443 -0.58076423 -0.2992403 0.46331558
0.5584222 0.47289196 -0.1063485 -0.0065742796 0.14390567 -0.35103226 -0.106735766 0.19454929
-0.4998667 -0.49036235 -0.12042729 -0.01955967 -0.014421469 0.0825546 0.4056684 0.45484173
0.37278813 -0.37587696 -0.38997257 -0.13745938 -0.062224034 -0.09329177 -0.07284625 0.26871303
0.26485223 0.176418 -0.28004935 -0.29227388 -0.075237215 0.03164194 -0.0073187854 0.0026051756
0.21831994 0.2337117 0.09906803 -0.09131094 -0.19456866 -0.2022724 -0.22109038 -0.43186468
-0.28168368 -0.14046994 -0.29136178 -0.12925489 0.02481891 -0.0796205 -0.04889067 0.015477849
00000000: 57b9 c03e dda1 9fbd 9c19 67be 132a 5dbf
00000010: 5b09 34bf f553 49bb 2413 2e3e 2b01 2e3f
00000020: 3c15 463f fb95 dd3e 36d3 67be 415c 9bbe
00000030: a4e2 91bf 09b6 79bf d9a0 acbd 7a28 933d
00000040: 41b0 3a3f 9c52 663f 5a34 233f 149d 263c
00000050: d790 c1bd dceb 55bf 069b 3cbf f158 f93d
00000060: 9206 b7bd 86b9 0f3f 794f 443f e594 50be
00000070: 0610 1fbe 8eaf 6ebe 6dea 5bbe fa7d f2bd
00000080: 8191 83be 1dd1 04bd d2af 87bd 58f1 f1bd
00000090: 2f75 65bd ea56 643d a9a7 61bd 3000 92bc
000000a0: 9888 493d 1a02 62bd 4834 ca3d e9f5 803d
000000b0: 40de d13c d3aa ac3c e566 f73d 2cfc ce3c
000000c0: bcda 1e3d 06bb 0b3e ff28 a53d b0cf 373e
000000d0: ccd5 2b3e c1e2 e43d 1e4e 463d 6cc5 cdbd
000000e0: 3504 a1bd 8bc2 bbbe 0bf8 cebe b512 dcbe
000000f0: c4cf 88be 8d45 4ebe 32e1 9bbe 5240 923e
00000100: c568 663e 93e0 563e cad6 013d 4439 013d
00000110: cc5b 82bc 9a61 59be 88db 57be c63b 91be
00000120: 4c5d cd3e 0719 ba3e 1fc4 bb3e a3b2 9a3e
00000130: 25ce 8b3e ac0d 2b3e 66a2 8abc 1b68 21bb
00000140: 5bcd cfbd ab47 023f 808f 4a3f fa5c 343f
00000150: 20cf 01bf 4290 fcbe 6f3d 7ebe a8b0 acbd
00000160: 3c7d 5bbe d91f 87be 5b94 323f e70f 843f
00000170: 56aa 783f dfb8 11bf 78c5 25bf d051 b6be
00000180: a6e1 94be a6c1 21bf 19cc 23bf 64c8 213f
00000190: 8141 813f 60d7 6d3f e4d7 c4be 4845 d7be
000001a0: 3bb4 32be bb18 2dbe 43a0 11bf a1be 09bf
000001b0: e1e7 c03e c83f 7e3c 6de1 2fbe 5428 6b3f
000001c0: b048 a6be 974f d2be bda8 633f 8190 03bf
000001d0: cf21 1cbf 220a 1a3e 52ce bcbd f843 16be
000001e0: 9f8c 433f 1b33 edbe b892 06bf fb83 503f
000001f0: d4fe 28bf dfad 21bf 21f8 8a3e b003 ca3d
00000200: 2f2e 063e b904 3b3f 2ec5 98be 433a 66be
00000210: 1f80 473f 2e60 f5be 947a b8be 71ed 35be
00000220: 5baf 55be 93b9 a7be 3db2 c23d 445f 8c3d
00000230: dfa0 c33a cd05 b83e e973 df3e cbf6 be3e
00000240: 7db5 c83d 7319 713d 453d e2bc 3fd5 f1be
00000250: 1551 1ebf 2c9c 30bf cbcc 11bf ce87 18bf
00000260: 9b82 0cbf ddc6 453f 320b 333f 7050 043f
00000270: 258c 503e 3633 483c 4160 29bd 7414 a33d
00000280: 6f32 353d 7e42 483d 8029 0cbf a611 33bf
00000290: 7088 a9be 423f 29bf 4a0b 82be f5eb 683e
000002a0: 649a 213e e6ea f23e e114 373f 2f96 283d
000002b0: 13b2 cabd d09b 4c3e ba63 debe 338a 3b3d
000002c0: d401 ea3e c252 253d 979f ba3e 3df6 ed3e
000002d0: f1e4 ce3d d55e 03be 506d 0d3e 70fd 05bf
000002e0: 65fc 1dbe 25d1 4a3e 731f cebe 5664 1bbe
000002f0: 4bbe 74bd 999d 113f 6112 3c3f 3104 3f3f
00000300: eae4 d6be 8bf1 7dbe 24fb afbd adb8 3abf
00000310: 98b9 e9be 3f5d 30be 58ed d13e 9bd6 103f
00000320: 71bd fe3e 7840 e9be 8a3e bfbe 6c48 61be
00000330: e541 66bf f7ac 14bf 0636 99be b337 ed3e
00000340: c2f4 0e3f e51e f23e 3ecd d9bd 0e6d d7bb
00000350: 025c 133e 80ba b3be 4898 dabd ee37 473e
00000360: 87ee ffbe c610 fbbe 95a2 f6bd 9a3b a0bc
00000370: 0648 6cbc 6312 a93d c5b3 cf3e 04e1 e83e
00000380: 16de be3e f272 c0be 7caa c7be 27c2 0cbe
00000390: a1de 7ebd c10f bfbd 6a30 95bd c194 893e
000003a0: b69a 873e eca6 343e a162 8fbe eca4 95be
000003b0: f815 9abd fb9a 013d 6cd2 efbb 98bb 2a3b
000003c0: 438f 5f3e 1f52 6f3e 2ee4 ca3d 3b01 bbbd
000003d0: 023d 47be 7f20 4fbe 8465 62be 5e1d ddbe
000003e0: d838 90be 5ad7 0fbe 5f2d 95be 655b 04be
000003f0: 0751 cb3c 1310 a3bd 9541 48bd ce96 7d3c

emb_func.layer1.0.bias f4 [64]
0.011209808 -0.029157864 0.005696618 0.02988705 0.024462132 0.03106789 0.01963933 -0.0030022098
0.009472364 -0.0151594505 0.030794103 0.018165054 -0.026553469 0.031369027 -0.0005383338 -0.001612973
-0.009929082 -0.009572067 0.001816072 -0.017711459 -0.03374712 -0.018687656 -0.0072194403 0.027396075
0.026689047 -0.02173674 -0.0013930262 -0.010470787 -0.019408328 -0.0063795275 -0.012588004 0.020278148
-0.017992115 0.0055814967 -0.020472897 -0.011322751 0.028559798 -0.017810723 -0.0021814555 0.03464851
0.012417128 -0.018466191 -0.021782093 -0.012722149 -0.01136077 0.015795572 -0.008065752 0.030597541
-0.019906057 -0.011344616 0.013208511 0.028974598 0.0347045 0.0058064964 0.0015292095 -0.016254352
0.020498378 -0.021029366 -0.009535683 -0.030322004 -0.034876347 0.020278387 0.0024646954 0.028920801
00000000: 58a9 373c 79dc eebc b2aa ba3b b0d5 f43c
00000010: cf64 c83c 1682 fe3c a9e2 a03c b9c0 44bb
00000020: f931 1b3c 585f 78bc ea43 fc3c e1ce 943c
00000030: a986 d9bc cf7c 003d f81e 0dba 656a d3ba
00000040: 97ad 22bc 29d4 1cbc 4409 ee3a 9f17 91bc
00000050: 6c3a 0abd db16 99bc 0e91 ecbb bc6d e03c
00000060: fda2 da3c 3f11 b2bc 3496 b6ba aa8d 2bbc
00000070: 37fe 9ebc 5b0b d1bb ea3d 4ebc 5c1e a63c
00000080: 3364 93bc fde4 b63b c7b6 a7bc 0f83 39bc
00000090: 3df6 e93c cbe7 91bc c0f6 0ebb 99eb 0d3d
000000a0: 3671 4b3c 6946 97bc 5c70 b2bc 8f70 50bc
000000b0: 8622 3abc b765 813c 3726 04bc b2a7 fa3c
000000c0: 0712 a3bc c5de 39bc 8368 583c 235c ed3c
000000d0: 4e26 0e3d 6c44 be3b c26f c83a d927 85bc
000000e0: 37ec a73c c745 acbc 8e3b 1cbc da65 f8bc
000000f0: 80da 0ebd dc1e a63c ba86 213b 51eb ec3c

emb_func.layer1.1.weight f4 [64]
0.78552806 0.42262086 0.3917692 0.90773755 0.8532891 0.73348653 0.73118865 0.6590497
1.0510862 0.36136067 0.8210572 0.47402537 0.6511492 0.42177197 0.41576985 1.1512325
0.15994291 0.6488533 0.5682487 0.75206894 0.37848148 0.21780063 0.95180976 0.74313116
0.5264801 0.4157827 1.0295386 0.12935294 1.0238019 0.41824448 0.35412526 0.34177607
0.98397434 0.55841404 1.3019379 0.3806468 0.10783466 0.5215717 0.31508228 0.57900494
0.38980797 0.6119651 0.34096298 0.14165919 0.021666925 0.6355408 0.69410926 0.4588507
0.43049622 0.37723455 0.2283976 0.5270228 0.69729894 0.6661839 0.34212276 0.32641792
0.3955199 0.56821555 0.5360955 0.27944675 0.82545453 0.43843937 0.28914765 0.5132416
00000000: 5e18 493f c361 d83e f995 c83e 7d61 683f
00000010: 2871 5a3f c6c5 3b3f 2e2f 3b3f 7bb7 283f
00000020: fe89 863f 4404 b93e ce30 523f 74b3 f23e
00000030: b7b1 263f 7ff2 d73e c9df d43e 965b 933f
00000040: 13c8 233e 401b 263f bf78 113f 9787 403f
00000050: 53c8 c13e 2107 5f3e cea9 733f d83d 3e3f
00000060: 66c7 063f 78e1 d43e ecc7 833f 1975 043e
00000070: f10b 833f 2424 d63e e84f b53e 46fd ae3e
00000080: bee5 7b3f 39f4 0e3f e7a5 a63f 23e4 c23e
00000090: 6bd8 dc3d b985 053f 7752 a13e ab39 143f
000000a0: e994 c73e bfa9 1c3f b392 ae3e 1b0f 113e
000000b0: d67e b13c cdb2 223f 25b1 313f 7bee ea3e
000000c0: 006a dc3e e324 c13e 0fe1 693e f7ea 063f
000000d0: 2f82 323f 078b 2a3f b72a af3e 4020 a73e
000000e0: 9681 ca3e 9376 113f 8e3d 093f a513 8f3e
000000f0: fd50 533f 207b e03e 290b 943e cd63 033f

emb_func.layer1.1.bias f4 [64]
0.26055235 -0.22736385 0.17165168 0.09890802 0.31199828 -0.35414022 0.070709646 0.73898935
-1.4080365 0.14953363 0.26882517 -0.2867602 -0.92504984 -0.39863333 -0.3723168 0.36646283
-0.20540804 -0.010707823 0.437956 0.13384053 -0.11826079 0.039515506 0.1558431 0.39637706
-0.43451935 -0.32132986 0.55508333 -0.20140001 -0.024389194 -0.10987617 -0.3734763 -0.33082435
0.1050963 0.4079347 -0.039993826 0.28711575 -0.13046947 0.21247694 -0.29143378 0.30445203
-0.044715233 -0.11288825 0.025022058 -0.12917325 -0.07189236 -0.30303085 -0.5436227 0.41289344
0.15291746 -0.1132546 0.05918626 -0.3710936 -0.5118495 0.32428393 -0.26541054 -0.35760707
-0.008493876 0.20280421 0.2099235 -0.29661793 0.48539028 -0.45550027 -0.33632153 0.027594022
00000000: 1e67 853e 12d2 68be 75c5 2f3e 4a90 ca3d
00000010: 3dbe 9f3e de51 b5be 38d0 903d 682e 3d3f
00000020: 8a3a b4bf 581f 193e 74a3 893e 3cd2 92be
00000030: 11d0 6cbf ab19 ccbe 4fa0 bebe 04a1 bb3e
00000040: 7c56 52be dd6f 2fbc c53b e03e 7e0d 093e
00000050: b732 f2bd 03db 213d 5595 1f3e eff1 ca3e
00000060: 5279 debe 5985 a4be f119 0e3f ce3b 4ebe
00000070: d9cb c7bc c206 e1bd 4938 bfbe cf61 a9be
00000080: bb3c d73d d1dc d03e 91d0 23bd d600 933e
00000090: ca99 05be 8e93 593e cf36 95be 23e1 9b3e
000000a0: 5227 37bd f431 e7bd 0ffb cc3c fe45 04be
000000b0: 4d3c 93bd dc26 9bbe db2a 0bbf c566 d33e
000000c0: 6596 1c3e 07f2 e7bd 4b6d 723d fbff bdbe
000000d0: 9208 03bf 8b08 a63e e4e3 87be 4618 b7be
000000e0: e629 0bbc e8ab 4f3e 30f6 563e 4ede 97be
000000f0: 1385 f83e 5537 e9be 5632 acbe dc0c e23c

emb_func.layer1.1.running_mean f4 [64]
0.01148912 -0.39194348 -0.5304899 0.06905187 0.06066027 0.12336721 -0.24150299 -0.02942856
0.029575143 -0.4898545 -0.13493234 -0.34775966 -0.00020331123 0.27071834 0.25929207 0.036923494
-0.0059130434 -0.07479046 -0.070000686 -0.07520098 -0.18304874 0.05970009 -0.026072245 -0.13711785
-0.27845937 -0.25368553 -0.013197307 -0.20241328 -0.123603255 -0.1523137 0.09618585 0.20389739
-0.14770398 -0.037748206 -0.06330405 -0.69394535 -0.043385986 -0.21479426 0.032268938 0.21679881
0.009318053 -0.059280522 -0.3121465 0.046741016 -0.13372925 -0.51776356 -0.48834175 -0.016792571
0.5609367 -0.43069917 0.20218365 0.06266826 -0.116774924 -0.08323631 -0.23398124 0.058794532
-0.23424052 0.033439633 -0.31476417 0.032675095 -0.042758394 -0.16252115 0.060618006 -0.684827
00000000: dd3c 3c3c d1ac c8be 30ce 07bf 116b 8d3d
00000010: e776 783d f3a7 fc3d 8f4c 77be 2a14 f1bc
00000020: 9247 f23c 36ce fabe b42b 0abe 8e0d b2be
00000030: f12f 55b9 989b 8a3e eec1 843e 173d 173d
00000040: 34c2 c1bb be2b 99bd 855c 8fbd f902 9abd
00000050: 2171 3bbe 1588 743d 7695 d5bc 9f68 0cbe
00000060: 3a92 8ebe 12e3 81be 8439 58bc 6d45 4fbe
00000070: b423 fdbd 1ff8 1bbe 16fd c43d 7aca 503e
00000080: b63f 17be dd9d 1abd 8ea5 81bd 67a6 31bf
00000090: 81b5 31bd 07f3 5bbe 6f2c 043d 8200 5e3e
000000a0: bfaa 183c 22d0 72bd abd1 9fbe 8273 3f3d
000000b0: 52f0 08be 278c 04bf ee07 fabe 9390 89bc
000000c0: 8c99 0f3f 9a84 dcbe 3b09 4f3e 3758 803d
000000d0: b127 efbd cc77 aabd c798 6fbe 89d2 703d
000000e0: bfdc 6fbe fff7 083d c528 a1be 52d6 053d
000000f0: 6d23 2fbd f26b 26be 964a 783d d350 2fbf

emb_func.layer1.1.running_var f4 [64]
2.7980306 0.8387153 2.3977995 6.8272996 4.026934 1.3064668 2.0600548 4.609146
1.6009231 1.9740148 4.100722 0.9423063 0.79148805 1.0158839 1.029316 6.5772843
0.09851192 2.3080156 3.479698 1.821141 0.4794379 0.437657 3.3395553 2.1777976
0.4445434 0.6001976 9.353751 0.26640946 5.288125 0.2986396 0.434049 0.6738598
8.25775 5.406671 4.292289 2.596266 0.1606793 1.5065749 0.49369392 2.5000184
0.37430388 1.475908 1.702096 0.08466917 0.5646701 2.7098956 2.0978825 2.466481
2.0300286 1.205748 0.6913093 0.6066214 2.5847476 2.8798544 0.53114927 0.29903913
0.83805555 1.9406482 1.4372991 0.28769654 5.9763856 0.3606239 0.25786984 2.9845195
00000000: ef12 3340 0cb6 563f 8c75 1940 3d79 da40
00000010: a5dc 8040 4e3a a73f f0d7 0340 207e 9340
00000020: 0ceb cc3f 84ac fc3f 1d39 8340 fc3a 713f
00000030: f69e 4a3f 7c08 823f a0c0 833f 1d79 d240
00000040: 9ec0 c93d 87b6 1340 5fb3 5e40 261b e93f
00000050: e278 f53e 9414 e03e 46bb 5540 0961 0b40
00000060: 319b e33e 8da6 193f f7a8 1541 d266 883e
00000070: 5238 a940 4ae7 983e ac3b de3e 1382 2c3f
00000080: be1f 0441 7303 ad40 6e5a 8940 3929 2640
00000090: 1d89 243e 72d7 c03f 73c5 fc3e 4d00 2040
000000a0: c2a4 bf3e 8eea bc3f 48de d93f 0867 ad3d
000000b0: 388e 103f ee6e 2d40 b543 0640 d3da 1d40
000000c0: fdeb 0140 f355 9a3f a5f9 303f 8a4b 1b3f
000000d0: 816c 2540 894f 3840 66f9 073f a81b 993e
000000e0: cf8a 563f 2967 f83f 6bf9 b73f f64c 933e
000000f0: 8d3e bf40 b2a3 b83e 8407 843e 5e02 3f40

emb_func.layer2.0.weight f4 [64, 64, 3, 3]
0.24690473 0.31144512 -0.11779786 -0.14170885 0.0064009554 0.14156535 0.01988473 0.12797907
0.06885927 0.09273125 0.12343328 0.10790529 0.05625419 0.053091794 0.011540322 -0.08815273
-0.1038351 -0.10403999 0.15859294 0.19542624 0.15507 0.048380677 0.08041937 0.04457468
-0.25894988 -0.28876495 -0.3101695 -0.04200042 -0.012804202 -0.059484277 0.15250337 0.22794788
0.0026040869 -0.15898667 -0.16542603 -0.17235965 0.15552518 0.20512894 0.08713307 -0.015350337
-0.016246323 0.028569559 -0.17072868 -0.34688345 -0.15491617 0.13063033 0.07369835 0.017948132
0.17831402 0.19985867 0.13244154 0.086040296 0.04498563 0.039062675 0.10585178 0.14652024
-0.013712316 -0.0034888233 0.05299642 0.14170794 -0.14532557 -0.096542254 -0.08701656 0.06135958
0.050810922 0.0015944227 0.03413266 0.08524233 -0.06740456 -0.32026142 -0.22124656 -0.3168749
-0.16498818 -0.12355065 -0.11331576 -0.23768792 -0.24528222 -0.19718087 0.025471488 0.016058726
-0.055378854 0.24585684 0.26007488 0.21550462 0.087062225 0.076582834 0.06007126 -0.21771553
-0.24244726 -0.28639323 0.067311145 0.17460038 0.09523275 -0.033994652 -0.031429928 -0.08567285
-0.24884272 -0.30959344 -0.25121316 0.08415363 0.13198611 0.11011256 0.04836035 0.04100516
0.0090613 -0.08396575 -0.10546262 -0.10309853 -0.064631216 -0.038421318 -0.026173744 -0.041145045
-0.037818544 -0.016878305 0.0042148535 0.004999325 0.019977728 0.028962541 0.028557146 0.02003438
0.016392244 0.0030520814 0.009115424 0.042248927 0.04396144 0.033262584 -0.016682712 -0.0019017954
-0.010273891 0.0009985757 -0.009255979 -0.008952906 0.010305503 0.018516785 0.008765539 0.10889557
0.08010868 0.0100658545 0.084880754 0.024559638 0.056611996 -0.3473104 -0.24064626 -0.17227186
-0.016735656 -0.0027839504 -0.03190735 0.009003996 0.014338139 0.010931288 -0.027698176 -0.028640319
-0.013975749 0.0651661 0.12324524 0.1024049 -0.0030420618 -0.07172551 -0.09435046 -0.15315382
-0.25207493 -0.16432983 0.026541501 0.10977206 -0.024269314 0.023701856 0.061964873 0.025041435
0.08770017 0.138015 -0.053603854 0.29993263 0.21349864 -0.08647815 -0.09942658 0.13664204
0.14429554 -0.42632172 -0.2939963 -0.27477843 0.13764049 0.13716216 0.06971814 0.0055744736
0.04217268 0.039756324 -0.09004289 -0.079449564 -0.07223195 -0.056738555 -0.042306174 -0.052173514
-0.03903651 -0.040360086 -0.04461072 -0.049290776 -0.041673508 -0.041725457 0.10213653 0.37694183
0.1459032 -0.02362044 0.11457814 0.077385545 -0.3598583 -0.21650924 -0.19448933 0.19379243
0.105192944 0.016913632 -0.18107876 -0.13939683 -0.066251464 -0.3179543 -0.2702672 -0.23077145
0.11773972 0.110554494 0.09561333 0.014855624 -0.027460326 -0.019435316 -0.086778216 -0.1320322
-0.1417093 -0.031271175 -0.038334977 -0.036689576 -0.032277085 -0.023977133 -0.020644514 -0.017190242
-0.009061287 -0.017544094 0.0568853 0.14646076 -0.14948618 0.057998337 0.12149066 0.11796454
0.21069087 0.32984582 0.039081205 -0.0019501736 0.008517734 -0.011005019 0.005697083 -0.0091373045
-0.010609387 -0.021347558 -0.010656389 -0.017435044 0.123532966 0.08008693 0.008500442 -0.07471809
00000000: 98d4 7c3e bc75 9f3e 0140 f1bd 201c 11be
00000010: 1bbf d13b 82f6 103e 4de5 a23c f20c 033e
00000020: 1706 8d3d e2e9 bd3d 96ca fc3d 73fd dc3d
00000030: cb6a 663d c876 593d 9e13 3d3c 6b89 b4bd
00000040: 7fa7 d4bd eb12 d5bd 3066 223e d11d 483e
00000050: acca 1e3e d12a 463d e9b2 a43d f193 363d
00000060: 1495 84be 00d9 93be 89ce 9ebe a208 2cbd
00000070: b7c8 51bc c9a5 73bd d829 1c3e 2b6b 693e
00000080: 54a9 2a3b 67cd 22be 7165 29be 0c7f 30be
00000090: fe41 1f3e 520d 523e d372 b23d fb7f 7bbc
000000a0: 0217 85bc b50a ea3c 80d3 2ebe b59a b1be
000000b0: 58a2 1ebe f5c3 053e 29ef 963d f607 933c
000000c0: f397 363e c0a7 4c3e c19e 073e e535 b03d
000000d0: da42 383d 2f00 203d d1c8 d83d 6709 163e
000000e0: 9fa9 60bc bea4 64bb c612 593d e31b 113e
000000f0: 3ad0 14be f2b7 c5bd bd35 b2bd 2f54 7b3d
00000100: 1d1f 503d f3fb d03a b0ce 0b3d 8893 ae3d
00000110: 670b 8abd 4ef9 a3be 758e 62be 6d3d a2be
00000120: a9f2 28be 2008 fdbd 1812 e8bd 7664 73be
00000130: 432b 7bbe c8e9 49be 95a9 d03c 978d 833c
00000140: f0d4 62bd e5c1 7b3e 8928 853e 3ead 5c3e
00000150: ae4d b23d 76d7 9c3d 480d 763d d2f0 5ebe
00000160: 1844 78be 22a2 92be 6dda 893d 71ca 323e
00000170: 6309 c33d fa3d 0bbd abbc 00bd 3f75 afbd
00000180: a0d0 7ebe 0883 9ebe 039f 80be bd58 ac3d
00000190: 5e27 073e b282 e13d 8115 463d 07f5 273d
000001a0: d975 143c 3cf6 abbd c9fc d7bd 5225 d3bd
000001b0: 5f5d 84bd ac5f 1dbd 526a d6bc b587 28bd
000001c0: 9ee7 1abd 5f44 8abc c11c 8a3b 61d1 a33b
000001d0: 55a8 a33c da42 ed3c adf0 e93c 241f a43c
000001e0: 0749 863c 6e05 483b dc58 153c 360d 2d3d
000001f0: e910 343d 593e 083d 2faa 88bc aa45 f9ba
00000200: d253 28bc a4e2 823a 64a6 17bc 36af 12bc
00000210: 6ad8 283c 83b0 973c 569d 0f3c a404 df3d
00000220: 0510 a43d 41eb 243c f6d5 ad3d 4b31 c93c
00000230: fbe1 673d abd2 b1be f96b 76be 0968 30be
00000240: 3719 89bc f072 36bb 48b1 02bd 7f85 133c
00000250: 84ea 6a3c 2519 333c 49e7 e2bc 1a9f eabc
00000260: 8afa 64bc ce75 853d 0068 fc3d a9b9 d13d
00000270: 545d 47bb d3e4 92bd d03a c1bd 5bd4 1cbe
00000280: f70f 81be 1446 28be 906d d93c 2cd0 e03d
00000290: 71d0 c6bc 652a c23c e1ce 7d3d b223 cd3c
000002a0: 269c b33d ce53 0d3e b78f 5bbd c590 993e
000002b0: 639f 5a3e 751b b1bd 2aa0 cbbd e4eb 0b3e
000002c0: 36c2 133e d746 dabe af86 96be c2af 8cbe
000002d0: a1f1 0c3e 3d74 0c3e 62c8 8e3d 13aa b63b
000002e0: 43bd 2c3d 87d7 223d 6868 b8bd 74b6 a2bd
000002f0: 58ee 93bd b066 68bd 3d49 2dbd e5b3 55bd
00000300: bfe4 1fbd 9e50 25bd bbb9 36bd 20e5 49bd
00000310: d7b1 2abd 50e8 2abd f52c d13d 85fe c03e
00000320: a667 153e a77f c1bc f2a7 ea3d 507c 9e3d
00000330: 593f b8be 99b4 5dbe 3628 47be 8671 463e
00000340: 666f d73d 758e 8a3c b66c 39be 0bbe 0ebe
00000350: d9ae 87bd e8ca a2be 7660 8abe 5a4f 6cbe
00000360: 8621 f13d 656a e23d ecd0 c33d 0165 733c
00000370: 7af4 e0bc d036 9fbc c7b8 b1bd 7333 07be
00000380: 3e1c 11be 3416 00bd 2305 1dbd cf47 16bd
00000390: fa34 04bd b16b c4bc af1e a9bc 8dd2 8cbc
000003a0: cb75 14bc a2b8 8fbc 8f00 693d cff9 153e
000003b0: e812 19be aa8f 6d3d 18d0 f83d 6597 f13d
000003c0: 59bf 573e 8de1 a83e 9d13 203d f89c ffba
000003d0: f78d 0b3c 654e 34bc 99ae ba3b a2b4 15bc
000003e0: ffd2 2dbc 13e1 aebc 2398 2ebc f0d3 8ebc
000003f0: dafe fc3d 9e04 a43d 7045 0b3c cc05 99bd

emb_func.layer2.0.bias f4 [64]
-0.00029086607 0.0051386463 -0.007548443 -0.0024655473 0.0040698433 -0.0017765627 0.0050785304 0.00270341
0.0013559705 -0.0010808763 -0.0018966019 -0.0016312756 -0.000701705 -0.0042339717 -0.002236747 0.004470166
0.005487554 0.0014395075 0.0012041085 -0.0067312713 0.0016021983 0.006554753 -0.0033967285 -0.0019559625
0.007623727 0.0011862732 0.0061501674 -0.00213068 -0.00707837 0.0006795363 -0.0060732104 -0.0033828274
0.0027282198 -0.0072625047 0.0042630075 0.007211228 0.007359626 -0.0068217567 -0.0077838167 -0.0031489783
0.0006166439 -0.0038470437 0.0055181887 0.007157811 0.0020739308 -0.0011741921 -0.0071782647 0.0047535677
-0.0011430491 0.0053769774 0.002998928 0.001313104 -0.005821532 0.0050826212 0.0015049892 0.006152547
0.005927296 -0.004133784 -0.006010026 -0.007408464 -0.002651678 -0.002672093 0.0005112118 0.004156144
00000000: 627f 98b9 1762 a83b ee58 f7bb 0595 21bb
00000010: 525c 853b 8ddb e8ba cd69 a63b b22b 313b
00000020: d2ba b13a 31ac 8dba 6697 f8ba 87d0 d5ba
00000030: a0f2 37ba 21bd 8abb 6396 12bb 787a 923b
00000040: f0d0 b33b dbad bc3a 2dd3 9d3a ff91 dcbb
00000050: db00 d23a 41c9 d63b a69b 5ebb 9b2f 00bb
00000060: 75d0 f93b b97c 9b3a 5887 c93b e1a2 0bbb
00000070: acf1 e7bb e922 323a c801 c7bb 6db2 5dbb
00000080: efcb 323b 4efa edbb b3b0 8b3b 2a4c ec3b
00000090: 0429 f13b 0b89 dfbb 630f ffbb 175f 4ebb
000000a0: 46a6 213a af1e 7cbb ecd1 b43b 128c ea3b
000000b0: c9ea 073b 59e7 99ba a637 ebbb d1c3 9b3b
000000c0: 5dd2 95ba 5b31 b03b aa89 443b 751c ac3a
000000d0: 8dc2 bebb 1e8c a63b 0f43 c53a 4e9b c93b
000000e0: c339 c23b b274 87bb c1ef c4bb b3c2 f2bb
000000f0: c6c7 2dbb 481e 2fbb d802 063a 4330 883b

emb_func.layer2.1.weight f4 [64]
1.1268401 0.61096495 0.5806306 0.6640003 0.84566844 0.93130994 1.2601076 0.8281783
1.1042447 0.8389429 1.1706569 0.86891806 0.84169906 1.0231812 0.9043947 0.870454
0.5852218 0.7854861 0.76792425 0.98121285 0.93842804 1.0741979 0.55381215 0.9457519
1.0416766 0.94129336 1.1032901 0.6936759 1.1371381 0.88749593 1.0498626 0.9104951
1.0120988 0.74160475 0.6977831 0.7790769 1.0778551 1.2919824 0.6268303 1.1347106
0.9828604 0.8360646 0.95299226 1.0965227 0.83311933 0.6682993 0.6704173 0.6603538
0.9795079 0.6375851 0.6822461 0.91821504 1.0927854 0.9841154 0.86214334 0.7688092
0.9749135 1.027081 0.86340404 0.9633871 0.80199564 0.8067273 1.2304102 0.606719
00000000: 4c3c 903f 3368 1c3f 35a4 143f ecfb 293f
00000010: ba7d 583f 546a 6e3f 354b a13f 7e03 543f
00000020: e457 8d3f f6c4 563f 16d8 953f 6a71 5e3f
00000030: 9779 573f 9af7 823f 6986 673f 13d6 5e3f
00000040: 19d1 153f 9e15 493f af96 443f c430 7b3f
00000050: d23c 703f 517f 893f a2c6 0d3f cc1c 723f
00000060: a955 853f 9af8 703f 9c38 8d3f be94 313f
00000070: be8d 913f ef32 633f e661 863f 3516 693f
00000080: 748c 813f cfd9 3d3f eaa1 323f 9571 473f
00000090: 28f7 893f ae5f a53f f377 203f 323e 913f
000000a0: bd9c 7b3f 5408 563f 4df7 733f db5a 8c3f
000000b0: 4f47 553f aa15 2b3f 78a0 2b3f f20c 293f
000000c0: 08c1 7a3f c738 233f aea7 2e3f 2410 6b3f
000000d0: 64e0 8b3f fdee 7b3f 6db5 5c3f aed0 443f
000000e0: ee93 793f 6477 833f 0c08 5d3f 89a0 763f
000000f0: 964f 4d3f ae85 4e3f 157e 9d3f f051 1b3f

emb_func.layer2.1.bias f4 [64]
-0.2747258 -0.0056792456 0.07590601 -0.9131871 -0.48235783 -0.029460724 -0.7750907 -0.24709405
-0.6220785 -0.37211168 -0.6797468 -0.39917704 -0.060992792 -0.33870468 -0.09649801 -0.8394318
-0.4786604 0.07026265 -0.39677328 -0.74766386 -0.8188857 -0.5778382 -0.22027668 -0.26661086
-0.48634335 -0.6955838 -0.4545948 -0.5912641 -0.4764399 -0.1960785 -0.51823294 -0.19891816
-0.040045246 -0.5693991 0.02054422 -0.18471527 -0.51203066 -0.5565108 -0.5966394 -0.42895588
-0.27011418 -0.31347233 -0.49179673 -0.43775505 -0.14873533 0.025596747 -0.34430835 -0.037681367
-0.63698244 -0.19789292 -0.13612604 -0.49386707 -0.76058793 -0.61172307 -0.28690314 0.1941009
-0.628169 -0.37808713 -0.3107742 -0.45318514 -0.18533997 0.18190642 -0.3974677 -0.59255266
00000000: dca8 8cbe f718 babb 9c74 9b3d a1c6 69bf
00000010: 9bf7 f6be 9e57 f1bc 586c 46bf 3906 7dbe
00000020: 8940 1fbf 6c85 bebe e303 2ebf ef60 ccbe
00000030: 94d3 79bd b36a adbe c0a0 c5bd 01e5 56bf
00000040: fa12 f5be dde5 8f3d de25 cbbe e666 3fbf
00000050: 7ea2 51bf 34ed 13bf 3690 61be 3881 88be
00000060: ff01 f9be c811 32bf a6c0 e8be 165d 17bf
00000070: eeef f3be cdc8 48be eaaa 04bf 34b1 4bbe
00000080: 7c06 24bd 24c4 11bf 5a4c a83c 0026 3dbe
00000090: 7114 03bf 7e77 0ebf 5cbd 18bf 1ba0 dbbe
000000a0: 684c 8abe 727f a0be c8cc fbbe 6e21 e0be
000000b0: 134e 18be 45b0 d13c 2f49 b0be c757 1abd
000000c0: 4811 23bf 71a4 4abe a064 0bbe 25dc fcbe
000000d0: e4b5 42bf e299 1cbf f8e4 92be 63c2 463e
000000e0: afcf 20bf a394 c1be cc1d 9fbe e207 e8be
000000f0: c3c9 3dbe ad45 3a3e e380 cbbe 88b1 17bf

emb_func.layer2.1.running_mean f4 [64]
-3.2410247 -1.851485 -5.7408695 0.70530146 -2.0092423 -2.048206 -3.5839033 -2.237386
-4.6027365 -1.4666994 -7.613566 -1.5912291 -2.5147727 -5.5021462 -4.1001806 -2.4921525
-2.1571937 -2.9339051 -3.4280448 -3.5492365 -1.8518368 -4.024236 0.19017114 -5.66278
-7.8722014 -1.2820638 -4.3674693 -0.46213177 -5.426247 -4.5744987 -5.036655 -5.682575
-3.3620524 -2.3023942 -0.4125702 -4.3727283 -4.8395166 -5.4177685 1.7862012 -4.3136134
-2.0148287 -2.6054783 -6.906466 -5.417824 -1.2626985 0.949787 -5.258599 -1.2290515
-3.933454 -0.4128979 -1.6871966 -4.6439037 -5.906069 -6.877387 -1.5502352 -3.9939206
-5.872716 -3.4405997 -3.1414266 -3.3971975 -1.5095502 -4.1341615 -3.7511466 3.305443
00000000: f36c 4fc0 76fd ecbf 34b5 b7c0 a38e 343f
00000010: 6d97 00c0 cf15 03c0 ac5e 65c0 5531 0fc0
00000020: 9e49 93c0 cebc bbbf 55a2 f3c0 65ad cbbf
00000030: 09f2 20c0 9511 b0c0 ae34 83c0 6d7f 1fc0
00000040: 760f 0ac0 1ac5 3bc0 1665 5bc0 b126 63c0
00000050: fd08 edbf 8bc6 80c0 39bc 423e 7e35 b5c0
00000060: 13e9 fbc0 ab1a a4bf 4fc2 8bc0 899c ecbe
00000070: d1a3 adc0 4b62 92c0 472c a1c0 a8d7 b5c0
00000080: de2b 57c0 6d5a 13c0 673c d3be 64ed 8bc0
00000090: 52dd 9ac0 5c5e adc0 3ea2 e43f 1f09 8ac0
000000a0: f4f2 00c0 28c0 26c0 c501 ddc0 d05e adc0
000000b0: 1ba0 a1bf 3e25 733f 7146 a8c0 8f51 9dbf
000000c0: b6bd 7bc0 5b67 d3be 0ff6 d7bf dc9a 94c0
000000d0: 84fe bcc0 8e13 dcc0 1b6e c6bf 659c 7fc0
000000e0: 4aed bbc0 c932 5cc0 220d 49c0 af6b 59c0
000000f0: f138 c1bf 0d4b 84c0 c912 70c0 618c 5340

emb_func.layer2.1.running_var f4 [64]
17.764467 9.77453 11.567284 6.90589 11.476787 19.864399 21.19666 14.180801
14.876428 9.989091 18.93799 10.395619 18.146563 15.940762 19.700834 7.637254
3.2155643 6.986574 5.453189 10.285395 8.965561 12.67106 9.413302 21.061049
21.624187 8.267392 16.93251 5.003152 27.316828 14.008909 12.927237 12.79151
19.403252 6.922555 14.463424 8.536056 21.765032 19.606424 4.829643 24.408737
20.844189 7.998448 14.226243 19.358322 13.427695 11.234339 7.682475 22.311426
9.674292 8.31792 5.5975494 21.577864 11.712217 12.6112385 16.465658 8.381516
12.091697 25.912569 10.167543 13.4505 14.6555605 19.84509 24.061182 6.544746
00000000: a11d 8e41 7a64 1c41 9813 3941 0dfd dc40
00000010: eba0 3741 4aea 9e41 c292 a941 90e4 6241
00000020: d905 6e41 51d3 1f41 0181 9741 7554 2641
00000030: 292c 9141 5c0d 7f41 4f9b 9d41 6364 f440
00000040: cecb 4d40 0492 df40 8680 ae40 fa90 2441
00000050: f072 0f41 a9bc 4a41 e39c 1641 077d a841
00000060: 56fe ac41 3d47 0441 c875 8741 d219 a040
00000070: dd88 da41 7e24 6041 f6d5 4e41 06aa 4c41
00000080: dc39 9b41 9285 dd40 2f6a 6741 af93 0841
00000090: c91e ae41 f5d9 9c41 6f8c 9a40 1845 c341
000000a0: e6c0 a641 49f3 ff40 b19e 6341 d8dd 9a41
000000b0: d7d7 5641 dabf 3341 d6d6 f540 cd7d b241
000000c0: e6c9 1a41 3316 0541 201f b340 779f ac41
000000d0: 3e65 3b41 a2c7 4941 abb9 8341 b11a 0641
000000e0: 9777 4141 f14c cf41 42ae 2241 3f35 5741
000000f0: 2d7d 6a41 bfc2 9e41 4d7d c041 8f6e d140

emb_func.layer3.0.weight f4 [64, 64, 3, 3]
0.05935666 0.1162211 0.048470493 0.18515022 0.17581871 0.17273885 0.020949481 0.050732777
0.20740332 0.14813936 0.030322773 0.0035462577 -0.0762228 -0.041448165 -0.0044729128 -0.07567323
-0.06742319 -0.02133694 -0.09973027 -0.10074418 -0.17454149 -0.046236336 -0.008852788 -0.04062539
0.004680105 0.06796175 0.025837868 0.066745006 -0.0059349663 -0.014537706 -0.01855189 -0.07759352
-0.07024433 -0.026960863 -0.046545815 -0.055427425 0.06560813 0.20489849 0.2651484 -0.03971698
0.12457032 0.2699392 -0.25953412 -0.17831326 -0.024330828 0.06386344 0.018038323 0.09977385
0.012113982 -0.14625701 -0.049405355 -0.16050567 -0.24963182 -0.10185358 -0.0618568 -0.052770995
0.027811918 0.05558722 -0.030876406 -0.10743134 0.030994553 -0.00821983 0.02001281 0.02142509
-0.007983157 0.0010652047 -0.054048095 -0.06070739 -0.060524046 -0.19568592 -0.2137542 -0.11339076
-0.029407002 -0.037105188 -0.11154408 -0.13087927 -0.0908333 -0.07719368 -0.14714785 -0.112501204
-0.0904281 0.3047585 0.114159845 0.09500263 0.045248725 0.007945212 -0.03540627 -0.029312177
-0.022178723 0.027660776 -0.020584052 0.010521528 -0.05129274 -0.020888798 0.0011826822 -0.013884149
-0.047348686 -0.01921791 -0.045207035 -0.070300765 0.00517678 0.12148247 -0.07383347 0.038736537
0.19881456 -0.2707006 -0.14652179 -0.045772318 0.0040999115 0.10329223 0.006889312 0.030089593
-0.05343617 -0.23127668 0.11175999 -0.07075318 -0.24933794 -0.13922654 -0.06859394 -0.13738482
0.011690067 -0.0033669786 -0.034095787 0.22698312 0.15339856 0.22329558 -0.07555082 0.0067394096
0.11654391 -0.019746466 -0.098668456 0.14042749 -0.099185795 -0.07285732 -0.015069466 0.026526662
0.047907732 0.077029906 0.008453643 0.07364973 0.07725904 -0.05433477 -0.010242348 -0.016516397
0.04718562 -0.022896124 0.0045657028 0.032860525 0.0036771407 0.023244226 0.05533287 0.016283035
0.026437517 0.047906984 -0.033456367 -0.1599082 0.039391894 -0.07770636 -0.14380915 0.08739653
-0.0202154 -0.06801523 0.010266015 -0.00780438 -0.06912862 -0.0632236 -0.05507861 -0.08323628
-0.03918189 -0.03458926 -0.04620262 -0.2408163 -0.29495597 -0.22598334 -0.20973 -0.13016379
-0.1454276 -0.050916057 -0.099862285 -0.07546967 0.0059277727 0.053160135 0.05352152 -0.17257412
-0.138478 0.0030751266 -0.09410124 -0.11592299 -0.12995128 0.004607981 0.028565872 -0.004935196
0.08827232 0.022747524 -0.020519964 0.055657282 0.01713201 -0.005727941 0.20979494 0.060873378
0.045933153 0.12996228 -0.0108344 -0.13763578 0.1083555 0.03388515 0.0052261106 -0.009809019
0.027482094 0.06730035 -0.013913704 0.07988897 0.12580834 -0.011771096 6.792135e-05 0.024851192
-0.030487338 0.046666417 0.012179957 0.14387456 0.08818626 0.054425783 0.14568827 0.102768615
0.08827733 0.04807472 0.028370082 0.03722114 0.03704594 0.033689987 0.014251211 0.10530722
-0.044702522 -0.017665396 -0.13185059 -0.17035623 -0.13030836 -0.04794193 0.1487506 -0.0717915
0.07537779 0.23961508 0.09896727 0.027717311 0.034787443 0.008148614 -0.08022268 -0.08241248
-0.14113186 -0.06504523 -0.047000032 -0.07042476 -0.2909406 -0.17254034 -0.0458389 -0.26957992
00000000: f81f 733d 5405 ee3d ff88 463d 0598 3d3e
00000010: d209 343e 74e2 303e 3f9e ab3c 2ccd 4f3d
00000020: 8961 543e d8b1 173e 7767 f83c 5568 683b
00000030: b31a 9cbd 8dc5 29bd 8391 92bb 91fa 9abd
00000040: 2b15 8abd ceca aebc 623f ccbd f752 cebd
00000050: 01bb 32be 5062 3dbd 490b 11bc cf66 26bd
00000060: 915b 993b 882f 8b3d f0a9 d33c 9bb1 883d
00000070: 1b7a c2bb 8f2f 6ebc 22fa 97bc 5ae9 9ebd
00000080: 42dc 8fbd 07dd dcbc d3a6 3ebd de07 63bd
00000090: 8e5d 863d e9d0 513e 88c1 873e 46ae 22bd
000000a0: b91e ff3d 7935 8a3e a8e1 84be c097 36be
000000b0: 7251 c7bc d6ca 823d 1bc5 933c 3b56 cc3d
000000c0: b979 463c 66c4 15be 455d 4abd 995b 24be
000000d0: 7c9f 7fbe 9c98 d0bd 8e5d 7dbd 6626 58bd
000000e0: d2d5 e33c 6daf 633d 84f0 fcbc f604 dcbd
000000f0: 4ae8 fd3c 77ac 06bc e8f1 a33c ac83 af3c
00000100: cacb 02bc 579e 8b3a 8961 5dbd 50a8 78bd
00000110: 10e8 77bd e461 48be 62e2 5abe 6a39 e8bd
00000120: f4e6 f0bc 9cfb 17bd 3971 e4bd 3705 06be
00000130: cf06 babd b817 9ebd edad 16be 0867 e6bd
00000140: 5e32 b9bd 4e09 9c3e a3cc e93d bd90 c23d
00000150: ba56 393d a22c 023c 2a06 11bd 1720 f0bc
00000160: 27b0 b5bc da98 e23c e39f a8bc 7d62 2c3c
00000170: 5618 52bd fc1e abbc 3b04 9b3a 577a 63bc
00000180: b2f0 41bd e16e 9dbc 032b 39bd d9f9 8fbd
00000190: faa1 a93b cdcb f83d 0136 97bd 34aa 1e3d
000001a0: 0b96 4b3e 4599 8abe cf09 16be c17b 3bbd
000001b0: 8d58 863b e08a d33d bdbf e13b 737e f63c
000001c0: e3df 5abd cbd3 6cbe 6ce2 e43d 0be7 90bd
000001d0: 7252 7fbe 6791 0ebe fb7a 8cbd 9bae 0cbe
000001e0: b287 3f3c 87a8 5cbb 06a8 0bbd 436e 683e
000001f0: 8314 1d3e 99a7 643e 63ba 9abd 44d6 dc3b
00000200: 93ae ee3d 57c3 a1bc b012 cabd 39cc 0f3e
00000210: ec21 cbbd 3836 95bd ece5 76bc 714e d93c
00000220: e63a 443d dbc1 9d3d 2681 0a3c abd5 963d
00000230: fd39 9e3d 238e 5ebd 85cf 27bc 654d 87bc
00000240: b545 413d a790 bbbc e49b 953b c298 063d
00000250: 2ffc 703b ad6a be3c b8a4 623d 0064 853c
00000260: 7e93 d83c 1d3a 443d 8b09 09bd fabe 23be
00000270: 6559 213d 8324 9fbd b542 13be f4fc b23d
00000280: c49a a5bc 924b 8bbd ca32 283c e2bb ffbb
00000290: 4e93 8dbd 607b 81bd 1c9a 61bd c877 aabd
000002a0: 317d 20bd 78ad 0dbd f53e 3dbd 8c98 76be
000002b0: 7804 97be 2d68 67be 76c3 56be a849 05be
000002c0: f9ea 14be 5b8d 50bd 9984 ccbd d88f 9abd
000002d0: c33d c23b 71be 593d 6239 5b3d 45b7 30be
000002e0: 2dcd 0dbe 1088 493b 27b8 c0bd 0869 edbd
000002f0: f311 05be 8cfe 963b fa02 ea3c 6db7 a1bb
00000300: 1ec8 b43d 0459 ba3c 7c19 a8bc e4f8 633d
00000310: 6e58 8c3c 74b1 bbbb 7cd4 563e 5d56 793d
00000320: 6724 3c3d d514 053e c482 31bc 65f0 0cbe
00000330: 7de9 dd3d 28cb 0a3d cb3f ab3b 02b6 20bc
00000340: 2122 e13c c4d4 893d 4ef6 63bc d49c a33d
00000350: e7d3 003e 8edb 40bc ff70 8e38 ba94 cb3c
00000360: 95c0 f9bc 4925 3f3d 718e 473c da53 133e
00000370: ff9a b43d 92ed 5e3d 4e2f 153e 5a78 d23d
00000380: bfca b43d ffe9 443d 6068 e83c 3275 183d
00000390: 7cbd 173d 83fe 093d e97d 693c 50ab d73d
000003a0: fe19 37bd 05b7 90bc d703 07be dd71 2ebe
000003b0: 8e6f 05be c25e 44bd 1452 183e 6c07 93bd
000003c0: ac5f 9a3d a85d 753e 5aaf ca3d 6a0f e33c
000003d0: 477d 0e3d c481 053c ca4b a4bd e0c7 a8bd
000003e0: df84 10be 6f36 85bd 1b83 40bd db3a 90bd
000003f0: 2bf6 94be 6aae 30be 92c1 3bbd 6106 8abe

emb_func.layer3.0.bias f4 [64]
-0.0006479691 -0.00014746725 -0.006067086 -0.0049981913 -0.0067267087 -0.00016977778 -0.005653578 2.0693415e-05
-0.003516644 -0.0025522974 0.0071930266 -0.0066898833 -0.003258963 0.0005830309 -0.0023445648 0.0029079067
0.0074224737 0.003979686 0.003928767 -0.0006935227 -0.0013894511 0.0021504113 0.0041725915 0.0050141993
0.0029287792 0.0041397945 0.0017478269 -0.00013823576 -0.0015319834 -0.0060248403 -0.0077509508 -0.0075231045
0.0060953163 0.0019666706 0.0071272915 -0.0058987937 0.0065970016 -0.007656564 -0.0014307313 0.0035129387
-0.007262507 0.005210142 -0.0071891425 0.0051671145 0.0064737233 0.005987052 0.00017422902 0.0045690998
0.0035057166 0.0062431106 -0.0074159554 -0.0075029256 -0.005217531 0.006942841 0.002592445 -0.0006203633
-0.0018010535 0.0050884397 0.005478367 -0.005942145 -0.0011927058 0.0051186513 -0.0054237605 0.0052780644
00000000: 78dc 29ba 70a1 1ab9 68ce c6bb dec7 a3bb
00000010: b96b dcbb 6006 32b9 a641 b9bb c596 ad37
00000020: 7f77 66bb 7244 27bb 7bb3 eb3b cf36 dbbb
00000030: 5494 55bb 8bd6 183a 45a7 19bb 9492 3e3b
00000040: 3938 f33b 0768 823b e3bc 803b 85cd 35ba
00000050: 3e1e b6ba eaed 0c3b 3cba 883b 274e a43b
00000060: c3f0 3f3b 1da7 873b 5717 e53a 61f3 10b9
00000070: d5cc c8ba 066c c5bb b0fb fdbb 6084 f6bb
00000080: 38bb c73b 42e3 003b 0e8c e93b ab4a c1bb
00000090: a92b d83b eae3 fabb 6087 bbba 5539 663b
000000a0: 53fa edbb d7b9 aa3b e692 ebbb e650 a93b
000000b0: 8721 d43b 082f c43b 3fb1 3639 63b8 953b
000000c0: 2ac0 653b 0293 cc3b 8b01 f3bb 1adb f5bb
000000d0: d3f7 aabb c680 e33b 02e6 293b e09f 22ba
000000e0: 5411 ecba edbc a63b e083 b33b 53b6 c2bb
000000f0: 9154 9cba 5cba a73b cdb9 b1bb 9df3 ac3b

emb_func.layer3.1.weight f4 [64]
0.9766951 1.1664833 1.024434 0.82074654 1.0704107 0.9259687 1.3729764 1.3126768
0.9414834 0.7697444 0.8011501 0.77954394 1.1114435 1.087196 1.1153355 0.88039815
1.1556848 1.0828226 0.89734566 1.0251809 0.8868453 0.9717544 0.9007955 1.0702621
1.0359538 1.182982 0.9478237 0.7169414 0.917973 0.981549 0.93671936 1.1891545
1.2897253 1.0543907 0.89939463 1.1084869 1.1999468 0.9849762 1.2322407 0.8747121
0.6705442 1.2548764 1.3054228 1.1194216 0.58042794 1.0317969 1.292218 1.1401209
1.1026666 0.80454576 0.98458886 0.6628511 1.2349225 1.059822 1.1415756 0.800858
0.6501771 1.0947074 0.8791324 1.0941966 0.82139444 0.8050198 1.1260533 1.1140282
00000000: b108 7a3f 534f 953f a720 833f 721c 523f
00000010: 3803 893f 490c 6d3f b1bd af3f cb05 a83f
00000020: 0e05 713f f80d 453f 2c18 4d3f 3190 473f
00000030: c843 8e3f 3d29 8b3f 50c3 8e3f c661 613f
00000040: 7bed 933f ee99 8a3f 72b8 653f 2139 833f
00000050: 4b08 633f e5c4 783f 899a 663f 59fe 883f
00000060: 229a 843f f46b 973f 93a4 723f 7989 373f
00000070: 4700 6b3f cc46 7b3f d7cc 6f3f 3736 983f
00000080: b815 a53f 46f6 863f ba3e 663f e6e2 8d3f
00000090: db97 993f 6627 7c3f 10ba 9d3f 22ed 5f3f
000000a0: c9a8 2b3f ca9f a03f 1818 a73f 3549 8f3f
000000b0: ed96 143f ec11 843f 6667 a53f 7bef 913f
000000c0: 2e24 8d3f b6f6 4d3f 040e 7c3f 9cb0 293f
000000d0: f111 9e3f 3fa8 873f 261f 923f 0805 4d3f
000000e0: 0272 263f 5f1f 8c3f d20e 613f a20e 8c3f
000000f0: e846 523f c715 4e3f 8422 903f 7a98 8e3f

emb_func.layer3.1.bias f4 [64]
-0.6386092 -0.6600595 -0.96480405 0.07761307 -0.7337847 -0.65776116 -1.0103487 -0.7450851
-0.4213037 -0.24275127 -0.9252516 0.04281735 -0.77861464 -0.47240967 -0.62026703 -0.41619986
-1.2231667 -0.7418908 -0.56785184 -0.67978746 -0.5328815 -0.8247266 -0.70999867 -0.577925
-0.6323907 -0.8740809 -0.45936987 -0.16671526 -0.44282976 -0.9536802 -0.52293295 -0.74739236
-0.7797118 -1.0064948 -0.6836214 -0.71980584 -0.8570599 -0.7168632 -0.78958297 -0.57346636
-0.019735016 -0.6587604 -0.45977178 -0.9703732 0.25037935 -0.62698007 -0.81665176 -0.24501882
-0.6491852 -0.57187164 -0.69382226 -0.6660126 -0.8165214 -0.6265942 -0.886798 -0.36275807
-0.58762634 -0.4907212 -0.3847999 -0.7058037 -0.29439935 -0.47082964 -0.824568 -0.6812022
00000000: e47b 23bf a9f9 28bf 66fd 76bf 9af3 9e3d
00000010: 50d9 3bbf 0963 28bf 1b53 81bf e6bd 3ebf
00000020: 1eb5 d7be ca93 78be 4add 6cbf 3f61 2f3d
00000030: 4a53 47bf aedf f1be d2c9 1ebf 2618 d5be
00000040: ba90 9cbf 8eec 3dbf bd5e 11bf 8d06 2ebf
00000050: ec6a 08bf 4821 53bf 79c2 35bf e5f2 13bf
00000060: 5be4 21bf c4c3 5fbf 8732 ebbe 68b7 2abe
00000070: 95ba e2be 6324 74bf efde 05bf 1b55 3fbf
00000080: 319b 47bf d2d4 80bf d001 2fbf 3245 38bf
00000090: 4768 5bbf 5984 37bf 1c22 4abf b1ce 12bf
000000a0: 54ab a1bc 86a4 28bf 3567 ebbe 616a 78bf
000000b0: b931 803e c481 20bf 1710 51bf 37e6 7abe
000000c0: 0031 26bf 2e66 12bf 569e 31bf cd7f 2abf
000000d0: 8c07 51bf 7a68 20bf 3205 63bf 6dbb b9be
000000e0: ae6e 16bf cf3f fbbe 7e04 c5be 8daf 34bf
000000f0: 83bb 96be 9510 f1be e316 53bf 4463 2ebf

emb_func.layer3.1.running_mean f4 [64]
-3.400801 -2.2215629 -1.5778052 -5.433229 -2.4599109 -3.7200212 -5.0233364 -4.6353617
-3.91666 -3.1265976 1.9938179 -2.7702248 -2.2393873 -4.777518 -3.4835248 -3.3571117
-3.194138 -5.4572196 -0.82309574 -3.2747982 -1.5186714 -3.5046635 -2.1349638 -4.6443944
-4.435543 -3.9229627 -1.8592554 -0.9522336 -4.4592066 -1.9916984 -2.584468 -4.8780046
-2.7037432 0.5069944 -0.99112815 -1.3721322 -3.20881 -2.5139887 -4.5870476 -3.2394626
-3.5788682 -2.7441645 -3.800581 -2.8496907 -0.48006797 -4.0788465 -3.906076 -6.574488
-2.2723181 -4.1358337 -3.9719677 2.2197351 -3.5125651 -2.7651966 -2.1340158 -2.1402647
0.012030925 -3.1477592 -0.5715234 -1.6053555 -3.786644 -2.4246192 -2.934812 -3.2867115
00000000: b9a6 59c0 162e 0ec0 85f5 c9bf 03dd adc0
00000010: 2e6f 1dc0 d414 6ec0 2cbf a0c0 e254 94c0
00000020: 8faa 7ac0 2d1a 48c0 6d35 ff3f 5d4b 31c0
00000030: 1f52 0fc0 6de1 98c0 12f2 5ec0 ebda 56c0
00000040: c26c 4cc0 8ba1 aec0 67b6 52bf 4b96 51c0
00000050: d363 c2bf 684c 60c0 3fa3 08c0 e19e 94c0
00000060: f8ef 8dc0 d211 7bc0 15fc edbf 95c5 73bf
00000070: d2b1 8ec0 f9ef febf ec67 25c0 9d18 9cc0
00000080: 210a 2dc0 63ca 013f 93ba 7dbf 07a2 afbf
00000090: 255d 4dc0 31e5 20c0 18c9 92c0 5b53 4fc0
000000a0: 2d0c 65c0 64a0 2fc0 b83c 73c0 5561 36c0
000000b0: 78cb f5be e985 82c0 26fd 79c0 3562 d2c0
000000c0: a96d 11c0 c058 84c0 b834 7ec0 2410 0e40
000000d0: decd 60c0 fbf8 30c0 b793 08c0 19fa 08c0
000000e0: 5b1d 453c e374 49c0 5c4f 12bf 4a7c cdbf
000000f0: 6058 72c0 f62c 1bc0 f6d3 3bc0 7b59 52c0

emb_func.layer3.1.running_var f4 [64]
7.6728144 12.733182 6.0600576 9.770454 9.93475 8.023562 9.4275055 15.35958
8.072053 7.650557 3.314938 5.5582504 8.3721 10.779419 9.982896 8.212145
7.3624563 7.832207 7.0124435 6.854839 4.5748596 7.5174084 4.048138 6.8039627
9.066553 8.387339 5.1220274 6.508769 7.6201987 5.8499746 6.4774065 14.323526
11.981805 4.220324 7.109814 8.933398 10.767091 9.5780325 13.479453 10.3906
5.904729 13.551377 18.938196 7.8451176 4.868082 7.508062 11.594981 17.415241
6.6449313 5.1867304 6.0240664 3.7299464 14.072243 5.997317 13.236734 9.048927
3.5668974 9.372644 5.9238634 10.301145 7.66624 5.364891 8.248628 8.844167
00000000: b287 f540 1dbb 4b41 feeb c140 c853 1c41
00000010: bcf4 1e41 8360 0041 10d7 1641 d7c0 7541
00000020: 2127 0141 5dd1 f440 f227 5440 30dd b140
00000030: 1ff4 0541 8078 2c41 f1b9 1f41 f264 0341
00000040: 3e99 eb40 71a1 fa40 f065 e040 d75a db40
00000050: 4065 9240 9c8e f040 598a 8140 10ba d940
00000060: 9a10 1141 8a32 0641 a6e7 a340 d647 d040
00000070: abd8 f340 fe32 bb40 ea46 cf40 2a2d 6541
00000080: 79b5 3f41 e50c 8740 9983 e340 33ef 0e41
00000090: 0146 2c41 9f3f 1941 d7ab 5741 e63f 2641
000000a0: 8af3 bc40 71d2 5841 6d81 9741 340b fb40
000000b0: 54c7 9b40 0b42 f040 0b85 3941 6a52 8b41
000000c0: 47a3 d440 b2f9 a540 27c5 c040 71b7 6e40
000000d0: e827 6141 05ea bf40 aac9 5341 68c8 1041
000000e0: 0c48 6440 5af6 1541 4a90 bd40 7dd1 2441
000000f0: d751 f540 30ad ab40 61fa 0341 b581 0d41

emb_func.layer4.0.weight f4 [64, 64, 3, 3]
0.008645422 -0.17907974 0.27132902 -0.13676567 -0.14177799 0.12252791 -0.03469358 0.025471034
-0.020162312 -0.13812988 0.1370869 0.38073614 -0.26094064 -0.10356451 -0.03613502 -0.4523951
-0.13365458 -0.018474072 0.27046582 0.23804209 0.6822929 -0.04816894 0.03735865 0.14165531
-0.13139091 -0.062077116 -0.09865549 0.040976543 -0.11788531 -0.17869426 0.057636138 0.181652
0.16536756 0.20050701 0.1439075 0.0039040963 -0.115721375 -0.18964255 -0.13282737 0.19290479
0.1411363 0.11782513 0.112560645 0.116345845 0.034657687 -0.13914321 -0.11426572 -0.13623616
-0.38994962 -0.30773926 -0.43375608 -0.1625494 -0.03325443 -0.16585499 0.029339764 -0.04682544
0.057204317 -0.10254513 -0.12515035 -0.0754952 -0.20904742 -0.14151172 -0.08529578 0.061591223
0.053285602 0.05596814 -0.022849757 0.14612235 0.06591518 0.073053546 0.016073378 -0.055736106
0.12608904 -0.07450076 0.047131103 -0.101569526 -0.1261301 -0.08955363 -0.24828273 -0.3310176
-0.2236185 -0.07352922 0.06818425 0.04794778 -0.010637402 0.18837835 -0.12653153 0.12165721
0.14368388 0.14374848 -0.06200266 -0.046619955 0.0033308892 -0.08814201 0.048395243 0.0721595
0.06606749 0.026580662 0.048179127 -0.2612976 0.035908487 -0.15525568 -0.0013800166 0.25894842
0.10181737 0.17427857 0.052470367 0.22616252 0.015497215 -0.08100166 -0.08753375 -0.23459938
-0.10109795 -0.3487361 -0.07017684 -0.04686548 0.03318625 0.06777087 -0.15728462 -0.17670694
0.14760512 0.04699542 0.15811709 -0.050977755 -0.077471144 -0.10296037 0.21837859 0.04408673
-0.06828605 -0.09926305 -0.09089682 -0.16213927 -0.088163696 -0.0032400424 -0.2436321 -0.0850531
-0.14500915 -0.1780287 -0.035531897 -0.013576173 0.023722574 0.17379287 0.046590295 -0.030762633
0.20478345 -0.148228 0.13892168 -0.11601766 -0.10259062 -0.033988692 -0.13304958 0.09323722
-0.062241413 0.15803224 0.004911907 0.3006837 0.02752668 0.07108389 -0.05428274 -0.10744569
-0.09269395 -0.07248236 -0.17083576 0.00034255997 -0.020992171 -0.22115299 -0.24722284 -0.05093216
-0.033024214 -0.22851916 -0.10166668 -0.03840047 0.010214646 -0.0057235346 -0.16672593 -0.1536945
-0.12983537 -0.21026258 -0.14954197 -0.13577838 0.07053345 -0.015270405 -0.0025321373 -0.101805665
0.025564257 0.03510349 -0.08192714 0.025258105 -0.14226991 0.37499085 -0.012266536 0.21541548
-0.030093554 -0.002049703 -0.03799207 -0.084293276 0.026542634 -0.013813051 0.3569913 -0.08742303
0.09482628 0.29991603 -0.048792437 0.10982788 -0.027738705 0.008427402 -0.04344176 0.24917527
-0.10154867 0.010923343 -0.004347207 -0.13428104 -0.12809198 -0.011817052 -0.05689043 -0.010938314
-0.027657576 -0.27855995 -0.0947092 -0.018172404 0.009054913 0.10086265 -0.01647886 0.29605937
0.17630243 -0.018094154 -0.04187058 -0.1014757 -0.037014786 0.24944842 0.031236991 -0.32888627
-0.076202415 -0.28983173 -0.18984175 -0.16021012 0.017372629 -0.029419392 0.1469823 0.013488927
-0.021325791 0.0972725 0.05567899 0.19843915 0.22947016 0.08227024 0.37269637 0.14847718
0.24983831 0.10176884 0.15611884 0.14646824 0.010715724 -0.1784523 -0.1296842 -0.11625834
00000000: 87a5 0d3c ae60 37be a3eb 8a3e 4d0c 0cbe
00000010: 402e 11be eaef fa3d db1a 0ebd a1a8 d03c
00000020: 6f2b a5bc eb71 0dbe 8260 0c3e d9ef c23e
00000030: 039a 85be a119 d4bd 5102 14bd 55a0 e7be
00000040: bfdc 08be f056 97bc 7f7a 8a3e 4ec1 733e
00000050: bfaa 2e3f cb4c 45bd 6205 193d 170e 113e
00000060: 578b 06be 9344 7ebd e40b cabd 05d7 273d
00000070: da6d f1bd a1fb 36be df13 6c3d fb02 3a3e
00000080: 1d56 293e b651 4d3e 7d5c 133e dedb 7f3b
00000090: 54ff ecbd a831 42be e603 08be d588 453e
000000a0: 0986 103e 4d4e f13d 3286 e63d bb46 ee3d
000000b0: 38f5 0d3d 8f7b 0ebe 2504 eabd 7e81 0bbe
000000c0: 7aa7 c7be 0090 9dbe 4715 debe 5a73 26be
000000d0: cc35 08bd e4d5 29be f259 f03c 08cc 3fbd
000000e0: 134f 6a3d 2e03 d2bd 6a27 00be 3a9d 9abd
000000f0: 8710 56be 73e8 10be 8eaf aebd 1447 7c3d
00000100: 0142 5a3d d93e 653d 6a2f bbbc 19a1 153e
00000110: 8afe 863d 199d 953d 51ac 833c 8b4b 64bd
00000120: 7c1d 013e db93 98bd 8b0c 413d af03 d0bd
00000130: 4028 01be e567 b7bd d43d 7ebe 247b a9be
00000140: 40fc 64be 7d96 96bd 2fa4 8b3d e464 443d
00000150: 7f48 2ebc 41e6 403e 7b91 01be 6a27 f93d
00000160: de21 133e cd32 133e 80f6 7dbd 91f4 3ebd
00000170: 0c4b 5a3b cc83 b4bd 173a 463d 5cc8 933d
00000180: 644e 873d b0bf d93c 7a57 453d cdc8 85be
00000190: c714 133d 58fb 1ebe ace1 b4ba e394 843e
000001a0: a085 d03d 1576 323e 2beb 563d 2697 673e
000001b0: 08e8 7d3c 33e4 a5bd e544 b3bd d23a 70be
000001c0: 710c cfbd 8a8d b2be e0b8 8fbd 04f6 3fbd
000001d0: 4eee 073d 74cb 8a3d 380f 21be aaf2 34be
000001e0: cc25 173e 457e 403d 72e9 213e 0dce 50bd
000001f0: 31a9 9ebd e3dc d2bd a39e 5f3e 4994 343d
00000200: 8ed9 8bbd 6d4a cbbd 1d28 babd d607 26be
00000210: 2b8f b4bd e456 54bb b17a 79be 5230 aebd
00000220: 477d 14be 284d 36be e589 11bd 996e 5ebc
00000230: d855 c23c c2f6 313e 77d5 3e3d eb01 fcbc
00000240: c1b2 513e 15c9 17be 7c41 0e3e ab9a edbd
00000250: 081b d2bd ba37 0bbd 263e 08be 28f3 be3d
00000260: daf0 7ebd 34d3 213e 10f4 a03b 37f3 993e
00000270: a27f e13c 6e94 913d 9457 5ebd 7c0c dcbd
00000280: 53d6 bdbd a271 94bd 92ef 2ebe 9f99 b339
00000290: c6f7 abbc ee75 62be fc27 7dbe 3e9e 50bd
000002a0: 6644 07bd ed00 6abe 9f36 d0bd d049 1dbd
000002b0: 555b 273c 7d8c bbbb 34ba 2abe 1762 1dbe
000002c0: 90f3 04be 134f 57be 8821 19be 7d09 0bbe
000002d0: d773 903d b930 7abc 37f2 25bb 7d7f d0bd
000002e0: 226c d13c adc8 0f3d 6bc9 a7bd 16ea ce3c
000002f0: 34af 11be cdfe bf3e 95f9 48bc e095 5c3e
00000300: c286 f6bc 4f54 06bb 939d 1bbd f4a1 acbd
00000310: f06f d93c 2350 62bc 90c7 b63e d80a b3bd
00000320: 4834 c23d 988e 993e 94da 47bd 71ed e03d
00000330: 483c e3bc 1613 0a3c fdef 31bd cd27 7f3e
00000340: c0f8 cfbd d2f7 323c 0473 8ebb f880 09be
00000350: 8b2a 03be 4f9c 41bc f105 69bd 9d36 33bc
00000360: 2492 e2bc 699f 8ebe e6f6 c1bd 4bde 94bc
00000370: 0f5b 143c 1491 ce3d adfe 86bc 1895 973e
00000380: a088 343e 313a 94bc 7c80 2bbd 7ed2 cfbd
00000390: d19c 17bd 686f 7f3e b8e4 ff3c c863 a8be
000003a0: 0310 9cbd d364 94be e065 42be 1f0e 24be
000003b0: 0b51 8e3c f000 f1bc 8782 163e a900 5d3c
000003c0: 6db3 aebc ce36 c73d a70f 643d a233 4b3e
000003d0: 3afa 6a3e 4d7d a83d 0fd2 be3e 670a 183e
000003e0: 9dd5 7f3e 2e6c d03d 9edd 1f3e c5fb 153e
000003f0: 0191 2f3c 33bc 36be efcb 04be da18 eebd

emb_func.layer4.0.bias f4 [64]
0.0068478365 0.0008515105 0.0014825728 -0.0048969747 -0.00655089 -0.007561025 0.0024482245 -0.00280112
-0.0054708472 -0.0041969786 0.0034634038 0.0044855527 -0.00390758 -0.004235189 -0.004856734 -0.0009524356
0.007410668 -0.0046913414 0.00031411808 -0.0052507618 0.0044133593 -0.0033196877 -0.005700436 0.0012801347
-0.0006976972 0.006857081 0.0034810156 -0.0049009575 0.0050170063 0.0076646428 -0.0034260794 -0.0024604318
0.0037352466 0.001262237 1.1067992e-05 0.0039871577 -0.0020895542 0.0040100208 0.0015733471 -0.0039647133
0.0056441817 0.0010570288 -0.0035525723 0.0037152297 0.003619815 0.004585939 0.0025183999 -0.0076014157
0.00412627 0.0034207944 -0.0074605513 -0.002517106 -0.0069718924 -0.0030439564 0.0010002649 -0.007419904
0.0032514462 -0.0056247977 0.0027789737 0.002155466 -0.0075882673 0.0058392757 -0.0034893544 0.0065449355
00000000: d163 e03b e737 5f3a e352 c23a cd76 a0bb
00000010: d9a8 d6bb 7ac2 f7bb 6472 203b ff92 37bb
00000020: cb44 b3bb cf86 89bb 46fa 623b 8bfb 923b
00000030: 280b 80bb 57c7 8abb 3d25 9fbb dfac 79ba
00000040: 30d5 f23b d3b9 99bb 37b0 a439 950e acbb
00000050: f19d 903b 1e8f 59bb b9ca babb 31ca a73a
00000060: abe5 36ba 5db1 e03b c021 643b 3698 a0bb
00000070: b365 a43b af27 fb3b 1388 60bb 323f 21bb
00000080: 0acb 743b a571 a53a aab0 3937 b4a6 823b
00000090: e7f0 08bb 7e66 833b c538 ce3a 6dea 81bb
000000a0: d4f2 b83b 008c 8a3a 46d2 68bb 367b 733b
000000b0: 6b3a 6d3b a545 963b bd0b 253b 4c15 f9bb
000000c0: a935 873b 682f 603b a477 f4bb 08f6 24bb
000000d0: 7974 e4bb 1d7d 47bb 521b 833a ab22 f3bb
000000e0: 3716 553b 3950 b8bb 711f 363b b842 0d3b
000000f0: 00a7 f8bb 6557 bf3b a7ad 64bb e676 d63b
