results/RENet-dataset-Conv64F-5-1-Jan-08-2024-14-32-52/checkpoints/model_best.pth (torch, 909355 bytes, 69 tensors)

emb_func.layer1.0.weight f4 [64, 3, 3, 3]
00000000: 44b2 9a3e 6bad acbd 8f46 7dbe 740e 4fbf
00000010: c8d5 29bf b824 62bc 7de7 683e 3264 333f
00000020: 2144 2f3f 8d79 ce3e d45f 38be 45d1 96be
00000030: 6456 85bf 8c06 66bf 1c86 27bd 7758 ea3d
00000040: 252f 3c3f 4af0 4c3f 056c 1c3f a2d4 013d
00000050: 665f f8bd 8d45 42bf d79f 2fbf a8cd fc3d
00000060: 6610 8ebc 3798 173f e175 313f d27f 47be
00000070: c78e 0fbe 0c89 5ebe 8d70 41be c8ef d5bd
00000080: f540 62be 19be a0bc 6ad0 38bd 3376 a2bd
00000090: 3a93 8dbd fe6a 0e3d 05fa 86bd a8ad c9bc
000000a0: 111f 1f3d 522c 5cbd 7cb2 bd3d b670 873d
000000b0: 5d5a 283d 6310 29bc 5d05 a83d 0a6a 0bbc
000000c0: 3631 c13c 5317 de3d f918 4c3d 8081 253e
000000d0: a0e2 1d3e 3881 e43d b07b 443d c671 a8bd
000000e0: df44 9bbd d24d 9dbe 670c afbe 4ae9 bcbe
000000f0: 4fc6 5bbe 2289 1ebe 3bd6 7abe 0f39 933e
00000100: 27b4 6c3e eabe 623e f99d 4f3d c1d6 483d
00000110: ac64 c13b c7f7 39be 89cb 33be a9e9 7ebe
00000120: e8a2 c23e e388 ad3e 6699 ae3e 74bf 8b3e
00000130: 7947 7c3e 1a26 1f3e 46c1 69bc 602a 17bb
00000140: 9ff2 cbbd f3ac d63e a1ac 293f e515 1a3f
00000150: f2e7 09bf e1f4 f9be f137 74be 3dc6 38bd
00000160: c83b eabd 82be 43be 4779 223f 4d43 693f
00000170: a2ad 5b3f 6208 0ebf b163 18bf fe80 9bbe
00000180: e72d 72be f06b 01bf a9a4 0bbf 30b2 1c3f
00000190: 9a4a 6a3f ab2c 5a3f a177 c3be 3386 ccbe
000001a0: 952d 10be 0ccc 1cbe f23f f6be 52f2 f6be
000001b0: 56bf c23e a147 6b3d 8448 a3bd 1a0e 583f
000001c0: bfab 8dbe ddec a4be 793b 4d3f 8f98 f3be
000001d0: 987f 00bf 6832 183e 4a9f 8abd 5183 dfbd
000001e0: d3f4 2d3f 1f12 e1be 0e6c f4be 3090 343f
000001f0: 0678 22bf 9c4e 11bf aaca 743e 03c4 a63d
00000200: 1647 dc3d e81a 273f c6cb 97be b415 62be
00000210: 5467 303f 6d86 efbe e378 a5be ead7 13be
00000220: f5d3 37be a508 8fbe fb64 033e 5841 dd3d
00000230: dbc9 963d 5656 c63e 001b ea3e 01ac c93e
00000240: 24dc 983d 25bf 0abb 8f43 c2bd e084 d3be
00000250: d8cf 12bf 0007 24bf 73fb fcbe 909a 09bf
00000260: a00c 09bf f3f7 3e3f 04f3 223f 08ff ec3e
00000270: accd 913e 8ed2 a93d 603c a13c df6d 3e3e
00000280: 9feb 003e 2b80 ad3d 8ba8 00bf 3a38 25bf
00000290: f8d3 88be 2c79 1cbf d6d9 5cbe f080 783e
000002a0: a96c 373e 15f2 f13e 401e 203f cd52 673d
000002b0: 55cb c6bd 42fb 5a3e 345c ccbe d23a 213d
000002c0: a1bf de3e 150b 8f3d dae9 b73e 9c9c c93e
000002d0: a828 1a3e f859 c4bd 24c4 233e 27f1 dbbe
000002e0: 59b1 e9bd 57d2 543e b78f 96be bf24 abbd
000002f0: deeb 7bbd bd3a 053f 5417 2a3f 091d 373f
00000300: 2e78 c3be baeb 57be 7a25 efbc e0e6 1ebf
00000310: ae34 b4be d4e4 d7bd 18d4 b13e 709e f03e
00000320: f031 e03e db1d e2be 3375 b0be 0a33 47be
00000330: 5039 4ebf 6845 01bf f326 88be 9641 d83e
00000340: fbdd fc3e 34fb e53e 269f d8bd 73c5 46b9
00000350: 4a12 173e 288e 9bbe 9c44 7abd fc2d 413e
00000360: 7e47 ffbe ae19 03bf e927 eabd edae 4abd
00000370: e021 84bc 9958 b23d 7159 b93e 1e53 e33e
00000380: ce61 aa3e 3320 c4be c9ac cebe a3e1 e7bd
00000390: 1e4d 54bd 2c6d 51bd 5151 a0bc 4820 923e
000003a0: 285e a73e cc00 4e3e 1fd9 99be ad94 9abe
000003b0: 469d 5fbd 6ceb b6bb 057f a4bb cffb 1f3c
000003c0: 3d37 5d3e 9bef 823e 6f94 ee3d 57a0 bcbd
000003d0: e6c0 57be f1bd 46be 51a3 43be cef0 c7be
000003e0: e36f 76be 8ace 00be 8d75 83be af02 c9bd
000003f0: 7b85 ab3c d4d4 b1bd 5903 f8bc fdb2 db3c
0.3021413 -0.08431514 -0.24733947 -0.8088143 -0.6634183 -0.0138027 0.22744556 0.7007476
0.6846333 0.4032711 -0.18005306 -0.29456535 -1.0416989 -0.8985374 -0.04089938 0.114426546
0.73509437 0.8005415 0.61102325 0.031696923 -0.12127571 -0.75887376 -0.6860327 0.12343913
-0.017341804 0.59216636 0.69320494 -0.19482353 -0.14019309 -0.21731967 -0.18890591 -0.10446125
-0.22095092 -0.019621896 -0.045120634 -0.07932701 -0.06912847 0.034770004 -0.06590656 -0.024618939
0.038847987 -0.053753205 0.09262559 0.06613295 0.041101802 -0.010318848 0.08204148 -0.008509168
0.023583036 0.108442925 0.049828503 0.16162682 0.15418482 0.11157459 0.04796952 -0.082248256
-0.075814955 -0.30723435 -0.3418915 -0.36896735 -0.21462367 -0.15482 -0.24495785 0.2875447
0.23115598 0.2214314 0.050687764 0.04903293 0.0059018936 -0.18160926 -0.17558111 -0.24893822
0.38014913 0.338935 0.3410141 0.27294505 0.2463664 0.15541878 -0.014267271 -0.002306603
-0.09958386 0.41928825 0.66279036 0.6018966 -0.53869545 -0.4881964 -0.23849465 -0.04511093
-0.114371836 -0.19115642 0.63466305 0.9111832 0.8581182 -0.5548154 -0.59527117 -0.3037185
-0.23650323 -0.50555325 -0.54548126 0.6120939 0.9152008 0.8522441 -0.38177207 -0.39946136
-0.14079888 -0.15312213 -0.4809566 -0.4823175 0.38036603 0.057441358 -0.07972816 0.8439652
-0.27670094 -0.32211962 0.80168873 -0.4757733 -0.5019469 0.14862978 -0.06768663 -0.109137185
0.679517 -0.43959138 -0.4773869 0.7053251 -0.6346439 -0.56760573 0.23905435 0.08142855
0.10755746 0.6527543 -0.29647654 -0.22078592 0.68907666 -0.46782246 -0.32318792 -0.14437833
-0.17951949 -0.27936283 0.1283149 0.10803479 0.073627196 0.38737744 0.45723724 0.3938904
0.074638635 -0.002117106 -0.09485542 -0.41312313 -0.57348394 -0.6407318 -0.4941059 -0.5375147
-0.5353489 0.7459709 0.6365206 0.46288323 0.28477228 0.08292113 0.01968211 0.185966
0.12589882 0.08471712 -0.50257176 -0.6453892 -0.2672422 -0.61122394 -0.21567473 0.24267936
0.17912544 0.47255006 0.6254616 0.05647545 -0.09706751 0.2138491 -0.39914095 0.039362736
0.43505576 0.069845356 0.35920602 0.39377296 0.15054572 -0.09587473 0.1599279 -0.42957422
-0.114107795 0.20783363 -0.2940652 -0.08356618 -0.061504237 0.5204275 0.66441846 0.7152868
-0.38177627 -0.21086016 -0.029192675 -0.6207104 -0.3519644 -0.105416924 0.34732127 0.46995878
0.437881 -0.44163403 -0.34464416 -0.19453064 -0.805562 -0.5049653 -0.26592216 0.42237538
0.49388108 0.44918215 -0.1057723 -0.00018956307 0.1475307 -0.30381894 -0.061100587 0.18865198
-0.49859232 -0.5121106 -0.114333935 -0.04948323 -0.016129434 0.08708305 0.3620105 0.4439935
0.33277744 -0.38305816 -0.403662 -0.11322334 -0.051831357 -0.051129505 -0.019570025 0.28540254
0.32689023 0.20117491 -0.30048463 -0.30191556 -0.054593347 -0.0055822637 -0.0050200247 0.009764626
0.21603103 0.2557343 0.11649405 -0.0921027 -0.21069679 -0.19408394 -0.19105269 -0.39050907
-0.24066119 -0.12578788 -0.25675622 -0.09814965 0.020937672 -0.08683172 -0.030275034 0.026818747

emb_func.layer1.0.bias f4 [64]
00000000: aab3 093c b417 b3bc 7cf5 8b3b 7a92 b73c
00000010: f53f 963c ecd2 be3c 7841 713c 1285 13bb
00000020: 5fb9 e83b 3639 3abc 9f24 bd3c 3825 5f3c
00000030: 9218 a3bc 61ac c03c ed9c d3b9 c684 9eba
00000040: 6cf1 f3bb 792b ebbb dc7a b23a 8f92 59bc
00000050: cc47 cfbc a690 65bc 0f5e b1bb 4445 a83c
00000060: b4ed a33c b582 85bc 0de7 88ba 5ea0 00bc
00000070: ba69 6ebc 61bc 9cbb ada2 1abc 851a 793c
00000080: fd05 5dbc 9221 893b 9f7d 7bbc 7617 0bbc
00000090: 396b af3c 55ca 5abc f061 d6ba 2dd1 d43c
000000a0: 0189 183c 6ad8 62bc f1c9 85bc 7948 1cbc
000000b0: 348f 0bbc cf09 423c 212a c6bb 8bef bb3c
000000c0: d287 74bc 8c5c 0bbc fa41 223c 8cf7 b13c
000000d0: 0d29 d53c eca7 8e3b 0348 963a 73ac 47bc
000000e0: 2bcf 7b3c f72a 81bc 5147 eabb 1d3e babc
000000f0: b237 d6bc 4b1b 793c fa37 f23a c5a2 b13c
0.008404652 -0.021861888 0.0042712074 0.022408713 0.018341044 0.023293935 0.014725082 -0.0022509736
0.007102176 -0.011366179 0.023088751 0.0136197135 -0.019909177 0.023519697 -0.00040361975 -0.0012094013
-0.007444551 -0.007176813 0.0013616937 -0.013279571 -0.02530279 -0.014011538 -0.005412824 0.02054084
0.020010807 -0.016297678 -0.0010444835 -0.0078507345 -0.014551574 -0.0047831987 -0.009438199 0.015204077
-0.013490197 0.00418491 -0.015349775 -0.00848948 0.021413432 -0.013353904 -0.0016356092 0.025978649
0.009310008 -0.013845542 -0.016331645 -0.009538763 -0.008518029 0.011843159 -0.0060475026 0.022941371
-0.01492496 -0.008505952 0.009903425 0.021724485 0.026020551 0.004353514 0.0011465553 -0.012187111
0.015369217 -0.015767558 -0.007149615 -0.022734696 -0.026149604 0.015204261 0.0018479817 0.02168406

emb_func.layer1.1.weight f4 [64]
00000000: 0f3c 4c3f bfb8 ab3e 40fb cb3e 6568 463f
00000010: d17e 3e3f a141 263f 7e5d 153f 6a11 163f
00000020: 6e93 893f 8fc1 c13e 4c9f 343f 7517 f03e
00000030: 5cc3 473f e0eb d33e ddf6 ee3e 0d2d 7b3f
00000040: aae8 433e 4f3d 133f c1c2 fd3e c9b0 393f
00000050: deee ae3e e6c6 523e 1220 5d3f 0f5e 0f3f
00000060: 88b9 fd3e 58fe af3e e97e 6e3f ad69 133e
00000070: bb80 603f dc69 e73e c5ee b63e 501d a73e
00000080: 3997 603f 5533 0c3f 273e 803f b3f8 b43e
00000090: d1bf e33d 5621 e63e c960 a73e 0a3a e63e
000000a0: a67e c53e 484e 243f 46ad 993e 6df1 0f3e
000000b0: c912 853c c409 0c3f 695b 1c3f 3e05 c13e
000000c0: 3b16 c03e fe0f aa3e ec92 503e 403a e73e
000000d0: 7e29 2a3f 1d1c 1a3f 265c 913e 90f3 9d3e
000000e0: 585d b43e 0070 103f e7cc e83e fdd4 853e
000000f0: 4a7a 343f bdbd e23e 5156 8a3e 3971 ec3e
0.7977914 0.33539388 0.39840126 0.77503043 0.74412256 0.6494389 0.5834578 0.5862032
1.0748117 0.37842986 0.7055557 0.46892896 0.7803247 0.41390896 0.46672717 0.9811562
0.19131723 0.57515424 0.49562648 0.7253538 0.34166616 0.20583686 0.8637706 0.560029
0.49555612 0.34373736 0.931624 0.14395781 0.8769643 0.45197952 0.35729042 0.3263955
0.8773075 0.54765826 1.0018967 0.35345992 0.111205705 0.44947308 0.3269103 0.44966155
0.38573188 0.6418195 0.3001501 0.1405694 0.016244309 0.547024 0.6107698 0.37699312
0.3751696 0.33215326 0.20368546 0.4516163 0.6646956 0.6019915 0.28390616 0.30849886
0.35227466 0.564209 0.45468828 0.2613906 0.704991 0.44285384 0.2701898 0.46180132

emb_func.layer1.1.bias f4 [64]
00000000: a3e3 cd3d e2a8 45be bcf9 993d 7f65 923d
00000010: 3cc3 493e 12a9 3ebe f49f dd3d 7bf8 223f
00000020: 2e9a a6bf 4cfd 973d 79f2 503e 1d74 aabe
00000030: 2eff 8abf f20c b8be 7d64 b0be 1c90 973e
00000040: 3291 6dbe 4e7c d93c d080 c23e b20c 02bd
00000050: 2dab 31be 8de5 afbc d762 ae3d 75fd 9b3e
00000060: d2a0 cabe 1177 b6be b5f2 df3e 480e 2abe
00000070: e4f3 12bd bf8c 42be db73 b6be d667 a0be
00000080: 1cb7 713d 4357 bb3e e200 b3bd f2bc 863e
00000090: 90f7 d9bd c3b7 3a3e 7b98 87be c528 b93e
000000a0: 2500 9abc 595a 40bd 198f 803c c5ab f0bd
000000b0: cac9 5cbd b073 83be cee9 1cbf 76ad d73e
000000c0: 8671 e93d dd5e a8bd 6b8e 363a 2cb1 aebe
000000d0: 64a9 03bf 7387 953e 56d0 88be 07e9 afbe
000000e0: bf4e adbc e2fc 8a3d f088 e83d cfb9 96be
000000f0: d8b3 ab3e d2b4 c9be 5612 a8be 8842 b63c
0.10053184 -0.19302705 0.07518336 0.07148265 0.19703382 -0.18619183 0.10821524 0.636604
-1.3015802 0.074213594 0.20404996 -0.33291712 -1.0859125 -0.35947376 -0.34451666 0.29602134
-0.23199919 0.02654853 0.379889 -0.03175039 -0.17350455 -0.021471763 0.08514946 0.3046681
-0.3957582 -0.35637715 0.43739858 -0.1660701 -0.035877123 -0.18999003 -0.35635266 -0.3132922
0.059012517 0.36590013 -0.08740403 0.2631603 -0.10642922 0.18234162 -0.2648352 0.36163917
-0.018798897 -0.046961162 0.015693234 -0.117515124 -0.05390338 -0.256742 -0.6129426 0.42124528
0.11398606 -0.08221219 0.0006963971 -0.34119546 -0.51430345 0.29204902 -0.26721448 -0.34357473
-0.021155713 0.06786515 0.11354244 -0.29438636 0.33535647 -0.39395767 -0.3282649 0.022248521

emb_func.layer1.1.running_mean f4 [64]
00000000: ed89 633d e094 a1be 727d c3be 8bd9 193d
00000010: 7ab3 ff3d 2639 833e ff0a 1bbe 6e1b 383d
00000020: e610 3c3b cbee cfbe 70c6 99bd 8fb5 96be
00000030: cc81 e03c fd3d 5f3e eeba 3a3e 1cd5 13bc
00000040: 34a0 643c 31bd 4fbd 36aa 90bd 38e5 bfbd
00000050: 8c8a 27be f614 713c 5f54 8fbd d750 a9bd
00000060: 9278 89be 328d 86be 0ce3 2eba f561 0fbe
00000070: 096a 16bd 34f4 d4bd e620 1d3c 2edd 153e
00000080: cbab bfbd 60b3 a6bd 2173 763c d312 1fbf
00000090: e391 9cbc 6b55 23be 994e b33a 47b9 223e
000000a0: 4955 64bd 65a7 59bd bbb5 4ebe 3eb5 f5bc
000000b0: 12c2 afbd 737a f2be 5011 ebbe 29b8 463d
000000c0: 8655 f13e 3075 b5be 0c95 1f3e 599f ba3a
000000d0: 5ddc 33bd f24e e5bd 5a54 6cbe da03 e33c
000000e0: 9079 e3bd 4f84 853c f10c 78be 72ee c0ba
000000f0: 5d45 d3bd 51ae f4bd 5925 cf3b b0eb 1dbf
0.05555146 -0.31558895 -0.38181645 0.03756098 0.12485404 0.25629538 -0.15140913 0.044948034
0.0028696596 -0.40611872 -0.07508552 -0.29435393 0.027405642 0.2180099 0.1823537 -0.009022977
0.013954211 -0.050717536 -0.07063715 -0.09369892 -0.16361445 0.01471447 -0.069985144 -0.08267372
-0.268498 -0.26279598 -0.0006671406 -0.14002211 -0.036722217 -0.103981405 0.009590363 0.14635155
-0.09358939 -0.08139682 0.015042097 -0.621381 -0.019112533 -0.15950553 0.001368004 0.1589099
-0.055745397 -0.053138155 -0.20186512 -0.02999365 -0.08581938 -0.47359046 -0.45911646 0.048515473
0.47135562 -0.3544097 0.155842 0.0014238163 -0.043911327 -0.11196698 -0.23079053 0.027711798
-0.111071706 0.016298441 -0.24223687 -0.00147195 -0.10315964 -0.11947311 0.006321591 -0.61687756

emb_func.layer1.1.running_var f4 [64]
00000000: 907b 1040 9152 223f b8a6 ca3f eba8 a140
00000010: cc4e 4d40 d9f3 2f3f 2997 a33f 944a 5e40
00000020: 81a3 cf3f e04f c23f fc63 4e40 3c1e 5f3f
00000030: a947 5e3f 5852 373f f449 1c3f e925 a640
00000040: 9385 a03d 269e de3f 1838 2d40 c741 9f3f
00000050: e367 fe3e 90f8 833e 3b96 1640 637d bd3f
00000060: e129 4b3f d27a ee3e 69bc ed40 b71b 083e
00000070: 091e 8640 03b1 863e 51f3 473d 6ed6 ef3e
00000080: f215 cb40 faa3 7f40 e58f 4d40 1639 fc3f
00000090: 5ba8 953d 6691 893f bb61 913e 506a e73f
000000a0: 8917 b23e 92ec 8e3f 21ed a43f 9fde bc3d
000000b0: c96a a43e 6859 0940 7383 c53f 1097 0240
000000c0: 6d95 cb3f 674a 523f 156e 2e3f 52df 113f
000000d0: 8b51 0740 3f8b 1340 7800 ca3e 365a 323e
000000e0: c565 4e3e d009 c53f 8b3d 7e3f d530 0a3e
000000f0: d6d3 8e40 379e a93e 285a 333d abfd 1640
2.2575417 0.63407236 1.5832129 5.05187 3.2079344 0.68731457 1.2780505 3.473302
1.6221772 1.5180626 3.2248526 0.8715551 0.86828095 0.7161002 0.61050344 5.1921277
0.07837977 1.7392013 2.7065487 1.2441949 0.49688634 0.25775576 2.3529193 1.480389
0.7936078 0.4657808 7.4292493 0.13291822 4.1911664 0.26306924 0.04881603 0.46843284
6.346429 3.9943833 3.2119076 1.9704921 0.07307502 1.0747497 0.28394875 1.8079319
0.3478358 1.1165946 1.2884866 0.09222149 0.3211272 2.146082 1.543074 2.0404701
1.5904976 0.8214478 0.6813672 0.56981385 2.114352 2.305374 0.39453483 0.17417225
0.2015601 1.539362 0.9931266 0.1349519 4.463359 0.3312852 0.04378715 2.3592327

emb_func.layer2.0.weight f4 [64, 64, 3, 3]
00000000: e373 863e 4d40 823e 5790 f0bd ca4e fabd
00000010: f153 9b3b 0461 163e 968d aa3d 57cf 203e
00000020: 9769 e63d 1ac2 9c3d 7f31 d63d e87a b23d
00000030: 1327 ea3c b539 e83c 4db8 b8bb 2e14 80bd
00000040: 140b 9ebd 628a a3bd 2a8a 133e 9c01 3c3e
00000050: f7ec 1e3e e66f 463d 4cad ae3d b037 6a3d
00000060: 08fe 70be 3c7a 83be 827b 8ebe 9246 35bd
00000070: c7e9 7a3c 1bbf 4abd 26c3 bd3d 5f6b 4a3e
00000080: 8b6d 8bbb 0d62 04be 8c96 10be 0244 45be
00000090: e2c9 233e 82b7 173e 6f4c fb3d 9dee 9cbc
000000a0: bd04 1bbc dbe8 723c 1c4a 41be 1e75 8cbe
000000b0: 26e4 1bbe 52c5 073e c131 7d3d c533 df3c
000000c0: 3618 053e 7f06 313e 69e8 e03d 3074 e73d
000000d0: e69f 5d3d 5e20 d93c e4e0 f13d a428 bd3d
000000e0: 50de 14bc d4b2 26bc 86b3 fd3b 174e 083e
000000f0: cd70 9bbd ba37 6ebd 2e62 f3bc 70f3 4c3d
00000100: 6576 7a3d 0761 0fbc 88d2 13bc 3f81 9f3d
00000110: de2f 84bd b495 8cbe 6807 5bbe 233e 9cbe
00000120: eb74 1ebe e072 22be b4a1 02be 5f81 2dbe
00000130: 9b42 5abe 7997 46be 8388 ee3c fedf 143d
00000140: 9cbf 92bd 64ee 6f3e d476 783e 382e 613e
00000150: 951f ab3d cbd0 933d fb85 773d da21 4ebe
00000160: d5ea 62be f42a 80be 0f2f 803d 54c9 143e
00000170: 8b89 1d3e 8b34 673c 4da2 f33c 2762 33bd
00000180: b5cb 40be e66f 54be d19b 4abe 047d 8a3d
00000190: 740f e43d 8ff0 d33d 5168 653c aa4a 073c
000001a0: b74a 93bc 3043 5bbd d392 87bd 446c 86bd
000001b0: aa69 91bd f2f2 febc 63b0 c3bc 5e2a d2bd
000001c0: d2ac 90bd f5de 3fbd 5441 5e3b 2f8b 3d3b
000001d0: 857b 723c 0c7e 873c 3630 b63c db26 a23c
000001e0: 596f 823c 5203 eb3b e3de 8d3c 2f54 1d3d
000001f0: 0a7b 303d 6848 153d 069f fcbc a790 d8bb
00000200: 550d a3bb cd58 45bb a880 b5bb cb73 fc3a
00000210: 280b d03c 0876 093d 261f c93c 5810 023e
00000220: 121f 023c 25c9 62bd b9a5 d33d c481 26bd
00000230: 3d99 27bc 0d81 8abe a1f0 76be 5359 25be
00000240: 0971 b8bc 4f82 adbb 91b8 f1bc cc16 d6bb
00000250: 791f 5c3b 8b06 033b 4cb7 96bc 76c6 a4bc
00000260: 0067 3cbc d86f 873d dcb9 b33d 53e2 e63d
00000270: 455c a33c c124 81bd 710b c5bd 0164 1ebe
00000280: 51bd 4cbe f3ec 11be 464b 0c3d b723 b53d
00000290: 4ee4 a2bb ceb2 4a3d 0d7d 373d 3df7 c73c
000002a0: 5f68 d13d 81ab 0c3e c860 e8bc ea57 833e
000002b0: 9678 093e 1cdf ffbc 19ab c3bd 44cd 0f3e
000002c0: 711e 463e 6f09 a7be 0871 77be abfc 50be
000002d0: 219b c63d 09a5 bb3d fb92 613d d05f eabb
000002e0: f361 f93c 8a46 103d 52b9 89bd 1f06 7cbd
000002f0: 0099 64bd 9773 88bd 1dd9 47bd ace8 56bd
00000300: fc3a fcbc 9409 0bbd 03cf 2bbd b76f 33bd
00000310: 2539 18bd ab4c 21bd 3b34 203d 8823 ba3e
00000320: a327 e63d c108 b63c a824 293e 0f14 4a3d
00000330: 9c49 abbe ec65 1bbe dde0 e5bd 40be 273e
00000340: 32be c23d 3959 0a3d ec10 57be 33d9 06be
00000350: 53ec 6abd f1ac 96be 473e 79be 350d 66be
00000360: c11d b33d d3b3 ab3d 0ee3 9f3d 514a 383c
00000370: dc3a dfbc c50c 9abc 7b5e 82bd a154 d5bd
00000380: 0fc2 ddbd 1527 1dbd 9737 2ebd c78f 1ebd
00000390: 6871 03bd b644 cbbc ab44 c5bc b135 29bc
000003a0: 3b65 73bb c601 38bc 2d76 c73d 1275 083e
000003b0: 0700 efbd 4572 c93d d6cb b13d 9fad f33d
000003c0: 38f5 663e b9e6 9b3e bcc2 8e3d e556 d3bb
000003d0: 4c69 033b 98c4 49bc 2e85 03bb 3ae1 5abc
000003e0: 8e71 4fbc 3ea4 87bc 4054 d8bb 01bf 50bc
000003f0: b1a0 133e 5119 7e3d 611d 97ba 56eb b9bc
0.2626029 0.25439683 -0.11746281 -0.12222059 0.004740231 0.14685446 0.083277866 0.15704094
0.112506084 0.076542094 0.104586594 0.08714849 0.028583085 0.02834783 -0.0056372047 -0.06253849
-0.07716957 -0.07985379 0.14408174 0.18359989 0.15520082 0.04844656 0.085291475 0.057182014
-0.23534405 -0.25679195 -0.27828604 -0.044256754 0.015314526 -0.04949866 0.09265737 0.19767521
-0.004255002 -0.12928028 -0.14119929 -0.19264224 0.15994981 0.14816096 0.12270438 -0.019156748
-0.009461579 0.014826025 -0.18875927 -0.27433103 -0.1522375 0.13258865 0.061815027 0.027246365
0.12997517 0.17287634 0.10981829 0.11301458 0.05410757 0.026504692 0.118104726 0.09236267
-0.009086207 -0.010174472 0.007742348 0.13311039 -0.075898744 -0.058158614 -0.029709902 0.050036848
0.061148066 -0.00875116 -0.0090223625 0.077883236 -0.064544424 -0.27457964 -0.21389544 -0.30516157
-0.15474288 -0.15864134 -0.12756997 -0.16943882 -0.2131447 -0.1939372 0.029117828 0.036346428
-0.07165453 0.23430783 0.2426408 0.21990287 0.08355633 0.072175585 0.060430508 -0.20130101
-0.22159894 -0.2503277 0.06258976 0.14529926 0.153845 0.014111648 0.029740477 -0.043794777
-0.18827708 -0.20745811 -0.19786002 0.06762126 0.1113576 0.10348617 0.014001922 0.008257547
-0.017979963 -0.053530872 -0.06619801 -0.06563619 -0.07100232 -0.031121705 -0.023887819 -0.10261987
-0.07064213 -0.046843488 0.003391345 0.0028922071 0.014799957 0.016539596 0.022239786 0.019793918
0.015922235 0.0071720267 0.017318195 0.03841036 0.04308609 0.036446005 -0.030837547 -0.006609041
-0.0049759545 -0.0030112744 -0.0055390187 0.0019260583 0.025395945 0.03355983 0.024550986 0.12701547
0.007941978 -0.055367608 0.103343435 -0.040651098 -0.010229406 -0.27051583 -0.2411523 -0.16147356
-0.022514837 -0.005295075 -0.029506953 -0.0065334793 0.0033588095 0.0019992914 -0.01839795 -0.020114165
-0.0114991665 0.066131294 0.08775684 0.11273637 0.019941458 -0.063058384 -0.09621323 -0.15467836
-0.19994093 -0.14250545 0.034251474 0.08844703 -0.0049710637 0.049486928 0.044796992 0.024409885
0.10224985 0.13737299 -0.028366461 0.2565301 0.13424906 -0.031234317 -0.09554119 0.14043146
0.1934755 -0.32624385 -0.24164212 -0.20408885 0.09697557 0.09162337 0.055071812 -0.007152535
0.030442214 0.03522352 -0.067248 -0.061529275 -0.055809975 -0.06662672 -0.04879104 -0.052467987
-0.030789845 -0.03394468 -0.04194547 -0.04380771 -0.037163872 -0.039379757 0.03911231 0.36355233
0.11238029 0.022220971 0.1651789 0.049335536 -0.33454597 -0.15175599 -0.1122453 0.16381168
0.09508933 0.033776496 -0.21002549 -0.13168792 -0.057354283 -0.2942882 -0.24340163 -0.22465976
0.087459095 0.08383908 0.07806979 0.011248187 -0.027249746 -0.018804917 -0.06365677 -0.10416532
-0.10828029 -0.03836735 -0.042533483 -0.038711336 -0.032090575 -0.024813037 -0.024080595 -0.010327742
-0.0037139195 -0.011230892 0.09739337 0.13325909 -0.11669927 0.09836248 0.08681457 0.1189835
0.22554481 0.30449465 0.069707364 -0.0064495676 0.0020051776 -0.012314938 -0.0020068395 -0.013359362
-0.012661351 -0.016557809 -0.0066018403 -0.012740851 0.14416768 0.062035862 -0.0011529141 -0.022695225

emb_func.layer2.0.bias f4 [64]
00000000: f8b3 64b9 877f 7c3b 1374 b9bb cb4d f2ba
00000010: dffa 473b 6096 aeba ec8a 793b 18d7 043b
00000020: 7d42 853a ec6f 54ba 7662 baba 5c4f a0ba
00000030: e0e9 09ba 040b 50bb 5fcf dbba d2a6 5b3b
00000040: 84d2 863b b279 8d3a 23ac 6c3a fe60 a5bb
00000050: 9874 9d3a f80a a13b dbe7 26bb 3f38 c0ba
00000060: 4d4e bb3b 2629 693a 2a1a 973b df63 d1ba
00000070: 95e8 adbb 6894 053a 1e36 95bb e139 26bb
00000080: 890f 063b d56d b2bb f079 513b 5d2b b13b
00000090: cdd0 b43b 119a a7bb 003d bfbb 98ba 1abb
000000a0: c162 f239 ba08 3dbb 9b92 873b 96db af3b
000000b0: 90d0 cb3a a2c9 66ba 245c b0bb ce93 693b
000000c0: ecac 60ba a11a 843b ef5b 133b 9d0d 813a
000000d0: fd06 8fbb 10bf 793b 43e7 933a 2629 973b
000000e0: 5fa0 913b 1620 4bbb 03a9 93bb 9d04 b6bb
000000f0: 144c 02bb 014c 03bb 57f4 c839 dd38 4c3b
-0.00021810818 0.003852816 -0.005659589 -0.0018486319 0.003051452 -0.0013319962 0.0038077189 0.0020269807
0.001016691 -0.0008103836 -0.0014220017 -0.0012230682 -0.00052609853 -0.0031744847 -0.0016770175 0.003351618
0.004114451 0.0010793714 0.0009028336 -0.0050469628 0.0012012897 0.0049146377 -0.0025467786 -0.00146652
0.0057161213 0.0008894376 0.0046112733 -0.0015975198 -0.005307267 0.00050956616 -0.0045535704 -0.0025364088
0.0020456037 -0.005445222 0.003196355 0.0054067806 0.005518055 -0.0051148017 -0.005836129 -0.0023609754
0.00046231414 -0.0028844313 0.00413735 0.005366753 0.0015549827 -0.00088038493 -0.005382078 0.0035641077
-0.0008570689 0.0040314947 0.0022485217 0.0009845976 -0.0043648467 0.0038108267 0.0011284131 0.0046130596
0.0044441666 -0.0030994467 -0.0045062318 -0.005554749 -0.0019881772 -0.0020034316 0.0003832902 0.0031161823

emb_func.layer2.1.weight f4 [64]
00000000: 98bb 633f 9b71 103f 0545 093f ad3d 223f
00000010: 9a7f 403f 2d0f 573f 4b5a 903f 2c81 293f
00000020: 1f4f 813f 9694 3f3f 387e 8f3f 9fc1 5a3f
00000030: a7cd 3b3f 910c 793f 1ef3 363f f730 4b3f
00000040: f847 063f fcdf 3f3f 3684 463f f2ed 653f
00000050: 9580 663f 8d27 813f 5185 f63e 7928 4b3f
00000060: 75bf 703f 002e 633f a623 7f3f 56af 2b3f
00000070: 0c98 773f bffc 353f b25f 843f 00ee 473f
00000080: d942 563f 0d8e 413f 0717 333f 479b 403f
00000090: 0777 7f3f 2444 8d3f 4a52 083f 16d6 663f
000000a0: 05cd 5e3f 2d0a 303f a0dd 613f 0e22 853f
000000b0: f492 433f de18 0b3f bc6b 1d3f 8a92 083f
000000c0: e0f9 5f3f 0aa9 1a3f 1d96 163f d3fc 553f
000000d0: 01e9 873f d980 613f c470 463f 55dc 133f
000000e0: bf25 723f 96c8 4c3f 84cd 503f 7e62 5b3f
000000f0: fab7 393f 35a5 353f 65ca 6b3f 0301 0a3f
0.8895812 0.5642335 0.5362094 0.6337536 0.75194705 0.8400753 1.1277555 0.66212726
1.0102271 0.748361 1.1210394 0.8545169 0.73360676 0.972848 0.7146472 0.7937159
0.52453566 0.7495115 0.7754549 0.898162 0.9003995 1.0090195 0.48148587 0.7935863
0.9404214 0.88742065 0.9966377 0.67064416 0.9671638 0.71088785 1.0341704 0.78097534
0.8369575 0.7560738 0.6995701 0.75236934 0.99790996 1.103642 0.53250563 0.9017042
0.87031585 0.68765527 0.882288 1.0401018 0.7639611 0.5433482 0.61492515 0.533486
0.87490654 0.60414183 0.58822805 0.83588904 1.0617982 0.8808723 0.77515817 0.57758075
0.94588846 0.7999357 0.8156359 0.8569716 0.7254635 0.7095521 0.92105705 0.53907794

emb_func.layer2.1.bias f4 [64]
00000000: 2133 86be 3e83 e8bd ddbb b63d 8360 60bf
00000010: 9d07 c7be 950d 92bd 32f2 1dbf 91de 8ebe
00000020: 852e 1abf 0a2d a6be f07c 2cbf ecd5 a2be
00000030: 438c 6fbd e26d bbbe cf8e 1fbe a4c9 45bf
00000040: dc58 debe 1a42 62bd b7e6 d4be 91df 1fbf
00000050: 45fc 3dbf c8cd f4be 62b7 6dbe 5560 69be
00000060: bd49 eebe ae8e 22bf 4a48 e9be 4359 fabe
00000070: ef69 ccbe 010f 8dbe d1f7 f4be 6cd8 8bbe
00000080: bcf7 8e3d 7d33 17bf e12e 4a3c 4155 8abe
00000090: 0b57 d0be f521 18bf 8d00 0fbf a9db e8be
000000a0: e1b4 b0be 57f6 8cbe 8552 e1be ae13 d6be
000000b0: e1ce adbd 6bed a2bc 7870 9cbe 2328 e9bc
000000c0: 9b40 1dbf 2f57 46be 3ed0 0dbe 88b3 ccbe
000000d0: 5198 4abf 703a 0ebf 61c2 8fbe 6542 253e
000000e0: f5cc 0bbf 3e98 9dbe 3687 86be b251 02bf
000000f0: bd4b 5abe a0c5 b53d 59be b2be c691 01bf
-0.26210883 -0.113531575 0.08922551 -0.87647265 -0.38872996 -0.07131497 -0.61697686 -0.2790418
-0.60227233 -0.32456237 -0.6737814 -0.31803834 -0.058483373 -0.3660727 -0.15581821 -0.77260804
-0.4342717 -0.05523882 -0.4158227 -0.6245051 -0.7421306 -0.4781325 -0.23214486 -0.22790654
-0.46540633 -0.6349896 -0.45562965 -0.48896226 -0.3992457 -0.2755051 -0.4784532 -0.27313554
0.06980845 -0.5906294 0.012340278 -0.2701817 -0.4069141 -0.59426814 -0.55860215 -0.45480087
-0.34513 -0.27531692 -0.4400827 -0.4181189 -0.08486725 -0.0198886 -0.30554557 -0.028461521
-0.61426705 -0.19369195 -0.1384897 -0.3998072 -0.79138666 -0.5555792 -0.28077987 0.16138609
-0.54609615 -0.30780214 -0.26275033 -0.5090591 -0.21317954 0.088755846 -0.3491085 -0.5061306

emb_func.layer2.1.running_mean f4 [64]
00000000: 3ba0 08c0 0e95 babf f6bb 86c0 dd22 403d
00000010: 909d 1fc0 58e7 a2bf 6901 22c0 bbe4 b6bf
00000020: 9a84 48c0 bf1d 91bf 11c7 abc0 af9b 0bc0
00000030: 7fcc 09c0 c63f 5ec0 6d7d 51c0 f998 ebbf
00000040: ae8a b7bf 5dfd 0bc0 476d 1bc0 060f 20c0
00000050: bcd6 d1bf 6a9d 40c0 a3c0 58be 5fca 28c0
00000060: 1e48 96c0 1ae0 b1bf 29f9 68c0 3d72 8dbf
00000070: b193 63c0 d33d 34c0 e0f9 5dc0 91d2 63c0
00000080: 14d8 46c0 9f5f 87bf 4df3 e9bc 82ba 3ac0
00000090: e58e 37c0 616a 85c0 1a55 813f 7f33 4dc0
000000a0: 75e8 cbbf 651a bebf e025 8cc0 890f 8ec0
000000b0: d0f4 96be 296f 033f 3092 59c0 deaf d5be
000000c0: 1d52 3bc0 8c40 b2be cd50 3ebf 52fb 22c0
000000d0: 152d 91c0 be1e 95c0 b6ca aebf 3930 13c0
000000e0: 5011 97c0 28eb 2bc0 a9d9 2ec0 f18b 21c0
000000f0: 0ca2 b0bf 8482 18c0 48dc 22c0 3d45 2840
-2.1347797 -1.4576738 -4.2104445 0.04690825 -2.4939919 -1.272685 -2.531336 -1.4288553
-3.1330934 -1.1337203 -5.36805 -2.1813772 -2.1531065 -3.4726424 -3.2732804 -1.8406059
-1.4339197 -2.187339 -2.4285448 -2.500917 -1.6393657 -3.0096078 -0.21167235 -2.6373518
-4.6963034 -1.3896515 -3.6402075 -1.1050488 -3.5558894 -2.8162735 -3.4683762 -3.559727
-3.1069384 -1.0576056 -0.028558398 -2.9176335 -2.8680966 -4.1692357 1.0104096 -3.206268
-1.5930315 -1.4851805 -4.3796234 -4.4393964 -0.29483652 0.5134149 -3.3995476 -0.4173574
-2.9268868 -0.3481487 -0.7434204 -2.5465894 -4.536753 -4.6600027 -1.3655612 -2.2998183
-4.7208633 -2.6862278 -2.732035 -2.5241663 -1.3799453 -2.382966 -2.544695 2.629226

emb_func.layer2.1.running_var f4 [64]
00000000: ee4f 2541 99bc bc40 bc39 f040 3548 8240
00000010: 3c06 fc40 8e23 5941 f555 3941 2aa1 0541
00000020: 0618 0841 0436 c040 da17 3441 5b31 e740
00000030: c352 2641 6f16 0e41 3b14 3d41 786d a540
00000040: 1eac 2140 6bd3 8940 0e43 5440 20b1 de40
00000050: c2b5 9b40 b38d 0041 a6fc a840 5c46 2b41
00000060: 9421 3f41 71de b640 3e91 1b41 28cc 4c40
00000070: 051e 7c41 7b00 f840 f3a0 f940 f69c de40
00000080: f605 5441 53b3 7a40 b2f5 1841 3296 ac40
00000090: 0b46 3c41 a49d 4141 54e8 4340 ab5c 6c41
000000a0: e441 3f41 2c18 9f40 787b f440 5e38 3241
000000b0: f8af 1141 55ae f740 55cc 8840 30ca 3e41
000000c0: b69d be40 446d 9340 bca8 4340 1291 3141
000000d0: e1dd f240 be6d eb40 aebf 1d41 f15d 8c40
000000e0: 3ddf ff40 48c8 7141 4f65 c940 bbb5 0d41
000000f0: 79cd 1041 25db 2641 7f84 5041 afdf 8840
10.332014 5.898022 7.5070477 4.0713143 7.875761 13.57118 11.583486 8.351847
8.505865 6.0065937 11.255823 7.224775 10.3952055 8.880477 11.817439 5.169613
2.5261302 4.307058 3.3165927 6.9591217 4.865937 8.034595 5.280841 10.704678
11.945698 5.7146535 9.7229595 3.1999607 15.757329 7.7500587 7.800897 6.9566603
13.251455 3.917195 9.559984 5.3933344 11.7671 12.1009865 3.0610552 14.772624
11.953587 4.9717007 7.640072 11.1387615 9.105461 7.740031 4.274943 11.924362
5.956752 4.607088 3.0571737 11.097918 7.589585 7.3571463 9.859297 4.3864675
7.996001 15.111397 6.293617 8.856868 9.050164 10.428502 13.032348 4.277305

emb_func.layer3.0.weight f4 [64, 64, 3, 3]
00000000: 1cf0 313d 4272 c93d 11e7 803d ad41 ba3d
00000010: b6d1 b63d 12ee ec3d 8146 57bd d167 f03c
00000020: a812 373e 3aec 253e 8de0 0d3d da14 513d
00000030: fc25 a63c 5db7 8239 006d d33b e33a 44bd
00000040: 046b 5ebd e948 12bd 170f f6bd 95bf a7bd
00000050: 5db4 14be ce99 4dbd 3341 403b c120 34bd
00000060: a30b 6ebb d008 833d f7d2 473c 8746 2b3d
00000070: 6849 c3bb 800a 2bbc 8f72 88bd 2e55 8ebd
00000080: d428 79bd 98ad 06bd 7521 03bd 2c5c 34bd
00000090: deba 153d 7ef2 dc3d 44f8 383e 9ac8 f8bc
000000a0: 70d6 e63d 94ae 5a3e 80cd 64be 4298 ebbd
000000b0: 40c0 9dbc a2dd 903c 5b4c 053c 81dd d53d
000000c0: 912d e3bc 2678 9fbd 294b 8bbc 8d27 24be
000000d0: 0028 56be 5845 b7bd 53ea 7cbd ca1c 2d3b
000000e0: ba5f 7d3d 6168 063d 7220 1dbd e0c7 d0bd
000000f0: 6a5a 8c3d 4d71 0c3d ca9f a33c d9fc 6f3d
00000100: c89c 043d c517 2bbd 048d e93c 5bbb 92bc
00000110: 6557 0bbd 44c3 1cbe f6d2 37be 7fd1 c1bd
00000120: 7a1a e3bc e58a 35bd cc0d b2bd a0d5 ebbd
00000130: 8068 a6bd a31e 90bd 633a e1bd 33ba adbd
00000140: 9bc8 b0bd a410 823e a50c f93d 8f60 993d
00000150: 54bc 9d3d 0a2a 113d 149b 3e3c 8b4f 8abb
00000160: 03b3 8bbb 70d8 8d3d ca4d 77bd 17a2 d9bb
00000170: 50d7 8dbc e59d 86bc 5027 a83c 9c22 a73c
00000180: 9d43 09bc 03e0 53bb 205f 09bd 6137 a2bd
00000190: b495 a63c dcf5 cc3d fa34 bebd ca6d 0d3d
000001a0: 3756 303e c66d 70be 7b19 eabd 2220 09bd
000001b0: 5868 1abd 40cf d63d 764c a63c dd84 95bd
000001c0: 30e4 96bd ec93 86be d832 043d 773f adbd
000001d0: 5cb0 8dbe ede2 3dbe 385e e9bd 05ca 26be
000001e0: f9a3 6cbc 6e4a a4ba f173 ccbc 42b3 223e
000001f0: a172 db3d 455f fc3d 2224 40bd 8584 d9ba
00000200: ac7b d43b 6631 b8bd d1fc bcbd 0b87 a33d
00000210: c996 b1bd c966 61bd cecd abbd 4e89 a9bb
00000220: 6fa0 ff3c 957e 453d fcb1 9ebc a1c2 8a3d
00000230: b676 a43d 1ccc 54bd 2295 b03c 00e6 ab3a
00000240: ff84 513d 8074 fb3a 6b1d 393d 4092 3abc
00000250: 18cf 0cbc 2b0e 4c3c c831 8d3d cc2c 203d
00000260: cedd 6c3d 1fdf ff3c 38c3 7bbc 9985 efbd
00000270: 5330 483d 36b7 0dbd 4ee9 e8bd bf4f 3a3d
00000280: fcf3 44bc edf7 20bd c548 11bd 2c61 2abd
00000290: 465e 70bd 415e febc 7ff0 17bd ed05 88bd
000002a0: 6e6c 4ebd bc0a c9bc eb50 74bc 39dc 65be
000002b0: 02e7 65be 734a 25be 1791 75be 1146 10be
000002c0: a5b6 edbd 3c85 80bc 04f3 fcbc 04e6 d2bc
000002d0: 2cad 483c ddba 7c3d 8031 933d 12ec 04be
000002e0: 4226 ebbd 42c6 0b3b 0b81 53bd 540d efbd
000002f0: 290b debd b8e0 ccbc 5c34 443d aad0 733b
00000300: a197 a03d 0ffc 593d 6ddc d03b 99a3 803d
00000310: d8a9 3a3d df26 7e3b df60 4d3e 3d9d a23b
00000320: 20e2 20bc c8d7 c33d c95f c8bc 839d e5bd
00000330: 477d f43d fac2 623d 5281 edbb 8168 a73d
00000340: 7a7a c93d 0ba0 683d 7e6f 6939 9075 ac3d
00000350: ea49 c03d 2976 9cbc 7b1c 603b 2563 ba3c
00000360: d721 74bd 856f 053d 6cb9 bf3b 8495 9a3d
00000370: 424a 673d 2bc8 683c 0cb0 cc3d 8a1d b43d
00000380: ba8c 133d ce5c 8e3c 0981 cfbb f200 f93c
00000390: 7018 3a3d 20f7 0a3d d689 26bb 5d8f d23d
000003a0: 31ff 9cbc f8d5 c1bc 1aef 10be 1ac2 27be
000003b0: f8b4 10be 28a6 45bd ba45 013e f7c7 873c
000003c0: 838a 173d a9d2 593e 3f56 a53d 938a 393d
000003d0: 8647 d13b 9c36 f6bb 4607 92bd 751c abbd
000003e0: 3227 13be 3b20 6abd 247e 48bd 3c62 71bd
000003f0: 43b1 9bbe 2b12 38be 2d26 4abc 6c51 50be
0.043441877 0.09836246 0.062940724 0.09094558 0.08926718 0.11568846 -0.052557472 0.029346379
0.1787821 0.16203395 0.034637976 0.051045276 0.020281784 0.00024932149 0.006452203 -0.04790772
-0.054301277 -0.035714064 -0.12014597 -0.08190838 -0.14521928 -0.050195508 0.0029335737 -0.04397655
-0.0036322854 0.06398165 0.012196294 0.041815307 -0.0059596784 -0.010439515 -0.06662475 -0.069498405
-0.060829952 -0.032880396 -0.03201433 -0.044033214 0.036555164 0.10788439 0.18063456 -0.030369092
0.112713695 0.21355659 -0.22344017 -0.1150365 -0.019256711 0.017683808 0.00813588 0.10442639
-0.027731689 -0.07786588 -0.017003613 -0.16030712 -0.20913696 -0.08948773 -0.061746906 0.0026414865
0.06185887 0.032814387 -0.03836102 -0.10194373 0.068531826 0.03428774 0.019973654 0.058590744
0.03237608 -0.041770715 0.028509624 -0.017911604 -0.034018893 -0.15308863 -0.17951569 -0.09463786
-0.027722586 -0.044321913 -0.08694038 -0.11515355 -0.081254005 -0.070370935 -0.109974645 -0.0848278
-0.086320125 0.2540332 0.12160615 0.0748912 0.07701936 0.035440482 0.011633653 -0.004220908
-0.004263283 0.06926048 -0.06037692 -0.006641637 -0.017314583 -0.016432712 0.020526558 0.020402245
-0.008377937 -0.0032329566 -0.033537984 -0.07920719 0.020335056 0.100078315 -0.09287448 0.03452853
0.17220388 -0.23479375 -0.11430641 -0.03347791 -0.037697166 0.104887486 0.020300131 -0.07300732
-0.07367742 -0.2628473 0.03227505 -0.084593706 -0.27673614 -0.18543597 -0.11394924 -0.16288002
-0.014443391 -0.0012534389 -0.024957629 0.15888694 0.10715223 0.12322859 -0.04690946 -0.001659528
0.0064844694 -0.08993797 -0.092279084 0.07984742 -0.08671338 -0.055029664 -0.083888635 -0.0051738387
0.03120443 0.04821642 -0.019371979 0.06775404 0.08030455 -0.051952466 0.021555487 0.001311481
0.051152226 0.00191845 0.04519407 -0.011387408 -0.008594297 0.01245455 0.06894261 0.03910522
0.057828717 0.031234322 -0.015366368 -0.116954036 0.04887421 -0.03459855 -0.11372624 0.045486208
-0.012021061 -0.03929894 -0.03546979 -0.041596577 -0.058683656 -0.031050803 -0.03709459 -0.06641755
-0.050396375 -0.024541251 -0.0149118705 -0.2244729 -0.22451404 -0.16141681 -0.23981129 -0.14089228
-0.11607102 -0.015688531 -0.030877598 -0.025744446 0.012248319 0.061701644 0.07187176 -0.12980679
-0.114819065 0.0021327888 -0.051636737 -0.11672464 -0.108419724 -0.025009498 0.047901496 0.003720323
0.07841421 0.053218897 0.006373933 0.06281204 0.045572132 0.0038780493 0.20056485 0.004962592
-0.009819537 0.095626414 -0.024459736 -0.112116836 0.11937957 0.055361725 -0.007248082 0.081742294
0.09837814 0.056793254 0.00022262146 0.08420861 0.09389098 -0.019099312 0.0034196663 0.022752354
-0.059602585 0.032577056 0.0058509614 0.07548049 0.056467302 0.01420788 0.09994516 0.08794697
0.03602288 0.017378237 -0.006332521 0.030395959 0.04543346 0.033927083 -0.0025411746 0.102812506
-0.019164653 -0.023661599 -0.1415371 -0.16382638 -0.14131534 -0.048254162 0.12624255 0.016574843
0.03699733 0.21271767 0.08073091 0.04529817 0.0063867 -0.007513834 -0.071302935 -0.08355037
-0.1437042 -0.057159644 -0.048948422 -0.058931574 -0.30408677 -0.1797568 -0.012338203 -0.2034356

emb_func.layer3.0.bias f4 [64]
00000000: f3b2 feb9 a4bf e7b8 4f0f 95bb 3398 75bb
00000010: 1e44 a5bb 5082 05b9 cfe6 8abb bd99 8137
00000020: c8cc 2cbb 39d0 faba ffb8 b03b 475c a4bb
00000030: 7c23 20bb ed3b e539 7567 e6ba c3e2 0e3b
00000040: 595c b63b b78c 433b 5d0c 413b fa50 08ba
00000050: 0f8f 88ba bb56 d33a 4e08 4d3b 3462 763b
00000060: 4bea 0f3b c66b 4b3b 49c3 ab3a c76d d9b8
00000070: 4f8e 96ba 7f05 94bb 3f6e bebb 24d5 b8bb
00000080: e4c0 953b ef45 c13a b51b af3b 58ec 90bb
00000090: b513 a23b 991c bcbb 1d9b 8cba 549d 2c3b
000000a0: d96d b2bb 0c02 803b eda0 b0bb 4ae6 7d3b
000000b0: 880c 9f3b 6718 933b 6504 0939 4b82 603b
000000c0: c843 2c3b 7762 993b e932 b6bb 0e56 b8bb
000000d0: 0330 80bb a793 aa3b 6fc6 fe3a 7bdb f3b9
000000e0: a6ff b0ba 0608 7a3b 1399 863b a7fc 91bb
000000f0: a46c 6aba 7284 7b3b 8641 85bb 27ad 813b
-0.00048579983 -0.00011050634 -0.004548944 -0.003747475 -0.0050435206 -0.00012732414 -0.0042389403 1.5449588e-05
-0.0026367176 -0.0019135542 0.005393147 -0.005015883 -0.0024435213 0.00043722932 -0.001757844 0.002180264
0.005565208 0.0029838511 0.0029456832 -0.0005200055 -0.0010418611 0.001612387 0.0031285468 0.0037595155
0.0021959718 0.003103958 0.0013104464 -0.00010367814 -0.0011486503 -0.0045172567 -0.005811482 -0.0056406427
0.0045701135 0.0014745573 0.005343879 -0.0044227056 0.004946197 -0.005740714 -0.001072738 0.0026338892
-0.005445224 0.003906494 -0.0053902776 0.0038742 0.0048537888 0.004488993 0.00013066975 0.0034257348
0.0026285518 0.0046809274 -0.005560268 -0.005625493 -0.0039119734 0.00520559 0.00194378 -0.00046512097
-0.0013503924 0.0038151755 0.0041076033 -0.0044551673 -0.00089425803 0.0038378504 -0.004066649 0.003957409

emb_func.layer3.1.weight f4 [64]
00000000: b20a 703f 99e7 863f 7d1c 743f bdb5 2d3f
00000010: 4da7 7e3f 368b 443f de78 9a3f 8eaa 8d3f
00000020: 2766 4b3f 3fbe 353f bf8d 463f d558 103f
00000030: 30fc 713f 4b8f 6d3f 9681 6f3f dc57 583f
00000040: a0fa 793f 8cb8 7a3f c9cf 4f3f 8e62 6d3f
00000050: 2ecc 503f 00fc 773f 96a2 4a3f 2d39 6b3f
00000060: ece6 5f3f 27a7 8d3f e98f 403f df6d 223f
00000070: 8a02 593f 4547 733f be4f 5d3f 274f 7a3f
00000080: 5f6e 923f 5a85 6a3f 2f9e 4c3f 8f48 813f
00000090: 94cd 8e3f ee3f 543f d352 863f 9a12 543f
000000a0: 0053 1d3f 626a 8e3f cab7 963f c142 853f
000000b0: e957 013f 9dce 763f 8a34 943f 241f 7e3f
000000c0: 2af5 6c3f 3352 393f a07e 683f 1b9d 213f
000000d0: b95e 803f a800 623f bfd7 7e3f 0770 4c3f
000000e0: c814 3f3f b842 833f 72e3 3c3f 0d4a 783f
000000f0: 58bb 3c3f ac0e 4a3f 7932 823f 99d8 6e3f
0.9376632 1.0539428 0.9535597 0.67855436 0.9947403 0.7677492 1.2068136 1.1067674
0.7945275 0.7099342 0.7756004 0.56385547 0.9452543 0.9279677 0.9355711 0.8450906
0.9764805 0.97937846 0.8117643 0.9272851 0.81561553 0.96868896 0.79154336 0.9188412
0.87461734 1.1066636 0.7521959 0.634489 0.847695 0.95030624 0.864498 0.97777027
1.1439933 0.9160973 0.7992887 1.0100268 1.1156487 0.8291005 1.0494026 0.82840884
0.6145477 1.1126215 1.1774838 1.0410997 0.50524765 0.96409017 1.1578534 0.99266267
0.9256159 0.7239105 0.90818214 0.6313035 1.0028907 0.8828225 0.9954795 0.7985844
0.74641085 1.0254736 0.73784554 0.9698799 0.73723364 0.7892864 1.0171653 0.9329925

emb_func.layer3.1.bias f4 [64]
00000000: 3492 02bf 77fa 23bf 9659 63bf a4eb 2c39
00000010: ba7b 20bf ec16 25bf bfe8 5cbf e91a 43bf
00000020: 2f45 e1be da40 a2be 2e65 40bf c1df 9d3d
00000030: ea3e 23bf 9c94 dfbe 58d5 29bf d258 f8be
00000040: 3cd1 90bf c328 26bf dcad e1be 94a8 2dbf
00000050: ffac 05bf 44f0 44bf 8262 29bf b1c9 20bf
00000060: 2906 11bf 579c 51bf 717d 08bf 7e6a 32be
00000070: 5543 c6be 26d2 65bf 4c23 04bf d301 21bf
00000080: f5d2 1bbf e717 77bf d1ff 18bf ec03 25bf
00000090: b185 49bf 51b2 10bf f898 23bf 4b87 f3be
000000a0: cc80 81bc 4096 1ebf 953a a4be 5834 62bf
000000b0: 3585 3d3e 5e99 11bf e2aa 2dbf afa2 8cbe
000000c0: b487 23bf e1db 0fbf 7df8 3ebf 7bb1 0dbf
000000d0: 8855 35bf 6e52 08bf e079 4bbf 1ba9 b3be
000000e0: 11f4 ecbe 3e52 f6be 2720 c0be cf7e 47bf
000000f0: 8267 8bbe d1fd c9be 0e92 56bf e555 04bf
-0.5100434 -0.64054054 -0.8880857 0.00016490981 -0.6268879 -0.644881 -0.8629264 -0.76212937
-0.43998095 -0.31690103 -0.7515439 0.07708693 -0.63767874 -0.43668067 -0.6634116 -0.48505265
-1.1313853 -0.6490595 -0.44077957 -0.67835355 -0.52217096 -0.76929116 -0.66165936 -0.62807757
-0.56650025 -0.8187918 -0.5331641 -0.17423436 -0.38723245 -0.89773786 -0.5161636 -0.6289341
-0.6086877 -0.9652085 -0.59765345 -0.6445911 -0.7871962 -0.5652209 -0.63905287 -0.47564158
-0.015808485 -0.61948013 -0.32075945 -0.8836112 0.18507846 -0.56874645 -0.6783887 -0.27467868
-0.6387894 -0.56194884 -0.74597913 -0.5534894 -0.70833635 -0.5325078 -0.7948284 -0.35089955
-0.46279958 -0.4810962 -0.3752453 -0.7792787 -0.27227408 -0.3945146 -0.8381661 -0.51693565

emb_func.layer3.1.running_mean f4 [64]
00000000: 3f2d 2cc0 94ab 04c0 9225 89bf 225e 8cc0
00000010: a5a8 1dc0 4ec5 0bc0 8723 48c0 bfce 51c0
00000020: 0c51 0fc0 afe3 01c0 e2e1 db3f 4513 febf
00000030: 5862 edbf 9a29 81c0 d86a 17c0 3a6e 26c0
00000040: 7463 23c0 d383 6ac0 05ed 50bf ff27 39c0
00000050: 7f4e 04c0 5f6e 35c0 51bb b4bf 9298 51c0
00000060: dbab 4cc0 1d71 6cc0 1148 d6bf c74c 2abf
00000070: 9cb3 40c0 057b ecbf 20a7 f8bf 27a8 4ac0
00000080: 22a4 26c0 2fd7 cb3e 9dc2 dfbd 8f97 9abf
00000090: efbb 02c0 35ec b8bf cc56 2dc0 9cf8 11c0
000000a0: 9946 4cc0 5881 0dc0 386a 41c0 056b e0bf
000000b0: b38f abbe a504 1ac0 4da3 3ec0 31aa 7dc0
000000c0: ca06 82bf c060 24c0 3b44 52c0 71e3 b93f
000000d0: 920f 3ac0 9130 efbf ab92 25c0 8bec cabf
000000e0: 233f 89bf 5e50 24c0 7d76 9cbe 2132 07c0
000000f0: d7b3 19c0 1140 e3bf 1b38 19c0 6b26 f8bf
-2.6902616 -2.0729723 -1.071459 -4.386491 -2.4634182 -2.1839175 -3.1271684 -3.2782438
-2.2393217 -2.0295217 1.7178309 -1.984963 -1.8545637 -4.0363283 -2.3658962 -2.6004777
-2.5529451 -3.664296 -0.81611663 -2.8930662 -2.067291 -2.8348615 -1.4119664 -3.2749372
-3.1979892 -3.694404 -1.6740743 -0.665234 -3.0109625 -1.8475043 -1.9426003 -3.1665132
-2.6037679 0.3981261 -0.109257914 -1.2077502 -2.0427206 -1.4447085 -2.7084227 -2.280799
-3.191809 -2.2110195 -3.022108 -1.753266 -0.3350807 -2.4065335 -2.978717 -3.9635127
-1.0158322 -2.5684052 -3.2854145 1.4522535 -2.9072003 -1.8686696 -2.587077 -1.5853437
-1.0722393 -2.5674052 -0.3055915 -2.1124346 -2.4016016 -1.7753927 -2.3940494 -1.9386724

emb_func.layer3.1.running_var f4 [64]
00000000: 0538 8740 66ad ba40 b94b 4d40 a901 b140
00000010: 32d8 b440 24ab 5440 7935 a340 70a7 0e41
00000020: c988 7840 4633 7340 7308 0840 de6f 3c40
00000030: b7ea 8a40 2262 a340 84fd 9840 ccee 8140
00000040: 1f1e 7840 0e0b 9240 0c06 5540 7e8e 6540
00000050: d604 2c40 d3d2 8340 9102 0440 de78 5240
00000060: 7add a840 c791 8940 61fb 2f40 dace 5d40
00000070: 0e43 8340 2443 4940 dedc 5340 3102 d740
00000080: dfec df40 fc87 0c40 417c 6f40 165b 9240
00000090: e53b a040 29ff 8d40 2d22 d940 321a 9140
000000a0: 031b 3740 4dd5 e740 df0e 2041 d851 6e40
000000b0: 62b8 2a40 3fcd 6140 8e04 be40 eb23 fe40
000000c0: fc07 6d40 cf70 3640 cdf4 5b40 1997 0740
000000d0: a089 d340 4cf6 5740 56a7 bb40 5728 8a40
000000e0: 124e fe3f 66f8 8b40 aa8c 4940 999e b040
000000f0: 068b 6040 1647 2a40 5042 8b40 a07a 8540
4.2255883 5.833667 3.2077467 5.5314527 5.651391 3.3229456 5.1002774 8.915878
3.8833487 3.8000045 2.1255157 2.9443278 4.3411517 5.105729 4.7809467 4.0604
3.8768384 4.5638494 3.328494 3.586822 2.6877952 4.1194854 2.0626566 3.2886271
5.2770357 4.299045 2.749718 3.4657502 4.1019354 3.144723 3.3103557 6.7190175
6.997665 2.1957998 3.7419589 4.573619 5.0073113 4.4373975 6.785422 4.5344477
2.8610237 7.2447877 10.003631 3.7237453 2.6675038 3.5281522 5.938056 7.9418845
3.7036123 2.8506353 3.4368165 2.1185973 6.61055 3.3744078 5.8641768 4.3174243
1.9867575 4.374072 3.1492105 5.51936 3.5084853 2.6605887 4.351845 4.171219

emb_func.layer4.0.weight f4 [64, 64, 3, 3]
00000000: 7dde fb3c 1bda 0cbe 2a37 7e3e aadf 40be
00000010: 1fe2 dfbd 7dbb d33d 46e3 8fbd 93ed 373d
00000020: 16cd 963c c509 61be 2686 ae3d 67af 9e3e
00000030: 4f2f 6dbe e1ff 8fbb 77fe f83c 5042 b2be
00000040: c743 9bbd f61a a7bb 4ebf 813e ecb8 403e
00000050: c6d7 083f 4ad9 2fbd 8adc a93d 90e8 e43d
00000060: e325 c0bd 8bb8 93bc 1879 9bbd 3388 623d
00000070: 73e0 e9bd 82f5 04be d73c c03d 6885 1d3e
00000080: 23d9 103e c8c4 1d3e 536f 1c3e e581 d03c
00000090: 53cd 9ebd b658 1dbe 7959 e5bd bc76 183e
000000a0: 5cbd b63d 3fb4 b13d f5f3 b53d a8fe e83d
000000b0: c125 2e3d 9b65 56be 4717 bfbd 2e25 01be
000000c0: 0227 a0be b13c 36be 2319 a2be 5323 e6bd
000000d0: 82a3 593c 5a8f 2bbe 4871 993d b5aa 80bd
000000e0: f8ce 2d3b 5774 70bc 232b d5bd ea19 44bd
000000f0: 94ef 41be 26b5 3abe f565 f3bd a36a 123d
00000100: cdd5 1a3d 685d c9bb 0d21 d7bc 65d1 963d
00000110: 20fc 773c a76f a13c 4688 f13c 04b5 163c
00000120: 7dbc 143e 0aab 4cbd cf86 f63c e198 05be
00000130: a950 bbbd d552 35bd b14a 37be 853f 67be
00000140: 5962 40be 5fd0 c5bd bc9c d93c 0100 bb3c
00000150: bd74 38bd 28a4 303e 0c7e 3ebe 4063 9d3d
00000160: 003a 2c3e f2c3 cc3d abe7 17bd 4c1d 60bd
00000170: a711 793c 2404 01bd 9e60 453d ac5b b73d
00000180: 8fb6 123e 79b0 8f3d 052d 6e3d e3f3 70be
00000190: 714d 263d f5f5 3ebe 71a7 06bc 20ae 3c3e
000001a0: c9d5 853d f335 703e 81ad 2a3c 4c15 303e
000001b0: e366 363d abd0 09bd 05c0 84bd 1f86 50be
000001c0: 38c2 afbd 170f 9cbe fb7d 11bd 8b64 28bc
000001d0: a570 9a3d caae 953c 6286 29be bc84 3ebe
000001e0: f6c0 c73d 4f7e b23d f886 2d3e c35b 50bd
000001f0: 4650 cfbd 2391 e9bd 6e7a 6c3e 5498 363d
00000200: 070a 5abd ce7f a7bd 6662 0bbe a4dd 34be
00000210: 852c e2bc 4033 49bd 2664 49be e572 19bd
00000220: 6b67 e3bd 95de 34be 4bac 77bd a2e7 543c
00000230: b5cb adbc 77e0 eb3d 89ed 593d c924 923d
00000240: a152 e23d b704 05be 9253 923d e425 cfbd
00000250: bf02 59bd b75e 00bd c1cc 51be 818c 063d
00000260: d300 c9bd 00d1 323e af29 693d 20e7 813e
00000270: 0666 1c3b b9d3 873c 9cef 82bd 9b42 d1bd
00000280: 5bb1 87bd 3f08 bcbd 24c7 13be 3bb1 d23b
00000290: a185 23bd d078 3cbe 24a8 3fbe 3e69 d8bd
000002a0: 31d6 bbbd abae 54be 654d 5b3d 0985 afbc
000002b0: 3935 963d 1161 693d 27d0 fdbd d6c5 acbd
000002c0: f141 debc 671e 05be 33d5 95bd 569b 03be
000002d0: b6cb 803d f5b0 873c 8e04 e4ba 321a f5bd
000002e0: 4751 723d 4643 813d c16d c0bd 0627 af3d
000002f0: ed57 febd d32b 8d3e 7ae4 0fbd 6ec1 1c3e
00000300: b04b 583d 727f a33c 0fdc a73c af66 92bd
00000310: 4ec6 bc3d 11b3 aa3c 17a2 843e 09c4 b7bd
00000320: 2cb5 c33d 392f 673e d9ed 5dbd b9eb 213e
00000330: fe5e cfbb a44c 803d fe66 d7ba a477 6b3e
00000340: 441c e0bd 38f0 8a3c 1641 923d 252b 9ebd
00000350: 58a0 23bd b719 d2bc 3c4a 18bd ad3a 36bd
00000360: 0184 1fbd aea5 84be 05da d7bd 3784 863b
00000370: ecc1 9f3d e52b 1e3e b457 a4bc 8c7d 883e
00000380: 6c2f 4f3e 757f 5bbc c2a8 08bd 743d f2bc
00000390: c4ac 08bc 254f 663e 98d3 1d3d ee9f 53be
000003a0: 5312 cdbd 6959 84be 1ba7 49be b518 fcbd
000003b0: 0b30 143c d4b6 9e3c 48ec 5e3e c9f3 793d
000003c0: 1007 abbc 3a65 9b3d 7df9 1b3d 03b7 483e
000003d0: 90d3 803e eedb 753e f9af ae3e 7381 f43d
000003e0: c72a 583e 7ebc 4d3d f1a4 263e 38d3 b03d
000003f0: 0005 e8bc d098 f1bd ce56 c8bd 22bb 16be
0.03074574 -0.13755076 0.24825731 -0.18835321 -0.10931801 0.10338495 -0.07025771 0.044904303
0.01840834 -0.21976383 0.085216805 0.30993196 -0.23162578 -0.004394517 0.030394776 -0.34816217
-0.07581287 -0.0050996495 0.25341266 0.18820542 0.53454244 -0.042931832 0.082940176 0.1117717
-0.09382226 -0.018032333 -0.07591456 0.05530567 -0.114197634 -0.12984279 0.09386604 0.15382922
0.14145331 0.15407097 0.15276842 0.025452564 -0.07754006 -0.15365872 -0.11198706 0.14889044
0.08922836 0.08676957 0.08884422 0.11376697 0.042516474 -0.20937197 -0.09330612 -0.12611839
-0.3127976 -0.1779659 -0.31659803 -0.11237206 0.013283612 -0.16753903 0.0749231 -0.0628256
0.0026521068 -0.014676175 -0.10408618 -0.047876276 -0.18939048 -0.18233165 -0.11884681 0.035746228
0.037801553 -0.006145168 -0.026260877 0.073641576 0.015135795 0.01970656 0.029483926 0.009198431
0.14525028 -0.049967803 0.030093579 -0.130466 -0.09146244 -0.044268448 -0.17899586 -0.22582825
-0.18787517 -0.09658884 0.026563995 0.02282715 -0.045033205 0.1725012 -0.1860277 0.07684946
0.16819 0.09998311 -0.03708617 -0.05471544 0.015201963 -0.03149809 0.048187844 0.08953032
0.14327453 0.07016081 0.058148403 -0.23530535 0.040601198 -0.18648513 -0.008218632 0.18425798
0.06534917 0.2345808 0.010417343 0.17195624 0.044531714 -0.033646267 -0.06481937 -0.20363663
-0.08581966 -0.30480263 -0.035520535 -0.010277878 0.075410165 0.018271822 -0.16555169 -0.18605322
0.09753601 0.08715498 0.16946018 -0.05086876 -0.10122733 -0.11404636 0.23093578 0.044578865
-0.05323222 -0.08178674 -0.13611755 -0.17662674 -0.02760912 -0.04912114 -0.1966711 -0.037463088
-0.1110371 -0.17663033 -0.060467046 0.012994679 -0.0212153 0.11517423 0.053205047 0.071359225
0.110509165 -0.1299008 0.07144846 -0.10114649 -0.052981135 -0.031340327 -0.20488264 0.03284884
-0.0981461 0.1746254 0.05692452 0.25371647 0.0023864522 0.01658045 -0.06393358 -0.10217782
-0.06625625 -0.0918126 -0.14431435 0.006429819 -0.03992236 -0.18405461 -0.18716484 -0.10566948
-0.09171713 -0.20769756 0.053540606 -0.02142574 0.0733437 0.056977335 -0.123932175 -0.08436172
-0.027131053 -0.12999879 -0.07316055 -0.12852225 0.06288855 0.016563872 -0.0017396377 -0.11967887
0.059159543 0.063116595 -0.09395934 0.08552365 -0.12419114 0.27572498 -0.03513 0.15308163
0.052806556 0.019958232 0.020490674 -0.071484916 0.09217511 0.020837339 0.25904915 -0.089729376
0.0955604 0.22576608 -0.054181907 0.15812577 -0.0063284626 0.06264618 -0.0016433892 0.22994858
-0.10942891 0.016960248 0.071413204 -0.07723073 -0.039947838 -0.025647027 -0.03718017 -0.04448955
-0.038944248 -0.25907654 -0.10539631 0.0041051167 0.078006595 0.15446432 -0.020061351 0.26658285
0.20232934 -0.013397087 -0.033364065 -0.029570319 -0.008341972 0.22491129 0.03853187 -0.20666477
-0.10013261 -0.25849465 -0.19692652 -0.123094 0.009044657 0.019374289 0.21769822 0.061023507
-0.020877391 0.07587667 0.038079727 0.19601063 0.2516141 0.24009678 0.3411863 0.11938753
0.21110068 0.05022859 0.16273858 0.08634037 -0.028322697 -0.11796725 -0.09782182 -0.14719823

emb_func.layer4.0.bias f4 [64]
00000000: fb3d a83b 835f 273a 5bb4 913a 289f 70bb
00000010: bdf2 a0bb a6c3 b9bb 9298 f03a 68a4 09bb
00000020: 6f69 86bb a239 4ebb 802e 2a3b 7469 5c3b
00000030: 2302 40bb b71a 50bb e6a4 6ebb d933 3bba
00000040: 4f11 b63b e684 66bb 8bf4 7639 bd00 81bb
00000050: dbdb 583b 951d 23bb 8d0d 8cbb 0c9c 7b3a
00000060: 3925 09ba 1c78 a83b 570c 2b3b aed1 70bb
00000070: ce85 763b ff4e bc3b af58 28bb d3cc f1ba
00000080: 1989 373b 3d14 783a e043 0b37 f1ea 433b
00000090: 6d58 cdba 880a 453b 449f 9a3a 07d1 42bb
000000a0: faaa 8a3b c6be 4f3a e290 2ebb a88d 363b
000000b0: 42de 313b 3357 613b 8b7c f73a 9cc1 babb
000000c0: 53c0 4a3b ad15 283b 954b b7bb ac60 f7ba
000000d0: b849 abbb 5692 15bb 629a 443a e24b b6bb
000000e0: cec4 1f3b e831 8abb 058d 083b f0d6 d33a
000000f0: a16e babb a075 8f3b ca75 2bbb b5cc a03b
0.005134342 0.0006384777 0.0011116372 -0.0036715958 -0.004911749 -0.005669075 0.0018356016 -0.0021002535
-0.004101924 -0.0031467457 0.0025967658 0.003363219 -0.0029298149 -0.0031754205 -0.0036414205 -0.000714121
0.0055562626 -0.0035174428 0.00023551488 -0.0039368556 0.0033090028 -0.0024889458 -0.0042740763 0.0009598143
-0.0005231682 0.0051412713 0.0026099884 -0.0036746073 0.0037616375 0.0057467218 -0.0025687625 -0.0018447883
0.00280053 0.0009463465 8.300849e-06 0.0029894675 -0.0015666612 0.0030066092 0.0011796732 -0.002972664
0.004231808 0.0007924851 -0.002663665 0.002785543 0.0027140533 0.003438425 0.0018881721 -0.0056993496
0.0030937388 0.0025647685 -0.005593727 -0.0018873415 -0.005227294 -0.0022822819 0.00074998115 -0.005563245
0.002437878 -0.004217375 0.0020836007 0.0016162079 -0.0056894575 0.0043780357 -0.0026162737 0.0049072155
