results/SKDModel-dataset-Conv64F-5-5-Jan-08-2024-18-47-36/checkpoints/emb_func_00010.pth (torch, 463459 bytes, 24 tensors)

layer1.0.weight f4 [64, 3, 3, 3]
0.12995337 -0.25902215 -0.47589555 0.29850215 -0.15698694 -0.49081495 0.66209424 0.5139597
-0.23396908 -0.08612495 -0.07510953 -0.22982177 0.30252707 0.07729572 -0.3122579 0.2568487
0.32351354 0.12814374 0.121510945 -0.14031138 0.014088357 -0.1197833 0.088456705 -0.26345056
0.38783383 0.07031866 -0.19771971 0.06638564 0.15714277 -0.013705231 0.08461836 -0.09294709
-0.0016495493 0.100262366 0.00035836434 -0.0010486519 0.22864261 0.15928423 0.13402289 0.114560165
0.17743301 0.2684188 0.12984198 0.082799055 0.13455717 -0.10886202 0.0060244454 -0.10261641
-0.10389835 0.17228672 0.0062024454 0.07086283 -0.049590975 0.08118241 0.08973464 0.20346768
-0.0004163299 0.10327277 0.16075915 0.20978162 -0.05862685 0.089758895 0.10883349 -0.0195091
-0.12919159 -0.1394153 0.028483598 -0.056003995 -0.22777541 -0.040855266 -0.17558317 -0.068547696
-0.04412981 -0.23567763 -0.052217133 -0.34342512 -0.32668334 -0.36518165 0.042813968 -0.3764382
-0.078353696 0.20584947 0.1595046 0.14348562 0.11008949 0.1689971 0.10570815 0.09915135
0.08491269 -0.14186908 -0.020564213 -0.16485623 -0.25897315 -0.09883797 -0.083528444 -0.18522558
-0.009134254 -0.27840957 0.1217967 -0.23228715 -0.111518376 -0.20001036 -0.085330874 -0.42289725
-0.12401255 -0.103096835 -0.109623335 0.03397494 0.6025063 0.43435758 0.4662128 0.32962096
0.20645694 0.50623035 0.22124039 0.45181948 0.47976068 -0.027574427 0.15313189 0.06807885
0.15562241 0.015337648 0.057987217 0.12841581 0.097988114 -0.044739522 -0.026347935 -0.052394304
-0.1726077 -0.26405883 -0.2935185 -0.08820162 -0.108694814 -0.12672345 -0.33699614 -0.26647353
-0.6291016 -0.6697668 -0.25698695 -0.5811668 -0.4491646 0.15948987 -0.25319457 0.03723973
0.14008811 0.1391577 -0.23081663 0.009229025 -0.23991753 -0.09531262 0.28280208 -0.12353012
0.13898532 0.13122404 0.14378385 0.18713224 0.14780931 0.17386961 0.31734514 0.39380524
0.33319154 0.17583792 0.03630347 -0.2519372 0.17337528 -0.3799225 -0.2892035 -0.26831308
-0.17364536 0.056638055 -0.17505935 -0.37579668 -0.4237284 -0.16090834 -0.09944142 -0.027374532
-0.22268182 -0.4454334 0.017052116 -0.19900534 0.21731876 0.23911391 0.21261217 0.15697417
0.32956555 0.11619539 0.014701032 0.19183645 0.107448325 0.07799756 0.07256558 -0.092893906
0.10028682 0.26371375 0.038967744 0.035087667 0.0863629 0.07754678 -0.12380011 -0.1325649
-0.11776459 -0.2485497 -0.22562306 -0.14849354 0.02011237 -0.1525056 -0.13166255 0.14347
0.025124557 0.21301326 0.07867303 -0.020973237 0.124412216 0.12399319 0.0030754397 0.016276317
-0.20987897 -0.05460267 0.11976857 -0.7260985 -0.5902763 -0.08934101 -0.5063643 -0.58079255
-0.35645536 0.07317882 0.12871768 0.15614724 0.060308363 0.120961055 0.0038396071 -0.2862106
-0.06841039 -0.16410144 0.010114383 -0.17539768 -0.04753412 -0.15546294 -0.026586441 -0.035103325
-0.18303372 -0.15248218 0.034705848 -0.25151566 0.06292937 -0.1092086 -0.18517514 0.020694258
0.20863512 0.23173632 0.09810458 0.03404337 -0.36532384 -0.042237576 0.046795774 -0.30793777
00000000: 7f12 053e 8d9e 84be 95a8 f3be 46d5 983e
00000010: 2fc1 20be 194c fbbe 027f 293f dd92 033f
00000020: 9795 6fbe 4762 b0bd 06d3 99bd 6656 6bbe
00000030: d4e4 9a3e 384d 9e3d 44e0 9fbe ac81 833e
00000040: 91a3 a53e 1d38 033e bbda f83d c9ad 0fbe
00000050: dad2 663c f250 f5bd ca28 b53d fee2 86be
00000060: 2892 c63e 3b03 903d 0977 4abe 32f5 873d
00000070: 09ea 203e e88b 60bc 644c ad3d 0b5b bebd
00000080: b135 d8ba 5b56 cd3d d9e2 bb39 eb72 89ba
00000090: 4a21 6a3e 681b 233e 4c3d 093e 859e ea3d
000000a0: 00b1 353e 306e 893e 4cf5 043e 8d92 a93d
000000b0: 5bc9 093e 0df3 debd b668 c53b 8d28 d2bd
000000c0: a8c8 d4bd ee6b 303e e23d cb3b 8820 913d
000000d0: e81f 4bbd f742 a63d ccc6 b73d d559 503e
000000e0: da46 dab9 ad80 d33d 0c9e 243e fed0 563e
000000f0: b522 70bd 83d3 b73d 18e4 de3d 8cd1 9fbc
00000100: cd4a 04be e2c2 0ebe 6f56 e93c 7264 65bd
00000110: f53d 69be da57 27bd 13cc 33be bc62 8cbd
00000120: 76c1 34bd 7a55 71be a2e1 55bd 6bd5 afbe
00000130: 0a43 a7be 17f9 babe b35d 2f3d 82bc c0be
00000140: e777 a0bd 34ca 523e 2d55 233e e5ed 123e
00000150: 9976 e13d 930d 2d3e 847d d83d dd0f cb3d
00000160: b4e6 ad3d 2146 11be 4876 a8bc 12d0 28be
00000170: 2198 84be 906b cabd f610 abbd c6ab 3dbe
00000180: d7a7 15bc b38b 8ebe 8c70 f93d afdc 6dbe
00000190: bf63 e4bd 84cf 4cbe f4c1 aebd fd85 d8be
000001a0: 4bfa fdbd 6f24 d3bd 3382 e0bd 4f29 0b3d
000001b0: da3d 1a3f 1e64 de3e 72b3 ee3e 14c4 a83e
000001c0: 7369 533e 5098 013f d78c 623e e254 e73e
000001d0: 31a3 f53e c4e3 e1bc 9bce 1c3e ed6c 8b3d
000001e0: 7b5b 1f3e c24a 7b3c 0184 6d3d 6f7f 033e
000001f0: fead c83d ca40 37bd a0d7 d7bc 699b 56bd
00000200: 13c0 30be b832 87be 0f48 96be 0da3 b4bd
00000210: 639b debd cbc3 01be c28a acbe 386f 88be
00000220: cd0c 21bf d675 2bbf cb93 83be 59c7 14bf
00000230: e7f8 e5be 5051 233e b8a2 81be b088 183d
00000240: 4273 0f3e 5b7f 0e3e 325b 6cbe 5635 173c
00000250: f1ac 75be 4333 c3bd 6fcb 903e 5cfd fcbd
00000260: 2b52 0e3e 985f 063e 133c 133e 989f 3f3e
00000270: 535b 173e e00a 323e 107b a23e d7a0 c93e
00000280: 1598 aa3e db0e 343e f3b2 143d eafd 80be
00000290: 4a89 313e 3485 c2be 7b12 94be 5560 89be
000002a0: 17d0 31be 4efd 673d c242 33be 6c68 c0be
000002b0: eef2 d8be 28c5 24be f1a7 cbbd 8e40 e0bc
000002c0: b406 64be d90f e4be e1b0 8b3c 0ec8 4bbe
000002d0: cf88 5e3e 47da 743e 01b7 593e d6bd 203e
000002e0: d1bc a83e d9f7 ed3d 99dc 703c c670 443e
000002f0: de0d dc3d 2fbd 9f3d 439d 943d 293f bebd
00000300: 2d63 cd3d 7d05 873e a49c 1f3d 16b8 0f3d
00000310: 08df b03d d9d0 9e3d e98a fdbd 18bf 07be
00000320: 902e f1bd d083 7ebe bb09 67be b10e 18be
00000330: b2c2 a43c 6e2a 1cbe 8cd2 06be cde9 123e
00000340: 04d2 cd3c 2620 5a3e 531f a13d 11d0 abbc
00000350: d5cb fe3d 24f0 fd3d 518d 493b e955 853c
00000360: 83ea 56be 0da7 5fbd 3949 f53d 97e1 39bf
00000370: 591c 17bf 6bf8 b6bd 17a1 01bf d2ae 14bf
00000380: 5181 b6be c7de 953d 91ce 033e 10e5 1f3e
00000390: e705 773d 6eba f73d eba1 7b3b 328a 92be
000003a0: bf1a 8cbd 350a 28be ccb6 253c 739b 33be
000003b0: 23b3 42bd ad31 1fbe cfcb d9bc 81c8 0fbd
000003c0: 316d 3bbe 4a24 1cbe b827 0e3d a9c6 80be
000003d0: 1de1 803d c2a8 dfbd 8d9e 3dbe 0187 a93c
000003e0: 72a4 553e 494c 6d3e 0eeb c83d 1071 0b3d
000003f0: ba0b bbbe 4f01 2dbd edac 3f3d 05aa 9dbe

layer1.0.bias f4 [64]
-0.08605001 0.20474154 0.07480282 -0.23824677 -0.078648984 -0.09400296 -0.14685795 -0.077338286
0.074870676 -0.15930714 0.19632947 -0.078532286 -0.19380836 -0.03318039 -0.045742024 -0.13115068
0.058292944 -0.04216272 0.002676909 -0.12750413 -0.26080686 0.18193297 -0.11376789 0.29712495
0.115218796 -0.07648827 0.008326374 -0.16917491 -0.16952807 -0.18153928 -0.1473155 -0.068230875
-0.02917162 0.057308793 0.049786314 -0.05263147 -0.25116262 -0.31345665 -0.21284404 -0.07045011
-0.04287524 0.06092854 -0.06635476 -0.07002081 -0.057748675 -0.12038111 -0.0033503536 0.0066599734
0.0107826125 -0.09342838 0.078401625 0.21548387 0.09340257 0.14323324 0.06812239 0.03988054
0.028096434 0.060993385 0.04359002 -0.18043628 0.1066969 -0.20926908 -0.122815065 0.24132183
00000000: fd3a b0bd c4a7 513e 3932 993d f6f6 73be
00000010: b812 a1bd a084 c0bd ee61 16be 8963 9ebd
00000020: cc55 993d 6921 23be 980a 493e 89d5 a0bd
00000030: b375 46be 29e8 07bd fd5b 3bbd 5d4c 06be
00000040: 95c4 6e3d d1b2 2cbd 156f 2f3b 7190 02be
00000050: 7a88 85be a34c 3a3e 24ff e8bd c320 983e
00000060: d5f7 eb3d e2a5 9cbd 586b 083c 303c 2dbe
00000070: c498 2dbe 6fe5 39be e0d9 16be a1bc 8bbd
00000080: 52f9 eebc a0bc 6a3d bcec 4b3d 1994 57bd
00000090: 6398 80be 647d a0be caf3 59be 2648 90bd
000000a0: f39d 2fbd 3490 793d 01e5 87bd 1267 8fbd
000000b0: e089 6cbd 5f8a f6bd 9b91 5bbb e83b da3b
000000c0: 8ea9 303c 6157 bfbd 0891 a03d cea7 5c3e
000000d0: d949 bf3d bcab 123e c083 8b3d c759 233d
000000e0: 7e2a e63c 33d4 793d 738b 323d 4ac4 38be
000000f0: e883 da3d a24a 56be 7786 fbbd 121d 773e

layer1.1.weight f4 [64]
2.0381005 0.7584678 0.8714093 0.8478245 0.77327305 0.93726665 0.80088633 1.1204393
0.8787862 0.82554716 1.0046225 0.9638093 0.8816295 0.72473115 0.55850047 0.7498207
0.84414643 0.8813674 0.7147771 0.83787686 0.91992015 0.84299284 0.7938645 1.2545968
0.6448751 0.82750505 1.1328061 1.5409311 0.6664774 0.87404686 0.5271902 0.845028
1.2497412 0.796641 0.53556114 1.1609833 1.0554305 1.068638 0.86840844 0.9175495
0.5829848 1.2145993 0.91751176 1.0375493 0.8069708 0.9508898 0.96360135 0.9014166
0.61928725 0.986144 0.65970886 0.8843834 0.6141118 0.91385925 0.6830703 0.8826483
2.7773135 0.7570797 1.0489128 0.70782125 1.0339419 0.9416147 0.94233656 1.0341322
00000000: 3d70 0240 f22a 423f ae14 5f3f 070b 593f
00000010: 39f5 453f b5f0 6f3f e306 4d3f 8e6a 8f3f
00000020: 22f8 603f 0f57 533f 7897 803f 35bc 763f
00000030: 79b2 613f fb87 393f e3f9 0e3f 40f4 3f3f
00000040: fb19 583f 4ba1 613f a2fb 363f 197f 563f
00000050: e37f 6b3f 61ce 573f b43a 4b3f a196 a03f
00000060: 8916 253f 5fd7 533f caff 903f 3b3d c53f
00000070: 439e 2a3f 89c1 5f3f f0f5 063f c153 583f
00000080: 85f7 9f3f aaf0 4b3f 891a 093f 1a9b 943f
00000090: 5918 873f 21c9 883f 0450 5e3f 86e4 6a3f
000000a0: 7e3e 153f fd77 9b3f 0de2 6a3f 6ace 843f
000000b0: a395 4e3f 846d 733f 94ae 763f 3dc3 663f
000000c0: 9c89 1e3f ef73 7c3f aee2 283f f366 623f
000000d0: 6e36 1d3f aef2 693f b2dd 2e3f 3df5 613f
000000e0: 81bf 3140 facf 413f c642 863f c633 353f
000000f0: 3558 843f a90d 713f f83c 713f 725e 843f

layer1.1.bias f4 [64]
0.12414401 -0.38868016 -0.22223863 -0.14511456 0.7015733 -0.39505732 -0.17016922 0.14547557
0.09788833 0.023644619 0.00736081 0.27412394 -0.22625613 -0.08576805 -0.06828665 -0.23836477
0.29126486 -0.41515568 0.9142606 -0.26156124 0.397821 -0.28629845 -0.393693 0.6581205
0.14984207 -0.6070149 -0.28850266 0.36627495 0.29025766 0.8573325 -0.018045964 -0.45584223
0.4293559 0.18531014 -0.44969293 0.12677851 0.26258913 0.08048503 -0.17230551 -0.19522874
0.66943747 0.46167198 -0.113395326 0.074202895 -0.19902289 0.4991178 -0.36029807 -0.035875257
0.115065254 0.029352427 -0.3249604 -0.08167039 -0.14332625 -0.35275072 0.07480654 -0.25380537
-0.0423993 -0.22184335 -0.22978503 -0.33356917 0.19984609 -0.09845711 0.82437277 0.031045485
00000000: 373f fe3d 1601 c7be 8692 63be e998 14be
00000010: 4f9a 333f f444 cabe d740 2ebe 8cf7 143e
00000020: ad79 c83d 5cb2 c13c f332 f13b f959 8c3e
00000030: b0af 67be 29a7 afbd dfd9 8bbd e515 74be
00000040: ab20 953e 498f d4be fc0c 6a3f 5beb 85be
00000050: 32af cb3e b695 92be 2192 c9be 967a 283f
00000060: 3370 193e 5465 1bbf 9fb6 93be 6488 bb3e
00000070: a79c 943e 257a 5b3f 21d5 93bc 2764 e9be
00000080: 89d4 db3e f1c1 3d3e 273e e6be 3ad2 013e
00000090: 1572 863e 56d5 a43d db70 30be 0bea 47be
000000a0: 4160 2b3f 4560 ec3e cf3b e8bd b0f7 973d
000000b0: a8cc 4bbe 5e8c ff3e fd78 b8be eff1 12bd
000000c0: 55a7 eb3d 8074 f03c 3661 a6be ce42 a7bd
000000d0: 1ec4 12be be9b b4be 2c34 993d c7f2 81be
000000e0: e3aa 2dbd e72a 63be c44c 6bbe 94c9 aabe
000000f0: 74a4 4c3e e2a3 c9bd 180a 533f 1a53 fe3c

layer1.1.running_mean f4 [64]
-0.081054635 0.37799996 0.14601682 -0.14675103 0.85090125 -0.7382385 -0.5157292 0.07694033
-0.80564016 -0.18172443 -0.24761216 -0.10273182 -0.6051358 -0.10806401 0.24828643 -0.2027368
-0.13025498 -0.027655298 0.9231174 -0.011192625 -0.16536698 0.50442314 0.11995091 0.32806823
-0.064216904 -0.53511816 -0.40073702 -0.3616568 -0.57140404 0.2926267 0.24281596 -0.30497628
0.06449566 0.22138621 0.4037959 -0.3807554 -0.36478987 -0.19925728 -0.6543134 -0.08158987
0.047666337 -0.8643226 -0.2949528 0.024156572 0.39826775 0.07576959 -0.2117747 -0.0030971062
-0.3789891 0.04488445 0.16407308 0.24765745 -0.14519584 -0.2529316 1.0550117 -0.21847849
0.03636535 -0.058393415 -0.056864604 -0.31082478 0.056013968 -0.17504066 0.1468153 0.36749297
00000000: f9ff a5bd 3689 c13e 6f85 153e e745 16be
00000010: aad4 593f 33fd 3cbf d406 04bf e492 9d3d
00000020: 6f3e 4ebf f815 3abe 0b8e 7dbe 0f65 d2bd
00000030: 2eea 1abf aa50 ddbd cc3e 7e3e 3c9a 4fbe
00000040: 9061 05be 5d8d e2bc 6c51 6c3f 4661 37bc
00000050: f655 29be e021 013f d3a8 f53d 8ff8 a73e
00000060: 2784 83bd 81fd 08bf 672d cdbe 152b b9be
00000070: 8947 12bf 2bd3 953e bfa4 783e da25 9cbe
00000080: 4d16 843d 11b3 623e 56be ce3e 5ff2 c2be
00000090: bdc5 babe 1a0a 4cbe 1581 27bf 9718 a7bd
000000a0: c73d 433d 3f44 5dbf 0e04 97be 01e4 c53c
000000b0: c0e9 cb3e 162d 9b3d 78db 58be d2f8 4abb
000000c0: dc0a c2be c2d8 373d c602 283e ea99 7d3e
000000d0: 38ae 14be 4080 81be a00a 873f d3b8 5fbe
000000e0: d5f3 143d ef2d 6fbd dcea 68bd 6d24 9fbe
000000f0: e76e 653d dc3d 33be c056 163e 0a28 bc3e

layer1.1.running_var f4 [64]
1.307944 2.9464436 3.517659 2.615241 9.59577 3.38296 3.6031494 0.08975829
14.027233 0.7887011 2.2610135 0.6551648 1.5398394 1.3611165 5.6346874 1.371837
2.5632071 1.5770695 9.137022 0.15319386 0.087988555 2.4482682 2.9457338 1.3160094
0.28243402 1.5818261 1.3968613 2.6205444 8.43944 2.3261223 4.937364 0.41771817
0.3110183 0.19793823 3.7343502 2.3944333 1.5713521 0.2540763 1.5049679 1.3510013
1.343785 5.0249166 0.94101304 0.12916428 3.6088672 0.9082315 0.399949 1.0445256
2.7311163 0.6714557 2.6961765 1.620843 3.5428646 0.84027654 12.204205 0.86383474
2.8007956 2.7278297 0.84906906 1.2094376 0.55156744 0.1816069 1.2557795 0.9098547
00000000: b66a a73f 8892 3c40 5321 6140 1c60 2740
00000010: 4688 1941 6b82 5840 009a 6640 32d3 b73d
00000020: 8c6f 6041 51e8 493f 72b4 1040 e1b8 273f
00000030: 7519 c53f 1139 ae3f 5c4f b440 5b98 af3f
00000040: 960b 2440 6add c93f 3e31 1241 dade 1c3e
00000050: 5833 b43d 6db0 1c40 e786 3c40 ff72 a83f
00000060: 319b 903e 4779 ca3f 5acc b23f 00b7 2740
00000070: f207 0741 30df 1440 e3fe 9d40 28df d53e
00000080: ca3d 9f3e 52b0 4a3e 98ff 6e40 653e 1940
00000090: 1122 c93f 4a16 823e caa2 c03f 9ced ac3f
000000a0: 2601 ac3f 1ecc a040 3be6 703f a443 043e
000000b0: aef7 6640 dc81 683f 1ec6 cc3e 04b3 853f
000000c0: 9cca 2e40 85e4 2b3f 288e 2c40 c977 cf3f
000000d0: 4bbe 6240 5d1c 573f 6c44 4341 4624 5d3f
000000e0: 3c40 3340 c394 2e40 975c 593f dace 9a3f
000000f0: 8633 0d3f 29f7 393e 62bd a03f 3dec 683f

layer2.0.weight f4 [64, 64, 3, 3]
0.00032377924 0.023268487 0.09347814 0.036639515 0.07881726 0.11747679 0.22733963 0.18244784
0.23193662 -0.13041578 -0.030988302 -0.015501427 -0.0812872 -0.057754647 -0.04577667 -0.1248981
-0.07287573 -0.07337983 -0.052772038 -0.08233758 -0.052214436 -0.13647613 -0.14695825 -0.111999
-0.15865287 -0.18228917 -0.112419166 -0.046607938 -0.057156865 -0.038823564 -0.119941175 -0.12739299
-0.07932217 -0.14471333 -0.128889 -0.06529562 0.031311873 -0.0049377363 0.040707473 -0.042783916
-0.028008688 -0.013897571 -0.056203693 0.0071363216 -0.0061517376 0.17624423 0.28028387 0.3576812
0.24696964 0.27251223 0.28878462 0.17769544 0.2979028 0.27336106 0.084411174 0.054499213
0.107738845 0.10126091 0.13746238 0.10614113 0.103729986 0.08361928 0.16221263 0.077152774
0.09064649 0.04623825 0.029392328 0.04339277 0.07771984 0.101493225 0.056238055 0.070108674
0.022733703 0.019778142 0.11590497 0.12751967 0.109114975 0.20202576 0.16179037 0.15337677
0.2727961 0.075371556 0.027770843 0.0751285 0.07214418 0.06716655 0.034554888 0.04137288
0.0703322 0.089864746 0.06490457 0.16732733 0.1199868 0.10894346 0.28879634 0.22735742
0.06832863 0.16107383 0.15361783 0.08367718 0.11567948 0.17625919 0.0703928 0.13977072
0.177287 -0.0046765404 0.037855238 0.11466502 -0.088449456 -0.10327973 -0.09572239 -0.10770827
-0.12641212 -0.13188079 -0.11618007 -0.12614822 -0.05740372 -0.2201841 -0.07559104 -0.07560664
-0.14712252 -0.10865185 -0.025000546 -0.23352028 -0.12618971 -0.09059516 -0.029669207 -0.093607984
-0.021942563 -0.02659966 -0.081986316 -0.117737055 -0.06089237 -0.038388558 -0.010071111 0.018270977
0.03151045 0.070231475 0.012715514 0.04815883 0.10671755 0.034833726 0.021638481 0.07199472
-0.14333424 -0.14126113 -0.108408496 -0.15312156 -0.06906934 -0.05487843 -0.12437811 -0.14154366
-0.13209626 -0.029053051 -0.042676464 -0.09597142 -0.13799812 -0.12236958 -0.11914599 -0.104542315
-0.16698013 -0.11150767 0.021498997 -0.034676563 0.03868208 -0.055046044 -0.06366984 0.00089652615
-0.028291488 -0.06845153 -0.033469666 0.066458285 -0.014973536 0.06350276 0.053804312 0.0023342546
0.03867089 0.04347406 0.038075507 0.016705597 0.012747969 0.08512222 0.2195901 0.03985149
0.10160716 0.20981471 -0.026785975 0.028952846 0.053137507 -0.0029472683 -0.005994802 0.032419566
-0.09939113 -0.05479781 0.0042832205 -0.01915119 -0.09314814 -0.010556341 -0.014808523 -0.0058205356
0.014293212 -0.03361386 -0.026568133 -0.013220489 -0.01894085 -0.0750046 -0.050494593 -0.029564593
-0.029326756 0.13856462 0.043112986 0.0017134399 0.11933105 0.025070997 0.0022187573 0.03972674
-0.021652628 0.017608028 0.04222031 -0.014578751 -0.019837305 0.024352854 -0.14519714 -0.14102355
-0.072759 0.14498274 0.17681047 0.20747323 0.10613769 0.12439943 0.1980834 0.12818678
0.08978976 0.14584228 0.33874813 0.41817343 0.39912722 0.31138653 0.4642605 0.37796187
0.3423581 0.33642253 0.3574463 -0.08170522 0.071806625 0.38198656 0.0012505932 0.048961226
0.2664014 0.10043461 0.10924652 0.20285408 -0.01390423 -0.009547369 0.11987053 0.08393253
00000000: eac0 a939 8e9d be3c 7871 bf3d 5113 163d
00000010: f26a a13d ac97 f03d b8cb 683e 9bd3 3a3e
00000020: cb80 6d3e b78b 05be 2edb fdbc b3f9 7dbc
00000030: e779 a6bd 2390 6cbd 5180 3bbd 93ca ffbd
00000040: df3f 95bd 2a48 96bd 7e27 58bd 9ba0 a8bd
00000050: cede 55bd 66c0 0bbe 397c 16be bb5f e5bd
00000060: e675 22be 03aa 3abe 053c e6bd f7e7 3ebd
00000070: 511d 6abd 7505 1fbd b8a3 f5bd 4f73 02be
00000080: a973 a2bd bb2f 14be 7afb 03be b6b9 85bd
00000090: e140 003d bccc a1bb e1bc 263d 303e 2fbd
000000a0: 7a72 e5bc a3b2 63bc d835 66bd ced7 e93b
000000b0: 8494 c9bb 5e79 343e 5e81 8f3e fe21 b73e
000000c0: 9ce5 7c3e b986 8b3e 94db 933e cbf5 353e
000000d0: b786 983e fbf5 8b3e c4df ac3d 913a 5f3d
000000e0: 2fa6 dc3d e161 cf3d f0c2 0c3e 8560 d93d
000000f0: 6370 d43d 9640 ab3d 111b 263e 4602 9e3d
00000100: dea4 b93d 5264 3d3d 2ec8 f03c 9ebc 313d
00000110: 942b 9f3d aedb cf3d e059 663d 2395 8f3d
00000120: 083c ba3c c505 a23c 965f ed3d 8494 023e
00000130: ac77 df3d d7df 4e3e 60ac 253e cd0e 1d3e
00000140: eeab 8b3e 675c 9a3d ae7f e33c f9dc 993d
00000150: 54c0 933d 9e8e 893d 6d89 0d3d 9c76 293d
00000160: 540a 903d 020b b83d b0ec 843d db57 2b3e
00000170: a4bb f53d c01d df3d 1ddd 933e 62d0 683e
00000180: e1ef 8b3d 8af0 243e fe4d 1d3e f15e ab3d
00000190: 5de9 ec3d 4a7d 343e 1a2a 903d 0e20 0f3e
000001a0: b98a 353e aa3d 99bb 180e 1b3d 7ed5 ea3d
000001b0: fd24 b5bd 5384 d3bd 1a0a c4bd 2796 dcbd
000001c0: 2e72 01be c20b 07be d1ef edbd 002d 01be
000001d0: 2a20 6bbd f177 61be 7acf 9abd a7d7 9abd
000001e0: 49a7 16be dc84 debd f2cd ccbc f11f 6fbe
000001f0: e037 01be f589 b9bd d60c f3bc 8bb5 bfbd
00000200: e4c0 b3bc 88e7 d9bc 71e8 a7bd 2020 f1bd
00000210: 476a 79bd 523d 1dbd 4d01 25bc 04ad 953c
00000220: 1a11 013d 85d5 8f3d bb54 503c 3142 453d
00000230: bb8e da3d cfad 0e3d 2f43 b13c f871 933d
00000240: 36c6 12be c2a6 10be 4605 debd e6cb 1cbe
00000250: 3a74 8dbd 34c8 60bd f3b9 febd d2f0 10be
00000260: 3e44 07be aa00 eebc 84cd 2ebd aa8c c4bd
00000270: 614f 0dbe e79c fabd d002 f4bd 481a d6bd
00000280: d7fc 2abe 225e e4bd aa1e b03c 0309 0ebd
00000290: 1a71 1e3d f677 61bd 5565 82bd da04 6b3a
000002a0: 8dc3 e7bc 5130 8cbd 7d17 09bd 481b 883d
000002b0: 9053 75bc bc0d 823d e961 5c3d 4bfa 183b
000002c0: 5e65 1e3d db11 323d 10f5 1b3d 2dda 883c
000002d0: dbdc 503c 8f54 ae3d 3adc 603e 513b 233d
000002e0: 6a17 d03d abd9 563e 436e dbbc 852e ed3c
000002f0: b7a6 593d f526 41bb 0b70 c4bb 61ca 043d
00000300: 948d cbbd ab73 60bd 425a 8c3b f5e2 9cbc
00000310: 74c4 bebd 81f4 2cbc 729f 72bc 31ba bebb
00000320: 142e 6a3c b0ae 09bd 6aa5 d9bc c09a 58bc
00000330: d729 9bbc 039c 99bd 6bd3 4ebd 7231 f2bc
00000340: aa3e f0bc e2e3 0d3e 3e97 303d 8195 e03a
00000350: d663 f43d b161 cd3c 9268 113b 82b8 223d
00000360: da60 b1bc b63e 903c 34ef 2c3d b7db 6ebc
00000370: d881 a2bc a37f c73c 8fae 14be 7a68 10be
00000380: ac02 95bd 5b76 143e ce0d 353e dd73 543e
00000390: b85e d93d 21c5 fe3d 60d6 4a3e 6543 033e
000003a0: b2e3 b73d ae57 153e 6570 ad3e d41a d63e
000003b0: 675a cc3e 0e6e 9f3e 8db3 ed3e 3884 c13e
000003c0: 9049 af3e 933f ac3e 3403 b73e 1155 a7bd
000003d0: 5a0f 933d be93 c33e f2ea a33a 918b 483d
000003e0: c465 883e a9b0 cd3d a4bc df3d fbb8 4f3e
000003f0: 91ce 63bc 916c 1cbc ae7e f53d d1e4 ab3d

layer2.0.bias f4 [64]
0.029543202 -0.022159316 0.012027422 -0.027820265 0.010741949 0.0022430003 -0.029882004 0.054258496
0.0113743795 -0.035259962 -0.02560238 -0.0133565 -0.06816219 0.013143218 0.07166583 0.06661516
-0.010728614 -0.04122804 -0.06860422 -0.057534713 0.0869237 -0.07169359 0.012701901 -0.022916147
-0.014363909 0.019374346 0.037515208 -0.015369107 -0.026714982 -0.00089976087 -0.0049807536 0.015456942
0.020901483 -0.060106296 0.018238354 -0.002212153 0.0061690877 -0.030554933 -0.058776334 0.0379563
-0.045456022 0.05391629 -0.059166264 -0.0042649787 -0.005036836 0.032134585 0.08858901 -0.057331182
0.050131917 -0.012592189 -0.024456542 -0.008078964 -0.008898456 0.040122334 -0.03330732 0.041379474
-0.02346178 -0.0867141 0.05481131 0.042607367 0.013937663 0.021280928 -0.06564304 0.044796508
00000000: 9604 f23c 7487 b5bc aa0e 453c 53e7 e3bc
00000010: 00ff 2f3c 4dff 123b 1bcb f4bc 283e 5e3d
00000020: 9b5b 3a3c c06c 10bd 15bc d1bc 39d5 5abc
00000030: 9e98 8bbd a756 573c 89c5 923d 876d 883d
00000040: 12c7 2fbc bcde 28bd 5f80 8cbd 85a9 6bbd
00000050: 0e05 b23d 17d4 92bd a21b 503c a5ba bbbc
00000060: 9a56 6bbc f3b6 9e3c 8ca9 193d b5ce 7bbc
00000070: 61d9 dabc eedd 6bba 9735 a3bb 1d3f 7d3c
00000080: 9639 ab3c 0532 76bd 9a68 953c c5f9 10bb
00000090: 0f26 ca3b 574e fabc 74bf 70bd 1178 1b3d
000000a0: 1830 3abd 54d7 5c3d 5358 72bd 3cc1 8bbb
000000b0: 0b0c a5bb 8e9f 033d 286e b53d 1ad4 6abd
000000c0: 2057 4d3d 784f 4ebc 1659 c8bc a25d 04bc
000000d0: d4ca 11bc 5157 243d 426d 08bd 867d 293d
000000e0: eb32 c0bc 2997 b1bd d381 603d 1085 2e3d
000000f0: cc5a 643c 5755 ae3c dc6f 86bd 8b7c 373d

layer2.1.weight f4 [64]
0.8454943 0.57404506 0.7643875 0.6518159 1.2849289 0.7801321 0.81811947 0.810609
1.2597914 1.0779123 0.58867687 0.50319004 0.5682116 1.141145 0.78590506 0.70928526
1.1144197 0.5106745 1.0323489 0.5119528 1.6855804 1.2100309 1.0691977 0.3422248
0.88815117 0.6478306 0.8222506 1.8892953 0.7182098 0.58706284 0.5370388 1.0355217
0.697364 0.7710081 1.6365054 1.0820526 0.8209581 1.8134841 1.1523374 1.0108495
0.6594908 0.6530169 0.5496224 0.8664939 0.6454689 1.2348126 0.72385716 1.5308449
1.0058081 0.8194158 0.5111583 1.7764443 0.87469804 0.86046714 0.52822214 0.42887008
0.9052013 0.5812316 0.9459656 0.8707161 1.0829062 0.5762537 1.2139823 0.67243147
00000000: 5072 583f 9ef4 123f e6ae 433f 68dd 263f
00000010: 8d78 a43f bdb6 473f 4770 513f 1284 4f3f
00000020: d840 a13f 08f9 893f 87b3 163f 10d1 003f
00000030: 5176 113f 0a11 923f 1331 493f b893 353f
00000040: 4ea5 8e3f 90bb 023f 0224 843f 570f 033f
00000050: 19c1 d73f 4be2 9a3f 78db 883f 1738 af3e
00000060: e05d 633f 3ad8 253f 047f 523f 6ed4 f13f
00000070: 99dc 373f c049 163f 607b 093f fa8b 843f
00000080: 7286 323f c960 453f 0279 d13f b380 8a3f
00000090: 4f2a 523f 3f20 e83f cb7f 933f 8463 813f
000000a0: 64d4 283f 1e2c 273f 0eb4 0c3f 8bd2 5d3f
000000b0: 733d 253f 570e 9e3f b44e 393f baf2 c33f
000000c0: 52be 803f 3cc5 513f 45db 023f 8762 e33f
000000d0: 36ec 5f3f 9347 5c3f 9139 073f dc94 db3e
000000e0: 46bb 673f 98cb 143f cd2a 723f 40e7 5e3f
000000f0: ac9c 8a3f 5d85 133f c663 9b3f 7824 2c3f

layer2.1.bias f4 [64]
-0.11822093 -0.31980923 -0.15020882 0.031472538 -0.25440475 -0.29318377 -0.25362834 -0.07609314
0.25825846 0.46164083 -0.5111284 -0.18967995 -0.3429651 0.21352449 -0.23380494 -0.813176
0.1899137 -0.5353249 -0.57815325 -0.19676101 -0.578296 0.8253087 -0.35651466 -0.33904558
-0.0663949 -0.09461543 -0.24775688 -0.48922646 0.50037116 -0.29039428 -0.5803779 -0.3936287
-0.2788674 0.16083042 0.9235392 -0.3876246 -0.5407971 -0.4575149 0.48673308 0.73668826
-0.48272339 -0.52966076 -0.1966751 -0.064460576 -0.14344122 0.04172301 -0.13556558 0.59392476
0.04371481 -0.33950487 -0.6823411 0.60723853 0.14214043 -0.1494495 -0.34198198 -0.5176924
0.21357904 -0.39049864 -0.13127442 -0.060650542 -0.12589331 -0.62085027 0.08397949 -0.3955101
00000000: d11d f2bd 09be a3be 57d0 19be 59e9 003d
00000010: 5741 82be 2f1c 96be 93db 81be b8d6 9bbd
00000020: 743a 843e 305c ec3e 50d9 02bf 763b 42be
00000030: 1f99 afbe 2aa6 5a3e 906a 6fbe 4d2c 50bf
00000040: bd78 423e 0d0b 09bf da01 14bf b87b 49be
00000050: 350b 14bf 6e47 533f 1789 b6be 6297 adbe
00000060: 0dfa 87bd bcc5 c1bd fbb3 7dbe e47b fabe
00000070: 5318 003f 8fae 94be a593 14bf b389 c9be
00000080: b5c7 8ebe bbb0 243e 116d 6c3f bb76 c6be
00000090: ae71 0abf 653f eabe 1435 f93e 9a97 3c3f
000000a0: 8527 f7be d997 07bf 3365 49be e803 84bd
000000b0: 41e2 12be bfe5 2a3d b4d1 0abe 740b 183f
000000c0: 4d0e 333d 95d3 adbe e8ad 2ebf fc73 1b3f
000000d0: 438d 113e 4a09 19be 4318 afbe 7d87 04bf
000000e0: 77b4 5a3e 70ef c7be cd6c 06be b46c 78bd
000000f0: 2dea 00be 0bf0 1ebf 70fd ab3d 4d80 cabe

layer2.1.running_mean f4 [64]
12.882696 1.1275076 -6.151907 -11.0805235 -22.792356 -7.5052924 -21.606789 2.0957508
-18.540554 -24.120956 8.548229 8.043217 -6.861513 -24.280937 -5.732056 24.318773
-9.441406 10.267216 -16.84572 -3.657326 -28.118404 -0.864091 -29.72305 9.207257
-7.2006245 -3.2580125 -4.2544656 -9.799457 4.8080983 -2.5452263 1.5541067 -26.0065
-14.276032 -4.247203 -1.0342495 21.341696 -0.5259851 -37.16114 -21.518297 4.862124
-18.074673 8.505369 6.777667 18.827929 -6.6031904 -23.89651 4.601991 0.455047
-33.881886 -18.571346 -1.0453713 -0.84618676 -5.127488 -8.77992 -1.6577132 -1.5341352
-24.114487 12.397337 -5.9583697 -4.8382545 -11.882806 15.065726 -8.126789 10.35206
00000000: 861f 4e41 2b52 903f 6cdc c4c0 d349 31c1
00000010: bf56 b6c1 5b2b f0c0 b4da acc1 c820 0640
00000020: 0e53 94c1 b8f7 c0c1 8cc5 0841 04b1 0041
00000030: 8491 dbc0 5c3f c2c1 016d b7c0 d98c c241
00000040: 0010 17c1 8446 2441 09c4 86c1 a111 6ac0
00000050: 7ef2 e0c1 1135 5dbf cec8 edc1 ed50 1341
00000060: 846b e6c0 4783 50c0 9524 88c0 93ca 1cc1
00000070: f1db 9940 fde4 22c0 f8ec c63f 500d d0c1
00000080: a16a 64c1 16e9 87c0 4a62 84bf cbbb aa41
00000090: f6a6 06bf 02a5 14c2 7925 acc1 8596 9b40
000000a0: ee98 90c1 fe15 0841 a6e2 d840 999f 9641
000000b0: 564d d3c0 0d2c bfc1 8343 9340 ecfb e83e
000000c0: 0d87 07c2 1e92 94c1 bace 85bf b29f 58bf
000000d0: 6214 a4c0 8d7a 0cc1 f22f d4bf 8b5e c4bf
000000e0: 78ea c0c1 7e5b 4641 f7aa bec0 fbd2 9ac0
000000f0: f91f 3ec1 370d 7141 5407 02c1 0aa2 2541

layer2.1.running_var f4 [64]
158.96497 87.844376 37.524513 99.50176 335.90424 49.01968 228.4349 61.56611
334.97202 323.75824 34.17977 105.13994 69.96646 337.74628 58.949356 102.64817
155.67714 44.03837 120.343796 27.545195 428.47147 152.75954 241.05238 34.81229
54.927975 46.611668 55.810986 148.31754 98.780205 59.745037 95.365456 363.0714
79.9916 239.42267 179.40915 211.99545 94.037865 612.72876 286.9284 165.35722
118.36853 79.9502 39.240253 155.81834 51.049625 242.7839 52.351063 250.66508
276.49628 114.71167 88.43514 157.43411 45.310333 123.07821 53.27805 43.013756
270.2886 68.442375 42.615097 45.592373 40.959312 57.549633 142.90784 68.87619
00000000: 08f7 1e43 52b0 af42 1a19 1642 e700 c742
00000010: bef3 a743 2714 4442 566f 6443 b243 7642
00000020: 6b7c a743 0ee1 a143 16b8 0842 a647 d242
00000030: d4ee 8b42 86df a843 24cc 6b42 dd4b cd42
00000040: 59ad 1b43 4a27 3042 06b0 f042 8f5c dc41
00000050: 593c d643 71c2 1843 690d 7143 c93f 0b42
00000060: 3fb6 5b42 5972 3a42 733e 5f42 4a51 1443
00000070: 778f c542 ebfa 6e42 1dbb be42 2489 b543
00000080: b3fb 9f42 346c 6f43 be68 3343 d6fe 5343
00000090: 6313 bc42 a42e 1944 d676 8f43 735b 2543
000000a0: b0bc ec42 81e6 9f42 05f6 1c42 7fd1 1b43
000000b0: d132 4c42 aec8 7243 7d67 5142 43aa 7a43
000000c0: 863f 8a43 606c e542 cbde b042 226f 1d43
000000d0: c83d 3542 0b28 f642 b91c 5542 160e 2c42
000000e0: f124 8743 7fe2 8842 dc75 2a42 975e 3642
000000f0: 56d6 2342 d332 6642 68e8 0e43 9cc0 8942

layer3.0.weight f4 [64, 64, 3, 3]
-0.24762297 -0.29817867 -0.35929158 -0.16933697 -0.134738 -0.15624459 -0.14649475 -0.13960345
-0.25559598 -0.09112875 -0.011826577 -0.20474473 -0.056306027 0.0009031392 -0.14888784 -0.19205716
-0.12515044 -0.2583919 0.19423646 0.03994231 0.13644528 -0.17011157 -0.25451547 -0.09862743
-0.1769745 -0.22105828 -0.03447571 -0.1090749 0.043611266 -0.14990996 0.021410419 0.06279968
-0.028774308 -0.10902938 0.011261411 -0.0950468 -0.115232736 -0.3028545 0.32270715 -0.33251885
-0.4720318 -0.0035318811 0.23885715 -0.057928167 0.48662686 0.09345692 0.087878756 -0.14221053
0.057859596 0.03889907 -0.1513828 -0.091477625 -0.00900609 -0.16819514 0.15040955 -0.030848445
0.26771438 -0.103297435 -0.31941938 -0.057991143 0.1547713 -0.03936313 0.2917065 0.024146339
-0.02965288 -0.22628908 0.006168633 0.0095307715 -0.044853546 -0.18041986 -0.046489738 -0.2346617
0.31516114 -0.014391821 0.34799257 -0.1691813 -0.53382045 -0.061914258 0.030580057 -0.2747039
0.15328108 -0.16206458 -0.09295416 0.0721315 -0.11884643 -0.11866078 0.111800395 0.11128736
0.17957118 0.23162216 0.23525734 0.03158165 0.19961874 0.20629385 -0.13723296 0.066351265
0.19822672 0.08774107 0.23092268 -0.093473844 -0.1118615 -0.1856992 -0.1121695 -0.0448601
-0.05887526 -0.14403078 -0.1420396 -0.2726146 -0.038760968 0.046731945 -0.08500892 0.0005348238
0.23021148 0.013954095 -0.15529716 0.05267453 -0.15708533 -0.23999672 -0.21764533 -0.14194378
-0.20568618 -0.20021272 -0.14955118 0.018310769 -0.07545713 -0.10158597 0.19356206 0.039092343
0.23055607 -0.0049065393 -0.20833448 -0.114475854 0.029831711 -0.08816189 0.046473894 -0.0674999
-0.021806268 -0.12809418 -0.056417435 -0.022846745 -0.062295 -0.1155069 -0.17590512 -0.17371255
-0.15876816 0.3745328 -0.0753655 0.15100217 0.7414752 0.3945772 -0.16974741 0.32630777
0.052574847 0.0931615 0.082473665 0.07499151 0.06340332 -0.05676558 -0.009906384 0.040824156
-0.032157782 0.03557638 0.00356432 -0.15481265 0.020157948 -0.19234131 -0.35494313 -0.088453025
-0.27655256 -0.28952563 -0.101771705 0.24269243 0.03356587 0.23005876 0.09042599 -0.13647142
0.07384856 0.05491677 -0.053512547 0.07500147 -0.32835877 -0.33255202 0.23794757 -0.5481162
-0.38280463 -0.14391787 0.16745389 -0.09155146 0.47506848 0.16834651 -0.40294394 -0.75563717
0.74131197 0.22056065 -0.3684711 0.4487682 0.33789903 -0.15569754 -0.19197898 -0.3081028
-0.058129225 -0.30788752 -0.47780025 -0.12886927 -0.03928365 -0.20953773 0.011088069 0.025244577
0.0074228127 0.048961125 0.044633705 -0.06352146 -0.014159886 -0.09337735 -0.10330489 -0.14255458
0.40309578 0.2510363 0.3253825 0.14637247 -0.12453855 0.052223228 -0.122273885 -0.2781886
0.024217095 0.17779322 0.038886733 -0.027903775 -0.09166837 -0.13778006 -0.19343168 -0.18676008
-0.1610713 -0.15375853 0.08382616 0.076600865 -0.17211923 0.05294904 0.12538293 -0.09194573
-0.15445554 -0.012493521 -0.21421939 -0.8303025 -0.55175364 -0.26601163 -0.65648955 -0.63478047
-0.027149264 -0.30147073 -0.07976401 0.21421154 -0.20870706 0.10177933 -0.2111907 0.0016451196
00000000: e090 7dbe e0aa 98be 11f5 b7be ac66 2dbe
00000010: c2f8 09be 95fe 1fbe b802 16be 35f4 0ebe
00000020: 7add 82be b6a1 babd 42c4 41bc 9aa8 51be
00000030: 26a1 66bd a5c0 6c3a 0e76 18be a2aa 44be
00000040: 7027 00be f14b 84be ece5 463e 8c9a 233d
00000050: 50b8 0b3e ba31 2ebe da4f 82be 2efd c9bd
00000060: ce38 35be 1a5d 62be 6736 0dbd a962 dfbd
00000070: baa1 323d ff81 19be e764 af3c 1e9d 803d
00000080: 19b8 ebbc cc4a dfbd c881 383c e6a7 c2bd
00000090: 24ff ebbd bf0f 9bbe df39 a53e e93f aabe
000000a0: 27ae f1be 2277 67bb f896 743e 1646 6dbd
000000b0: 2827 f93e 5766 bf3d c7f9 b33d a39f 11be
000000c0: 2ffe 6c3d a254 1f3d 1804 1bbe 9f58 bbbd
000000d0: 488e 13bc 593b 2cbe f604 1a3e e1b5 fcbc
000000e0: dc11 893e 9b8d d3bd f08a a3be 1f88 6dbd
000000f0: 5e7c 1e3e 3c3b 21bd 8e5a 953e 8bce c53c
00000100: 99ea f2bc 53b8 67be 3e22 ca3b f426 1c3c
00000110: 5ab8 37bd fcbf 38be 066c 3ebd 284b 70be
00000120: cd5c a13e accb 6bbc 152c b23e dd3d 2dbe
00000130: 75a8 08bf ce99 7dbd 0783 fa3c fda5 8cbe
00000140: b7f5 1c3e 42f4 25be c05e bebd aeb9 933d
00000150: c265 f3bd 6c04 f3bd 9bf7 e43d a1ea e33d
00000160: 82e1 373e 5c2e 6d3e 4de7 703e c35b 013d
00000170: db68 4c3e b23e 533e cc86 0cbe 2ce3 873d
00000180: f2fb 4a3e 97b1 b33d ff76 6c3e 376f bfbd
00000190: a417 e5bd ee27 3ebe 1fb9 e5bd 39bf 37bd
000001a0: 2f27 71bd ce7c 13be d472 11be 2494 8bbe
000001b0: d2c3 1ebd ff69 3f3d 2819 aebd 6b33 0c3a
000001c0: 8fbc 6b3e b79f 643c 3806 1fbe 3fc1 573d
000001d0: fada 20be b3c1 75be 6bde 5ebe b659 11be
000001e0: 669f 52be 9004 4dbe f223 19be 7700 963c
000001f0: 4589 9abd 4e0c d0bd 2235 463e 4b1f 203d
00000200: e416 6c3e 09c7 a0bb a255 55be 5172 eabd
00000210: a261 f43c 398e b4bd 695b 3e3d 633d 8abd
00000220: 0fa3 b2bc 1f2b 03be f815 67bd 1929 bbbc
00000230: 0b29 7fbd e28e ecbd 7920 34be b4e1 31be
00000240: 1f94 22be c3c2 bf3e 3a59 9abd 50a0 1a3e
00000250: 52d1 3d3f 0606 ca3e 44d2 2dbe d011 a73e
00000260: b958 573d 75cb be3d f4e7 a83d 2695 993d
00000270: 9ad9 813d 0683 68bd 634e 22bc 3b37 273d
00000280: e1b7 03bd 8ab8 113d 5e97 693b 3587 1ebe
00000290: 4822 a53c 1ff5 44be 1bbb b5be dc26 b5bd
000002a0: 4c98 8dbe b43c 94be af6d d0bd 5d84 783e
000002b0: 5e7c 093d 8694 6b3e 4331 b93d 2abf 0bbe
000002c0: ea3d 973d 68f0 603d f92f 5bbd 5f9a 993d
000002d0: a41e a8be 4244 aabe 87a8 733e 5851 0cbf
000002e0: f8fe c3be 355f 13be 0879 2b3e 557f bbbd
000002f0: 2d3c f33e 0763 2c3e ab4e cebe 7071 41bf
00000300: 9fc6 3d3f a7da 613e 3ea8 bcbe f2c4 e53e
00000310: 1a01 ad3e 2d6f 1fbe 2396 44be a6bf 9dbe
00000320: e918 6ebd 6fa3 9dbe 3ca2 f4be 4ef6 03be
00000330: e5e7 20bd 0f91 56be bbaa 353c b7cd ce3c
00000340: 113b f33b 768b 483d d5d1 363d 8a17 82bd
00000350: defe 67bc a03c bfbd 8491 d3bd d4f9 11be
00000360: 9262 ce3e d487 803e 8998 a63e aae2 153e
00000370: 110e ffbd 06e8 553d bb6a fabd bc6e 8ebe
00000380: ee62 c63c 6d0f 363e b247 1f3d 7596 e4bc
00000390: a0bc bbbd 3716 0dbe f412 46be 093e 3fbe
000003a0: e0ef 24be e072 1dbe 0dad ab3d eae0 9c3d
000003b0: 0640 30be 18e1 583d 6264 003e 0b4e bcbd
000003c0: 9829 1ebe a0b1 4cbc 545c 5bbe b48e 54bf
000003d0: ba3f 0dbf ad32 88be b30f 28bf f980 22bf
000003e0: 2268 debc 5f5a 9abe 505b a3bd 455a 5b3e
000003f0: 4eb7 55be ae71 d03d 6042 58be 0ea1 d73a

layer3.0.bias f4 [64]
-0.06394919 -0.022960495 0.066766314 0.04808554 -0.010967728 -0.030338299 0.037951406 -0.032434955
0.024806894 0.018745413 -0.042012993 5.810374e-05 0.025548343 0.021394776 -0.0077740205 0.05705756
0.0061282967 -0.014065642 0.030790893 0.06074197 0.0049716784 -0.0040350594 -0.04088873 -0.02220472
-0.037611023 0.0034364904 -0.009156454 -0.0020743916 -0.030710634 -0.037637975 -0.020493414 0.0026317595
0.01509762 -0.057577908 0.0092289215 0.019561725 -0.055236883 -0.043671824 -0.03885255 0.027348679
-0.010596668 0.009146907 0.0057688355 0.052797724 0.012412012 -0.069002174 -0.045673575 0.06974531
-0.053704843 -0.015415762 -0.030098895 -0.056341264 -0.036320686 -0.05156732 -0.020754764 0.010479655
0.043365482 0.050511356 -0.03169773 -0.074725464 0.0434322 -0.008213456 -0.046417557 -0.03846662
00000000: cbf7 82bd a617 bcbc c7bc 883d 58f5 443d
00000010: fcb1 33bc 0688 f8bc ef72 1b3d 84da 04bd
00000020: d437 cb3c fb8f 993c d115 2cbd 6ab4 7338
00000030: c24a d13c 1944 af3c 36bd febb 30b5 693d
00000040: e1cf c83b 9473 66bc 2f3d fc3c 92cc 783d
00000050: 76e9 a23b 8838 84bb f17a 27bd ace6 b5bc
00000060: 040e 1abd be36 613b f404 16bc 84f2 07bb
00000070: de94 fbbc 472a 1abd cee1 a7bc 9979 2c3b
00000080: 025c 773c d0d6 6bbd e734 173c e93f a03c
00000090: 1240 62bd 3ae1 32bd da23 1fbd 560a e03c
000000a0: a69d 2dbc e9dc 153c 8008 bd3b 6d42 583d
000000b0: c05b 4b3c 0351 8dbd 3714 3bbd a1d6 8e3d
000000c0: 9cf9 5bbd 6492 7cbc f591 f6bc 19c6 66bd
000000d0: 00c5 14bd 4138 53bd e505 aabc dcb2 2b3c
000000e0: 01a0 313d ffe4 4e3d 7bd5 01bd aa09 99bd
000000f0: f6e5 313d bb91 06bc 5620 3ebd 2d8f 1dbd

layer3.1.weight f4 [64]
1.1554751 0.37144873 1.0434356 2.204927 0.6380879 0.29838476 0.757961 0.5668152
1.5232792 0.69747555 0.68040866 0.48168433 0.6022328 1.2271732 0.4974447 1.8269285
1.1763594 0.6250669 1.0272167 0.81323034 0.6647426 0.94263846 0.6722376 0.7856779
0.36159652 1.7796378 0.94987184 0.72949135 0.47033578 1.5178002 1.1431067 0.51341796
0.3625069 0.8249337 1.1670767 0.5812786 0.5296144 0.6901831 1.4776231 0.5443277
1.211851 0.6945502 0.40719956 0.9368036 0.72621936 1.3449922 0.37873983 1.6386731
0.48987877 0.66962457 1.2676789 0.4332805 0.7157404 0.36538824 1.3565518 1.2032963
0.54079026 0.63777673 0.655396 1.8504343 0.7590068 0.65021515 1.0618151 1.0580497
00000000: 9ce6 933f 872e be3e 4c8f 853f 861d 0d40
00000010: bb59 233f e3c5 983e bb09 423f cd1a 113f
00000020: d0fa c23f c28d 323f 432f 2e3f 549f f63e
00000030: ee2b 1a3f 0314 9d3f 12b1 fe3e cbd8 e93f
00000040: f292 963f 6204 203f d67b 833f dd2f 503f
00000050: 922c 2a3f c150 713f c317 2c3f 3022 493f
00000060: 2e23 b93e 2ccb e33f cd2a 733f f2bf 3a3f
00000070: dacf f03e 4747 c23f 5251 923f 5c6f 033f
00000080: 819a b93e db2e 533f c562 953f adce 143f
00000090: cf94 073f d7af 303f c122 bd3f 0f59 0b3f
000000a0: ef1d 9b3f 0bce 313f 767c d03e 5cd2 6f3f
000000b0: 83e9 393f b428 ac3f 30ea c13e 0ac0 d13f
000000c0: 64d1 fa3e 846c 2b3f 4d43 a23f f1d6 dd3e
000000d0: c33a 373f 2b14 bb3e 7da3 ad3f 9d05 9a3f
000000e0: 3b71 0a3f 5645 233f 08c8 273f 08db ec3f
000000f0: 454e 423f 8074 263f 8fe9 873f 2c6e 873f

layer3.1.bias f4 [64]
-0.15994886 -0.27246687 0.17873558 -0.27156156 -0.3645362 -0.31900108 -0.19226849 -0.3793222
-0.33490387 -0.2991754 -0.76308393 -0.33540767 -0.41103423 -0.46071437 -0.3703841 -0.12260733
-0.52756184 -0.44421366 -0.68412155 -0.40709653 -0.8202312 -0.15510614 -0.3211506 -0.5027015
-0.49914992 -0.07747549 -0.4219481 -0.3658304 -0.27762583 0.14078854 0.042557385 -0.28491187
-0.34070396 -0.46014562 -0.4814098 -0.43787748 -0.41220227 -0.31513786 -0.73983586 -0.2814408
0.37099737 -0.31557277 -0.29309312 -0.6737047 -0.21330652 0.55572206 -0.3130754 -0.4735212
-0.37877458 -0.6674428 -0.23963931 -0.22754999 -0.38710696 -0.36620206 0.4159852 -0.13296188
-0.46136907 -0.57685405 -0.4302406 -0.25822425 -0.3369221 -0.9970246 -0.10575884 0.18832427
00000000: a2c9 23be c780 8bbe 7606 373e 1e0a 8bbe
00000010: 7da4 babe 1c54 a3be 08e2 44be 8536 c2be
00000020: 8578 abbe 852d 99be 7859 43bf 8eba abbe
00000030: 1473 d2be c1e2 ebbe fca2 bdbe 8d19 fbbd
00000040: 4b0e 07bf f96f e3be 9722 2fbf f56e d0be
00000050: acfa 51bf 25d4 1ebe da6d a4be 0cb1 00bf
00000060: 9490 ffbe 78ab 9ebd 9509 d8be 1f4e bbbe
00000070: f924 8ebe df2a 103e a750 2e3d f8df 91be
00000080: c070 aebe 3598 ebbe 587b f6be 7a31 e0be
00000090: 2d0c d3be c059 a1be e265 3dbf 0219 90be
000000a0: 5ef3 bd3e c192 a1be 4d10 96be e977 2cbf
000000b0: 066d 5abe cd43 0e3f 6b4b a0be 5f71 f2be
000000c0: beee c1be 88dd 2abf 0264 75be dd02 69be
000000d0: e232 c6be d67e bbbe 03fc d43e 2927 08be
000000e0: 9138 ecbe b5ac 13bf 7f48 dcbe f835 84be
000000f0: 0e81 acbe 013d 7fbf 1798 d8bd 14d8 403e

layer3.1.running_mean f4 [64]
-9.194076 2.5741572 -7.192879 0.39937836 3.4588587 1.0614082 -3.9591844 -7.420875
-6.1592994 4.153375 2.4151955 2.6226163 -3.1174746 -14.027937 -5.80683 -5.133834
3.6153772 -13.323485 -10.778704 -16.850271 5.090255 -8.70701 3.2472148 2.9860637
2.8030686 -9.56715 -8.835261 -5.6772337 -3.4086013 -25.566145 -23.586557 -2.8839955
3.8269615 -3.8422468 -6.552716 -5.8427744 -5.6948786 -1.9425255 0.09285208 -1.0282729
-17.467083 -0.66330814 2.0654857 12.741015 -12.516889 1.5263642 0.4432955 1.3015206
-3.4727383 -7.318899 -10.799674 2.296128 -9.254785 0.105576836 -1.8483273 -8.310096
-6.0887814 -4.553278 2.0830967 -0.57641584 6.898391 3.5041711 -7.419688 9.763547
00000000: ef1a 13c1 febe 2440 112c e6c0 527b cc3e
00000010: f15d 5d40 39dc 873f 4763 7dc0 cf77 edc0
00000020: fb18 c5c0 73e8 8440 9092 1a40 f2d8 2740
00000030: b484 47c0 6e72 60c1 8dd1 b9c0 5e48 a4c0
00000040: 5762 6740 ff2c 55c1 9275 2cc1 5bcd 86c1
00000050: 5ee3 a240 ea4f 0bc1 5ed2 4f40 ab1b 3f40
00000060: 7a65 3340 0c13 19c1 3b5d 0dc1 e6ab b5c0
00000070: 8626 5ac0 7787 ccc1 45b1 bcc1 6293 38c0
00000080: f0ec 7440 5fe7 75c0 d9af d1c0 02f8 bac0
00000090: 723c b6c0 ada4 f8bf 3b29 be3d 729e 83bf
000000a0: 96bc 8bc1 90ce 29bf eb30 0440 33db 4b41
000000b0: 2d45 48c1 e75f c33f a1f7 e23e 3a98 a63f
000000c0: 5841 5ec0 6c34 eac0 77cb 2cc1 c3f3 1240
000000d0: 9913 14c1 ab38 d83d fd95 ecbf 27f6 04c1
000000e0: 4cd7 c2c0 74b4 91c0 7551 0540 fd8f 13bf
000000f0: 9ebf dc40 5744 6040 166e edc0 7d37 1c41

layer3.1.running_var f4 [64]
156.0122 25.823112 186.78712 171.06868 76.166725 27.072166 33.10325 45.722134
156.09395 34.41549 40.940933 27.832993 37.0637 156.40712 36.717583 273.4209
54.460426 48.07088 36.37772 102.42138 24.510262 28.224371 40.751232 73.751686
39.170044 186.29987 133.62128 40.6526 25.44522 115.68351 176.19771 21.645777
19.336874 90.61827 59.56565 19.398268 19.253664 19.28617 57.911415 24.933132
131.54286 68.391235 23.26367 48.652477 52.37377 106.23308 18.615154 78.35248
28.221077 26.38885 56.376858 29.306795 90.8145 16.565977 170.9031 132.48618
40.16655 50.87802 42.742283 223.29645 95.08691 41.843166 127.00298 134.92825
00000000: 2003 1c43 bc95 ce41 81c9 3a43 9511 2b43
00000010: 5d55 9842 cc93 d841 ba69 0442 77e3 3642
00000020: 0d18 1c43 76a9 0942 84c3 2342 f8a9 de41
00000030: 3b41 1442 3968 1c43 cede 1242 e0b5 8843
00000040: 7ad7 5942 9548 4042 c982 1142 bfd7 cc42
00000050: 0415 c441 83cb e141 4301 2342 dd80 9342
00000060: 20ae 1c42 c44c 3a43 0c9f 0543 439c 2242
00000070: d08f cb41 f55d e742 9d32 3043 8d2a ad41
00000080: ebb1 9a41 8e3c b542 3a43 6e42 a72f 9b41
00000090: 8107 9a41 134a 9a41 4aa5 6742 0e77 c741
000000a0: f98a 0343 50c8 8842 ff1b ba41 239c 4242
000000b0: be7e 5142 5677 d442 d6eb 9441 78b4 9c42
000000c0: c4c4 e141 5d1c d341 e781 6142 5174 ea41
000000d0: 06a1 b542 1f87 8441 32e7 2a43 767c 0443
000000e0: 8caa 2042 1883 4b42 19f8 2a42 e44b 5f43
000000f0: 7f2c be42 675f 2742 8701 fe42 a2ed 0643

layer4.0.weight f4 [64, 64, 3, 3]
-0.018125774 0.045422167 0.049423084 -0.032918856 0.04191223 -0.01674851 -0.02818377 0.03028859
0.017460315 -0.11039522 -0.10521492 -0.12311204 -0.1454578 -0.11719299 -0.14299405 -0.13524398
-0.1071898 -0.12419678 0.0024175672 0.05583651 -0.026535671 0.013712684 -0.056341168 -0.026717443
0.0074160206 -0.05144201 -0.053105444 -0.019484261 -0.030228898 -0.025860602 -0.0043463376 -0.020007586
-0.021974403 -0.0062507098 0.03308589 -0.031550407 -0.055260096 -0.062511414 -0.041284837 -0.092623405
-0.115161754 -0.101419084 -0.049375717 -0.12414219 -0.051055454 -0.039824657 -0.09846961 -0.10508221
-0.09466681 -0.057711836 -0.09748147 -0.102315046 -0.11292024 -0.12828699 -0.060936008 -0.030764079
-0.039583668 -0.104144126 -0.09331717 -0.1123103 -0.052734066 -0.10509149 -0.058853142 -0.11291181
-0.106651895 -0.06128834 -0.13207738 -0.082139805 -0.08977563 -0.12085562 -0.08354779 -0.061065696
-0.029886842 -0.021175614 -0.002711726 -0.018270211 -0.028415497 0.028287137 0.027326154 -0.008903543
-0.012681665 -0.07772532 -0.06401587 -0.099638954 -0.05427067 -0.09781674 -0.049110834 -0.10645929
-0.11650412 -0.1220037 -0.116448246 -0.2073259 -0.20488338 -0.196156 -0.16614518 -0.18326512
-0.10903876 -0.1457704 -0.12526703 -0.101532996 -0.07059006 -0.05005294 -0.05777337 -0.111396976
-0.0610844 -0.057422113 -0.09387735 -0.07303245 -0.08604368 -0.04422717 -0.10335026 -0.09220518
-0.062400457 -0.089852154 -0.118359245 -0.096556574 -0.07446345 -0.029990995 -0.022372527 -0.0033103186
-0.04036993 0.002553932 -0.067677155 -0.061319698 -0.041067284 -0.031425703 -0.07117659 -0.13576092
-0.040905982 -0.09955385 -0.14421038 -0.07281177 -0.08780028 -0.086994074 -0.048560802 0.05205569
0.026968148 0.0050636022 0.029350001 0.009058292 0.013291658 -0.007993799 0.0045993347 -0.016336704
7.687102e-06 -0.02688018 -0.070381746 0.03240885 0.018975368 -0.01789677 0.06022139 0.0051928572
0.021398844 -0.06471935 -0.04308566 -0.04920417 -0.09259555 -0.09325231 -0.0921284 -0.11445155
-0.061234068 -0.08101501 -0.1592042 -0.06573764 -0.09093455 -0.17054452 -0.108955115 -0.12902166
-0.09244554 -0.109184176 -0.023019245 -0.055354528 -0.07998611 -0.08176127 -0.038310904 -0.036138196
-0.043698154 -0.07062417 -0.06796989 -0.030394206 -0.20025806 -0.18169713 -0.1596064 -0.14719024
-0.25614905 -0.15230672 -0.09895224 -0.17314091 -0.069375575 0.041888777 -0.055364285 0.110738516
-0.009015599 -0.040113114 0.11282272 0.023263076 0.06007884 0.015914828 -0.083171144 -0.07301942
-0.036739793 -0.05344274 -0.071713366 -0.063355014 -0.040781356 -0.06302118 -0.04399214 -0.09079564
-0.12165816 -0.038760215 -0.07298953 -0.15459722 -0.014513009 -0.052572966 -0.046071682 -0.04445862
-0.053492393 -0.081003055 -0.1214451 -0.07021786 -0.07195502 -0.14025648 -0.13833763 -0.109243505
-0.12016066 0.08775429 0.045522295 0.052306164 0.06240395 0.13281508 0.112886705 0.14486165
0.11304422 0.06021527 0.027860265 -0.017714594 0.033342965 0.019038117 -0.0071375454 0.050159078
0.01629951 0.008352218 0.05040847 -0.12675454 -0.0674862 -0.08606888 -0.10002775 -0.08447126
-0.08674221 -0.122954875 -0.055720437 -0.049110938 -0.12145809 -0.15640558 -0.08171458 -0.17161013
00000000: 817c 94bc 980c 3a3d dc6f 4a3d ecd5 06bd
00000010: 29ac 2b3d 2c34 89bc a6e1 e6bc c71f f83c
00000020: ef08 8f3c e416 e2bd ec7a d7bd 2a22 fcbd
00000030: e4f2 14be e102 f0bd 086d 12be 667d 0abe
00000040: 5386 dbbd e25a febd 0c70 1e3b d3b4 643d
00000050: 5661 d9bc 2aab 603c ffc5 66bd 8ade dabc
00000060: 1702 f33b dbb4 52bd 1885 59bd 759d 9fbc
00000070: 98a2 f7bc 9dd9 d3bc b96b 8ebb f3e6 a3bc
00000080: aa03 b4bc c1d2 ccbb 1285 073d 003b 01bd
00000090: 6958 62bd fc05 80bd 4a1a 29bd 57b1 bdbd
000000a0: edd9 ebbd cfb4 cfbd 313e 4abd 433e febd
000000b0: 861f 51bd 2e1f 23bd 6faa c9bd 5735 d7bd
000000c0: ace0 c1bd 3f63 6cbd 5da4 c7bd 8d8a d1bd
000000d0: ba42 e7bd aa5d 03be 0998 79bd f304 fcbc
000000e0: 7c22 22bd 8449 d5bd 131d bfbd f102 e6bd
000000f0: adff 57bd 353a d7bd fe0f 71bd 4f3e e7bd
00000100: 4f6c dabd 7b09 7bbd 4b3f 07be ea38 a8bd
00000110: 49dc b7bd 2783 f7bd 1b1b abbd 0620 7abd
00000120: 40d5 f4bc 7b78 adbc 36b7 31bb 69ab 95bc
00000130: 9ec7 e8bc 6dba e73c 19db df3c 2be0 11bc
00000140: c2c6 4fbc 742e 9fbd c11a 83bd 820f ccbd
00000150: ec4a 5ebd 2554 c8bd 7128 49bd 5407 dabd
00000160: b699 eebd 13dd f9bd 6b7c eebd 3e4d 54be
00000170: f3cc 51be 1edd 48be f621 2abe daa9 3bbe
00000180: b74f dfbd d644 15be 0046 00be 88f0 cfbd
00000190: 8591 90bd 5004 4dbd c5a3 6cbd 1924 e4bd
000001a0: a333 7abd 7333 6bbd c542 c0bd 0a92 95bd
000001b0: ab37 b0bd 8d27 35bd 4da9 d3bd 12d6 bcbd
000001c0: 9f97 7fbd 6804 b8bd 5566 f2bd 74bf c5bd
000001d0: 4b80 98bd adaf f5bc 9746 b7bc eef1 58bb
000001e0: f15a 25bd de5f 273b 529a 8abd 5d2a 7bbd
000001f0: 2b36 28bd 3db8 00bd 08c5 91bd e904 0bbe
00000200: 088d 27bd e4e2 cbbd e3ab 13be 561e 95bd
00000210: a2d0 b3bd f329 b2bd b1e7 46bd 5938 553d
00000220: 4eec dc3c 93ec a53b 6a6f f03c 3b69 143c
00000230: 41c5 593c 6cf8 02bc 04b6 963b 8dd4 85bc
00000240: daf7 0037 d333 dcbc 4e24 90bd 24bf 043d
00000250: 3b72 9b3c 3f9c 92bc b4aa 763d d828 aa3b
00000260: a14c af3c 948b 84bd 977a 30bd 508a 49bd
00000270: bca2 bdbd 11fb bebd d1ad bcbd 9365 eabd
00000280: 93d0 7abd 33eb a5bd 6d06 23be 75a1 86bd
00000290: e53b babd 39a3 2ebe dc23 dfbd 411e 04be
000002a0: 1654 bdbd f49b dfbd db92 bcbc 6ebb 62bd
000002b0: c2cf a3bd 7472 a7bd e5eb 1cbd a505 14bd
000002c0: d6fc 32bd 68a3 90bd cc33 8bbd 45fd f8bc
000002d0: 7310 4dbe d00e 3abe dc6f 23be 0ab9 16be
000002e0: f825 83be 4bf6 1bbe 79a7 cabd da4b 31be
000002f0: c814 8ebd 9193 2b3d a9c5 62bd e0ca e23d
00000300: 2ab6 13bc a64d 24bd 990f e73d 3592 be3c
00000310: 3b15 763d d05f 823c a255 aabd 358b 95bd
00000320: 777c 16bd c6e6 5abd 75de 92bd 46c0 81bd
00000330: 5a0a 27bd 4011 81bd 1a31 34bd 11f3 b9bd
00000340: ea27 f9bd 08c3 1ebd 897b 95bd bc4e 1ebe
00000350: f9c7 6dbc c056 57bd a9b5 3cbd 3e1a 36bd
00000360: d71a 5bbd eee4 a5bd 35b8 f8bd 62ce 8fbd
00000370: 275d 93bd 659f 0fbe 61a8 0dbe 0fbb dfbd
00000380: cb16 f6bd 85b8 b33d 9675 3a3d fd3e 563d
00000390: 499b 7f3d ad00 083e 2531 e73d 9d56 143e
000003a0: ba83 e73d 49a4 763d 363b e43c 321e 91bc
000003b0: a292 083d d3f5 9b3c 12e2 e9bb 9b73 4d3d
000003c0: 8d86 853c bed7 083c 1d79 4e3d f1cb 01be
000003d0: 3436 8abd e244 b0bd 59db ccbd 45ff acbd
000003e0: e6a5 b1bd c4cf fbbd 1d3b 64bd 8d28 49bd
000003f0: 05bf f8bd c928 20be f959 a7bd 91ba 2fbe

layer4.0.bias f4 [64]
-0.07118026 -0.049783397 -0.06319205 -0.0014161069 -0.011796474 -0.012835313 -0.053198524 0.031083645
-0.0046617864 0.030858593 -0.03540147 0.021802805 -0.028430762 -0.04184117 -0.061809134 -0.07449707
0.045496695 -0.008265041 0.034732223 -0.064691275 -0.027735492 0.02165085 0.021535566 0.0040099
0.10148701 -0.054018836 0.030174736 0.015403757 0.015039801 -0.052565046 0.015458807 -0.014735761
-0.022472093 0.028747955 0.0037366091 -0.046720847 0.01618523 -0.03483532 -0.09717699 -0.021716034
0.017571416 0.010864422 -0.021065772 -0.07385724 -0.021291934 -0.039123584 0.03549405 -0.018952066
-0.0316847 0.038094573 -0.018481363 -0.009772554 0.0018238989 -0.05765146 0.019491969 0.011771334
-0.06944357 -0.04344572 0.04993835 0.018418029 -0.050179835 0.021466095 0.009026575 0.043523952
00000000: f5c6 91bd ade9 4bbd d56a 81bd aa9c b9ba
00000010: 0046 41bc 344b 52bc b2e6 59bd 21a3 fe3c
00000020: e6c1 98bb 29cb fc3c 2201 11bd cc9b b23c
00000030: a1e7 e8bc a661 2bbd 932b 7dbd eb91 98bd
00000040: be5a 3a3d 186a 07bc 6043 0e3d dc7c 84bd
00000050: 8b35 e3bc 205d b13c 5b6b b03c 7b65 833b
00000060: 6cd8 cf3d db42 5dbd 0231 f73c 0a60 7c3c
00000070: 7f69 763c 724e 57bd f046 7d3c 436e 71bc
00000080: 6517 b8bc d580 eb3c e6e1 743b 5c5e 3fbd
00000090: e396 843c 7baf 0ebd bb04 c7bd d3e5 b1bc
000000a0: eef1 8f3c b000 323c 2092 acbc 7742 97bd
000000b0: 6c6c aebc 0d40 20bd 3562 113d 5d41 9bbc
000000c0: d1c7 01bd 0e09 1c3d 3a66 97bc 101d 20bc
000000d0: e40f ef3a f023 6cbd 9fad 9f3c 8edc 403c
000000e0: 6e38 8ebd 24f4 31bd 288c 4c3d 68e1 963c
000000f0: 5f89 4dbd aad9 af3c 33e4 133c 2c46 323d
