results/SKDModel-dataset-Conv64F-5-5-Jan-08-2024-18-47-36/checkpoints/emb_func_best.pth (torch, 463429 bytes, 24 tensors)

layer1.0.weight f4 [64, 3, 3, 3]
0.09767405 -0.51871955 -0.5989647 0.54295737 -0.10814415 -0.80095255 0.8072196 0.8352183
-0.2450894 -0.1493319 -0.39075825 -0.39073062 0.53721726 0.09565001 -0.7580695 0.3593995
0.6502532 0.015196677 0.07483431 -0.35169423 0.046287645 0.06878742 0.14474235 -0.5844884
0.3764737 0.374371 -0.24398212 0.11730859 0.14557238 -0.008355383 0.05200156 -0.17199787
-0.032518383 0.15643445 -0.04840865 -0.0006053311 0.12747581 0.09544585 0.06366528 0.020258889
0.16033068 0.29190022 0.16728885 0.068461396 0.17000629 -0.24166779 -0.07519698 -0.20463535
-0.21844178 0.16214201 0.017219692 0.08034013 -0.06821314 0.103705235 0.15346022 0.24564835
-0.034118723 0.22739622 0.22152075 0.25368264 -0.01558163 0.14624706 0.11379462 -0.18792036
-0.33954653 -0.42647982 -0.06753755 -0.28867546 -0.45368832 -0.21342865 -0.37118158 -0.33410424
-0.10465135 -0.39605507 -0.30994844 -0.36041233 -0.5396613 -0.5995244 -0.080893 -0.5745818
-0.3880959 0.4202422 0.41312274 0.16567747 0.38343084 0.43463546 0.15408665 0.2875787
0.27826914 -0.13076541 -0.1467384 -0.2684718 -0.54090714 -0.17231569 -0.23333542 -0.46469265
-0.05735319 -0.34326294 -0.067842476 -0.39183697 -0.32934067 -0.60501194 -0.23607448 -0.7467578
-0.5943553 -0.21665597 -0.33285508 -0.3320061 0.8015435 0.72592324 0.64256936 0.46686223
0.7761725 0.9925608 0.1198943 0.79244834 0.9015256 -0.22448392 0.019629976 -0.0685029
-0.035056815 0.03928581 0.07746493 -0.03877535 0.10791449 0.012264263 -0.29682595 -0.33213046
-0.48560613 -0.54057497 -0.45744044 -0.29000127 -0.3312081 -0.28163424 -0.4988353 -0.46647832
-1.0419555 -1.2075515 -0.43018338 -0.9322654 -0.8424245 0.28215748 -0.38952005 -0.10296125
0.23779088 0.14868955 -0.35762426 0.11549347 -0.19883505 -0.104062684 0.53145343 -0.012050181
0.23035415 0.15292907 0.17259488 0.07611615 0.18532252 0.2370971 0.31777662 0.47778097
0.37076673 0.17374073 0.3182152 -0.29929355 0.48788884 -0.58943474 -0.57937455 -0.52695066
-0.42154935 -0.030263241 -0.47884977 -0.35468176 -0.6130489 -0.077181675 -0.29319164 -0.20627782
-0.5213825 -0.70346856 0.030709261 -0.582705 0.40820876 0.30006307 0.43114227 0.24908991
0.4713358 0.10430237 0.009853207 0.45063552 0.0031857702 0.08196267 0.043222204 -0.24074103
0.3100049 0.39590338 0.061311506 0.24640444 0.21276094 0.08053145 -0.30156797 -0.36495
-0.2750935 -0.33362108 -0.47288454 -0.31271258 0.027638758 -0.33715212 -0.33346406 0.2097068
0.06559071 0.31471515 0.23941341 0.027657367 0.23978458 0.34688035 0.085184835 0.080633625
0.32144147 0.6093547 0.9731938 -0.93198055 -0.6025572 0.6397759 -0.89945406 -1.4022442
-0.43657184 0.49298897 0.6153652 0.56743926 0.22415876 0.41382536 0.5395614 -0.26677698
-0.3689963 -0.30752972 0.06676189 -0.092563264 -0.18434167 -0.13705435 0.09021729 0.13010374
-0.18495522 -0.43047136 -0.2775617 -0.67089427 0.0808826 -0.21605413 -0.2801011 0.18642753
0.18123715 0.5884806 0.28433195 -0.031247405 -0.8635297 0.119145505 0.10695965 -0.43244177
00000000: 5509 c83d ceca 04bf c055 19bf 41ff 0a3f
00000010: ae7a ddbd 3a0b 4dbf f2a5 4e3f ded0 553f
00000020: b7f8 7abe 76ea 18be 7711 c8be d80d c8be
00000030: 1287 093f 27e4 c33d d810 42bf 3603 b83e
00000040: fe76 263f 7cfb 783c bb42 993d 4411 b4be
00000050: 1d98 3d3d 6be0 8c3d 5737 143e 08a1 15bf
00000060: 29c1 c03e 8ead bf3e 73d6 79be 7c3f f03d
00000070: ed10 153e 04e5 08bc 96ff 543d 3620 30be
00000080: ff31 05bd 5a30 203e 2648 46bd 15af 1eba
00000090: 0589 023e 1d79 c33d f162 823d f8f5 a53c
000000a0: ba2d 243e f273 953e c54d 2b3e 7d35 8c3d
000000b0: 2116 2e3e c377 77be e000 9abd ee8b 51be
000000c0: 34af 5fbe 8e08 263e 5010 8d3c 5e89 a43d
000000d0: 55b3 8bbd 6963 d43d ad24 1d3e 3e8b 7b3e
000000e0: 13c0 0bbd 8eda 683e 56d6 623e b1e2 813e
000000f0: 184a 7fbc cac1 153e 270d e93d 326e 40be
00000100: 0bd9 adbe 905b dabe 2151 8abd 45cd 93be
00000110: d649 e8be 0a8d 5abe 830b bebe b60f abbe
00000120: 7253 d6bd bbc7 cabe 90b1 9ebe f787 b8be
00000130: 3e27 0abf 6e7a 19bf 3bab a5bd cb17 13bf
00000140: 81b4 c6be fc29 d73e d384 d33e 5ba7 293e
00000150: 0c51 c43e 8a88 de3e e4c8 1d3e 843d 933e
00000160: 4b79 8e3e 5ee7 05be 9742 16be 2375 89be
00000170: e478 0abf 8673 30be 7bef 6ebe 32ec edbe
00000180: 2eeb 6abd 29c0 afbe fff0 8abd db9e c8be
00000190: 579f a8be 10e2 1abf 82bd 71be 852b 3fbf
000001a0: ab27 18bf 10db 5dbe fb6b aabe b4fc a9be
000001b0: f431 4d3f 1bd6 393f 6d7f 243f 9108 ef3e
000001c0: 3eb3 463f 7718 7e3f 258b f53d e5dd 4a3f
000001d0: 62ca 663f 1ddf 65be 0bcf a03c 404b 8cbd
000001e0: bc97 0fbd 28ea 203d efa5 9e3d e7d2 1ebd
000001f0: 4602 dd3d 0cf0 483c 92f9 97be 010d aabe
00000200: 5ea1 f8be 1f63 0abf a235 eabe 0c7b 94be
00000210: 1c94 a9be 5d32 90be 5767 ffbe 3fd6 eebe
00000220: cc5e 85bf 0c91 9abf ff40 dcbe f2a8 6ebf
00000230: 22a9 57bf f276 903e 2c6f c7be 59dd d2bd
00000240: 747f 733e 1342 183e 871a b7be d787 ec3d
00000250: 6a9b 4bbe d11e d5bd 550d 083f 1f6e 45bc
00000260: f5e1 6b3e 7099 1c3e b6bc 303e c9e2 9b3d
00000270: 30c5 3d3e 95c9 723e 9eb3 a23e b59f f43e
00000280: 23d5 bd3e 17e9 313e 1aed a23e 013d 99be
00000290: 91cc f93e 32e5 16bf e451 14bf 3de6 06bf
000002a0: 51d5 d7be 9eea f7bc cc2b f5be d998 b5be
000002b0: c6f0 1cbf 6d11 9ebd 371d 96be 7e3a 53be
000002c0: 5379 05bf 8416 34bf fd91 fb3c 282c 15bf
000002d0: bd00 d13e dea1 993e aebe dc3e 6d11 7f3e
000002e0: ed52 f13e 7b9c d53d 586f 213c b3b9 e63e
000002f0: 5bc8 503b 0bdc a73d c409 313d d184 76be
00000300: f6b8 9e3e d9b3 ca3e c621 7b3d 7251 7c3e
00000310: 01de 593e aced a43d 1e67 9abe bada babe
00000320: 0ed9 8cbe 62d0 aabe ec1d f2be dd1b a0be
00000330: ad6a e23c 349f acbe cdbb aabe 61bd 563e
00000340: 6c54 863d 5822 a13e ca28 753e b491 e23c
00000350: 178a 753e 4d9a b13e 6375 ae3d 3e23 a53d
00000360: fa93 a43e abfe 1b3f 3b23 793f 4796 6ebf
00000370: 3041 1abf 5ac8 233f 9f42 66bf bd7c b3bf
00000380: 5886 dfbe 0d69 fc3e 9388 1d3f b343 113f
00000390: e089 653e ebe0 d33e b220 0a3f fe96 88be
000003a0: 15ed bcbe 8974 9dbe 75ba 883d cf91 bdbd
000003b0: 10c4 3cbe fa57 0cbe d8c3 b83d ea39 053e
000003c0: e764 3dbe be66 dcbe 911c 8ebe babf 2bbf
000003d0: c7a5 a53d 4b3d 5dbe 6969 8fbe dce6 3e3e
000003e0: 3b96 393e aaa6 163f f593 913e 8ffa ffbc
000003f0: 4810 5dbf 8f02 f43d a90d db3d 0269 ddbe

layer1.0.bias f4 [64]
1.0087557 0.21596728 -0.018777626 -0.20340395 0.103001736 -0.1491957 -0.15112643 0.26505023
0.25351644 -0.14743531 0.11082481 -0.85811126 -0.25762084 -0.035877246 -0.044884827 -0.16612321
0.15082963 -0.035204582 0.054811414 -0.2576602 -0.6014487 0.16803983 -0.10013519 0.2729647
-0.08769481 -0.12937203 0.0481775 0.7527347 0.13870135 -0.065372355 -0.14840801 -0.06659124
0.31235003 0.23897515 0.049689215 0.38195246 -0.35414866 -0.83745325 -0.19064346 0.07463265
0.17503904 -0.015786089 -0.015763292 -0.47583917 -0.09359474 -0.61244506 0.10954648 -0.032013256
0.033447914 0.03670423 0.07621082 0.04872123 0.26504397 -0.035220183 0.05626612 -0.03513053
-0.71147615 0.12373054 0.07590196 -0.18226577 -0.09661241 0.085616924 -0.34274766 0.09548137
00000000: e81e 813f 8726 5d3e 89d3 99bc 2049 50be
00000010: 93f2 d23d c2c6 18be e3c0 1abe aab4 873e
00000020: e8cc 813e 48f9 16be 1ef8 e23d 2ead 5bbf
00000030: e1e6 83be 05f4 12bd 27d9 37bd 341c 2abe
00000040: 1573 1a3e ae32 10bd ef81 603d 0aec 83be
00000050: 8bf8 19bf a212 2c3e ae13 cdbd 07c2 8b3e
00000060: 5699 b3bd 1a7a 04be c555 453d 39b3 403f
00000070: ba07 0e3e f1e1 85bd 45f8 17be fd60 88bd
00000080: 58ec 9f3e e7b5 743e eb86 4b3d 468f c33e
00000090: f952 b5be 5663 56bf 0a38 43be 01d9 983d
000000a0: 6f3d 333e d451 81bc 0522 81bc 31a1 f3be
000000b0: 99ae bfbd 33c9 1cbf e859 e03d 5520 03bd
000000c0: ae00 093d 2d57 163d 6b14 9c3d ea8f 473d
000000d0: d8b3 873e 0a43 10bd 4e77 663d 08e5 0fbd
000000e0: 4d23 36bf 7066 fd3d 7d72 9b3d e1a3 3abe
000000f0: badc c5bd ed57 af3d 9f7c afbe bd8b c33d

layer1.1.weight f4 [64]
3.134765 0.7095731 0.71240896 0.62892896 0.38878956 0.85484624 0.6678351 0.5476126
0.88349307 0.26219186 0.9091907 1.634132 0.5392199 0.43272614 0.18837893 0.8205013
0.47721612 0.8214466 0.26396352 0.6998707 0.65941215 0.69612384 0.7168869 2.134063
0.5491866 0.85055137 0.89901394 2.6836936 1.0156425 0.6769564 0.30336165 0.8145653
1.7344935 0.64593095 0.60510206 0.61884147 1.0371883 0.6891035 0.81171155 0.7389327
0.47777358 1.3116504 0.6793862 1.5001842 0.83637434 0.5764247 0.8746466 0.5856691
0.35763884 0.4134424 0.6015428 0.5341383 0.6697665 0.83641 0.08519713 0.7854117
3.5361538 0.65847284 0.85101193 0.74462044 1.5370818 0.7829813 1.1310241 0.62914306
00000000: fd9f 4840 95a6 353f 6f60 363f 7d01 213f
00000010: 6d0f c73e 34d7 5a3f 3ef7 2a3f 5730 0c3f
00000020: 9a2c 623f 033e 863e b9c0 683f 3d2b d13f
00000030: 510a 0a3f 488e dd3e 68e6 403e 600c 523f
00000040: ac55 f43e 534a 523f 3a26 873e ba2a 333f
00000050: 3ccf 283f 2c35 323f e685 373f 7d94 0840
00000060: 7e97 0c3f bcbd 593f c725 663f a3c1 2b40
00000070: 9300 823f 044d 2d3f 3852 9b3e 5a87 503f
00000080: e203 de3f bb5b 253f f8e7 1a3f 656c 1e3f
00000090: 96c2 843f 1669 303f 54cc 4f3f b22a 3d3f
000000a0: bd9e f43e 29e4 a73f 41ec 2d3f 0906 c03f
000000b0: a11c 563f 9290 133f d7e8 5f3f 69ee 153f
000000c0: 701c b73e b9ae d33e b5fe 193f 4abd 083f
000000d0: d175 2b3f f71e 563f d57b ae3d be10 493f
000000e0: 5850 6240 ad91 283f ebdb 593f 729f 3e3f
000000f0: 19bf c43f 7671 483f 66c5 903f 850f 213f

layer1.1.bias f4 [64]
0.006943605 -0.93731 -0.53094906 -0.114852205 0.64578 -0.6548221 -0.36105472 0.5783443
0.16013072 0.09689731 -0.19235317 -0.05048047 -0.7569164 -0.54316396 -0.447934 -0.8199308
0.3186222 -1.0630724 2.2997432 -0.27856067 0.032208692 -0.62290037 -0.6462014 0.50133705
0.34300616 -1.0411551 0.00021561867 1.2186329 0.7566338 0.80193406 -0.44774485 -0.6864585
0.40994212 0.6592448 -0.86898124 0.25015292 0.6568757 0.72779083 -0.7421947 -0.52404946
1.1852521 0.76618904 -0.4157567 0.50383645 -0.80526257 0.5849306 -0.49208608 -0.18199956
-0.4759787 0.5364697 -0.8491103 0.09261347 -0.53271043 -0.5875335 0.18249491 -0.7234231
-0.06932528 -0.9470587 -0.47934237 -1.0081892 0.28824046 -0.2774231 0.9225183 0.23464079
00000000: 2e87 e33b 8cf3 6fbf 47ec 07bf a237 ebbd
00000010: d751 253f 6ca2 27bf 2adc b8be 5f0e 143f
00000020: 4ff9 233e 1972 c63d 3bf8 44be 9cc4 4ebd
00000030: 46c5 41bf cb0c 0bbf 9b57 e5be fce6 51bf
00000040: 7322 a33e c212 88bf fe2e 1340 819f 8ebe
00000050: 43ed 033d 6676 1fbf 746d 25bf a057 003f
00000060: 819e af3e 9244 85bf b217 6239 2afc 9b3f
00000070: c1b2 413f 8d4b 4d3f d03e e5be bfbb 2fbf
00000080: efe3 d13e 44c4 283f 8e75 5ebf 0b14 803e
00000090: 0229 283f 8050 3a3f 7900 3ebf 1b28 06bf
000000a0: 57b6 973f f724 443f 10de d4be 6dfb 003f
000000b0: b025 4ebf 03be 153f b5f2 fbbe 185e 3abe
000000c0: 7bb3 f3be 1456 093f 4b5f 59bf 22ac bd3d
000000d0: b65f 08bf 9868 16bf f2df 3a3e 4232 39bf
000000e0: 6afa 8dbd 7072 72bf 5d6c f5be 580c 81bf
000000f0: 4194 933e 670a 8ebe 292a 6c3f ad45 703e

layer1.1.running_mean f4 [64]
0.97532654 0.32644424 -0.12001464 0.0044952226 1.6090482 -1.3617394 -0.77840364 0.5188208
-0.16523744 -0.11929489 -0.85057104 -0.8815251 -0.4295436 -0.5586319 0.2449067 -0.3464363
-0.17477052 -0.14082351 1.6113759 -0.2627821 -0.6560949 0.5801073 -0.09413265 0.32161117
-0.4789496 -1.0561038 -0.7352365 0.6209808 0.05267366 0.77136403 0.09132332 -0.8341653
0.37788746 0.43219197 0.29607302 -0.04211357 -0.85509664 -0.5752456 -1.0458083 -0.19089513
0.2786066 -1.121129 -0.75914055 -0.45273852 0.5948848 -0.37318867 -0.39133766 -0.11967227
-0.22191302 0.42269313 0.25776324 0.17730017 -0.0059820674 -0.5675579 1.1866636 -0.24041139
-0.73022014 -0.12596728 0.10222351 -0.23063327 -0.26289234 0.06345316 -0.3133113 0.21838072
00000000: 00af 793f b323 a73e 3cca f5bd a94c 933b
00000010: 4bf5 cd3f 7a4d aebf 7645 47bf 71d1 043f
00000020: 0134 29be e150 f4bd 06bf 59bf a1ab 61bf
00000030: 24ed dbbe 8002 0fbf d2c8 7a3e 1960 b1be
00000040: 0bf7 32be 0a34 10be 9141 ce3f 608b 86be
00000050: d6f5 27bf e981 143f 9ec8 c0bd 38aa a43e
00000060: e238 f5be 692e 87bf 7638 3cbf 99f8 1e3f
00000070: 56c0 573d 1d78 453f b907 bb3d db8b 55bf
00000080: 777a c13e 4448 dd3e e296 973e 477f 2cbd
00000090: 9de7 5abf 4c43 13bf 0cdd 85bf 037a 43be
000000a0: 86a5 8e3e 2881 8fbf 0957 42bf 58cd e7be
000000b0: 5f4a 183f 9612 bfbe 695d c8be bc16 f5bd
000000c0: 2b3d 63be 3c6b d83e 8bf9 833e 2d8e 353e
000000d0: 3805 c4bb 794b 11bf 98e4 973f 672e 76be
000000e0: b5ef 3abf 91fd 00be 8f5a d13d 212b 6cbe
000000f0: d399 86be bbf3 813d 576a a0be 329f 5f3e

layer1.1.running_var f4 [64]
3.5277045 0.9732626 23.114716 16.310228 17.568214 11.607805 10.161985 0.39880055
4.4718776 1.3606894 8.5755205 0.9472964 12.471429 2.450484 4.325915 2.111825
13.340061 6.6798444 20.06143 0.6155126 0.37351725 2.9695566 19.576048 2.5336366
1.4101844 5.0403585 6.1391315 6.153892 2.5661037 6.8742633 1.5156276 4.0144243
0.84818053 0.533231 3.367038 5.4306464 1.9528949 0.7524962 6.299972 5.4001155
5.504298 6.1050353 4.7952104 0.24751958 9.650874 2.850466 3.1499085 1.4152895
0.7726475 0.70123464 1.6907507 8.0597725 2.83133 2.4629424 9.010366 2.3661273
4.825875 5.3246007 2.2016306 2.8956318 3.1970587 1.0003024 3.850092 0.9500906
00000000: e9c5 6140 bd27 793f f0ea b841 597b 8241
00000010: b48b 8c41 92b9 3941 7e97 2241 962f cc3e
00000020: 9f19 8f40 122b ae3f 5535 0941 0482 723f
00000030: f98a 4741 bbd4 1c40 e56d 8a40 2428 0740
00000040: e470 5541 49c1 d540 cf7d a041 3c92 1d3f
00000050: a73d bf3e 370d 3e40 bf9b 9c41 1a27 2240
00000060: ec80 b43f 9e4a a140 c473 c440 afec c440
00000070: 0b3b 2440 f7f9 db40 1600 c23f 2a76 8040
00000080: 5c22 593f d481 083f 8d7d 5740 dbc7 ad40
00000090: 76f8 f93f 97a3 403f 5f99 c940 bfcd ac40
000000a0: 3623 b040 735c c340 5d72 9940 c675 7d3e
000000b0: fb69 1a41 096e 3640 1a98 4940 3528 b53f
000000c0: 3acc 453f 1d84 333f 856a d83f d4f4 0041
000000d0: 8334 3540 d9a0 1d40 762a 1041 a16e 1740
000000e0: 916d 9a40 2163 aa40 84e7 0c40 0852 3940
000000f0: 9c9c 4c40 e909 803f e867 7640 2339 733f

layer2.0.weight f4 [64, 64, 3, 3]
-0.12094672 -0.027104978 0.0069586285 0.083134346 -0.3949912 -0.5870283 0.18793945 0.219556
0.25047407 -0.40819415 -0.21739107 -0.16308513 -0.34526187 -0.16832544 -0.087666266 -0.36818093
-0.18396541 -0.14793365 -0.09563861 -0.1482662 -0.09319803 -0.2826609 -0.28870866 -0.14198633
-0.33038142 -0.34071955 -0.16182145 -0.029391563 -0.12330516 -0.085966885 -0.27594268 -0.35293
-0.18584768 -0.30028433 -0.3171451 -0.15217526 0.06536013 -0.17247815 -0.06986009 -0.25099343
-0.50923073 -0.42698 -0.16908982 -0.35414925 -0.26612002 -0.011640072 0.011836177 0.10536058
0.02319699 -0.0075023635 0.15872699 0.08221292 0.28964147 0.22863773 -0.09050175 -0.036989428
0.107217014 0.1941113 0.58154625 0.67638123 -0.045098238 0.16139542 0.25968868 -0.05918258
-0.09178926 -0.14856431 0.027627414 -0.051815357 -0.08895841 0.26568666 0.2652758 0.29279938
-0.13129939 0.029182095 0.3737138 0.21764946 0.6567681 0.9478117 -0.5963549 -0.25891325
-0.11201341 -0.07992964 0.20491873 0.370107 0.07186309 0.048694804 0.016576655 0.009363266
0.15349886 0.17271176 -0.41744167 -0.049108353 -0.04840978 -0.0070526837 0.71599716 0.70754755
-0.097550005 0.50553715 0.35526085 0.009065136 0.082248166 -0.25999734 -0.47159615 -0.055402614
-0.04815594 -0.659175 -0.70771307 -0.5202468 -0.52810746 -0.47580567 -0.47396225 -0.53660697
-0.46520835 -0.3564202 -0.53503287 -0.43574834 -0.33583277 -0.795468 -0.38010222 -0.32311586
-0.59597313 -0.27995607 -0.17422263 -0.710069 -0.37732935 -0.33926287 -0.112789825 -0.18003719
-0.09199203 -0.10809415 -0.14748925 -0.17512205 -0.12284291 -0.09138039 -0.06550406 -0.050583754
0.01224914 0.15932795 0.064806506 0.1861599 0.34561104 -0.078942694 -0.010866488 0.08945043
-0.76024544 -0.521534 -0.46472946 -0.5852463 -0.16689903 -0.17046621 -0.5238868 -0.25036126
-0.33228996 -0.088343106 -0.13126265 -0.15898223 -0.23661421 -0.23100004 -0.15205312 -0.2268146
-0.30348536 -0.18908972 0.19357179 -0.057383414 0.08052127 -0.11075544 -0.38393226 -0.29007685
-0.0061571915 -0.29325157 -0.2059055 -0.32844776 -0.30323046 -0.063140154 0.12767453 0.22840568
0.37187213 -0.1405754 0.08462222 0.13581738 -0.3245077 -0.06134508 0.21182758 -0.28327867
-0.009281403 0.41323534 -0.45686114 -0.37610853 -0.232125 -0.29183608 -0.30310482 -0.1979779
-0.38494784 -0.2502508 -0.060580928 -0.28002074 -0.2262154 -0.091010965 -0.036367882 -0.06219172
-0.016450033 -0.1389357 -0.15447862 -0.03908426 -0.15416479 -0.19928147 -0.06042387 -0.41137612
-0.04532151 0.3702202 0.059443466 0.3342647 -0.08312988 -0.67885417 -0.6083427 -0.7083496
0.07322709 0.13626283 0.39263567 0.14842293 0.47721407 0.63519853 -0.65739447 -0.5653037
-0.6927444 -0.052219715 0.04179909 0.09204445 0.0021117702 0.001641762 0.054878883 0.030409167
-0.09962082 -0.12759973 -0.08546491 0.28012162 0.21900746 0.16007648 0.79095286 0.6845895
0.37770718 0.88423824 0.6624656 -0.48880726 0.55521876 0.8495554 -0.58660513 -0.19991674
-0.09931269 -0.04028774 0.27264613 0.7828588 -0.452761 -0.25667712 0.40125078 0.62848026
00000000: eab2 f7bd 420b debc 3505 e43b 5742 aa3d
00000010: 493c cabe 7d47 16bf 3373 403e 4ad3 603e
00000020: 233e 803e d3fe d0be c49b 5ebe caff 26be
00000030: 2ac6 b0be 815d 2cbe 5f8a b3bd 3682 bcbe
00000040: 6e61 3cbe eb7b 17be 2dde c3bd 18d3 17be
00000050: 9cde bebd eeb8 90be 9fd1 93be dd64 11be
00000060: c127 a9be cb72 aebe 86b4 25be 93c6 f0bc
00000070: 6a87 fcbd 680f b0bd 5c48 8dbe 3eb3 b4be
00000080: db4e 3ebe debe 99be d860 a2be d5d3 1bbe
00000090: 88db 853d 1d9e 30be cf12 8fbd 3682 80be
000000a0: f25c 02bf 1f9d dabe e225 2dbe 0d53 b5be
000000b0: e240 88be 00b6 3ebc 86ec 413c 4ac7 d73d
000000c0: 9d07 be3c 63d6 f5bb 5489 223e 3f5f a83d
000000d0: e34b 943e 0220 6a3e fb58 b9bd 3a82 17bd
000000e0: 9894 db3d 1dc5 463e 37e0 143f 5227 2d3f
000000f0: eeb8 38bd d744 253e eaf5 843e 6f69 72bd
00000100: 02fc bbbd 3e21 18be e352 e23c 573c 54bd
00000110: d42f b6bd 1508 883e 3bd2 873e cde9 953e
00000120: 5973 06be 4a0f ef3c 6a57 bf3e 80df 5e3e
00000130: f421 283f caa3 723f b7aa 18bf 4790 84be
00000140: 4967 e5bd 27b2 a3bd 37d6 513e aa7e bd3e
00000150: f52c 933d 3474 473d c4cb 873c 6268 193c
00000160: ce2e 1d3e 5adb 303e eaba d5be d725 49bd
00000170: 5549 46bd 331a e7bb 974b 373f d621 353f
00000180: 4cc8 c7bd e26a 013f c0e4 b53e f085 143c
00000190: ba71 a83d 5f1e 85be 0d75 f1be daed 62bd
000001a0: 2a3f 45bd b1bf 28bf af2c 35bf e52e 05bf
000001b0: 0d32 07bf cd9c f3be 2eab f2be 135f 09bf
000001c0: ca2f eebe b57c b6be eaf7 08bf 681a dfbe
000001d0: 46f2 abbe caa3 4bbf c29c c2be 716f a5be
000001e0: b291 18bf 6756 8fbe 6b67 32be 15c7 35bf
000001f0: 5031 c1be ddb3 adbe 5afe e6bd ab5b 38be
00000200: 5166 bcbd 7760 ddbd 6c07 17be 3253 33be
00000210: 1095 fbbd a425 bbbd fe26 86bd e930 4fbd
00000220: 9eb0 483c de26 233e 46b9 843d b3a0 3e3e
00000230: eef3 b03e b5ac a1bd 5b09 32bc c931 b73d
00000240: 729f 42bf 4183 05bf 05f1 edbe b4d2 15bf
00000250: 94e7 2abe b28e 2ebe 721d 06bf 5a2f 80be
00000260: e921 aabe 3bed b4bd b769 06be 3dcc 22be
00000270: ff4a 72be 468b 6cbe d0b3 1bbe 1642 68be
00000280: 6f62 9bbe bca0 41be af37 463e df0a 6bbd
00000290: 56e8 a43d c0d3 e2bd c592 c4be f484 94be
000002a0: 44c2 c9bb 1225 96be e4d8 52be 4e2a a8be
000002b0: 0641 9bbe a04f 81bd 1dbd 023e 2ee3 693e
000002c0: 0666 be3e fff2 0fbe 6a4e ad3d b613 0b3e
000002d0: e025 a6be fb44 7bbd 54e9 583e e709 91be
000002e0: 0711 18bc 9593 d33e b4e9 e9be 4c91 c0be
000002f0: 2db2 6dbe 8a6b 95be 8e30 9bbe b8ba 4abe
00000300: e217 c5be df20 80be b523 78bd e15e 8fbe
00000310: 03a5 67be f563 babd 7df6 14bd bfbc 7ebd
00000320: 38c2 86bc 2945 0ebe a52f 1ebe d116 20bd
00000330: 60dd 1dbe 7110 4cbe 057f 77bd e49f d2be
00000340: 0ca3 39bd 818d bd3e fe7a 733d be24 ab3e
00000350: 0040 aabd 63c9 2dbf 59bc 1bbf 6656 35bf
00000360: 16f8 953d 7c88 0b3e 8b07 c93e 2efc 173e
00000370: 6755 f43e 5f9c 223f 014b 28bf beb7 10bf
00000380: b257 31bf 57e4 55bd 8635 2b3d cd81 bc3d
00000390: a065 0a3b 6430 d73a aec8 603d a51c f93c
000003a0: 0006 ccbd 81a9 02be 3a08 afbd 1a6c 8f3e
000003b0: 7e43 603e 17eb 233e e37b 4a3f 4241 2f3f
000003c0: d662 c13e 705d 623f 5897 293f f244 fabe
000003d0: d122 0e3f 767c 593f c12b 16bf f9b6 4cbe
000003e0: 7464 cbbd c204 25bd 4698 8b3e 6f69 483f
000003f0: 4ad0 e7be 2f6b 83be be70 cd3e 15e4 203f

layer2.0.bias f4 [64]
0.05224896 -0.027211161 0.0143171465 -0.030694587 -0.0006968343 -0.0028973892 -1.8426894e-05 -0.018416928
0.015607034 -0.027211208 -0.024962574 -0.011076472 -0.06414288 0.027653934 0.03589688 0.051843766
-0.06772297 -0.034101497 -0.11350582 -0.05730341 0.06755921 -0.14955546 0.003017978 -0.012573352
-0.04352393 0.034331847 0.08088198 -0.06054837 0.05485112 0.01140644 -0.009476484 0.026439538
0.05647546 -0.071547836 0.008805056 -0.015896177 0.004570504 -0.0076141036 -0.036193833 0.04440732
-0.05856165 0.05963227 -0.07301027 0.012812867 -0.0102127595 0.008956033 0.08480538 -0.1265265
0.09825428 -0.014977711 -0.02393848 -0.044711567 0.011022461 0.03796629 -0.032194186 0.045457166
-0.06938687 -0.08603851 0.105250634 0.12496278 0.04446278 0.03239771 -0.08986338 0.08861832
00000000: 0103 563d f1e9 debc 7792 6a3c 3773 fbbc
00000010: c2ab 36ba 20e2 3dbb 7493 9ab7 19df 96bc
00000020: a5b4 7f3c 0aea debc 507e ccbc 177a 35bc
00000030: 585d 83bd 818a e23c 9b08 133d 215a 543d
00000040: 57b2 8abd 03ae 0bbd bd75 e8bd fbb6 6abd
00000050: 7c5c 8a3d 1125 19be 45c9 453b 7600 4ebc
00000060: 2646 32bd 8d9f 0c3d 74a5 a53d 9101 78bd
00000070: 91ab 603d 14e2 3a3c 4143 1bbc bb97 d83c
00000080: d052 673d ac87 92bd 1543 103c b338 82bc
00000090: 2bc4 953b bb7f f9bb fc3f 14bd 73e4 353d
000000a0: 57de 6fbd f840 743d 6986 95bd 0fed 513c
000000b0: 6b53 27bc 53bc 123c 71ae ad3d 2a90 01be
000000c0: 8a39 c93d 1365 75bc a21a c4bc 7a23 37bd
000000d0: 8d97 343c 8a82 1b3d 0dde 03bd 4b31 3a3d
000000e0: b41a 8ebd f534 b0bd a58d d73d 7cec ff3d
000000f0: 9b1e 363d 76b3 043d 4b0a b8bd 867d b53d

layer2.1.weight f4 [64]
0.7348399 0.982916 0.9271348 0.9348796 1.3975071 1.278169 1.2606887 0.8366551
1.01214 1.0482498 0.52385175 0.67322147 0.9536101 1.3338989 1.3315926 0.7949035
1.3055204 1.1612844 1.554619 0.69746274 1.9264188 1.2084496 1.4269493 0.61274165
1.0881383 0.6656288 1.0871098 2.0250642 0.6117839 0.92345715 0.6038529 1.2586482
1.1952906 0.81979346 1.4880787 0.70722604 0.9745776 2.0038097 1.3212864 1.0271494
1.1125402 1.2574614 0.55059516 0.51758444 0.8233873 1.5360132 0.71443474 1.8406259
1.5198157 1.1852614 0.7508155 1.701486 0.7090267 0.847764 1.1386641 0.7377923
1.3444662 0.67279947 0.9018225 1.0424842 1.0377945 0.6225224 1.5680903 1.0328757
00000000: 781e 3c3f 62a0 7b3f b558 6d3f 4554 6f3f
00000010: 83e1 b23f 0b9b a33f 3f5e a13f 072f 563f
00000020: ce8d 813f 0d2d 863f 261b 063f 3e58 2c3f
00000030: cb1f 743f 33bd aa3f a071 aa3f cc7e 4b3f
00000040: 4b1b a73f f8a4 943f c1fd c63f eb8c 323f
00000050: e494 f63f 7aae 9a3f 46a6 b63f a3dc 1c3f
00000060: 1e48 8b3f a666 2a3f 6a26 8b3f a79a 0140
00000070: df9d 1c3f b067 6c3f 1b96 1a3f 621b a13f
00000080: 48ff 983f fcdd 513f 5d79 be3f c40c 353f
00000090: eb7d 793f 6b3e 0040 ea1f a93f a279 833f
000000a0: b867 8e3f 7ff4 a03f cef3 0c3f 6a80 043f
000000b0: 83c9 523f 159c c43f 32e5 363f a199 eb3f
000000c0: 5289 c23f a5b6 973f 7235 403f 4bca d93f
000000d0: c682 353f 1007 593f bfbf 913f f5df 3c3f
000000e0: 7817 ac3f 963c 2c3f d7dd 663f 1f70 853f
000000f0: 73d6 843f a15d 1f3f 2fb7 c83f 4535 843f

layer2.1.bias f4 [64]
-0.48445636 -0.8474573 -0.61037946 -0.69691014 -0.37497854 -0.6266325 -0.28417557 0.023471266
0.017526913 0.5707067 -0.77969825 -0.4959855 -0.8700684 -0.36205384 -0.30097303 -1.3777305
-0.54316866 -1.5577682 -0.664564 -0.54531777 -1.2592565 0.72406745 -0.71030825 -0.8335637
-0.3124389 -0.20225602 -0.4454629 -0.6570481 0.18959342 -0.5333338 -0.79553473 -0.7268647
-0.6797746 -0.096754156 0.70280737 -0.115078315 -0.8539923 -1.0658853 -0.60075426 0.3245763
-0.7706195 -1.5611843 0.046645265 0.28759098 -0.18814 -0.4322655 -0.25665572 -0.3611245
-0.521366 -0.5373015 -0.84564 -0.06860291 0.1153928 -0.5518559 -0.7250046 -0.68954843
0.40616718 -0.9964991 -0.26949373 -0.34977052 -0.2938428 -1.1042812 -0.5441673 -0.11462757
00000000: aa0a f8be f6f2 58bf d441 1cbf b468 32bf
00000010: 30fd bfbe fd6a 20bf 767f 91be d046 c03c
00000020: 9a94 8f3c d619 123f 4e9a 47bf d0f1 fdbe
00000030: cdbc 5ebf 1f5f b9be 2319 9abe 7959 b0bf
00000040: 1a0d 0bbf f364 c7bf de20 2abf f299 0bbf
00000050: 512f a1bf 7c5c 393f c3d6 35bf 6e64 55bf
00000060: fef7 9fbe 341c 4fbe b713 e4be 4e34 28bf
00000070: c724 423e 9088 08bf 2aa8 4bbf ce13 3abf
00000080: b505 2ebf 0b27 c6bd 2feb 333f 2eae ebbd
00000090: 3d9f 5abf ee6e 88bf 08cb 19bf dd2e a63e
000000a0: 5247 45bf e3d4 c7bf 1b0f 3f3d 203f 933e
000000b0: c6a7 40be e751 ddbe 6168 83be 4fe5 b8be
000000c0: 3e78 05bf 978c 09bf dd7b 58bf af7f 8cbd
000000d0: 0f53 ec3d 6e46 0dbf e799 39bf 3f86 30bf
000000e0: 25f5 cf3e 911a 7fbf 15fb 89be 1f15 b3be
000000f0: 9072 96be 1659 8dbf 8c4e 0bbf dcc1 eabd

layer2.1.running_mean f4 [64]
-5.910435 -37.32981 -11.288443 -46.391 -36.82848 -38.255165 -19.90837 -10.503032
-19.27681 -31.829819 8.840579 -33.25765 -34.49846 -54.189014 -38.465496 32.908142
-18.392288 3.6968098 -48.859535 -25.000397 -71.43057 -8.2401495 -55.155262 -3.9656982
-28.972675 -17.917171 -25.789457 -17.878687 -9.857442 -22.496609 -11.536719 -27.408875
-55.398502 -22.082434 6.381945 9.388555 -44.109715 -76.507614 -50.259323 -7.863271
-50.317806 -14.170056 -4.0765514 27.971376 -21.57733 -52.84912 -14.274583 -26.315393
-73.149956 -33.42337 -9.945339 -4.4082117 -17.206602 -37.48398 -34.43276 -15.554248
-40.06896 8.3321085 -11.412051 -11.773065 -36.97336 26.860426 -39.67038 3.7553902
00000000: 4922 bdc0 ba51 15c2 769d 34c1 6290 39c2
00000010: 5d50 13c2 4a05 19c2 5744 9fc1 6b0c 28c1
00000020: e836 9ac1 78a3 fec1 0373 0d41 d507 05c2
00000030: 6cfe 09c2 8dc1 58c2 abdc 19c2 f0a1 0342
00000040: 6823 93c1 8898 6c40 2a70 43c2 d000 c8c1
00000050: 74dc 8ec2 a7d7 03c1 fd9e 5cc2 00ce 7dc0
00000060: 0ac8 e7c1 5e56 8fc1 cf50 cec1 8d07 8fc1
00000070: 15b8 1dc1 0ef9 b3c1 6796 38c1 6045 dbc1
00000080: 1198 5dc2 d3a8 b0c1 e538 cc40 8537 1641
00000090: 5970 30c2 e603 99c2 8c09 49c2 eb9f fbc0
000000a0: 6f45 49c2 8db8 62c1 1c73 82c0 61c5 df41
000000b0: 5f9e acc1 8065 53c2 b164 64c1 ed85 d2c1
000000c0: c74c 92c2 88b1 05c2 1c20 1fc1 1210 8dc0
000000d0: 1fa7 89c1 98ef 15c2 25bb 09c2 33de 78c1
000000e0: 9d46 20c2 5150 0541 c397 36c1 795e 3cc1
000000f0: b8e4 13c2 27e2 d641 78ae 1ec2 5058 7040

layer2.1.running_var f4 [64]
381.7254 555.6824 302.0313 634.02563 1258.1937 454.9074 1132.369 292.47598
998.115 1441.7354 85.663345 561.0019 406.5096 1279.4221 884.652 568.88763
658.2286 578.4579 554.88806 278.8062 2450.69 668.1878 960.7544 250.91005
352.1105 380.3475 305.4102 607.0679 221.11732 469.0117 408.8219 1112.9203
823.7302 1051.8883 852.7749 554.91187 438.6115 2821.4368 461.75354 893.6047
1024.4331 311.1414 291.2664 465.24588 279.8795 1012.99457 193.37276 1326.1141
1237.8196 783.2103 187.58907 771.75934 335.05133 678.3157 641.0949 331.80768
886.05255 215.5888 78.88764 82.927025 297.00217 318.2661 481.3857 669.0481
00000000: dadc be43 aceb 0a44 0204 9743 a481 1e44
00000010: 3346 9d44 2674 e343 cf8b 8d44 ed3c 9243
00000020: 5c87 7944 8837 b444 a253 ab42 1f40 0c44
00000030: 3b41 cb43 82ed 9f44 ba29 5d44 cf38 0e44
00000040: a18e 2444 4e9d 1044 d6b8 0a44 3267 8b43
00000050: 0a2b 1945 050c 2744 4830 7044 f9e8 7a43
00000060: 250e b043 7b2c be43 81b4 9843 58c4 1744
00000070: 091e 5d43 7f81 ea43 3469 cc43 731d 8b44
00000080: bcee 4d44 6d7c 8344 9831 5544 5cba 0a44
00000090: 464e db43 fd56 3045 74e0 e643 b366 5f44
000000a0: dc0d 8044 1992 9b43 19a2 9143 799f e843
000000b0: 93f0 8b43 a73f 7d44 6d5f 4143 a7c3 a544
000000c0: 3aba 9a44 76cd 4344 cd96 3b43 99f0 4044
000000d0: 9286 a743 3494 2944 1346 2044 62e7 a543
000000e0: 5d83 5d44 bc96 5743 79c6 9d42 a3da a542
000000f0: 4780 9443 1022 9f43 5fb1 f043 1443 2744

layer3.0.weight f4 [64, 64, 3, 3]
-0.15316272 -0.23806013 -0.52695936 0.099277325 -0.012966053 -0.02922553 -0.6526899 -0.24316432
0.1554058 0.5909133 0.46229854 0.22740956 0.012218559 0.0063045584 0.44378722 -0.3109212
-0.05066469 0.46608713 0.058165554 0.37533972 0.7059157 -0.016456932 -0.4414432 -0.004014379
-0.37872985 -0.28154626 0.4243005 -0.22724286 -0.17359015 -0.14111577 0.025076842 -0.010553283
-0.11940126 0.31798232 0.49522388 0.42304963 0.19733861 -0.32742345 0.7049302 -1.0401429
-1.2861723 -0.29515842 0.3027036 -0.20461607 0.4469587 -0.2956472 -0.15376197 -0.72280633
0.51940674 0.43681243 0.35179693 -0.13636062 -0.6515796 -0.35490438 -0.3432713 0.53890824
0.73663723 -0.60601926 -0.5104366 -0.3339923 0.6487771 0.22054951 0.8296792 -0.09763583
0.11854526 -0.79164964 -0.10220262 0.5044245 0.056468345 -1.3592633 -0.04132803 -0.19373459
0.28247803 -0.12429488 0.37110138 -0.30536857 -0.7981019 -0.15648572 0.41379794 -0.015846716
0.08779536 -0.6850184 0.022244891 0.10660769 -0.6908103 0.08411306 0.08869398 0.16738723
0.87833846 0.5598476 0.3669502 -0.11345654 -0.02925698 0.18849921 -0.23925179 -0.19711359
0.1660259 0.0026748143 -0.07837288 0.26716146 0.13533951 -0.43995297 0.03979124 0.3659657
0.107742645 -0.32298023 0.0050817453 -0.07436348 -0.2739367 0.27529934 0.40466443 -0.28454453
0.095952705 0.51920664 -0.5408444 0.34028864 0.9081584 -0.27495226 -0.86273575 -0.8339519
0.26328278 -0.34939495 -0.110378236 0.7992859 0.21051106 -0.16456585 0.48556715 -0.21607028
-0.4579911 -0.11318703 0.18404207 -0.2561953 -0.49221706 -0.021944124 0.06791056 -0.04181956
-0.42048377 -0.85814565 -0.39657828 -0.60248756 -0.9904536 -0.74523294 -1.1393828 -1.2021369
0.40243146 0.74658304 -0.34181052 0.39539784 0.48699716 0.15922974 -1.0456861 -0.3704386
0.3929114 0.19356944 -0.2023762 -0.5931304 -0.2302423 0.25522774 -0.47529265 -0.7156956
-0.6031303 -1.2218664 -0.16389866 0.3968539 0.3349291 -0.4474567 -0.05735585 0.5268248
-0.9757377 -0.72305346 -0.5626112 -0.0967044 0.16758141 0.3394209 -0.07977417 -0.14460324
-0.003900129 -0.34037367 -0.2622707 -0.026640665 -0.13466458 -0.11587864 0.5487742 -1.5257528
-1.4353892 -0.74510425 0.5451884 -0.5765063 0.46252078 0.4064815 -0.10210848 -0.74904317
1.3014908 0.27207538 -0.21856935 0.23574395 -0.185674 -0.78750426 -0.6053409 -0.47241923
-0.20437957 -0.13077553 -0.18523131 0.181789 0.6109458 0.28367147 0.65677834 -0.62433624
0.052417222 -0.16583316 -0.107311524 0.4517015 -0.30602124 -0.9292217 -0.2673768 -0.8117746
-0.10840287 0.13821043 0.6387773 0.080397904 -0.2776169 0.1899587 -0.821863 -0.7850514
-0.75906837 0.14244716 0.0685391 0.13368481 -0.15220617 -0.1642403 -0.22503643 -0.48604143
-0.2739952 -0.32012758 0.44301078 0.49577016 -0.15282974 0.09073551 0.25875 -0.28005853
-0.43197602 0.15145001 -0.15359917 -2.1879337 -0.9340872 -0.85465086 -1.0723757 0.51278317
0.40762267 -0.4260732 1.1907482 0.9867097 0.16802166 0.59543467 -0.19844116 0.28910452
00000000: b0d6 1cbe 09c6 73be cfe6 06bf e951 cb3d
00000010: 916f 54bc 616a efbc af16 27bf 1100 79be
00000020: b322 1f3e 1846 173f 65b2 ec3e 0dde 683e
00000030: 5a30 483c 7896 ce3b 1438 e33e 1031 9fbe
00000040: c785 4fbd f9a2 ee3e 013f 6e3d 872c c03e
00000050: e4b6 343f b0d0 86bc d804 e2be 0d8b 83bb
00000060: e1e8 c1be d526 90be ea3d d93e 5ab2 68be
00000070: 9ec1 31be a780 10be f36d cd3c ade7 2cbc
00000080: a688 f4bd 94ce a23e fc8d fd3e f699 d83e
00000090: 2213 4a3e 0ca4 a7be 4e76 343f 6723 85bf
000000a0: 4ba1 a4bf 011f 97be f7fb 9a3e e086 51be
000000b0: c5d7 e43e 125f 97be c773 1dbe d609 39bf
000000c0: d7f7 043f e1a5 df3e ba1e b43e 1ea2 0bbe
000000d0: eccd 26bf 07b6 b5be 41c1 afbe e4f5 093f
000000e0: 4294 3c3f 1424 1bbf f9ab 02bf 0a01 abbe
000000f0: 4216 263f bbd7 613e db65 543f 4bf5 c7bd
00000100: dbc7 f23d 8da9 4abf 9b4f d1bd f721 013f
00000110: 5a4b 673d 57fc adbf 9547 29bd 5c62 46be
00000120: f6a0 903e 508e febd 0001 be3e 4559 9cbe
00000130: 6850 4cbf cb3d 20be 53dd d33e f9d0 81bc
00000140: 0ece b33d 5e5d 2fbf eb3a b63c 2255 da3d
00000150: f2d8 30bf 7843 ac3d 30a5 b53d 8f67 2b3e
00000160: cada 603f 2c52 0f3f e6e0 bb3e e75b e8bd
00000170: 56ac efbc f005 413e 6cfe 74be 25d8 49be
00000180: b202 2a3e f04b 2f3b f681 a0bd 63c9 883e
00000190: 7196 0a3e 8441 e1be 24fc 223d db5f bb3e
000001a0: 2da8 dc3d aa5d a5be c584 a63b e14b 98bd
000001b0: 6e41 8cbe 09f4 8c3e 2d30 cf3e d2af 91be
000001c0: da82 c43d baea 043f c774 0abf 503a ae3e
000001d0: 127d 683f 8bc6 8cbe 40dc 5cbf df7d 55bf
000001e0: 00cd 863e e5e3 b2be fc0d e2bd 009e 4c3f
000001f0: 3690 573e f383 28be 429c f83e 8741 5dbe
00000200: cf7d eabe 9ace e7bd 8675 3c3e 082c 83be
00000210: e003 fcbe 2ac4 b3bc b114 8b3d fd4a 2bbd
00000220: a649 d7be 6faf 5bbf 4f0c cbbe a03c 1abf
00000230: 5e8e 7dbf 96c7 3ebf 4cd7 91bf 9fdf 99bf
00000240: 7f0b ce3e 1120 3f3f ca01 afbe 9671 ca3e
00000250: b157 f93e 1f0d 233e 0bd9 85bf 21aa bdbe
00000260: af2b c93e 1137 463e b53b 4fbe 65d7 17bf
00000270: a3c4 6bbe 36ad 823e 8f59 f3be d437 37bf
00000280: bf66 1abf 1e66 9cbf 0dd5 27be 6f30 cb3e
00000290: d47b ab3e 0b19 e5be f8ed 6abd fddd 063f
000002a0: f2c9 79bf 081a 39bf 4a07 10bf f50c c6bd
000002b0: 769a 2b3e 94c8 ad3e a460 a3bd df12 14be
000002c0: 4f99 7fbb 7545 aebe 5848 86be 863d dabc
000002d0: 83e5 09be c851 edbd 777c 0c3f de4b c3bf
000002e0: d5ba b7bf 27bf 3ebf 7891 0b3f eb95 13bf
000002f0: 86cf ec3e 581e d03e 401e d1bd 4bc1 3fbf
00000300: 4097 a63f 774d 8b3e a5d0 5fbe dd66 713e
00000310: 5321 3ebe e199 49bf 9ff7 1abf efe0 f1be
00000320: e148 51be 05ea 05be 47ad 3dbe e526 3a3e
00000330: f266 1c3f 633d 913e a022 283f 80d4 1fbf
00000340: 71b3 563d 2bd0 29be 25c6 dbbd 6b45 e73e
00000350: d1ae 9cbe 79e1 6dbf 9de5 88be 76d0 4fbf
00000360: 5302 debd 0987 0d3e e986 233f a8a7 a43d
00000370: cd23 8ebe 8984 423e 9d65 52bf 21f9 48bf
00000380: 4e52 42bf abdd 113e 3a5e 8c3d ace4 083e
00000390: efdb 1bbe 9c2e 28be f36f 66be 6cda f8be
000003a0: 1949 8cbe c3e7 a3be 4fd2 e23e 96d5 fd3e
000003b0: 667f 1cbe 8ad3 b93d e17a 843e d563 8fbe
000003c0: f62b ddbe b615 1b3e 1a49 1dbe 1b07 0cc0
000003d0: 5720 6fbf 66ca 5abf 9b43 89bf c245 033f
000003e0: ebb3 d03e 4426 dabe 706a 983f 0299 7c3f
000003f0: df0d 2c3e 686e 183f 2934 4bbe 8205 943e

layer3.0.bias f4 [64]
-0.069504924 -0.021834783 0.06105702 0.08815924 -0.039993867 -0.030180275 0.044047087 -0.04865742
0.012748676 0.0240613 -0.04865264 -0.026226405 0.025170619 0.0060985475 -0.0022158413 0.08551992
0.026602436 -0.0201092 0.052680887 0.02057348 0.015615178 -0.023316776 -0.0422794 -0.032206427
-0.03917073 -0.036688846 0.012075686 0.0027508538 -0.06739828 -0.025166824 -0.034270715 0.0074145617
0.029315192 -0.04692982 0.024416186 -0.007171331 -0.07562451 -0.009632421 -0.0058574267 0.06435146
-0.07665632 -0.022491138 0.007957642 -0.022186173 0.053202473 -0.06798626 -0.033147093 0.12615979
-0.078910656 0.006436592 -0.06796231 -0.048422635 -0.029442076 -0.055682324 -0.027146908 0.029690748
0.048439324 0.052707903 -0.031307213 -0.14278452 0.06669099 -0.010712984 -0.058644302 -0.03154516
00000000: 9958 8ebd dcde b2bc ed16 7a3d d58c b43d
00000010: 9cd0 23bd a03c f7bc b86a 343d 014d 47bd
00000020: d3df 503c 341c c53c fe47 47bd c2d8 d6bc
00000030: 9d32 ce3c 53d6 c73b a637 11bb 1125 af3d
00000040: 5aed d93c 0dbc a4bc eac7 573d b789 a83c
00000050: ced6 7f3c d302 bfbc 2a2d 2dbd e3ea 03bd
00000060: 7d71 20bd 0b47 16bd 19d9 453c ab47 343b
00000070: 1c08 8abd a82a cebc 735f 0cbd daf5 f23b
00000080: 6a26 f03c 7c39 40bd 7404 c83c 7cfd eabb
00000090: 06e1 9abd 4dd1 1dbc a8ef bfbb b3ca 833d
000000a0: fdfd 9cbd 563f b8bc c560 023c c7bf b5bc
000000b0: d6ea 593d 613c 8bbd 3fc5 07bd 0830 013e
000000c0: e99b a1bd 0cea d23b d32f 8bbd d056 46bd
000000d0: 8230 f1bc 2613 64bd 3163 debc 033a f33c
000000e0: 5068 463d 3ee4 573d fe3b 00bd 1b36 12be
000000f0: 4995 883d 8385 2fbc 0235 70bd 7f35 01bd

layer3.1.weight f4 [64]
1.5101696 0.60315895 0.989184 1.6665722 1.1194973 0.48307675 0.8160227 1.1038505
1.4694476 1.3790681 0.640509 1.0380096 1.1293572 1.2632409 0.9965196 1.600461
1.27669 1.2877941 1.4887795 1.4060673 1.0726436 1.1496764 0.83483684 1.2083704
0.5013422 1.5226145 1.2535253 1.2814182 0.6817484 1.486705 1.5165614 1.224299
0.859114 1.4096184 1.4812617 1.0613388 1.6028068 1.0444611 1.3148787 1.5136001
1.1523421 1.5870898 0.71660537 1.283495 1.2365912 1.0585016 0.9459179 1.6069344
0.9590574 1.1924503 1.3000892 0.8385377 1.3539448 0.47866285 0.93574893 1.3610728
1.1666625 0.88659966 0.7971163 1.6663947 0.8425048 0.72248185 0.9211732 1.0959214
00000000: 3d4d c13f a068 1a3f 2a3b 7d3f 3d52 d53f
00000010: b04b 8f3f d655 f73e dde6 503f f94a 8d3f
00000020: dc16 bc3f 4e85 b03f 66f8 233f 80dd 843f
00000030: c78e 903f e1b1 a13f e91b 7f3f e8db cc3f
00000040: 946a a33f 70d6 a43f 5490 be3f 03fa b33f
00000050: 634c 893f 9928 933f deb7 553f e2ab 9a3f
00000060: f657 003f 08e5 c23f 8473 a03f 8305 a43f
00000070: 1087 2e3f 594c be3f af1e c23f d4b5 9c3f
00000080: e5ee 5b3f 606e b43f fc99 bd3f f3d9 873f
00000090: c628 cd3f e7b0 853f f24d a83f a6bd c13f
000000a0: f27f 933f c225 cb3f 7373 373f 9049 a43f
000000b0: 9f48 9e3f fb7c 873f ad27 723f 07b0 cd3f
000000c0: c984 753f 36a2 983f 5369 a63f 68aa 563f
000000d0: 104e ad3f 4c13 f53e 3e8d 6f3f a237 ae3f
000000e0: 3255 953f 32f8 623f d00f 4c3f 6c4c d53f
000000f0: 65ae 573f 92f4 383f 02d2 6b3f 2747 8c3f

layer3.1.bias f4 [64]
-0.92715335 -0.6724834 0.12293409 -0.19492185 -0.64726406 -0.6424514 -0.41875166 -0.7795217
-0.5327583 -0.5165108 -0.89274436 -0.7608826 -0.95284384 -0.7043321 -1.0113212 -0.4599203
-1.0737052 -0.7312704 -0.92395884 -0.45925495 -1.0068699 -0.38930947 -0.64636225 -0.82481724
-0.67424613 -0.28297308 -0.7520615 -0.85535014 -0.5198551 -0.23809254 -0.38484892 -0.57503575
-0.8343235 -0.9329983 -0.772801 -1.1232094 -0.85315883 -0.8230299 -0.6402234 -0.492526
-0.065155946 -0.8398141 -0.37632895 -0.6542132 -0.134344 -0.20259394 -0.88243645 -0.53115726
-1.0001297 -1.2536294 -0.50352025 -0.50121105 -0.7917012 -0.8707398 0.08534394 -0.9270333
-0.98851126 -0.70149845 -0.5551782 -0.45511237 -0.27784464 -1.3110389 -0.40504968 0.0020656553
00000000: ec59 6dbf df27 2cbf dec4 fb3d 9899 47be
00000010: 19b3 25bf b277 24bf 9e66 d6be bc8e 47bf
00000020: d962 08bf 0d3a 04bf e58a 64bf 34c9 42bf
00000030: 93ed 73bf 1c4f 34bf f972 81bf ac7a ebbe
00000040: 2c6f 89bf 8934 3bbf 9188 6cbf 7723 ebbe
00000050: 1de1 80bf 9253 c7be ff77 25bf 3927 53bf
00000060: 659b 2cbf d9e1 90be 1a87 40bf 3af8 5abf
00000070: 3915 05bf 88ce 73be eb0a c5be 8b35 13bf
00000080: 3a96 55bf fad8 6ebf 49d6 45bf 53c5 8fbf
00000090: 9e68 5abf 16b2 52bf aee5 23bf 5e2c fcbe
000000a0: 7b70 85bd 0ffe 56bf 30ae c0be 847a 27bf
000000b0: 7991 09be c974 4fbe 5be7 61bf ecf9 07bf
000000c0: 4004 80bf ee76 a0bf b4e6 00bf 5e4f 00bf
000000d0: eeac 4abf cee8 5ebf cec8 ae3d 0e52 6dbf
000000e0: 130f 7dbf 6795 33bf 2920 0ebf 7d04 e9be
000000f0: a741 8ebe 1fd0 a7bf ac62 cfbe f25f 073b

layer3.1.running_mean f4 [64]
-17.807873 -3.180348 -26.55725 -19.934334 -1.5759022 -3.7294552 -14.160571 -9.839358
-12.910989 -4.897552 0.36756152 15.8305435 2.038663 -27.959242 9.773989 -18.764193
-6.330574 -35.08968 -21.194757 -27.233374 -6.2677946 -3.3153121 1.3198175 -13.5601635
-4.426184 -26.34972 -15.474692 -10.988256 -5.1084876 -40.692482 -43.33528 -22.488298
9.070052 -18.324104 -16.223944 -12.373045 -20.059704 17.059319 -11.173539 -30.100704
-32.57062 -8.695217 0.6799404 -4.910457 -49.42237 -4.5198536 -9.679481 -8.986227
-12.357353 -8.790059 -29.39376 2.6325862 5.3278236 -4.104761 -3.0272026 -36.35403
-25.847412 -5.9201317 -7.2984962 -8.784804 2.030836 -0.62687725 -3.6264827 -6.5025806
00000000: 8676 8ec1 d28a 4bc0 3f75 d4c1 8479 9fc1
00000010: 2ab7 c9bf 65af 6ec0 b391 62c1 036e 1dc1
00000020: 6993 4ec1 bfb8 9cc0 0631 bc3e e849 7d41
00000030: 7479 0240 87ac dfc1 4262 1c41 111d 96c1
00000040: 1094 cac0 d55b 0cc2 dd8e a9c1 f3dd d9c1
00000050: c691 c8c0 132e 54c0 c8ef a83f 6ef6 58c1
00000060: 4da3 8dc0 3acc d2c1 5798 77c1 e6cf 2fc1
00000070: bb78 a3c0 1ac5 22c2 5457 2dc2 09e8 b3c1
00000080: ef1e 1141 c497 92c1 a3ca 81c1 fef7 45c1
00000090: 467a a0c1 7c79 8841 d1c6 32c1 3ece f0c1
000000a0: 5148 02c2 9c1f 0bc1 9310 2e3f 7722 9dc0
000000b0: 82b0 45c2 a4a2 90c0 27df 1ac1 96c7 0fc1
000000c0: b8b7 45c1 15a4 0cc1 6c26 ebc1 4b7c 2840
000000d0: 887d aa40 345a 83c0 b0bd 41c0 876a 11c2
000000e0: 80c7 cec1 b871 bdc0 488d e9c0 8f8e 0cc1
000000f0: 38f9 0140 077b 20bf 4b18 68c0 2415 d0c0

layer3.1.running_var f4 [64]
376.72897 146.36432 365.83664 321.80905 173.16658 76.12276 185.51297 135.4777
292.44467 262.8423 115.00664 143.43141 177.72768 306.91006 126.13955 343.4411
171.7525 259.3391 176.01503 438.68417 157.82417 98.79764 106.18067 296.73215
84.7999 365.00198 341.1567 121.68781 140.92747 310.90274 470.4568 278.5808
184.80865 273.88113 261.90356 87.543724 234.17998 106.95795 135.70042 366.64062
224.78561 367.32468 123.13828 179.19945 346.9435 162.5094 179.03593 276.21432
113.70781 118.4284 215.65865 135.14487 357.9401 32.01037 189.2666 229.91782
223.63908 187.9425 164.80339 378.06522 292.80746 90.45636 182.071 263.10492
00000000: 4f5d bc43 445d 1243 17eb b643 8fe7 a043
00000010: a52a 2d43 da3e 9842 5283 3943 4b7a 0743
00000020: eb38 9243 d06b 8343 6603 e642 716e 0f43
00000030: 49ba 3143 7d74 9943 7347 fc42 76b8 ab43
00000040: a4c0 2b43 68ab 8143 d903 3043 9357 db43
00000050: fdd2 1d43 6498 c542 815c d442 b75d 9443
00000060: 8c99 a942 4180 b643 0f94 aa43 2960 f342
00000070: 6fed 0c43 8d73 9b43 783a eb43 584a 8b43
00000080: 04cf 3843 c9f0 8843 a8f3 8243 6316 af42
00000090: 132e 6a43 78ea d542 4fb3 0743 0052 b743
000000a0: 1ec9 6043 8fa9 b743 cd46 f642 0f33 3343
000000b0: c578 ad43 6882 2243 3309 3343 6f1b 8a43
000000c0: 666a e342 57db ec42 9da8 5743 1625 0743
000000d0: 55f8 b243 9e0a 0042 4044 3d43 f6ea 6543
000000e0: 9ba3 5f43 48f1 3b43 abcd 2443 5908 bd43
000000f0: 5b67 9243 a8e9 b442 2d12 3643 6e8d 8343

layer4.0.weight f4 [64, 64, 3, 3]
-0.06831857 -0.33130285 0.18559931 0.31622142 1.2618359 0.42656332 0.07635222 1.0856353
1.19326 -0.23101419 -0.021009102 -0.41281888 -0.36113533 -0.18330158 -0.25627488 -0.3646124
-0.3757324 -0.489449 -0.007501234 -0.738293 -0.28475145 0.6750109 -0.21757343 -0.030385721
0.6223353 0.42130327 0.4441247 0.515663 -0.674029 -0.85218936 0.7768368 0.6039857
0.09288298 -0.36754203 0.34160677 0.09957421 -0.22990622 0.04955121 0.017637432 -1.0569243
0.8295006 0.8813543 -0.64354354 -0.10362408 0.98401994 -0.14307904 -0.23895964 -0.3591995
-0.19803937 -0.22160734 -0.45755643 -0.19217865 -0.096472085 -0.11597323 -0.020189952 0.03725478
0.110968575 -0.5893259 -0.5423344 -0.3528621 -0.34000322 -0.6093086 -0.33373275 0.55238885
0.80791205 0.21200484 -0.7406951 -0.89860106 -0.5451706 -0.5001021 -0.458522 -0.23295818
0.50653493 0.022599315 0.10617585 -0.7742299 -0.056841455 -0.093138546 -0.0012745381 0.5357898
0.13111901 -0.35679418 -0.46277782 -1.1179178 -0.17215732 -0.16723132 -0.42560577 -0.49493214
-0.04510002 0.15869625 0.008094743 0.07005788 0.059563346 -0.39836115 -0.1609049 -0.63471204
-0.07551458 -0.35112938 -0.6672296 -0.76530296 -0.77949053 0.12367248 -0.45026633 -0.40140778
-0.6445662 -0.6266489 -0.08316415 -0.4638054 0.17257829 -0.21889082 -0.1829857 -0.224631
-0.25614354 -0.5288087 0.5614239 0.3118505 0.097934864 -0.16323142 0.1111294 -0.07283534
0.1501891 0.40123558 -0.7266746 0.6499501 0.5043478 0.28574088 -0.4856838 -0.017621286
-0.14528047 0.18493119 -0.31835562 -0.30195254 -0.43715638 0.30741048 0.06506018 0.256015
-0.14283164 -0.043329258 0.7525771 0.7398271 0.12223645 0.1645336 0.71263087 0.9402778
-0.70258534 -0.8357734 -0.715603 0.25845048 0.985923 0.7184863 0.0010881847 0.665407
0.74266595 0.5823912 -0.07097901 0.4612078 -0.42008078 -0.5251519 -0.5876343 -0.20325837
-0.025069622 -0.8159438 -0.35962287 0.38700143 -0.06562067 -0.4224727 0.49766475 1.1227056
-0.79056185 -0.41874787 0.7715601 0.57083434 -0.1943822 -0.5118662 0.31499708 -0.15974355
-0.52442014 -0.08053987 -0.14254273 -0.945846 -0.6622127 -0.9407641 -0.37193242 -1.1142479
-1.40398 -0.37247077 -1.3823795 -0.9814627 -0.78243047 -0.84057313 0.22295782 0.43141487
-0.5691689 -0.5131049 0.9223675 0.4427695 -0.27988577 0.26433772 -0.07429043 -0.060836747
0.29285148 -0.6614698 -0.8513049 -0.657933 -0.023837017 -0.96381927 -0.30654025 -0.016141914
-0.8674337 -0.2436139 -0.52435 -0.8116263 -0.2454571 -0.838844 0.40329367 0.5228327
-0.054834418 0.021331035 -0.15314192 -0.099949144 -0.03573241 -0.1861862 -0.23089823 -0.2407539
-0.18632768 -0.22944288 0.41465944 0.077827275 0.29920605 1.8234944 2.013717 -0.17027453
0.16612428 0.50004417 0.77540576 -0.052535906 0.72933775 0.69614416 0.41460055 0.5351391
0.081644624 0.04963987 0.052969538 -0.34701124 -0.06461456 -0.4496499 -0.62704885 -0.37722623
-0.982589 0.07517684 -0.22002621 -0.77377516 0.08347352 -0.07491458 0.11594031 0.21230282
00000000: 9bea 8bbd 87a0 a9be bf0d 3e3e c6e7 a13e
00000010: d783 a13f 8266 da3e 8d5e 9c3d 19f6 8a3f
00000020: bebc 983f fc8e 6cbe 481b acbc ff5c d3be
00000030: bbe6 b8be 69b3 3bbe 7636 83be 7aae babe
00000040: ff5f c0be 0f99 fabe e9cc f5bb c500 3dbf
00000050: f1ca 91be 84cd 2c3f 92cb 5ebe 7aeb f8bc
00000060: 5e51 1f3f 10b5 d73e 5064 e33e 7e02 043f
00000070: 2a8d 2cbf 1529 5abf c7de 463f cf9e 1a3f
00000080: 6f39 be3d 782e bcbe 15e7 ae3e 90ed cb3d
00000090: 896c 6bbe 36f6 4a3d 607c 903c 4c49 87bf
000000a0: 275a 543f 6fa0 613f 45bf 24bf dd38 d4bd
000000b0: bbe8 7b3f 5083 12be d6b1 74be ffe8 b7be
000000c0: d5ca 4abe 09ed 62be d644 eabe 7bca 44be
000000d0: 2893 c5bd 5f83 edbd 6665 a5bc 7898 183d
000000e0: 7e43 e33d 10de 16bf 6dd6 0abf 57aa b4be
000000f0: e714 aebe a6fb 1bbf 05df aabe 5b69 0d3f
00000100: 53d3 4e3f cc17 593e 329e 3dbf b80a 66bf
00000110: 4d90 0bbf b106 00bf 65c3 eabe 978c 6ebe
00000120: 46ac 013f 3322 b93c b972 d93d ee33 46bf
00000130: 96d2 68bd 6cbf bebd 670e a7ba 8529 093f
00000140: 1044 063e baad b6be 37f1 ecbe ee17 8fbf
00000150: 024a 30be b03e 2bbe 00e9 d9be bf67 fdbe
00000160: ccba 38bd 4581 223e d09f 043c 817a 8f3d
00000170: b2f8 733d fef5 cbbe 41c4 24be 7d7c 22bf
00000180: 63a7 9abd 3bc7 b3be 8fcf 2abf e5ea 43bf
00000190: b18c 47bf ff47 fd3d 4f89 e6be 5285 cdbe
000001a0: 4a02 25bf 106c 20bf f751 aabd e777 edbe
000001b0: 5db8 303e ea24 60be 9a60 3bbe ab05 66be
000001c0: 3f25 83be 0260 07bf 7ab9 0f3f deaa 9f3e
000001d0: 1392 c83d 2326 27be d097 e33d b22a 95bd
000001e0: 2ccb 193e c06e cd3e 5907 3abf 2163 263f
000001f0: f01c 013f a14c 923e 8cab f8be 845a 90bc
00000200: 67c4 14be 9a5e 3d3e 82ff a2be 8699 9abe
00000210: f6d2 dfbe e864 9d3e 463e 853d 6614 833e
00000220: 7542 12be 057a 31bd e5a8 403f 4f65 3d3f
00000230: 1b57 fa3d 7f7b 283e fa6e 363f 0cb6 703f
00000240: a2dc 33bf 3ff5 55bf c231 37bf 9f53 843e
00000250: 7365 7c3f b8ee 373f 6ba1 8e3a 1d58 2a3f
00000260: 5b1f 3e3f 9717 153f 715d 91bd 6e23 ec3e
00000270: d414 d7be 5b70 06bf 346f 16bf f622 50be
00000280: cf5e cdbc b1e1 50bf 7d20 b8be 0d25 c63e
00000290: 2164 86bd 574e d8be eacd fe3e d1b4 8f3f
000002a0: 4362 4abf 1f66 d6be f684 453f 3322 123f
000002b0: 210c 47be aa09 03bf 4c47 a13e d093 23be
000002c0: 6640 06bf 16f2 a4bd b9f6 11be f722 72bf
000002d0: c686 29bf ebd5 70bf ed6d bebe ad9f 8ebf
000002e0: 9eb5 b3bf 7db4 bebe d0f1 b0bf 2441 7bbf
000002f0: 5d4d 48bf cd2f 57bf 0e4f 643e 69e2 dc3e
00000300: 0eb5 11bf d85a 03bf 4720 6c3f afb2 e23e
00000310: 304d 8fbe 4657 873e 9525 98bd f42f 79bd
00000320: a1f0 953e 1656 29bf 1eef 59bf 4c6e 28bf
00000330: d945 c3bc dcbc 76bf d8f2 9cbe 0c3c 84bc
00000340: 2310 5ebf ec75 79be cd3b 06bf bec6 4fbf
00000350: 1b59 7bbe 7bbe 56bf 827c ce3e 5dd8 053f
00000360: 0e9a 60bd 6cbe ae3c 3cd1 1cbe 23b2 ccbd
00000370: 265c 12bd 98a7 3ebe 9670 6cbe 3188 76be
00000380: afcc 3ebe 13f3 6abe 3e4e d43e e863 9f3d
00000390: 8931 993e 4468 e93f bde0 0040 725c 2ebe
000003a0: 7c1c 2a3e e502 003f fe80 463f e42f 57bd
000003b0: e1b5 3a3f 8136 323f 8646 d43e e0fe 083f
000003c0: 4c35 a73d 2d53 4b3d 96f6 583d 75ab b1be
000003d0: a354 84bd 8338 e6be 4686 20bf cc23 c1be
000003e0: f48a 7bbf 51f6 993d 8d4e 61be 2116 46bf
000003f0: 2af4 aa3d d16c 99bd 1d72 ed3d e965 593e

layer4.0.bias f4 [64]
-0.07595552 -0.05248789 -0.09839641 -0.024555504 0.0015538401 -0.012371722 -0.06262885 0.022094315
-0.0063098306 0.06262868 -0.04539446 0.021556158 -0.08286093 -0.12206263 -0.056276884 -0.078404844
0.03536751 -0.013247274 0.056905866 -0.016818635 -0.035759088 -0.019345917 -0.021084867 0.013783648
0.15100648 -0.09335913 0.004126834 -0.0065740594 -0.0070950887 -0.13950804 0.115352735 -0.018264418
-0.050992776 0.021921001 -0.0059458218 -0.10266971 0.020127105 -0.034790028 -0.101868674 -0.07668003
0.0244222 0.018563379 0.011393872 -0.11248057 -0.053968 -0.0733633 0.026866298 -0.015388515
-0.03106164 0.06680978 -0.012910028 -0.01851408 -0.014081162 -0.08040718 0.0103410315 0.012918812
-0.14227894 -0.05596813 0.065506145 0.037453506 -0.050507 0.020379724 -0.010083215 0.01868583
00000000: 918e 9bbd 8bfd 56bd 0f84 c9bd a028 c9bc
00000010: 39aa cb3a c3b2 4abc 8e43 80bd 23ff b43c
00000020: b2c2 cebb 7743 803d 8bef 39bd 8a96 b03c
00000030: feb2 a9bd f9fb f9bd 9782 66bd b892 a0bd
00000040: 86dd 103d 180b 59bc 2016 693d 3cc7 89bc
00000050: 1f78 12bd 547b 9ebc 2cba acbc cfd4 613c
00000060: 71a1 1a3e 1233 bfbd 653a 873b 356b d7bb
00000070: eb7d e8bb 32db 0ebe 0e3e ec3d 439f 95bc
00000080: cddd 50bd ac93 b33c 2bd5 c2bb 7f44 d2bd
00000090: 99e1 a43c fd7f 0ebd 86a0 d0bd 6b0a 9dbd
000000a0: 1111 c83c 3a12 983c 5dad 3a3c 375c e6bd
000000b0: 8d0d 5dbd 7f3f 96bd b616 dc3c 1c20 7cbc
000000c0: fb74 febc 91d3 883d 9584 53bc d7aa 97bc
000000d0: adb4 66bc 85ac a4bd 6e6d 293c 6da9 533c
000000e0: 92b1 11be d63e 65bd 1628 863d d968 193d
000000f0: 6ee0 4ebd 61f3 a63c 1234 25bc 0713 993c

layer4.1.weight f4 [64]
0.7395951 0.21570158 0.6765895 0.60704297 0.7196315 0.1396467 0.85786206 0.75018585
0.7501578 0.80218923 0.6820183 0.73394376 0.8043769 0.7399928 0.8129862 0.18518227
0.6037462 0.6513095 0.8220044 0.6094281 0.21018937 0.7622766 0.8259938 0.6271687
0.5353202 0.6227066 0.90026486 0.732025 0.5742301 0.6934347 0.8682867 0.13379619
0.82044756 0.8061733 0.68737143 0.7245145 0.8325509 0.6244424 0.7028038 0.9708634
0.72044206 0.6589929 0.7917332 0.6580756 0.60304564 0.5614514 0.62337154 0.5875086
0.16750808 0.67897016 0.76735914 0.75550133 0.83857054 0.8138625 0.80822355 0.62831724
0.81716484 0.7315305 0.7065345 0.7915046 0.7270912 0.7971321 0.76698834 0.801596
00000000: 1b56 3d3f e0e0 5c3e f834 2d3f 2b67 1b3f
00000010: c539 383f 8bff 0e3e d99c 5b3f 2e0c 403f
00000020: 570a 403f 465c 4d3f c098 2e3f bde3 3b3f
00000030: a5eb 4d3f 2b70 3d3f dd1f 503f 6ca0 3d3e
00000040: 1c8f 1a3f 38bc 263f e16e 523f 7b03 1c3f
00000050: e23b 573e 8f24 433f 5474 533f 218e 203f
00000060: bf0a 093f b369 1f3f c277 663f fe65 3b3f
00000070: be00 133f f084 313f 0a48 5e3f de01 093e
00000080: da08 523f 6061 4e3f 93f7 2f3f c879 393f
00000090: 0e22 553f 75db 1f3f f3ea 333f 818a 783f
000000a0: e46e 383f c2b3 283f 07af 4a3f a477 283f
000000b0: 3361 1a3f 47bb 0f3f 4795 1f3f f766 163f
000000c0: 3d87 2b3e fdd0 2d3f a671 443f 8968 413f
000000d0: 8fac 563f 4b59 503f bde7 4e3f 66d9 203f
000000e0: b731 513f 9545 3b3f 72df 343f 0ca0 4a3f
000000f0: a622 3a3f d910 4c3f 5959 443f 6535 4d3f
