results/SKDModel-dataset-Conv64F-5-5-Jan-08-2024-18-47-36/checkpoints/emb_func_00040.pth (torch, 463459 bytes, 24 tensors)

layer1.0.weight f4 [64, 3, 3, 3]
000000 9d 03 b6 3d 25 3d fb be 43 e4 15 bf 7d df 00 3f
       0.08887408 -0.49070087 -0.58551425 0.50341016
000010 02 c3 e9 bd 5f 1c 44 bf a6 f3 4b 3f 0b 2f 4d 3f
       -0.11414148 -0.7660579 0.79668653 0.80149907
000020 10 f9 7b be 87 e7 17 be ba ca b2 be 52 46 bf be
       -0.24606729 -0.14834414 -0.34920293 -0.37358338
000030 b8 b0 01 3f 87 95 d1 3d 0e e0 35 bf e2 84 b9 3e
       0.50660276 0.10233598 -0.71045005 0.36234194
000040 10 fc 1f 3f 6a ae ba 3c 1f a3 99 3d 8b 5f a3 be
       0.6249399 0.022788245 0.07501816 -0.3190883
000050 ad 6b 3a 3d e0 20 2a 3d 10 bc 18 3e 63 3f 0c bf
       0.045512844 0.04153526 0.1491549 -0.5478422
000060 a3 c5 c6 3e 71 66 b3 3e 2a ab 7a be 6d 59 8c 3d
       0.3882266 0.35039094 -0.24479356 0.06852994
000070 4c 64 f0 3d 60 88 fa bc c3 50 0a 3d 16 c4 2f be
       0.1173788 -0.030582607 0.033768427 -0.17164645
000080 e4 0b 0f bd 98 38 fe 3d 6d 37 2f bd 71 ea ac ba
       -0.03492345 0.12413138 -0.042777468 -0.0013192428
000090 ea 75 33 3e 72 f8 fc 3d 9a e0 d2 3d 13 9c 64 3d
       0.1752545 0.12352075 0.102967456 0.055812906
0000a0 5f 6b 27 3e b8 a3 93 3e 70 5e 23 3e 09 e1 94 3d
       0.16349553 0.28835845 0.15953994 0.072694845
0000b0 27 c8 25 3e 0b bb 41 be 74 16 23 bd 2d f7 1f be
       0.16189633 -0.18919007 -0.039816335 -0.15621634
0000c0 f1 52 34 be 0a 58 2f 3e a0 cd ba 3c 49 0c a4 3d
       -0.17609765 0.17123428 0.022803128 0.08010156
0000d0 56 f0 7d bd 58 0f d0 3d a9 f3 02 3e 93 eb 66 3e
       -0.06199678 0.101591766 0.12788261 0.22550802
0000e0 4d b4 66 bd 05 fd 42 3e de 94 55 3e e0 52 76 3e
       -0.056324292 0.19041832 0.2085757 0.24055052
0000f0 b5 81 6e bd 05 cb ed 3d a8 fe b9 3d db 06 21 be
       -0.058229167 0.116109885 0.09081775 -0.15725271
000100 78 52 9a be ce b8 cc be 74 63 8f bd 23 83 7e be
       -0.30141044 -0.39984745 -0.07001391 -0.24854712
000110 f7 04 d9 be 19 9a 77 be d3 41 c4 be 09 af ac be
       -0.423866 -0.24179877 -0.3833147 -0.3372729
000120 44 4f af bd e8 96 b9 be 99 20 8f be be 3f bb be
       -0.085600406 -0.36247945 -0.27954558 -0.3657207
000130 a8 f2 fd be 6c a0 0e bf d0 14 cd bd 6a 93 12 bf
       -0.49599195 -0.55713534 -0.10013735 -0.57256186
000140 c0 ef ba be ce 5d c0 3e d5 a1 b2 3e c0 e1 dc 3d
       -0.3651104 0.37571567 0.34889093 0.10785246
000150 ac 59 ad 3e 52 bc c0 3e aa 97 e0 3d 92 dc 6c 3e
       0.33857477 0.37643677 0.109664276 0.23131016
000160 53 14 5d 3e 59 ea 2b be d9 77 cf bd fe d6 7c be
       0.21589784 -0.16788615 -0.10130281 -0.24691388
000170 96 26 07 bf 35 90 0d be 88 cf 49 be 36 e1 dc be
       -0.5279325 -0.13824542 -0.19708073 -0.43140572
000180 02 fa 9a bd 96 d2 b8 be c6 34 79 bd 71 b7 ba be
       -0.075672165 -0.36098164 -0.060841344 -0.3646808
000190 3c fc a5 be 79 ef 1a bf 95 0b 63 be e3 5a 39 bf
       -0.32419002 -0.60521656 -0.22172387 -0.7240431
0001a0 83 df 10 bf 7f ee 83 be 17 72 bd be 87 ca a8 be
       -0.5659105 -0.25767896 -0.37001106 -0.32967016
0001b0 34 3a 4b 3f d7 3b 38 3f d0 de 1d 3f 04 b1 ed 3e
       0.79385686 0.7196631 0.6166811 0.46424115
0001c0 aa 71 3e 3f 11 15 78 3f 86 bb d7 3d 08 7d 45 3f
       0.7439219 0.96907145 0.10533814 0.7714391
0001d0 6c e4 60 3f 78 d2 2c be 68 36 8e 3d 3a 85 11 bd
       0.87848544 -0.16877162 0.06943971 -0.035527445
0001e0 d5 44 77 3c 85 50 92 3d 8b 90 e2 3d 2d 74 55 bc
       0.015092094 0.07144264 0.11062726 -0.013028187
0001f0 a9 ed 0a 3e 3b 32 18 3d b7 ec 78 be d8 3c 8e be
       0.13567223 0.03715728 -0.2430905 -0.27780795
000200 ff 9a e4 be 8e 59 fd be 46 68 d7 be 3f 71 81 be
       -0.44649503 -0.49482387 -0.42071742 -0.25281712
000210 95 03 9f be bf ab 80 be 4d df ef be 5b 33 d5 be
       -0.3105742 -0.25131032 -0.46850052 -0.41640744
000220 4f 01 79 bf a1 57 8c bf 63 cb c7 be ab 72 5e bf
       -0.9726762 -1.0964242 -0.3902236 -0.8689372
000230 fe fb 40 bf 93 a0 92 3e 00 ae b1 be 1d da 51 bd
       -0.7538451 0.28638133 -0.34703064 -0.0512334
000240 bd d5 79 3e 64 c8 1c 3e 22 e9 a4 be 65 24 f8 3d
       0.24397941 0.15310818 -0.32209116 0.12116317
000250 5c 92 43 be 32 d9 a0 bd 04 08 06 3f fe 5f 24 bb
       -0.190988 -0.07853927 0.5235598 -0.002508163
000260 c2 4c 7c 3e 12 b2 3d 3e 14 07 45 3e 66 54 fb 3d
       0.24638656 0.1852496 0.19240981 0.12271957
000270 40 4a 5f 3e d3 5f 86 3e e6 1a b7 3e 3e e7 01 3f
       0.21805668 0.26244983 0.3576271 0.5074347
000280 55 85 d0 3e a1 88 5f 3e c3 a0 b7 3e 07 4d 7b be
       0.40726724 0.21829464 0.3586484 -0.24541102
000290 15 7e fd 3e 47 0f f9 be c1 e9 00 bf 87 76 f7 be
       0.49510255 -0.48644468 -0.5035668 -0.48332617
0002a0 27 f1 bd be fb 2e 7d 3c 93 9f d1 be 90 d5 8f be
       -0.37098047 0.015453096 -0.40942058 -0.28092623
0002b0 ce da 09 bf 33 2e 42 bd 61 37 43 be 4c f1 01 be
       -0.53849494 -0.04740734 -0.19064094 -0.12689704
0002c0 d5 1f f1 be bc 64 24 bf f4 3b 94 3d 75 cb 04 bf
       -0.47094598 -0.6421621 0.07237998 -0.5187295
0002d0 d2 90 e4 3e d6 df ad 3e de f5 df 3e f7 ee 95 3e
       0.4464174 0.33959836 0.4374227 0.29283878
0002e0 cc 31 ff 3e ea 48 ee 3d 52 ee d1 3c 46 60 e7 3e
       0.4984268 0.11635001 0.025626335 0.45190638
0002f0 b7 fc f9 3c d6 3b b7 3d 6d a1 3f 3d b7 5e 68 be
       0.030516012 0.0894696 0.046784807 -0.22692381
000300 5c 7a 91 3e 98 79 bf 3e 20 bf 7a 3d b7 ad 58 3e
       0.28413665 0.37397456 0.061217427 0.21160017
000310 f2 55 41 3e 53 38 a0 3d 6f 7a 84 be 6a 37 aa be
       0.18880442 0.07823243 -0.2587466 -0.33245403
000320 3a 07 88 be 72 bf a0 be f2 81 e1 be c4 57 92 be
       -0.26568013 -0.3139606 -0.44044453 -0.28582585
000330 33 27 e7 3c 75 62 a2 be b4 d6 9a be 5b 98 61 3e
       0.028216934 -0.31715742 -0.3024193 0.22030775
000340 25 0d 80 3d 4b b4 93 3e ce 17 66 3e 4f a4 91 3c
       0.06252507 0.2884849 0.22470018 0.017778544
000350 58 0e 65 3e a9 28 a2 3e 57 af 88 3d 83 af 8c 3d
       0.22368753 0.31671646 0.066740684 0.06869414
000360 46 34 95 3e 49 f8 12 3f 33 72 73 3f ba 8b 67 bf
       0.29141444 0.57410103 0.9509613 -0.9044758
000370 27 a0 1b bf 8c 24 17 3f 03 ba 4e bf 3a fb a5 bf
       -0.6079125 0.5904014 -0.8075258 -1.2967293
000380 1d 8d c3 be 25 4b f3 3e 07 69 1a 3f fd e7 14 3f
       -0.38193598 0.47518268 0.6031651 0.58166486
000390 7a 2b 6a 3e 80 73 ca 3e 65 84 ff 3e f3 39 54 be
       0.22868147 0.39541245 0.49905697 -0.20725231
0003a0 d2 e9 9a be 51 df 85 be cc 7a 91 3d 74 24 9d bd
       -0.30256516 -0.2614694 0.071035 -0.076729685
0003b0 f9 5f fd bd a6 13 0f be 91 d7 92 3d 4a fe e3 3d
       -0.12371821 -0.13972339 0.07170022 0.11132486
0003c0 bd f1 1e be 21 4a c7 be 5a 0d 6e be e7 30 25 bf
       -0.15521903 -0.38923743 -0.2324728 -0.64527744
0003d0 fe ce 99 3d c5 e5 4c be a4 8d 98 be 95 0a 1d 3e
       0.07510184 -0.20009525 -0.29795563 0.15336068
0003e0 47 58 36 3e 08 b5 06 3f 11 88 80 3e b1 23 06 bd
       0.17807113 0.5261998 0.2510381 -0.03274888
0003f0 5a b9 4f bf 08 2d e3 3d 81 01 f2 3d 19 40 da be
       -0.811422 0.110925734 0.11816693 -0.42627028

layer1.0.bias f4 [64]
000000 ac 22 32 3f af e6 5e 3e 54 32 6c bc 80 94 57 be
       0.69584155 0.21767686 -0.014416296 -0.21052742
000010 df a6 92 3d 65 70 25 be 94 10 48 be 36 46 27 3e
       0.071607344 -0.16156156 -0.19537574 0.16335377
000020 96 4f 5e 3e 05 7f 12 be 63 cb 01 3e 79 1e 38 bf
       0.21710047 -0.14306267 0.12675242 -0.719215
000030 ef 78 85 be aa d6 e6 bc 2d e6 37 bd d1 51 3d be
       -0.26068828 -0.028178532 -0.044897247 -0.18488242
000040 27 45 d2 3d 65 9d fa bc a8 20 86 3d c4 77 19 be
       0.10267096 -0.03059263 0.065491974 -0.14987093
000050 41 75 07 bf 5f 58 1e 3e 0d 23 d8 bd 0b bb fe bb
       -0.5291329 0.15463398 -0.105535604 -0.007773762
000060 ab ba 2e bd 46 18 f7 bd 46 e3 6a 3d 5c 47 0c 3f
       -0.04265849 -0.12065177 0.05734565 0.54796386
000070 e8 0b fe 3d 6a 1e 02 be 8b 24 1c be 65 01 a0 bd
       0.12404615 -0.12706915 -0.15248315 -0.07812766
000080 25 38 94 3e 5f 9c 6b 3e ea c7 60 3d 8d f3 c8 3e
       0.28949085 0.2300887 0.054878153 0.39248314
000090 be c7 0c bf 97 63 5a bf 2c f5 49 be d0 10 84 3d
       -0.5499228 -0.8530821 -0.19722432 0.06448519
0000a0 d4 c1 07 3e d7 c6 46 3d 09 83 0b bd fd 9d 08 bf
       0.13257533 0.048529472 -0.03406051 -0.5336607
0000b0 4b a4 04 be ed c8 03 bf 30 05 28 3e 1a 03 ac 3d
       -0.12953298 -0.51478463 0.16408229 0.08399029
0000c0 cf 8d 0a 3d 7a f8 52 3d 48 9b a2 3d 2d aa a5 3d
       0.033826645 0.051506497 0.07939774 0.08089099
0000d0 a2 49 7c 3e 1d 0c 2f 3b aa 09 83 3d 35 2c 11 bd
       0.24637464 0.00267101 0.06398328 -0.03544255
0000e0 70 38 17 bf ee 9e e8 3d 55 5a 71 3d 81 07 36 be
       -0.5907049 0.113584384 0.058924038 -0.177763
0000f0 b8 0d 13 bd 69 83 b7 3d 0c 66 7b be 63 6d 36 3e
       -0.035901755 0.089606114 -0.24550647 0.17815165

layer1.1.weight f4 [64]
000000 87 d3 43 40 a8 d8 32 3f ac 55 34 3f a1 f3 10 3f
       3.0597856 0.6986184 0.70443225 0.5662175
000010 07 47 d6 3e b0 88 58 3f 21 67 35 3f 1b 35 06 3f
       0.41851065 0.8458357 0.7086049 0.5242478
000020 de cf 55 3f 72 0f bd 3e 38 af 63 3f 1b dc c1 3f
       0.83520305 0.36925846 0.8893924 1.5145296
000030 55 b2 11 3f 4f e5 d5 3e 7b 20 51 3e 14 be 4a 3f
       0.5691274 0.4177651 0.20422547 0.79196286
000040 53 a0 07 3f f2 b5 58 3f e1 8a 8d 3e 83 01 2c 3f
       0.5297901 0.84652627 0.2764502 0.67189807
000050 b3 4e 2d 3f f8 b2 2f 3f ed c4 1f 3f ba a7 09 40
       0.6769821 0.6863246 0.6240986 2.1508622
000060 70 f0 01 3f fe 1d 5c 3f 37 67 63 3f 90 64 28 40
       0.50757504 0.85983264 0.8882937 2.6311378
000070 c0 e1 79 3f 9e f1 20 3f 2d 7c b0 3e f5 84 4b 3f
       0.9761009 0.6286868 0.3446974 0.7949975
000080 f6 27 d5 3f 30 9f 23 3f 7c f7 1e 3f a2 27 15 3f
       1.665282 0.63914776 0.6209638 0.582636
000090 97 c8 7e 3f 8b e6 38 3f 1a b2 59 3f 2d c9 36 3f
       0.99524826 0.7222678 0.85037386 0.7140072
0000a0 9a c4 e9 3e 4e 63 a3 3f b7 04 36 3f 1d 3c c0 3f
       0.45657808 1.276468 0.71100944 1.5018345
0000b0 86 69 51 3f bc 29 0e 3f c0 12 5c 3f 1d 33 18 3f
       0.8180164 0.5553243 0.8596611 0.5945299
0000c0 c3 63 a2 3e 12 ea eb 3e 3e bf 1a 3f 94 e2 ff 3e
       0.31716737 0.4607702 0.6044806 0.49977553
0000d0 a2 4f 1e 3f 87 5f 6e 3f ab 18 01 3e d2 4b 4f 3f
       0.6184026 0.93114513 0.12607066 0.8097507
0000e0 8b 8e 60 40 18 c5 32 3f 65 6d 5c 3f 8c 91 29 3f
       3.5087001 0.6983199 0.8610442 0.6623771
0000f0 e7 5e bb 3f a6 49 5d 3f 06 53 90 3f 29 88 24 3f
       1.4638337 0.86440504 1.1275337 0.64270264

layer1.1.bias f4 [64]
000000 99 ab ca bd de 2f 68 bf d3 d2 02 bf b8 ee 12 be
       -0.09896011 -0.9069804 -0.5110294 -0.14348876
000010 fd 9a 0a 3f 09 4b 29 bf 4d c3 8e be 35 93 13 3f
       0.54142743 -0.6613012 -0.27883378 0.57646495
000020 06 59 7c 3e 22 58 5f 3d 18 24 7e be ac 96 de bb
       0.24643335 0.05452741 -0.24818456 -0.006792864
000030 d4 ca 34 bf bf 2a 01 bf 31 cd df be e0 c0 48 bf
       -0.7062199 -0.5045585 -0.43711236 -0.78419304
000040 c4 6d 9a 3e a8 2d 79 bf ad 0f 02 40 47 0b 60 be
       0.3016187 -0.9733529 2.0322068 -0.21879302
000050 ec 03 b4 3d a3 e0 1a bf b2 c1 33 bf cf 65 04 3f
       0.087898105 -0.6049902 -0.7021743 0.5171785
000060 fa 37 b5 3e 82 45 80 bf 09 06 43 bd 88 48 9a 3f
       0.3539427 -1.0021212 -0.047613177 1.2053385
000070 1c 93 3f 3f ef 04 48 3f 7a bc c6 be 48 dd 33 bf
       0.74833846 0.7813253 -0.3881567 -0.70259523
000080 c5 70 03 3f b2 cd 2c 3f 11 72 55 bf 8c 2e a4 3e
       0.5134395 0.67501366 -0.83377177 0.32066762
000090 5d 06 37 3f 17 5e 20 3f 6b 4d 1f bf 1e ea 07 bf
       0.71494085 0.6264357 -0.62227505 -0.5309161
0000a0 7e f6 8e 3f ab 0a 4d 3f 68 39 bf be 9e 25 1f 3f
       1.1168973 0.80094403 -0.37348485 0.62166774
0000b0 5f 03 45 bf 95 69 13 3f 56 3f ff be c2 cf 1a be
       -0.7695827 0.5758298 -0.4985301 -0.15118316
0000c0 18 7e d6 be b7 07 bd 3e 0d 31 4f bf a2 8f 11 3e
       -0.41893077 0.36919948 -0.8093422 0.14214948
0000d0 58 a4 0b bf d6 e8 0f bf 7c 3d c7 3d 68 16 2c bf
       -0.54547644 -0.56214654 0.09728524 -0.6722169
0000e0 06 b4 9a bd 73 b0 56 bf 39 53 d0 be 61 07 83 bf
       -0.07553868 -0.8386299 -0.40688494 -1.0236627
0000f0 25 f3 c0 3e 8b f4 56 be 29 38 60 3f c5 60 8a 3e
       0.37685505 -0.20991723 0.87585694 0.27026954

layer1.1.running_mean f4 [64]
000000 6c 32 31 3f 95 51 ac 3e d3 30 28 be 66 0d 00 be
       0.6921756 0.33655992 -0.16424875 -0.12505111
000010 a1 d6 cb 3f 38 fa 9d bf cc ae 30 bf b3 52 ce 3e
       1.5924875 -1.2341986 -0.6901672 0.4029747
000020 b3 c4 4c be e8 19 e6 bd b2 f5 44 bf 9f 30 3d bf
       -0.1999691 -0.1123541 -0.769374 -0.73902315
000030 17 63 da be 09 35 e7 be ba d9 83 3e e0 2e b3 be
       -0.42653725 -0.4515765 0.2575205 -0.349967
000040 34 f3 78 be bd 60 07 be 0a e0 ce 3f 40 d2 8c be
       -0.24311525 -0.13220496 1.6162121 -0.27504158
000050 ad 3e 26 bf 9d 07 14 3f db 53 6a bd dc 57 2f 3c
       -0.64939386 0.57824117 -0.057208877 0.0107021
000060 62 94 b5 be d3 2d 80 bf 97 95 3d bf 4f bb d0 3e
       -0.3546477 -1.0013984 -0.7405638 0.40767905
000070 00 cc 64 3d f3 8d 2a 3f 06 19 e3 3d 8b 4f 3c bf
       0.055858612 0.6662285 0.11088757 -0.7355887
000080 be 5a ad 3e e9 d8 ea 3e 7f 7d 67 3e 37 ca 03 bd
       0.33858293 0.45868614 0.22606467 -0.03217527
000090 68 4f 73 bf 6b 0d 22 bf fb 70 77 bf ec 4b 38 be
       -0.9504304 -0.63301724 -0.9665677 -0.17997712
0000a0 88 67 25 3e df 5a 8b bf 6b 97 2c bf 10 21 ff be
       0.16152775 -1.0887107 -0.67418545 -0.49829912
0000b0 13 26 df 3e 53 b3 96 be e9 6c 92 be e3 48 e6 3c
       0.43583736 -0.2943369 -0.28598717 0.028110927
0000c0 d0 61 72 be c1 b8 bf 3e a1 11 d3 3d e6 27 27 3e
       -0.23670125 0.37445644 0.10306097 0.16323814
0000d0 39 51 c3 bc a9 fe 38 bf b0 24 aa 3f 38 cc 3b be
       -0.02384244 -0.7226358 1.3292446 -0.18339622
0000e0 24 bf 1a bf 8d a3 c2 bd 41 84 d2 3d 44 b8 9a be
       -0.6044791 -0.09503851 0.10279132 -0.3021871
0000f0 fc 0a 43 be a2 6d 40 bd 1c 67 64 be c0 25 a2 3e
       -0.19047159 -0.046979554 -0.22304958 0.31669426

layer1.1.running_var f4 [64]
000000 3c 1b 4d 40 e7 98 bb 3f 80 f3 ad 41 20 94 8b 41
       3.2047873 1.4656037 21.743896 17.447327
000010 ed ec 8e 41 7e f3 fe 40 01 b0 b5 40 95 77 b3 3e
       17.865686 7.967223 5.677735 0.3505217
000020 bb 4b 80 40 ec 20 97 3f 11 32 ef 40 8e 32 44 3f
       4.0092444 1.1806922 7.4748616 0.7663964
000030 8c b3 2c 41 62 6c 25 40 9a 60 8b 40 cb c5 d7 3f
       10.793835 2.5847402 4.355542 1.6857237
000040 74 4e 26 41 6d 23 b7 40 b1 3b 9a 41 81 a4 f3 3f
       10.394154 5.7230744 19.279146 1.9034578
000050 13 48 88 3f 8f 55 45 40 e7 b6 85 41 f9 23 21 40
       1.0646995 3.083347 16.714308 2.5178206
000060 7b bb 98 3f f3 26 8d 40 84 fb aa 40 7d a4 b9 40
       1.1932214 4.4110045 5.3432026 5.801329
000070 7c a0 14 40 34 b8 ba 40 33 a4 f7 3f 92 d8 14 40
       2.3222952 5.8349857 1.9346985 2.3257184
000080 89 24 48 3f 53 43 15 3f a0 9b c3 3f 2b a5 a2 40
       0.7818075 0.58305854 1.5281868 5.082662
000090 1d 15 f9 3f a3 56 0c 3f 4e 03 bd 40 25 16 95 40
       1.9459568 0.548197 5.9066534 4.658953
0000a0 db 2d 72 40 5f bc cc 40 04 d8 89 40 32 d1 81 3e
       3.7840488 6.3979945 4.307619 0.25354916
0000b0 b7 b1 9f 40 1a a6 1a 40 18 47 28 40 4c bc 4f 3f
       4.9904437 2.416388 2.6293392 0.81146693
0000c0 fc b7 34 3f 28 10 24 3f 4b f6 a3 3f fb a0 e2 40
       0.7059324 0.6408715 1.2809538 7.082151
0000d0 cf 53 1b 40 59 13 f2 3f 16 0e 61 41 1c 1c da 3f
       2.4269903 1.8912154 14.065939 1.7039828
0000e0 ee 79 92 40 78 ee 8a 40 51 16 f2 3f bc 11 ca 3f
       4.577384 4.34161 1.891306 1.5786662
0000f0 b8 fc 35 40 ed 31 28 40 5b 2d 58 40 77 dd 4e 3f
       2.8435497 2.6280472 3.3777683 0.8080668

layer2.0.weight f4 [64, 64, 3, 3]
000000 4c f3 5f be 83 e5 82 bd 1f de b1 3d 02 31 e8 bc
       -0.21870154 -0.06391432 0.08684944 -0.028343681
000010 1b 12 d4 be 99 17 c6 be 2f 3a 38 3e 27 00 38 3e
       -0.41420063 -0.3868988 0.17990945 0.17968808
000020 7a d5 7d 3e 04 85 d5 be f5 3a 71 be 8e 1d 32 be
       0.24788466 -0.41703045 -0.23557647 -0.17394087
000030 f2 7a a9 be ac 50 31 be 72 c6 aa bd 5d 2a be be
       -0.33101612 -0.1731593 -0.08338632 -0.37141696
000040 86 e9 43 be a1 e7 0b be b0 44 a0 bd 19 0f 0e be
       -0.19132051 -0.13662578 -0.07825601 -0.13872947
000050 c6 5e 83 bd 4b bc 80 be 14 e4 8b be 32 5b f8 bd
       -0.06414561 -0.25143656 -0.27322447 -0.12126769
000060 ec 87 96 be e9 dc a3 be b8 9f 0e be c8 76 40 bc
       -0.29400575 -0.3200448 -0.13928115 -0.01174707
000070 ea ae df bd f2 cd 5d bd 5d fa 7a be ed 34 a3 be
       -0.10922034 -0.054151483 -0.24509569 -0.31876317
000080 81 f7 18 be 93 88 85 be 0f b0 8d be 58 8a f2 bd
       -0.14938165 -0.2608076 -0.27673385 -0.11842793
000090 69 f5 bf 3d 15 69 dc bd 37 00 c7 bc d0 d4 53 be
       0.0937298 -0.1076223 -0.024292095 -0.2068665
0000a0 28 e5 cf be 1f e0 ac be 17 19 f8 bd 4c 79 83 be
       -0.4060452 -0.3376474 -0.121141605 -0.2567848
0000b0 c8 76 2b be 89 b0 4b bd cf 53 9a bc d1 85 30 3e
       -0.1674453 -0.049728904 -0.018838791 0.17238547
0000c0 2c 84 e1 bc 1f e7 9c bd d8 57 3e 3e 1f 98 9d 3d
       -0.027528845 -0.0766127 0.18588197 0.076950304
0000d0 e3 88 6d 3e 08 2f 75 3e b3 07 a3 bd 01 09 33 bd
       0.2319675 0.23943722 -0.07960453 -0.04370976
0000e0 b4 22 fd 3d 8e be 1e 3e f9 14 f6 3e c3 0e 19 3f
       0.12360135 0.15502378 0.48062876 0.5978815
0000f0 8b 48 4f bd 86 64 f8 3d 4b bf 67 3e 7b 95 17 bd
       -0.05060629 0.12128548 0.22631566 -0.03700779
000100 60 c2 96 bd ed 06 a9 bd ad 3b d9 3c 3f 18 62 bd
       -0.07361293 -0.08253274 0.026517713 -0.055198904
000110 47 c8 5e bd 3f d3 81 3e 2a 0a 66 3e 88 e6 8b 3e
       -0.054390218 0.2535648 0.22464815 0.2732432
000120 cd 33 a6 bd 61 db 97 bb 80 76 9f 3e cf 4b 20 3e
       -0.08115349 -0.0046343063 0.31145096 0.15653919
000130 fd 54 08 3f 9e 18 45 3f c3 2d f7 be 1c e6 89 be
       0.5325468 0.7699069 -0.482771 -0.26933372
000140 85 58 d2 bd ca 38 c8 bc da 63 75 3e ef 58 c4 3e
       -0.1027079 -0.024441142 0.23963872 0.383491
000150 96 07 00 3e e2 8e a9 3d ed 3a 4c 3d 3c d7 5d 3d
       0.12502894 0.08279206 0.049860884 0.05416034
000160 48 9a 4c 3e 5a 75 67 3e ef ae e6 be 4f 34 0b be
       0.19980729 0.2260336 -0.4505534 -0.13594173
000170 b1 44 f4 bd 3f 59 a5 bd 2e 0e 14 3f ae f1 0c 3f
       -0.11927164 -0.08073663 0.57834136 0.55056274
000180 4e 35 2c be 34 41 bb 3e c9 29 79 3e 12 52 88 3d
       -0.16817209 0.36573184 0.24332346 0.06656279
000190 79 13 eb 3d f0 36 0d be 30 0d f2 be 02 2e 8f bc
       0.114783235 -0.13790488 -0.47275686 -0.017477993
0001a0 3c f3 19 3e 7d c5 16 bf 8d 24 2a bf fa 74 ae be
       0.15034193 -0.58895093 -0.6646202 -0.3407362
0001b0 b5 52 04 bf 3f 38 f1 be be 34 e9 be f6 68 03 bf
       -0.516887 -0.47113225 -0.45548052 -0.5133203
0001c0 96 c6 ec be df 73 b2 be aa 62 03 bf ba 39 d8 be
       -0.4624526 -0.34854028 -0.51322424 -0.42231542
0001d0 94 e3 9a be b0 a3 2d bf 48 a8 9b be c5 1e 89 be
       -0.30251753 -0.6782789 -0.30401826 -0.26781288
0001e0 52 00 05 bf 5d cb 7e be e6 3e 08 be 3d c1 24 bf
       -0.51953614 -0.24882264 -0.13305244 -0.6435736
0001f0 ad d2 b0 be 15 73 92 be 39 fb e6 bd 32 59 38 be
       -0.34535733 -0.28603426 -0.11278386 -0.18002775
000200 69 5d bc bd a7 54 dd bd 57 01 17 be b7 50 33 be
       -0.09197504 -0.10807162 -0.14746605 -0.17511259
000210 cc 8f fb bd 72 24 bb bd 17 28 86 bd 3d 67 11 bd
       -0.122832865 -0.09137811 -0.06550615 -0.035498846
000220 2e 17 51 3c c0 84 2a 3e 1c e6 85 3d 92 e2 2e 3e
       0.012761874 0.16652203 0.065380305 0.17078617
000230 ac f8 a5 3e a6 3c 69 bd 5f b5 35 bb 73 b2 b9 3d
       0.32416284 -0.056942604 -0.0027726514 0.090672396
000240 e2 82 39 bf 39 4f 00 bf e8 78 e6 be 8e 6c 0c bf
       -0.72465336 -0.50120884 -0.4501412 -0.5485314
000250 e8 4a 22 be fb ac 1f be 8d b6 00 bf 81 cc 77 be
       -0.15848887 -0.1559333 -0.5027855 -0.24199106
000260 6c 0d a1 be aa 16 89 bd f8 51 ef bd 5b c8 06 be
       -0.31455553 -0.06693776 -0.11685556 -0.13162367
000270 68 8e 59 be 92 bd 5a be f5 98 09 be 16 bf 50 be
       -0.2124573 -0.21361378 -0.13437255 -0.20385394
000280 5c 7d 8d be 9b 3d 29 be 02 4c 32 3e fe 7d e1 bc
       -0.27634704 -0.16527407 0.17411807 -0.027525898
000290 ff 3d c3 3d 4f a6 ed bd 15 a8 a1 be ad 6b 68 be
       0.09533309 -0.116039865 -0.3157355 -0.22697325
0002a0 57 16 03 bc d5 2c 6d be 32 23 0f be 93 e3 33 be
       -0.008000932 -0.23161633 -0.1397827 -0.17567281
0002b0 0f ba 3e be b1 b3 34 3c 12 73 0b 3e ea 46 66 3e
       -0.18625663 0.01102917 0.13618115 0.22487989
0002c0 f5 6c a0 3e 75 36 52 bc 15 16 37 3e 62 13 21 3e
       0.31333128 -0.012830366 0.17879517 0.1573005
0002d0 ed 90 a9 be f3 a7 96 bd 1e a4 55 3e b8 9b 5b be
       -0.33118382 -0.073562525 0.20863387 -0.2144612
0002e0 b5 60 0c bb 81 5b d2 3e 0b 38 da be a0 0c aa be
       -0.0021419947 0.41085437 -0.42620882 -0.33212757
0002f0 e5 64 5e be bf 38 94 be c1 b5 95 be d2 59 3f be
       -0.21718176 -0.28949544 -0.2924023 -0.18686607
000300 fc 8d b8 be d5 23 75 be 4a 98 76 bd 0c 75 89 be
       -0.36045825 -0.2393945 -0.060203828 -0.26847112
000310 d6 9d 70 be 63 73 aa bd 15 e7 9e bc a2 0b 4a bd
       -0.2349771 -0.083227895 -0.019397298 -0.0493275
000320 93 1d 8c 3c ae b7 e4 bd 10 93 0d be bc 7f 80 bc
       0.017103946 -0.111678466 -0.13825631 -0.015685908
000330 74 0d f9 bd a6 08 39 be c2 a6 2c bd 98 d1 a8 be
       -0.12160769 -0.18069705 -0.04215122 -0.32972407
000340 82 93 bf bc 40 42 9a 3e c0 3a c5 3d b9 26 89 3e
       -0.023385767 0.3012867 0.09630346 0.26787356
000350 54 b3 cc bd f5 3a 0d bf 11 38 1b bf c4 1b 19 bf
       -0.099951416 -0.55168086 -0.60632426 -0.5980799
000360 9c f6 00 3e 7b d6 2d 3e 25 68 b8 3e 5e 88 0d 3e
       0.12594074 0.16976349 0.36016956 0.13821551
000370 88 25 f1 3e 38 bb 0c 3f 5d ef 05 bf 0a a4 ec be
       0.47098947 0.54973173 -0.52318364 -0.46218902
000380 e4 70 1a bf cd 82 9e bd 06 74 c6 3a cf 53 88 3d
       -0.6032851 -0.07739792 0.0015140779 0.0665661
000390 7b b0 77 bd dc 28 8d bd c2 11 6c 3c 56 78 d8 bc
       -0.06047104 -0.06892559 0.014408531 -0.026424568
0003a0 ed ca f9 bd 02 5a ce bd 0c 54 aa bd 54 a5 57 3e
       -0.12196908 -0.100757614 -0.08316812 0.21059161
0003b0 b9 1f 53 3e 53 a4 ef 3d cd 5d 28 3f a4 2d 18 3f
       0.2061757 0.11701264 0.6576813 0.5944464
0003c0 c3 83 a0 3e 1d 66 3c 3f 6b 14 12 3f b4 0a e5 be
       0.31350526 0.7359331 0.57062405 -0.44734728
0003d0 4c 30 ff 3e 2d 30 44 3f 0e d1 fd be dd 39 56 be
       0.49841535 0.7663601 -0.4957356 -0.2092051
0003e0 65 4a a9 bd f4 d7 03 3d bb 83 95 3e fe 3f 58 3f
       -0.08266143 0.03218837 0.29202065 0.84472644
0003f0 98 bf 87 be c9 5b 01 be 7e 6e c5 3e 43 51 09 3f
       -0.26513362 -0.1263267 0.3856086 0.5363962

layer2.0.bias f4 [64]
000000 69 4d 63 3d d2 8c 02 bd 1c 9d 21 3c 05 7b e2 bc
       0.055493746 -0.031872578 0.009864118 -0.02764655
000010 c2 73 71 3b d9 a3 bd 3a 7a d5 30 bb 38 ea 30 bc
       0.0036842679 0.0014468386 -0.002698271 -0.01079803
000020 1c 92 3b 3c 1b 8d db bc bc 06 e6 bc b7 c4 45 bc
       0.011448409 -0.026800683 -0.028079383 -0.012070826
000030 a1 36 86 bd d4 90 1b 3d 42 26 2c 3d c8 f7 5b 3d
       -0.065533884 0.037979916 0.042028673 0.0537031
000040 c5 b8 5a bd 32 22 1c bd a7 e4 02 be 19 cc 69 bd
       -0.053398866 -0.03811855 -0.12782536 -0.05707941
000050 11 d8 8e 3d a4 a4 e3 bd a1 0d 73 3c 5c 2c 63 bc
       0.06974805 -0.11115387 0.014834792 -0.013865557
000060 11 c8 14 bd a3 66 e0 3c 38 fa 92 3d 61 10 a8 bc
       -0.03632361 0.027392691 0.07176632 -0.020515623
000070 5c 67 34 3d 25 93 ad 3b d7 e6 05 bc 3b ea 3b 3c
       0.044043884 0.005297082 -0.008172712 0.011469419
000080 68 dd 6e 3d 18 ea 9c bd a3 63 39 3d 75 d9 8f bc
       0.05831662 -0.07661837 0.045261037 -0.017559746
000090 71 35 b6 3a d0 db 3e 3c 72 be 4d bd 19 2b 5c 3d
       0.0013901425 0.011649087 -0.05023045 0.05375204
0000a0 46 c5 62 bd 7d eb 70 3d 71 b7 93 bd 80 ae 14 3b
       -0.055363916 0.05881833 -0.07212723 0.0022687018
0000b0 d0 65 11 bc de 1b 85 3a d9 83 98 3d 08 88 06 be
       -0.008874372 0.00101554 0.07447023 -0.1313783
0000c0 68 cc d6 3d 50 15 de bc 81 c4 d1 bc 53 ac 01 bd
       0.10488206 -0.027109772 -0.025606396 -0.03165848
0000d0 fd ab ba bb d7 2a 1f 3d de 66 1e bd fa 81 38 3d
       -0.005696772 0.038859215 -0.03867232 0.04504583
0000e0 76 0b b8 bd 37 20 ae bd 76 2c bb 3d 34 75 fc 3d
       -0.08986561 -0.08502238 0.091393396 0.12327042
0000f0 8b 9b 46 3d 72 cb 06 3d cd 2c c7 bd 2a ed 92 3d
       0.04848818 0.032908864 -0.09725342 0.07174142

layer2.1.weight f4 [64]
000000 69 d8 3d 3f fb df 64 3f dd 72 63 3f 56 89 67 3f
       0.7415834 0.8940427 0.8884714 0.90443933
000010 ba 4f af 3f f5 ad 9e 3f 53 8f a4 3f 58 38 4d 3f
       1.3696206 1.2396837 1.2856239 0.801641
000020 4c 16 89 3f ba d8 82 3f 4c 42 05 3f 47 74 20 3f
       1.070993 1.022239 0.52054286 0.62677425
000030 a3 c1 71 3f 26 df ac 3f 8b 05 9d 3f 1d 7d 56 3f
       0.9443609 1.35056 1.2267317 0.8378466
000040 84 e0 9d 3f 80 6a 87 3f 29 60 c4 3f d7 03 2e 3f
       1.2334142 1.0579376 1.5341846 0.6797461
000050 e6 20 f2 3f 25 f3 9c 3f 42 8a ae 3f 8c 95 15 3f
       1.891629 1.2261702 1.3635943 0.58431315
000060 b7 9e 85 3f a1 fc 1d 3f f3 e4 8e 3f ca 1b 05 40
       1.0439061 0.61713606 1.116362 2.079821
000070 c9 72 02 3f 30 22 60 3f b4 0e 0d 3f 52 6b 99 3f
       0.509564 0.87552166 0.5510056 1.1985877
000080 32 ea 96 3f 98 de 39 3f b9 eb b9 3f 62 16 35 3f
       1.1790221 0.72605276 1.4525062 0.7073728
000090 0e bf 79 3f ff 74 ff 3f d0 09 a1 3f 24 d5 80 3f
       0.9755715 1.9957579 1.258112 1.0065045
0000a0 dc 8e 7f 3f b7 b5 9b 3f b3 92 e9 3e 47 c0 06 3f
       0.9982736 1.216483 0.45619735 0.5263714
0000b0 84 de 4a 3f cf 43 c6 3f f7 95 30 3f ca 2a e7 3f
       0.7924578 1.5489444 0.6897883 1.8059933
0000c0 84 f1 bf 3f a6 42 9b 3f d5 9f 34 3f 59 df e1 3f
       1.499558 1.2129714 0.70556384 1.7646285
0000d0 5d d1 24 3f c5 aa 55 3f 36 51 8e 3f 02 94 27 3f
       0.64381963 0.834637 1.1118534 0.65460217
0000e0 bd 2d a7 3f 90 87 2e 3f 01 ca 63 3f da ef 87 3f
       1.3060833 0.681756 0.8898011 1.0620072
0000f0 93 5b 85 3f 63 bf 13 3f 56 92 cc 3f c0 3a 8a 3f
       1.0418571 0.5771391 1.5982158 1.0799179

layer2.1.bias f4 [64]
000000 72 9a da be 2d c0 54 bf 98 4c 15 bf b6 af 39 bf
       -0.42695957 -0.83105737 -0.5832 -0.7253374
000010 bb db b9 be 98 a2 17 bf 13 f4 67 be c9 a7 44 3d
       -0.36300454 -0.59232473 -0.226517 0.048011575
000020 9c 1d a3 3d 51 6f 23 3f b8 04 47 bf 04 86 df be
       0.07964632 0.6384173 -0.77741575 -0.43656933
000030 4d 0a 47 bf b5 30 9c be 9a c5 96 be 47 ab 9f bf
       -0.7775009 -0.3050591 -0.29447633 -1.2474145
000040 ce e2 1c bf fd a2 be bf 2d e6 26 bf 57 c1 01 bf
       -0.61283576 -1.489349 -0.6519497 -0.5068564
000050 8c fb 95 bf de 1c 38 3f b5 f7 35 bf 9c 9a 57 bf
       -1.1717391 0.7191905 -0.71081096 -0.8422029
000060 b1 27 c2 be 3e 0e 67 be d9 b5 e1 be 65 86 28 bf
       -0.37920907 -0.22564027 -0.4408405 -0.6583007
000070 66 a2 93 3e 50 18 01 bf 27 0c 44 bf 4f 63 30 bf
       0.28834838 -0.5042772 -0.76581043 -0.6890153
000080 7c 02 24 bf 94 fa d1 bd ab 69 36 3f a2 c9 a2 bd
       -0.6406629 -0.10252872 0.71254987 -0.07948615
000090 ca 0f 46 bf b4 8b 85 bf 30 f4 ef be 0c 99 96 3e
       -0.7736784 -1.0433259 -0.46865988 0.2941364
0000a0 cd dd 44 bf 5a f7 bd bf 8d ee d0 3c b2 01 9c 3e
       -0.7690094 -1.4841111 0.025504375 0.30470043
0000b0 d6 83 72 be 7d 51 b9 be 38 c7 6d be d5 c6 c6 be
       -0.23683104 -0.36194983 -0.23220527 -0.38823572
0000c0 ce 0a d5 be e3 c8 f9 be 77 95 55 bf 4a 24 c7 bd
       -0.41609806 -0.48786077 -0.8343119 -0.097237185
0000d0 dd 41 73 3e 0e 36 0b bf 66 02 1e bf 32 57 38 bf
       0.23755594 -0.54379356 -0.6172241 -0.7200805
0000e0 93 9e c5 3e 05 c2 6b bf 83 7a 72 be 3b b8 94 be
       0.38597545 -0.92092925 -0.23679547 -0.29046807
0000f0 42 f7 c5 be 19 2d 8a bf 78 5b 09 bf 2c 4d 31 be
       -0.38665205 -1.0795013 -0.53655195 -0.17314595

layer2.1.running_mean f4 [64]
000000 5d 48 1e 3f 8f b7 01 c2 ed 4d 48 c1 99 a8 2c c2
       0.6182917 -32.429256 -12.519025 -43.164646
000010 2d ef 22 c2 43 04 04 c2 d8 ea 9d c1 ff d9 e7 c0
       -40.73357 -33.00416 -19.73967 -7.245361
000020 8c ee a3 c1 9a 48 d9 c1 73 06 8b 40 66 79 dd c1
       -20.491478 -27.16045 4.3445373 -27.684277
000030 9a 50 e3 c1 98 a9 39 c2 e8 ae 19 c2 e4 f5 04 42
       -28.414356 -46.41562 -38.420807 33.240128
000040 ae 7e 99 c1 4f 4f 84 c0 c0 58 37 c2 51 07 a3 c1
       -19.186855 -4.134681 -45.83667 -20.378572
000050 74 b7 86 c2 ef 4c 35 c1 b8 cb 48 c2 59 15 b3 c0
       -67.35831 -11.331283 -50.198944 -5.596356
000060 ec de cb c1 5f f3 7a c1 50 bd c7 c1 61 30 84 c1
       -25.483849 -15.684417 -24.967438 -16.523623
000070 1d f9 d0 c0 22 26 93 c1 36 84 3c c1 29 7c 00 c2
       -6.5304093 -18.39362 -11.782278 -32.12125
000080 d3 bc 45 c2 69 4a 91 c1 4a e5 a4 40 da 2f 08 41
       -49.4344 -18.161333 5.1529894 8.5116825
000090 14 bf 14 c2 d3 86 8a c2 f3 a4 36 c2 1d 0d 0d c1
       -37.1866 -69.26333 -45.661083 -8.8157015
0000a0 66 c7 4a c2 85 f3 56 c1 72 8a ee c0 a6 cc f5 41
       -50.694725 -13.434453 -7.4544 30.724926
0000b0 e1 d0 a0 c1 8c cf 4b c2 53 b3 3b c1 48 a1 b2 c1
       -20.101992 -50.952682 -11.73128 -22.32875
0000c0 3b d4 92 c2 19 1a eb c1 e3 d4 41 c1 7d f7 ab c0
       -73.41451 -29.387743 -12.114474 -5.373961
0000d0 0b 91 82 c1 b5 1a 06 c2 70 90 f5 c1 4a b9 66 c1
       -16.320822 -33.52608 -30.695526 -14.420237
0000e0 08 e8 18 c2 1e b2 cf 3f 72 2e 6a c1 4b 4b 1c c1
       -38.226593 1.6226232 -14.636339 -9.768382
0000f0 9b e0 11 c2 c2 74 68 41 e8 a4 13 c2 96 68 08 40
       -36.46934 14.528505 -36.91104 2.1313834

layer2.1.running_var f4 [64]
000000 54 9e 98 43 ef 02 f0 43 f6 5a 80 43 41 e6 fd 43
       305.23694 480.02292 256.71063 507.79886
000010 08 af 99 44 be 6e b1 43 2a 4d 6b 44 c9 e1 86 43
       1229.4697 354.86517 941.2057 269.76395
000020 6c fb 5f 44 64 e5 9a 44 8a e1 90 42 b6 95 bd 43
       895.92847 1239.1685 72.440506 379.16962
000030 bc ed ad 43 c4 44 87 44 64 b2 4d 44 a8 83 01 44
       347.8573 1082.1489 822.78735 518.0571
000040 2e ae 1a 44 30 c8 06 44 22 d7 ed 43 40 e2 51 43
       618.72156 539.1279 475.68073 209.88379
000050 70 72 07 45 1e 93 0e 44 6b 67 52 44 ff 28 5e 43
       2167.1523 570.2987 841.6159 222.16014
000060 f1 b0 9e 43 84 93 a1 43 ba dc 7c 43 f6 d6 0b 44
       317.38235 323.15247 252.86221 559.35876
000070 01 6b 31 43 5d 52 b6 43 2d 32 ba 43 24 97 85 44
       177.41798 364.64346 372.392 1068.7231
000080 7d 16 32 44 08 d8 58 44 a8 d4 42 44 58 d3 e6 43
       712.3514 867.3755 779.32275 461.65112
000090 ab f2 b0 43 cf 46 1c 45 2a f6 d0 43 03 84 48 44
       353.89584 2500.4255 417.92316 802.0627
0000a0 39 dc 5f 44 a9 aa 99 43 20 cb 6a 43 d7 60 dd 43
       895.441 307.33328 234.79346 442.75656
0000b0 b1 7b 5f 43 99 ee 64 44 9c c4 03 43 32 b3 91 44
       223.48317 915.7281 131.768 1165.5999
0000c0 1b c0 93 44 15 3b 29 44 a5 a1 40 43 b9 bb 35 44
       1182.0033 676.92316 192.63142 726.93317
0000d0 30 5c 86 43 e0 7b 0c 44 e6 61 fd 43 d5 8f 86 43
       268.7202 561.93555 506.76483 269.1237
0000e0 2b 4e 41 44 f9 91 47 43 23 7d 86 42 ef 85 8c 42
       773.2214 199.5702 67.24441 70.26159
0000f0 2e 9e 81 43 a3 f4 80 43 f4 2f d8 43 39 79 07 44
       259.23578 257.91122 432.37463 541.8941

layer3.0.weight f4 [64, 64, 3, 3]
000000 d5 46 6a bd 80 27 2d be 10 fc 06 bf 54 ca 11 3d
       -0.057196457 -0.169096 -0.52728367 0.035593346
000010 49 81 5d bd 00 1c 39 3d 86 1f dc be 11 e2 22 be
       -0.054078374 0.04519272 -0.429928 -0.1590655
000020 8d 63 00 3e d6 41 05 3f d2 59 ae 3e bb a4 e8 3d
       0.12537976 0.5205358 0.34052902 0.11359545
000030 4a b2 df bc 95 33 e2 3b 11 e4 db 3e 68 81 a7 be
       -0.027306695 0.0069031217 0.42947438 -0.32715917
000040 ec af 91 3d 4b 47 e3 3e 2f 6c ba 3d ef c5 a1 3e
       0.071136326 0.4439033 0.09102666 0.31596324
000050 1d 9e 0f 3f 7b 73 c9 bd 8b a1 e3 be 09 5a 9a bc
       0.56100637 -0.09836479 -0.44459185 -0.01884176
000060 0b c7 b0 be e5 7a 69 be 29 81 e5 3e 33 08 88 be
       -0.34526858 -0.22800787 0.44825104 -0.26568756
000070 2a ca 6e be cb cf 70 be 0b d7 a1 bc 61 d9 5b bd
       -0.23319307 -0.23516767 -0.01975586 -0.053674106
000080 94 6b 8b bd 06 dc 6d 3e fd 90 b2 3e 14 5d 8e 3e
       -0.06807628 0.23228464 0.34876242 0.27805388
000090 53 4b 47 3e 45 21 b3 be 1b 48 32 3f cc 93 67 bf
       0.19462328 -0.3498632 0.69641274 -0.90459895
0000a0 69 c2 92 bf e0 19 72 be 54 6e be 3e 36 14 1a be
       -1.1465579 -0.23642683 0.3719355 -0.15046772
0000b0 2b c2 04 3f 44 71 67 be cd 2b 98 bd 5b 0c 22 bf
       0.51858777 -0.22601801 -0.07430229 -0.633001
0000c0 17 a8 fe 3e 56 36 ee 3e 89 d1 b6 3e 73 55 71 be
       0.49737617 0.4652583 0.35706738 -0.23567753
0000d0 f9 61 17 bf b3 3e 9a be c2 f6 af be 52 53 dc 3e
       -0.5913387 -0.3012596 -0.3436795 0.43032318
0000e0 39 bf 2b 3f 13 69 15 bf 6f a7 e6 be c8 1d a9 be
       0.6708866 -0.58363456 -0.45049617 -0.33030534
0000f0 8a 50 25 3f 2d 0f 6b 3e 68 d5 3e 3f 0c fd f2 bd
       0.6457602 0.22955008 0.7454438 -0.11864671
000100 91 38 02 3e 06 6a 33 bf ec 40 81 bd a3 df d8 3e
       0.12716891 -0.70083654 -0.06311211 0.4235812
000110 b5 51 3f bd 44 31 a4 bf c3 a0 c8 bd 83 5b 30 be
       -0.04670878 -1.2827535 -0.09796288 -0.17222409
000120 17 11 b1 3e d9 51 86 bd ce 9d da 3e 0b 61 84 be
       0.3458335 -0.0655858 0.4269852 -0.25855288
000130 5e 65 41 bf 53 d7 26 be 24 03 d6 3e 66 1d 91 bb
       -0.755453 -0.16293077 0.4179927 -0.0044285534
000140 71 ed f6 3d 31 89 42 bf 72 fa 29 3d 93 1a ef 3d
       0.12057007 -0.7599059 0.04149861 0.116749905
000150 55 3b 2d bf 6c 8a 2c 3e 14 34 a2 3d 7a 09 62 3e
       -0.6766866 0.16849679 0.07920089 0.22073928
000160 2e f7 73 3f 41 83 1a 3f c2 15 a9 3e e4 47 36 be
       0.9529904 0.6035653 0.33024412 -0.17800862
000170 05 2b d3 bd 07 1a ba 3d 2e ff da be 7e 06 99 be
       -0.1031094 0.090869956 -0.42772812 -0.29887766
000180 ab 07 19 3e 7d c5 54 bd 49 c8 af bd 58 73 97 3e
       0.14944331 -0.051946152 -0.08583123 0.29580188
000190 bf af 18 3e 81 a5 c3 be a7 25 2e 3d 3c 84 86 3e
       0.14910792 -0.38212207 0.042516377 0.26272762
0001a0 a1 ba 10 3e 56 7c 86 be be e9 44 3d 04 56 85 bd
       0.14133693 -0.26266736 0.048074476 -0.06510547
0001b0 b3 17 db be 3a a7 58 3e b9 c7 af 3e e9 33 ab be
       -0.4279152 0.21157542 0.34332064 -0.33438042
0001c0 3d 18 25 3e 4f cc f6 3e 66 75 0b bf c2 eb cd 3e
       0.16122527 0.4820275 -0.5447601 0.4021893
0001d0 43 57 56 3f 4c 28 74 be 1e 84 5c bf c8 f5 3c bf
       0.837269 -0.23843497 -0.86139095 -0.7381253
0001e0 02 b0 d4 3e 4a f8 b5 be 8f da e5 bd af 02 3d 3f
       0.41540533 -0.35540992 -0.11223327 0.7383222
0001f0 18 88 1c 3e 52 99 0f be 65 63 07 3f e7 bb 0b be
       0.1528629 -0.14023331 0.5288604 -0.13645898
000200 01 e1 8d be 42 c2 b2 bc 00 bb 25 3e 3e 56 38 be
       -0.27710727 -0.021821145 0.16184616 -0.18001649
000210 03 48 c4 be dd 33 58 be dd 56 22 3e ec 3b a2 bd
       -0.3833619 -0.21113534 0.15853448 -0.079215854
000220 16 63 a1 be 90 2c 2c bf 57 a4 b4 be cf 4e 03 bf
       -0.3152091 -0.67255497 -0.3528163 -0.5129213
000230 1f 53 6b bf bc 1f 3f bf 63 c7 8d bf d2 14 99 bf
       -0.9192371 -0.746578 -1.1076473 -1.1959479
000240 e0 0a a5 3e 8e 43 43 3f ab 50 d3 be 93 6e 9c 3e
       0.3223486 0.76274955 -0.41272482 0.3055311
000250 d4 e2 f2 3e 74 64 5c 3d 73 36 7f bf 6f a8 8e be
       0.4743868 0.053806737 -0.9969246 -0.2786288
000260 c0 b2 a8 3e be 13 1b 3e bb d4 73 bd 26 88 0d bf
       0.32948875 0.1514425 -0.059529047 -0.5528587
000270 c7 83 44 be 3a 24 87 3e 9e e2 0b bf eb cd 3f bf
       -0.19190894 0.26394826 -0.54642665 -0.7492358
000280 e7 dd 20 bf 47 b5 92 bf 2a 0c 4d be 27 f1 e3 3e
       -0.62838596 -1.1461571 -0.20024171 0.44519922
000290 f5 2e 0d 3f 4c 6d 19 bf 9d a3 1e bd 4d f6 13 3f
       0.55149776 -0.599324 -0.038730253 0.577977
0002a0 d7 50 72 bf 7d 88 05 bf c6 58 a6 be b9 9a 86 bd
       -0.946546 -0.5216139 -0.32489604 -0.0657248
0002b0 bf 42 9a 3d 77 52 96 3e 73 9f 78 bd 7d ef 2f be
       0.07532262 0.2935979 -0.060698938 -0.17181201
0002c0 58 1e 1a 3d f7 47 8a be 75 93 49 be 67 35 88 3c
       0.037626594 -0.2700803 -0.19685157 0.016627027
0002d0 c1 88 77 be 5a c6 7c be ee 36 f3 3e fe fc b3 bf
       -0.24173261 -0.2468504 0.47502846 -1.4061582
0002e0 6f 19 ab bf a4 59 36 bf ef b0 0f 3f be 6f 03 bf
       -1.3367137 -0.7123053 0.56129354 -0.5134238
0002f0 97 b3 f7 3e c0 25 fd 3e 0a 13 0f be d9 df 3a bf
       0.48379204 0.49442863 -0.13972107 -0.72997814
000300 3a e3 a0 3f 52 e7 b7 3e 02 bf e9 bd 0c f2 7e 3e
       1.2569344 0.3591867 -0.11413385 0.24897021
000310 1b 45 bd bd f3 c2 3d bf 15 26 bc be 5c c5 ac be
       -0.092416964 -0.74125594 -0.36747804 -0.33744323
000320 51 87 97 bd 2c 73 11 3d ce 3f f2 bd 0a 00 11 3e
       -0.073988564 0.035510227 -0.11828576 0.14160171
000330 8e 24 2c 3f 6b f4 c4 3e a3 64 42 3f 5d 3e d4 be
       0.6724328 0.38467726 0.7593481 -0.4145383
000340 db 2e 05 3d 30 22 82 bc 52 62 aa bd ab 3a e9 3e
       0.032515388 -0.015885442 -0.08319534 0.45552573
000350 5f d4 03 be 79 ea 63 bf 5d e2 94 be fd d2 3d bf
       -0.12873982 -0.8902965 -0.2907895 -0.7415007
000360 d1 cc 47 bd 27 8e 3b 3e 83 a3 28 3f 3f 91 99 3d
       -0.048779313 0.18315946 0.658745 0.074984066
000370 ac 72 40 be 37 f8 22 3e aa 36 53 bf 10 bc 30 bf
       -0.18793744 0.15914999 -0.82505286 -0.6903696
000380 7c e4 4d bf fa 42 2f 3e 81 92 ac 3d e8 98 12 3e
       -0.80426764 0.17115393 0.08426381 0.14316142
000390 1b 4e 01 be 9e 22 2a be cc dd 3f be c0 dc f6 be
       -0.12627451 -0.16614768 -0.18736953 -0.48215294
0003a0 07 f6 98 be 7b 34 94 be a1 ac cb 3e 96 02 d4 3e
       -0.29875204 -0.2894629 0.39780143 0.41408223
0003b0 fb 9a 85 bd 88 a5 c9 3d cb 84 68 3e 28 3e 80 be
       -0.06523701 0.09846026 0.22706906 -0.2504742
0003c0 51 0a 9d be c3 80 36 3e b9 41 6b be 78 e6 06 c0
       -0.30671933 0.17822556 -0.2297429 -2.1078167
0003d0 cf d0 59 bf 0a 04 34 bf d5 fc 85 bf bb fa d7 3e
       -0.8508424 -0.70318663 -1.0467783 0.4218348
0003e0 39 69 cd 3e be 32 08 bf d8 e5 8f 3f b0 c2 85 3f
       0.4011934 -0.53202426 1.1242018 1.0450039
0003f0 be 18 0f 3e d9 86 13 3f 6c 27 58 be 34 0e 44 3e
       0.13974282 0.57627636 -0.21108788 0.19146043

layer3.0.bias f4 [64]
000000 ce 63 a0 bd 43 87 b4 bc ac e8 77 3d 58 91 ad 3d
       -0.07831536 -0.022037154 0.060524628 0.08474988
000010 53 88 31 bd 05 66 fb bc e5 ca 2e 3d fe 8d 41 bd
       -0.0433429 -0.030688295 0.042673964 -0.047254555
000020 fe 62 26 3c e8 47 cb 3c 56 9d 48 bd cf 43 94 bc
       0.0101554375 0.024814561 -0.048978172 -0.01809874
000030 60 53 bd 3c 05 a3 dc 3b 88 cc e3 3b f3 ac a1 3d
       0.023111045 0.0067333006 0.0069518723 0.078943156
000040 69 bb 8e 3c e1 b6 55 bc 46 ac 36 3d bc 2e 96 3c
       0.017423349 -0.01304409 0.044597887 0.018332832
000050 be fd 49 3c c0 a1 f1 bc 00 31 40 bd 35 3d d9 bc
       0.012328563 -0.029496074 -0.04692173 -0.026518444
000060 bf dd 21 bd ca d7 8f bb d7 58 2f 3b 49 9f 09 bc
       -0.039518114 -0.0043897377 0.0026755834 -0.008399793
000070 b9 bc 71 bd 7e c7 dc bc 18 c9 ac bc 0e b8 a3 b9
       -0.05901787 -0.026950594 -0.021091983 -0.00031226914
000080 99 dc fe 3c db be 6d bd 47 01 df 3c 2a 25 e5 bb
       0.031111049 -0.058043342 0.027222289 -0.0069929557
000090 9d 19 a7 bd 39 04 78 bb 40 03 a7 bb bc f5 5f 3d
       -0.08159182 -0.0037844314 -0.005096823 0.05467771
0000a0 0e 4a a2 bd 2a 53 19 bd 83 77 dc 3a af 44 b1 bc
       -0.07924281 -0.037432827 0.0016820285 -0.021639196
0000b0 fd 34 55 3d 41 eb 9c bd 55 5d 0d bd 13 f6 fc 3d
       0.052052487 -0.076620586 -0.034512836 0.123516224
0000c0 50 ba 9b bd 2a 31 93 3a 16 ca 6e bd 27 90 20 bd
       -0.07603896 0.0011229862 -0.058298193 -0.039199974
0000d0 ac e2 28 bd 87 bd 5c bd 53 91 db bc 55 a9 f2 3c
       -0.041231796 -0.053891685 -0.026802694 0.02962176
0000e0 52 b1 3a 3d f1 82 4e 3d 3f f2 10 bd 12 0d 0d be
       0.045579262 0.050417844 -0.035387274 -0.13774517
0000f0 46 95 96 3d e4 95 5c bc 85 7b 8e bd c9 8d a0 bc
       0.073526904 -0.013463471 -0.06957153 -0.019598858

layer3.1.weight f4 [64]
000000 1d 88 bd 3f d1 13 19 3f 93 1e 85 3f 4a bb d0 3f
       1.4807163 0.5979586 1.0399956 1.6307156
000010 55 da 8a 3f c3 12 e8 3e 80 2a 54 3f 4f 6f 85 3f
       1.084788 0.45326814 0.8287735 1.0424594
000020 35 77 b6 3f f3 1a ac 3f b2 fa 1f 3f e1 15 7d 3f
       1.4255129 1.3445724 0.62491906 0.9886151
000030 b2 e8 88 3f 91 be a0 3f 9d e7 6d 3f 0b 1d cb 3f
       1.0696013 1.2558156 0.9293154 1.5868238
000040 81 04 ad 3f 81 a9 9a 3f c3 9c bb 3f f2 12 b0 3f
       1.3517 1.2082978 1.4657215 1.3755782
000050 4a 92 86 3f 79 0c 92 3f c9 8e 44 3f a6 9a 92 3f
       1.0513394 1.1410056 0.7678037 1.1453445
000060 c8 a1 c8 3e 90 9e c6 3f 7f b1 9e 3f 82 d0 a3 3f
       0.3918593 1.551714 1.2397918 1.2798007
000070 03 11 32 3f 64 89 bc 3f 5e bc c7 3f e5 4f 8d 3f
       0.6955721 1.4729428 1.560436 1.1040007
000080 1f af 5b 3f 88 c7 ae 3f 3a f2 b6 3f 86 a0 85 3f
       0.8581409 1.3654642 1.4292672 1.0439613
000090 fc 93 c2 3f aa 63 7e 3f 2b 5a aa 3f d7 ba b4 3f
       1.5201411 0.99370825 1.3308767 1.4119519
0000a0 8b 92 8f 3f 9f d6 c7 3f dc 3b 34 3f ee c2 a4 3f
       1.1216596 1.5612372 0.7040384 1.2871988
0000b0 e5 01 9c 3f 04 07 85 3f 9b cf 67 3f 86 03 d4 3f
       1.2188078 1.0392766 0.90551156 1.6563575
0000c0 cd 0c 67 3f 42 25 97 3f 38 00 ad 3f 96 f3 56 3f
       0.9025391 1.1808245 1.3515692 0.8396543
0000d0 dc 1c a9 3f db e2 f7 3e 23 86 64 3f 92 bd b1 3f
       1.3211932 0.48415264 0.89267176 1.3885977
0000e0 e0 b7 8a 3f 53 4f 5a 3f 65 ce 34 3f fa 12 d0 3f
       1.0837364 0.8527729 0.70627433 1.6255791
0000f0 d0 80 52 3f 42 27 32 3f b9 08 62 3f e2 93 8d 3f
       0.822278 0.6959115 0.8829456 1.1060755

layer3.1.bias f4 [64]
000000 c7 86 6e bf a4 5b 12 bf 5b 0e ec 3d 27 a7 92 be
       -0.93174404 -0.5717108 0.115261756 -0.28643152
000010 cc 34 33 bf c5 b2 14 bf 0f 44 e8 be 43 3d 4c bf
       -0.70002437 -0.5808528 -0.45364425 -0.7978098
000020 33 6c 0d bf f4 7c 00 bf c5 58 42 bf 4d db 35 bf
       -0.55243224 -0.50190663 -0.759167 -0.7103775
000030 2a 4c 7e bf cb 16 27 bf 2a 3e 74 bf fd 14 e9 be
       -0.9933497 -0.65269154 -0.95407355 -0.45523825
000040 6d 46 81 bf 73 1c 3e bf 50 ed 7f bf 4a a3 e9 be
       -1.0099617 -0.7426216 -0.99971485 -0.45632392
000050 14 96 7a bf 94 a0 f1 be ca 3f 1e bf 82 87 4a bf
       -0.9788525 -0.47192824 -0.61816084 -0.7911302
000060 7e 5b 27 bf 10 11 ab be c2 c1 36 bf 56 b9 5c bf
       -0.6537398 -0.33411455 -0.713894 -0.862203
000070 8b c4 0b bf 2c 6a 81 be 3a d5 cb be cc d5 1a bf
       -0.54596776 -0.25276315 -0.39811116 -0.6048248
000080 8c 33 42 bf 6f de 6c bf 14 cb 50 bf 69 ae 8b bf
       -0.75859904 -0.92526907 -0.8155987 -1.0912601
000090 78 64 6d bf 68 a2 51 bf fe cb 22 bf cd fa f8 be
       -0.9273143 -0.8188844 -0.6359252 -0.48628846
0000a0 27 5d 0a bd 71 68 52 bf 03 92 d2 be 6d 5a 32 bf
       -0.033780243 -0.82190615 -0.41127023 -0.6966923
0000b0 de 69 81 be 19 36 23 be 58 9d 46 bf 0e 9c 15 bf
       -0.25276083 -0.15938605 -0.7758384 -0.58441246
0000c0 6b 6e 6d bf 7d 80 9d bf 58 d7 df be cf 9d 00 bf
       -0.9274661 -1.2304837 -0.43718982 -0.50240797
0000d0 52 bf 46 bf 56 48 32 bf 65 88 2b 3d 4b e7 64 bf
       -0.7763568 -0.69641626 0.041878123 -0.89415425
0000e0 31 2d 6a bf 59 e5 29 bf 0f 77 09 bf 87 91 df be
       -0.91475207 -0.6636558 -0.53697294 -0.43665716
0000f0 6d 7b a3 be ba 82 a5 bf 32 74 c9 be 55 5f 47 3d
       -0.31930104 -1.293052 -0.39346462 0.0486749

layer3.1.running_mean f4 [64]
000000 d8 87 6b c1 38 e9 02 40 3a 7b e7 c1 f5 66 97 c1
       -14.720665 2.0454845 -28.93517 -18.925272
000010 f8 37 52 bf 7e 40 c3 bf cd 20 85 c1 97 e5 ce c0
       -0.8211665 -1.5254056 -16.641016 -6.465526
000020 b8 5a 5a c1 27 b7 93 c0 77 d6 47 be e4 aa 4e 41
       -13.647148 -4.6161075 -0.19515406 12.916721
000030 d7 fd 0e 40 e1 3a e6 c1 d2 a6 53 41 3f db a9 c1
       2.2342432 -28.77875 13.228228 -21.232054
000040 9a 6f b3 c0 81 d6 05 c2 ae 44 a5 c1 47 91 e1 c1
       -5.607373 -33.459476 -20.658535 -28.195936
000050 4a e8 c6 c0 4b ef 51 c0 dd a5 a6 3e a6 d8 78 c1
       -6.2158556 -3.2802303 0.3254842 -15.552893
000060 b8 53 ba c0 7e db d8 c1 f7 da 79 c1 cb 63 0a c1
       -5.8227196 -27.107174 -15.615958 -8.6493635
000070 bd 41 52 c0 52 ad 0e c2 52 10 27 c2 c7 40 a8 c1
       -3.2852623 -35.66926 -41.765938 -21.03163
000080 5e e9 d4 40 8a 30 a0 c1 e0 4a 8b c1 77 08 64 c1
       6.653487 -20.0237 -17.41156 -14.252067
000090 5d ef 83 c1 b3 32 80 41 38 42 22 c1 08 7b e4 c1
       -16.491877 16.024755 -10.141167 -28.560074
0000a0 fe e0 fc c1 c0 98 0f c1 ce 7b 14 40 c5 a9 24 c0
       -31.60986 -8.9747925 2.3200564 -2.572862
0000b0 3d 39 3d c2 e3 9b 27 c0 ae b1 00 c1 93 be 27 c1
       -47.305897 -2.6188896 -8.043379 -10.484027
0000c0 e3 d2 47 c1 0a 6a 5e c1 b8 3f de c1 48 1a 76 3f
       -12.488986 -13.900888 -27.781113 0.9613385
0000d0 fc d2 d9 40 88 1b 50 c0 e5 1f 12 c0 76 d8 10 c2
       6.807005 -3.2516804 -2.2831967 -36.211388
0000e0 0f 99 98 c1 2b f7 28 c0 96 59 3f c0 22 e9 fc c0
       -19.074736 -2.640086 -2.989843 -7.9034586
0000f0 c5 2c 0f 40 50 38 ab 3f 23 85 8e c0 26 5a ef c0
       2.2371075 1.337656 -4.453752 -7.4797544

layer3.1.running_var f4 [64]
000000 0d b8 ae 43 a6 6a da 42 31 2d b3 43 f7 c2 9a 43
       349.4379 109.2083 358.35306 309.52316
000010 d9 2b 18 43 5f b8 56 42 0a b1 23 43 ac bc 00 43
       152.17128 53.68005 163.69156 128.737
000020 69 2f 8d 43 54 04 62 43 b0 c8 be 42 8d 4a 04 43
       282.3704 226.0169 95.39197 132.29121
000030 3b 73 24 43 6b 14 99 43 71 2b c0 42 ca 1e a5 43
       164.45012 306.15952 96.08485 330.24054
000040 7e bc 1a 43 a3 b1 65 43 6e f3 25 43 9a 82 d1 43
       154.7363 229.6939 165.9509 419.02032
000050 03 f8 13 43 e4 0d b6 42 de b7 ac 42 df f5 76 43
       147.9688 91.02713 86.359116 246.96043
000060 d8 f6 8c 42 ec 5f b3 43 6d 4e a1 43 ba f9 b6 42
       70.48212 358.7494 322.6127 91.48775
000070 b0 22 fc 42 ec d8 8e 43 f3 d3 d5 43 fa e4 67 43
       126.06775 285.6947 427.65585 231.89444
000080 eb 14 1a 43 05 f2 72 43 e4 80 6e 43 d1 0f 9f 42
       154.08171 242.94539 238.50348 79.53089
000090 6a 7e 41 43 b8 70 a7 42 9e 5d ec 42 3e 80 a3 43
       193.4938 83.72015 118.182846 327.0019
0000a0 93 30 4d 43 b9 f4 b5 43 7f 87 bb 42 7f a7 1d 43
       205.18974 363.9119 93.76464 157.65428
0000b0 23 e1 a6 43 e4 cb 1b 43 4c f5 15 43 99 18 8e 43
       333.75888 155.79645 149.95819 284.19217
0000c0 29 95 c7 42 7b 79 d3 42 79 f5 45 43 8c 02 f0 42
       99.79133 105.73727 197.95888 120.004974
0000d0 8b a1 90 43 94 fd bd 41 0a 5c 34 43 bb f5 74 43
       289.26205 23.748817 180.35953 244.95988
0000e0 09 85 13 43 71 b2 0d 43 c3 74 02 43 60 98 b6 43
       147.51967 141.69704 130.4561 365.19043
0000f0 da 1a 72 43 9e 72 9a 42 80 b9 28 43 61 a6 5c 43
       242.10489 77.22386 168.72461 220.64992
