results/SKDModel-dataset-Conv64F-5-5-Jan-08-2024-18-47-36/checkpoints/emb_func_00030.pth (torch, 463459 bytes, 24 tensors)

layer1.0.weight f4 [64, 3, 3, 3]
0	0x3dba4ab4	0.0909628
1	0xbedd1ba5	-0.43185154
2	0xbf13dd0d	-0.5775917
3	0x3ee265d6	0.4421832
4	0xbdf7ac68	-0.12093431
5	0xbf362860	-0.7115536
6	0x3f48f929	0.7850519
7	0x3f3cf301	0.73808295
8	0xbe828f3f	-0.25499913
9	0xbe22ddc8	-0.15904915
10	0xbe974f9d	-0.29552928
11	0xbec0345e	-0.37539953
12	0x3edcaaa8	0.4309895
13	0x3db3703e	0.08761643
14	0xbf24fc73	-0.64447707
15	0x3eb3b837	0.35101482
16	0x3f0cef77	0.55052894
17	0x3caf6f10	0.021415263
18	0x3db8585d	0.09001229
19	0xbe850c38	-0.25985885
20	0x3cc83475	0.024439076
21	0xba4660c4	-0.000756752
22	0x3e1899cb	0.14902417
23	0xbefa0ed8	-0.4883945
24	0x3ed7ca74	0.42146647
25	0x3e98af7b	0.2982138
26	0xbe795efd	-0.24352641
27	0x3d865a45	0.06560186
28	0x3e0e1d45	0.13878353
29	0xbcadf59a	-0.021235276
30	0x3d85d971	0.06535614
31	0xbe0281b8	-0.12744796
32	0xbc522d2f	-0.012828155
33	0x3deaae8c	0.114590734
34	0xbc815e1c	-0.015791945
35	0x3c28753e	0.010281859
36	0x3e4cbe46	0.19994459
37	0x3e0b6ad7	0.13614975
38	0x3dc6e612	0.09711851
39	0x3db8909f	0.09011959
40	0x3e2f6036	0.17126545
41	0x3e8a8550	0.27054834
42	0x3e0e596f	0.13901304
43	0x3d96d87e	0.07365511
44	0x3e117f10	0.14208627
45	0xbe2b0014	-0.16699249
46	0xbd14e782	-0.036353596
47	0xbe2703a4	-0.16309983
48	0xbe1bd083	-0.1521626
49	0x3e21e724	0.1581083
50	0xbbc1c25f	-0.0059130634
51	0x3d6e7114	0.05821331
52	0xbd91f883	-0.07127478
53	0x3d9aa0e4	0.07550219
54	0x3e1af3a4	0.15132004
55	0x3e82199c	0.25410163
56	0xbc354526	-0.01106385
57	0x3e3db21f	0.18524979
58	0x3e65e60e	0.2245104
59	0x3e901129	0.28138092
60	0xbd7191e2	-0.058977015
61	0x3e106824	0.14102226
62	0x3e14bce9	0.14525189
63	0xbd69a8a7	-0.057045605
64	0xbe49c87e	-0.19705388
65	0xbe91b3f0	-0.28457594
66	0xbca3a40b	-0.019975683
67	0xbe2aa4c9	-0.16664423
68	0xbe9e8860	-0.3096342
69	0xbe49576c	-0.19662255
70	0xbe968939	-0.29401568
71	0xbe509507	-0.2036935
72	0xbd81c09e	-0.06335567
73	0xbeb0fb6a	-0.34566814
74	0xbe81cceb	-0.25351653
75	0xbec9b102	-0.3939286
76	0xbefea89a	-0.49738008
77	0xbf04c3a7	-0.5186104
78	0xbdefe71e	-0.11714004
79	0xbf0b1389	-0.54326683
80	0xbe8aa803	-0.27081308
81	0x3ebae6f9	0.36504343
82	0x3ea3e59d	0.3201112
83	0x3e106bf0	0.14103675
84	0x3e91b41d	0.28457728
85	0x3ea5bc2d	0.3237013
86	0x3e04b4c3	0.1295958
87	0x3e3c5a37	0.18393789
88	0x3e2c97ea	0.16854826
89	0xbe1923e7	-0.14955102
90	0x39d6ca76	0.00040968106
91	0xbe1af4f7	-0.15132509
92	0xbec5da1b	-0.38642964
93	0xbdd7406b	-0.105103336
94	0xbe0cc5ca	-0.13747326
95	0xbe9d2054	-0.30688727
96	0xbd865aeb	-0.0656031
97	0xbead7fa9	-0.3388646
98	0x3cc91a82	0.024548773
99	0xbe898ea4	-0.2686664
100	0xbe69b2de	-0.22822139
101	0xbeecd401	-0.46255496
102	0xbe3d9828	-0.18515074
103	0xbf244e9f	-0.64182466
104	0xbed3deb0	-0.41380835
105	0xbe6a1bce	-0.22862169
106	0xbe9bb5b9	-0.3041208
107	0xbe3f49f4	-0.18680555
108	0x3f340bcd	0.70330507
109	0x3f281762	0.6566068
110	0x3f185b67	0.5951447
111	0x3ecf576d	0.40496388
112	0x3f1c2dbd	0.6100729
113	0x3f59ff1a	0.8515488
114	0x3d935b24	0.07195118
115	0x3f2ab49d	0.66681844
116	0x3f4a4b95	0.7902158
117	0xbe18eb19	-0.14933433
118	0x3dd670d1	0.10470737
119	0x3c653a43	0.013990941
120	0x3d202f6c	0.039107725
121	0x3d821e1b	0.063533984
122	0x3dd9095e	0.1059749
123	0x3ba52847	0.005040202
124	0x3e08b153	0.13348894
125	0x3d1bed3e	0.03806805
126	0xbe553b21	-0.20823337
127	0xbe58c1a1	-0.21167614
128	0xbeb5114f	-0.35364768
129	0xbeeb01b7	-0.45899746
130	0xbec8d76d	-0.39226857
131	0xbe54098a	-0.20706764
132	0xbe91d0ce	-0.28479618
133	0xbe64adb9	-0.22331895
134	0xbed7a4a6	-0.42117804
135	0xbeb8aa68	-0.3606751
136	0xbf5a7a69	-0.85343033
137	0xbf7482ef	-0.9551229
138	0xbebc2d9c	-0.36753547
139	0xbf4aeef3	-0.7927086
140	0xbf2cc4c9	-0.6748777
141	0x3e6370e7	0.22211038
142	0xbeb473ac	-0.352445
143	0xbd76dfa1	-0.060271863
144	0x3e59f78f	0.21285842
145	0x3e130a93	0.14359502
146	0xbea0d269	-0.3141053
147	0x3d9a3473	0.07529535
148	0xbe60bec6	-0.21947774
149	0xbdddada7	-0.10824137
150	0x3eda94bf	0.4269161
151	0xbd96ff6d	-0.07372937
152	0x3e32785b	0.17428724
153	0x3e5505df	0.20803021
154	0x3e60bc98	0.21946943
155	0x3e2c574c	0.16830176
156	0x3e67f7ff	0.22653197
157	0x3e8c06b9	0.2734888
158	0x3ebe2097	0.3713424
159	0x3ef9013a	0.48633748
160	0x3eca9092	0.39563423
161	0x3e582cc6	0.2111083
162	0x3e7bb27e	0.24579808
163	0xbe777a02	-0.24167636
164	0x3ef6e471	0.48221162
165	0xbefd899d	-0.49519053
166	0xbef2ba98	-0.47407985
167	0xbeda9d28	-0.42698026
168	0xbeaaec0a	-0.3338321
169	0x3cffcca0	0.031225502
170	0xbe9d780d	-0.30755654
171	0xbea60eeb	-0.32433257
172	0xbf02969a	-0.5101105
173	0xbc84e059	-0.016220259
174	0xbe48040a	-0.19532791
175	0xbe046408	-0.12928784
176	0xbed9e578	-0.42557883
177	0xbf1c2ffb	-0.6101071
178	0x3d4e4ce0	0.050366282
179	0xbed54fb1	-0.41662362
180	0x3e9cea0b	0.3064731
181	0x3e7e1017	0.24810825
182	0x3eb449e4	0.35212624
183	0x3e380125	0.17969187
184	0x3ebfeba2	0.3748446
185	0x3ceaa950	0.028645188
186	0xbd6c2b9f	-0.057658788
187	0x3e9ea63e	0.30986208
188	0xbc9aa113	-0.018875634
189	0x3ddf393e	0.1089959
190	0x3d828892	0.06373705
191	0xbe2d62a2	-0.16932157
192	0x3e6cd316	0.23127398
193	0x3eb04148	0.34424806
194	0x3d8a09ff	0.06740188
195	0x3e20b813	0.15695219
196	0x3e1d5826	0.15365657
197	0x3d97ab35	0.07405702
198	0xbe3241e2	-0.17407945
199	0xbe7ce00c	-0.24694842
200	0xbe4caf35	-0.19988711
201	0xbe904db6	-0.2818429
202	0xbebaa40a	-0.36453277
203	0xbe6d127e	-0.23151585
204	0x3d31a2e9	0.043368254
205	0xbe844a5b	-0.2583798
206	0xbe7e922b	-0.24860446
207	0x3e668056	0.22509894
208	0x3d89bfcb	0.06726035
209	0x3e8f3f58	0.27978015
210	0x3e3548b9	0.17703523
211	0x3bbb4952	0.0057155276
212	0x3e4b3883	0.19845776
213	0x3e848f3e	0.25890535
214	0x3d34d48b	0.04414801
215	0x3d4bcd14	0.049756125
216	0x3e613765	0.21993788
217	0x3edc1184	0.42982113
218	0x3f4de983	0.80434436
219	0xbf5b9943	-0.85780734
220	0xbf2c7b1c	-0.6737535
221	0x3edcbff0	0.43115187
222	0xbf31477b	-0.69249696
223	0xbf91a171	-1.1377393
224	0xbea7d960	-0.3278303
225	0x3ed84af4	0.42244685
226	0x3f03ff47	0.515614
227	0x3f0bb0ef	0.54566854
228	0x3e585a3b	0.2112817
229	0x3e98aa2d	0.29817334
230	0x3ec52d1a	0.38510972
231	0xbe26656a	-0.16249624
232	0xbe4fbc7b	-0.20286743
233	0xbe32dec5	-0.17467792
234	0x3d330b35	0.04371186
235	0xbdf791cf	-0.12088358
236	0xbdb67b92	-0.08910288
237	0xbe221f78	-0.15832317
238	0xbc8a9e3d	-0.016921157
239	0x3cff8387	0.031190647
240	0xbe108b1e	-0.14115569
241	0xbea65399	-0.32485655
242	0xbe1cf9df	-0.15329693
243	0xbf11102c	-0.566653
244	0x3d83ac06	0.06429295
245	0xbe257c07	-0.16160594
246	0xbe898abe	-0.26863664
247	0x3e022d2a	0.12712541
248	0x3e77ba72	0.24192217
249	0x3ef61314	0.4806143
250	0x3e76f2f4	0.24116117
251	0x3cdd33c8	0.02700223
252	0xbf3370f6	-0.7009424
253	0x3d81b1d5	0.06332747
254	0x3dd76dda	0.105189994
255	0xbebeb013	-0.3724371

layer1.0.bias f4 [64]
0	0x3f00bc65	0.5028747
1	0x3e6639bb	0.2248296
2	0xbc7afddc	-0.015319314
3	0xbe535973	-0.20639591
4	0x3d84e61e	0.06489204
5	0xbe1c3360	-0.15253973
6	0xbe39ee3a	-0.18157282
7	0x3e45d2ec	0.19318742
8	0x3e59e0e9	0.21277203
9	0xbe17d6ba	-0.14828005
10	0x3df4a4bc	0.11945483
11	0xbef7bd4a	-0.48386604
12	0xbe84a6a0	-0.25908375
13	0xbc8aae11	-0.016928704
14	0xbd395a82	-0.04525233
15	0xbe5fb52e	-0.21846458
16	0x3dfd4778	0.12367147
17	0xbd150caf	-0.03638905
18	0x3c8145a7	0.015780283
19	0xbe6d5cc6	-0.23179922
20	0xbf0a2dd4	-0.5397618
21	0x3e44c9ad	0.19217558
22	0xbdd9539c	-0.1061165
23	0xbd5a95b0	-0.05336541
24	0xbd5f77d8	-0.05455765
25	0xbda17b5a	-0.078848556
26	0x3c7c872f	0.01541309
27	0x3e44dfee	0.19226047
28	0xbe1554b4	-0.14583093
29	0xbdc86b05	-0.09786037
30	0xbe1a43cb	-0.15064923
31	0xbe04a9a9	-0.12955345
32	0x3ec9ee46	0.394396
33	0x3e5abdd5	0.21361478
34	0x3d628ce0	0.05531013
35	0x3e9dae2e	0.3079695
36	0xbeb9bb2b	-0.3627561
37	0xbf86c927	-1.0530137
38	0xbe594561	-0.21217872
39	0x3c216e68	0.009852983
40	0x3cd585cd	0.026064778
41	0x3d991a25	0.0747569
42	0xbd5fbce6	-0.054623507
43	0xbee77d9f	-0.4521303
44	0xbdef9286	-0.11697869
45	0xbedc2e25	-0.43003955
46	0x3da79f8d	0.08184729
47	0xbcd7ddbe	-0.026350852
48	0x3cf713db	0.030160835
49	0xbddd3bcf	-0.10802423
50	0x3d92db15	0.07170693
51	0x3e04487f	0.1291828
52	0x3e531786	0.20614442
53	0x3d9ee2f2	0.0775813
54	0x3d86f84a	0.06590326
55	0xbb182f2b	-0.0023221474
56	0xbf339023	-0.7014181
57	0x3dec55e7	0.11539822
58	0x3db9d7f4	0.09074393
59	0xbe5386cb	-0.20656888
60	0x3d4266cf	0.047461327
61	0xbded9489	-0.116005965
62	0xbe4154cb	-0.18880002
63	0x3e7a4155	0.24438985

layer1.1.weight f4 [64]
0	0x403e5fc5	2.9745953
1	0x3f25b8b0	0.64734936
2	0x3f4227b4	0.7584183
3	0x3f267eb4	0.65037084
4	0x3ed453b1	0.414701
5	0x3f56e8c4	0.8394892
6	0x3f344d3e	0.7043036
7	0x3f0db536	0.5535463
8	0x3f69e44b	0.9136397
9	0x3e90831e	0.28225034
10	0x3f6752c3	0.9036066
11	0x3fb82d5a	1.438884
12	0x3f0441c4	0.5166285
13	0x3ef040b1	0.46924356
14	0x3e8b2586	0.27177066
15	0x3f3b65c4	0.7320216
16	0x3f045332	0.51689446
17	0x3f531a0d	0.82461625
18	0x3e96ccac	0.29453027
19	0x3f3ad2d3	0.7297794
20	0x3f3aa8c8	0.7291379
21	0x3f2177a5	0.6307319
22	0x3f39bf43	0.7255747
23	0x40032c1a	2.0495667
24	0x3ee5059f	0.4473085
25	0x3f56b0a2	0.8386327
26	0x3f5e0db9	0.8673969
27	0x401fc12a	2.4961648
28	0x3f5405a1	0.8282109
29	0x3f202c4b	0.62567586
30	0x3e9ac6c9	0.30229786
31	0x3f484edb	0.78245324
32	0x3fcc5128	1.5962267
33	0x3f1d5133	0.61452025
34	0x3f03ce6e	0.5148686
35	0x3f2462eb	0.64213437
36	0x3f7a774c	0.9783828
37	0x3f41c5c2	0.7569238
38	0x3f4c1cb9	0.7973133
39	0x3f3ccb74	0.73747945
40	0x3ee49b50	0.44649744
41	0x3f9fe957	1.2493085
42	0x3f3e374c	0.74303126
43	0x3fabdca7	1.3426713
44	0x3f4aca52	0.79214966
45	0x3f0fed4b	0.56221455
46	0x3f5ecace	0.87028205
47	0x3f264b96	0.64959085
48	0x3e9cf9c7	0.30659315
49	0x3edf610c	0.43628728
50	0x3f0894b8	0.53351927
51	0x3f0c9f64	0.5493071
52	0x3f1e0422	0.61725056
53	0x3f620e6d	0.8830326
54	0x3e0ebe09	0.1393968
55	0x3f3d2b8e	0.73894584
56	0x405deb38	3.4674816
57	0x3f2f0859	0.6837211
58	0x3f5b4cf9	0.85664326
59	0x3f27a188	0.6548085
60	0x3fb6a9ea	1.4270604
61	0x3f64f5e0	0.89437675
62	0x3f841ff2	1.0322249
63	0x3f23de0e	0.64010704

layer1.1.bias f4 [64]
0	0xbddaaee3	-0.10677888
1	0xbf53ba04	-0.8270571
2	0xbedfa9f4	-0.4368435
3	0xbe232f1b	-0.15935938
4	0x3f15498b	0.5831534
5	0xbf332cc6	-0.69990194
6	0xbe9b3c68	-0.30319524
7	0x3f17283f	0.59045786
8	0x3dacaee5	0.08431796
9	0x3dc5fdbd	0.09667537
10	0xbe876715	-0.26445833
11	0x3d8ed77f	0.06974696
12	0xbf22fb0c	-0.6366432
13	0xbe90b0fd	-0.2826003
14	0xbec107e6	-0.3770134
15	0xbf3115bc	-0.6917379
16	0x3ec57bbc	0.38570964
17	0xbf51757a	-0.8181988
18	0x3fbe4317	1.4864224
19	0xbe6e44b9	-0.23268403
20	0x3defc6a1	0.11707807
21	0xbf040164	-0.5156462
22	0xbef12ee2	-0.4710608
23	0x3f16bcc1	0.58881766
24	0x3ea2b1e5	0.31776348
25	0xbf7701ee	-0.9648732
26	0xbdc38439	-0.09546704
27	0x3f831e2b	1.0243582
28	0x3f1dcf28	0.6164422
29	0x3f45c5f2	0.77255166
30	0xbe8ffee2	-0.28124148
31	0xbf309417	-0.6897597
32	0x3f0d1657	0.5511221
33	0x3f2a956a	0.6663424
34	0xbf40b05e	-0.75269115
35	0x3ec7826f	0.389667
36	0x3f270bdc	0.6525247
37	0x3f07d1cd	0.53054506
38	0xbf1bf17b	-0.60915345
39	0xbee59ef3	-0.4484783
40	0x3f63fa72	0.89054024
41	0x3f39696a	0.72426474
42	0xbecc4ae7	-0.39900896
43	0x3f13f0a2	0.5778905
44	0xbf20a80d	-0.62756425
45	0x3f1f749b	0.622873
46	0xbefda0aa	-0.4953664
47	0xbe0831f5	-0.13300307
48	0xbec7fd41	-0.39060405
49	0x3f0df5e0	0.554533
50	0xbf3c0d80	-0.734581
51	0x3da0795a	0.07835646
52	0xbef4e8f3	-0.47833976
53	0xbf2330af	-0.6374616
54	0x3dcd2ba4	0.100180894
55	0xbf38443f	-0.71979135
56	0xbd1c3d92	-0.038144656
57	0xbf303e8f	-0.68845457
58	0xbf02405f	-0.5087947
59	0xbf52503a	-0.82153666
60	0x3ea6b286	0.32558078
61	0xbe3bf7e2	-0.18356279
62	0x3f6cf6bc	0.92563987
63	0x3e688e11	0.22710444

layer1.1.running_mean f4 [64]
0	0x3eee4816	0.46539372
1	0x3ebe3c01	0.37155154
2	0x3c7cba7e	0.015425323
3	0x3b286700	0.0025696158
4	0x3fbaad05	1.4584051
5	0xbf9841fa	-1.1895134
6	0xbf344a0b	-0.7042548
7	0x3ede7b6a	0.43453532
8	0xbe5b6e4f	-0.21428798
9	0xbd86f24f	-0.065891854
10	0xbf2bc38b	-0.6709525
11	0xbf05740f	-0.52130216
12	0xbefdcb6d	-0.49569264
13	0xbf22045a	-0.6328789
14	0x3e719dd5	0.23595364
15	0xbe8ea0e3	-0.27857122
16	0xbe6a2638	-0.22866142
17	0xbe224c33	-0.1584938
18	0x3fb5e290	1.4209766
19	0xbe7adc26	-0.24498042
20	0xbf1288fa	-0.5724026
21	0x3f14481c	0.5792253
22	0x3d6654ec	0.05623333
23	0xbc1701ca	-0.009216735
24	0xbe9b4567	-0.30326387
25	0xbf4e8b9c	-0.80681777
26	0xbf399145	-0.7248729
27	0x3d95d25c	0.073155135
28	0xbe472a70	-0.19449782
29	0x3f258336	0.64653337
30	0x3e41729a	0.18891373
31	0xbf2c1ca3	-0.67231196
32	0x3eeb9b3b	0.4601687
33	0x3ee203d3	0.44143543
34	0x3ed01dd1	0.40647748
35	0xbdbb135a	-0.091345504
36	0xbf3ca291	-0.73685557
37	0xbf645767	-0.89195865
38	0xbf6b9ab8	-0.9203296
39	0xbe2507af	-0.16116212
40	0x3dc157b9	0.0944056
41	0xbf735ab4	-0.95060277
42	0xbf2d76bb	-0.67759293
43	0xbed3b9a6	-0.41352576
44	0x3ecfee55	0.4061152
45	0xbe6217c4	-0.22079378
46	0xbe991723	-0.29900464
47	0xbded41af	-0.11584794
48	0xbe981dba	-0.2971018
49	0x3e70192a	0.234471
50	0x3e0ecb6b	0.13944785
51	0x3e529773	0.20565586
52	0x3c09a465	0.008401011
53	0xbf0110c9	-0.5041624
54	0x3fa42d83	1.2826389
55	0xbe89263d	-0.26786986
56	0xbf3f5e0a	-0.7475287
57	0xbd383fa1	-0.044982556
58	0xbc8ba4a6	-0.017046284
59	0xbe92e692	-0.28691536
60	0xbd57b5d1	-0.052663628
61	0xbdfe58d4	-0.12419286
62	0xbe1c3d9b	-0.15257876
63	0x3ecd129c	0.4005326

layer1.1.running_var f4 [64]
0	0x4034566a	2.8177743
1	0x3fd9137b	1.695907
2	0x414b5e28	12.710487
3	0x4106a79b	8.415919
4	0x416377d1	14.216752
5	0x40e51b87	7.1596103
6	0x40e8e04f	7.2773814
7	0x3e8c0fd3	0.27355823
8	0x403bf082	2.9365544
9	0x3f86b80b	1.0524915
10	0x40c814af	6.252525
11	0x3f2ef460	0.68341637
12	0x410196bc	8.0993
13	0x4013d3d5	2.3098042
14	0x408aee96	4.3416243
15	0x3f82cd6e	1.0218942
16	0x41008752	8.033037
17	0x409a86be	4.828948
18	0x41707dde	15.030729
19	0x3f3ab5ca	0.7293364
20	0x3ec8a66b	0.39189467
21	0x4011d625	2.2786953
22	0x413fc6a0	11.985992
23	0x4011b101	2.2764285
24	0x3f72428e	0.94632804
25	0x4020eea5	2.5145657
26	0x40803d67	4.0074954
27	0x40a3550c	5.1041317
28	0x40043713	2.0658615
29	0x40922af1	4.567742
30	0x40030b14	2.0475512
31	0x3fc8c5f1	1.5685407
32	0x3f4a3560	0.78987694
33	0x3ee023e5	0.43777385
34	0x4084e8b1	4.1534047
35	0x408a113a	4.314603
36	0x3fe2d32b	1.7720693
37	0x3f0a57e9	0.5404039
38	0x409c92a8	4.8929024
39	0x4060e825	3.514169
40	0x408f6405	4.4809594
41	0x40b2578a	5.573186
42	0x404cb0f1	3.1982996
43	0x3e5600e4	0.20898777
44	0x40a69fad	5.2069917
45	0x3fe866ba	1.815635
46	0x40258da5	2.5867703
47	0x3f432868	0.7623353
48	0x3f7a8f8f	0.97875303
49	0x3eb99471	0.36246064
50	0x3fda2775	1.7043291
51	0x40b9a33e	5.801177
52	0x3fd2045f	1.6407584
53	0x3f8c91f7	1.0982045
54	0x4157364a	13.450754
55	0x3fd7780d	1.6833512
56	0x40858484	4.172426
57	0x4046b288	3.1046467
58	0x3fcb76fc	1.5895686
59	0x401195f7	2.2747781
60	0x4000fcfe	2.0154414
61	0x3f18be7b	0.5966565
62	0x402e6ffb	2.7255847
63	0x3f4f63f6	0.81011903

layer2.0.weight f4 [64, 64, 3, 3]
0	0xbebad246	-0.3648855
1	0xbe95eb8c	-0.2928127
2	0xbe116351	-0.14198042
3	0xbe89f435	-0.26944128
4	0xbeb43c75	-0.35202375
5	0xbeafe0fa	-0.3435133
6	0x3db101ed	0.086429454
7	0x3defd382	0.11710264
8	0x3e7d849f	0.24757622
9	0xbe9fdb04	-0.31221783
10	0xbe2fc200	-0.17163849
11	0xbde19efb	-0.11016651
12	0xbe823c59	-0.25436667
13	0xbe213d9f	-0.15746163
14	0xbdc4cc37	-0.096092634
15	0xbe946d77	-0.28989765
16	0xbe334605	-0.17507179
17	0xbe0b8125	-0.13623483
18	0xbd499456	-0.04921373
19	0xbdf31bf3	-0.11870565
20	0xbd6486f3	-0.05579276
21	0xbe52ce3b	-0.20586483
22	0xbe82a46b	-0.25516066
23	0xbe08e850	-0.1336987
24	0xbe74fdce	-0.23924944
25	0xbe8eba03	-0.2787629
26	0xbdf91e85	-0.12164024
27	0x3d316727	0.043311264
28	0xbd2e9365	-0.042621035
29	0xbcbce255	-0.023057142
30	0xbe2273c6	-0.15864477
31	0xbe6d51ed	-0.23175783
32	0xbddf69e9	-0.10908873
33	0xbe480d88	-0.19536412
34	0xbe5d3ff6	-0.2160643
35	0xbda00fe2	-0.078155294
36	0x3de883d3	0.113532685
37	0xbd71ac9f	-0.059002515
38	0x3ce4ab08	0.027913585
39	0xbdd09fee	-0.10186754
40	0xbe8717e4	-0.26385415
41	0xbe5fba84	-0.21848494
42	0xbd18b2ca	-0.03727988
43	0xbe2074ee	-0.15669605
44	0xbdc07b75	-0.093985476
45	0xbd5a0425	-0.05322661
46	0x3c8bada4	0.017050572
47	0x3e7d0e38	0.24712455
48	0x3b00a758	0.0019630995
49	0x3d88e266	0.06683807
50	0x3ea55f04	0.32299054
51	0x3d6fc219	0.058534715
52	0x3e8231bf	0.25428578
53	0x3e8d1974	0.27558482
54	0xbd0ccad0	-0.034373105
55	0xbc2c4801	-0.010515214
56	0x3dc75ee2	0.09734894
57	0x3de2b204	0.1106911
58	0x3ea326de	0.3186559
59	0x3ec92a67	0.39290163
60	0x3a0b5bff	0.00053161377
61	0x3dc53641	0.09629489
62	0x3e652a73	0.22379474
63	0x3db6c699	0.08924598
64	0x3c7ab480	0.015301824
65	0xbb531ea5	-0.003221431
66	0x3db4290b	0.08796891
67	0x3c801526	0.015635084
68	0x3d37bed9	0.04485974
69	0x3e86b449	0.26309422
70	0x3e38fbc1	0.18064786
71	0x3e5f7dcf	0.21825336
72	0xbdfc321b	-0.12314244
73	0xbdea2231	-0.11432303
74	0x3e3ef5a3	0.1864839
75	0x3dcde841	0.100540645
76	0x3e9058da	0.28192788
77	0x3f10ffd2	0.5664035
78	0xbea11dca	-0.3146804
79	0xbe2c604c	-0.1683361
80	0x3dd4c22a	0.10388596
81	0x3caac651	0.020846518
82	0x3e02a796	0.12759241
83	0x3e71e248	0.23621476
84	0x3daa0d3f	0.08303308
85	0x3d6fa772	0.058509298
86	0x3c9817a1	0.018565955
87	0x3da9d0d0	0.08291781
88	0x3dfcab23	0.12337329
89	0x3e19a770	0.15005279
90	0xbedbccba	-0.4292963
91	0xbe0afa1c	-0.13571972
92	0xbdfae810	-0.12251294
93	0xbd72b899	-0.059258077
94	0x3f0067c4	0.50158334
95	0x3eede6c4	0.46465123
96	0xbe41c88c	-0.18924159
97	0x3e92bfed	0.28662053
98	0x3e4bdecc	0.19909209
99	0xbcf2cc0c	-0.029638313
100	0xbdb0551a	-0.08609982
101	0x3d8228dd	0.0635545
102	0xbe03013e	-0.12793443
103	0xbd310c81	-0.043224815
104	0x3e45f405	0.19331367
105	0xbf15cd51	-0.5851641
106	0xbf058490	-0.521554
107	0xbe46eb1f	-0.19425629
108	0xbec2610c	-0.37964666
109	0xbeb74845	-0.35797325
110	0xbeae9bae	-0.3410315
111	0xbedc264f	-0.42997977
112	0xbedf223d	-0.4358081
113	0xbeace342	-0.33767134
114	0xbedb6e6e	-0.4285769
115	0xbecaf219	-0.3963783
116	0xbe85793c	-0.26069057
117	0xbf1d01f5	-0.6133111
118	0xbe833fa1	-0.25634483
119	0xbe610047	-0.21972762
120	0xbee40dbd	-0.4454173
121	0xbe47bf70	-0.19506621
122	0xbdb2b23d	-0.087254025
123	0xbf092cc4	-0.5358393
124	0xbe6a25b3	-0.22865944
125	0xbe4ba68d	-0.19887753
126	0xbde85e60	-0.113461256
127	0xbe3a17b6	-0.18173108
128	0xbdbfcf51	-0.09365714
129	0xbde0bdc4	-0.10973695
130	0xbe197312	-0.14985302
131	0xbe35c456	-0.17750677
132	0xbdfd2f5a	-0.12362547
133	0xbdbd7d02	-0.09252359
134	0xbd886c80	-0.0666132
135	0xbcf78161	-0.03021306
136	0x3bfecc66	0.007775831
137	0x3e1dc445	0.15406902
138	0x3c671fa8	0.0141066685
139	0x3dbcc5e8	0.09217435
140	0x3e6c719f	0.23090218
141	0xbd9b20d0	-0.07574618
142	0xbc93e574	-0.018053748
143	0x3dbbd116	0.09170739
144	0xbf27de12	-0.6557323
145	0xbf01a944	-0.50648904
146	0xbee3bc19	-0.44479445
147	0xbef838aa	-0.4848073
148	0xbe3845ae	-0.1799533
149	0xbe4c1e33	-0.19933395
150	0xbeda1212	-0.42591912
151	0xbe6cd6b3	-0.23128776
152	0xbea4ad80	-0.3216362
153	0xbda7f516	-0.08201043
154	0xbe003097	-0.12518536
155	0xbe2048bc	-0.15652746
156	0xbe6a8be2	-0.22904924
157	0xbe6968fa	-0.22793952
158	0xbe2cd4ea	-0.16878095
159	0xbe4bbc61	-0.1989608
160	0xbe88a39a	-0.26687318
161	0xbe2f6aba	-0.17130557
162	0x3e0176a2	0.12642911
163	0xbdaa5b39	-0.083181806
164	0x3d28fdb8	0.04125759
165	0xbd12d80c	-0.03585057
166	0xbe70ced1	-0.23516394
167	0xbe2c211e	-0.16809508
168	0x3d96e0d6	0.07367103
169	0xbe3198f3	-0.17343502
170	0xbdca8fa9	-0.09890682
171	0xbda89b8e	-0.08232795
172	0xbe1d69cd	-0.15372391
173	0xbd20cb1a	-0.039256193
174	0x3e249dd9	0.16075839
175	0x3e32f3e0	0.17475843
176	0x3e86af9f	0.26305863
177	0x3bd366d9	0.0064514694
178	0x3de8fe29	0.11376602
179	0x3dc752f9	0.09732623
180	0xbe395f50	-0.18102765
181	0xbcab7182	-0.020928148
182	0x3e85fed2	0.26170975
183	0xbdde7a69	-0.10863192
184	0x3dc4f9ef	0.096179835
185	0x3ee7954a	0.45231086
186	0xbe93b15b	-0.2884625
187	0xbe0da294	-0.1383155
188	0x3d1dbbfb	0.03850935
189	0xbe427564	-0.18990093
190	0xbe449b3c	-0.19199842
191	0xbdcb5ddd	-0.099300124
192	0xbe984160	-0.29737377
193	0xbe566a50	-0.20938993
194	0xbd8fbb2a	-0.070181206
195	0xbe6035fb	-0.21895592
196	0xbe6d1132	-0.2315109
197	0xbdd51e42	-0.10406162
198	0xb7f4f442	-2.9200808e-05
199	0xbd190432	-0.037357517
200	0x3c6d7c9b	0.01449504
201	0xbdbd21b7	-0.09234946
202	0xbe09cae3	-0.13456301
203	0xbd1167cd	-0.035499383
204	0xbda99a76	-0.08281414
205	0xbe2ada7d	-0.16684909
206	0xbd55d178	-0.052201718
207	0xbe970fda	-0.2950428
208	0xbda1bac2	-0.07896949
209	0x3ea91469	0.33023384
210	0x3dd4b4ec	0.103860706
211	0x3e0dcfad	0.13848753
212	0xbcf320fd	-0.029678816
213	0xbe5c6e3c	-0.21526426
214	0xbef07d03	-0.46970376
215	0xbecdba65	-0.4018127
216	0xbd075f5b	-0.033049922
217	0x3c7991fe	0.015232561
218	0x3e48ffc0	0.19628811
219	0x3cc24990	0.023716718
220	0x3e5baeff	0.21453474
221	0x3eb321a3	0.349866
222	0xbee7d8e2	-0.45282656
223	0xbedb4a12	-0.4282995
224	0xbedc7b4c	-0.43062818
225	0xbcd32525	-0.025774548
226	0x3d23bde4	0.039976016
227	0x3da4df10	0.08050358
228	0xbd267e65	-0.040647883
229	0xbc77d1cb	-0.015125702
230	0x3d768666	0.060186766
231	0xbcd33454	-0.025781788
232	0xbde16f60	-0.11007571
233	0xbda8619e	-0.08221744
234	0xbbad4d40	-0.00528875
235	0x3e6baae7	0.23014413
236	0x3e8447b7	0.25835964
237	0x3e3e67f0	0.18594337
238	0x3f216478	0.6304393
239	0x3f10e614	0.5660107
240	0x3eabfc3f	0.33590886
241	0x3f21047a	0.62897456
242	0x3f03e3a6	0.5151924
243	0xbf05e19c	-0.5229738
244	0x3e793cc0	0.2433958
245	0x3f0ef6cc	0.5584533
246	0xbf06eb5f	-0.527029
247	0xbece2e5a	-0.40269738
248	0xbe0ab1e9	-0.1354443
249	0x3d9d8f87	0.07693391
250	0x3d57fbe7	0.052730467
251	0x3f16c4d0	0.5889406
252	0xbe41bd21	-0.18919803
253	0xbe44c4b4	-0.19215661
254	0x3eac2171	0.33619264
255	0x3ec1e09f	0.37866685

layer2.0.bias f4 [64]
0	0x3d5512f9	0.052020047
1	0xbcdaf2d6	-0.026727121
2	0x3bdf08d4	0.0068064723
3	0xbd0c7c4a	-0.03429822
4	0xbbb3c74a	-0.0054864036
5	0xbc88e725	-0.01671178
6	0xbc1cfc6f	-0.009581669
7	0x3cc60304	0.02417136
8	0x3ca8aa5b	0.020589044
9	0xbcf12f22	-0.02944142
10	0xbca5ec17	-0.020254178
11	0xbc938f1f	-0.018012581
12	0xbd84132a	-0.06448968
13	0x3d31f55c	0.043446884
14	0x3d748120	0.059693456
15	0x3d5c907c	0.05384873
16	0xbd5fbb43	-0.054621946
17	0xbd31dcc8	-0.043423444
18	0xbddd4a0e	-0.108051404
19	0xbd63d26e	-0.055620603
20	0x3da0bcf0	0.07848537
21	0xbe0e8ff3	-0.139221
22	0x3d3a2908	0.045449287
23	0xbc7e63d5	-0.0155267315
24	0xbd15f2d2	-0.036608525
25	0x3c9e840c	0.019350074
26	0x3d888b59	0.066672035
27	0xbbb8eb4a	-0.005643283
28	0x3d2a5c10	0.041591704
29	0x3c2fc888	0.010728963
30	0xbc0addf9	-0.008475774
31	0x3c79c313	0.015244263
32	0x3d652261	0.05594099
33	0xbda6de0e	-0.08147822
34	0x3d96b118	0.07357997
35	0xbcc2cd05	-0.023779402
36	0xb9ed9013	-0.00045311506
37	0xbbe9b07d	-0.0071316347
38	0xbd96003b	-0.07324263
39	0x3d79d291	0.060991827
40	0xbd411cfe	-0.04714679
41	0x3d87556e	0.06608091
42	0xbd6e7e30	-0.05822581
43	0x3c023b17	0.007948658
44	0x3bf4baca	0.007468556
45	0x3c530bda	0.012881244
46	0x3da33324	0.07968739
47	0xbdf31785	-0.1186972
48	0x3d982f7d	0.07430933
49	0x3af70eb9	0.0018848992
50	0xbccdc519	-0.025118398
51	0xbd5a4297	-0.05328616
52	0xbca75f6f	-0.020431248
53	0x3d51adad	0.05119102
54	0xbd01a07a	-0.031647183
55	0x3d275ead	0.040861774
56	0xbd837241	-0.064182766
57	0xbdba2fde	-0.09091161
58	0x3dc86017	0.09783953
59	0x3d8e48f7	0.06947511
60	0x3cabfda0	0.020994961
61	0x3cf53e3c	0.029936902
62	0xbdccc9bc	-0.09999415
63	0x3d86f0fb	0.06588932

layer2.1.weight f4 [64]
0	0x3f3701da	0.714872
1	0x3f4180ee	0.75587356
2	0x3f5b6cba	0.8571278
3	0x3f46697b	0.775047
4	0x3fa9a929	1.3254749
5	0x3f91a409	1.1378185
6	0x3f941819	1.1569854
7	0x3f5078cf	0.8143434
8	0x3f810d7e	1.0082242
9	0x3f8cba16	1.0994289
10	0x3f03960f	0.51400846
11	0x3edcfb12	0.431603
12	0x3f5016be	0.812847
13	0x3fa73af0	1.3064861
14	0x3f9af8af	1.2107142
15	0x3f465570	0.7747412
16	0x3fac8a08	1.3479624
17	0x3f74dcbc	0.95649314
18	0x3fbb2fc5	1.4623953
19	0x3f12bbe4	0.5731795
20	0x3fe8d509	1.8190013
21	0x3fa61a4c	1.2976775
22	0x3fa104d6	1.2579601
23	0x3ef70753	0.48247775
24	0x3f88b251	1.0679418
25	0x3f11fd45	0.57027084
26	0x3f8b4076	1.0879047
27	0x4009370b	2.1439846
28	0x3f004211	0.5010081
29	0x3f44f504	0.76936364
30	0x3efb56b0	0.49089575
31	0x3f86a6e1	1.0519677
32	0x3f8ae9b8	1.0852575
33	0x3f319b2c	0.693774
34	0x3fbe29ad	1.4856468
35	0x3f447a7d	0.767494
36	0x3f620fcf	0.8830537
37	0x3ffab387	1.9586037
38	0x3f977002	1.1831057
39	0x3f8972c0	1.0738144
40	0x3f6c5bde	0.9232768
41	0x3f867757	1.050517
42	0x3e9487c8	0.29009843
43	0x3f01f856	0.50769556
44	0x3f38cfe6	0.7219223
45	0x3fb6e5fd	1.4288937
46	0x3f27ed37	0.65596336
47	0x3ff1304d	1.8842865
48	0x3fb4aa32	1.411444
49	0x3f9b9055	1.2153422
50	0x3f1fbaf9	0.6239467
51	0x3fe269de	1.7688558
52	0x3f241113	0.64088553
53	0x3f51e687	0.8199238
54	0x3f55f106	0.835709
55	0x3f070127	0.52736133
56	0x3f85e286	1.0459754
57	0x3f1ff126	0.6247734
58	0x3f57354e	0.8406571
59	0x3f782681	0.9693375
60	0x3f8abe18	1.0839262
61	0x3f0b9bb9	0.5453449
62	0x3fbbc8bb	1.4670633
63	0x3f6de6d7	0.9293036

layer2.1.bias f4 [64]
0	0xbe9ef67c	-0.31047428
1	0xbf3712d5	-0.7151311
2	0xbef77ed8	-0.48338962
3	0xbf24f4ee	-0.64436233
4	0xbed91b36	-0.42403573
5	0xbf01554b	-0.5052077
6	0xbe1bb54f	-0.15205882
7	0xbc840ef0	-0.016120404
8	0x3d0f5ee0	0.03500259
9	0x3f050caa	0.5197245
10	0xbf32b5b9	-0.69808537
11	0xbeb4553c	-0.3522128
12	0xbf2cd0c9	-0.6750608
13	0xbe8487d1	-0.2588487
14	0xbe42db27	-0.19028912
15	0xbf9c603c	-1.2216868
16	0xbf0b93c2	-0.54522336
17	0xbfa29454	-1.2701516
18	0xbf22d27f	-0.6360244
19	0xbeda8568	-0.42679906
20	0xbf8867ca	-1.0656674
21	0x3f3aa769	0.729117
22	0xbf3a0ec1	-0.7267876
23	0xbf2e33c9	-0.6804777
24	0xbe9bfedd	-0.30467883
25	0xbe149753	-0.1451085
26	0xbef15cf9	-0.47141245
27	0xbf230085	-0.6367267
28	0x3ea5a0a6	0.32349128
29	0xbec6e2c2	-0.38844877
30	0xbf35187e	-0.707405
31	0xbf287b29	-0.6581293
32	0xbf182909	-0.59437615
33	0xbd972074	-0.07379237
34	0x3f3e2b01	0.7428437
35	0xbda2bc64	-0.07946089
36	0xbf408e16	-0.75216806
37	0xbf79e317	-0.97612137
38	0xbe4ac225	-0.19800623
39	0x3ef6740b	0.4813541
40	0xbf1076f8	-0.5643153
41	0xbfa7beb1	-1.3105069
42	0x3e0e6d14	0.13908798
43	0x3e980c8f	0.2969708
44	0xbe25eea2	-0.16204312
45	0xbeb06a4c	-0.34456098
46	0xbe1fb4b8	-0.15596282
47	0xbe68a659	-0.22719707
48	0xbeddad11	-0.43296102
49	0xbef2afec	-0.47399843
50	0xbf4ab4b9	-0.7918201
51	0xbd311015	-0.043228228
52	0x3e00c93f	0.1257677
53	0xbf00361f	-0.5008258
54	0xbf03c30f	-0.5146951
55	0xbf3839a0	-0.7196293
56	0x3f073073	0.528083
57	0xbf63ac23	-0.88934535
58	0xbe3214a1	-0.17390682
59	0xbe9d1da3	-0.30686674
60	0xbeb84f62	-0.35998064
61	0xbf79e549	-0.97615486
62	0xbef074a9	-0.46964005
63	0xbe3b5bed	-0.18296786

layer2.1.running_mean f4 [64]
0	0x3f22a38e	0.63530815
1	0xc1d19673	-26.198462
2	0xc1155108	-9.332283
3	0xc1f9fae7	-31.24751
4	0xc2159024	-37.390762
5	0xc1ddfe75	-27.749247
6	0xc1ad4b95	-21.661905
7	0xc02fa593	-2.7444808
8	0xc1cd3772	-25.652073
9	0xc1f53f95	-30.656046
10	0x4055762d	3.3353379
11	0xc1861a06	-16.762707
12	0xc1b7842d	-22.939539
13	0xc22bc0be	-42.938225
14	0xc1f88927	-31.066969
15	0x41b6ded8	22.85881
16	0xc1766769	-15.400247
17	0x3fc87200	1.565979
18	0xc2205d00	-40.09082
19	0xc10d93f7	-8.848624
20	0xc26dfa3d	-59.494373
21	0xc142bd09	-12.171151
22	0xc2357b70	-45.370544
23	0x4009a34f	2.1505926
24	0xc1a04430	-20.033295
25	0xc1322be9	-11.13572
26	0xc1a0b558	-20.088547
27	0xc16f2ece	-14.948927
28	0xc015cc79	-2.340605
29	0xc1092c2c	-8.573284
30	0x4006277f	2.0961607
31	0xc20d1de9	-35.27921
32	0xc2274fb8	-41.82785
33	0xc1904cbe	-18.037472
34	0x4088cdf5	4.2751412
35	0x41ae7e2c	21.811607
36	0xc1dd34ad	-27.65072
37	0xc27e798d	-63.618702
38	0xc2242974	-41.04048
39	0xc10d4cd3	-8.831256
40	0xc20c28d3	-35.039867
41	0xc08f6cb8	-4.4820213
42	0x3f131cc7	0.57465786
43	0x41cdb95b	25.715506
44	0xc19b9b39	-19.450792
45	0xc242396e	-48.556084
46	0xc03435dd	-2.8157876
47	0xc1a57f3e	-20.68713
48	0xc2816034	-64.6879
49	0xc1e09f4c	-28.077782
50	0xc0e82b50	-7.255287
51	0xc08b553a	-4.3541536
52	0xc10fdd65	-8.991551
53	0xc1c56c30	-24.677826
54	0xc1a232bf	-20.274778
55	0xc03508b3	-2.828656
56	0xc206058f	-33.50543
57	0x404cabcf	3.1979864
58	0xc1444f49	-12.269357
59	0xc0a8d592	-5.2760706
60	0xc1deeb30	-27.864838
61	0x4173000b	15.1875105
62	0xc1f5e099	-30.734667
63	0x40b196bb	5.5496497

layer2.1.running_var f4 [64]
0	0x4334a807	180.65636
1	0x437cc56e	252.77121
2	0x43257be6	165.48398
3	0x43a4ed7c	329.85535
4	0x447ac705	1003.1097
5	0x435d67b4	221.40509
6	0x4425996d	662.3973
7	0x435e2c27	222.17247
8	0x441c1510	624.3291
9	0x446fd2d6	959.2943
10	0x424711cb	49.767376
11	0x43545b41	212.35646
12	0x4380124c	256.14294
13	0x445a121e	872.2831
14	0x44064763	537.1154
15	0x43a28414	325.03186
16	0x43f67fdd	492.99893
17	0x439d8c53	315.09628
18	0x43b77c88	366.9729
19	0x42e7534f	115.66271
20	0x44dd7afb	1771.8431
21	0x43f7da34	495.7047
22	0x4413eb7f	591.6796
23	0x42ba9472	93.28993
24	0x436a722b	234.44597
25	0x4351d06d	209.81416
26	0x432d5d74	173.36505
27	0x43deccd6	445.60028
28	0x42e8c7bf	116.39013
29	0x43678e33	231.55547
30	0x435070be	208.4404
31	0x4462fc66	907.9437
32	0x44017d15	517.9544
33	0x440f5e78	573.4761
34	0x441abc32	618.94055
35	0x43ef782a	478.93878
36	0x4371dd45	241.86433
37	0x45048c75	2120.7786
38	0x43af8992	351.07477
39	0x441f42e1	637.045
40	0x43ecb97a	473.44904
41	0x4340b488	192.7052
42	0x42a6832f	83.25622
43	0x43a455ee	328.67133
44	0x4331f21b	177.94572
45	0x442be6ab	687.6042
46	0x428684ff	67.25976
47	0x446f4ecf	957.2314
48	0x446388b4	910.136
49	0x43f64a16	492.5788
50	0x42ab9207	85.78521
51	0x440c0fba	560.2457
52	0x4319a35c	153.63812
53	0x43af1a4f	350.20554
54	0x435d83bc	221.51459
55	0x43351de6	181.11679
56	0x4407e48c	543.57104
57	0x42d6d091	107.40736
58	0x429bdd6e	77.93248
59	0x42491ae3	50.276257
60	0x4334220f	180.13304
61	0x433b6b9e	187.42038
62	0x439a977c	309.18347
63	0x43bf6ba3	382.8409

layer3.0.weight f4 [64, 64, 3, 3]
0	0xbe3d0dee	-0.18462345
1	0xbe70879b	-0.2348923
2	0xbef01bb9	-0.4689615
3	0xbdd4551a	-0.10367794
4	0xbe260c6b	-0.16215675
5	0xbd7473c6	-0.059680723
6	0xbe2c8c4a	-0.16850391
7	0x3d040fd6	0.032241665
8	0x3e38dbde	0.18052623
9	0x3ee79a15	0.45234743
10	0x3ea1f67b	0.31633362
11	0x3e34e4e1	0.17665435
12	0x3cd6df1d	0.026229436
13	0x3b8ea0ed	0.00435268
14	0x3dd08d2d	0.10183177
15	0xbe20de99	-0.15709914
16	0x3e69f32d	0.2284667
17	0x3e633e07	0.2219163
18	0x3de17a3b	0.11009642
19	0x3e447bf4	0.1918791
20	0x3ee88f25	0.4542171
21	0x3c85d91a	0.016338874
22	0xbe8ed18f	-0.27894256
23	0x3ce54e68	0.027991489
24	0xbea7f67c	-0.3280524
25	0xbe6d72bf	-0.23188303
26	0x3ea401fe	0.3203277
27	0xbdc52760	-0.09626651
28	0xbc9541a7	-0.018219782
29	0xbe31d311	-0.17365672
30	0x3e11c8dc	0.14236778
31	0x3d5783a0	0.05261576
32	0xbd28dcd9	-0.04122624
33	0x3e89df2e	0.26928085
34	0x3eac60ee	0.336677
35	0x3df04ee6	0.11733799
36	0x3ea05471	0.31314424
37	0xbe9225a4	-0.28544343
38	0x3f0fb067	0.56128544
39	0xbf0b0844	-0.5430949
40	0xbf6d4f6e	-0.92699325
41	0xbe4e977b	-0.20174973
42	0x3f17e3c5	0.59331924
43	0xbd709857	-0.058739033
44	0x3f1062ae	0.56400573
45	0xbe3270de	-0.17425868
46	0xbc184abe	-0.009295164
47	0xbedba02d	-0.42895642
48	0x3ee7dea8	0.4528706
49	0x3ed21b25	0.41036335
50	0x3e310c76	0.1728991
51	0xbea936b7	-0.33049557
52	0xbed8ad44	-0.4231969
53	0xbe951b16	-0.29122227
54	0xbe2891d2	-0.16461876
55	0x3e549ed2	0.2076371
56	0x3eecd866	0.4625885
57	0xbf11a025	-0.56884986
58	0xbefe27f7	-0.49639866
59	0xbe875f35	-0.26439825
60	0x3f09b383	0.5378954
61	0x3e813fc0	0.2524395
62	0x3f2087cf	0.6270723
63	0xbe81fdb3	-0.2538887
64	0xbe0ec39d	-0.13941808
65	0xbf1992c3	-0.59989566
66	0xbe00c010	-0.12573266
67	0x3e19ad1f	0.15007447
68	0xbe003e6c	-0.12523812
69	0xbf7e22a9	-0.9927164
70	0xbdd6efec	-0.1049498
71	0xbe4ca336	-0.19984135
72	0x3ebe10e7	0.3712227
73	0xbd8fb9cd	-0.070178606
74	0x3edf628f	0.43629882
75	0xbe7ba718	-0.2457546
76	0xbf3f3128	-0.7468438
77	0xbe07160b	-0.13192002
78	0x3ec52531	0.38504937
79	0xbd212b23	-0.03934778
80	0x3e15a23b	0.14612667
81	0xbf1e223e	-0.61771
82	0x3d3c4ec8	0.04597357
83	0x3e08ebfc	0.13371271
84	0xbedd386b	-0.43207106
85	0x3e4d5f8e	0.20055982
86	0x3df810f8	0.121126115
87	0x3e6d69a5	0.23184831
88	0x3f4b6dd6	0.7946447
89	0x3f085cff	0.532669
90	0x3eb09fe6	0.34496993
91	0x3cb01c39	0.021497833
92	0x3d15e6e1	0.036597136
93	0x3e7652ef	0.24055074
94	0xbe766134	-0.24060518
95	0xbe2aab9e	-0.1666703
96	0x3e89445a	0.2680996
97	0x3d713cb3	0.058895778
98	0x3dbe9a51	0.09306777
99	0x3db7d56c	0.08976254
100	0xbc74d165	-0.014942502
101	0xbe98925e	-0.2979917
102	0xbd7bb6ac	-0.061453506
103	0x3cad7ed0	0.021178633
104	0xbd30c935	-0.043160636
105	0xbe36057d	-0.17775531
106	0x3c3f111f	0.011661797
107	0xbd8bc021	-0.06823755
108	0xbea9bc23	-0.3315135
109	0x3e89f99e	0.26948255
110	0x3ea8422f	0.32862994
111	0xbe8ad330	-0.27114248
112	0x3ec3dca9	0.38254288
113	0x3ea00e37	0.31260845
114	0xbef630e0	-0.48084164
115	0x3ec364f9	0.38162974
116	0x3f1559ee	0.58340347
117	0xbdb51224	-0.08841351
118	0xbf0ef0dc	-0.5583627
119	0xbecbe5c9	-0.3982375
120	0x3eb484d4	0.3525759
121	0xbe8e03ab	-0.27737173
122	0xbdc4006e	-0.095703945
123	0x3f2134d6	0.62971246
124	0x3c8992b1	0.01679358
125	0xbe451a4d	-0.19248314
126	0x3ec49a15	0.38398805
127	0xbe86d306	-0.26332873
128	0xbde94dfb	-0.11391827
129	0xbdf0d77c	-0.117598504
130	0xbcd9db9c	-0.026593976
131	0x3d2529a0	0.0403229
132	0xbe9706f1	-0.29497483
133	0xbdd76cc2	-0.10518791
134	0x3e0540b2	0.1301296
135	0xbdba1952	-0.09086861
136	0xbe24b882	-0.16086009
137	0xbf13bc1c	-0.5770891
138	0xbe728831	-0.23684765
139	0xbe8e10b6	-0.27747124
140	0xbf445936	-0.76698625
141	0xbf27c53c	-0.6553533
142	0xbf59fa9f	-0.8514804
143	0xbf8dd321	-1.1080056
144	0x3e2812fb	0.1641349
145	0x3f49041e	0.7852191
146	0xbe91281e	-0.2835092
147	0x3ebf2340	0.3733158
148	0x3f2613ed	0.64874154
149	0xbc476977	-0.012171141
150	0xbf672a9f	-0.9029941
151	0xbe0fc434	-0.1403969
152	0x3ebf9c4f	0.37423941
153	0x3e19322e	0.14960548
154	0xbd168afb	-0.036753636
155	0xbf0c470d	-0.54795915
156	0xbdf6ab0c	-0.12044343
157	0x3e36bb74	0.17844945
158	0xbefa7a59	-0.4892147
159	0xbee87444	-0.45401204
160	0xbedbc8e0	-0.42926693
161	0xbf738ac6	-0.95133626
162	0xbe518611	-0.20461299
163	0x3e55b909	0.20871367
164	0x3f077433	0.5291168
165	0xbf0b6e13	-0.54464835
166	0xbdd081c5	-0.101810016
167	0x3ed1551e	0.40885252
168	0xbf439b4e	-0.7640885
169	0xbed6a7e7	-0.41924974
170	0xbe279fc2	-0.16369537
171	0x3e350b4e	0.17680094
172	0x3e1e2ec1	0.15447523
173	0x3eac2a13	0.3362585
174	0x3de40276	0.11133282
175	0xbd8224a9	-0.063546486
176	0x3b09bd6b	0.0021017443
177	0xbd1dfd9e	-0.038571946
178	0xbd8e2eca	-0.06942518
179	0xbdced21a	-0.100986674
180	0xbdd49e21	-0.10381723
181	0xbe873faf	-0.26415774
182	0x3eb3b9e2	0.35102755
183	0xbf7fec3b	-0.99969834
184	0xbf793ddc	-0.97360015
185	0xbf16d8c4	-0.5892451
186	0x3f0e2c79	0.5553661
187	0xbec92783	-0.39287958
188	0x3f04f60f	0.51937956
189	0x3ecc5e62	0.39915758
190	0xbe337af5	-0.17527373
191	0xbf5dc440	-0.8662758
192	0x3f907a6e	1.1287363
193	0x3e9c4d58	0.3052776
194	0xbe8703c7	-0.2637007
195	0x3e9b713b	0.30359825
196	0x3d10f8a8	0.035393387
197	0xbf4e57bc	-0.8060262
198	0xbedbaa56	-0.42903394
199	0xbee128a9	-0.43976334
200	0xbda00f60	-0.078154325
201	0xbe0c01f1	-0.13672616
202	0xbe808e58	-0.251086
203	0x3d2883a6	0.041141175
204	0x3eecc4dc	0.46243942
205	0x3e1c343b	0.152543
206	0x3eff7a29	0.49897888
207	0xbe589500	-0.21150589
208	0xbd52d62b	-0.051473778
209	0xbe0d03e5	-0.13771017
210	0x3db84479	0.08997435
211	0x3e6097f6	0.21932968
212	0xbdae0c80	-0.08498478
213	0xbf196c9d	-0.59931356
214	0xbedc8046	-0.43066615
215	0xbf5eb810	-0.8699961
216	0xbc890db0	-0.01673016
217	0x3df3b6b2	0.11900081
218	0x3f1381cc	0.5761993
219	0xbd3b8877	-0.04578444
220	0xbe6bace7	-0.23015176
221	0x3cfb40e3	0.030670589
222	0xbf3d5fd3	-0.7397434
223	0xbf0b995c	-0.5453088
224	0xbf39ecb3	-0.726268
225	0x3e0958be	0.13412759
226	0x3d7368d4	0.059426144
227	0x3d1b8472	0.037968107
228	0xbe38d6f7	-0.18050753
229	0xbe5ca30d	-0.21546574
230	0xbe95b518	-0.29239726
231	0xbed3ff86	-0.41405886
232	0xbe71bc69	-0.23607029
233	0xbe8344ef	-0.2563853
234	0x3e0c6120	0.13708925
235	0x3e187d41	0.1489153
236	0xbe46b75f	-0.19405888
237	0x3e4e5eaa	0.20153299
238	0x3e6ba302	0.23011401
239	0xbe2097f8	-0.15682971
240	0xbe621268	-0.22077334
241	0xbd08146c	-0.0332226
242	0xbe65ce05	-0.22441871
243	0xbff8d795	-1.944079
244	0xbf73d44e	-0.95245826
245	0xbf4cd7ed	-0.80016977
246	0xbf91264c	-1.1339812
247	0x3e26a9b9	0.16275682
248	0x3e8d4a32	0.2759567
249	0xbebda5b3	-0.3704048
250	0x3f811177	1.0083455
251	0x3f78c5c1	0.9717675
252	0xbd3e10bd	-0.04640268
253	0x3ee3da75	0.44502607
254	0xbeab1ffa	-0.33422834
255	0x3d787a40	0.06066346

layer3.0.bias f4 [64]
0	0xbd8d838b	-0.069098555
1	0xbcdb8d11	-0.026800664
2	0x3d811c0d	0.063041784
3	0x3d9eb8ec	0.07750115
4	0xbc1260fc	-0.008934256
5	0xbcff0659	-0.031130956
6	0x3d19749a	0.037464716
7	0xbcf6202c	-0.030044638
8	0x3c3d0e72	0.011539089
9	0x3d0e130b	0.03468613
10	0xbd31938f	-0.043353613
11	0xbc48c91e	-0.012254981
12	0x3c9c14fc	0.019052975
13	0x3c7f1a82	0.015570285
14	0x3a922d1b	0.0011152358
15	0x3dae9c42	0.085258976
16	0x3cada652	0.021197472
17	0xbc0f133a	-0.008732611
18	0x3d47eb43	0.048808347
19	0x3d0e22b0	0.03470105
20	0x3c008ffe	0.00784683
21	0xbd21abed	-0.0394706
22	0xbd23a287	-0.03994992
23	0xbc9b89f7	-0.018986685
24	0xbd1a58c5	-0.037682313
25	0xbc12109d	-0.008915094
26	0x3c7a4fa2	0.015277775
27	0x3ca4a6de	0.0200991
28	0xbd1ebba5	-0.03875317
29	0xbb12900a	-0.0022363686
30	0xbd5fa65c	-0.054602012
31	0xbcb229ad	-0.021748388
32	0x3cd4e06d	0.02598592
33	0xbd933f20	-0.071897745
34	0x3cb55044	0.022133
35	0x3ca6089d	0.020267779
36	0xbd648583	-0.05579139
37	0xbb95a076	-0.0045662476
38	0xbc2d5100	-0.010578394
39	0x3d3c71c6	0.04600694
40	0xbdac2e3d	-0.08407257
41	0xbd339735	-0.043845374
42	0x3afe88aa	0.0019419391
43	0x3bb6a3dd	0.0055737332
44	0x3d2822ed	0.041048933
45	0xbe0517a8	-0.12997305
46	0xbd165f82	-0.036712177
47	0x3e001e6f	0.1251161
48	0xbd86ad7e	-0.0657606
49	0xbc7ddcd1	-0.015494541
50	0xbd5cbc0c	-0.053890273
51	0xbcffdeb0	-0.031234115
52	0xbd2f0158	-0.04272589
53	0xbd55a8b2	-0.052162834
54	0xbc99c9c4	-0.018772967
55	0x3d12a3dd	0.035800803
56	0x3d4e94e2	0.050434954
57	0x3d5c148e	0.05373054
58	0xbd1fb810	-0.038993895
59	0xbe2f386d	-0.17111368
60	0x3d497e78	0.049192876
61	0xbc32c149	-0.010910341
62	0xbd2e4dcb	-0.042554658
63	0xbd4aefcc	-0.049545094

layer3.1.weight f4 [64]
0	0x3fbbd3a4	1.4673963
1	0x3ef2db9c	0.47433174
2	0x3f7e6568	0.99373484
3	0x3fdbfb65	1.7186095
4	0x3f825e9d	1.0185124
5	0x3eaa9b07	0.333214
6	0x3f51e3e2	0.81988347
7	0x3f6b017a	0.9179913
8	0x3fbad907	1.4597481
9	0x3f9e8dd4	1.2387033
10	0x3f01da56	0.5072378
11	0x3f5995c8	0.84994173
12	0x3f77539e	0.96611965
13	0x3f9d7103	1.2300113
14	0x3f527743	0.8221323
15	0x3fcc9b6b	1.598493
16	0x3fa9f5e2	1.3278162
17	0x3f872c76	1.0560443
18	0x3fbe947e	1.4889066
19	0x3fb7682f	1.4328669
20	0x3f599481	0.84992224
21	0x3f875cbc	1.0575175
22	0x3f366404	0.7124636
23	0x3f855dd8	1.0419264
24	0x3ecb886d	0.39752522
25	0x3fd15b6f	1.6356028
26	0x3f918302	1.1368105
27	0x3f91af3e	1.1381605
28	0x3f1fec69	0.6247011
29	0x3fbb1c81	1.4618074
30	0x3fc14b4f	1.5101107
31	0x3f8536a0	1.0407295
32	0x3f40e9db	0.75356835
33	0x3f9fd006	1.2485359
34	0x3fac1ea0	1.3446846
35	0x3f7f7bbc	0.9979818
36	0x3fb9fdbf	1.4530562
37	0x3f6b8636	0.92001665
38	0x3fb74181	1.4316865
39	0x3f9a3e01	1.2050172
40	0x3f989099	1.1919128
41	0x3fb1269a	1.3839905
42	0x3efa5548	0.4889319
43	0x3f9f272d	1.243383
44	0x3f985621	1.1901284
45	0x3f8b4117	1.0879239
46	0x3f4cf204	0.80056787
47	0x3fdcb241	1.7241899
48	0x3f47dd2e	0.7807187
49	0x3f8ad6af	1.0846766
50	0x3fadc2d9	1.3575088
51	0x3f3fc5e9	0.7491136
52	0x3f98a6ea	1.1925938
53	0x3ec29eaa	0.38011676
54	0x3f6dfc8f	0.929635
55	0x3fabaaa0	1.3411446
56	0x3f58e3b2	0.84722435
57	0x3f3f519c	0.747339
58	0x3f2dcb0e	0.6788796
59	0x3fd7bf2e	1.6855218
60	0x3f44821b	0.76761025
61	0x3f09c1bb	0.53811234
62	0x3f552906	0.8326572
63	0x3f880269	1.0625736

layer3.1.bias f4 [64]
0	0xbf74c11c	-0.9560716
1	0xbee56eb7	-0.4481103
2	0x3da97a7f	0.082753174
3	0xbe63265b	-0.221826
4	0xbf2e330e	-0.68046653
5	0xbedda2e2	-0.43288332
6	0xbeea97af	-0.4581885
7	0xbf2abb1e	-0.6669177
8	0xbf040346	-0.51567495
9	0xbef1097b	-0.47077546
10	0xbf34482e	-0.7042264
11	0xbf3211ab	-0.6955821
12	0xbf6f80c2	-0.93555844
13	0xbf2d2db1	-0.67647845
14	0xbf5dab40	-0.8658943
15	0xbede2152	-0.43384796
16	0xbf812a69	-1.0091068
17	0xbf3b8bf6	-0.7326044
18	0xbf8c71ee	-1.0972269
19	0xbf297695	-0.66196567
20	0xbf5c5b8f	-0.8607721
21	0xbed55698	-0.41667628
22	0xbf073577	-0.52815956
23	0xbf416d84	-0.7555773
24	0xbee58ebb	-0.44835457
25	0xbece05ba	-0.40238744
26	0xbf300b86	-0.68767583
27	0xbf4b4ef9	-0.7941738
28	0xbf08b728	-0.53404474
29	0xbe9ab6fa	-0.30217725
30	0xbeca99e5	-0.39570537
31	0xbf0da4d4	-0.5532963
32	0xbf2381e1	-0.63870054
33	0xbf5e8bf3	-0.86932296
34	0xbf4169bc	-0.7555196
35	0xbf83e2f8	-1.030364
36	0xbf50c639	-0.81552464
37	0xbf3795e9	-0.7171312
38	0xbf306b4d	-0.6891373
39	0xbe8ab878	-0.27093863
40	0xbdc09b49	-0.09404618
41	0xbf52094e	-0.8204545
42	0xbea2f54b	-0.3182777
43	0xbf312845	-0.6920207
44	0xbeaa30e9	-0.3324044
45	0xbd8078f3	-0.06273069
46	0xbf20d79b	-0.6282899
47	0xbf3e2463	-0.7427427
48	0xbf4b4471	-0.7940131
49	0xbf9791bc	-1.184135
50	0xbef6aece	-0.4818024
51	0xbebc2c9d	-0.36752787
52	0xbf298b32	-0.6622802
53	0xbf025be2	-0.5092145
54	0x3e1c6f4b	0.1527683
55	0xbf497fe8	-0.78710794
56	0xbf42f196	-0.7614988
57	0xbf2ae1aa	-0.66750586
58	0xbee984e3	-0.45609197
59	0xbf098477	-0.5371775
60	0xbe831505	-0.25601974
61	0xbf9c058a	-1.218919
62	0xbe8cfe81	-0.2753792
63	0xbd409cac	-0.047024414

layer3.1.running_mean f4 [64]
0	0xc17c9ccf	-15.788283
1	0x3f6f9ccc	0.9359863
2	0xc1b226f3	-22.269018
3	0xc1836f09	-16.429216
4	0x3cfdc0d7	0.030975742
5	0x3e7cc4d6	0.24684462
6	0xc13f242e	-11.946333
7	0xc0dd7e55	-6.9216714
8	0xc12daa04	-10.854008
9	0xc0d860a6	-6.761798
10	0xbf3c7858	-0.7362113
11	0x411d6c82	9.838991
12	0x4095505a	4.6660585
13	0xc1acd965	-21.60615
14	0x411d11f9	9.816888
15	0xc187e412	-16.986362
16	0xc0846c9c	-4.138258
17	0xc1e7b83b	-28.964956
18	0xc1884cfc	-17.03759
19	0xc1d1e03b	-26.234488
20	0xc0e51d27	-7.1598086
21	0xc04d0b10	-3.2038002
22	0xbeba7387	-0.36416265
23	0xc13536c1	-11.325868
24	0x3ea3000a	0.31835967
25	0xc1c98660	-25.190613
26	0xc15159fd	-13.08447
27	0xc106b7d0	-8.419876
28	0xbe037245	-0.12836559
29	0xc2071f48	-33.78055
30	0xc20c5f62	-35.093147
31	0xc17badfa	-15.729975
32	0x40a24feb	5.0722556
33	0xc185d5ec	-16.729454
34	0xc1740972	-15.252306
35	0xc119d5fc	-9.614742
36	0xc18cb09a	-17.586231
37	0x4166889b	14.408351
38	0xc1121ef2	-9.132555
39	0xc1a437e1	-20.527285
40	0xc1e71043	-28.88294
41	0xc10c5b1c	-8.7722435
42	0x40d78802	6.7353525
43	0x3fe861b9	1.8154823
44	0xc21fb893	-39.93025
45	0xbefccb11	-0.49373677
46	0xc0ee2e79	-7.443173
47	0xc1577c8f	-13.46791
48	0xc125b896	-10.357565
49	0xc10e4f52	-8.894365
50	0xc1c38f67	-24.44502
51	0x3f559a26	0.83438337
52	0x414b41a2	12.703524
53	0xbfe192fc	-1.7622981
54	0xc0913d42	-4.5387278
55	0xc1f5c046	-30.718884
56	0xc16af7e1	-14.685517
57	0xc047026b	-3.1095226
58	0xbf02b587	-0.5105824
59	0xc0f94d71	-7.7907033
60	0x40c52602	6.1608896
61	0x4004330e	2.0656161
62	0xc079bd9a	-3.9021974
63	0xc0c1635a	-6.043378

layer3.1.running_var f4 [64]
0	0x439bb952	311.4478
1	0x425e1618	55.521576
2	0x43882d4c	272.35388
3	0x4388dc96	273.72333
4	0x42fa978b	125.29598
5	0x41d57a51	26.684725
6	0x42f6c614	123.38687
7	0x42976730	75.70154
8	0x43607fa2	224.49857
9	0x4322b8fd	162.72261
10	0x427b6a7b	62.853985
11	0x4284531d	66.16233
12	0x42cecd16	103.40056
13	0x4370ac5d	240.6733
14	0x42650a7a	57.26023
15	0x439941ad	306.5131
16	0x4305927f	133.57225
17	0x43155e1c	149.36761
18	0x42d661e9	107.19123
19	0x4398f19e	305.88763
20	0x4298f802	76.48439
21	0x4276b04b	61.67216
22	0x426956a8	58.334625
23	0x432d66f2	173.40213
24	0x41e57c3b	28.68566
25	0x439d6fee	314.87445
26	0x438f6a7b	286.83188
27	0x42907659	72.23115
28	0x42a0569d	80.16917
29	0x43553cc9	213.23744
30	0x43ab7b8b	342.96518
31	0x4332004d	178.00117
32	0x42f7a6df	123.82592
33	0x433bd110	187.81665
34	0x4336dcba	182.86221
35	0x424afac6	50.744896
36	0x432282a5	162.51033
37	0x4294bcde	74.36888
38	0x42c8b81b	100.35958
39	0x435cbca3	220.73686
40	0x43282930	168.16089
41	0x4387558e	270.6684
42	0x42478e1f	49.88879
43	0x42f1d7ca	120.92146
44	0x43648c41	228.54787
45	0x42eb2fe4	117.59354
46	0x42a466c4	82.200714
47	0x436b4b7a	235.29483
48	0x42909bf4	72.304596
49	0x428b5838	69.6723
50	0x4324be9c	164.74457
51	0x42a63747	83.10796
52	0x433a41ee	186.25754
53	0x41516887	13.088019
54	0x432dcad4	173.7923
55	0x43460d43	198.0518
56	0x42ae8ebb	87.27877
57	0x42a80917	84.01775
58	0x42a78c70	83.77429
59	0x43962214	300.26624
60	0x433c8164	188.50543
61	0x4224e2a6	41.221336
62	0x430f01a7	143.00645
63	0x4323185e	163.09518
