results/RENet-dataset-Conv64F-5-5-Jan-08-2024-20-55-23/checkpoints/emb_func_00050.pth (torch, 463459 bytes, 24 tensors)

layer1.0.weight f4 [64, 3, 3, 3]
0	0x3f003436	0.5007967
1	0x3e33dd53	0.17564897
2	0xbe4e3db4	-0.20140725
3	0xbf8186f9	-1.0119315
4	0xbf5ad2f3	-0.8547813
5	0xbec27771	-0.37981752
6	0x3eae47aa	0.3403905
7	0x3f3c095a	0.7345177
8	0x3f54aecb	0.8307921
9	0x3f0d54a3	0.5520727
10	0xbce525cf	-0.02797213
11	0xbeb73df8	-0.35789466
12	0xbfc7d088	-1.5610514
13	0xbfb6cbbd	-1.4280926
14	0xbf4a7d3c	-0.7909734
15	0x3e495510	0.19661355
16	0x3f4c4d19	0.7980514
17	0x3f6c18e3	0.92225474
18	0x3f5755c5	0.8411525
19	0x3e68beb9	0.22729005
20	0xbdf7b072	-0.12094201
21	0xbf6c228a	-0.922402
22	0xbf7154da	-0.942701
23	0xbed130f0	-0.4085765
24	0x3eaa2105	0.33228317
25	0x3f5ffb8c	0.87493205
26	0x3f74a9f2	0.95571816
27	0xbe5d285c	-0.21597427
28	0xbe52f9db	-0.20603125
29	0xbe5bec63	-0.21476893
30	0xbe7c1a72	-0.24619463
31	0xbe2284a5	-0.15870912
32	0xbe84cfda	-0.25939828
33	0xbdc55448	-0.09635216
34	0xbd96859e	-0.07349704
35	0xbde0c67f	-0.1097536
36	0xbd8966bd	-0.06709049
37	0xbb8f6305	-0.0043758177
38	0xbd54dc1c	-0.051967725
39	0xbd210273	-0.039308976
40	0x3b0c33b7	0.002139313
41	0xbd8e2c2e	-0.0694202
42	0x3d40b5ed	0.047048498
43	0x3d836476	0.06415646
44	0x3d2ff496	0.042957865
45	0x3d1d0584	0.03833534
46	0x3db96810	0.090530515
47	0x3d4ab911	0.0494929
48	0x3d39b06f	0.045334276
49	0x3df1501b	0.11782857
50	0x3db3e95c	0.08784744
51	0x3e1ff73a	0.15621653
52	0x3e4b6251	0.19861723
53	0x3e20840f	0.15675376
54	0x3db48361	0.08814121
55	0xbd148a48	-0.036264688
56	0x3c9a3a45	0.018826613
57	0xbe86d10a	-0.2633136
58	0xbebc27f3	-0.3674923
59	0xbed1559f	-0.40885636
60	0xbe47709b	-0.1947655
61	0xbe4d328d	-0.20038815
62	0xbe5ff19d	-0.21869512
63	0x3ee5fed3	0.44920978
64	0x3ecf1bdf	0.4045095
65	0x3ee72d39	0.4515169
66	0x3e4ee255	0.20203526
67	0x3e1c2cdc	0.15251487
68	0x3e069add	0.13145013
69	0xbd606ffa	-0.05479429
70	0xbdd38849	-0.10328729
71	0xbd96abcf	-0.07356989
72	0x3e50e71a	0.20400658
73	0x3e3de04e	0.18542597
74	0x3e826e10	0.25474596
75	0x3dd19fec	0.10235581
76	0x3d499064	0.049209967
77	0xbd094cf1	-0.033520643
78	0xbe5115dc	-0.20418495
79	0xbe582ee7	-0.21111642
80	0xbe5dfc0c	-0.2167818
81	0x3f4d523a	0.8020359
82	0x3f42060b	0.7579047
83	0x3f43c754	0.76476026
84	0xbd93e414	-0.07221237
85	0xbe99a258	-0.3000667
86	0xbee36e88	-0.44420266
87	0xbe84fe0b	-0.2597507
88	0xbf362ad9	-0.7115913
89	0xbf56abbd	-0.838558
90	0x3f45e98a	0.7730948
91	0x3f47ff16	0.78123605
92	0x3f755a8d	0.95841295
93	0x3caad34f	0.020852713
94	0xbe410390	-0.18849015
95	0xbe8067d7	-0.25079224
96	0xbe526438	-0.20546043
97	0xbf3f3d51	-0.74702936
98	0xbf4f08d4	-0.80872846
99	0x3ebea807	0.3723757
100	0x3ef0e9bf	0.47053334
101	0x3f26da1c	0.6517656
102	0xbd6981bd	-0.057008494
103	0xbe1e5992	-0.15463856
104	0xbe67bff4	-0.22631818
105	0xbd5a4eca	-0.053297795
106	0xbf112507	-0.56697124
107	0xbf12e6c4	-0.5738337
108	0x3ea91c2d	0.3302931
109	0x3e98a991	0.2981687
110	0x3e88f421	0.26748756
111	0x3e20c07b	0.15698425
112	0xbd834ee9	-0.06411535
113	0x3d554bc4	0.05207421
114	0xbe127285	-0.14301498
115	0xbefba4a4	-0.49149048
116	0xbeb6a697	-0.35673973
117	0x3e554122	0.20825627
118	0x3e577fa1	0.2104478
119	0x3e8998a2	0.26874262
120	0x3da48cd5	0.08034674
121	0xbd7487b5	-0.059699733
122	0x3d14fe66	0.036375426
123	0x3cd9fb87	0.026609195
124	0xbe7cb13b	-0.24676983
125	0xbdb9158a	-0.090373114
126	0x3e0221cb	0.12708203
127	0x3e02eae6	0.12784919
128	0x3e5925e8	0.21205866
129	0xbcfbcd0a	-0.030737419
130	0xbdd4153f	-0.10355615
131	0x3cf5303e	0.02993023
132	0xbdc74186	-0.097292945
133	0xbe85c196	-0.26124257
134	0xbdb751f3	-0.089511774
135	0x3db67977	0.08909886
136	0x3d946d54	0.07247415
137	0x3d0fcb3f	0.03510594
138	0x3dc06a9b	0.093953334
139	0x3e167a5a	0.14695111
140	0x3e268b36	0.16264042
141	0x3decbfef	0.11560046
142	0x3e14a517	0.14516102
143	0x3db38b88	0.08766848
144	0xbe6984af	-0.22804521
145	0xbe838fcc	-0.25695646
146	0xbe816e74	-0.25279582
147	0xbebe4a0c	-0.37165868
148	0xbec5a120	-0.3859949
149	0xbeccdba4	-0.40011322
150	0xbec99160	-0.39368725
151	0xbece749c	-0.4032334
152	0xbeca525d	-0.39515963
153	0x3eb3e8c2	0.35138518
154	0x3e9edda0	0.3102846
155	0x3e584cf5	0.21123107
156	0x3e26a781	0.16274835
157	0x3dd8a93a	0.105791524
158	0x3df83f62	0.12121464
159	0x3db96745	0.090529
160	0x3d942218	0.07233065
161	0x3d638479	0.055546258
162	0xbf4bb364	-0.79570603
163	0xbe185e51	-0.14879729
164	0x3f06cdff	0.52658075
165	0xbf2d06a6	-0.6758827
166	0x3e3aa9f2	0.18228891
167	0x3ef4025a	0.47658044
168	0xbe2c312c	-0.16815633
169	0x3e2b1a86	0.16709337
170	0x3e872676	0.2639653
171	0xbf1cf3b1	-0.61309344
172	0x3e046afe	0.1293144
173	0x3f42eeac	0.76145434
174	0xbf2ffb41	-0.6874276
175	0x3ed0a512	0.4075094
176	0x3f2312b7	0.6370043
177	0xbe8a4064	-0.2700225
178	0x3e20f932	0.1572006
179	0x3e2d1c5f	0.16905354
180	0xbf0362e1	-0.5132275
181	0x3cc89c33	0.024488544
182	0x3f16ccb3	0.58906096
183	0xbf294200	-0.66116333
184	0x3e6ab2b4	0.22919732
185	0x3edb931b	0.4288567
186	0xbeb57118	-0.35437846
187	0xbd8f7f96	-0.07006757
188	0xbd0c18bc	-0.034203276
189	0x3f7b347f	0.9812698
190	0x3f9313da	1.1490433
191	0x3f984b73	1.1898025
192	0xbf264f6a	-0.64964926
193	0xbf6a8794	-0.91613126
194	0xbf1ce27f	-0.61283106
195	0xbed72ca0	-0.42026234
196	0xbe83d635	-0.25749364
197	0xbebf1b4d	-0.37325516
198	0x3e55c7e2	0.2087703
199	0x3ee41ae6	0.44551772
200	0x3f036c5f	0.51337236
201	0xbf15b743	-0.5848276
202	0xbf7d13af	-0.9885816
203	0xbf290773	-0.6602699
204	0x3e60736f	0.21919034
205	0x3eebafe6	0.46032637
206	0x3e221e42	0.15831855
207	0xbe24c577	-0.16090952
208	0x3d184a6e	0.037180357
209	0x3ddabe91	0.10680879
210	0xbeb8c752	-0.3608957
211	0xbf2a0926	-0.6642021
212	0xbec11d50	-0.37717676
213	0x3ef96e3a	0.4871691
214	0x3f3a9198	0.7287841
215	0x3ef4fa3f	0.47847173
216	0xbf82e165	-1.0225035
217	0xbf6dddb6	-0.9291643
218	0xbeac46d8	-0.336478
219	0xbf09838c	-0.5371635
220	0x3eb5c9ad	0.3550543
221	0x3f65d254	0.8977406
222	0x3e7426e0	0.23842955
223	0x3ed500d7	0.41602203
224	0x3eda6222	0.42652994
225	0xbf669207	-0.9006657
226	0xbf87fc68	-1.0623903
227	0xbef1fde5	-0.4726402
228	0xbe96e795	-0.29473558
229	0x3f221b6a	0.6332308
230	0x3f8dbde2	1.1073573
231	0x3efda422	0.49539286
232	0x3f23440e	0.6377572
233	0x3f1cb625	0.6121543
234	0xbf0d2450	-0.55133533
235	0xbf586a61	-0.8453732
236	0xbed3b3bc	-0.41348064
237	0xbe9d2995	-0.30695787
238	0x3ed9a863	0.4251128
239	0x3f47e4d3	0.78083533
240	0x3d9d497e	0.07680033
241	0x3e4e1b79	0.20127667
242	0x3d69a0dd	0.057038177
243	0xbd9114dd	-0.070840575
244	0xbda1369a	-0.078717425
245	0xbe3338ed	-0.17502184
246	0xbd4dcf9f	-0.05024683
247	0xbe073451	-0.13203551
248	0xbd992f8c	-0.07479772
249	0xbd6823ef	-0.056674894
250	0xbdb520f6	-0.088441774
251	0xbd59357d	-0.053029526
252	0xbd8757e8	-0.06608564
253	0xbdf7fcd0	-0.12108767
254	0xbe2396d7	-0.1597551
255	0xbdaeaa5d	-0.08528588

layer1.0.bias f4 [64]
0	0x3c37aa3f	0.011210023
1	0xbceedc0f	-0.029157666
2	0x3bbaa94f	0.0056964527
3	0x3cf4d613	0.029887235
4	0x3cc8658e	0.024462488
5	0x3cfe8276	0.031068068
6	0x3ca0e09b	0.01963835
7	0xbb44a66c	-0.0030006422
8	0x3c1b317a	0.009472245
9	0xbc785f74	-0.015159477
10	0x3cfc4493	0.030794417
11	0x3c94cf1a	0.01816516
12	0xbcd98683	-0.026553398
13	0x3d007ce8	0.03136912
14	0xba0d2422	-0.00053841074
15	0xbad35d1d	-0.0016125772
16	0xbc22ad54	-0.00992902
17	0xbc1cd46b	-0.009572129
18	0x3aedff59	0.0018157765
19	0xbc91170e	-0.017711189
20	0xbd0a3a86	-0.03374722
21	0xbc99172d	-0.018687809
22	0xbbec919e	-0.0072195074
23	0x3ce06d86	0.027395975
24	0x3cdaa2e2	0.026688997
25	0xbcb21124	-0.021736689
26	0xbab699de	-0.0013931354
27	0xbc2b8a77	-0.010470024
28	0xbc9efdcd	-0.019408131
29	0xbbd10b6e	-0.0063795364
30	0xbc4e3dbb	-0.01258796
31	0x3ca61e61	0.020278158
32	0xbc9364d9	-0.017992424
33	0x3bb6e55b	0.0055815405
34	0xbca7b6b8	-0.02047287
35	0xbc39842d	-0.011323017
36	0x3ce9f640	0.028559804
37	0xbc91e842	-0.017810944
38	0xbb0ef71d	-0.0021814771
39	0x3d0deb99	0.03464851
40	0x3c4b7107	0.012417085
41	0xbc974626	-0.018466067
42	0xbcb2704d	-0.021782065
43	0xbc50709e	-0.0127221625
44	0xbc3a22b4	-0.011360813
45	0x3c816595	0.015795508
46	0xbc04263c	-0.008065756
47	0x3cfaa6d3	0.030597126
48	0xbca3115d	-0.01990574
49	0xbc39deda	-0.011344636
50	0x3c5868ae	0.013208551
51	0x3ced5c23	0.028974598
52	0x3d0e25eb	0.03470413
53	0x3bbe4429	0.005806465
54	0x3ac86e92	0.0015291742
55	0xbc8527de	-0.016254362
56	0x3ca7ec89	0.020498531
57	0xbcac4547	-0.021029128
58	0xbc1c3c7a	-0.009535903
59	0xbcf865f1	-0.030322047
60	0xbd0edae9	-0.034876738
61	0x3ca61eae	0.020278301
62	0x3b21860a	0.0024646544
63	0x3ceceb35	0.02892075

layer1.1.weight f4 [64]
0	0x3f7d156e	0.98860824
1	0x3ee9be8b	0.45653185
2	0x3ec19d38	0.3781526
3	0x3f5c80b8	0.8613391
4	0x3f3558e2	0.7083875
5	0x3f038f0a	0.51390135
6	0x3f5a86b2	0.8536178
7	0x3f4cc4b3	0.7998764
8	0x3f8425db	1.0324053
9	0x3ec39ef7	0.38207218
10	0x3f567c5c	0.8378351
11	0x3cae2cbe	0.02126157
12	0x3e17f72d	0.14840384
13	0x3ec5c93d	0.38630095
14	0x3e4f83b2	0.20265082
15	0x3f216a90	0.63053226
16	0x3ef8809d	0.48535624
17	0x3f80aa4a	1.0051968
18	0x3f155f65	0.58348686
19	0x3f1f51a3	0.6223394
20	0x3e90bc95	0.28268877
21	0x3ea3a8fc	0.31964862
22	0x3f76da37	0.9642672
23	0x3d0097a2	0.03139461
24	0x3ee353fb	0.4440001
25	0x3ed73962	0.42035967
26	0x3e72b416	0.2370151
27	0x3f7a164a	0.9769026
28	0x3fa984ab	1.3243612
29	0x3ec6c6d7	0.38823578
30	0x3dc2837b	0.09497734
31	0x3ed6167e	0.41814035
32	0x3f859b4a	1.0438015
33	0x3f558e32	0.834201
34	0x3ebeeb44	0.37288868
35	0x3f09a336	0.53764665
36	0x3e442560	0.19154882
37	0x3f81f91e	1.015415
38	0x3ed72cfc	0.42026508
39	0x3eed9755	0.4640452
40	0x3e812e7f	0.25230786
41	0x3eba72f8	0.3641584
42	0x3ede434d	0.4341072
43	0x3e94aca0	0.29037952
44	0x3f3682f0	0.71293545
45	0x3e658d83	0.22417264
46	0x3eddab2c	0.43294656
47	0x3f73b0a3	0.951914
48	0x3ec5158d	0.38493004
49	0x3db085ef	0.08619296
50	0x3daaed20	0.08346009
51	0x3f940190	1.1562977
52	0x3ecb3168	0.3968613
53	0x3f1c118e	0.60964286
54	0x3f193972	0.5985328
55	0x3e7d2a51	0.24723174
56	0x3f0f4c1c	0.5597551
57	0x3f3e618d	0.743676
58	0x3f1e049e	0.61725795
59	0x3f30efa9	0.6911569
60	0x3f3f73b7	0.7478594
61	0x3f035082	0.5129472
62	0x3e92aeb2	0.28648907
63	0x3eecb129	0.46228912

layer1.1.bias f4 [64]
0	0x3e583c1d	0.21116681
1	0xbe9ba3d0	-0.30398417
2	0x3e8e2df5	0.27769437
3	0x3e8db784	0.27679074
4	0xbf5b35e3	-0.856291
5	0xbe6e548d	-0.23274441
6	0x3f07038b	0.5273978
7	0x3e8580af	0.2607474
8	0x3e75a246	0.23987684
9	0xbec4f363	-0.3846694
10	0x3f047a28	0.51748896
11	0xbdaf78dc	-0.08567974
12	0x3de162c8	0.11005169
13	0xbdee5979	-0.11638159
14	0x3e714662	0.23562005
15	0xbf1fda43	-0.62442416
16	0x3b8e7d53	0.004348436
17	0x3e55ba9d	0.20871969
18	0xbf03139a	-0.51201785
19	0xbec28653	-0.37993106
20	0xbeab4668	-0.33452153
21	0x3ddeb5f5	0.10874549
22	0xbf72af4e	-0.94798744
23	0xbdce9ed2	-0.10088886
24	0xbe91eb52	-0.28499848
25	0xbd0da0f7	-0.034577336
26	0xbd96799a	-0.073474124
27	0x3f28cc6e	0.65936935
28	0x3e152afb	0.14567177
29	0x3eb36ffc	0.35046375
30	0x3db6df9c	0.08929369
31	0xbec83278	-0.39101005
32	0x3e88a2bc	0.26686656
33	0x3eae2c4f	0.3401818
34	0xbe40b7ae	-0.18820068
35	0xbed87ad5	-0.42281213
36	0x3d8fa6f7	0.07014268
37	0x3e93504c	0.287722
38	0xbed3bc09	-0.41354397
39	0xbc73c9ed	-0.014879686
40	0x3c7f1ab6	0.015570333
41	0xbda0d784	-0.07853606
42	0x3da4f529	0.08054573
43	0xbeb30c5d	-0.3497037
44	0x3e9170b5	0.284063
45	0x3edefa7e	0.43550485
46	0xbe9c6522	-0.30545908
47	0x3f051a5e	0.5199336
48	0xbe56948c	-0.20955104
49	0xbe9e91a0	-0.30970478
50	0x3e5c7a71	0.21531083
51	0xbfbd9b2a	-1.4812977
52	0x3e978db8	0.2960031
53	0x3ebdd6b0	0.37077856
54	0xbf02f1ef	-0.5115041
55	0x3ea5e6e5	0.3240272
56	0xbeaf6495	-0.34256425
57	0xbf60c202	-0.8779603
58	0x3d057963	0.032586467
59	0x3ee5c0b5	0.44873586
60	0x3e491e8f	0.19640563
61	0x3de42a73	0.11140909
62	0xbe869753	-0.26287326
63	0xbf0e8f0f	-0.5568704

layer1.1.running_mean f4 [64]
0	0xbc73e39d	-0.01488581
1	0xbee1ae7e	-0.4407844
2	0xbeb0c252	-0.34523255
3	0xbda19fc1	-0.07891799
4	0x3d997f45	0.07494978
5	0x3e338716	0.17532
6	0xbc2b92ec	-0.010472041
7	0x3d67df57	0.056609478
8	0xbe0e183b	-0.1387643
9	0xbe8f12cc	-0.27944028
10	0xbd854f19	-0.06509227
11	0x3c1e97d6	0.009679755
12	0x3bd0f7cc	0.006377196
13	0xbdc7dfed	-0.09759507
14	0x3ecbe354	0.39821875
15	0x3eb25958	0.3483379
16	0xbf1a0bb4	-0.6017411
17	0xbd7382d2	-0.05945093
18	0xbea105a4	-0.31449616
19	0xbe3f7408	-0.18696606
20	0xbb1c397a	-0.002383797
21	0x3e902420	0.2815256
22	0x3da7e8f1	0.08198727
23	0x3df95f86	0.12176423
24	0xbe8933ff	-0.26797482
25	0xbf08aa6a	-0.5338503
26	0x3e34c104	0.17651755
27	0x3da37e6c	0.079830974
28	0xbd63f533	-0.055653762
29	0xbf25b700	-0.6473236
30	0x3da46c89	0.08028514
31	0xbe841606	-0.25798053
32	0xbe34dbaf	-0.17661928
33	0xbea4b3cd	-0.32168427
34	0xbe49755a	-0.19673672
35	0xbebf2638	-0.37333846
36	0x3bcc1a09	0.0062286896
37	0xbe15fd7f	-0.14647482
38	0x3e0adf60	0.13561773
39	0x3ea0f4d7	0.31436798
40	0xbe19b5fe	-0.15010831
41	0xbe4fe267	-0.2030121
42	0xbefa36ba	-0.48869878
43	0x3d356778	0.04428813
44	0x3e802378	0.2502706
45	0xbd4ca6a2	-0.0499636
46	0xbea54083	-0.3227578
47	0xbd20a131	-0.039216224
48	0xbe10f324	-0.14155251
49	0xbe12e0a8	-0.14343512
50	0x3e1c779f	0.15280007
51	0x3d9ef692	0.07761873
52	0x3e1d724c	0.15375632
53	0xbe8577aa	-0.2606786
54	0xbebf0be2	-0.37313753
55	0xbc0885c9	-0.008332678
56	0xbef51cbb	-0.47873482
57	0x3cfc9dc6	0.030836951
58	0xbe45a558	-0.19301355
59	0x3e112523	0.14174323
60	0xbdef17b2	-0.116744414
61	0xbf351d2e	-0.7074765
62	0x3d92214d	0.07135258
63	0x3d6c1678	0.057638615

layer1.1.running_var f4 [64]
0	0x4093c989	4.6183515
1	0x3f96496f	1.174116
2	0x3f9af615	1.2106348
3	0x40eac002	7.3359385
4	0x3f843408	1.0328379
5	0x3f838de7	1.027768
6	0x406895eb	3.6341503
7	0x3fe622cd	1.797937
8	0x40eba205	7.363528
9	0x3f984bbf	1.1898116
10	0x40497bdb	3.1481845
11	0x3e38d473	0.18049793
12	0x3e9a4bc4	0.3013593
13	0x3f530254	0.8242543
14	0x3f3af8e9	0.73036057
15	0x400c9d94	2.1971178
16	0x4034ed7b	2.8269947
17	0x4037b3af	2.870342
18	0x3f8591cc	1.0435119
19	0x403a80e5	2.914117
20	0x3e07fefe	0.13280866
21	0x3f8a8048	1.0820398
22	0x3fdf81f7	1.7461537
23	0x3f290a94	0.66031766
24	0x3f1c9dc6	0.61178243
25	0x4018a180	2.3848572
26	0x3f85e612	1.0460837
27	0x413a173f	11.630675
28	0x413ac11c	11.672146
29	0x400d8205	2.2110608
30	0x3e6c708c	0.23089808
31	0x3f28946a	0.6585146
32	0x40309dda	2.7596345
33	0x40c01731	6.002831
34	0x3f2b59e0	0.66934013
35	0x3f636c4d	0.8883713
36	0x3f57628f	0.84134763
37	0x40cd3f87	6.414005
38	0x3ee25b55	0.44210306
39	0x4027f171	2.6241114
40	0x3f1edf9e	0.6205996
41	0x3f1ef2a9	0.6208902
42	0x3f9e015f	1.2344168
43	0x3ebddcfb	0.37082657
44	0x4083ecf1	4.1226735
45	0x3f5cc97b	0.86244935
46	0x3f8d1930	1.1023312
47	0x40a805d8	5.2507133
48	0x3f3e4872	0.7432929
49	0x3fc6808a	1.5507977
50	0x3e8fe53c	0.2810458
51	0x3ff5b414	1.919558
52	0x3fbbdca8	1.4676714
53	0x3fdfa69a	1.7472718
54	0x3fa338bd	1.275169
55	0x3f5efe13	0.87106436
56	0x3ff0c2fc	1.8809505
57	0x3f74dcb7	0.95649284
58	0x3fe9509f	1.8227729
59	0x408d56c0	4.4168396
60	0x40226d5a	2.5379243
61	0x408c3f54	4.3827305
62	0x3ebec1d7	0.37257263
63	0x3f386013	0.720216

layer2.0.weight f4 [64, 64, 3, 3]
0	0x3d8a1cec	0.06743798
1	0x3dc37a7d	0.09544847
2	0x3d18645e	0.037205093
3	0xbd8e2be2	-0.06941964
4	0xbd3e4483	-0.046452057
5	0xbd4c64ff	-0.049901005
6	0x3db58c05	0.08864597
7	0x3da5daf2	0.08098401
8	0x3d9f023b	0.07764097
9	0x3c4f2008	0.012641914
10	0x3b91fcf5	0.0044552037
11	0x3a565695	0.0008176354
12	0x3cd94196	0.026520532
13	0x3cff6356	0.031175297
14	0x3c868f60	0.016425788
15	0x3c9d9b71	0.01923916
16	0x3c870ff2	0.016487096
17	0x3ca3c3d7	0.019990845
18	0xbdd23d4d	-0.102655984
19	0xbd99eec8	-0.07516247
20	0xbd8a8742	-0.0676408
21	0x3d699058	0.057022423
22	0x3d6f4f56	0.05842527
23	0x3d47a2b4	0.04873915
24	0x3d91552d	0.07096324
25	0x3dc29455	0.09500948
26	0x3dc30d35	0.095240034
27	0xbe0316da	-0.12801686
28	0xbdad7056	-0.08468692
29	0xbd45d3cb	-0.048297685
30	0x3d05c52d	0.032658745
31	0xbd130f50	-0.035903275
32	0xbd9a7b52	-0.07543053
33	0x3cc48d22	0.023993079
34	0x3d3187c9	0.043342385
35	0x3d5ef479	0.054432366
36	0xbca1eea8	-0.01976712
37	0xbc1f37bb	-0.009717877
38	0xbca1a871	-0.01973364
39	0xbd584595	-0.052800734
40	0xbd8c5fff	-0.06854247
41	0xbd89f401	-0.06735993
42	0xbd31abfb	-0.043376904
43	0xbd3a27db	-0.045448165
44	0xbcf6607e	-0.030075308
45	0xbc1994a9	-0.009373822
46	0xbcb122cb	-0.021623036
47	0xbc35a928	-0.011087693
48	0xbd63ba53	-0.055597614
49	0xbd737174	-0.05943437
50	0xbd775dbf	-0.060392138
51	0xbd2ae0d5	-0.041718323
52	0xbd6f92b6	-0.058489524
53	0xbd3a564c	-0.045492455
54	0xbd997424	-0.07492855
55	0xbd29729a	-0.04136906
56	0xbdb898e8	-0.090135396
57	0xbd73229e	-0.059359185
58	0xbd29cf40	-0.041457415
59	0xbdba1a6a	-0.09087069
60	0xbc2ac5ad	-0.010423106
61	0x3cccb389	0.024987953
62	0xbd77160d	-0.060323764
63	0x3d210568	0.039311796
64	0x3d31e98f	0.04343563
65	0x3b91fa5d	0.0044548945
66	0x3cf79ca9	0.030226069
67	0xba5d38df	-0.00084389554
68	0xbc7dcc29	-0.01549057
69	0x3d0aaaaa	0.033854164
70	0x3c9e4dbe	0.01932418
71	0xbd26060b	-0.040533107
72	0x3dfe675c	0.12422058
73	0x3dc8ce6f	0.09804999
74	0x3d49ecdc	0.049298152
75	0xbcfec446	-0.03109945
76	0xbc2663e9	-0.010155656
77	0xbd4eb7c7	-0.050468232
78	0x3d349a3a	0.044092394
79	0x3d8225ee	0.06354891
80	0xbd03551d	-0.032063592
81	0xbc7ff15b	-0.0156215085
82	0xbca5ea72	-0.020253394
83	0xbcd2a5d5	-0.02571384
84	0xbcb69fd7	-0.022293014
85	0xbd167fa6	-0.03674283
86	0xbce8fe3a	-0.028441537
87	0xbcb2af21	-0.021812024
88	0xbc6e4404	-0.014542583
89	0xbcbef72c	-0.02331122
90	0xbdfec9be	-0.12440823
91	0xbe21a6c6	-0.15786275
92	0xbe4cf801	-0.20016481
93	0x3b73a5c2	0.0037177657
94	0xbcc6dea4	-0.024276085
95	0xbd774328	-0.06036678
96	0x3e4d4176	0.20044503
97	0x3e0d87be	0.13821313
98	0x3e009433	0.12556534
99	0x3c1ed4ed	0.00969432
100	0x3bf62baf	0.0075125317
101	0xba9f0d93	-0.0012134783
102	0xbc01411a	-0.007889057
103	0xbba6ae15	-0.00508667
104	0xbbd10842	-0.0063791582
105	0xbaf41f78	-0.0018625101
106	0x3a92105f	0.0011143795
107	0x3af03027	0.0018324897
108	0xbbf28280	-0.0074008107
109	0xbb81a20a	-0.003956084
110	0xbc60fe7a	-0.013732547
111	0x3bfab8e0	0.0076514333
112	0x3c6a8f85	0.014316444
113	0x3ba12f1c	0.004918946
114	0x3bfaeead	0.007657847
115	0x3c789051	0.015171126
116	0x3bb32a4d	0.005467689
117	0xbcf5513e	-0.029945966
118	0xbd5d9afb	-0.05410288
119	0xbd5960ab	-0.053070705
120	0xbdb5db1a	-0.08879681
121	0xbe011d60	-0.12608862
122	0xbdeedee6	-0.11663608
123	0xbdb61a9b	-0.08891793
124	0xbdfba860	-0.12287974
125	0xbde82bf6	-0.1133651
126	0xbc9f3a67	-0.019437028
127	0xbc85d8c3	-0.016338712
128	0xbcd33607	-0.025782598
129	0xbd65116b	-0.055924814
130	0xbd4774c7	-0.048695352
131	0xbd38c2ad	-0.045107532
132	0xbd17902b	-0.037002724
133	0xbd03fe50	-0.032224953
134	0xbd1432e6	-0.036181353
135	0xbd8eef36	-0.069792196
136	0xbd985d74	-0.074397
137	0xbd88affd	-0.06674192
138	0xbdb18b88	-0.086691916
139	0xbdbb5588	-0.09147173
140	0xbd9fd62e	-0.078045234
141	0xbd7b356f	-0.061330255
142	0xbd7a682a	-0.061134495
143	0xbd8096d3	-0.062787674
144	0xbccb367f	-0.02480626
145	0xbc4363f7	-0.011925689
146	0xbcbb8d66	-0.022894572
147	0x3daecf1f	0.08535599
148	0x3ddab856	0.106796905
149	0x3dd84cb6	0.105615065
150	0x3d9fc579	0.07801337
151	0x3dddff20	0.10839677
152	0x3dc18b1f	0.09450363
153	0xbcf8419f	-0.030304728
154	0xbd7b96c4	-0.06142308
155	0xbd33ab0c	-0.043864295
156	0xbc1502de	-0.009094922
157	0xbdb7f85a	-0.08982916
158	0xbcb66be3	-0.022268241
159	0x3e164d1c	0.14677852
160	0x3d544b47	0.051829603
161	0x3db2e846	0.08735709
162	0xbd29f83f	-0.04149651
163	0xbd30ce94	-0.04316576
164	0xbcbea76a	-0.023273189
165	0xbc91540c	-0.017740272
166	0xbc47172b	-0.01215152
167	0x3ae86124	0.0017729145
168	0xbc518631	-0.012788341
169	0xbc8c1d31	-0.017103763
170	0xbc6c30a2	-0.014415892
171	0xbcd9088f	-0.026493339
172	0xbd5b43ae	-0.05353134
173	0xbd83bb43	-0.06432202
174	0xbdbac5ec	-0.09119782
175	0xbde3c95d	-0.111223914
176	0xbde661d8	-0.11249131
177	0xbdbc5fe5	-0.09197978
178	0xbddda793	-0.10822978
179	0xbdcd655c	-0.100290984
180	0xbc9ac14e	-0.018891003
181	0xbcebe4e8	-0.028795674
182	0xbc97a759	-0.018512415
183	0xbcdd6aa5	-0.027028391
184	0xbcfa8c2e	-0.030584421
185	0xbcd4444f	-0.025911478
186	0xbca6aaf7	-0.020345194
187	0xbd01a904	-0.031655326
188	0xbd19694d	-0.03745394
189	0xbd468f3a	-0.048476435
190	0xbd4809c1	-0.048837427
191	0xbd3d9319	-0.04628286
192	0xbcae39df	-0.02126783
193	0xbd775216	-0.060381018
194	0xbd968683	-0.07349875
195	0xbc2a8053	-0.010406571
196	0xbb6ba2d7	-0.0035955214
197	0xbb865560	-0.004099533
198	0xbdbf6fb4	-0.093474776
199	0xbd991452	-0.07474579
200	0xbd6ef071	-0.05833477
201	0xbd7539d7	-0.059869613
202	0xbdb5ecff	-0.08883094
203	0xbd96865b	-0.07349845
204	0xbd80ac58	-0.06282872
205	0xbd8b76cd	-0.06809769
206	0xbd0687d2	-0.032844372
207	0x39b60a40	0.00034721382
208	0xbc18199f	-0.009283452
209	0xbcae7565	-0.021296212
210	0xbba04b34	-0.0048917774
211	0xbc4c7a0c	-0.01248027
212	0xbc81bb97	-0.01583652
213	0xbcc4b3e8	-0.024011567
214	0xbce0ed69	-0.027456956
215	0xbca246aa	-0.019809086
216	0xbbb5e787	-0.005551282
217	0xbbb08a42	-0.0053875754
218	0xbd04c89d	-0.032417882
219	0xbb70669e	-0.0036682258
220	0xbd0c638b	-0.03427462
221	0xbd0536c5	-0.032522935
222	0xbbf9e59a	-0.0076262476
223	0xbd0c9379	-0.03432033
224	0xbd1ccca4	-0.038281098
225	0xbd311669	-0.043234263
226	0xbd16e26a	-0.03683702
227	0xbd06b2f1	-0.032885496
228	0x3d5896eb	0.0528783
229	0x3d80a0a1	0.062806375
230	0x3d84f161	0.06491352
231	0x3d4498e3	0.047997367
232	0x3d95d5bb	0.073161565
233	0x3d760111	0.06005961
234	0xbbbf624f	-0.0058405767
235	0xbc65ae66	-0.014018631
236	0xbc1c3ae6	-0.009535527
237	0xbcdf8bc7	-0.02728833
238	0xbce654b1	-0.028116556
239	0xbcfa5d54	-0.03056208
240	0x3a8c76c1	0.0010716544
241	0xbbba35ab	-0.0056826673
242	0xbc4441dd	-0.011978594
243	0x3e7d6c6f	0.24748395
244	0x3e5d1172	0.21588686
245	0x3e2ebded	0.17064638
246	0x3d892472	0.066964045
247	0x3d66551f	0.05623352
248	0xbc2b5fce	-0.010459853
249	0x3e04af16	0.12957415
250	0x3db2d9d3	0.08732953
251	0xbb223b6c	-0.0024754656
252	0xbd9db9d4	-0.077014595
253	0xbce226f4	-0.027606465
254	0xbd8e72ae	-0.06955467
255	0xbd9a549d	-0.0753567

layer2.0.bias f4 [64]
0	0xb9988a32	-0.00029094663
1	0x3ba863c1	0.0051388447
2	0xbbf7585e	-0.007548376
3	0xbb219581	-0.0024655762
4	0x3b855bbc	0.0040697735
5	0xbae8de4f	-0.0017766448
6	0x3ba6696c	0.0050784852
7	0x3b312a74	0.002703336
8	0x3ab1b4aa	0.001355787
9	0xba8da985	-0.0010807967
10	0xbaf8988e	-0.0018966363
11	0xbad5d0e5	-0.0016312866
12	0xba37ec58	-0.0007016114
13	0xbb8abdd6	-0.004234056
14	0xbb1296a4	-0.002236762
15	0x3b927a8d	0.0044701756
16	0x3bb3d0ac	0.005487522
17	0x3abcacb0	0.0014394727
18	0x3a9dd115	0.0012040461
19	0xbbdc91ee	-0.0067312634
20	0x3ad1fed5	0.001602138
21	0x3bd6c89e	0.006554677
22	0xbb5e9e38	-0.0033968817
23	0xbb003074	-0.001956013
24	0x3bf9d01a	0.0076236846
25	0x3a9b8216	0.001186433
26	0x3bc98779	0.006150183
27	0xbb0ba1b8	-0.0021306109
28	0xbbe7f0b7	-0.007078256
29	0x3a322414	0.0006795537
30	0xbbc7015b	-0.0060731596
31	0xbb5db5e0	-0.003383033
32	0x3b32c9f2	0.0027281013
33	0xbbedfaf2	-0.007262581
34	0x3b8bb1b7	0.0042631286
35	0x3bec4d33	0.0072113513
36	0x3bf12bb1	0.0073599447
37	0xbbdf87f5	-0.0068216273
38	0xbbff0e4c	-0.0077836867
39	0xbb4e5dcd	-0.0031489015
40	0x3a219ccb	0.00061650266
41	0xbb7c1ef1	-0.003847059
42	0x3bb4d324	0.005518334
43	0x3bea8bd2	0.007157781
44	0x3b07ec5b	0.0020740244
45	0xba99e304	-0.001174063
46	0xbbeb372b	-0.0071782074
47	0x3b9bc2c8	0.0047534443
48	0xba95d25b	-0.0011430489
49	0x3bb031a5	0.005377012
50	0x3b448ecb	0.0029992338
51	0x3aac1cdc	0.0013131159
52	0xbbbec30b	-0.005821591
53	0x3ba68d12	0.005082735
54	0x3ac5439b	0.0015050055
55	0x3bc99b6c	0.006152561
56	0x3bc237fe	0.005927085
57	0xbb877566	-0.004133868
58	0xbbc4efaf	-0.006010018
59	0xbbf2c294	-0.0074084494
60	0xbb2dc70b	-0.0026516344
61	0xbb2f1e88	-0.002672108
62	0x3a05fbae	0.00051110506
63	0x3b882fb6	0.004156078

layer2.1.weight f4 [64]
0	0x3f3a38ad	0.7274273
1	0x3f86e37f	1.0538176
2	0x3f06cbf4	0.5265496
3	0x3f3e55f8	0.7434993
4	0x3f172f87	0.59056896
5	0x3f7c25d7	0.9849524
6	0x3f9028ec	1.1262488
7	0x3f3e7737	0.7440066
8	0x3f8b6691	1.0890676
9	0x3f88a9ce	1.067682
10	0x3f6da332	0.9282714
11	0x3f80bf41	1.0058366
12	0x3f3589d3	0.7091343
13	0x3f1ce968	0.6129365
14	0x3f86b75c	1.0524707
15	0x3f626338	0.88432646
16	0x3f83133b	1.0240244
17	0x3f462528	0.77400446
18	0x3f67fd2a	0.9062067
19	0x3f5acb6e	0.8546666
20	0x3f10bb16	0.5653547
21	0x3f89f52b	1.0777944
22	0x3fa6be0b	1.3026747
23	0x3f81c692	1.0138724
24	0x3f7a3458	0.9773612
25	0x3f258706	0.64659154
26	0x3f3a1f9b	0.72704476
27	0x3f7d2f67	0.98900455
28	0x3f3a1d54	0.72701
29	0x3f48c26c	0.78421664
30	0x3ec5fcb4	0.3866936
31	0x3f49ac38	0.7877841
32	0x3f9e339a	1.2359498
33	0x3f6dddf1	0.9291678
34	0x3f6cdfea	0.92529166
35	0x3f8ade77	1.0849141
36	0x3f218e0b	0.63107365
37	0x3f552865	0.8326476
38	0x3f957651	1.1676732
39	0x3f5d187e	0.863655
40	0x3fa45b22	1.2840312
41	0x3f7daf16	0.99095285
42	0x3f22e502	0.6363069
43	0x3f12ce95	0.5734647
44	0x3f70e61a	0.9410111
45	0x3f656010	0.89599705
46	0x3f58032f	0.8437986
47	0x3f7efc0f	0.9960336
48	0x3f9226e2	1.1418116
49	0x3f71e676	0.9449228
50	0x3f8ac8b2	1.0842497
51	0x3f59f82a	0.85144293
52	0x3f6b162a	0.91830695
53	0x3f48f9d7	0.78506225
54	0x3f639211	0.88894755
55	0x3f443074	0.76636434
56	0x3f8d62c5	1.1045767
57	0x3f65a757	0.89708465
58	0x3f83b5ac	1.0289817
59	0x3f85cd55	1.0453287
60	0x3f3c975b	0.7366845
61	0x3f80d518	1.0065031
62	0x3f3d91fd	0.74050885
63	0x3f6f1612	0.9339305

layer2.1.bias f4 [64]
0	0xbeadef24	-0.33971512
1	0xbf049684	-0.5179217
2	0x3e20ef5c	0.15716308
3	0xbf761b09	-0.96135
4	0xbe6253fc	-0.2210235
5	0xbee271a1	-0.44227317
6	0xbee69356	-0.45034283
7	0xbeaa05b2	-0.3320747
8	0xbf01d83a	-0.5072056
9	0xbec03b2a	-0.3754514
10	0xbe8a1ee6	-0.269767
11	0xbec39e8c	-0.382069
12	0xbee6958f	-0.4503598
13	0x3c405c02	0.011740686
14	0xbe77fcd4	-0.2421754
15	0xbeb82434	-0.3596512
16	0xbe87e12c	-0.2653898
17	0xbee62536	-0.44950265
18	0xbea70101	-0.32617953
19	0xbf3d2bcc	-0.73894954
20	0xbd93d80f	-0.07218944
21	0xbf109543	-0.56477755
22	0xbef14504	-0.47122967
23	0xbf05509b	-0.5207612
24	0xbc1390c2	-0.009006681
25	0xbe819244	-0.25306904
26	0xbed0b16c	-0.40760362
27	0xbeb1a8cc	-0.34699094
28	0xbeaef3b3	-0.34170303
29	0xbe61e7c9	-0.22061075
30	0x3e7b3c08	0.24534619
31	0xbe8228e2	-0.25421816
32	0xbf164fb2	-0.58715355
33	0xbe5a55d3	-0.21321802
34	0xbee45797	-0.44598076
35	0xbf033a47	-0.512608
36	0x3cdf49d7	0.02725689
37	0xbf083807	-0.5321049
38	0xbeda2ef2	-0.4261394
39	0x3d7a0985	0.061044235
40	0xbf278ddb	-0.6545083
41	0xbebc9d3a	-0.36838704
42	0x3c13eb54	0.009028275
43	0xbe12b81a	-0.14328042
44	0xbf093833	-0.5360138
45	0xbf2c0799	-0.67199093
46	0xbea92c44	-0.33041584
47	0xbf0a2502	-0.5396272
48	0xbf05c4c9	-0.52253395
49	0xbf06844d	-0.52545625
50	0xbe6e0d40	-0.23247242
51	0xbeade191	-0.33961156
52	0xbea1a502	-0.31571203
53	0xbed6ba82	-0.4193917
54	0xbf8a9a49	-1.0828334
55	0x3e9ef944	0.3104955
56	0xbea7994a	-0.32734138
57	0xbf00c459	-0.502996
58	0xbf171ea2	-0.59031117
59	0xbeafa5c4	-0.34306157
60	0xbe1f4e67	-0.15557252
61	0xbe837f3c	-0.2568301
62	0x3c55c832	0.013048219
63	0xbeac00df	-0.33594415

layer2.1.running_mean f4 [64]
0	0xbff613b2	-1.922476
1	0xbff6c891	-1.9279958
2	0xc025de2a	-2.5916848
3	0x3fb7aefb	1.4350275
4	0x3d48db58	0.049037308
5	0xbe97dd42	-0.29660994
6	0xc07660a3	-3.8496482
7	0xbf6f1556	-0.9339193
8	0xc0a43a67	-5.132129
9	0xc08228f5	-4.0674996
10	0xc064a903	-3.5728157
11	0xc08b8aa5	-4.3606744
12	0xbf31b26f	-0.69412893
13	0xbf1dc05b	-0.61621636
14	0xc0775ac8	-3.8649158
15	0xc0d365ce	-6.6061773
16	0xc07c2e1b	-3.940314
17	0xc0930576	-4.5944166
18	0xc0aa0ab6	-5.3138075
19	0xbfdb3403	-1.7125248
20	0xbe95c7d9	-0.29254034
21	0xc009e555	-2.1546223
22	0xc0d6165d	-6.69023
23	0xc0a5966f	-5.1746135
24	0xc10a6142	-8.648745
25	0xbfa66848	-1.3000574
26	0xc05be917	-3.4361017
27	0xc051cc20	-3.2780838
28	0xbff59d7e	-1.9188688
29	0xc06a3074	-3.6592073
30	0xbfcaf21b	-1.5855135
31	0xc0611da7	-3.5174348
32	0xc09f172f	-4.97158
33	0xc06ceea3	-3.7020652
34	0xc01859d1	-2.380482
35	0xc01fc1ad	-2.496196
36	0xc05f6c90	-3.4910011
37	0xc03b7219	-2.928839
38	0xc126a935	-10.41631
39	0xc0800031	-4.0000234
40	0xc13b7519	-11.716088
41	0xc0960467	-4.6880374
42	0xbf9b8177	-1.2148885
43	0xbf9bdf56	-1.2177532
44	0xc0a9cd28	-5.3062935
45	0xbfce7eae	-1.613241
46	0xbfa8d311	-1.3189412
47	0xc085059f	-4.156936
48	0xc0977cd8	-4.7339897
49	0xc00714fc	-2.1106558
50	0xc0710474	-3.7658968
51	0xc04e2f56	-3.2216392
52	0xc05b36ab	-3.4252117
53	0xc06e9dad	-3.7283738
54	0xbf8124b7	-1.008933
55	0xc0ed7cf2	-7.421502
56	0xc0b90db8	-5.7829247
57	0xc040e758	-3.01412
58	0xc0d04432	-6.5083246
59	0xc0ad94e9	-5.4244275
60	0xc0673324	-3.6124964
61	0xbf0d7fde	-0.55273235
62	0xc0028e4e	-2.0399356
63	0xc057875f	-3.3676374

layer2.1.running_var f4 [64]
0	0x40aa47b7	5.3212543
1	0x41481d84	12.507206
2	0x410d95f8	8.849113
3	0x410427d9	8.259728
4	0x40bf1a2c	5.971945
5	0x41723e9b	15.140285
6	0x4186a1d6	16.829021
7	0x40a255f6	5.0729933
8	0x414e1b7e	12.881712
9	0x417b3501	15.70044
10	0x4197134a	18.884418
11	0x419ababe	19.341183
12	0x40954266	4.6643553
13	0x410eb8c2	8.920107
14	0x41f17264	30.180855
15	0x413fa6c1	11.978211
16	0x41b1a239	22.20421
17	0x40d0bb01	6.5228276
18	0x4194f4cf	18.619535
19	0x4123304b	10.19929
20	0x40ae17ea	5.440419
21	0x4143962e	12.224165
22	0x41c228af	24.269865
23	0x414ffa56	12.998617
24	0x41b20616	22.252972
25	0x41216c76	10.08898
26	0x40d1f309	6.5609174
27	0x41a0e71f	20.112852
28	0x40ab76ba	5.358243
29	0x415cf0c4	13.808781
30	0x40ce1716	6.440318
31	0x4116d054	9.425861
32	0x41917c25	18.185617
33	0x4127d1e1	10.48874
34	0x418cbe08	17.592789
35	0x40e8d293	7.275705
36	0x4131dfdd	11.117154
37	0x40f28cf8	7.579708
38	0x41d47358	26.55632
39	0x4129bd3d	10.608701
40	0x41de2f65	27.773142
41	0x419224ec	18.268028
42	0x419858d1	19.043367
43	0x40ea72cf	7.3265147
44	0x41a1f3e1	20.244081
45	0x40b3ca75	5.618464
46	0x41190354	9.563313
47	0x413624a4	11.383945
48	0x41c83422	25.025455
49	0x412bebfa	10.745111
50	0x41aa236b	21.267294
51	0x419254c0	18.291382
52	0x419b6b0c	19.427269
53	0x4151c873	13.111438
54	0x411181b7	9.094169
55	0x417bc2e8	15.735085
56	0x417cc17d	15.797238
57	0x416fc5eb	14.98582
58	0x4186f752	16.870762
59	0x415d981d	13.849637
60	0x415791de	13.473112
61	0x41b02b6b	22.0212
62	0x41a7319f	20.89923
63	0x41c00325	24.001535

layer3.0.weight f4 [64, 64, 3, 3]
0	0xbcc990c4	-0.024605162
1	0x3c3167a8	0.010827936
2	0xbc4cb445	-0.0124941515
3	0x3e001ce3	0.1251102
4	0x3e8494f4	0.25894892
5	0x3e8b6bb6	0.27230614
6	0x3e03f40a	0.12886062
7	0x3e29aaf4	0.1656912
8	0x3e05fd94	0.13085014
9	0xbe3b18f0	-0.18271232
10	0xbd91aab0	-0.07112634
11	0x3de1aa8d	0.11018858
12	0xbe3ac84c	-0.1824047
13	0xbd852a22	-0.06502177
14	0xbe4d0a0f	-0.20023368
15	0xbdf83e00	-0.121212006
16	0xbe378d24	-0.17924935
17	0xbe6d627c	-0.231821
18	0xbdf7ed65	-0.12105826
19	0xbdee855b	-0.11646529
20	0xbdaf132f	-0.08548581
21	0xbe64cc49	-0.22343554
22	0xbe865156	-0.2623393
23	0xbe881344	-0.26577199
24	0xbe644cde	-0.22294948
25	0xbe82a755	-0.2551829
26	0xbe7e4781	-0.24831964
27	0xbc385a07	-0.011251933
28	0xbd8f390a	-0.06993301
29	0xbd9aa67c	-0.075512856
30	0x3dba4fe3	0.090972684
31	0xbd3a09c0	-0.045419455
32	0xbcc8e6f5	-0.024524191
33	0xbe030cca	-0.12797847
34	0xbdf215d5	-0.118205704
35	0xbe20dd95	-0.15709527
36	0x3cf8cd81	0.03037143
37	0x3c21bc8e	0.009871615
38	0x3ddc2989	0.1075011
39	0xbca5f762	-0.020259563
40	0x3ba19c8d	0.0049319924
41	0x3b31fb8c	0.002715799
42	0xbce0dc1f	-0.027448712
43	0xbd2601bb	-0.040528994
44	0xbdfb4657	-0.12269276
45	0xbcb0dc87	-0.02158953
46	0x3d2346f0	0.039862573
47	0xbd993225	-0.074802674
48	0x3d43aec7	0.047774103
49	0xbd37632b	-0.04477231
50	0xbe02f347	-0.12788115
51	0xbdbfcdfb	-0.093654595
52	0xbd3003fc	-0.04297255
53	0xbbaa2cc7	-0.005193326
54	0xbe41ad23	-0.18913703
55	0xbddcea6e	-0.107869014
56	0x3d6404c7	0.05566862
57	0xbe272241	-0.1632166
58	0x3c4a42dc	0.012345042
59	0x3d971cec	0.07378563
60	0xbd0eae6e	-0.034834318
61	0x3c90056d	0.017580712
62	0xbc9ca7d1	-0.01912299
63	0xbd3a7cfc	-0.04552935
64	0x3d925c13	0.07146468
65	0x3e28b7a7	0.16476308
66	0x3d14f8cc	0.036370084
67	0x3d881e85	0.06646446
68	0x3e4a099a	0.19730225
69	0xbc9f6bda	-0.019460607
70	0xbe0ab004	-0.13543707
71	0xbdd93a4e	-0.10606824
72	0xba149f03	-0.00056694465
73	0x3ce38468	0.027773097
74	0xbd52ef6f	-0.051497873
75	0x3d898f83	0.06716826
76	0x3d13faeb	0.036127966
77	0xbdec55ab	-0.11539777
78	0x3e2f8eb4	0.1714428
79	0x3e3a0ab6	0.18168148
80	0xbd4f70db	-0.050644737
81	0xbe261f1f	-0.1622281
82	0x3c83b76c	0.016078673
83	0xbd6ce334	-0.057833865
84	0xbe29244b	-0.16517751
85	0x3d25ed3e	0.040509455
86	0x3d7ca6f3	0.061682653
87	0x3deedb82	0.116629615
88	0x3db6df29	0.08929283
89	0xbcf25c9c	-0.029585175
90	0xbe0b6594	-0.13612968
91	0x3c1bce38	0.009509616
92	0x3da9fef3	0.08300581
93	0x3d5ed8f1	0.05440611
94	0xbc0f0fee	-0.008731825
95	0x3e040913	0.12894087
96	0x3e1b347e	0.15156743
97	0x3e200e21	0.1563039
98	0x3e39a90c	0.18130893
99	0xbd9a776a	-0.07542308
100	0xbc95435c	-0.018220596
101	0xbdd22675	-0.10261241
102	0x3e4e03e7	0.20118676
103	0x3d3cf698	0.046133608
104	0xbc8ae5bf	-0.016955255
105	0x3c211220	0.0098309815
106	0xbd4844ff	-0.048893925
107	0xbd929f17	-0.0715925
108	0x3c434809	0.01191903
109	0x3d611eff	0.0549612
110	0x3dc54496	0.09632222
111	0x3de5db49	0.11223466
112	0x3e0df1fb	0.1386184
113	0xbd2c599f	-0.042077657
114	0x3d91e04f	0.071228616
115	0x3d7acce1	0.061230544
116	0xbdbe01b7	-0.09277671
117	0x3d6d8d65	0.057996172
118	0x3c4239ec	0.01185463
119	0x3dd1ff9c	0.10253832
120	0x3dae69cf	0.08516275
121	0xbd51f4db	-0.051258903
122	0xbd2d9560	-0.042378783
123	0x3d4fab0e	0.05070024
124	0xbd9ffe34	-0.07812157
125	0xbd43e126	-0.04782214
126	0x3bda0c4a	0.006654297
127	0xbde4d27f	-0.111729614
128	0xbe370e3d	-0.17876525
129	0xbdd25a25	-0.102711
130	0xbe3bfdde	-0.18358561
131	0xbdb50fc7	-0.088409
132	0xbe2031a0	-0.1564393
133	0xbdf661c2	-0.120303646
134	0xbdad4993	-0.08461299
135	0xbc8cf8eb	-0.017208537
136	0xbd56b7e4	-0.052421466
137	0x3cc61c13	0.024183309
138	0xbdf6a5d1	-0.12043346
139	0xbe13e246	-0.14441785
140	0xbdad81e1	-0.08472038
141	0xbdd15197	-0.1022064
142	0xbd2e0646	-0.04248645
143	0xbd9ad028	-0.07559234
144	0xbe0905d8	-0.13381135
145	0x3da6aea7	0.08138781
146	0x3eafdd8a	0.34348708
147	0xbc7d39f1	-0.015455709
148	0x3d68536d	0.056720186
149	0x3dc164d0	0.094430566
150	0x3dee9de2	0.116512075
151	0xbd923685	-0.07139305
152	0xbe3552b3	-0.17707328
153	0xbdcba1e6	-0.09942989
154	0xbdfd296e	-0.12361418
155	0x3c0051fc	0.007832047
156	0xbd69babc	-0.05706285
157	0xbd7cb9e1	-0.061700705
158	0xbc9e6875	-0.019336918
159	0xbd54cce4	-0.05195321
160	0xbb4ab00f	-0.0030927693
161	0xbb8915c2	-0.004183502
162	0xbdd9dacd	-0.10637436
163	0x3d871333	0.06595459
164	0xbd804856	-0.06263797
165	0x3d5c6dd8	0.053815693
166	0x3dcae955	0.09907786
167	0xbc779b47	-0.015112705
168	0x3e2902f1	0.16505028
169	0x3e73eab7	0.23820005
170	0x3d8d814b	0.06909426
171	0x3e0f2936	0.13980564
172	0x3d6c8ce8	0.057751566
173	0x3d677f40	0.05651784
174	0x3c153f21	0.009109289
175	0x3d65d8b1	0.056114856
176	0xbda7adc7	-0.08187442
177	0xbe0920b9	-0.13391389
178	0xbe0dcf96	-0.13848719
179	0xbe1040a4	-0.14087158
180	0xbe028daf	-0.1274936
181	0xbda36456	-0.07978122
182	0xbdae7985	-0.08519272
183	0xbca9eb68	-0.020742133
184	0x3c3fdd9a	0.011710549
185	0xbca0e1b2	-0.01963887
186	0xbd8e9c04	-0.06963351
187	0xbdf4f61c	-0.11961004
188	0xbe255368	-0.16145098
189	0x3dd477fb	0.10374447
190	0xbc74fddc	-0.014953103
191	0xbd944b6d	-0.07240949
192	0x3d3c1c18	0.04592523
193	0xbc24ca9b	-0.0100580705
194	0x3ce7c2c5	0.028291116
195	0xbda4b2fc	-0.08041951
196	0xbdeb7b4a	-0.11498125
197	0xbe619733	-0.22030334
198	0x3d9cb27e	0.07651232
199	0x3e078265	0.13233335
200	0x3c891faa	0.016738731
201	0xbe285078	-0.16436946
202	0xbde44371	-0.11145676
203	0xbe2ed71d	-0.17074247
204	0xbe3457b6	-0.17611584
205	0xbdfc2264	-0.12311247
206	0xbe69b252	-0.2282193
207	0x3d734456	0.059391342
208	0x3c367051	0.011135177
209	0xbdd850bd	-0.105622746
210	0xbd930661	-0.07178951
211	0xbc318eb6	-0.010837248
212	0xbd23bcb1	-0.039974872
213	0x3d2e42dd	0.042544235
214	0x3aeec703	0.0018217269
215	0xbde25cf2	-0.11052884
216	0xbde882ae	-0.1135305
217	0xbd3f5167	-0.04670849
218	0x3c1f4cfa	0.0097229425
219	0xbd453b99	-0.04815254
220	0xbe10cc3b	-0.14140408
221	0x3cbf563f	0.023356555
222	0x3e332989	0.17496313
223	0x3e0612d1	0.13093115
224	0x3e345112	0.17609051
225	0x3bfeba2e	0.007773659
226	0xbca1e61e	-0.019763049
227	0xbb7fbb72	-0.0039021638
228	0x3d98824c	0.07446727
229	0xbcb90463	-0.0225851
230	0xbe1a894a	-0.15091434
231	0xbe087817	-0.1332706
232	0xbdf5a2a5	-0.119939126
233	0xbe51e57e	-0.204977
234	0xbdb6bd94	-0.08922878
235	0xbce2a286	-0.027665388
236	0x3d857d3e	0.06518029
237	0x3d3eb37f	0.0465579
238	0x3de0c384	0.10974792
239	0x3dc18fcf	0.094512574
240	0x3c80db41	0.015729548
241	0x3bcf95fc	0.006335018
242	0xbd8bda9c	-0.06828806
243	0x3d8b5aed	0.06804452
244	0x3dac096c	0.084002346
245	0x3d1c9110	0.03822428
246	0x3de96aaf	0.113973014
247	0x3e189257	0.14899574
248	0x3d37749f	0.044788953
249	0xbd37e4bb	-0.04489587
250	0xbcc61cc8	-0.024183646
251	0xbda26d7f	-0.07931041
252	0x3d671fd7	0.05642685
253	0xbdbb9290	-0.09158814
254	0xbd9f301d	-0.07772849
255	0x3bfc041f	0.007690921

layer3.0.bias f4 [64]
0	0xba29d5cf	-0.00064786983
1	0xb91aa8bd	-0.00014749444
2	0xbbc6cdf5	-0.0060670325
3	0xbba3c87a	-0.004998264
4	0xbbdc6c37	-0.0067267674
5	0xb931ef30	-0.0001696914
6	0xbbb9424e	-0.005653656
7	0x37ad9923	2.0694517e-05
8	0xbb66749e	-0.0035164724
9	0xbb2743f6	-0.0025522686
10	0x3bebb2e1	0.007192955
11	0xbbdb357d	-0.006689726
12	0xbb559318	-0.0032588895
13	0x3a18dfed	0.00058317074
14	0xbb19a66f	-0.002344515
15	0x3b3e8e76	0.0029076613
16	0x3bf338c0	0.0074225366
17	0x3b826966	0.0039798496
18	0x3b80bd4f	0.0039288173
19	0xba35d008	-0.0006935601
20	0xbab61fa8	-0.0013894932
21	0x3b0cedcc	0.0021504043
22	0x3b88ba8c	0.0041726287
23	0x3ba44e97	0.0050142515
24	0x3b3fefc8	0.0029287208
25	0x3b87a6f5	0.004139776
26	0x3ae51479	0.0017477415
27	0xb910df9d	-0.00013816213
28	0xbac8c705	-0.0015318102
29	0xbbc56d42	-0.0060249874
30	0xbbfdfd73	-0.0077511608
31	0xbbf683f3	-0.007523054
32	0x3bc7bc75	0.006095464
33	0x3b00e2c3	0.001966641
34	0x3be98ba7	0.0071272436
35	0xbbc14922	-0.0058986107
36	0x3bd82bd8	0.0065970235
37	0xbbfae236	-0.007656361
38	0xbabb82a5	-0.0014305903
39	0x3b663a78	0.0035130065
40	0xbbedfa79	-0.0072625247
41	0x3baab99c	0.0052101146
42	0xbbeb94d6	-0.0071893735
43	0x3ba95043	0.0051670386
44	0x3bd42187	0.0064737233
45	0x3bc42e34	0.005986953
46	0x3936db48	0.00017438561
47	0x3b95b83a	0.0045690807
48	0x3b65bfb1	0.0035056884
49	0x3bcc9267	0.0062430385
50	0xbbf30027	-0.0074157896
51	0xbbf5dad9	-0.0075028953
52	0xbbaaf865	-0.005217599
53	0x3be38050	0.0069427863
54	0x3b29e666	0.0025924682
55	0xba229f7d	-0.0006203575
56	0xbaec13fe	-0.0018011329
57	0x3ba6bd7e	0.005088507
58	0x3bb3837b	0.00547832
59	0xbbc2b6e3	-0.005942212
60	0xba9c548a	-0.001192705
61	0x3ba7bbb8	0.0051188134
62	0xbbb1ba90	-0.0054238513
63	0x3bacf255	0.0052779117

layer3.1.weight f4 [64]
0	0x3f590d6d	0.8478611
1	0x3f529f9f	0.8227481
2	0x3f941dea	1.1571629
3	0x3fa39648	1.2780237
4	0x3fb76d17	1.4330167
5	0x3f9877ab	1.191152
6	0x3f998c5b	1.1995958
7	0x3fa40ae3	1.2815822
8	0x3f85fed6	1.0468395
9	0x3f034649	0.5127912
10	0x3f7e2f6e	0.9929112
11	0x3f8bc83d	1.0920483
12	0x3f2ea158	0.6821494
13	0x3f824830	1.017828
14	0x3f8d9058	1.1059675
15	0x3f831cad	1.0243126
16	0x3fae5561	1.3619806
17	0x3fa5eb68	1.2962465
18	0x3f73acc0	0.9518547
19	0x3f33f580	0.7029648
20	0x3fb290dd	1.3950459
21	0x3fa1c20a	1.2637341
22	0x3f8fa7d2	1.122309
23	0x3f7d76a3	0.9900915
24	0x3f2542f8	0.6455531
25	0x3f921f95	1.1415888
26	0x3f6feb24	0.9371817
27	0x3f8f83f5	1.1212145
28	0x3f911717	1.1335171
29	0x3f80342d	1.0015923
30	0x3f8b54d2	1.088526
31	0x3f8c2336	1.0948246
32	0x3f829c1c	1.0203891
33	0x3f375862	0.71619236
34	0x3f48a786	0.7838062
35	0x3f96a797	1.1769894
36	0x3f85844d	1.0431
37	0x3fb8569e	1.4401433
38	0x3f6f5cc3	0.9350092
39	0x3fa46aec	1.284513
40	0x3fac3274	1.3452897
41	0x3f5cb46c	0.862128
42	0x3f6b36f7	0.91880745
43	0x3f82d6f7	1.0221852
44	0x3f97110d	1.1802078
45	0x3f88e88e	1.069597
46	0x3f4113f0	0.7542105
47	0x3f926d4c	1.1439605
48	0x3f83595b	1.0261644
49	0x3f94e894	1.1633477
50	0x3fad90d0	1.3559818
51	0x3f874188	1.0566874
52	0x3f68b10b	0.90895146
53	0x3f9f55be	1.2448041
54	0x3f9ce673	1.2257828
55	0x3f673946	0.9032177
56	0x3f3e602f	0.74365515
57	0x3f7932cd	0.9734314
58	0x3f990a48	1.1956263
59	0x3f808730	1.0041256
60	0x3f6c7408	0.9236455
61	0x3f878cbc	1.0589824
62	0x3f3c4378	0.7354045
63	0x3f516360	0.8179226

layer3.1.bias f4 [64]
0	0xbf2ae7d7	-0.6676001
1	0xbed814c1	-0.42203334
2	0xbf3f1063	-0.7463438
3	0xbf011cd9	-0.50434643
4	0xbf85b75c	-1.0446582
5	0xbf640633	-0.8907196
6	0xbf2c9df8	-0.6742854
7	0xbf62df8e	-0.8862237
8	0xbf78c072	-0.9716865
9	0x3f2bfcae	0.67182434
10	0xbf313c0e	-0.6923226
11	0xbf660041	-0.8984414
12	0xbf0dca45	-0.55386764
13	0xbf168ddd	-0.58810216
14	0xbf6db60c	-0.92855906
15	0xbf44c8d2	-0.7686893
16	0xbf7c22fe	-0.98490894
17	0xbf7ad546	-0.9798168
18	0xbf6aff4e	-0.91795814
19	0xbee1c4bc	-0.4409541
20	0xbf4c9bb4	-0.79925084
21	0xbf6abfc3	-0.91698855
22	0xbf6f3ea6	-0.9345497
23	0xbf23ef47	-0.64036983
24	0xbe9846dc	-0.2974156
25	0xbfa309f1	-1.2737409
26	0xbe8d0720	-0.27544498
27	0xbf39320d	-0.72341996
28	0xbf143d9e	-0.5790652
29	0xbf181a15	-0.594148
30	0xbf54d116	-0.8313154
31	0xbf892b41	-1.0716325
32	0xbf09549f	-0.53644747
33	0xbe92e8b6	-0.2869317
34	0xbeef9f6b	-0.46801314
35	0xbf53e81c	-0.82776046
36	0xbf15430e	-0.5830544
37	0xbf4728dd	-0.7779673
38	0xbea2670a	-0.31719238
39	0xbf53c68c	-0.82724833
40	0xbf576139	-0.84132725
41	0xbf02d2dd	-0.51103
42	0xbf0c126e	-0.5471562
43	0xbea5bc9b	-0.32370457
44	0xbefd799a	-0.49506837
45	0xbef48ee0	-0.47765255
46	0xbea7a959	-0.3274639
47	0xbf6db667	-0.9285645
48	0xbf539f62	-0.82665074
49	0xbf37b36e	-0.7175816
50	0xbf37a224	-0.7173178
51	0xbf1695ce	-0.58822334
52	0xbe75b8f1	-0.23996331
53	0xbf3a0d54	-0.7267659
54	0xbeee6d19	-0.4656761
55	0xbf3aa815	-0.7291272
56	0xbef63bd1	-0.4809251
57	0xbf22e653	-0.63632697
58	0xbf563dbc	-0.8368795
59	0xbec59fb5	-0.3859841
60	0xbf3fdf07	-0.7494969
61	0xbf081435	-0.53155833
62	0xbef6fef9	-0.48241404
63	0xbf10246c	-0.56305575

layer3.1.running_mean f4 [64]
0	0xbfb407c7	-1.4064873
1	0xc0397a1f	-2.8980787
2	0xc034485d	-2.8169167
3	0xc0651588	-3.5794392
4	0xc0662a00	-3.5963135
5	0xbffdbe3c	-1.982368
6	0xc0849348	-4.1429787
7	0xbff03e8a	-1.8769085
8	0xc0926ad0	-4.5755386
9	0xc00828c4	-2.1274881
10	0xc041af44	-3.0263224
11	0xc0593065	-3.3935788
12	0xbf97f279	-1.1870872
13	0xc0364834	-2.848157
14	0xc0779fc1	-3.8691256
15	0xbfb4c9ef	-1.4124125
16	0xc0a75abf	-5.2298274
17	0xc03bc546	-2.9339156
18	0xc00004bf	-2.0002897
19	0xbf77e1da	-0.96829
20	0xc09e3cb4	-4.94491
21	0xc07347dd	-3.8012612
22	0xc03ac0e9	-2.9180243
23	0xc0b63095	-5.6934304
24	0x400b8b89	2.1803916
25	0xc09f151b	-4.9713264
26	0xc087999c	-4.237501
27	0xc047d1de	-3.1221843
28	0xc07a3884	-3.9096994
29	0xc00e2564	-2.2210321
30	0xc03dab87	-2.9635942
31	0xc0454ab2	-3.082684
32	0xc0821d04	-4.066042
33	0xc091d660	-4.557419
34	0xbf8ae047	-1.0849694
35	0xc0824968	-4.0714607
36	0xc03b69e3	-2.9283378
37	0xc0791bcd	-3.8923218
38	0xc031758b	-2.7727993
39	0xc0510ae0	-3.2662888
40	0xc04e0aa4	-3.2193995
41	0xc080ed7d	-4.0289903
42	0xc096a74c	-4.707922
43	0xc067f8d3	-3.624562
44	0xc02f8539	-2.7425063
45	0xc071ebc9	-3.7800162
46	0xbf7a3450	-0.9773607
47	0xc08cbfb4	-4.3984013
48	0xbf3ee4c5	-0.74567825
49	0xbfcdcc38	-1.6077948
50	0xc0794ff7	-3.8955057
51	0xc01646b6	-2.3480659
52	0xc08cad5e	-4.396163
53	0xc0773127	-3.862375
54	0xc0a45956	-5.1359053
55	0xc0387a8e	-2.8824801
56	0xc0444289	-3.066561
57	0xc078e4f4	-3.8889742
58	0xc05cb772	-3.4486966
59	0xbfee1dd6	-1.8602855
60	0xc0360c58	-2.8445034
61	0xc07eaf83	-3.9794624
62	0xc0669a2f	-3.6031606
63	0xbf5d9d31	-0.8656798

layer3.1.running_var f4 [64]
0	0x40ca807e	6.328185
1	0x40ec169f	7.3777614
2	0x410fea06	8.994635
3	0x4166e27c	14.430294
4	0x415efd8f	13.936904
5	0x40ec2821	7.3798985
6	0x413bb3d7	11.731406
7	0x41154723	9.329867
8	0x41184459	9.516686
9	0x40f745cf	7.7272716
10	0x4124680a	10.2754
11	0x40ec29f4	7.380121
12	0x40a08363	5.0160384
13	0x4112bb1d	9.170682
14	0x4109cc67	8.612403
15	0x40db6b77	6.8568683
16	0x412f607c	10.961056
17	0x410f0c50	8.940506
18	0x40d2bf87	6.58588
19	0x40a841bd	5.2580247
20	0x4172bf34	15.17168
21	0x412a8d71	10.659532
22	0x41104f7c	9.019405
23	0x4112949f	9.161284
24	0x40a3ce9a	5.11897
25	0x410a1142	8.629213
26	0x412c7188	10.777718
27	0x411c9daf	9.788497
28	0x412cd169	10.801126
29	0x40deec81	6.96637
30	0x41104281	9.016236
31	0x4136acf2	11.417223
32	0x40a3666e	5.1062536
33	0x40e70855	7.219767
34	0x40d021a8	6.5041084
35	0x413ca184	11.789433
36	0x414e0358	12.875816
37	0x418431f0	16.524384
38	0x4111aeec	9.105206
39	0x41605203	14.020022
40	0x41592bbf	13.57318
41	0x40ddaebf	6.9275813
42	0x4108558e	8.520887
43	0x414e0390	12.87587
44	0x41333fb5	11.203053
45	0x41170591	9.438859
46	0x40f1d562	7.5572977
47	0x4121f9df	10.123504
48	0x410035cf	8.013137
49	0x41130336	9.188284
50	0x41787e96	15.530905
51	0x4138edfc	11.558102
52	0x40ded6c8	6.9637184
53	0x415d0e9c	13.816067
54	0x4160d0d9	14.050988
55	0x41176264	9.461521
56	0x4100ae67	8.042579
57	0x41086510	8.524673
58	0x410055cb	8.020946
59	0x41264373	10.391467
60	0x40ca3897	6.319408
61	0x4121fc37	10.124076
62	0x40f85602	7.760499
63	0x40bd99cf	5.9250255
