results/RENet-dataset-Conv64F-5-5-Jan-08-2024-20-55-23/checkpoints/emb_func_00040.pth (torch, 463459 bytes, 24 tensors)

layer1.0.weight f4 [64, 3, 3, 3]
000000 89 ce 08 3f 14 5f 88 3e 2b b8 0a be e3 a6 80 bf
       0.5344015 0.2663504 -0.13546817 -1.005093
000010 d0 2c 48 bf e8 d6 c1 be 88 c5 cd 3e 84 32 50 3f
       -0.7819338 -0.37859273 0.40189767 0.8132708
000020 29 20 55 3f 87 9f ff 3e 42 a5 ad bc 35 5d b1 be
       0.832522 0.49926397 -0.021196965 -0.34641424
000030 f4 85 c9 bf 1a 05 af bf e7 7e 4d bf 6b fe 71 3e
       -1.5744004 -1.3673432 -0.8027176 0.23632209
000040 4e 10 59 3f ce 3b 6c 3f b8 63 4b 3f ce e3 8f 3e
       0.84790504 0.92278755 0.79449034 0.2810349
000050 91 77 03 bd 16 62 71 bf 3a 23 61 bf 02 44 bf be
       -0.03209645 -0.9429029 -0.87944376 -0.37356573
000060 d4 5e a5 3e a2 5f 5e 3f f3 19 6f 3f f0 86 5f be
       0.3229891 0.86864674 0.9339897 -0.21828818
000070 4e cd 47 be bd f7 48 be a6 72 73 be 71 7b 1a be
       -0.19511911 -0.19625755 -0.23774204 -0.15086152
000080 84 ac 8b be 5f 52 ca bd a2 43 b4 bd 8a 72 00 be
       -0.27280056 -0.09878992 -0.088019624 -0.12543693
000090 5e cb 95 bd cd 16 91 3c c9 da ed bc 88 4a a2 bc
       -0.0731418 0.017711068 -0.029034989 -0.01981093
0000a0 9a d0 15 3c 7a bb 93 bd 83 02 5d 3d e4 53 62 3d
       0.009143973 -0.07213493 0.053957473 0.055255786
0000b0 a4 03 29 3d 7b 4b 59 3c 1b 04 b9 3d ba a6 64 3d
       0.041263238 0.013262625 0.09033986 0.055823065
0000c0 7d 70 2e 3d bb 30 e7 3d 56 91 b7 3d e5 33 25 3e
       0.042587746 0.112885915 0.089632675 0.16133077
0000d0 3d 43 48 3e a5 eb 25 3e aa d0 c1 3d 5d 8b 91 bc
       0.195569 0.16203173 0.09463628 -0.017766649
0000e0 b9 16 96 3c 1e c0 7f be 3c ef b2 be 28 d0 d4 be
       0.018321382 -0.2497563 -0.34948146 -0.4156506
0000f0 3b bc 51 be 9f c3 69 be ef 93 92 be 92 66 e8 3e
       -0.2048196 -0.2282853 -0.2862849 0.45390755
000100 21 45 df 3e 82 3a e4 3e 16 7f 65 3e e1 eb 37 3e
       0.4360743 0.44575888 0.2241176 0.17961074
000110 e3 ba 08 3e f3 aa 45 bd 43 c6 0b be a8 a9 06 be
       0.13352542 -0.048258733 -0.1364985 -0.13150656
000120 da 93 61 3e 02 f4 62 3e 05 9b 80 3e 81 84 21 3e
       0.22029057 0.22163394 0.2511827 0.15773202
000130 89 92 b4 3d cb 77 34 bd 65 b6 30 be 22 f3 60 be
       0.08817012 -0.044059556 -0.17257078 -0.21967748
000140 15 f4 85 be e7 e9 53 3f 83 17 52 3f b8 bb 4d 3f
       -0.26162782 0.8277878 0.82067126 0.8036456
000150 dc 21 74 bd 23 f4 a6 be 58 5d f9 be 28 89 8b be
       -0.059602603 -0.32608137 -0.48704028 -0.2725308
000160 e5 ad 45 bf 3f d9 75 bf de e7 4e 3f f1 40 5c 3f
       -0.77218467 -0.96034616 0.8082255 0.8603659
000170 63 61 85 3f 6d 5e 8b 3d 75 09 43 be 7c 64 84 be
       1.0420345 0.0680512 -0.19046576 -0.25857913
000180 05 47 07 be be 87 3c bf 51 d2 5a bf 34 0e af 3e
       -0.13210686 -0.73644626 -0.8547717 0.34190524
000190 c9 e1 f7 3e 02 08 2b 3f d3 ba 46 bd 1a b6 3d be
       0.48414448 0.66809094 -0.048518013 -0.18526497
0001a0 34 4b 8f be e2 bf 04 3b 35 d2 13 bf d5 50 21 bf
       -0.27987063 0.0020255973 -0.57742625 -0.63013965
0001b0 c8 1c a1 3e 5b 46 82 3e 7e 70 33 3e 18 cd 3e 3e
       0.3146727 0.25444302 0.17523381 0.18632925
0001c0 47 0e 88 bd c1 c3 99 3c 88 bc 40 bd d6 84 dc be
       -0.06643348 0.0187701 -0.047054797 -0.43070096
0001d0 53 3f b8 be 78 a5 4f 3e cc 68 32 3e 4e 22 39 3e
       -0.35985813 0.20277965 0.1742279 0.18079492
0001e0 4e 97 e2 3d 3c 40 6a bd de aa 4a bc af 03 88 3d
       0.11064015 -0.057190165 -0.0123698395 0.066413276
0001f0 ed 1b 79 be d7 b4 10 be 33 01 e0 3d 55 ae a3 3d
       -0.24327059 -0.14131485 0.10937729 0.079922356
000200 cb 33 eb 3d 54 97 35 bd 53 14 06 be 9b 30 d7 bc
       0.11484488 -0.04433377 -0.1309369 -0.026268294
000210 bf 90 c1 bd 09 32 87 be f0 57 0c be 0d d7 40 3e
       -0.09451436 -0.2640536 -0.1370542 0.18832035
000220 e6 7d 33 3e a1 7c 24 3e 89 63 23 3e 6b 6d 6c 3e
       0.17528495 0.16063167 0.15955938 0.23088615
000230 ab 7b 8b 3e 2d 31 4d 3e df 42 70 3e ee af 35 3e
       0.2724279 0.2003829 0.2346301 0.17742893
000240 5c 3a e8 bd 7a 98 0e be c3 ae db bd 04 bd 96 be
       -0.11339256 -0.13925353 -0.107266925 -0.29441082
000250 29 66 9e be 4c 7e 9e be 5a 74 9c be e1 f5 a3 be
       -0.30937317 -0.30955732 -0.3055752 -0.32023528
000260 fd 11 95 be 36 b2 fb 3e 1e 2a e2 3e 6d a8 ae 3e
       -0.29115286 0.49159402 0.44172758 0.34112874
000270 29 5f 82 3e 07 e8 38 3e 90 70 58 3e 18 98 40 3e
       0.25463226 0.18057261 0.21136689 0.18808019
000280 04 18 23 3e fd 14 1d 3e d3 84 47 bf 4f 65 15 be
       0.1592713 0.15340038 -0.7793705 -0.14589427
000290 11 91 f1 3e 94 0e 43 bf 9b 2f 33 3e fc 05 05 3f
       0.4718099 -0.7619412 0.17498629 0.51962256
0002a0 c5 db 77 be 5f 7a 28 3e 67 07 9e 3e 03 40 18 bf
       -0.24204929 0.16452931 0.30865023 -0.59472674
0002b0 42 60 00 3e cd 76 2b 3f fa 9d 3e bf f4 36 cd 3e
       0.1253672 0.6697815 -0.74459803 0.40080988
0002c0 ce 3e 27 3f 67 13 9d be 59 4f 28 3e ed 0c 4b 3e
       0.6533021 -0.30678865 0.16436519 0.1982915
0002d0 cb 86 07 bf b9 9d 66 bc c5 14 01 3f 9d e3 39 bf
       -0.5294005 -0.01407569 0.50422317 -0.72612935
0002e0 8a ee 56 3e 98 06 e7 3e cb bd d5 be bb bb b7 bd
       0.20989433 0.45122218 -0.41746363 -0.089713536
0002f0 4c 90 fc bb c6 c9 6a 3f 7a 24 8d 3f 20 9f 9b 3f
       -0.007707631 0.9171413 1.1026757 1.2157936
000300 79 8d 25 bf 5f c6 60 bf db c4 27 bf 88 15 b9 be
       -0.64668995 -0.8780269 -0.6553475 -0.3614924
000310 e4 b8 49 be 91 5f a7 be 1f 49 38 3e 3c 28 d8 3e
       -0.19699436 -0.326901 0.17996643 0.42218196
000320 cd 64 0f 3f 7f ed 02 bf 2c fb 59 bf 08 78 19 bf
       0.56013185 -0.5114364 -0.8514888 -0.5994878
000330 e1 90 60 3e d5 58 01 3f f7 29 4e 3e 0f 73 37 be
       0.21930267 0.5052617 0.20133196 -0.17914985
000340 ae d2 84 3c d1 1d 08 3e da 82 9b be e3 c7 06 bf
       0.016213741 0.13292624 -0.3037327 -0.5264875
000350 31 1a 9e be 50 81 f9 3e 4b 45 44 3f 0f a1 07 3f
       -0.30879357 0.4873147 0.7666823 0.5298013
000360 cc 2d 87 bf 04 65 78 bf 9b 12 c1 be a1 c3 11 bf
       -1.0560851 -0.9702914 -0.37709507 -0.5693913
000370 54 39 c8 3e d5 1d 62 3f 81 d0 45 3e f0 b1 d1 3e
       0.39106238 0.8832677 0.19317819 0.40956068
000380 30 74 e6 3e 67 64 67 bf a6 e8 8d bf 07 19 05 bf
       0.4501052 -0.90387577 -1.1086624 -0.51991314
000390 e7 ee 80 be 83 c1 35 3f 85 b5 90 3f 64 e6 07 3f
       -0.25182268 0.709984 1.1305395 0.53085923
0003a0 e4 f2 31 3f 4d 38 39 3f 6f d6 11 bf 6d 73 64 bf
       0.69511247 0.72351533 -0.56967825 -0.89238626
0003b0 d1 35 e5 be 4e 3e 95 be 32 21 f4 3e 2f 33 50 3f
       -0.4476762 -0.29149097 0.47681576 0.813281
0003c0 05 b6 9c 3d a1 57 73 3e 5a 9d 0d 3e d1 cc 38 bc
       0.07651905 0.23763897 0.13829556 -0.011279301
0003d0 23 c0 51 bc d0 85 f1 bd ba a3 1d 3c 66 4b b9 bd
       -0.012802157 -0.11793101 0.009621555 -0.09047584
0003e0 98 7b b9 bc 3a 9a 4d 38 b1 e7 25 bd dd c4 a6 3a
       -0.022641942 4.9019443e-05 -0.04050416 0.0012723465
0003f0 9b 54 1a 3c 9a d9 59 bd d3 db bb bd 41 dd b3 bc
       0.009419586 -0.053186037 -0.091727875 -0.021956088

layer1.0.bias f4 [64]
000000 b7 d6 66 3c e8 1b 16 bd 1a 9c ea 3b 6a dd 19 3d
       0.014089278 -0.036647707 0.007159722 0.037564673
000010 dd df fb 3c bd f1 1f 3d 23 34 ca 3c 57 34 77 bb
       0.030746395 0.0390489 0.024683064 -0.0037720406
000020 c6 0e 43 3c 5e 16 9c bc e0 88 1e 3d f2 08 bb 3c
       0.011905378 -0.019053634 0.038704753 0.022831414
000030 aa b3 08 bd 53 7e 21 3d 32 65 31 ba 80 d4 04 bb
       -0.033374466 0.039427113 -0.00067670934 -0.0020268261
000040 35 77 4c bc ad 1c 45 bc 52 91 15 3b 50 5c b6 bc
       -0.012479593 -0.012030763 0.0022822213 -0.022260815
000050 89 bc 2d bd 55 6a c0 bc 6b ab 14 bc 1b 0a 0d 3d
       -0.04241613 -0.023488203 -0.009074072 0.034433465
000060 5d 66 09 3d 21 cf df bc b0 81 e5 ba a1 9b 57 bc
       0.033544887 -0.027320446 -0.0017509963 -0.013159663
000070 48 d5 c7 bc a3 5f 03 bc 38 9c 81 bc 92 ca d0 3c
       -0.024393693 -0.008018407 -0.015821561 0.025487218
000080 83 41 b9 bc 62 e4 e5 3b cf cb d2 bc d3 2b 69 bc
       -0.022614246 0.0070157507 -0.02573195 -0.01423164
000090 e7 07 13 3d 13 63 b7 bc 9b b0 33 bb 92 60 32 3d
       0.035896208 -0.02238611 -0.0027418497 0.043549128
0000a0 b5 b3 7f 3c 05 22 be bc 91 46 e0 bc fb fd 82 bc
       0.01560681 -0.023209581 -0.027377399 -0.015990248
0000b0 79 f3 69 bc 92 a2 a2 3c 92 18 26 bc 10 85 1d 3d
       -0.01427924 0.01985291 -0.010137694 0.038456976
0000c0 e0 f4 cc bc f8 9d 69 bc 18 00 88 3c 8b 2a 15 3d
       -0.02501911 -0.014258854 0.016601607 0.036417525
0000d0 f0 a9 32 3d 00 24 ef 3b f7 eb fb 3a 96 5c a7 bc
       0.043619096 0.0072979927 0.0019220103 -0.02042989
0000e0 61 0f d3 3c 29 86 d8 bc 6a 5e 44 bc 6f 1a 1c bd
       0.02576417 -0.02643116 -0.011985401 -0.038111147
0000f0 1d 8d 33 bd d6 ca d0 3c 4b 04 4b 3b af e3 14 3d
       -0.043835748 0.025487345 0.00309779 0.03634995

layer1.1.weight f4 [64]
000000 34 f7 9e 3f 77 33 fa 3e 18 20 b1 3e 37 17 6d 3f
       1.241919 0.4886739 0.34594798 0.9261355
000010 69 fa 20 3f 86 3d f4 3e 6e 04 6b 3f 14 c6 73 3f
       0.62882096 0.4770319 0.91803634 0.9522412
000020 f6 e1 8f 3f 42 73 bd 3e d4 a2 5d 3f 41 ee e0 3c
       1.1240833 0.37001997 0.8657658 0.027457358
000030 f7 e8 3c 3e cd 11 be 3e 76 b9 44 3e 1c c1 19 3f
       0.18448244 0.37122956 0.19211373 0.60060287
000040 72 5b 0b 3f 63 f9 89 3f 14 42 11 3f 6e 4f 10 3f
       0.5443641 1.0779232 0.5674145 0.563712
000050 bd 9b 84 3e f8 a7 90 3e 43 d9 5d 3f e6 4f 23 3d
       0.2590007 0.2825315 0.8665964 0.03987112
000060 96 91 0c 3f 6f 52 02 3f 59 8b ab 3e 41 c9 8b 3f
       0.54909647 0.50907034 0.3350475 1.0920793
000070 41 65 b8 3f be eb bb 3e 25 64 07 3e 22 7f e5 3e
       1.44059 0.36703295 0.13221796 0.44823557
000080 60 e7 73 3f 5f 96 56 3f a2 45 c5 3e 90 a0 12 3f
       0.95274925 0.838232 0.38529688 0.5727625
000090 df b7 67 3e b1 36 83 3f 84 c7 c0 3e 8c f8 dd 3e
       0.22628735 1.0251065 0.37652218 0.4335369
0000a0 e0 5a 93 3e 6e 70 c3 3e e0 9b c6 3e 6b e3 9c 3e
       0.2878027 0.38171715 0.38790798 0.30642256
0000b0 e1 c2 23 3f 03 d2 8f 3e 11 88 eb 3e 09 67 88 3f
       0.63969237 0.28089914 0.46002248 1.0656444
0000c0 73 d6 c5 3e 40 61 18 3e 13 4c 12 3e 4f 42 7c 3f
       0.38640174 0.14880848 0.14286833 0.9853868
0000d0 7c 25 eb 3e 3b 54 10 3f 84 41 22 3f 8b ec 82 3e
       0.45927036 0.56378525 0.6338122 0.25571093
0000e0 15 f3 17 3f 89 31 28 3f ad 03 29 3f d9 8f 47 3f
       0.5935529 0.65700585 0.66021234 0.7795387
0000f0 a7 5b 4c 3f bc 16 23 3f 47 6f 82 3e 28 bb e7 3e
       0.7982735 0.63706565 0.25475523 0.45259976

layer1.1.bias f4 [64]
000000 b9 f5 02 3d f8 4e 9c be 60 eb 8e 3e 19 01 78 3e
       0.03197262 -0.30528998 0.27913952 0.24219169
000010 d3 b9 43 bf 6f 52 b4 be 65 32 06 3f d3 d0 fa 3d
       -0.7645542 -0.35219142 0.52420646 0.12246861
000020 d2 f6 9c 3e 16 34 c3 be 88 79 07 3f 8b 30 dc bd
       0.3065706 -0.38125676 0.52919817 -0.10751446
000030 aa 1d ee 3d ca a2 29 bd bf f6 7b 3e c6 10 23 bf
       0.11626752 -0.041415013 0.24605845 -0.6369747
000040 6d 1d 4a 3d d8 52 0f 3e b1 c9 fb be eb 6f cf be
       0.04934447 0.13996446 -0.49177316 -0.40515074
000050 07 6e aa be 91 fc cb 3d 89 96 6e bf 35 b8 01 be
       -0.3328707 0.099602826 -0.9319845 -0.12667926
000060 de 4d 91 be df 65 fa bc 76 5f 00 bd ae d7 21 3f
       -0.2837972 -0.030566154 -0.03134104 0.63219726
000070 4e 02 84 3d cd 27 e3 3e a6 1c 6c 3d 3d 02 be be
       0.06445752 0.44366303 0.05764451 -0.37111083
000080 7e 92 bd 3e 00 61 d4 3e f8 aa 40 be 65 04 de be
       0.37025827 0.41480255 -0.1881522 -0.43362728
000090 2f 99 64 3d 78 b9 9b 3e 25 71 e2 be 4f 67 a9 bc
       0.05581015 0.3041494 -0.44226947 -0.020679144
0000a0 71 9a 35 3c 0c 7e 34 bd 7e 5a 21 3c a1 29 a0 be
       0.011084185 -0.04406552 0.009848235 -0.3128176
0000b0 5b 25 d5 3e 27 f3 d9 3e ba dd 84 be 6f 70 f7 3e
       0.41630062 0.42568323 -0.25950414 0.48327968
0000c0 c0 28 25 be c4 0a c1 be 04 d3 40 3e 58 b7 a4 bf
       -0.16128826 -0.37703526 0.18830496 -1.2868452
0000d0 41 c0 b3 3e 6f b7 ac 3e 8f bc cd be c6 c5 8a 3e
       0.35107616 0.337337 -0.4018292 0.27104014
0000e0 d9 93 b1 be 3c 23 49 bf e2 4e 0d 3e 3e ae 91 3e
       -0.3468311 -0.7856939 0.13799623 0.2845325
0000f0 9d b1 84 3e 56 90 d5 3d 10 b6 58 be 7c 3e ff be
       0.25916758 0.104279205 -0.21163201 -0.4985236

layer1.1.running_mean f4 [64]
000000 e8 dc 96 3d c4 db f2 be ec c6 ad be 4c ba b1 bd
       0.07366353 -0.47433293 -0.33940828 -0.086781114
000010 27 40 eb 3c 98 6c 28 3f 37 8f 51 bd e5 53 95 3d
       0.028717114 0.657907 -0.05116197 0.07291392
000020 46 8f f9 bd 60 24 2d 3b 4c a9 2d bd 58 17 ea 3c
       -0.1218553 0.0026419386 -0.042397782 0.028575584
000030 9a 54 2b bc f5 c4 b6 bd f3 31 01 3f 19 76 ed 3e
       -0.010457182 -0.08924285 0.5046684 0.46379164
000040 aa 0f 23 bf fc 20 ac bd b2 d0 46 be 3e d1 9b be
       -0.63695776 -0.08404729 -0.19415548 -0.30433077
000050 d4 e3 d2 3c e6 c3 83 3e 44 d1 f1 bd 89 cf 42 3e
       0.025743403 0.25735396 -0.118074924 0.19024481
000060 27 19 9e be 62 08 0e bf 63 f7 4a 3e 6a e4 3a bd
       -0.30878565 -0.5548154 0.19820933 -0.04562799
000070 aa 41 99 bd e9 35 22 bf 72 76 a1 3d be 14 a2 be
       -0.074832276 -0.6336351 0.0788392 -0.3165645
000080 fd b9 88 be b2 2f 9d be ba 8f 6f be bf e5 dc be
       -0.26704398 -0.3070045 -0.23394671 -0.43144032
000090 7f 03 c4 bc 6b 0a 8a bd 3d 7f ce 3d e3 1a 30 3e
       -0.023927448 -0.06740268 0.100828625 0.17197756
0000a0 58 d9 3c be a6 75 29 be c3 cc 1a bf 70 c7 bb 3d
       -0.18442285 -0.16548786 -0.6046869 0.09168899
0000b0 7e 5a 21 3e 55 db cc 3c b1 c6 e7 be 29 08 e0 bc
       0.15757176 0.02500693 -0.45268777 -0.027347641
0000c0 ca 31 0b be 3e 7f 1e be d7 cd 45 3e 9e 2d 31 3d
       -0.13593212 -0.15478227 0.19316803 0.043256395
0000d0 fd b0 e5 3d db ad c5 be f2 e7 bb be 6c 68 95 3d
       0.112153985 -0.38609204 -0.36700398 0.072953075
0000e0 28 1c fe be 0b 79 87 3d 93 26 b0 be 0e 4d 60 bc
       -0.49630857 0.06614884 -0.3440443 -0.013690246
0000f0 5a 2a 61 3b 46 73 41 bf 59 e8 ba 3d ee 8a 0e bc
       0.003435752 -0.7556652 0.09126348 -0.008700116

layer1.1.running_var f4 [64]
000000 5a 9c 71 40 e7 e2 8c 3f f6 9e af 3f 93 c0 f9 40
       3.775168 1.1006745 1.3720386 7.8047576
000010 26 2d 28 3f b7 c4 53 40 6d d5 6f 40 63 a8 d0 3f
       0.6569389 3.3088815 3.7474015 1.6301388
000020 82 42 fb 40 bc 56 15 3f e5 74 6a 40 c7 fe 89 3e
       7.8518686 0.5833547 3.6633847 0.26952192
000030 28 f2 50 3e fc 59 82 3f b0 62 ae 3f ba 8e 46 40
       0.20404875 1.0183711 1.3623867 3.1024613
000040 09 47 37 40 b1 3a 53 40 9d 63 a4 3f 2e 68 6f 40
       2.8637106 3.3004572 1.28429 3.7407336
000050 af d9 89 3e 01 e1 8a 3f 53 7c 9f 3f 59 e5 7f 3f
       0.26923892 1.0849916 1.2459816 0.9995933
000060 2b d8 48 3f 0c 03 22 40 96 5d 7a 3f 1f 41 45 41
       0.78454846 2.531436 0.9779905 12.328399
000070 f2 63 47 41 df ae 08 40 7e b9 62 3e cb 10 40 3f
       12.461901 2.1356733 0.22141072 0.75025624
000080 ed c2 3f 40 37 93 c2 40 9a ad 68 3f 47 fe 81 3f
       2.9962723 6.0804706 0.90889895 1.0155724
000090 00 70 de 3e 10 a7 c7 40 3e 96 fb 3e ea 07 69 40
       0.43444824 6.2391434 0.49138063 3.641108
0000a0 08 3e 47 3f 12 6d b6 3e 91 43 02 40 08 90 10 3f
       0.7782903 0.3563009 2.035374 0.56469774
0000b0 38 90 8e 40 b7 09 83 3f 5f 06 ab 3f 91 c5 b1 40
       4.455105 1.023734 1.3361319 5.555367
0000c0 0b ae fa 3e c9 e6 0d 40 1e 8c ac 3e 59 c3 c8 3f
       0.4896091 2.217211 0.3370065 1.5684615
0000d0 a5 21 c9 3f 07 c8 0c 40 39 65 a0 3f 05 67 8c 3f
       1.5713392 2.1997087 1.2530891 1.0968939
0000e0 c7 34 d5 3f b5 42 18 3f 06 f6 2f 40 d2 8f 9b 40
       1.6656731 0.59476787 2.749391 4.861306
0000f0 20 87 3d 40 ac 60 91 40 ed 99 95 3e 65 5d 8a 3e
       2.9613724 4.543051 0.29219 0.2702438

layer2.0.weight f4 [64, 64, 3, 3]
000000 62 91 6a 3d 4e 61 b7 3d af 75 d3 3b 16 78 ae bc
       0.057267554 0.08954106 0.006453238 -0.021297496
000010 2e 21 8a bc d7 35 eb bc 66 c6 10 3e b5 ce c7 3d
       -0.016861524 -0.028712196 0.14138183 0.09756223
000020 ff fe 1d 3d 35 4e 8e 3c 0c c5 da 3b e1 f2 8c 3b
       0.03857326 0.017371276 0.006676322 0.0043014144
000030 98 ed d7 3c 8f bb ff 3c 93 94 55 3c 03 e4 72 3c
       0.02635841 0.031217365 0.013035911 0.01482487
000040 b6 31 2c 3c 9f eb 83 3c 3b ac 85 bd 10 25 26 bd
       0.010509899 0.016103564 -0.06526991 -0.04056269
000050 c9 f1 22 bd 06 42 8a 3d da 94 69 3d 44 66 1f 3d
       -0.039781366 0.06750874 0.05702672 0.038915887
000060 97 33 9d 3d 36 c7 ae 3d cd a4 a7 3d 52 2e b3 bd
       0.076758556 0.0853409 0.0818573 -0.08749069
000070 3a 64 62 bd 84 9a cd bc a7 54 3e 3d c5 f2 d5 bc
       -0.055271365 -0.025098093 0.04646745 -0.026116738
000080 cc 97 d1 bd d0 aa 80 3c ef ba a4 3c 7d f2 90 3c
       -0.10234031 0.01570645 0.020108668 0.017693752
000090 62 7b ca bc ad 3f 55 bc 24 10 bc bc 33 bf 1b bd
       -0.024717037 -0.01301567 -0.022956915 -0.03802414
0000a0 7e 8a 85 bd 52 cb 8e bd 3d a7 2c bd db 2c 6d bd
       -0.06520556 -0.06972374 -0.04215168 -0.057904106
0000b0 52 71 34 bd 59 35 84 bb 02 28 a4 bc de 63 9e bb
       -0.044053383 -0.00403468 -0.020038608 -0.0048336824
0000c0 b1 27 71 bd d2 67 8c bd f8 87 94 bd 4f bf 6d bd
       -0.058875743 -0.0685574 -0.072524965 -0.058043774
0000d0 ef 5a aa bd 6c 12 98 bd a0 32 cb bd df 65 96 bd
       -0.083181255 -0.07425389 -0.09921765 -0.07343649
0000e0 e4 27 a2 bd 96 a1 75 bd bb 67 9f bd 61 64 e8 bd
       -0.07917765 -0.059968553 -0.07783457 -0.11347271
0000f0 ab 2e ba 3c cc 36 d2 bc bd c9 ae bd 45 6f 9d 3c
       0.022727331 -0.025660895 -0.08534572 0.019218097
000100 3a f6 84 3c 2b 4a 03 bd 05 f9 5a 3c bc b1 b5 3b
       0.016230691 -0.032053154 0.013365035 0.005544869
000110 12 dc dc bc 6c 69 7d 3d c3 46 50 3b f6 39 6f bd
       -0.026960406 0.061868116 0.0031780459 -0.058404885
000120 2d 45 93 3d dd 97 89 3d 36 21 33 3d 6a 19 21 bd
       0.071909286 0.06718419 0.043732844 -0.039330877
000130 6b 44 af bc 37 7b 79 bd 55 d8 d7 3d b7 87 97 3d
       -0.021394929 -0.060908522 0.10539309 0.073989324
000140 c3 57 40 bd 32 f0 bd bb fd 2d 3d bc 82 a8 98 bc
       -0.046958696 -0.005796456 -0.011546609 -0.018635038
000150 cb 5d 69 bc 58 12 12 bd d3 e5 c7 bc e3 3d 6f bc
       -0.014243553 -0.035662025 -0.02440158 -0.014602157
000160 7f 35 f4 bb 46 f5 a0 bc ba 9c ba bd b1 1c 02 be
       -0.0074526663 -0.019648205 -0.091119245 -0.12706257
000170 5d 67 35 be 10 a6 77 3c 8d db a0 3a 30 52 45 bd
       -0.17715211 0.015115276 0.0012272462 -0.048174083
000180 ca 04 5a 3e 61 47 34 3e 9f e0 1d 3e 70 a3 47 3c
       0.2129089 0.17605354 0.15417717 0.012184963
000190 c2 b4 1a 3c 17 d7 c7 ba 53 70 22 bc 42 77 d1 bb
       0.00944251 -0.0015246597 -0.0099144755 -0.0063923905
0001a0 eb 58 03 bc 8f 61 19 bb 11 a8 b7 3a c7 f8 16 3b
       -0.008016805 -0.0023404097 0.001401188 0.0023036466
0001b0 77 16 ad 3a ba 2e 7d 3b c9 f9 05 bc 9c 81 80 3c
       0.0013205548 0.0038632588 -0.008177229 0.015686803
0001c0 a0 78 bc 3c 52 15 42 3c 4e 71 76 3c dd cd b0 3c
       0.023006737 0.0118459035 0.015041662 0.021582538
0001d0 dc ad 32 3c af 7a 07 bd 04 cf 79 bd 51 7b 81 bd
       0.010905709 -0.033075985 -0.06098844 -0.06322349
0001e0 96 b3 ac bd e3 14 02 be 87 fb f9 bd 55 67 b6 bd
       -0.08432691 -0.1270328 -0.12206178 -0.08906428
0001f0 a8 3e 03 be 15 6b fd bd cc f5 65 bc ba b6 3d bc
       -0.1281687 -0.1237394 -0.014035653 -0.01157921
000200 10 98 bc bc 7f bd 43 bd 07 86 29 bd e5 d1 17 bd
       -0.023021728 -0.04778814 -0.041387584 -0.037065405
000210 54 23 e4 bc 60 cc c7 bc 9e 1c ff bc 12 e7 60 bd
       -0.027848877 -0.024389446 -0.031141575 -0.054907866
000220 28 21 77 bd bd 26 65 bd 86 ed a9 bd 59 53 b7 bd
       -0.060334355 -0.055945147 -0.08297257 -0.08951444
000230 2a 53 99 bd 23 ac 5b bd 63 72 61 bd c1 42 70 bd
       -0.074865654 -0.05363096 -0.05504073 -0.05865741
000240 37 d4 45 3c 74 ce a4 3c e6 9a 3c 3b bf 2c de 3d
       0.012074522 0.020117976 0.002877885 0.108483784
000250 c7 5e fc 3d 7f 6a f4 3d f3 d6 c7 3d db 63 fb 3d
       0.12322765 0.11934375 0.09757795 0.12274905
000260 a8 6a dc 3d 44 0f c9 bc fb 87 3f bd 71 98 4f bd
       0.107625306 -0.024543412 -0.04676054 -0.05068249
000270 3d 61 44 bc 79 d8 5d bd 95 a7 aa bc 1b b1 ec 3d
       -0.011986074 -0.054161523 -0.020831862 0.11557218
000280 9b 60 8a 3d e5 a8 b6 3d 96 f6 b7 bc fb ab d2 bc
       0.06756707 0.08918933 -0.022456449 -0.025716772
000290 8e 82 d4 bb 18 21 06 bc 42 ce 9d bb 6a 88 02 3c
       -0.00648529 -0.008186601 -0.0048158476 0.007967094
0002a0 2f 38 9d ba cd 7d 18 bc c9 0a 04 bc fb c9 de bc
       -0.0011994893 -0.009307337 -0.008059212 -0.027195921
0002b0 fe e5 5d bd a0 98 83 bd a5 64 ae bd 4f 1f d8 bd
       -0.054174416 -0.06425595 -0.0851529 -0.10552847
0002c0 fb 2e e5 bd fb af a5 bd af ff cd bd a7 b9 cb bd
       -0.111906014 -0.08090206 -0.100585334 -0.0994752
0002d0 80 da 7b bc ce a2 e5 bc 56 1a 90 bc 83 47 db bc
       -0.015371919 -0.028031733 -0.017590683 -0.026767498
0002e0 09 0b f2 bc ad 64 c3 bc 37 af bc bc c6 c4 0d bd
       -0.029546278 -0.023851717 -0.023032768 -0.034611486
0002f0 82 ee 28 bd 72 49 83 bd 80 b1 7f bd 28 00 7a bd
       -0.041243084 -0.06410493 -0.062425137 -0.061035305
000300 a7 14 dc bc 80 eb 92 bd c6 c9 ba bd bb ea c7 bc
       -0.026865317 -0.07173824 -0.091205165 -0.02440392
000310 fd e1 04 bd f6 fb ed bc 6a be b9 bd 93 1e 9d bd
       -0.03244208 -0.029050808 -0.09069522 -0.07671847
000320 b7 93 35 bd d4 a9 2f bd 6d 79 8a bd f8 a9 46 bd
       -0.044330325 -0.04288657 -0.067614414 -0.04850194
000330 d9 2d 93 bd e9 b7 7e bd 16 6f 53 bc 97 f3 e4 39
       -0.07186479 -0.06218711 -0.012904903 0.00043669037
000340 8e 2b 3f bc 36 46 db bc 64 79 c9 bb 39 81 80 bc
       -0.011668099 -0.026766878 -0.006148504 -0.015686618
000350 66 0e a3 bc 5e 3b f7 bc 6e 5a 0d bd 0c f6 cb bc
       -0.019904327 -0.030179676 -0.03451007 -0.024897598
000360 cf de 02 3c ca 76 52 3c 47 1e 9e bc ab 9c 6c 3c
       0.007987692 0.012845704 -0.019301547 0.014441649
000370 98 04 9e bc cd a7 94 bc a0 9e 44 3c c9 28 ac bc
       -0.0192893 -0.01814642 0.01200071 -0.021015542
000380 a8 7f d3 bc f2 30 81 bc 78 61 83 bc 34 28 56 bc
       -0.025817707 -0.01577041 -0.016037688 -0.013071109
000390 bc b3 8d 3d 93 c7 9a 3d 66 35 9d 3d 85 d3 84 3d
       0.06919047 0.07557597 0.076762006 0.06485657
0003a0 6e 2f b9 3d d9 2e a0 3d c2 15 9c bb 56 13 6d bc
       0.090422496 0.078214355 -0.004763336 -0.014469942
0003b0 06 28 06 bc 50 7a c6 bc a9 90 ec bc ac f5 de bc
       -0.008188253 -0.024228245 -0.028877573 -0.027216755
0003c0 bf 40 43 3c 34 2a 28 3b 2b 48 8e bb cb 19 6d 3e
       0.011917292 0.002565992 -0.004342099 0.2315437
0003d0 0d a5 54 3e 15 93 16 3e 2f 37 9e 3d f0 5d 83 3d
       0.20766087 0.14704545 0.07725369 0.064144015
0003e0 bd 83 ec 39 68 ec 3d 3e 00 90 11 3e 89 e0 e5 3c
       0.0004511158 0.18547213 0.14215088 0.028061168
0003f0 dc 2e e9 bd 07 4c 94 bd 45 0b a7 bd 3e dd 70 bd
       -0.11385891 -0.072410636 -0.08156446 -0.058804743

layer2.0.bias f4 [64]
000000 04 b0 bf b9 7e a4 d3 3b f3 70 1b bc 78 17 4b bb
       -0.000365615 0.006458818 -0.009487378 -0.003098933
000010 5d 9d a7 3b 8f 57 12 bb 02 29 d1 3b e2 ac 5e 3b
       0.0051151947 -0.002233002 0.0063830623 0.0033977558
000020 b8 5d df 3a 21 0f b2 ba 19 3a 1c bb 6f 5e 06 bb
       0.001704148 -0.0013584831 -0.002383834 -0.0020503064
000030 e9 2b 67 ba d2 61 ae bb 21 3e 38 bb e4 1b b8 3b
       -0.0008818494 -0.0053217197 -0.0028113204 0.005618559
000040 e5 00 e2 3b 24 24 ed 3a 65 5b c6 3a 93 9d 0a bc
       0.0068970793 0.0018092436 0.0015133439 -0.00846042
000050 0b f9 03 3b b1 fa 06 3c ce e6 8b bb 5c 1e 21 bb
       0.0020137455 0.00823848 -0.0042694574 -0.0024584746
000060 10 fe 1c 3c ca 72 c3 3a 27 4c fd 3b 97 80 2f bb
       0.009582058 0.0014911529 0.0077300253 -0.0026779526
000070 c7 c2 11 bc 90 e8 5f 3a ea 20 fa bb a8 54 8b bb
       -0.008896536 0.00085414294 -0.007633318 -0.004252035
000080 ef b9 60 3b 04 8e 15 bc 9a 94 af 3b 77 80 14 3c
       0.0034290513 -0.009128097 0.005358291 0.0090638315
000090 ed 8f 17 3c de 79 0c bc a8 49 20 bc 2c b1 81 bb
       0.009250623 -0.008573977 -0.009783186 -0.003957888
0000a0 69 20 4b 3a 43 71 9e bb a7 46 e3 3b 02 66 13 3c
       0.0007748665 -0.004835279 0.0069359127 0.0089964885
0000b0 64 d7 2a 3b 77 6b c1 ba de d1 13 bc b4 c5 c3 3b
       0.0026068324 -0.0014756758 -0.009022204 0.005974496
0000c0 24 4e bc ba 15 74 dd 3b 9e 0a 77 3b f5 52 d8 3a
       -0.001436655 0.006758223 0.0037695537 0.0016504215
0000d0 a0 c2 ef bb 74 55 d1 3b 50 ef f7 3a 73 65 fd 3b
       -0.0073169023 0.0063883606 0.0018915925 0.007733041
0000e0 d4 1c f4 3b b6 40 aa bb d0 86 f7 bb 6a 8f 18 bc
       0.0074497256 -0.0051957024 -0.0075539127 -0.009311536
0000f0 d2 69 5a bb f1 19 5c bb 29 6a 28 3a dd 2b ab 3b
       -0.0033327234 -0.0033584798 0.00064245105 0.005223735

layer2.1.weight f4 [64]
000000 22 3a 1b 3f 76 bd 85 3f e3 9c 0c 3f ec f7 48 3f
       0.6063558 1.0448444 0.5492689 0.785033
000010 8c 54 22 3f 48 3e 72 3f f6 ca 86 3f a4 5b 31 3f
       0.6341026 0.94626284 1.0530689 0.6928046
000020 89 cc 8b 3f fd 78 a1 3f b9 45 83 3f 70 4b 88 3f
       1.0921794 1.2615048 1.0255653 1.0648022
000030 61 d2 40 3f 76 49 1c 3f c2 6a 8e 3f 7c 83 64 3f
       0.7532101 0.6104959 1.112633 0.8926313
000040 8b d4 93 3f 6c d6 41 3f 9e 60 71 3f 97 7e 57 3f
       1.1549238 0.75717807 0.9428805 0.84177536
000050 6c e4 0c 3f 5d 8b 7f 3f cc 8c ac 3f 42 57 8c 3f
       0.55036044 0.99822026 1.3480468 1.0964129
000060 a5 b9 84 3f f7 65 27 3f ce cc 3c 3f cf df 76 3f
       1.0369154 0.6538996 0.7375001 0.96435255
000070 12 21 16 3f ad 7c 55 3f 3b 77 cc 3e a8 dc 3f 3f
       0.5864421 0.83393365 0.39934716 0.7494607
000080 5f 7c 9c 3f 48 63 61 3f 3c 7d 76 3f 35 33 99 3f
       1.2225455 0.88042116 0.9628484 1.1968752
000090 92 9d 33 3f 1f 2c 5e 3f 38 61 a5 3f 30 31 6d 3f
       0.7016231 0.86786073 1.2920294 0.9265318
0000a0 ef 49 ab 3f 23 3a 85 3f c5 3a 4d 3f bf 40 23 3f
       1.3381938 1.0408367 0.801678 0.6377067
0000b0 bf d1 82 3f c7 4a 49 3f f6 9f 58 3f 1a b5 80 3f
       1.022026 0.78629726 0.8461908 1.0055268
0000c0 7c 92 9d 3f 45 00 6a 3f 6a ed 90 3f 3d a8 69 3f
       1.2310328 0.9140666 1.1322453 0.91272336
0000d0 d5 dd 60 3f ba 6d 60 3f f4 a9 80 3f 92 e6 59 3f
       0.8783849 0.8766743 1.0051866 0.8511745
0000e0 49 71 8b 3f 63 03 65 3f c4 5c 82 3f a4 56 88 3f
       1.0893947 0.8945829 1.018456 1.0651441
0000f0 1c 02 30 3f d0 b8 8b 3f b4 11 42 3f 14 63 82 3f
       0.6875322 1.0915775 0.7580826 1.0186486

layer2.1.bias f4 [64]
000000 c2 6c d6 be 2c 0c eb be 1f 37 1b 3e 26 e4 89 bf
       -0.4187985 -0.45907724 0.15157746 -1.077275
000010 47 7e 84 be 7c c6 a7 be d1 f0 f1 be d4 56 91 be
       -0.25877592 -0.3276862 -0.4725404 -0.28386557
000020 d0 3d d8 be 7d 8f 89 be 8b 0d a8 be be 9d b7 be
       -0.4223466 -0.26867285 -0.32822832 -0.35862535
000030 61 11 f6 be dc 47 35 3c 40 83 8f be 71 fd ca be
       -0.48060134 0.011064496 -0.28029823 -0.39646485
000040 e1 88 26 be 65 4b f7 be e3 3c 6b be 8d 6f 34 bf
       -0.16263153 -0.4829971 -0.22972445 -0.70482713
000050 1b e0 7a bb 02 c3 01 bf d9 ae 22 bf 71 30 f4 be
       -0.003828055 -0.50688183 -0.63548046 -0.47693208
000060 16 a9 49 be c2 c8 0b be 13 c6 ec be 41 3f 92 be
       -0.19693407 -0.13650802 -0.4624487 -0.28563884
000070 22 e0 88 be b9 1e 0e be b9 34 81 3e 2d 33 9b be
       -0.267335 -0.13878907 0.25235537 -0.30312482
000080 a8 6b fc be ee 07 ad bd fd 3e e4 be 25 af 16 bf
       -0.49300885 -0.08448778 -0.44579306 -0.58861
000090 43 7a cc 3d 91 f4 04 bf 7f d8 fb be 0f 6b 3a bd
       0.09984257 -0.5193568 -0.4918861 -0.045512255
0000a0 f2 95 1d bf 66 6e b7 be 65 b9 0f 3e f6 b4 e8 bc
       -0.61556923 -0.35826415 0.14035566 -0.028406601
0000b0 ab 74 ba be a8 a0 2c bf 15 8a 99 be 21 b7 0f bf
       -0.36417136 -0.6743264 -0.2998816 -0.5613881
0000c0 12 c9 0a bf 5d 1e fe be 4d 74 0e be 0e 8e 8e be
       -0.5421306 -0.4963254 -0.13911553 -0.27842754
0000d0 f2 d6 99 be 2f 8a 8e be 2e 0f 93 bf 83 b3 43 3e
       -0.30046803 -0.278398 -1.1489007 0.19111447
0000e0 7c 95 80 be 9f ed f4 be 2a f0 04 bf df 62 7b be
       -0.25114048 -0.4783754 -0.5192896 -0.24549435
0000f0 2e 85 04 be c1 0d 7b be 89 b7 73 bd 37 fa 8b be
       -0.12941429 -0.24516965 -0.059501205 -0.27339336

layer2.1.running_mean f4 [64]
000000 b5 83 bc bf a4 5a 1e c0 da cb ff bf 89 20 d5 3f
       -1.4727694 -2.4742823 -1.9984086 1.6650554
000010 77 13 0f 3f 1d 23 c5 3d 6f 8f 8d c0 4f 76 b6 3c
       0.55889076 0.09625838 -4.423759 0.02227321
000020 31 1f a4 c0 cc b0 8c c0 05 1f 81 c0 19 ba a9 c0
       -5.1288075 -4.3965816 -4.0350366 -5.303967
000030 c4 43 81 bf cd d2 38 be b7 4b 0e c0 9b 11 04 c1
       -1.0098805 -0.18049164 -2.2233713 -8.254298
000040 2b 08 ac c0 2b 96 77 c0 f5 82 96 c0 2b 5e f7 bf
       -5.375997 -3.8685405 -4.703486 -1.9325613
000050 a4 d3 94 be 34 39 23 c0 11 28 ab c0 d7 e6 be c0
       -0.2906772 -2.5503664 -5.348641 -5.9656787
000060 f8 ee 15 c1 18 a4 92 bf ce fe 05 c0 24 0d 90 c0
       -9.370842 -1.1456327 -2.093677 -4.501604
000070 0e 97 ed bf 55 d7 2d c0 2b c3 d0 bf f2 28 80 c0
       -1.8561723 -2.7162678 -1.630956 -4.004998
000080 1d e5 bb c0 fa f8 67 c0 03 cc f7 bf d9 86 40 c0
       -5.871718 -3.6245713 -1.9359134 -3.0082304
000090 68 f2 57 c0 8d 69 75 c0 08 ce 35 c1 cc 51 8b c0
       -3.3741703 -3.8345673 -11.362801 -4.353735
0000a0 9a 47 43 c1 9e 9b 85 c0 1f 50 bc bf c0 66 ce be
       -12.204981 -4.1752462 -1.4711951 -0.40312767
0000b0 9f 4e 76 c0 5f 52 20 c0 48 0a 45 3e 27 04 72 c0
       -3.8485487 -2.5050275 0.19242203 -3.7815034
0000c0 ba f4 aa c0 30 9e 18 c0 78 b9 62 c0 c3 d1 45 c0
       -5.342374 -2.384655 -3.54257 -3.0909278
0000d0 d5 19 6b c0 6c 49 54 c0 8b ea eb 3f 62 00 e3 c0
       -3.6734517 -3.3169813 1.8430952 -7.0937967
0000e0 11 d7 df c0 be 8b 87 c0 25 8a d6 c0 e5 87 c5 c0
       -6.995003 -4.2358084 -6.7043633 -6.1728387
0000f0 4f 92 24 c0 e3 98 34 bf e6 d2 05 c0 e6 45 61 c0
       -2.57143 -0.70545787 -2.0909972 -3.5198913

layer2.1.running_var f4 [64]
000000 d3 14 ad 40 ee 4d 6e 41 2c 7a 20 41 28 f8 16 41
       5.408792 14.894026 10.029827 9.435585
000010 86 83 e9 40 b9 42 80 41 52 28 97 41 1c 60 b6 40
       7.297305 16.03258 18.894688 5.699232
000020 62 01 68 41 5a c8 97 41 41 d4 b6 41 6a c6 c8 41
       14.500338 18.972828 22.85364 25.096882
000030 b1 12 9a 40 a6 84 27 41 6d 4e 1a 42 cf 4b 85 41
       4.8147817 10.469885 38.576588 16.662016
000040 3e 38 e9 41 c2 19 c1 40 b5 ca ca 41 c4 ab 42 41
       29.152462 6.0343943 25.348978 12.166935
000050 34 ac c6 40 24 43 7d 41 d4 ab cd 41 58 9e 78 41
       6.208521 15.828892 25.7089 15.538658
000060 3a c1 ee 41 6c 2b 41 41 45 c2 e1 40 c0 52 d3 41
       29.844349 12.073101 7.0549645 26.415405
000070 fa 2b bb 40 3e d5 91 41 84 8e 0b 41 2a f8 3a 41
       5.849118 18.229122 8.722294 11.685587
000080 36 66 9d 41 dd 3e 43 41 b8 93 9c 41 b7 2f 23 41
       19.674908 12.2028475 19.572128 10.199149
000090 07 5e 64 41 ca 49 0f 41 e3 d9 06 42 0f 78 4c 41
       14.272956 8.955515 33.71278 12.779311
0000a0 c0 8b 03 42 97 68 ac 41 84 18 bc 41 27 45 29 41
       32.886475 21.55107 23.51197 10.579383
0000b0 56 09 dd 41 f0 67 cc 40 60 24 23 41 12 2a 4d 41
       27.629559 6.3876877 10.196381 12.822771
0000c0 a6 42 08 42 7e 32 46 41 8d b7 d2 41 cb 26 a3 41
       34.065086 12.387327 26.339624 20.393942
0000d0 18 9d d3 41 31 cd 71 41 94 06 46 41 5a a0 8a 41
       26.451706 15.112596 12.376606 17.328297
0000e0 77 2d b8 41 39 3e a4 41 d6 e0 9c 41 42 02 8a 41
       23.0222 20.530382 19.609783 17.251102
0000f0 33 55 6b 41 e6 8c c1 41 7f d3 d5 41 0b 00 d6 41
       14.708301 24.193798 26.72827 26.750021

layer3.0.weight f4 [64, 64, 3, 3]
000000 b1 fc 86 bc 03 c3 24 3a fa c2 04 bd 70 e5 cf 3d
       -0.016477915 0.00062851625 -0.032412507 0.101511836
000010 fd 68 88 3e 8d 37 8a 3e 9f 00 bc 3d 0a 95 1a 3e
       0.266426 0.26995507 0.09179806 0.15095916
000020 ba fd ee 3d a1 94 36 be ca 1a ac bd 62 0b ec 3d
       0.11669488 -0.17830135 -0.08403547 0.115256086
000030 72 a5 53 be a5 87 87 bd 8a 9b 2c be 5e b8 ca bd
       -0.20668581 -0.06617669 -0.16856208 -0.098984465
000040 8a cd 4a be f1 d0 40 be ac bc 86 bd 93 5a b8 bd
       -0.1980497 -0.18829705 -0.06578955 -0.09001651
000050 2d e5 89 bd 83 9b 43 be f0 9a 76 be f1 1a 73 be
       -0.06733165 -0.19102292 -0.24082541 -0.23740746
000060 6b c5 52 be 87 41 85 be 20 05 86 be 94 2c d9 bb
       -0.20583121 -0.26026556 -0.26175785 -0.0066276286
000070 31 da 7c bd c7 66 40 bd 8a ef c1 3d 0d 01 4f bc
       -0.06173152 -0.046973016 0.094695166 -0.012634528
000080 e0 4b b7 bc 0b b3 c9 bd da 0e f7 bd 24 d6 26 be
       -0.022375047 -0.09848603 -0.120633796 -0.16292626
000090 ef 74 10 3d 85 22 9f 3c db 5b e9 3d ed 1c 02 bd
       0.035267767 0.01942564 0.11394473 -0.031765867
0000a0 2a 9e db 3c 9e e2 8f 3b bf 9d 4b bd 16 9a 85 bd
       0.026808817 0.0043910285 -0.049710985 -0.0652353
0000b0 c5 85 f9 bd 1e b8 ce bc b0 b5 d6 3c d7 38 aa bd
       -0.12183718 -0.025234278 0.026209682 -0.083116226
0000c0 e0 6a 77 bb 33 7e 4c bd dc 61 95 bd 55 44 01 be
       -0.0037752911 -0.04992504 -0.07294056 -0.12623723
0000d0 53 97 8d bd 08 e9 ef bc c9 8e 23 be fa 5d ac bd
       -0.069136284 -0.029285923 -0.15972437 -0.08416362
0000e0 d3 00 5f 3d 68 d4 2a be cc 3a da bc 11 a1 a9 3d
       0.054444145 -0.16682589 -0.026639365 0.08282674
0000f0 ec 76 75 bc 80 d8 f8 3c df f9 ad bc d7 b6 42 bd
       -0.0149819665 0.030376673 -0.021237312 -0.04753765
000100 cf 4f 6f 3d 93 de 26 3e 4d ad ac 3d c5 9c c2 3d
       0.05842572 0.16295843 0.08431492 0.09502558
000110 de a7 6b 3e 69 04 84 ba 57 f9 9b bd 61 3c a0 bd
       0.23013255 -0.0010072115 -0.07615917 -0.07824016
000120 93 90 9e 3c 71 13 aa 3d c1 8a 7e bd 69 48 cb 3d
       0.019356048 0.083044894 -0.062144045 0.099259205
000130 93 c5 44 3d e2 4a 0f be 85 a3 85 3e 34 83 24 3e
       0.048039984 -0.1399341 0.26101318 0.16065675
000140 b9 f7 a0 bd f9 dc 44 be 49 e1 25 bd 59 53 ac 3b
       -0.07859749 -0.1922492 -0.04049805 0.0052589593
000150 5f 66 de bd 3f 72 31 3d d1 fa c9 3d d5 52 eb 3d
       -0.108593695 0.043321844 0.098622926 0.11490408
000160 c1 fa 02 3e 5a ab aa bb eb 3c f6 bd 8b bb 8f 3c
       0.12790968 -0.005208415 -0.12023338 0.017545482
000170 43 e0 b6 3d 59 22 4f 3d 72 44 7c bd 89 ac 98 3d
       0.08929493 0.050569866 -0.061588712 0.074547835
000180 5e 2d 29 3e c3 c7 d7 3d e8 2a e8 3d a7 df 91 bc
       0.16521212 0.105361484 0.11336309 -0.017806841
000190 92 b7 94 3c 90 bd 9f bd e9 75 60 3e 15 0e 2a 3d
       0.01815394 -0.07799828 0.21919979 0.041517336
0001a0 c0 73 3d 3c 5e 5d 27 bd a3 67 be bd 93 d2 c5 bd
       0.0115632415 -0.040860526 -0.09297111 -0.096593045
0001b0 8b 5b 0d 3b 74 4e 67 3d 14 08 aa 3d 2a 45 ff 3d
       0.0021569456 0.056471303 0.08302322 0.12464364
0001c0 84 97 0c 3e f8 8b ba bc 6b bc 10 3e 76 20 a2 3d
       0.13729674 -0.02277182 0.14134376 0.07916348
0001d0 de c8 c3 bd 72 00 1f 3d cf e6 e2 bc fb 19 ba 3d
       -0.09559797 0.038818784 -0.027697949 0.09086987
0001e0 32 fb 89 3d e0 de 8a bd 57 0a 02 bd d5 88 51 3d
       0.06737365 -0.06780791 -0.031748142 0.051155884
0001f0 66 bb ef bd 44 15 84 bd 20 92 c3 3b aa da 8a bd
       -0.11705665 -0.064493686 0.005968347 -0.06779988
000200 9d d9 ec bd 18 0a ed bd f5 1c 52 be 8f e4 fa bd
       -0.11564944 -0.11574191 -0.20518859 -0.12250625
000210 0d e8 00 be 56 85 1a be db ad 63 bd ab 00 05 bd
       -0.1258852 -0.15089926 -0.055585723 -0.03247134
000220 31 d5 45 bd e8 15 db 3c 3b 8b c6 bd f1 4b 0b be
       -0.04829902 0.026743844 -0.09694525 -0.13603188
000230 8f 27 5b bd 0f c3 36 bd b0 d3 d7 bc 35 6a cd bc
       -0.053504523 -0.044619616 -0.026346058 -0.025075058
000240 21 de 3a be 70 dd 90 3d 4d 9d b3 3e 42 9b 28 bd
       -0.18248798 0.07073486 0.35080948 -0.04116369
000250 98 b8 19 3d 35 6e c4 3d 81 4c 2e 3e b4 62 28 bd
       0.037529558 0.09591333 0.17021371 -0.041109756
000260 5a f8 43 be 16 bc cc bd a6 9d d0 bd 80 83 64 3c
       -0.19137707 -0.09996812 -0.10186319 0.013947368
000270 0e 81 a0 bd 8d 5e c4 bd e7 b0 55 bd c4 78 5d bd
       -0.07837115 -0.09588347 -0.05217066 -0.05407025
000280 6a de a8 bc 9f 8b 6d bc a4 9d 47 bd 5e f6 b5 3d
       -0.020613868 -0.01449862 -0.048734322 0.088848814
000290 30 05 19 bd e2 55 4d 3d 1b 06 f2 3d 8d b0 c2 bb
       -0.037358463 0.050130732 0.11817571 -0.0059414566
0002a0 a8 25 fe 3d 2b 8a 9c 3e 5c 94 c6 3d c9 15 30 3e
       0.12409526 0.30574164 0.09696266 0.1719581
0002b0 60 f4 3d 3d 20 25 37 3d 6f 15 23 3d ce 13 af 3d
       0.046375632 0.04471314 0.039815363 0.08548699
0002c0 34 ad f7 bc 3f eb cd bd 36 7d 07 be 56 ff 14 be
       -0.030233957 -0.10054635 -0.13231358 -0.14550528
0002d0 7d 31 82 bd 6f e5 64 bb 20 da 7c bd 78 2d 21 3c
       -0.063570954 -0.0034926792 -0.061731458 0.009837501
0002e0 ab 47 21 3c 90 cd 1f bd bc d5 87 bd 2d c6 db bd
       0.009843747 -0.0390144 -0.066325635 -0.107311584
0002f0 5a b9 37 be fa ff 1b 3e b4 07 99 bd 17 53 ac bd
       -0.179418 0.15234366 -0.074721724 -0.08414286
000300 43 7c 33 3d 31 32 0a 3c e0 2a 1b 3d 43 cc 60 bd
       0.043819677 0.008434818 0.037882686 -0.0548823
000310 66 cb 02 be 95 a6 6d be 9a 82 a2 3d 8b 5e 42 3e
       -0.12772903 -0.23208077 0.079350665 0.18981378
000320 09 c1 b8 3c fa bd 2c be 63 0a f5 bd 81 31 3e be
       0.022552984 -0.16869345 -0.11964872 -0.18573572
000330 6a ed 13 be 88 59 cc bd 59 07 4d be dc 11 b8 3a
       -0.14446035 -0.09978014 -0.20022334 0.0014043408
000340 f5 63 84 bd ae 8a 03 be 02 84 b5 bd 0e 2f 4c bd
       -0.06464378 -0.12845871 -0.08863069 -0.049849562
000350 00 55 a8 bd a6 3d 99 3d fd 44 b0 bc ad 08 0e be
       -0.082193375 0.07482462 -0.021517271 -0.13870497
000360 1b 34 f1 bd 55 9e b2 bd 17 d8 9c bc 1d a5 7a bd
       -0.117775165 -0.08721606 -0.019146008 -0.06119262
000370 50 e7 40 be c1 f2 a8 bc 57 f2 15 3e 9c 84 78 3d
       -0.18838239 -0.020623567 0.14643227 0.06067334
000380 43 4b ed 3d d4 04 e2 3c a9 f3 d9 bb 91 29 bc bc
       0.11586621 0.027590193 -0.006651361 -0.02296904
000390 6d bb 06 3e af f3 40 3b 0d d3 ce bd a0 3b 18 be
       0.13157435 0.0029442122 -0.100988485 -0.14866495
0003a0 83 4a 34 be 0c b6 6b be 9b 41 bd bd 6f 14 4d bd
       -0.17606549 -0.23018664 -0.09241029 -0.050068315
0003b0 6c 97 bd 3c 7e 4c 60 3d 97 e8 0d 3e c4 c7 f9 3d
       0.023143493 0.05476045 0.13858257 0.121963054
0003c0 10 c6 0b bc 40 0f 89 3c 2d 0e 27 bd 48 3c 8d 3d
       -0.0085311085 0.016730905 -0.040785003 0.06896263
0003d0 5e 1b 96 3d 3d 05 18 3d 64 3a cb 3d e2 c1 d3 3d
       0.073294386 0.03711437 0.099232465 0.103397146
0003e0 2d 4f 84 3d cd 7d 9c bd c2 4f 8c bd c0 a9 f5 bd
       0.06460414 -0.07641182 -0.0685115 -0.11995268
0003f0 0d 77 91 3c 2c 3c a6 bd e3 d5 4e bd 4a df 71 3c
       0.017756963 -0.081169456 -0.050496947 0.014762709

layer3.0.bias f4 [64]
000000 1b 76 55 ba b5 66 42 b9 a7 df f9 bb cf da cd bb
       -0.0008142904 -0.00018539543 -0.0076255384 -0.0062821875
000010 97 85 0a bc 04 90 5f b9 85 d8 e8 bb ca c4 d9 37
       -0.008454702 -0.00021320587 -0.0071058893 2.5960053e-05
000020 eb d4 90 bb 3c 3c 52 bb 7b 1f 14 3c a4 c2 09 bc
       -0.004419913 -0.003207936 0.009040709 -0.008408222
000030 06 38 86 bb 2a 1e 40 3a 79 1f 41 bb a9 82 6f 3b
       -0.004096034 0.00073287135 -0.0029468222 0.0036546385
000040 6c d9 18 3c d5 e9 a3 3b 4f cf a1 3b f3 84 64 ba
       0.009329181 0.00500224 0.004938043 -0.0008717321
000050 98 e8 e4 ba 34 21 31 3b eb d9 ab 3b fb 82 ce 3b
       -0.0017464338 0.0027027847 0.0052444837 0.006302235
000060 1f 3d 71 3b ae 7e aa 3b 0d f8 0f 3b 16 21 36 b9
       0.0036810113 0.0052030897 0.0021967918 -0.00017369198
000070 4a 5c fc ba ea 23 f8 bb 3a 9e 1f bc 91 eb 1a bc
       -0.0019253579 -0.0075726407 -0.009742314 -0.0094555775
000080 fa 0a fb 3b ae ff 21 3b 20 c5 12 3c 50 f0 f2 bb
       0.0076612206 0.0024719047 0.008958131 -0.0074139014
000090 b2 d9 07 3c 64 aa 1d bc c9 b0 eb ba 6b af 90 3b
       0.008291649 -0.009623144 -0.0017981763 0.0044154427
0000a0 26 8e 15 bc 3f 95 d6 3b 70 0c 14 bc 06 cf d4 3b
       -0.009128129 0.0065485532 -0.009036168 0.0064944057
0000b0 7c 4f 05 3c e9 93 f6 3b 87 c3 65 39 a1 2e bc 3b
       0.008136626 0.0075249565 0.00021911981 0.0057428633
0000c0 40 62 90 3b c6 8f 00 3c 0f b6 18 bc a9 81 1a bc
       0.0044062436 0.007846778 -0.00932075 -0.009430327
0000d0 18 e3 d6 bb 51 f8 0e 3c 36 8b 55 3b 1a 63 4c ba
       -0.0065578334 0.008726195 0.0032584197 -0.00077967497
0000e0 6a 5b 14 bb 68 92 d1 3b 60 a0 e1 3b 9f bb f4 bb
       -0.0022637495 0.006395627 0.0068855733 -0.0074686552
0000f0 35 7f c4 ba 49 d1 d2 3b 1e 62 df bb 43 5f d9 3b
       -0.0014991524 0.00643364 -0.0068171164 0.0066336705

layer3.1.weight f4 [64]
000000 38 48 5d 3f ef cf 73 3f 80 6c 91 3f 3e 9c 94 3f
       0.8643832 0.95239156 1.1361237 1.1610181
000010 b8 cd be 3f 10 46 a5 3f 45 6f 98 3f b5 bf 91 3f
       1.490653 1.2912006 1.1908957 1.1386629
000020 1c 79 9c 3f 58 8d 05 3f ef ac 81 3f 36 70 a3 3f
       1.222446 0.521688 1.01309 1.2768619
000030 fe ed 43 3f 72 3f 8f 3f 73 5f a0 3f 0b cb 97 3f
       0.7653502 1.1191237 1.2529129 1.1858839
000040 0a 2a b0 3f 3b 45 a5 3f fc a1 62 3f 7c 00 4f 3f
       1.3762829 1.2911752 0.8852842 0.80860114
000050 a2 e9 be 3f 71 35 ab 3f 68 a2 87 3f 56 d9 86 3f
       1.4915049 1.3375684 1.0596437 1.0535076
000060 e9 df 2d 3f 6f f2 9a 3f 70 3b 78 3f a1 64 a1 3f
       0.67919785 1.2105235 0.96965694 1.2608835
000070 a5 e4 86 3f 1b 11 92 3f 0c 78 90 3f 72 b2 9d 3f
       1.0538527 1.141147 1.1286635 1.2320082
000080 f5 f8 81 3f 43 7e 64 3f 2e a8 63 3f e4 50 a2 3f
       1.0154101 0.8925516 0.88928497 1.2680936
000090 08 8e 81 3f 58 9b c0 3f 91 38 71 3f 77 be a5 3f
       1.012147 1.5047407 0.9422694 1.294875
0000a0 42 15 ba 3f 85 30 83 3f cb 3a 87 3f 44 8a 81 3f
       1.4537737 1.0249182 1.0564817 1.012032
0000b0 5a c3 96 3f 85 ca 90 3f af be 50 3f 51 77 af 3f
       1.1778367 1.1311804 0.8154096 1.3708287
0000c0 a6 59 8d 3f dd b7 8e 3f 3c 12 af 3f da 48 8b 3f
       1.1042984 1.1149861 1.367744 1.0881608
0000d0 1a 16 6d 3f b6 a2 8d 3f 56 50 a8 3f b1 02 77 3f
       0.9261185 1.106528 1.3149517 0.9648848
0000e0 60 72 36 3f cb d1 92 3f ea 9c 88 3f 5c bf 74 3f
       0.7126827 1.1470274 1.0672886 0.9560449
0000f0 07 6f 6b 3f ee bf 8e 3f ee 3c 48 3f 1a 96 4e 3f
       0.9196629 1.1152322 0.7821797 0.80697787

layer3.1.bias f4 [64]
000000 f4 38 1e bf f2 24 a4 be c3 a4 35 bf 99 99 2e bf
       -0.61805654 -0.32059437 -0.7095453 -0.6820312
000010 79 80 75 bf 92 8a 7d bf ee 09 18 bf a2 34 5a bf
       -0.9589916 -0.99039567 -0.5939015 -0.8523656
000020 bf 5d 5d bf 84 36 04 3f 52 26 34 bf a3 1b 68 bf
       -0.8647117 0.51645684 -0.7037097 -0.9066717
000030 0e d6 0c bf 86 8c 07 bf 61 7f 59 bf ca d8 3e bf
       -0.5501412 -0.52948797 -0.8495999 -0.74549544
000040 bf de 95 bf a1 2c 8a bf 3b 16 50 bf ca 1d 88 be
       -1.1708602 -1.079487 -0.8128392 -0.26585227
000050 58 24 6d bf 73 11 6d bf 75 24 63 bf d6 2e 2d bf
       -0.9263358 -0.9260475 -0.88727504 -0.6764959
000060 0d 15 88 be 38 7f a2 bf e2 f7 80 be 71 23 67 bf
       -0.2657856 -1.2695074 -0.2518912 -0.90288454
000070 b8 3a f9 be f7 1f 02 bf 8b f5 30 bf 9e 74 79 bf
       -0.4867761 -0.50830024 -0.6912467 -0.9744357
000080 c7 fb 1c bf 70 45 55 be aa b0 87 be 9a 46 6d bf
       -0.6132168 -0.2082727 -0.2650197 -0.92685854
000090 08 1a 2f bf 72 62 64 bf 3e b2 34 be e6 28 5f bf
       -0.68399096 -0.89212716 -0.17646119 -0.8717178
0000a0 37 1c 7a bf b1 c9 f8 be 54 6d 09 bf d5 5f a0 be
       -0.976993 -0.48591378 -0.53682446 -0.31323114
0000b0 54 c0 16 bf 7b 11 ec be 6f db a1 be 8f 0c 65 bf
       -0.5888722 -0.46107087 -0.31612727 -0.8947229
0000c0 63 ec 44 bf 51 31 55 bf 65 64 43 bf dd 59 34 bf
       -0.769232 -0.83278376 -0.76325065 -0.7044962
0000d0 6c 0a 4b be 46 b5 6e bf 35 04 0d bf 82 5d 45 bf
       -0.19828194 -0.9324535 -0.55084544 -0.77095807
0000e0 c4 1b 92 be cc be 22 bf d7 71 6c bf 70 ba 91 be
       -0.28536808 -0.6357238 -0.92361206 -0.28462553
0000f0 dd e0 5a bf 3a e1 01 bf d6 2b 7e be e9 86 23 bf
       -0.85499364 -0.50734293 -0.2482141 -0.6387773

layer3.1.running_mean f4 [64]
000000 ea 6a a7 bf 18 95 2b c0 0a 51 90 c0 52 27 89 c0
       -1.3079503 -2.680975 -4.5098925 -4.28605
000010 0c 28 5c c0 9b d8 67 c0 2d 00 ad c0 96 4e 15 c0
       -3.4399443 -3.6225955 -5.4062715 -2.3329215
000020 5f 98 d4 c0 f0 c5 20 c0 8f 1f 61 c0 32 06 96 c0
       -6.6436 -2.5120811 -3.5175512 -4.6882563
000030 fd cc 01 c0 fd a1 63 c0 ec df 50 c0 ce 2b 9b bf
       -2.0281365 -3.556762 -3.263667 -1.2122743
000040 ce 1c d6 c0 43 66 61 c0 58 32 0b c0 37 43 eb bf
       -6.691016 -3.5218666 -2.1749477 -1.8379887
000050 ce bb 99 c0 7a cb 9b c0 e3 35 81 c0 52 03 d1 c0
       -4.8041754 -4.8685884 -4.037828 -6.5316553
000060 58 86 11 40 75 72 d0 c0 6f c4 b3 c0 76 a0 05 c0
       2.2738247 -6.513972 -5.6177287 -2.0879188
000070 3f 1f 81 c0 6f 48 3a c0 0e 94 69 c0 60 01 9a c0
       -4.035064 -2.910671 -3.6496615 -4.812668
000080 ac e0 94 c0 de 33 33 c0 12 08 b0 bf 6c 98 46 c0
       -4.652426 -2.8000407 -1.3752463 -3.103053
000090 f8 80 8b c0 1e 86 a9 c0 67 4c 39 c0 38 e5 6d c0
       -4.3594933 -5.2976217 -2.8952882 -3.7171154
0000a0 37 6a 9e c0 f5 dc 90 c0 79 76 b9 c0 15 2b 74 c0
       -4.9504657 -4.5269723 -5.795712 -3.8151295
0000b0 c1 b7 99 c0 95 44 aa c0 3d 1b e0 bf ae d4 93 c0
       -4.803681 -5.320872 -1.7508312 -4.619712
0000c0 38 4a 6b bf af 78 1a c0 c1 24 a8 c0 40 11 f6 bf
       -0.91910124 -2.413616 -5.2544866 -1.9224014
0000d0 e4 f8 93 c0 3b fe 87 c0 e4 3f ca c0 46 64 4c c0
       -4.624132 -4.249784 -6.320299 -3.1936202
0000e0 02 e7 17 c0 04 93 9c c0 b6 f0 32 c0 11 78 1e c0
       -2.3734746 -4.8929462 -2.7959418 -2.4760783
0000f0 bb 5e 44 c0 02 3e 93 c0 17 88 2b c0 70 cb cd bf
       -3.068282 -4.6013193 -2.6801813 -1.6077709

layer3.1.running_var f4 [64]
000000 64 8e 15 41 5b 11 24 41 82 5a 5e 41 35 33 a0 41
       9.347263 10.254237 13.897097 20.025003
000010 00 a9 9e 41 a9 35 37 41 eb c6 8f 41 25 b2 43 41
       19.83252 11.450601 17.972128 12.230992
000020 4c dd 85 41 2b 1f 2d 41 43 df 52 41 10 0b 28 41
       16.733055 10.820109 13.179507 10.502701
000030 42 92 c8 40 36 bd 3e 41 eb 97 4d 41 e3 6e 39 41
       6.2678537 11.921194 12.849589 11.589572
000040 c3 39 6b 41 fb 67 33 41 c7 8d 21 41 09 b5 06 41
       14.701602 11.212886 10.097114 8.419198
000050 4c 90 aa 41 58 37 53 41 0d ea 46 41 fe b4 5c 41
       21.320457 13.201012 12.432141 13.794188
000060 3e 52 d7 40 b9 e2 3f 41 53 6e 6b 41 05 05 51 41
       6.7287893 11.992852 14.714435 13.063725
000070 3c e7 66 41 c7 ee 21 41 fe c4 54 41 af e4 9a 41
       14.431454 10.120795 13.298094 19.361662
000080 91 3c d3 40 2f b6 23 41 d5 fb 15 41 71 ce 81 41
       6.6011434 10.231978 9.373982 16.225801
000090 29 fd 96 41 cc 00 be 41 d3 c5 4d 41 0e 93 ab 41
       18.873613 23.75039 12.860797 21.446804
0000a0 e3 dd a9 41 95 55 27 41 d4 1f 4d 41 af 7c 8e 41
       21.233343 10.458394 12.820271 17.81088
0000b0 93 d6 65 41 4d 0c 6c 41 54 c7 2c 41 fb 10 8c 41
       14.364886 14.753003 10.798664 17.508291
0000c0 93 68 4e 41 d1 79 69 41 d3 80 a2 41 d9 db 85 41
       12.900531 14.59224 20.312902 16.732347
0000d0 d1 5f 2f 41 9e df a2 41 60 e6 9f 41 e7 bb 50 41
       10.960893 20.359188 19.987488 13.045875
0000e0 03 d6 48 41 43 6d 5b 41 ed f1 26 41 5d 4e 34 41
       12.552249 13.714175 10.434064 11.269132
0000f0 d7 a1 17 41 9f 01 73 41 94 a6 28 41 42 f5 11 41
       9.477012 15.187896 10.5406685 9.122377
