results/RENet-dataset-Conv64F-5-5-Jan-08-2024-20-55-23/checkpoints/emb_func_00080.pth (torch, 463459 bytes, 24 tensors)

layer1.0.weight f4 [64, 3, 3, 3]
0	0x3ee46414	0.44607604
1	0x3e26eeb7	0.16302
2	0xbe7bf9c2	-0.24606994
3	0xbf55052b	-0.8321101
4	0xbf4d7b48	-0.8026624
5	0xbe928025	-0.28613392
6	0x3e8c15b3	0.27360305
7	0x3f2a225d	0.66458684
8	0x3f4d672b	0.80235547
9	0x3f1d331e	0.61406124
10	0x3de5dc38	0.11223644
11	0xbe9bace1	-0.30405334
12	0xbfa187cb	-1.2619566
13	0xbfa1d85b	-1.2644151
14	0xbf1a943e	-0.6038245
15	0x3e08a0b8	0.1334256
16	0x3f37c939	0.71791416
17	0x3f577376	0.84160554
18	0x3f51ba05	0.8192447
19	0x3e920fe7	0.28527758
20	0xbe122a05	-0.14273842
21	0xbf470345	-0.77739364
22	0xbf607857	-0.87683624
23	0xbe9eded8	-0.3102939
24	0x3e5e9881	0.21737863
25	0x3f43ccbc	0.76484275
26	0x3f591a99	0.8480621
27	0xbe38fb16	-0.18064532
28	0xbe2ba8c6	-0.167636
29	0xbe3cc97d	-0.18436237
30	0xbe5a324c	-0.21308249
31	0xbe05600f	-0.13024925
32	0xbe5c5300	-0.21516037
33	0xbdb1e9a6	-0.08687143
34	0xbd8d9443	-0.06913044
35	0xbdc0bdd2	-0.09411205
36	0xbd39ca1c	-0.045358762
37	0x3be67f31	0.0070342054
38	0xbd167555	-0.03673299
39	0xbd10c555	-0.03534444
40	0x3c7b1456	0.015324673
41	0xbd46ea66	-0.048563384
42	0x3d2e4cc3	0.042553674
43	0x3d6bd7bb	0.057578783
44	0x3d2c3dc9	0.04205111
45	0x3d2e1832	0.042503543
46	0x3dae0907	0.084978156
47	0x3d3cb29e	0.04606878
48	0x3d0de5f7	0.03464314
49	0x3ddd156e	0.10795103
50	0x3d95e226	0.07318525
51	0x3e02fed7	0.12792526
52	0x3e256631	0.16152264
53	0x3e03d1a9	0.12872948
54	0x3d9f256f	0.07770812
55	0xbd5c411a	-0.053773023
56	0x3c5806e3	0.013185236
57	0xbe659fae	-0.22424194
58	0xbeadd89c	-0.33954322
59	0xbeb8f8a1	-0.3612719
60	0xbe48b6dc	-0.19601005
61	0xbe47593c	-0.19467634
62	0xbe51fc5e	-0.20506427
63	0x3ecbda25	0.3981487
64	0x3ea3fb39	0.32027605
65	0x3ecaa728	0.39580655
66	0x3e47a3f3	0.19496135
67	0x3df9656b	0.12177547
68	0x3df08f45	0.117460765
69	0xbd34cf72	-0.044143148
70	0xbd8ea4f5	-0.06965057
71	0xbd5d3199	-0.054002378
72	0x3e2df522	0.16988042
73	0x3df2de6b	0.11858829
74	0x3e51e60b	0.2049791
75	0x3d9ecef7	0.07754319
76	0x3c2cf7af	0.010557099
77	0xbd2cd88f	-0.042198714
78	0xbe4d3471	-0.20039536
79	0xbe47655c	-0.1947226
80	0xbe51c4f4	-0.20485288
81	0x3f2d3a33	0.6766693
82	0x3f1f8a41	0.62320334
83	0x3f2bb5a9	0.67074066
84	0xbd5d345d	-0.054005016
85	0xbe67cb16	-0.22636065
86	0xbeb58090	-0.35449648
87	0xbe866769	-0.2625077
88	0xbf228192	-0.6347896
89	0xbf475c26	-0.7787498
90	0x3f29adaf	0.66280645
91	0x3f220cf1	0.63300997
92	0x3f50cc13	0.8156139
93	0x3d312c47	0.043255117
94	0xbdf56f96	-0.11984174
95	0xbe40380f	-0.18771385
96	0xbe3a4654	-0.1819089
97	0xbf2106af	-0.62900823
98	0xbf3c8944	-0.7364695
99	0x3ea98b5c	0.33114135
100	0x3ebd7630	0.37004232
101	0x3f0b27d7	0.54357666
102	0xbbed4eb5	-0.0072420486
103	0xbdc0bcb9	-0.09410996
104	0xbe32e844	-0.17471415
105	0xbd355eee	-0.044279985
106	0xbef3a2b8	-0.47585082
107	0xbf0c0028	-0.5468774
108	0x3ea19598	0.31559443
109	0x3e9a86c4	0.30180943
110	0x3e8171e9	0.2528222
111	0x3dd7fe55	0.10546557
112	0xbd8e8b6e	-0.06960188
113	0x3cf60c2d	0.030035103
114	0xbe189b87	-0.14903079
115	0xbef680e2	-0.48145205
116	0xbe9f5977	-0.31122944
117	0x3e2e5281	0.1702366
118	0x3e38cd6e	0.18047115
119	0x3e4cbafb	0.19993202
120	0x3d1d9302	0.038470276
121	0xbda8d1ec	-0.082431644
122	0xbb1bd7f2	-0.0023779836
123	0x3cb1c5cd	0.021700764
124	0xbe722046	-0.23645124
125	0xbd688782	-0.056769855
126	0x3de91b90	0.1138221
127	0x3df9bd3b	0.12194296
128	0x3e28d5f9	0.16487874
129	0xbd35eab5	-0.044413287
130	0xbde50990	-0.111834645
131	0xbaa4debc	-0.0012578587
132	0xbdceb061	-0.10092235
133	0xbe8dafb6	-0.2767312
134	0xbdb90a4e	-0.090351686
135	0x3c79a7b7	0.01523774
136	0x3cbb3474	0.02285216
137	0x3c136321	0.008995802
138	0x3d9ec1ba	0.07751794
139	0x3e0b5afe	0.1360893
140	0x3e20746b	0.1566941
141	0x3e05f085	0.13080032
142	0x3e13cd22	0.1443372
143	0x3dd36a97	0.10323065
144	0xbe747b5e	-0.23875186
145	0xbe7bc712	-0.24587658
146	0xbe72a53b	-0.23695843
147	0xbeb31493	-0.34976634
148	0xbeb46409	-0.3523257
149	0xbeb6aa2f	-0.35676715
150	0xbeb49423	-0.3526927
151	0xbec2b6db	-0.38030133
152	0xbebf6104	-0.37378705
153	0x3eafcc88	0.34335732
154	0x3ea98d6f	0.33115718
155	0x3e871147	0.2638037
156	0x3e511177	0.20416819
157	0x3e38bec3	0.1804152
158	0x3e4a81e2	0.19776109
159	0x3e189b05	0.14902885
160	0x3dfa5866	0.12223892
161	0x3de097dc	0.10966465
162	0xbf3ed6e8	-0.7454667
163	0xbe376cf6	-0.17912659
164	0x3ede8e3c	0.4346789
165	0xbf1a9f5f	-0.6039943
166	0x3e3b85ee	0.18312809
167	0x3eb65809	0.3561404
168	0xbe10b218	-0.14130437
169	0x3e1a4f41	0.15069295
170	0x3e627527	0.22115003
171	0xbf15bedf	-0.5849437
172	0x3dab88a9	0.08375675
173	0x3f2b983d	0.6702917
174	0xbf230d36	-0.63692033
175	0x3ec145fc	0.37748706
176	0x3f0625ee	0.52401626
177	0xbe8edc11	-0.27902272
178	0x3de83104	0.11337474
179	0x3e13e2c4	0.14441973
180	0xbeea2bf3	-0.45736656
181	0x3ccd97f2	0.025096867
182	0x3f066d9e	0.5251101
183	0xbf16659d	-0.587488
184	0x3e706356	0.23475394
185	0x3eb29036	0.3487565
186	0xbea97068	-0.33093572
187	0xbd90b6b8	-0.07066101
188	0xbc9a252b	-0.018816551
189	0x3f53f045	0.827885
190	0x3f8a6b67	1.0814027
191	0x3f8c42a6	1.095784
192	0xbf0f3d10	-0.5595255
193	0xbf4d2975	-0.80141383
194	0xbeee4d6e	-0.4654345
195	0xbea851ed	-0.32875004
196	0xbe86a431	-0.26297143
197	0xbef9f32e	-0.48818344
198	0x3df04db3	0.1173357
199	0x3ec9b6be	0.39397234
200	0x3ee27cbf	0.442358
201	0xbf07cc5f	-0.5304622
202	0xbf6ab86a	-0.91687644
203	0xbf0e4726	-0.55577314
204	0x3ea2710f	0.31726882
205	0x3eea1329	0.45717743
206	0x3ca22a4d	0.019795561
207	0xbe553946	-0.2082263
208	0x3cb64ddf	0.022253929
209	0x3d7bb369	0.061450396
210	0xbe98cdd6	-0.2984454
211	0xbf1edd09	-0.6205602
212	0xbea551a0	-0.32288837
213	0x3f116604	0.5679629
214	0x3f3598cc	0.70936275
215	0x3e9bb071	0.30408052
216	0xbf675990	-0.90371037
217	0xbf5f95d1	-0.87337977
218	0xbe9efa80	-0.3105049
219	0xbef8f5b2	-0.4862495
220	0x3e9a6cc4	0.30161107
221	0x3f4670a4	0.77515626
222	0x3e69b4f8	0.2282294
223	0x3eb16e6c	0.34654558
224	0x3e8e4e6d	0.2779421
225	0xbf3a52b9	-0.72782475
226	0xbf6a5279	-0.91532093
227	0xbeb2603d	-0.3483905
228	0xbe6bedb8	-0.23039901
229	0x3f18a542	0.59627163
230	0x3f804d71	1.0023633
231	0x3edb415b	0.428233
232	0x3f049c26	0.51800764
233	0x3ed1f16e	0.4100451
234	0xbeebd2de	-0.46059316
235	0xbf3ddfeb	-0.74169797
236	0xbea01639	-0.31266955
237	0xbe8dc4c2	-0.27689177
238	0x3ec785d3	0.38969287
239	0x3f336dbd	0.7008932
240	0x3d5ba33a	0.05362246
241	0x3e0d8989	0.13821997
242	0xbd496203	-0.049165737
243	0xbd4cc0c6	-0.04998853
244	0xbd66e3a6	-0.056369446
245	0xbe006fb0	-0.12542605
246	0xbd16df52	-0.03683407
247	0xbdc3e32e	-0.095648155
248	0xbd57f277	-0.052721467
249	0xbd2e23f8	-0.04251477
250	0xbd859a96	-0.065236256
251	0xbd16525d	-0.03669964
252	0xbd52d276	-0.051470242
253	0xbdbc3c91	-0.091912396
254	0xbdf5379f	-0.119734995
255	0xbd876f06	-0.06612973

layer1.0.bias f4 [64]
0	0x3c040c86	0.008059626
1	0xbcabba09	-0.020962732
2	0x3b863329	0.0040954542
3	0x3cb005e5	0.021487186
4	0x3c9012f5	0.017587164
5	0x3cb6fa8e	0.02233627
6	0x3c6753c1	0.01411909
7	0xbb0d6404	-0.0021574507
8	0x3bdf2703	0.0068100705
9	0xbc3290f4	-0.010898817
10	0x3cb55ddc	0.022139482
11	0x3c55f886	0.013059741
12	0xbc9c6379	-0.019090401
13	0x3cb8c04c	0.022552632
14	0xb9caf2d3	-0.0003870936
15	0xba97f4c0	-0.0011593327
16	0xbbe9e9a4	-0.007138448
17	0xbbe17f77	-0.00688165
18	0x3aab1b42	0.0013054388
19	0xbc509f9a	-0.0127333645
20	0xbcc6c1f2	-0.024262402
21	0xbc5c206a	-0.0134354625
22	0xbbaa13d4	-0.005190352
23	0x3ca159e6	0.019696187
24	0x3c9d2ff9	0.019187914
25	0xbc80053d	-0.015627498
26	0xba8347ec	-0.0010015941
27	0xbbf6a7ec	-0.007527342
28	0xbc649ccb	-0.013953398
29	0xbb964a19	-0.00458647
30	0xbc14469f	-0.0090500405
31	0x3c6edc22	0.014578851
32	0xbc53eeac	-0.012935322
33	0x3b837ffc	0.0040130597
34	0xbc712723	-0.014718804
35	0xbc05604e	-0.008140637
36	0x3ca83491	0.020532878
37	0xbc51cbf8	-0.012804978
38	0xbacd91a3	-0.0015683662
39	0x3ccc10c8	0.024910346
40	0x3c12435c	0.008927193
41	0xbc5983fa	-0.013276095
42	0xbc804960	-0.015659988
43	0xbc15db28	-0.009146489
44	0xbc05d24b	-0.0081678135
45	0x3c3a0f1c	0.011356141
46	0xbbbe03f5	-0.0057988116
47	0x3cb43491	0.021997722
48	0xbc6a7953	-0.0143111525
49	0xbc05a168	-0.008156158
50	0x3c1b95fe	0.00949621
51	0x3caaa621	0.02083117
52	0x3ccc64dc	0.024950437
53	0x3b88c982	0.004174412
54	0x3a90194b	0.0010993866
55	0xbc3f7672	-0.011685954
56	0x3c71748f	0.014737262
57	0xbc77b482	-0.01511872
58	0xbbe0a66b	-0.006855776
59	0xbcb295e0	-0.021799982
60	0xbccd6915	-0.025074521
61	0x3c6edc6c	0.01457892
62	0x3ae83fda	0.0017719225
63	0x3caa54d6	0.020792406

layer1.1.weight f4 [64]
0	0x3f530d2c	0.82441974
1	0x3eccd281	0.40004352
2	0x3e7f02fe	0.24903485
3	0x3f37077b	0.7149579
4	0x3f2b92c9	0.6702085
5	0x3edb3af0	0.42818403
6	0x3f504b08	0.8136449
7	0x3f337083	0.70093554
8	0x3f536f47	0.8259167
9	0x3e251f9d	0.16125341
10	0x3f251e40	0.6449928
11	0x3c79ec6b	0.01525412
12	0xbd992257	-0.07477253
13	0x3ecf2877	0.4046056
14	0x3e0d08b3	0.1377285
15	0x3f172aa1	0.5904942
16	0x3ecacbea	0.396087
17	0x3f4ac5c2	0.79208004
18	0x3f0ff302	0.56230175
19	0x3f0bf7e1	0.5467511
20	0x3e91840e	0.28421062
21	0x3e623253	0.2208951
22	0x3f81c6d5	1.0138804
23	0x3cb6205a	0.022232223
24	0x3ec432db	0.3832005
25	0x3edd74ca	0.43253165
26	0x3e6b892e	0.23001549
27	0x3f4f279b	0.8091981
28	0x3f8b4fc3	1.0883716
29	0x3e9caeeb	0.30602202
30	0x3d9e1703	0.07719233
31	0x3ecde961	0.40217116
32	0x3f4661cf	0.77492994
33	0x3f3111f5	0.69168025
34	0x3ea275a0	0.31730366
35	0x3eeb654f	0.4597573
36	0x3e26b3fc	0.16279596
37	0x3f6405f5	0.8907159
38	0x3eb5a2c2	0.35475737
39	0x3ee31f73	0.4435993
40	0x3e4aa93c	0.1979112
41	0x3ecb9e60	0.39769268
42	0x3e9843cb	0.29739222
43	0x3e917a12	0.28413445
44	0x3efd4988	0.49470162
45	0x3e6ef650	0.23336148
46	0x3ece1eee	0.40257972
47	0x3f5562f7	0.83354133
48	0x3ebad792	0.36492592
49	0x3d55195b	0.052026134
50	0x3dfcc8fb	0.123430215
51	0x3f911576	1.1334674
52	0x3e970d7c	0.29502475
53	0x3f0abbf7	0.5419306
54	0x3f05c033	0.522464
55	0x3e628b01	0.22123338
56	0x3f03652f	0.5132627
57	0x3f340bd9	0.7033058
58	0x3f0122cf	0.5044374
59	0x3f17a25e	0.5923213
60	0x3f1ba38d	0.60796434
61	0x3eee43a8	0.46535993
62	0x3eadab00	0.33919525
63	0x3ef277bf	0.47356984

layer1.1.bias f4 [64]
0	0x3ddf6700	0.109083176
1	0xbea1dd89	-0.3161433
2	0x3e848d48	0.2588904
3	0x3de7ff66	0.1132801
4	0xbf59dcd0	-0.8510256
5	0xbde6dd8f	-0.11272728
6	0x3ec018f9	0.37519053
7	0x3e457141	0.19281484
8	0x3e179b43	0.14805321
9	0xbeae2f5e	-0.34020513
10	0x3e9dc819	0.30816725
11	0xbd7c56fc	-0.061606392
12	0x3d30bfb8	0.043151587
13	0xbda06566	-0.0783184
14	0x3e932a4f	0.28743216
15	0xbf0f7e90	-0.56052494
16	0x3c497acb	0.0122973425
17	0x3da7a489	0.081856795
18	0xbf030a29	-0.5118738
19	0xbeb3c5e0	-0.35111904
20	0xbead6378	-0.3386495
21	0x3d91f8e5	0.07127551
22	0xbf6f15a1	-0.9339238
23	0xbd94c14e	-0.072634324
24	0xbea194a6	-0.31558722
25	0xbdc6bb7e	-0.0970373
26	0xbcb5de81	-0.022200825
27	0x3f149b7e	0.5804976
28	0x3c1c4d39	0.009539896
29	0x3e981205	0.29701248
30	0x3d38d01d	0.045120347
31	0xbec8cf50	-0.39220667
32	0x3e85a201	0.26100162
33	0x3dbd559d	0.09244845
34	0xbe4c8e58	-0.19976175
35	0xbef6114c	-0.4806007
36	0x3d905339	0.070471235
37	0x3e7f114b	0.2490894
38	0xbec72c80	-0.38901138
39	0x3db0d335	0.086340345
40	0x3be2f630	0.0069263205
41	0xbdc50724	-0.096205026
42	0x3c00e0fa	0.007866139
43	0xbea82e65	-0.32847896
44	0x3ea8dc69	0.3298066
45	0x3eaf14ef	0.3419566
46	0xbe7a2a23	-0.24430136
47	0x3ea28d84	0.31748593
48	0xbe00b7ce	-0.12570116
49	0xbe6670a8	-0.22503912
50	0x3e15e3e9	0.14637722
51	0xbfaa2240	-1.3291702
52	0x3e9e4578	0.30912375
53	0x3e785b45	0.24253567
54	0xbeda2537	-0.42606518
55	0x3e8545f4	0.26029932
56	0xbea5e144	-0.32398427
57	0xbf62e70f	-0.8863382
58	0xbd46d496	-0.04854258
59	0x3ea3ed34	0.3201691
60	0x3e2ef775	0.17086585
61	0x3d4c670e	0.049902968
62	0xbea33ab7	-0.31880733
63	0xbf04a77e	-0.5181807

layer1.1.running_mean f4 [64]
0	0x3d283b85	0.041072387
1	0xbebe2342	-0.37136275
2	0xbeab9946	-0.33515376
3	0xbd9c3e3f	-0.0762906
4	0x3ccd3435	0.025049308
5	0x3e22f3cd	0.15913315
6	0xbd91f8ad	-0.07127509
7	0x3cb539f9	0.02212237
8	0xbe3030bc	-0.1720609
9	0xbe5b85c0	-0.2143774
10	0xbc4f6c5e	-0.012660114
11	0x3bd08170	0.0063630864
12	0xbdf92526	-0.121652886
13	0xbcae01dd	-0.021241123
14	0x3e9b6cf0	0.3035655
15	0x3e931e2e	0.28733963
16	0xbf0beea2	-0.54661
17	0xbc001490	-0.0078174025
18	0xbe890894	-0.26764357
19	0xbd8752b2	-0.0660757
20	0xbcc2be01	-0.023772242
21	0x3e31b373	0.1735361
22	0x3bba5a05	0.0056870007
23	0x3db53d7a	0.08849616
24	0xbe622e1b	-0.220879
25	0xbef8c9b7	-0.48591396
26	0x3dd06c6e	0.10176931
27	0x3db5a341	0.08869029
28	0xb89a805b	-7.3672e-05
29	0xbf13029b	-0.5742585
30	0x3d4135bd	0.04717039
31	0xbe792d78	-0.24333751
32	0xbdf342f6	-0.11878006
33	0xbe45d5d9	-0.19319858
34	0xbe3ec187	-0.18628512
35	0xbeb14292	-0.34621102
36	0xbc2ed57a	-0.010671014
37	0xbd341cb2	-0.04397268
38	0x3dd59ba1	0.104300745
39	0x3e9bb37f	0.30410382
40	0xbde9c31c	-0.11414167
41	0xbde7c1c7	-0.11316257
42	0xbed60265	-0.41798702
43	0xbc91bcdd	-0.017790252
44	0x3e5051de	0.2034373
45	0xbd867403	-0.06565096
46	0xbea185e5	-0.31547466
47	0xbd95daf7	-0.07317155
48	0xbdcbe0ee	-0.09955011
49	0xbdd48f19	-0.10378856
50	0x3e15be81	0.14623453
51	0x3cb00a7c	0.021489374
52	0x3dd02d47	0.10164886
53	0xbe802fa6	-0.25036353
54	0xbec1f45a	-0.37881738
55	0x3c815eb5	0.01579223
56	0xbebc96b6	-0.36833733
57	0x3d633ee5	0.055479903
58	0xbe234d47	-0.15947448
59	0x3d7ec484	0.06219913
60	0xbd72f969	-0.059319887
61	0xbf1a8cc4	-0.6037104
62	0x3d06474e	0.032782845
63	0xbc2d9e64	-0.010596845

layer1.1.running_var f4 [64]
0	0x40236cdb	2.553519
1	0x3f50ba13	0.81533927
2	0x3f649c99	0.8930145
3	0x40a48611	5.1413655
4	0x3f2c025f	0.6719112
5	0x3f03618c	0.5132072
6	0x402f118c	2.735446
7	0x3fa6d5da	1.3034012
8	0x409bb942	4.8663645
9	0x3f446be7	0.76727146
10	0x400163c5	2.0217144
11	0x3db461d5	0.088077225
12	0x3e8b26c0	0.27178
13	0x3ee0f1a6	0.43934363
14	0x3eb50985	0.35358825
15	0x3f94cb04	1.1624455
16	0x400cd3ab	2.2004192
17	0x3fe7b6c3	1.810265
18	0x3f65a444	0.89703774
19	0x3fb63c71	1.4237195
20	0x3d2c6a79	0.042093728
21	0x3f0b1037	0.54321617
22	0x3f73975d	0.9515284
23	0x3ea78b2c	0.32723367
24	0x3ed4ffcc	0.41601408
25	0x3fefd6ed	1.8737465
26	0x3edaf978	0.42768455
27	0x4103d816	8.240255
28	0x4102083a	8.127008
29	0x3fe66bd2	1.8001654
30	0x3e2267e1	0.15859939
31	0x3f1070b8	0.56421995
32	0x3fe5f2c3	1.796471
33	0x407fecfc	3.9988394
34	0x3f1ccd6e	0.6125096
35	0x3f711d3a	0.9418522
36	0x3ee9a301	0.45632175
37	0x4092b72c	4.58486
38	0x3e92d4f3	0.28678092
39	0x3fc3e941	1.5305558
40	0x3eb70fb8	0.3575418
41	0x3ea4b43a	0.32168752
42	0x3f8edb4c	1.1160674
43	0x3dae21b3	0.08502521
44	0x4034fead	2.8280442
45	0x3f1eceb4	0.62034154
46	0x3f517227	0.8181481
47	0x40721e65	3.7831051
48	0x3edd3cc0	0.4321041
49	0x3f46aefa	0.77610743
50	0x3e830a23	0.2559367
51	0x3fc0b8f9	1.5056449
52	0x3f81a822	1.0129435
53	0x3fa89fed	1.3173805
54	0x3f9531cf	1.1655825
55	0x3f2c68b0	0.6734724
56	0x3f89ef41	1.077614
57	0x3f36ce7b	0.71408814
58	0x3f9bbb16	1.2166469
59	0x404816b7	3.1263864
60	0x3fd8776e	1.6911447
61	0x40505734	3.2553225
62	0x3e6228cd	0.22085877
63	0x3e66c077	0.22534357

layer2.0.weight f4 [64, 64, 3, 3]
0	0xbad92a73	-0.0016568437
1	0x3d390f07	0.045180347
2	0xbcb98ee2	-0.02265114
3	0xbcb6b629	-0.022303658
4	0xbcad61a8	-0.02116473
5	0xbcd21a2c	-0.025647245
6	0x3dfd6e88	0.12374598
7	0x3df27730	0.118391395
8	0x3dcda0b4	0.10040417
9	0xbb12ede2	-0.0022419621
10	0xbc3236bf	-0.01087731
11	0xbc628c23	-0.0138273565
12	0x3ca23826	0.019802164
13	0x3ca150ce	0.019691851
14	0x3c36e316	0.01116254
15	0x3c0b7cb9	0.008513623
16	0x3b9de38f	0.004818387
17	0x3be25f14	0.006908307
18	0xbdf49e7a	-0.119442895
19	0xbddb676f	-0.10713088
20	0xbdb4281b	-0.08796712
21	0x3d1ecc52	0.038769074
22	0x3d18906c	0.037247106
23	0x3cb911ff	0.022591589
24	0x3d27e320	0.040988088
25	0x3d832dd7	0.06405228
26	0x3d8c97d5	0.06864897
27	0xbdf7a2f9	-0.120916314
28	0xbdcba963	-0.09944417
29	0xbd7863b6	-0.060641967
30	0x3d0563e2	0.03256596
31	0xbd2cec5d	-0.0422176
32	0xbd983a62	-0.07433011
33	0xbc4cc759	-0.0124987
34	0x3b31b690	0.0027116872
35	0x3d453266	0.048143767
36	0xbc5127c5	-0.012765829
37	0xbbda02e1	-0.006653175
38	0xbc8e1a58	-0.017346546
39	0xbd3ca62c	-0.04605691
40	0xbd69f62e	-0.05711954
41	0xbd539756	-0.051657997
42	0xbd209e35	-0.039213378
43	0xbd40379f	-0.046928044
44	0xbcf501f3	-0.029908156
45	0xbbd0dd44	-0.006374033
46	0xbcc38614	-0.023867644
47	0xbc8306b3	-0.015994405
48	0xbd043d93	-0.032285284
49	0xbd33efab	-0.043929737
50	0xbd2b47f2	-0.04181666
51	0xbd0412fb	-0.032244664
52	0xbd4621ec	-0.048372194
53	0xbcf7e789	-0.030261772
54	0xbde89804	-0.1135712
55	0xbc0d346b	-0.008618454
56	0xbda83b37	-0.08214419
57	0xbd330da8	-0.043714195
58	0x3cb65049	0.02225508
59	0xbdad262c	-0.08454546
60	0xbc98ca20	-0.018651068
61	0x3d9bf903	0.076158546
62	0xbd8b1a6c	-0.06792149
63	0x3d3bd849	0.045860562
64	0x3d433c34	0.047664836
65	0x3d1e9af7	0.038722005
66	0x3d952841	0.072830684
67	0x3c56af17	0.013103268
68	0xbc3f8760	-0.011689991
69	0x3d1f7eba	0.038939215
70	0xba7bacc9	-0.0009600637
71	0xbbf7c302	-0.0075610885
72	0x3dd1382c	0.10215792
73	0x3e00e01c	0.12585491
74	0x3daac151	0.083376534
75	0xbcd16d20	-0.02556473
76	0x3d10f948	0.035393983
77	0xbc8a2c8a	-0.016866941
78	0x3d806c7c	0.06270692
79	0x3de3e2f3	0.111272715
80	0x3cd5d2e5	0.026101539
81	0xbc3987cf	-0.011323883
82	0xbc72a742	-0.014810385
83	0xbc9929bd	-0.01869666
84	0xbc81342d	-0.01577195
85	0xbcd3457f	-0.025789974
86	0xbca088d6	-0.019596498
87	0xbc81ae92	-0.015830312
88	0xbc291697	-0.010320327
89	0xbc847333	-0.016168213
90	0xbda171eb	-0.07883056
91	0xbdff1150	-0.12454474
92	0xbe2ac893	-0.16678075
93	0x3d292470	0.041294515
94	0x3c7ea479	0.015542143
95	0xbb493307	-0.003070058
96	0x3e4edabc	0.20200628
97	0x3e0f69a1	0.14005138
98	0x3e198cf3	0.14995174
99	0x3be46270	0.0069697425
100	0x3bb0fc6a	0.005401184
101	0xba64a91d	-0.00087227096
102	0xbbb9da9d	-0.0056718127
103	0xbb6fab77	-0.0036570707
104	0xbb964897	-0.00458629
105	0xbaaf87cb	-0.001339191
106	0x3a51fe50	0.0008010613
107	0x3aaca9fe	0.001317322
108	0xbc87cc78	-0.01657699
109	0xbc6e52e5	-0.014546131
110	0xbcb1031e	-0.021607932
111	0xbb81834c	-0.0039524194
112	0x3b2eb43a	0.0026657716
113	0xbb743080	-0.0037260354
114	0xba8bea9f	-0.0010674781
115	0x3c05961a	0.008153463
116	0x3b08d59a	0.002087927
117	0xbceab895	-0.028652469
118	0xbd5b866f	-0.053595003
119	0xbd4ecd28	-0.05048862
120	0xbd9fec8a	-0.07808788
121	0xbde189f9	-0.11012644
122	0xbdcf72ae	-0.10129295
123	0xbd9a0c76	-0.07521908
124	0xbdd55fc1	-0.10418654
125	0xbdb38bb7	-0.08766883
126	0xbc5cd25f	-0.013477891
127	0xbc62b815	-0.013837834
128	0xbc92aa73	-0.017903542
129	0xbd3be92c	-0.045876667
130	0xbd2c0b41	-0.04200292
131	0xbd189564	-0.037251845
132	0xbcd9bae4	-0.026578374
133	0xbcc5dd24	-0.0241533
134	0xbcca4b9c	-0.024694256
135	0xbd9894a1	-0.07450224
136	0xbd9f5c2f	-0.077812545
137	0xbd907afc	-0.070547074
138	0xbdac2f2b	-0.08407434
139	0xbdad7ae7	-0.084707074
140	0xbd91c93c	-0.071184605
141	0xbd3d819c	-0.046266183
142	0xbd3d684e	-0.04624205
143	0xbd4a6f76	-0.049422704
144	0xbd1d5481	-0.038410667
145	0xbcee7d00	-0.029112339
146	0xbd17831c	-0.03699027
147	0x3d9f4fed	0.077789165
148	0x3dc7cf75	0.09756366
149	0x3db56cc5	0.08858637
150	0x3d951674	0.07279673
151	0x3dc4274b	0.09577807
152	0x3da6ac83	0.08138373
153	0x3cf99cf3	0.030470347
154	0xbca03729	-0.019557552
155	0x3bb4cc8e	0.005517549
156	0x3b6fdf2f	0.0036601534
157	0xbd8fcdaf	-0.07021653
158	0xbb61fa68	-0.003448153
159	0x3e0a0c57	0.1348127
160	0x3d0b2705	0.03397276
161	0x3df27389	0.11838443
162	0xbd05db6d	-0.032679964
163	0xbcdae3dd	-0.026719982
164	0xbc7b82de	-0.015351025
165	0xbc0bff9e	-0.008544831
166	0x39cd82dd	0.00039198148
167	0x3bfbcbec	0.0076842215
168	0xbbd2a65b	-0.0064285225
169	0xbc03851c	-0.008027341
170	0xbc1f098f	-0.009706869
171	0xbcc3f6fd	-0.023921484
172	0xbd2ee670	-0.04270023
173	0xbd540d30	-0.05177039
174	0xbd9c4d86	-0.07631974
175	0xbdbbbe22	-0.09167124
176	0xbdbb5a7b	-0.09148117
177	0xbd909d87	-0.07061296
178	0xbdb31834	-0.08744851
179	0xbd9e5784	-0.07731536
180	0xbcc642ed	-0.024201835
181	0xbcf1e22e	-0.029526796
182	0xbccde251	-0.02513233
183	0xbcfa1526	-0.030527662
184	0xbd023b36	-0.03179475
185	0xbce370f2	-0.027763817
186	0xbcadf5d0	-0.021235377
187	0xbcef7a9a	-0.029233266
188	0xbd0d1246	-0.034441255
189	0xbd26b498	-0.04069957
190	0xbd313594	-0.043263987
191	0xbd290c29	-0.041271362
192	0xbc6acaf5	-0.014330615
193	0xbd290488	-0.041264087
194	0xbd74be18	-0.0597516
195	0xbc2456fa	-0.010030502
196	0xbc186ea8	-0.009303726
197	0xbc3e633f	-0.011620342
198	0xbd7f7afc	-0.062373146
199	0xbd2f89d4	-0.042856053
200	0xbd1ad31f	-0.037798997
201	0xbd6a7f73	-0.05725045
202	0xbd891a41	-0.06694461
203	0xbd7668c2	-0.0601585
204	0xbd6f4257	-0.058412876
205	0xbd9064f6	-0.07050507
206	0xbc8ef71a	-0.017451812
207	0x3982e0c4	0.00024962996
208	0xbbdab3fe	-0.006674289
209	0xbc7ada22	-0.015310796
210	0xbb668300	-0.0035173297
211	0xbc1304d0	-0.008973315
212	0xbc3a8b32	-0.011385726
213	0xbc8d6b09	-0.017262952
214	0xbca1b5ca	-0.019740004
215	0xbc695567	-0.014241553
216	0xbc5b3c67	-0.0133811
217	0xbc38bd68	-0.011275627
218	0xbd14f21c	-0.036363706
219	0xbb7da812	-0.0038704914
220	0xbcc3f5f1	-0.023920985
221	0xbcdb14c3	-0.026743298
222	0xbbe1c85e	-0.0068903407
223	0xbcd80059	-0.026367353
224	0xbd0e5f83	-0.034759056
225	0xbd535c8a	-0.051601924
226	0xbd3a7fad	-0.045531917
227	0xbd24b04f	-0.040207203
228	0x3d3f4bbf	0.046703096
229	0x3d608f3a	0.05482409
230	0x3d40097d	0.04688405
231	0x3d2c59e7	0.042077925
232	0x3d8579f3	0.065174006
233	0x3d4c925f	0.049944278
234	0xbc042128	-0.008064546
235	0xbc223319	-0.009899878
236	0xbbba8ddf	-0.005693182
237	0xbcef2159	-0.029190706
238	0xbcb17ffc	-0.021667473
239	0xbca1d860	-0.019756496
240	0x3c3c6bb2	0.011500286
241	0x3c206c2b	0.009791414
242	0x3ba7622c	0.0051081385
243	0x3e6f7c25	0.23387201
244	0x3e5ba043	0.21447854
245	0x3e39c696	0.18142161
246	0x3d20316e	0.03910964
247	0x3d8361a8	0.06415111
248	0x3d001941	0.031274084
249	0x3e158f6f	0.14605497
250	0x3df49bd4	0.11943784
251	0x3d430963	0.047616374
252	0xbdd3d8c5	-0.1034408
253	0x3d050d2d	0.03248327
254	0xbd823dad	-0.0635942
255	0xbd85ba67	-0.06529694

layer2.0.bias f4 [64]
0	0xb95b5931	-0.00020918694
1	0x3b72204f	0.0036945527
2	0xbbb1d402	-0.0054268846
3	0xbae8578c	-0.0017726286
4	0x3b3fc170	0.0029259585
5	0xbaa76c8a	-0.0012773436
6	0x3b6f48c8	0.0036511887
7	0x3afebda8	0.0019435184
8	0x3a7f81ea	0.0009746837
9	0xba4bab95	-0.0007769403
10	0xbab2ba4c	-0.0013635843
11	0xba99b84f	-0.0011727902
12	0xba043c25	-0.00050443626
13	0xbb477f04	-0.0030440697
14	0xbad2c896	-0.0016081508
15	0x3b529dda	0.0032137544
16	0x3b8146c7	0.003945205
17	0x3a87a645	0.0010349235
18	0x3a62ed22	0.00086565514
19	0xbb9e9425	-0.0048394375
20	0x3a96f8b5	0.0011518212
21	0x3b9a6a95	0.0047124126
22	0xbb200c55	-0.0024421413
23	0xbab8527d	-0.0014062669
24	0x3bb39a0e	0.0054810112
25	0x3a5f9961	0.000852963
26	0x3b90e3ad	0.0044216723
27	0xbac8c3ef	-0.0015317182
28	0xbba6c07a	-0.005088863
29	0x3a000ed3	0.00048850215
30	0xbb8f12d6	-0.004366259
31	0xbb1f65c1	-0.0024322125
32	0x3b008a07	0.001961352
33	0xbbab18dd	-0.00522147
34	0x3b48dd6c	0.0030649556
35	0x3ba9e28b	0.0051844767
36	0x3bad63bf	0.0052914317
37	0xbba0b4b2	-0.004904353
38	0xbbb75ec9	-0.005596016
39	0xbb145dc9	-0.0022638908
40	0x39e860f4	0.00044322724
41	0xbb3541bc	-0.002765759
42	0x3b820109	0.0039674086
43	0x3ba8a023	0.005146043
44	0x3ac37098	0.0014910875
45	0xba5d478e	-0.00084411434
46	0xbba91b6b	-0.005160739
47	0x3b5ff66d	0.003417398
48	0xba576c20	-0.0008217711
49	0x3b7d5937	0.0038657913
50	0x3b0d5073	0.0021562844
51	0x3a777b7e	0.0009440704
52	0xbb89255f	-0.004185363
53	0x3b6f7b9b	0.003654218
54	0x3a8dd229	0.0010820079
55	0x3b90f1eb	0.00442337
56	0x3b8ba238	0.0042612813
57	0xbb42c6a0	-0.002972044
58	0xbb8d960e	-0.0043208664
59	0xbbae887d	-0.0053263293
60	0xbaf9e0a7	-0.0019064144
61	0xbafbcd33	-0.0019210934
62	0x39c0a89b	0.00036746715
63	0x3b43d29a	0.0029880167

layer2.1.weight f4 [64]
0	0x3f2291b8	0.635036
1	0x3f624e7a	0.88400996
2	0x3eed4d89	0.46348217
3	0x3f303c1e	0.6884173
4	0x3f03b2e6	0.5144485
5	0x3f569cc2	0.83832943
6	0x3f6c4466	0.9229187
7	0x3f10617c	0.5639875
8	0x3f6a63f7	0.91558784
9	0x3f5e0a16	0.8673414
10	0x3f45eebe	0.77317417
11	0x3f54f81f	0.831911
12	0x3f264005	0.64941436
13	0x3f17d41d	0.59308034
14	0x3f43dc42	0.7650796
15	0x3f4ab357	0.791799
16	0x3f4f8a3c	0.81070304
17	0x3f39260a	0.7232367
18	0x3f5972bb	0.8494069
19	0x3f425f90	0.75927067
20	0x3eeee48a	0.46658736
21	0x3f69deea	0.91355765
22	0x3f8d528c	1.1040816
23	0x3f78c7ed	0.9718006
24	0x3f4acb8e	0.7921685
25	0x3f117e8a	0.5683371
26	0x3f1ed0f5	0.62037593
27	0x3f3fde3d	0.74948484
28	0x3f319ce0	0.6938
29	0x3f2c2c96	0.6725553
30	0x3e98cab5	0.29842153
31	0x3f2be6a3	0.671488
32	0x3f864a29	1.0491382
33	0x3f4ab380	0.79180145
34	0x3f426a96	0.7594389
35	0x3f5b6af6	0.85710084
36	0x3f0534a9	0.5203348
37	0x3f4cdd6b	0.80025357
38	0x3f7cb11f	0.98707765
39	0x3f4523c3	0.77007693
40	0x3f864bfc	1.0491939
41	0x3f524eee	0.8215169
42	0x3f07f4df	0.5310802
43	0x3f13199e	0.57460964
44	0x3f4af441	0.7927895
45	0x3f61020e	0.8789376
46	0x3f44cb6d	0.76872903
47	0x3f68c3dd	0.90923864
48	0x3f73d470	0.9524603
49	0x3f5c95e2	0.86166203
50	0x3f4f9ca0	0.81098366
51	0x3f360cc5	0.71113235
52	0x3f3af3de	0.7302836
53	0x3f45f94a	0.7733351
54	0x3f5361db	0.8257119
55	0x3f162ea2	0.58664906
56	0x3f70a2c8	0.93998384
57	0x3f43633b	0.7632329
58	0x3f68161d	0.9065874
59	0x3f701714	0.93785214
60	0x3f2222de	0.63334453
61	0x3f4e87e2	0.8067609
62	0x3f039afd	0.5140837
63	0x3f4c786f	0.7987127

layer2.1.bias f4 [64]
0	0xbeb86815	-0.36016908
1	0xbee8d386	-0.4547388
2	0x3da3b4fb	0.07993504
3	0xbf592af0	-0.8483114
4	0xbe6b1edb	-0.22960989
5	0xbea3e0cd	-0.32007447
6	0xbed7abb3	-0.42123184
7	0xbea9ae9e	-0.33141035
8	0xbeef1f78	-0.46703696
9	0xbe97b9bb	-0.2963389
10	0xbec02954	-0.3753153
11	0xbebc36cc	-0.36760557
12	0xbed1bdae	-0.40965027
13	0xbdc72c1d	-0.09725211
14	0xbe6c2236	-0.23059925
15	0xbec5b90d	-0.38617745
16	0xbeab3a09	-0.33442715
17	0xbee49c5d	-0.44650546
18	0xbead2007	-0.33813497
19	0xbf2441df	-0.6416301
20	0xbd9dca4f	-0.07704603
21	0xbef2f9af	-0.47456118
22	0xbf009387	-0.5022511
23	0xbef4e86f	-0.47833583
24	0xbe07b1fb	-0.13251488
25	0xbe8556d4	-0.26042807
26	0xbec31f21	-0.38109687
27	0xbe9fa743	-0.31182298
28	0xbea2f81a	-0.3182991
29	0xbe7f59b3	-0.24936561
30	0x3e3b8b76	0.18314919
31	0xbe7a997b	-0.2447261
32	0xbf0e133c	-0.554981
33	0xbe29719a	-0.16547242
34	0xbea661c0	-0.32496452
35	0xbf056cec	-0.52119327
36	0x3da162e7	0.07880192
37	0xbf0ba9dd	-0.54556066
38	0xbf08ae44	-0.5339091
39	0xbdcc9436	-0.099892065
40	0xbf21ddb1	-0.632289
41	0xbe9e4205	-0.30909744
42	0x3cb77601	0.022395136
43	0xbdce9759	-0.10087461
44	0xbedc9ae7	-0.4308693
45	0xbf299d05	-0.6625522
46	0xbea855e4	-0.3287803
47	0xbf105c1b	-0.5639054
48	0xbf046aad	-0.51725274
49	0xbf0929c1	-0.53579336
50	0xbe8783fc	-0.26467884
51	0xbeb6ef7d	-0.3572959
52	0xbea5fdeb	-0.32420287
53	0xbeb2309f	-0.3480272
54	0xbf6b8e99	-0.9201446
55	0x3e8da0eb	0.27661833
56	0xbeb3eedd	-0.35143176
57	0xbeb2c0bb	-0.34912667
58	0xbf08c88a	-0.53431
59	0xbeb923ba	-0.3616007
60	0xbdf179ca	-0.117908075
61	0xbe48da97	-0.19614635
62	0xbd25416c	-0.040345594
63	0xbe8fb494	-0.28067458

layer2.1.running_mean f4 [64]
0	0xbf652aa4	-0.8951819
1	0xbfdbb24c	-1.7163787
2	0xbfc527c2	-1.5402758
3	0xbc6f09fb	-0.014589782
4	0x3e1b14d1	0.1514466
5	0xbf8fe838	-1.1242743
6	0xc0521766	-3.2826781
7	0xbf2a3542	-0.66487515
8	0xc0489a5f	-3.134422
9	0xc0315cb9	-2.7712843
10	0xc012f438	-2.296156
11	0xc03f6723	-2.99067
12	0xbf6ed3f4	-0.93292165
13	0xbf1600ad	-0.5859478
14	0xc014d55f	-2.3255231
15	0xc073ff05	-3.8124402
16	0xc009752e	-2.147777
17	0xc0223914	-2.5347338
18	0xc05ffbd2	-3.499745
19	0xbff8aa3a	-1.9426949
20	0xbd93faac	-0.07225546
21	0xbfd84f44	-1.689919
22	0xc0801d43	-4.003572
23	0xc0547d95	-3.320165
24	0xc0b0bfde	-5.5234213
25	0xbf6f669b	-0.9351594
26	0xbfea3fb5	-1.8300692
27	0xc029d88b	-2.6538417
28	0xbfc54cf0	-1.5414104
29	0xc00e9478	-2.2278118
30	0xbf916eae	-1.1361902
31	0xc00ec43c	-2.2307272
32	0xc026074e	-2.5941958
33	0xc028e1da	-2.638785
34	0xbf93985d	-1.1530873
35	0xbfe82910	-1.8137531
36	0xbff3a896	-1.9035823
37	0xc0014009	-2.0195334
38	0xc0c9c853	-6.3057036
39	0xc0102e41	-2.252823
40	0xc0e662eb	-7.199575
41	0xc01df376	-2.4679847
42	0xbf5a6581	-0.8531113
43	0xbf2f02ff	-0.68363947
44	0xc0084b7a	-2.1296067
45	0xbf9fa851	-1.2473241
46	0xbf49d858	-0.7884574
47	0xc02ca99d	-2.6978524
48	0xc046139c	-3.0949469
49	0xbff5a63e	-1.9191358
50	0xc01c8ed5	-2.4462178
51	0xbfffb703	-1.9977726
52	0xc01a28a3	-2.4087303
53	0xbfe2d699	-1.772174
54	0xbf2467d2	-0.6422092
55	0xc07d62e9	-3.959162
56	0xc056c3fd	-3.3557122
57	0xc00e567c	-2.2240286
58	0xc0533f58	-3.3007412
59	0xc056429b	-3.3478153
60	0xc011072c	-2.2660627
61	0xbf6d4ae3	-0.92692393
62	0xbf9bb010	-1.2163105
63	0xbffa8ecf	-1.9574832

layer2.1.running_var f4 [64]
0	0x40449132	3.071362
1	0x40f8191f	7.7530665
2	0x4099289b	4.7862067
3	0x4078a1a9	3.884867
4	0x404979ae	3.1480517
5	0x40f97276	7.7952223
6	0x40f75df9	7.7302213
7	0x401dda19	2.4664366
8	0x40d69820	6.70607
9	0x40f173cc	7.5453854
10	0x4108b7a7	8.544837
11	0x41139843	9.224673
12	0x404fcdc4	3.246934
13	0x408c4270	4.38311
14	0x416a5b15	14.647237
15	0x40afc264	5.4924793
16	0x410f7309	8.965585
17	0x40464752	3.098103
18	0x411aa783	9.665896
19	0x40a65b7c	5.1986675
20	0x404d1b6c	3.2047987
21	0x40c0821d	6.015883
22	0x412fe8e3	10.994357
23	0x40bbb889	5.8662763
24	0x411d6a2d	9.838422
25	0x4082e849	4.090855
26	0x404a9097	3.165075
27	0x4116ff45	9.437322
28	0x402864e9	2.631159
29	0x40da611f	6.8243556
30	0x40499e45	3.150285
31	0x40a27ad4	5.0774937
32	0x410cd944	8.803043
33	0x40e56305	7.1683373
34	0x40f95bcf	7.792457
35	0x4077eecc	3.87395
36	0x409f1387	4.9711337
37	0x405418f7	3.3140237
38	0x4131ef5a	11.120935
39	0x409d77c4	4.92087
40	0x414e3e0a	12.890146
41	0x41104070	9.015732
42	0x4112d1e7	9.176246
43	0x406c9ce3	3.6970756
44	0x41049f0c	8.28883
45	0x406458c5	3.567918
46	0x40a33d48	5.1012306
47	0x40994e84	4.7908344
48	0x4133ccd3	11.237506
49	0x40bb18f8	5.846798
50	0x411f0c9e	9.94058
51	0x40f63359	7.693768
52	0x4114d7dc	9.3027
53	0x40c85d06	6.2613554
54	0x409250b6	4.5723524
55	0x40d6f5de	6.717513
56	0x40edef04	7.4354267
57	0x40ea1e37	7.3161883
58	0x40e447f8	7.1337852
59	0x40e34dca	7.1032457
60	0x40d1c0ce	6.5547857
61	0x41384336	11.516409
62	0x4105913b	8.347957
63	0x41358a77	11.346305

layer3.0.weight f4 [64, 64, 3, 3]
0	0xbd61c86b	-0.055122774
1	0xbcbe8bb9	-0.023259984
2	0xbd1dfb60	-0.038569808
3	0x3dddf0c4	0.10836938
4	0x3e56ee77	0.20989405
5	0x3e77e0d1	0.24206854
6	0x3dcd6fce	0.10031091
7	0x3e084c86	0.13310441
8	0x3de8dee7	0.1137064
9	0xbe0bb584	-0.13643461
10	0xbda20390	-0.07910836
11	0x3df6b5c2	0.12046386
12	0xbd8aca5e	-0.0677688
13	0xbd034992	-0.032052584
14	0xbe278935	-0.16360934
15	0xbdd47d8c	-0.10375509
16	0xbde439b1	-0.11143816
17	0xbe297f8c	-0.16552562
18	0xbda3e59e	-0.080027804
19	0xbd8dc4d3	-0.06922307
20	0xbd9855c2	-0.07438232
21	0xbe3c249a	-0.18373337
22	0xbe506ec2	-0.20354751
23	0xbe63df7a	-0.22253218
24	0xbe6d083f	-0.23147677
25	0xbe794fa1	-0.24346782
26	0xbe69a446	-0.22816572
27	0xbcf654aa	-0.030069668
28	0xbdc32511	-0.09528554
29	0xbddc3ece	-0.107541665
30	0x3d2a9f7a	0.041655995
31	0xbd92ba83	-0.071644805
32	0xbd72db19	-0.05929098
33	0xbdf2d760	-0.11857486
34	0xbdca6ed8	-0.09884423
35	0xbe1b2338	-0.15150154
36	0x3cbf8c0c	0.02338221
37	0xbc61cd6e	-0.013781888
38	0x3d966cbd	0.07344959
39	0xbc1b7410	-0.009488121
40	0x3c155025	0.009113346
41	0x3cbf8ef3	0.023383593
42	0xbcef5e56	-0.029219788
43	0xbd67ae6d	-0.05656283
44	0xbdda62ae	-0.10663353
45	0xbd2cfce9	-0.04223338
46	0x3c9e225e	0.019303497
47	0xbe06466d	-0.13112803
48	0xbb20e919	-0.0024553
49	0x3ae45c65	0.0017422555
50	0xbe0d401f	-0.13793992
51	0xbdca2a94	-0.098714024
52	0xbd11acaa	-0.035565056
53	0x3ca2c5b8	0.01986967
54	0xbe3c8e26	-0.184136
55	0xbd846676	-0.064648554
56	0x3dd311a1	0.10306097
57	0xbde4202a	-0.11138947
58	0x3d0b2258	0.0339683
59	0x3ddf3216	0.10898225
60	0xbc6101ca	-0.013733337
61	0x3d8030cb	0.062593065
62	0x3d2c7cd0	0.042111218
63	0xbd0c5080	-0.03425646
64	0x3c806d05	0.015676985
65	0x3e043b53	0.12913255
66	0x3c97c769	0.018527703
67	0x3db22d01	0.0869999
68	0x3e1a1776	0.15048012
69	0xbc9ae219	-0.01890664
70	0xbe099da7	-0.13439046
71	0xbe060c45	-0.13090618
72	0xbba0d685	-0.004908385
73	0x3c73c07e	0.014877437
74	0xbd742501	-0.059605602
75	0xbc4e11d1	-0.01257749
76	0x3d4aaceb	0.049481314
77	0xbdab28f7	-0.08357423
78	0x3dc5cf65	0.09658698
79	0x3e341e3a	0.17589656
80	0xbd15109a	-0.036392786
81	0xbde993d2	-0.114051476
82	0xbd4c6cf2	-0.049908586
83	0xbd3aa587	-0.045568015
84	0xbd93ee98	-0.072232425
85	0x3d60ea83	0.054911148
86	0x3dc0ba2e	0.09410511
87	0x3d96004d	0.07324276
88	0x3dccc122	0.09997775
89	0xbc2a2ffa	-0.010387415
90	0xbd9324c2	-0.07184745
91	0x3b81e8d2	0.003964522
92	0x3d14f859	0.036369655
93	0xbb6b84bf	-0.0035937277
94	0xbd17a075	-0.037018258
95	0x3df7f7ca	0.12107809
96	0x3e11372d	0.14181204
97	0x3e0d1dd0	0.13780904
98	0x3e338c39	0.1753396
99	0xbd9b3019	-0.07577533
100	0xbd8f76ba	-0.07005067
101	0xbe1c5c25	-0.15269525
102	0x3e27ea38	0.16397941
103	0x3d940c9c	0.072289675
104	0xbbb42613	-0.005497703
105	0x3c10fe04	0.008849625
106	0xbd181a0a	-0.037134208
107	0xbc9c3c0b	-0.0190716
108	0xbcabf742	-0.020991925
109	0x3d2cbe6a	0.04217378
110	0x3dd981b3	0.10620441
111	0x3da2e0eb	0.07953056
112	0x3df4b313	0.11948218
113	0xbbc0796a	-0.0058738487
114	0x3d29fdce	0.041501813
115	0x3d781615	0.060567934
116	0xbdbad8b1	-0.09123362
117	0x3d058813	0.032600474
118	0x3cf5718b	0.029961368
119	0x3d2bdb52	0.041957207
120	0x3d5af537	0.05345651
121	0xbd994cfa	-0.07485385
122	0xbd69f4ed	-0.057118345
123	0x3d20a5c1	0.039220575
124	0xbd5eb1f2	-0.05436892
125	0xbd77f938	-0.060540408
126	0xbbe116e6	-0.006869185
127	0xbdfdfbda	-0.124015525
128	0xbe16df9c	-0.14733738
129	0xbdccb21a	-0.09994908
130	0xbde47e13	-0.11156859
131	0xbd540a65	-0.051767725
132	0xbe0c20c9	-0.13684382
133	0xbdbd0583	-0.09229567
134	0xbd7c4ac1	-0.06159473
135	0xbcdda904	-0.027058132
136	0xbd4f5701	-0.050620083
137	0x3ca6222c	0.020279966
138	0xbdd9e2ef	-0.10638987
139	0xbe0520bb	-0.13000767
140	0xbdd8794c	-0.105700105
141	0xbdf659b9	-0.12028832
142	0xbd76b0e2	-0.060227282
143	0xbdf56466	-0.1198204
144	0xbe0136a8	-0.12618506
145	0x3d785b94	0.06063421
146	0x3e95a12d	0.2922453
147	0x3a086360	0.00052027963
148	0x3d772914	0.06034191
149	0x3da6e5f9	0.081493326
150	0x3e17ad3a	0.14812174
151	0xbd433820	-0.047660947
152	0xbdfcab39	-0.12337346
153	0xbdc40b0a	-0.09572418
154	0xbdf6806c	-0.12036213
155	0xbc57c7da	-0.013170207
156	0xbd1bfdca	-0.03808383
157	0xbd431ab5	-0.04763289
158	0xbca849d4	-0.020543016
159	0xbc0165e0	-0.007897824
160	0x3c416f8a	0.011806378
161	0xbd0b3edc	-0.033995494
162	0xbd615019	-0.055008028
163	0x3d4318e3	0.047631156
164	0xbd065ee9	-0.032805357
165	0x3d3e8d02	0.046521194
166	0x3dda0296	0.106450245
167	0xbc462b6a	-0.012095312
168	0x3e1de078	0.1541766
169	0x3e411288	0.18854725
170	0x3d9d0c3e	0.07668351
171	0x3e209964	0.15683514
172	0x3d8829c5	0.06648592
173	0x3d395507	0.045247104
174	0x3d17accd	0.03703003
175	0x3d368072	0.04455609
176	0xbd92c3fe	-0.07166289
177	0xbdf6442c	-0.120247215
178	0xbdcf8d8b	-0.10134419
179	0xbdebaf94	-0.11508098
180	0xbdac9785	-0.084273376
181	0x3a38efc0	0.00070547685
182	0xbd9dcbe3	-0.07704904
183	0x3b24f657	0.0025171244
184	0x3929a83f	0.00016179773
185	0xbd5f2fdb	-0.054488998
186	0xbd7b2d7e	-0.06132268
187	0xbe0721f9	-0.13196553
188	0xbe1257b1	-0.14291264
189	0x3dcd2e59	0.10018606
190	0xb9a77106	-0.0003193693
191	0xbdf760a8	-0.120789826
192	0x3bb61da2	0.0055577317
193	0xbd2e06bf	-0.042486902
194	0x3ca70fb5	0.020393232
195	0xbde658fc	-0.11247441
196	0xbdb9f292	-0.0907947
197	0xbe21d68a	-0.15804496
198	0x3d6f3dfd	0.058408726
199	0x3df0e381	0.11762143
200	0x3d69614c	0.056977555
201	0xbe032107	-0.12805568
202	0xbdaea117	-0.08526819
203	0xbdc73d6a	-0.09728511
204	0xbe3d07e9	-0.18460049
205	0xbdc876e6	-0.09788303
206	0xbe2cc80c	-0.16873187
207	0x3c62a505	0.013833289
208	0xbd850881	-0.064957626
209	0xbe090122	-0.13379338
210	0xbd1c1756	-0.038108192
211	0xbcd71767	-0.026256276
212	0xbd97880e	-0.07398997
213	0x3a06ae62	0.00051376794
214	0xbc2046ec	-0.009782534
215	0xbdafdaff	-0.08586692
216	0xbe013c83	-0.1262074
217	0xbd91eb5f	-0.071249716
218	0x3ae0075f	0.001709204
219	0xbd8042d4	-0.062627465
220	0xbdd529ac	-0.10408339
221	0x3c807e58	0.015685245
222	0x3e4055d6	0.18782744
223	0x3e0d24ce	0.13783571
224	0x3e1bb2d0	0.1520493
225	0x3d70331f	0.058642503
226	0xbc85f844	-0.016353734
227	0xbcad7aa0	-0.021176636
228	0x3cdcff91	0.026977332
229	0xbd6da256	-0.058016144
230	0xbe22fe8d	-0.15917416
231	0xbde1a480	-0.11017704
232	0xbe110e4c	-0.1416561
233	0xbe3735a3	-0.17891555
234	0xbd34c939	-0.044137213
235	0x3c663b15	0.014052172
236	0x3d987a9b	0.0744526
237	0x3cedbb9d	0.029020125
238	0x3df5be85	0.11999229
239	0x3df3860a	0.118908
240	0x3cd7442b	0.026277622
241	0x3bb10126	0.005401748
242	0xbd49ac21	-0.04923642
243	0x3d96597c	0.073412865
244	0x3da6f512	0.08152212
245	0x3999b564	0.0002931758
246	0x3d731e58	0.05935511
247	0x3de4818a	0.1115752
248	0xbbab6ef7	-0.005231734
249	0xbd55ef2d	-0.05223005
250	0xbd24991d	-0.040185083
251	0xbdbd5f0c	-0.092466444
252	0x3d5fa34a	0.054599084
253	0xbe013cda	-0.1262087
254	0xbe1452f8	-0.14484775
255	0xbb6e7933	-0.0036388158

layer3.0.bias f4 [64]
0	0xb9f42ffd	-0.0004657506
1	0xb8de59e0	-0.000106025254
2	0xbb8eeda2	-0.004361824
3	0xbb6b7fdb	-0.0035934362
4	0xbb9e78b2	-0.0048361653
5	0xb8ffdffa	-0.000122010664
6	0xbb85308d	-0.0040646256
7	0x37797e2e	1.4870935e-05
8	0xbb25b087	-0.002528222
9	0xbaf08454	-0.0018349984
10	0x3ba9748f	0.0051713656
11	0xbb9d9956	-0.004809539
12	0xbb198c51	-0.0023429582
13	0x39dbd0fd	0.00041926643
14	0xbadcef36	-0.0016855958
15	0x3b090030	0.0020904653
16	0x3baedd33	0.0053364276
17	0x3b3b83ef	0.0028612574
18	0x3b391d1a	0.0028246106
19	0xba02b333	-0.0004985809
20	0xba82efe3	-0.0009989705
21	0x3acaa238	0.0015459722
22	0x3b449940	0.002999857
23	0x3b6c416b	0.0036049734
24	0x3b09fe19	0.0021055995
25	0x3b430cf5	0.0029762362
26	0x3aa4b3fd	0.0012565848
27	0xb8d067ab	-9.9375226e-05
28	0xba905a23	-0.0011013191
29	0xbb8df05e	-0.0043316325
30	0xbbb69b25	-0.005572694
31	0xbbb13a8b	-0.00540859
32	0x3b8f99e7	0.0043823603
33	0x3ab952e3	0.0014139082
34	0x3ba7e821	0.0051241075
35	0xbb8af614	-0.0042407606
36	0x3b9b6987	0.0047428044
37	0xbbb45eca	-0.005504464
38	0xba86d0f4	-0.0010285662
39	0x3b2585da	0.0025256784
40	0xbbab177b	-0.005221305
41	0x3b757cb2	0.0037458357
42	0xbba95e34	-0.0051687006
43	0x3b737402	0.0037148003
44	0x3b9882c8	0.004654262
45	0x3b8d0af6	0.004304285
46	0x39037845	0.00012537937
47	0x3b5746ca	0.003284859
48	0x3b252cea	0.0025203773
49	0x3b9313ab	0.0044884286
50	0xbbaeb426	-0.005331534
51	0xbbb0c14f	-0.005394138
52	0xbb75d65b	-0.00375118
53	0x3ba38fa6	0.0049914895
54	0x3af44dd0	0.0018638913
55	0xb9e9dd1f	-0.0004460597
56	0xbaa9b9ff	-0.0012949108
57	0x3b6fc021	0.0036583024
58	0x3b810fde	0.003938659
59	0xbb8bfcf9	-0.0042721
60	0xba60c6d5	-0.000857455
61	0x3b712e91	0.0036801437
62	0xbb7f8e14	-0.0038994597
63	0x3b78ae0a	0.0037945532

layer3.1.weight f4 [64]
0	0x3f46f0dd	0.7771128
1	0x3f3ed5be	0.74544895
2	0x3f7195a2	0.94368947
3	0x3f7f80c9	0.99805886
4	0x3f95edd3	1.1713203
5	0x3f823cd5	1.0174814
6	0x3f741c98	0.9535613
7	0x3f7f8734	0.9981568
8	0x3f840dcc	1.031671
9	0x3f026e56	0.5094961
10	0x3f559c8c	0.83441997
11	0x3f7ddd76	0.9916605
12	0x3f1e398a	0.6180655
13	0x3f60a2ec	0.877486
14	0x3f7639f9	0.9618221
15	0x3f6ff9dc	0.9374063
16	0x3f911fb1	1.1337796
17	0x3f8e6624	1.1124921
18	0x3f5e74a1	0.8689671
19	0x3f3154f8	0.6927028
20	0x3f89ae47	1.075631
21	0x3f7eb261	0.99490935
22	0x3f76dede	0.9643382
23	0x3f63c228	0.88968134
24	0x3f209a26	0.6273521
25	0x3f851f2d	1.0400139
26	0x3f65a7ef	0.8970937
27	0x3f7d8adb	0.9904
28	0x3f777b08	0.96672106
29	0x3f586454	0.8452809
30	0x3f786eaf	0.9704389
31	0x3f721720	0.94566536
32	0x3f698a4e	0.9122666
33	0x3f16a38c	0.588433
34	0x3f44b4ba	0.76838267
35	0x3f81d7b7	1.0143956
36	0x3f5f5ad6	0.8724798
37	0x3f941f87	1.1572121
38	0x3f41604e	0.75537574
39	0x3f85aa85	1.0442663
40	0x3f8d9abf	1.106285
41	0x3f3cf459	0.73810345
42	0x3f5010af	0.8127546
43	0x3f4e6d2f	0.8063535
44	0x3f885b92	1.0652945
45	0x3f7f8b01	0.9982148
46	0x3f4337af	0.7625684
47	0x3f8a760a	1.0817273
48	0x3f62b044	0.8855021
49	0x3f63492c	0.88783526
50	0x3f91c2a9	1.138753
51	0x3f621bdc	0.8832376
52	0x3f3b58b0	0.731822
53	0x3f84f679	1.0387717
54	0x3f84c209	1.0371715
55	0x3f56dcf5	0.83930904
56	0x3f29008c	0.6601646
57	0x3f5e2fc7	0.8679165
58	0x3f8cd3be	1.1002119
59	0x3f67be71	0.90524966
60	0x3f636a0e	0.888337
61	0x3f66fce8	0.90229654
62	0x3f346bd0	0.7047701
63	0x3f2a4a27	0.665194

layer3.1.bias f4 [64]
0	0xbf0ad235	-0.54227
1	0xbe76fc7a	-0.2411975
2	0xbf2f75cb	-0.6853911
3	0xbef9733e	-0.48720735
4	0xbf41a2ed	-0.7563923
5	0xbf3ab10a	-0.7292639
6	0xbf3744d6	-0.7158941
7	0xbf43fdcc	-0.7655914
8	0xbf39aef9	-0.7253261
9	0x3f2d165c	0.6761224
10	0xbf1c8f9e	-0.6115664
11	0xbf3cd50c	-0.73762584
12	0xbeef3a1c	-0.4672402
13	0xbf064dc1	-0.52462393
14	0xbf3df39b	-0.7419984
15	0xbf221261	-0.63309294
16	0xbf6f0d1d	-0.93379384
17	0xbf428498	-0.7598357
18	0xbf4c3c0f	-0.7977914
19	0xbec4dc7b	-0.38449463
20	0xbf234edd	-0.6379221
21	0xbf482820	-0.78186226
22	0xbf5568c1	-0.83362967
23	0xbf0f7fa3	-0.56054133
24	0xbe832431	-0.2561355
25	0xbf900952	-1.1252844
26	0xbe91c278	-0.2846868
27	0xbf374907	-0.71595806
28	0xbf1319a3	-0.57460994
29	0xbecd5355	-0.4010264
30	0xbf2b8e52	-0.6701404
31	0xbf65c3ca	-0.89751875
32	0xbef27e68	-0.47362065
33	0xbe5051af	-0.2034366
34	0xbed2c8db	-0.41168866
35	0xbf57d0d2	-0.8430301
36	0xbf080130	-0.5312681
37	0xbf34041b	-0.70318764
38	0xbe83a3b9	-0.25710848
39	0xbf2ba260	-0.6704464
40	0xbf30f542	-0.69124234
41	0xbeb157a8	-0.3463719
42	0xbee51772	-0.4474445
43	0xbe9309f3	-0.28718528
44	0xbf0dd8e2	-0.5540906
45	0xbedf532c	-0.43618143
46	0xbea8044e	-0.32815784
47	0xbf46f402	-0.77716076
48	0xbf106769	-0.5640779
49	0xbf144db4	-0.57931066
50	0xbf1876a2	-0.5955602
51	0xbf0529db	-0.5201699
52	0xbe57218c	-0.21008891
53	0xbf30624c	-0.6889999
54	0xbed06463	-0.4070159
55	0xbf1bc89e	-0.6085299
56	0xbec83973	-0.3910633
57	0xbf1c4b00	-0.6105194
58	0xbf54fed2	-0.83201325
59	0xbed7360f	-0.4203343
60	0xbf288a50	-0.6583605
61	0xbef74d22	-0.48301035
62	0xbe980390	-0.29690218
63	0xbecb6423	-0.39724836

layer3.1.running_mean f4 [64]
0	0xbf7968ed	-0.9742573
1	0xbfe3ff3a	-1.7812264
2	0xc01955f6	-2.3958716
3	0xc021588c	-2.5210295
4	0xc0098eb3	-2.1493347
5	0xbfc5a0fe	-1.5439756
6	0xc0290a38	-2.6412487
7	0xbf6dd800	-0.92907715
8	0xc0626a54	-3.5377398
9	0xbfb312f9	-1.3990165
10	0xbfac3985	-1.3455054
11	0xbff5db7e	-1.9207609
12	0xbf575b35	-0.84123546
13	0xc00d6b9c	-2.209693
14	0xc02d86c7	-2.7113512
15	0xbf7eae0f	-0.9948434
16	0xc04ff132	-3.2490964
17	0xbff2c139	-1.8965217
18	0xbfabbbab	-1.3416647
19	0xbf25e613	-0.6480419
20	0xc02eb2a0	-2.7296524
21	0xc0198850	-2.3989449
22	0xc005d4b2	-2.091107
23	0xc06d1a85	-3.7047436
24	0x3f6b5d55	0.9193929
25	0xc03d0e49	-2.953997
26	0xc057d2c0	-3.3722382
27	0xbfd168b8	-1.6360083
28	0xc024ded0	-2.5760994
29	0xbfc911af	-1.5708522
30	0xbffbca56	-1.9671123
31	0xc003afb9	-2.0576003
32	0xc033f0e9	-2.811579
33	0xc0138f00	-2.305603
34	0xbf338cd1	-0.70136744
35	0xc0208ef0	-2.5087242
36	0xbff0ee62	-1.8822749
37	0xc032bbf7	-2.7927225
38	0xbfc84aaa	-1.5647786
39	0xc00bbf11	-2.1835368
40	0xc0192dfa	-2.3934312
41	0xc0385857	-2.8803918
42	0xc038d90b	-2.8882473
43	0xbfdca88a	-1.7238934
44	0xc008eceb	-2.1394603
45	0xc026ea1e	-2.6080394
46	0xbf4bde01	-0.79635626
47	0xc04c6b74	-3.1940584
48	0xbd764d15	-0.060132105
49	0xbf915066	-1.1352661
50	0xc01615ee	-2.3450885
51	0xbf9b44ad	-1.2130333
52	0xc02eab1a	-2.7291932
53	0xc02d71cd	-2.7100708
54	0xc04cea0b	-3.2017848
55	0xbfd3c64f	-1.6544894
56	0xbfb41597	-1.4069089
57	0xc0409e20	-3.0096512
58	0xc0151e82	-2.329987
59	0xbfaae2a0	-1.335041
60	0xbfd77400	-1.6832275
61	0xc014bd10	-2.3240395
62	0xbfcc5a0f	-1.5964984
63	0xbee897fb	-0.45428452

layer3.1.running_var f4 [64]
0	0x4034bf81	2.8241885
1	0x405ad913	3.4194992
2	0x4077e2f0	3.8732262
3	0x40d650de	6.6973715
4	0x40be4f47	5.9471774
5	0x403a1137	2.9073007
6	0x40923d06	4.569949
7	0x407839ce	3.878528
8	0x40923528	4.568989
9	0x4041dd32	3.0291257
10	0x4085c931	4.1808095
11	0x40457cca	3.0857415
12	0x40086b42	2.1315465
13	0x40750303	3.8283088
14	0x407a2238	3.9083385
15	0x403101a3	2.765725
16	0x406f1747	3.7357957
17	0x405b5af4	3.4274263
18	0x4033883c	2.80519
19	0x400aae8f	2.1669042
20	0x40d25044	6.572298
21	0x406ad535	3.6692631
22	0x40801c8f	4.003486
23	0x4093b721	4.6161046
24	0x40076a57	2.1158655
25	0x405d5242	3.4581456
26	0x4083731d	4.107802
27	0x406fec5d	3.7488015
28	0x4077dcdb	3.872855
29	0x4051d297	3.2784784
30	0x40571f5c	3.361289
31	0x40a8a6a3	5.2703414
32	0x40106ce3	2.256646
33	0x40299c18	2.6501522
34	0x402cbead	2.699138
35	0x40a3fc38	5.1245384
36	0x4082291b	4.0675178
37	0x40dc0de0	6.8766937
38	0x40638c91	3.5554545
39	0x40c7147f	6.221252
40	0x40c05468	6.0103035
41	0x403700ec	2.8594313
42	0x406b575e	3.6772075
43	0x409e13d4	4.9399204
44	0x408f0101	4.4688725
45	0x409c7330	4.889061
46	0x405d41b6	3.4571357
47	0x40a904b4	5.281824
48	0x406dd358	3.7160244
49	0x4082c380	4.0863647
50	0x40b37776	5.6083326
51	0x4098a856	4.770549
52	0x40449059	3.0713103
53	0x40c482cf	6.140968
54	0x40af961c	5.487074
55	0x4042733b	3.038283
56	0x402e1229	2.7198584
57	0x40802f5d	4.0057817
58	0x404b4fe6	3.1767516
59	0x407b159c	3.923194
60	0x40239090	2.5556984
61	0x407277de	3.788566
62	0x4043e131	3.0606196
63	0x402ed53e	2.7317653
