results/RENet-dataset-Conv64F-5-5-Jan-08-2024-20-55-23/checkpoints/emb_func_00020.pth (torch, 463459 bytes, 24 tensors)

layer1.0.weight f4 [64, 3, 3, 3]
00000000: 0372 b3bb e52f 09be 1949 2bbe 7c26 55bf
00000010: 3859 e0be a9dc 50bc 5c7e 933e 49ea 353f
00000020: 232b 613f 17b2 a6be 8e0e 41bf 2b07 20bf
00000030: 0c2a 9bbf a9aa 6cbf a35f fdbe d123 823e
00000040: c591 253f 2b00 533f 2286 6d3e cdbe 23be
00000050: 77d9 1abd 5cc4 d8be 2839 aabe 6279 ac3d
00000060: 1908 e53e 7a6a 413f a81b 723f e5fe 5ebe
00000070: 7f91 54be f097 40be a77a 80be 636d 07be
00000080: 8bc3 8ebe 2d74 17be 7820 12be 1f4f 3bbe
00000090: 7ba4 73bd 6403 863d b292 80bb 3f07 0c3c
000000a0: efb8 a63b 46af 96bd cb36 393d 6b2f c83b
000000b0: e5ca acbb 734a 483b 1ca7 dd3d ea27 823d
000000c0: 063a e43c 85c0 d43d 140e 033e 5e05 3d3e
000000d0: d967 4c3e 047b 153e 07ed 193e 0892 2a3b
000000e0: 6869 503d 637d 97be 1f0e a8be 6d17 b6be
000000f0: d324 78be 175f 97be b814 d0be 0c2e de3e
00000100: 74b2 df3e 9ca7 c33e 110e 5a3e 74f7 623e
00000110: cdea 543e 7749 ca3c 5156 38be ccea 3cbe
00000120: cb40 523e 8a7b 6f3e 7c41 703e 83dd 4c3e
00000130: 1fd5 0d3e eb21 71bc 137e b6bd b550 58be
00000140: 2b28 8ebe e5e0 3a3f a53a 543f e3b6 2b3f
00000150: 240f 0a3d dc24 8abe 6217 d0be 9c31 a0be
00000160: 8033 57bf 5c77 87bf b3ba 1d3f b8c1 4e3f
00000170: 2971 683f afe2 373e 530a 3ebe fa77 7dbe
00000180: e847 9ebc 6a6e 3bbf 1833 72bf e296 213e
00000190: 25bf ed3e d4f7 0a3f 09eb bd3d 55e3 05be
000001a0: 034e 8bbe 51d3 733e f2d3 f8be 5155 1cbf
000001b0: 7710 693e ec9e 513e 3fb5 ef3d ac5d 683e
000001c0: 6ac3 9abd e506 bb3d 8cf2 003e 583f 93be
000001d0: 900f 2bbe f178 ff3d 702a f63d 9578 fc3d
000001e0: 36a1 113e 3e22 64bd 0afc d5bc fbbb 1c3e
000001f0: 3fad 63be 9d42 9fbd adf4 1fbd ec23 8abd
00000200: 31f0 2dbd f44a b1bd 1bea 37be 56c4 6fbd
00000210: 3862 1bbd a494 53be 4d17 c8bc ad0f 003e
00000220: 3126 b03d 39d7 4e3d ba1f c73d 74dd 913d
00000230: 3e62 913d 300f 6f3d 34b1 663d 0135 12bc
00000240: fe27 a1bd ed37 e3bd 1153 6bbd 590b 2dbe
00000250: 7fcc a2be eab4 c2be dc18 94be 5f03 aebe
00000260: b139 81be 09c2 b33e b0d3 8b3e 2288 c93d
00000270: ac14 353e 6de9 90bd 1560 93bd 3543 0f3d
00000280: e702 1bbd b92a bfbc dce1 23bf a2e8 c5bd
00000290: 24ce ca3e 593b 31bf 35d6 b63d e96d 1a3f
000002a0: ef78 cabe 2bac 003e cdf0 ea3e 0fd6 fcbe
000002b0: a701 0a3e f958 f73e 2850 35bf 805d 8a3e
000002c0: 4f50 1c3f ce9e adbe 7e8e 493e 96a3 863e
000002d0: cac4 b1be 905c 8b3d bda6 003f 8c91 17bf
000002e0: 751a 393e fc35 0e3f 6c0c c0be 6704 9dbc
000002f0: f077 e73d 3ed1 113f 05aa 153f c64f 4d3f
00000300: dc1c 12bf 87ef 10bf 2bcc 05bf c8ad 01bf
00000310: 0a02 93be 0762 7fbe 6c87 a03d c30d 0b3e
00000320: eb0f cd3e 1013 99be b0fa e4be 6ae2 aebe
00000330: 950b 34be 4541 453e 1239 083d 4cd3 febc
00000340: 6f1b 63bd 1788 0d3e f482 8dbd 4009 b6bd
00000350: e2bb 27bc da3d 623e 5ccf 043f 2617 e13e
00000360: e904 82bf dfa9 65bf 9659 68be e6d5 1abf
00000370: 8c67 4c3e 3496 463f 22d5 4e3d d165 bc3e
00000380: 1746 153f 4eb1 47bf da7c 84bf 6f45 e2be
00000390: bbda 41be d234 f43e d466 643f 4f33 123f
000003a0: 499c 3f3f ba70 723f 31a4 03bf c9de 66bf
000003b0: c51b d7be 3de8 87be 6c5f 6f3e 616b 173f
000003c0: e63f f13d 3547 983e 11e3 8a3e c300 243d
000003d0: 0bdd 8b3c ec8b 06be 9843 4b3d 9f49 0fbe
000003e0: fbbb 78bd 9cbd 2cbc 031f 9ebd 49d8 54bc
000003f0: 1ded a93d f4c8 77bd 3c39 b5bd 30a6 f2bc
-0.0054762377 -0.13397177 -0.16727103 -0.8326185 -0.43818069 -0.012747922 0.28807342 0.71060616
0.87956446 -0.32557747 -0.75412834 -0.6251094 -1.2122207 -0.92447907 -0.49487028 0.2541795
0.6467555 0.8242213 0.23195699 -0.15990753 -0.037805047 -0.4233731 -0.33246732 0.084215894
0.4473274 0.75553095 0.9457345 -0.21776922 -0.20758627 -0.1880796 -0.25093576 -0.13225321
-0.27883562 -0.14790411 -0.14270198 -0.18291901 -0.059483033 0.065436155 -0.0039237374 0.0085466495
0.005087964 -0.073576495 0.04521827 0.0061091683 -0.0052732104 0.0030561953 0.10822889 0.06355269
0.027859699 0.10388283 0.12798339 0.18459079 0.1996149 0.14597708 0.15031825 0.0026026983
0.050881773 -0.2958785 -0.32823274 -0.35564747 -0.24232797 -0.29564735 -0.40640807 0.43394506
0.43690836 0.38213813 0.21294428 0.22164708 0.20792694 0.024693234 -0.18001677 -0.18448943
0.20532529 0.2338697 0.2346248 0.20006375 0.1385083 -0.014717559 -0.089107655 -0.21124537
-0.2776502 0.7299941 0.82901984 0.6707594 0.033705845 -0.26981246 -0.4064284 -0.3128785
-0.8406296 -1.05833 0.61613005 0.8076434 0.9079767 0.17957567 -0.18558626 -0.24752799
-0.019321397 -0.73215353 -0.9460921 0.15780213 0.46434894 0.54284406 0.09273345 -0.13075002
-0.27207956 0.2381108 -0.485992 -0.6106768 0.22760187 0.2047078 0.11704492 0.22691983
-0.075568035 0.091321744 0.12592524 -0.28759265 -0.16705155 0.124742396 0.12019813 0.12327687
0.14221653 -0.05569672 -0.026121158 0.15306084 -0.22234057 -0.07776377 -0.0390517 -0.06745133
-0.042465393 -0.08656874 -0.17960398 -0.05853685 -0.037935466 -0.2066217 -0.024425173 0.1250598
0.086010344 0.05049822 0.09722848 0.07122317 0.07098816 0.058364093 0.056321338 -0.00892377
-0.07868956 -0.11094651 -0.057452265 -0.1689886 -0.31796643 -0.3802865 -0.28925216 -0.33986947
-0.25239328 0.35108975 0.27309942 0.098404184 0.17683667 -0.070757724 -0.071960606 0.034976203
-0.037844565 -0.023335801 -0.6401651 -0.09663512 0.39610398 -0.6923118 0.089275755 0.6032396
-0.3954539 0.12565677 0.4588684 -0.49382064 0.13477193 0.48310068 -0.70825434 0.2702446
0.6106004 -0.3391022 0.19683263 0.2629668 -0.3472045 0.06804764 0.5025442 -0.5920646
0.18076499 0.55551124 -0.37509477 -0.019167138 0.11302173 0.56959903 0.58462554 0.8019985
-0.57075286 -0.5661549 -0.5226466 -0.50655794 -0.28712493 -0.24939738 0.0783833 0.13579468
0.40051207 -0.29897356 -0.4472251 -0.34157115 -0.17582543 0.1926318 0.03325755 -0.031106614
-0.055446085 0.13821445 -0.06909743 -0.08888483 -0.010237666 0.22093907 0.51878905 0.43962973
-1.0157748 -0.8971233 -0.22690424 -0.60482633 0.19961375 0.7757294 0.050496228 0.3679643
0.58310074 -0.7800492 -1.0350602 -0.441936 -0.18931095 0.4769655 0.89219403 0.5710954
0.7484785 0.9470326 -0.5142241 -0.90183693 -0.42013374 -0.2654437 0.23376244 0.5914822
0.11779766 0.29741827 0.27126363 0.04003979 0.017073175 -0.13139313 0.04962501 -0.13992928
-0.060726147 -0.010543253 -0.07720759 -0.0129910195 0.08297179 -0.06049438 -0.08848807 -0.02962026

layer1.0.bias f4 [64]
00000000: 6a5d d83c 70b2 8cbd 9fe5 5b3c c937 903d
00000010: d714 6c3d 47ea 953d 6f87 3d3d 16bc e7bb
00000020: 20d4 b63c d34c 12bd 9598 943d a74e 2f3d
00000030: 6621 80bd 005e 973d 2a44 a6ba 2f03 79bb
00000040: 53a5 bfbc e8c0 b8bc 8f30 8c3b c5ec 2abd
00000050: bad7 a2bd 9059 34bd ee58 8bbc 2f32 843d
00000060: c2c8 803d 80c6 51bd 7f1b 57bb f818 cabc
00000070: 7d4e 3bbd 1646 76bc 84f7 f2bc 34b3 433d
00000080: f4a2 2dbd 7f78 573c 2594 45bd d98c dabc
00000090: d3cf 893d 3be3 2bbd ed6b a8bb 0531 a73d
000000a0: 5dab ef3c 2536 32bd 8d36 52bd a18e f5bc
000000b0: 9147 dbbc 2070 183d 51ae 9bbc 12a5 933d
000000c0: fd1a 40bd d4f7 dabc caf1 fe3c 30d0 8b3d
000000d0: 1e76 a73d 1928 603c ac20 6c3b 01de 1cbd
000000e0: 67d3 453d a0f2 4abd 590e b8bc e650 92bd
000000f0: e64a a8bd 34b3 433d 214a be3b d28d 8b3d
0.02641173 -0.06869972 0.013421445 0.0704189 0.057637062 0.073200755 0.046271738 -0.007071982
0.022317946 -0.035717797 0.07255665 0.042799618 -0.0625637 0.07390976 -0.0012685109 -0.0037996282
-0.023394262 -0.022552922 0.0042782496 -0.041729707 -0.07951303 -0.044030726 -0.017010178 0.06454884
0.062882915 -0.051214695 -0.0032822785 -0.02467011 -0.04572915 -0.015031358 -0.02965904 0.047778323
-0.042391732 0.013151287 -0.048236985 -0.02667849 0.067290924 -0.04196475 -0.005139819 0.081636466
0.029256517 -0.043508667 -0.051321555 -0.029975237 -0.026767524 0.037216306 -0.019004019 0.07209219
-0.046900738 -0.026729502 0.031121153 0.06826818 0.08176826 0.013681435 0.0036030216 -0.038297657
0.048297312 -0.04954779 -0.022467779 -0.071443364 -0.08217411 0.047778323 0.0058071767 0.068141595

layer1.1.weight f4 [64]
00000000: b5ce 993f 9b17 0e3f 0e47 d13e 76c1 843f
00000010: a751 ad3e 26da e93e 8c72 4f3f 4aeb 313f
00000020: 6fc6 973f e4bd b43e 0a1f 893f 3909 563d
00000030: 47d2 303e 9d1b ec3e 867d 933e b523 113f
00000040: a3b1 e73e b52c 813f d7bd 013f d58e 143f
00000050: 83bd 333e a43d c13e d426 583f 2b40 a53d
00000060: e0bd 0a3f d61c 053f e332 9e3e 026a 9a3f
00000070: 8abc d43f 1fd5 ac3e c514 ee3d 8da2 b73e
00000080: e559 8d3f 8ab7 863f 6add cf3e ef53 133f
00000090: 7695 1b3e d1da 823f 72eb 0b3f 53c4 1a3f
000000a0: 99ab b53e f840 ba3e 823c e43e c3c0 603e
000000b0: d6b1 673f 4f19 b23e efef fa3e af93 883f
000000c0: dfa2 da3e ea10 183f 36a4 453e 3ca3 e83e
000000d0: c7ea c83e 41e0 163f ce44 133f 963f 9b3e
000000e0: b8d6 253f 45db f83e e82f 2a3f 1141 633f
000000f0: ef3f 5e3f e053 0f3f 1e57 5b3e 4b7f 963e
1.2016207 0.5550477 0.40874523 1.037154 0.33851358 0.45674247 0.8103416 0.6949965
1.1857432 0.35301125 1.0712597 0.05225489 0.17267714 0.46114817 0.28806704 0.5669511
0.45252714 1.0091769 0.506803 0.58030444 0.17552762 0.3774234 0.84434247 0.0806888
0.54195976 0.51997125 0.30898198 1.2063601 1.6620038 0.33756348 0.11625055 0.35866204
1.1043059 1.0524762 0.40598613 0.5754995 0.15193734 1.0223027 0.54656136 0.60455817
0.3548248 0.36377692 0.44577414 0.21948533 0.9050573 0.34784934 0.4901118 1.067007
0.42702386 0.5940081 0.19300923 0.45437038 0.3924162 0.58935934 0.5752686 0.3032195
0.6478076 0.4860479 0.6647935 0.8877116 0.86816305 0.5598736 0.21419951 0.29393992

layer1.1.bias f4 [64]
00000000: f5b3 6d3e 56a5 a3be 7885 a93e 23ff ad3e
00000010: a27d 6bbe 4a0a d4be 9f5b da3e 9623 893e
00000020: 52a0 dd3e e828 c0be f70a 163f 2531 4ebe
00000030: 4dec 7f3e 9845 c0bd 9786 8f3e caae 00bf
00000040: d992 393e b2bf c03e c6b9 96be 291c 60be
00000050: cf82 8fbe f104 083e 7c65 e1be 162c 71be
00000060: 7aac dfbe d3bf 903d b6e1 d03d 1dfa 523f
00000070: 5b40 693d 81ff af3e dcb3 043e c15f 4bbe
00000080: 8c24 dd3e b2b6 f03e 7b67 4dbe 45c1 ccbe
00000090: 370e 623e 478d 7a3d 9eb5 d2be 4ddc ecbc
000000a0: a51d 26be 6b64 b0bd ab70 983d 8e61 a3be
000000b0: 0a43 c43e a4a8 703e a339 07be 9745 e33e
000000c0: 6c85 47be ca94 7bbe fa81 5e3e 0527 c2be
000000d0: fb7a a53e 023b dd3e bd54 92be 647e 863e
000000e0: 2afc 93be bae7 96be ade3 ae3d e9b9 ce3e
000000f0: 92b3 db3e b13e 403e 7d71 11bd d8d7 7cbe
0.2321318 -0.3196208 0.3310964 0.33983716 -0.22997144 -0.414141 0.42648026 0.26784962
0.43286377 -0.3753121 0.5861048 -0.20135935 0.24992485 -0.09388274 0.2803237 -0.50266707
0.18122424 0.37646252 -0.2943861 -0.21885742 -0.28029487 0.13283135 -0.4402274 -0.23551974
-0.43686277 0.070678376 0.10199301 0.8241289 0.05694614 0.34374622 0.12959236 -0.19860746
0.43191946 0.47014385 -0.20059006 -0.39991203 0.22075735 0.06116989 -0.41154188 -0.028913641
-0.16222246 -0.08612903 0.07443365 -0.31910366 0.38332397 0.23501831 -0.1320558 0.4438903
-0.1948449 -0.24568477 0.2172927 -0.37920395 0.3232039 0.43209082 -0.28580275 0.26268303
-0.28903323 -0.29473668 0.085395195 0.40376213 0.4291044 0.18773915 -0.03550862 -0.24691713

layer1.1.running_mean f4 [64]
00000000: 3ae2 a03d a668 0bbf 6a0e acbe 19e1 a1bd
00000010: 7fa6 113e 6214 373e 948f a23d b35e 3cbe
00000020: 3caa e6bd 2cee 4abd dd43 a4bd 18bd 063d
00000030: aec0 1bbd 683a 733d ce5a c03e 73a0 df3e
00000040: 9805 07bf 8ec1 d2bd 2fde 5cbe 3f96 10be
00000050: b530 0f3d 927f 783e a035 e8be 2bc2 9b3e
00000060: cd4b b9be 7441 0abf 466f 0b3e a441 80bd
00000070: c3e9 82bd cf54 17bf c72d b83d c004 64be
00000080: b4b3 62be b1bc 5fbe c39f a6be a8da 10bf
00000090: ebd7 3e3e d7af e1bd 4bf7 993d 5f91 b53e
000000a0: 535e 5ebe eba8 c2be e58d 1bbf 6f5d 3d3e
000000b0: 77dc 093e f72a aebd 141a cabe 1b23 97bd
000000c0: 45dc 13be a3d3 12bf d1be 803e fb52 6a3e
000000d0: def6 de3d 1154 28be 9631 e4be a724 283d
000000e0: 61e2 fabe bb82 343e 4da0 7cbe 4b21 b23d
000000f0: 2e83 48be 6343 0ebf be82 183e 6833 02bc
0.07855649 -0.54456556 -0.33604747 -0.07904262 0.1422367 0.17878869 0.079375416 -0.183955
-0.112629384 -0.049543545 -0.080207564 0.032895178 -0.03802555 0.059381872 0.37569278 0.436771
-0.5274291 -0.10290824 -0.21569131 -0.14119814 0.03495856 0.24267414 -0.45353413 0.30421576
-0.36190644 -0.54006124 0.13616666 -0.0626252 -0.06392243 -0.5911378 0.08993106 -0.22267437
-0.22138864 -0.21849324 -0.32543764 -0.5658364 0.18637054 -0.11019867 0.075178705 0.35462472
-0.2171567 -0.380195 -0.6076339 0.18492673 0.13463007 -0.08504289 -0.3947302 -0.07379743
-0.14439495 -0.5735418 0.2514558 0.22883217 0.1088693 -0.16438319 -0.4456908 0.04105058
-0.49000838 0.17627995 -0.24670525 0.086977564 -0.19581291 -0.55571574 0.14893624 -0.0079468265

layer1.1.running_var f4 [64]
00000000: b1da a340 da34 b73f e89f d53f e943 d540
00000010: 3dfa 9e3e 9bc6 233f 6163 6940 cd5c 863f
00000020: 30f9 ed40 4d1c c93e 27c3 9040 8201 743f
00000030: 49fd 103f 62b5 983f 139b 033f 5ca8 4440
00000040: 7b25 f53f 0019 4d40 715e 843f 71be e53f
00000050: 8d7e 2d3f fa8d 913f 32d6 1b40 e46c 6040
00000060: fef5 8b3f c88e 1040 f41e 573f 8ac5 1d41
00000070: a06e 5541 4c0f e73f 34a4 743f 8e23 2f3f
00000080: bc88 8740 5929 a740 389c 3a40 a060 ca3f
00000090: ad58 cb3f 7e06 8b40 25d6 be3f 36ec c73f
000000a0: f11a d93f e407 bb3f 4ce4 e63f 2aa1 1540
000000b0: a7fd 9340 7428 393f 405f a53f 2207 9d40
000000c0: 28e0 5d3f ff17 ee3f b4fb f33e 1f19 563f
000000d0: 7fc3 ca3f 02df d93f 9545 b93f 4446 733f
000000e0: 4844 e33f cb37 153f 3398 df3f 364f 7e40
000000f0: e2b7 3a40 277b 6d40 090b 3a3f 6966 033f
5.1204457 1.4313004 1.6689425 6.66454 0.31050292 0.6397492 3.6466906 1.049707
7.4366684 0.39279404 4.5238223 0.953148 0.5663648 1.1930354 0.514085 3.0727758
1.9152063 3.2046509 1.0341321 1.7948743 0.67771226 1.1371453 2.4349484 3.5066462
1.0934446 2.2587147 0.84031606 9.860727 13.339508 1.8051543 0.95563054 0.6841363
4.235441 5.2237973 2.9157848 1.5810738 1.5886437 4.3445425 1.4909102 1.5618961
1.6961347 1.4611783 1.8038421 2.3379617 4.6247134 0.7232735 1.2919693 4.9071207
0.8667016 1.8601073 0.47652972 0.8363208 1.5840911 1.7021182 1.447436 0.9502909
1.7755213 0.5828826 1.7468323 3.9735847 2.9174733 3.7106416 0.7267309 0.5132814

layer2.0.weight f4 [64, 64, 3, 3]
00000000: 8704 b83d 6e50 c63d b9cc d53d 878a 823c
00000010: 06a4 333d 18ad 8c3c 0996 a53c d379 5a3c
00000020: b1ef 04bd 1991 803c 5bb4 a339 bfa7 843a
00000030: 6800 103c 0ebd c33c 8d13 9abb 28e9 c23b
00000040: 64ea 8bbb 8566 453c 847e e1bc b8bb cebb
00000050: d2ee 84bc af9e 703d d787 543d 2b5b 623d
00000060: 8881 953d b03b 773d 2685 9a3d a026 98bd
00000070: 6e46 57bd d60d 88bd 5f99 7ebb 6216 1bbd
00000080: 5952 82bd 3444 9f3c 9bde ec39 9bcc 0d3d
00000090: 9da7 0fbd 5e2b d6bc 7616 60bd e876 55bd
000000a0: 2fa2 8abd 130d 76bd d91e fabc 370e 84bd
000000b0: bb81 0fbd 6dd6 d03b a3d4 bcbc 878c 35bc
000000c0: b996 43bd 8fed 73bd af7b 85bd 9d70 0ebd
000000d0: 4d57 85bd 450f 84bd 71af 56bd ce49 68bd
000000e0: fba5 fabc 38c5 6dbd 011b 5cbd ec0c 72bd
000000f0: 8a84 383c f140 2abd 6447 3fbd 12f8 6cbc
00000100: ba30 2bba 2dc7 c8bc 3478 8a3d 3542 953d
00000110: 9496 d13c f31b a03d 68aa 173d 9cc9 e43c
00000120: 6f61 1f3d 47ad 223d b1af 8f3d 314d ca3c
00000130: 52cd 613d 4881 b53c 914b 843d 47eb 5d3d
00000140: c24e f9ba 0765 c13c 9628 863c 3486 e2ba
00000150: 12f1 123c 60a8 c9bc 6cbe 0fbc 70c9 3fbc
00000160: 1c45 4e3b 43dc b1bc 837b 20bd e595 b1bd
00000170: 03df 99bd c544 e13c 9ff3 ee3a 78d3 6ebd
00000180: c0f4 823d c446 833d 9c3f 5e3d 2c23 bb3c
00000190: 8207 913c 3630 3bbb 303c 98bc 1c48 44bc
000001a0: f42d 76bc f6a6 8fbb 8a5f 2c3b 558e 8d3b
000001b0: 4b58 1a3c a6e6 303c ac33 35bb b1ac 4e3c
000001c0: 5616 ae3c 9def 5c3c 3ce1 2a3c aa28 a43c
000001d0: dcfb c23b 6937 32bd 17c6 97bd 6e2d 9fbd
000001e0: 1930 90bd 9a8b 03be 35e5 f2bd 6ae5 92bd
000001f0: 5bf1 05be 6ffc fcbd 85cf 86bc 03d0 3cbc
00000200: d8a4 f5bc ca2d 53bd c43a 2abd 3b01 bbbc
00000210: ac46 e9bc 9404 6bbc b3e1 c1bc b01e 83bd
00000220: 5c18 86bd 280e 7bbd 6ac5 c6bd 752e c5bd
00000230: b9f3 99bd e0cf 7dbd 6459 80bd b54d 8ebd
00000240: 42b4 c13c ece0 ce3c dd0f 38bc e133 573d
00000250: 5ade 843d b10f 883d d9cd 4d3d 0b42 943d
00000260: 3e26 883d d1ba 8ebc 6336 86bd 2b3d 97bd
00000270: 7a20 b93c c315 52bd c229 84bd 6652 1fbc
00000280: 9026 133c 6a12 8d3b e13a 403b 5eb8 20bb
00000290: 9de8 c73c b6e9 9fba 452b 973a 1458 9f3c
000002a0: 91aa 763c 7d54 4ebb e2fa bbbb 0412 c9bc
000002b0: 1a6f 6bbd 60b7 71bd 9c56 aebd 05ac d2bd
000002c0: b18e ebbd 1388 a1bd ccd1 e8bd ef3d d9bd
000002d0: 1e33 13bc 1b2b 0ebd d60d 54bc 69b6 f6bc
000002e0: a846 debc 5895 85bc da27 f6bc f857 3cbd
000002f0: d581 51bd a7d3 4dbd 649c 19bd 4696 57bd
00000300: ddca b8bc 6a0b 82bd 21c1 66bd 35a4 26bd
00000310: 1f4a 1cbd 956c 8dbc 08d9 ddbc 9825 c3bc
00000320: 13da 5f3c 1a4e 3d3b 3856 76bb 3fb1 003d
00000330: cc3f 95bc 7f0f e0bb 4277 7b3c 9681 563a
00000340: 072f b3bc 4c87 4dbd eae3 3cbc a3e8 f0bc
00000350: b5d4 18bd 0cbd 67bd 4a7e 84bd 382d 3fbd
00000360: c3b2 b939 5433 a23c 2c8c cdbc 3249 b03c
00000370: 186d a9bc 5218 18bc 41f3 883c cd79 9bbc
00000380: f83e b2bc 43b3 173d 65f6 a23c 3e98 013c
00000390: 35cf 6a3d c034 823d 834d 953d 3a5d 563d
000003a0: fceb a53d 37ac 913d cf6c f7ba 4d98 59bc
000003b0: 3f1f e03b 73ba b1bb 9dd6 77bc 1063 40bb
000003c0: 0719 113c 175d bd3b 4828 8739 bc73 d73d
000003d0: 7743 b03d b8e0 953d 044c be3d 9278 a63d
000003e0: 6c04 8c3c 6934 8f3d a088 e63d b7b0 323d
000003f0: a6ea 61bd 0bd1 a7bd 7303 64bd c995 76bd
0.089852385 0.096833095 0.104394384 0.015935196 0.043857597 0.017172381 0.020213144 0.013334709
-0.03245515 0.015694188 0.00031224158 0.0010120793 0.008789159 0.02389386 -0.0047020377 0.0059482045
-0.004269885 0.012048368 -0.027526148 -0.006308999 -0.01622716 0.058745082 0.05188736 0.055262726
0.07300097 0.060359657 0.07544927 -0.07429242 -0.0525574 -0.06643264 -0.003884874 -0.037863143
-0.06363363 0.019441701 0.00045179282 0.034618955 -0.035071958 -0.026143726 -0.05470892 -0.05211535
-0.06769215 -0.060071062 -0.030532287 -0.06448024 -0.03503583 0.006373218 -0.023050612 -0.011080868
-0.047751162 -0.059552725 -0.065177314 -0.034775365 -0.06510792 -0.06448225 -0.052413408 -0.05671101
-0.030596724 -0.05804941 -0.05373669 -0.059094355 0.0112620685 -0.04156584 -0.046698943 -0.014463441
-0.0006530393 -0.024509037 0.06761208 0.072880186 0.025584497 0.07817831 0.037027746 0.027928166
0.03891128 0.03971603 0.07015932 0.02469501 0.05512745 0.022156373 0.06459726 0.054179456
-0.0019020664 0.023607744 0.016376775 -0.0017282427 0.008968608 -0.02461642 -0.008773427 -0.011705741
0.0031474298 -0.021711474 -0.03918029 -0.08671168 -0.07513239 0.027498612 0.0018230564 -0.05830714
0.063943386 0.06409982 0.05425988 0.02284392 0.017703775 -0.0028562672 -0.018583387 -0.011980083
-0.0150256045 -0.004383917 0.0026302063 0.004319946 0.009420465 0.010797178 -0.0027649207 0.012614415
0.021250885 0.013484863 0.010429677 0.020038921 0.005950434 -0.043509874 -0.074108295 -0.07772337
-0.07040424 -0.12846223 -0.11860124 -0.071726635 -0.13080351 -0.123528354 -0.016456375 -0.011524203
-0.02998583 -0.05155734 -0.04155995 -0.022827735 -0.028476082 -0.014344353 -0.023667192 -0.064023376
-0.06547615 -0.061292797 -0.097056225 -0.096280016 -0.075171895 -0.061965823 -0.0626705 -0.06948415
0.023645524 0.025253735 -0.011234251 0.05253971 0.06487723 0.06643618 0.05024514 0.07239159
0.06647919 -0.017423065 -0.06553342 -0.07384714 0.022598494 -0.051290285 -0.06453277 -0.009724235
0.008981362 0.0043051736 0.002933197 -0.0024523954 0.02440291 -0.0012200389 0.0011533281 0.019451179
0.015055315 -0.0031483464 -0.0057366947 -0.024544723 -0.057479 -0.05901277 -0.08512613 -0.10286716
-0.115018256 -0.07887282 -0.113681406 -0.10607516 -0.008984355 -0.034709077 -0.012942752 -0.030116277
-0.0271333 -0.016306564 -0.0300483 -0.04598233 -0.051149208 -0.050250676 -0.03750266 -0.052633546
-0.02255767 -0.06349833 -0.056336526 -0.040683944 -0.038156625 -0.01726369 -0.027081028 -0.023821637
0.013662833 0.0028885663 -0.0037588011 0.031419035 -0.018218897 -0.006837785 0.0153482575 0.0008182762
-0.02187301 -0.050177857 -0.011528948 -0.029407805 -0.03731223 -0.056576774 -0.064694 -0.046673983
0.00035419138 0.019799866 -0.025091253 0.021519277 -0.020681903 -0.009283142 0.016717555 -0.018978978
-0.021758541 0.03703619 0.01989288 0.0079098325 0.057326514 0.063577175 0.07290175 0.052335
0.08101651 0.071129255 -0.0018877032 -0.01328094 0.0068396623 -0.005423838 -0.015126851 -0.002935592
0.008856065 0.0057789194 0.00025779218 0.105201215 0.08606618 0.07318252 0.092918426 0.08128466
0.017091952 0.06992418 0.11256528 0.04362556 -0.05515542 -0.08194169 -0.055667352 -0.06020144

layer2.0.bias f4 [64]
00000000: bbb1 33ba 065f 463c e4b1 91bc 895b bebb
00000010: 0b1b 1d3c fe29 89bb 470c 443c 42b6 d03b
00000020: c95b 513b 54e9 26bb 9c6d 92bb e0e4 7bbb
00000030: 1bad d8ba 8f72 23bc 3cb2 acbb 3390 2c3c
00000040: 10d5 533c aa47 5e3b f6ea 393b b4ec 81bc
00000050: 2266 773b 5b08 7d3c 9d20 03bc c002 97bb
00000060: b626 933c 0f2f 373b 496a 6d3c bf7f a4bb
00000070: 209f 88bc 4adc d13a 5172 6abc 2d97 02bc
00000080: 62a2 d23b 732d 8cbc 5291 243c 4b30 8b3c
00000090: 110f 8e3c f3aa 83bc fe3c 96bc 891e f3bb
000000a0: c866 be3a ad80 14bc a806 553c c828 8a3c
000000b0: 8e20 a03b a74c 35bb 3a8d 8abc 9e7f 373c
000000c0: a484 30bb de90 4f3c 2f8b e73b 10c1 4a3b
000000d0: 08bb 60bc 1635 443c df63 683b 1482 6d3c
000000e0: 76cf 643c 9993 1fbc d001 68bc 8ffe 8ebc
000000f0: abb7 ccbb 524d cebb c0d7 9d3a a070 203c
-0.0006854792 0.012107616 -0.01778502 -0.0058092517 0.009588967 -0.004185914 0.011965818 0.006369383
0.0031945577 -0.0025468664 -0.004468633 -0.003843598 -0.0016531082 -0.009976043 -0.0052702706 0.010532427
0.012929216 0.0033917227 0.0028368807 -0.01585994 0.0037750085 0.015443887 -0.008003381 -0.004608482
0.017962795 0.0027951633 0.014490672 -0.0050201113 -0.01667744 0.0016011086 -0.014309482 -0.007970613
0.006428049 -0.017111516 0.010044413 0.016990801 0.017341169 -0.016072726 -0.01833963 -0.0074194116
0.0014526481 -0.009063882 0.013002075 0.01686515 0.0048866933 -0.0027664097 -0.016913045 0.01119986
-0.0026934529 0.012668816 0.0070661525 0.0030937828 -0.013716467 0.011975547 0.0035459918 0.014496345
0.013965478 -0.00973978 -0.014160588 -0.017455367 -0.006247481 -0.0062958384 0.0012042448 0.009792477

layer2.1.weight f4 [64]
00000000: c7da f13e f38a 603f e4e3 263f 86df 3f3f
00000010: 0f3e d23e f0bf 423f a179 7d3f ad28 053f
00000020: bbce 883f 2a65 903f a22c 803f 1f8a 9c3f
00000030: 11c4 e63e 23bb ff3e ace1 8e3f 00e3 5f3f
00000040: 7d0b 8f3f bad1 163f 2229 5a3f 16b9 493f
00000050: 9891 1d3f 52e6 7a3f b6b5 a53f b2a5 753f
00000060: 4c7c 7f3f 9cfc 2c3f 9c05 113f 6169 563f
00000070: c3cf 133f b620 4c3f ab38 f83e 6a2d 323f
00000080: 5d00 643f 711d 2c3f df83 3b3f 0752 973f
00000090: 6edf 203f 7301 203f 1727 a03f 54ad 753f
000000a0: ae2e 903f f131 7d3f d159 473f 5726 303f
000000b0: 1d91 713f bc4b 283f d90b 2c3f fe63 613f
000000c0: c44b a23f b6b2 5f3f 8d42 9f3f b36d 633f
000000d0: c880 843f 7392 2a3f 4350 603f 5633 593f
000000e0: 3b2a 8c3f d5fe 723f 75db 663f dec0 583f
000000f0: 4be8 1b3f 816e 573f 7cbc 503f e9a4 6e3f
0.47237226 0.8771202 0.65191483 0.74950445 0.41062972 0.76074123 0.99013716 0.5201519
1.0688089 1.1280873 1.0013621 1.2229651 0.45071462 0.4994746 1.116262 0.8745575
1.1175381 0.5891377 0.85219014 0.78798044 0.61550283 0.9800769 1.2946079 0.95955956
0.99799037 0.6757295 0.56649184 0.83754545 0.57738894 0.7973741 0.48480734 0.69600546
0.89063054 0.67232424 0.73248094 1.1821908 0.62840927 0.6250221 1.2511929 0.959676
1.1264246 0.9890433 0.77871424 0.688085 0.9436205 0.6574056 0.6720558 0.880432
1.2679372 0.87382066 1.2442185 0.8883926 1.0351801 0.66629714 0.8762247 0.8484396
1.0950388 0.9492009 0.90178615 0.8466929 0.60901326 0.8415299 0.81537604 0.9322038

layer2.1.bias f4 [64]
00000000: 8d9b 80be b994 61be ad37 d03d 2efa 82bf
00000010: a068 9dbd 6de9 a5be 55e1 c0be a371 32be
00000020: d438 01bf 832b 62be 0c63 8bbe 5083 97be
00000030: 2d7a 81be 2f87 cd3b 666f b8bd afb9 6ebe
00000040: 395d 5ebe e7ec c4be 30d6 503d b055 0cbf
00000050: d9ff 203e be99 74be b95d b9be 50a7 9ebe
00000060: 8b31 dfbc 5f9b d9bd fbb9 fcbe 0f6d 97bc
00000070: 94c4 a1be a328 e0bd 32da 943e eb84 a2be
00000080: 72fb b1be 3982 49bd 8798 a6be 2c96 07bf
00000090: 48c7 563e 9830 b6be bca6 f4be fafe 2a3d
000000a0: d9af 16bf 0ae0 9abe 5d6c 8ebb d398 25bd
000000b0: 6645 4abe 7488 d3be 944f 52be 5a36 f9be
000000c0: bde7 07bf f58c d6be 02b1 a3be b7c5 53be
000000d0: e0b4 25be fef1 5abe 6a0a 6dbf 2de7 953c
000000e0: 7697 30be 404b 12bf 00dc e0be 1b17 06be
000000f0: ef82 40bd c05b a7be c5b6 a83d 55a1 89be
-0.25118676 -0.2202939 0.10166869 -1.0232599 -0.07685971 -0.32404652 -0.37671915 -0.17426161
-0.5047734 -0.22086911 -0.27224004 -0.2959237 -0.25288525 0.0062722187 -0.090056226 -0.2331302
-0.21715249 -0.38461992 0.050985515 -0.5481825 0.15722598 -0.23886773 -0.36204317 -0.30987024
-0.027245304 -0.10625338 -0.49360642 -0.01848462 -0.3159529 -0.10945251 0.2907272 -0.31742033
-0.3476215 -0.049196456 -0.32538244 -0.5296352 0.20974457 -0.3558395 -0.47783458 0.04174707
-0.5886207 -0.30249053 -0.004346414 -0.040428948 -0.19753036 -0.41315043 -0.20538169 -0.4867428
-0.5308798 -0.41904417 -0.31970984 -0.20680891 -0.1618228 -0.21381375 -0.92594016 0.01829871
-0.17245278 -0.5714607 -0.43917847 -0.13094752 -0.046999868 -0.32687187 0.082379855 -0.268809

layer2.1.running_mean f4 [64]
00000000: 5cfb 5cbf 2eec 02bf 60df 2ac0 bbc5 9740
00000010: eac8 e73f f2ee d03f 3821 87c0 658f 633d
00000020: 7f3d c2c0 41aa 90c0 3dbd 87c0 ebc8 9ac0
00000030: ebc6 bfbe 93a1 cebf 5329 79c0 230d f2c0
00000040: bd12 81c0 5f72 80c0 a233 bbc0 0d4d 14c0
00000050: cb42 54bf e5c9 cbbf 6d33 d3c0 af5a e3c0
00000060: c27e 34c1 1a7a f1bf aa2b 0fc0 563a 62c0
00000070: 60ed 14c0 d384 48c0 7eaa febf 9af9 6cc0
00000080: 9b98 89c0 1c07 debf d36c fcbc d7ac 83c0
00000090: 0f9e 9bc0 f7bb 4fc0 ca60 41c1 9fda acc0
000000a0: 94d5 3ac1 2024 ddbf 6eb7 dcbf 311d 993d
000000b0: ee85 8cc0 a63f cbbf 3c68 82be 117a 73c0
000000c0: 5d55 e8c0 ed37 31c0 997a 5dc0 b1f9 5fc0
000000d0: af0f 60c0 1f5f f1bf d3c3 8440 8eaa 19c1
000000e0: 503f ccc0 8e64 44c0 7530 c6c0 18bb bbc0
000000f0: fa52 70bf 3315 4dbf 5c27 3ec0 05f9 7cc0
-0.86321044 -0.5114163 -2.6698837 4.742887 1.8108189 1.632292 -4.222805 0.055556674
-6.070007 -4.520783 -4.2418504 -4.837026 -0.3745645 -1.6143059 -3.8931472 -7.5641036
-4.0335374 -4.0139613 -5.850053 -2.3172028 -0.8291442 -1.5920988 -6.6000276 -7.10482
-11.280947 -1.8865387 -2.23704 -3.5348105 -2.3269882 -3.133107 -1.989578 -3.7027345
-4.2998786 -1.734592 -0.03081361 -4.1148486 -4.8630443 -3.2458475 -12.08613 -5.401687
-11.677143 -1.727665 -1.7243478 0.07476271 -4.391349 -1.5878799 -0.2547015 -3.8043253
-7.2604203 -2.7690384 -3.4606078 -3.499615 -3.5009573 -1.8857154 4.1489043 -9.604139
-6.3827286 -3.0686374 -6.193415 -5.8665886 -0.9387661 -0.8011047 -2.9711523 -3.952699

layer2.1.running_var f4 [64]
00000000: 2f34 9640 d854 4b41 4c5d 6d41 29dc 2841
00000010: 566f b040 1fef 2341 a7a9 8041 abdd 9e40
00000020: 35b3 5b41 fffe 7441 38f9 ee41 99fc 0442
00000030: df2f 6640 c46a 4541 caf7 1042 4f56 8041
00000040: abcc 1642 3136 ae40 5df1 ae41 b9e5 1e41
00000050: c4dc 4341 6448 3641 0f33 b441 5bd8 6041
00000060: 4496 f341 d90e 9641 9ae9 0741 2e1e db41
00000070: 363a 9d40 ded9 8f41 6d5a 8341 46ef 0941
00000080: 8228 5541 8df3 ff40 eaac 5a41 3d4d 5941
00000090: 31bc 9041 28d3 0d41 2466 1242 4e28 7741
000000a0: e0ed d841 b13a 5f41 35a8 a341 0dbd 2541
000000b0: ac20 1242 b43d 8e40 c447 ee40 0576 7c41
000000c0: 241e 4142 2a06 2b41 e61d d441 cc8b bf41
000000d0: 5d26 0f42 8a9b 1041 3bbf 5a41 30c4 aa41
000000e0: 4bc5 9941 aac0 ba41 25ed 9941 7913 4441
000000f0: 483b eb40 5125 7441 f240 3442 3e3a 9b41
4.69387 12.708214 14.835278 10.55375 5.513591 10.245879 16.082838 4.964559
13.731252 15.312255 29.871689 33.246677 3.5966718 12.338566 36.24198 16.042143
37.69987 5.444115 21.867853 9.931085 12.241398 11.3926735 22.524931 14.052821
30.448372 18.75725 8.494532 27.389736 4.913356 17.98138 16.419153 8.620916
13.32239 7.9984803 13.667215 13.581357 18.09189 8.864052 36.599747 15.44734
27.11615 13.951829 20.457132 10.358655 36.531906 4.445032 7.4462605 15.778813
48.279434 10.689005 26.514599 23.94326 35.787464 9.037973 13.671687 21.345795
19.221334 23.344074 19.240793 12.254754 7.3509865 15.25911 45.063423 19.403439

layer3.0.weight f4 [64, 64, 3, 3]
00000000: 4c22 26bd 15f8 55bc bd48 fdbb 6c0a b73d
00000010: 3edc 033e 4853 0a3e 2f6a 9c3d 8207 f03d
00000020: 2f30 f33d c6c1 d1bd 2396 33bd 9fb1 f13d
00000030: 369e 12be ad4b 80bd 5f11 d5bd 7f3a 66bd
00000040: 5591 04be 4fa7 08be 9bef 08be f1a8 10be
00000050: 9b78 31bd a6d3 20be fdcc 3ebe a34e 39be
00000060: 0a81 36be 75c8 4dbe ca37 47be 37b3 7abd
00000070: 1282 cdbd 3b18 6cbd 10b6 eebc 34e9 66bd
00000080: af74 52bd 43b4 eabd 3e28 d7bd 6950 dfbd
00000090: 98fe 1abd 113e 03bd bc9c 8f3d f624 16bc
000000a0: 70b7 70bc 083f fabc 04bb 5bbd b96c 8fbd
000000b0: 3d28 c0bd 2522 573a 8c4f 53bb 807c 8ebd
000000c0: 210b e33b a120 adbc 8bd5 dabb 47d6 b9bd
000000d0: a676 a1bd ae3c 78bd 34fe 7cbd ffe5 bb3b
000000e0: ef38 4b3d 2f9a 60bd 58f5 153c 27c5 8a3d
000000f0: 9166 603d 36c1 0abc 5f0b 48bc 3a6c 99bc
00000100: 4c9e b3bc 2035 b93d 1e31 553d c71e 683d
00000110: c1fd e63d 442f febc 1721 8ebc f4da 96bc
00000120: bdec a6bc 4efe 873d 3d53 dabb ff75 dd3c
00000130: b40c 3e3d 20c8 09bd 2ccf ee3d dec3 a23d
00000140: a4f1 62ba 8903 d3bd bc72 5bbc bbb2 983d
00000150: 1070 dbbd 8cde 13bb 9c00 063d 3327 ce3d
00000160: 45ea 323d a0f4 d7bc 284d 18be 0ab9 86bd
00000170: 8908 5bbd 2da0 d2bd 28f1 abbd 6002 df3b
00000180: 88d0 b53d c496 473d d9a1 dd3d 1452 533d
00000190: eba8 f63c 599a 90bd 4336 213e 10f9 353d
000001a0: 6c82 093d 0188 5cbd 6176 f5bc ba9e 86bd
000001b0: 255b 363d 5cc7 283d cafa db3d ed55 093e
000001c0: 8fed 043e 6202 cc3d 3f4f fb3d f374 d83d
000001d0: c8be 073d 4048 66bb ce36 5dbd 6702 063d
000001e0: 6754 27bd 6584 8dbd 3537 57bd c2b7 b0bc
000001f0: 785c f6bd a7ca 28bd ab88 e93d fb47 b5bd
00000200: a682 1c3d 7557 edbd b1f9 a9bd 16a2 1abd
00000210: 6ca4 31be 5949 01be d326 fe3c bf35 a3bc
00000220: ec47 d6bb ad22 f03c 1c60 40bd b225 9fbd
00000230: 83f8 3dbc c82f 6ebd 2651 60bd 0123 103c
00000240: 1b57 e6bd 4b59 0c3c b99f 6b3e 71b0 dabd
00000250: e3c0 2cbc 523d 053d 5fdd 653d ade1 a1bc
00000260: 2955 0fbe 02e3 05bd 893c 0bbd f12c 07bd
00000270: 9d12 41bd 7149 90bd 1ec1 0bbd faed 30bd
00000280: 14e7 4fbc 4b6e d0bc 4e26 20bd 8f57 af3d
00000290: ee6a 3fbc 3c7f aa3d e836 af3d ffac 3a3d
000002a0: 358f 0c3e dd25 363e c81c ed3d 51bf 813d
000002b0: 65f2 7e3d b34c 963c d0c6 19bd 6df2 65bc
000002c0: 062a 39bc 9798 ecbd b7a9 b3bd 0bf8 debd
000002d0: e289 5bbd e769 00bd e3f0 7c3b ffe2 abbc
000002e0: 5b1f f7ba 86ac b4bc 2afa 43bc c126 19bd
000002f0: 4466 1abe 72df e53d 3f4d b83d 6052 dd3d
00000300: ea72 003e 4767 313e 077a e53d 1bdf 2c3c
00000310: 6340 08bc 6c54 febc 45b8 8fbc fc21 223d
00000320: effa 603d 2623 59bd b322 06bd 88e6 44bd
00000330: ab13 d2bd a3ad 85bd 1195 78bd 4966 57bd
00000340: f4f7 33bd 53d2 7dbd 1422 7abd ac52 8abd
00000350: 34be b6bd 40cc 003d 56f3 99bd 9b57 c7bd
00000360: b3b4 9cbd 1f6d d9bc 4922 eebb ed44 bbbd
00000370: 6e46 dbbd 4b4b 04bd 5920 5c3d ebcb a93b
00000380: 9511 083d 49ff 963b bd44 5ebd 7def b2bd
00000390: de93 aabc 7597 10bd b97c e1bd 2a62 10be
000003a0: 2422 04be 979c 2cbe 172b 54bd 2576 bebc
000003b0: 837c a1bb 70bc f83c 757b 263d 7d6a 5b3d
000003c0: 6ab5 35bd 0017 cd3a ba42 e6bb a2cf 563d
000003d0: 84ea 883c a04d 083d a37f 283d bc8b 9b3d
000003e0: 2385 163d 7a4d 86bd 3f4a fa3b 9f8d 86bd
000003f0: 4846 5a3d d819 8cbb fcb2 a33b 70ed 93bc
-0.04056005 -0.013059636 -0.0077296183 0.08937535 0.12876984 0.13508332 0.076374404 0.11720182
0.11874425 -0.102420375 -0.043844353 0.11801457 -0.14318165 -0.06264434 -0.10403704 -0.05620813
-0.12946065 -0.13345073 -0.13372652 -0.14126946 -0.04332791 -0.15705737 -0.18632884 -0.18096404
-0.17822662 -0.20096 -0.19454876 -0.06120607 -0.100345746 -0.057640295 -0.029139549 -0.056374744
-0.05138081 -0.114601634 -0.105057225 -0.10904009 -0.037840456 -0.032041613 0.070123166 -0.009164086
-0.014692172 -0.030547634 -0.05364515 -0.07003159 -0.09382675 0.0008206687 -0.0032243459 -0.0695734
0.006928817 -0.021133723 -0.0066782883 -0.09074073 -0.078839585 -0.060604744 -0.061765864 0.005734205
0.049614843 -0.05483454 0.009152733 0.06775885 0.054785315 -0.008468917 -0.012209742 -0.018728364
-0.021926068 0.09043336 0.052048795 0.056669977 0.112788685 -0.031028397 -0.017349763 -0.018414952
-0.020376557 0.06640302 -0.006662755 0.027033804 0.046398833 -0.03363812 0.11660609 0.07947515
-0.0008657223 -0.10303409 -0.013394054 0.07455965 -0.107147336 -0.0022563068 0.032715425 0.100660704
0.043680448 -0.026361763 -0.14873183 -0.06578262 -0.053474937 -0.10284457 -0.08395606 0.006805703
0.08877665 0.048727766 0.108218856 0.051591948 0.030109843 -0.070606895 0.15743355 0.044426978
0.033571646 -0.05384064 -0.029963674 -0.065732434 0.044520516 0.04120575 0.107411936 0.13411684
0.12981246 0.09961392 0.12270974 0.10569181 0.033140928 -0.003513828 -0.054007344 0.032717135
-0.040851977 -0.06910018 -0.052542884 -0.021571998 -0.12029356 -0.04120889 0.114030205 -0.0885162
0.038210534 -0.11588947 -0.08299578 -0.037752233 -0.17347878 -0.12625636 0.031024372 -0.01992309
-0.0065393355 0.02931341 -0.046966657 -0.07770862 -0.011594894 -0.058151037 -0.05476489 0.008797408
-0.11247083 0.008566211 0.23010148 -0.10678185 -0.010544035 0.032529183 0.05611932 -0.01976093
-0.1399733 -0.032687195 -0.033993278 -0.033001844 -0.04713689 -0.07045258 -0.034119718 -0.043195702
-0.012689371 -0.025443217 -0.03909903 0.08561622 -0.011683209 0.08325049 0.085553944 0.04557514
0.13726504 0.17787881 0.11577755 0.06335319 0.062242884 0.01834712 -0.037543118 -0.01403485
-0.011301523 -0.11552542 -0.08772605 -0.10887154 -0.053598292 -0.031350996 0.0038595728 -0.020982264
-0.0018853949 -0.022054922 -0.011961499 -0.037390474 -0.15078074 0.112242594 0.089991085 0.108067274
0.12543836 0.17324553 0.112049155 0.010551239 -0.008316132 -0.031046115 -0.017543921 0.03958319
0.05492681 -0.053012036 -0.032747936 -0.048071414 -0.102576576 -0.06527259 -0.060689036 -0.05258778
-0.04393764 -0.06196816 -0.061067656 -0.0675405 -0.08922997 0.031444788 -0.07517116 -0.09733506
-0.07651653 -0.02654129 -0.0072672707 -0.09144006 -0.10706793 -0.032298367 0.053741787 0.0051817796
0.033219893 0.004608069 -0.054264773 -0.08737085 -0.020822462 -0.03530069 -0.11010117 -0.14099947
-0.12903649 -0.1685661 -0.051798906 -0.023249695 -0.004928173 0.030363292 0.04064508 0.053568352
-0.044362463 0.0015647113 -0.0070269974 0.052444108 0.016713388 0.033277154 0.04113735 0.075950116
0.036748063 -0.06557746 0.0076382454 -0.06569981 0.05328968 -0.0042755418 0.004995702 -0.018057555

layer3.0.bias f4 [64]
00000000: bb12 c8ba ac45 b6b9 e734 6abc 55f2 40bc
00000010: 2fd6 81bc f295 d1b9 b83e 5abc bbb1 4b38
00000020: f5c0 07bc f90c c5bb fdd5 8a3c c01f 81bc
00000030: 559b fbbb 0f11 b43a d303 b5bb e67e e03b
00000040: e443 8f3c 57a1 193c fea9 173c 972e d6ba
00000050: 078d 56bb 0d06 a63b 0913 213c 2a8f 413c
00000060: 411c e23b 70cd 1f3c c1f0 863b ddc2 aab9
00000070: 108d 6cbb 2b95 68bc 8e9b 95bc 6034 91bc
00000080: f34c 6b3c ccd7 973b 5391 893c 68b6 63bc
00000090: a5a9 7e3c a6c7 93bc 72e8 5cbb 799c 073c
000000a0: 402d 8cbc a61f 493c dec3 8abc a076 473c
000000b0: f7e7 793c fd1d 673c 6c39 d739 f060 303c
000000c0: ce54 073c a800 713c 1d23 8fbc 68d1 90bc
000000d0: 5e69 49bc 7b01 863c c825 c83b 7692 bfba
000000e0: 000e 8bbb 9c6e 443c 4d7a 533c bc62 65bc
000000f0: c02c 38bb c698 453c cd5f 51bc 5abe 4b3c
-0.0015264371 -0.00034765655 -0.014294839 -0.011776526 -0.015849201 -0.00039975304 -0.013320617 4.8564496e-05
-0.008285751 -0.0060135094 0.01694774 -0.01576221 -0.007678429 0.0013737994 -0.0055241375 0.006851065
0.017488427 0.009376845 0.009256838 -0.0016340789 -0.0032737867 0.0050666393 0.0098311985 0.011813918
0.006900341 0.00975357 0.0041180556 -0.0003257011 -0.0036094822 -0.014195721 -0.01826265 -0.01772517
0.014361608 0.0046338793 0.016792929 -0.0138984695 0.015543376 -0.018039536 -0.0033707884 0.008277052
-0.01711142 0.012275612 -0.0169391 0.0121742785 0.015253059 0.014106271 0.00041050778 0.010765299
0.008259965 0.014709629 -0.017472798 -0.017677978 -0.012293188 0.016358128 0.0061080195 -0.0014615792
-0.0042436123 0.011989262 0.012907577 -0.014000591 -0.0028102845 0.01206035 -0.012779188 0.01243552

layer3.1.weight f4 [64]
00000000: 0e04 223f 97d8 333f e87c 863f 932c b33f
00000010: 848c be3f 1365 a83f 6957 8f3f 4d5c 9a3f
00000020: 0f22 693f e177 043f 04b4 323f 86c3 6c3f
00000030: 37d2 eb3e 5acb 7c3f 53a7 733f 1c82 803f
00000040: aa86 b63f d92a a83f 4061 593f 5600 343f
00000050: de5a a03f 9d62 a83f ccee 553f 58a9 6e3f
00000060: b716 303f b551 783f dd1f 613f 421b 8d3f
00000070: d384 713f c3cc 8f3f cb20 653f b570 993f
00000080: e990 643f 8d7a 403f aae6 4d3f babc 953f
00000090: 3ce2 913f d6cb b53f f42d 703f 9c1c b73f
000000a0: a533 b73f efc6 593f d3b1 4a3f 1814 5b3f
000000b0: 737f 683f c742 933f 06fd 4e3f 4e14 aa3f
000000c0: 56f1 7e3f 57c5 903f 9a69 a43f 58e3 783f
000000d0: cdf6 763f fa86 873f a009 8f3f 90ed 843f
000000e0: d004 253f e424 773f fb3c 613f d876 3b3f
000000f0: c032 793f 9e45 8b3f e2d7 3a3f d37d 4c3f
0.63287437 0.70252365 1.0506868 1.3997978 1.4886632 1.3155845 1.119855 1.2059418
0.91067594 0.5174542 0.6980593 0.92485845 0.4605882 0.9874779 0.9517719 1.0039706
1.4259846 1.3138076 0.84914017 0.7031301 1.252773 1.3155094 0.835675 0.9322715
0.6878466 0.96999675 0.87939245 1.1023943 0.943433 1.1234363 0.89503163 1.198752
0.89283615 0.75187 0.8043009 1.169822 1.1397166 1.4202831 0.9382012 1.4305606
1.4312636 0.85069174 0.7917759 0.85577536 0.9081947 1.1504754 0.80854833 1.3287446
0.99587 1.1310223 1.2844727 0.972219 0.9647034 1.0588067 1.1174812 1.0384998
0.6446047 0.96540666 0.87983674 0.73228216 0.97343063 1.088062 0.7298566 0.7987949

layer3.1.bias f4 [64]
00000000: e756 2cbf 8dae 8bbe 0419 07bf 2bfd cdbe
00000010: b5cd 63bf 591d 83bf 0c5b 09bf d7d1 1bbf
00000020: 1729 58bf b503 ea3e 52ac dfbe 7fd6 06bf
00000030: 4e9f 99be dab2 d0be 291f 11bf 959e 2bbf
00000040: aff1 7dbf c2c8 6ebf 8750 45bf 920b 69be
00000050: 9d53 3abf 030d 66bf a0c0 30bf 36e2 e8be
00000060: 8c32 c9be 4d61 65bf d275 0dbd 67e4 f2be
00000070: dd10 02bf 9a81 3abf ebec 05bf 5d2b 5dbf
00000080: 084e febe 8a3b 8ebe 4d75 93be 3fad 55bf
00000090: 376b 15bf 9a19 5cbf 6fb7 b2be dc8f 55bf
000000a0: 9976 9dbf 1910 a7be 1cb2 f9be 1e3a bbbe
000000b0: 3fd6 b6be 2839 f7be 0970 c1be 6d74 4bbf
000000c0: 99f0 22bf 68a3 11bf d5fc 1fbf 0917 19bf
000000d0: 398d dfbe f2f3 28bf 6fca e2be 837f 35bf
000000e0: ecef 40bd e60b 19bf 93eb d9be ab71 abbd
000000f0: b745 13bf 861a e9be ece5 69be 8e49 9fbe
-0.673201 -0.2728161 -0.52772546 -0.40232214 -0.8898576 -1.0243331 -0.5365455 -0.60867065
-0.844377 0.45705953 -0.43686157 -0.52671045 -0.30004352 -0.40761453 -0.5668817 -0.6703885
-0.99196905 -0.9327508 -0.77076 -0.2275832 -0.72783834 -0.89863604 -0.6904392 -0.45485085
-0.39296377 -0.89601594 -0.03453619 -0.47439882 -0.5080698 -0.72854006 -0.52314633 -0.8639429
-0.49668908 -0.277798 -0.2880043 -0.8346748 -0.5836672 -0.85976565 -0.34905574 -0.83422637
-1.2301818 -0.3262947 -0.487687 -0.36567777 -0.35710332 -0.48285794 -0.3778079 -0.79474527
-0.6364837 -0.56889963 -0.62495166 -0.59800774 -0.43662432 -0.6599723 -0.4429507 -0.7089769
-0.047103807 -0.5978378 -0.4256254 -0.0837129 -0.5752825 -0.45528048 -0.22841614 -0.31110805

layer3.1.running_mean f4 [64]
00000000: d44c 04bf 5a8d febf 5407 93c0 58cd b2c0
00000010: 7810 41c0 36ca 8fc0 2c20 90c0 74b7 fbbf
00000020: ee60 bdc0 8daf 3dc0 3c85 3cc0 ee37 58c0
00000030: 9c4b 8a3f 17c0 82c0 df1d 24c0 312a d9bf
00000040: fb34 cfc0 39c0 84c0 e4ca 2ec0 0211 f6bd
00000050: b503 93c0 2f74 98c0 ab9e a0c0 c45d e1c0
00000060: db6f c73f 77a2 a8c0 96ed bdc0 78ce 22c0
00000070: 8a30 7dc0 27ba 2fc0 f396 44c0 b767 b6c0
00000080: a4a6 a0c0 ebef 4fc0 01e3 28c0 4de6 9cc0
00000090: 1957 6fc0 3746 95c0 7f26 a7c0 e874 81c0
000000a0: 503d adc0 56e7 5fc0 3b9c 98c0 718c 87c0
000000b0: 59a9 89c0 82a0 e1c0 87d0 edbf 24de 9bc0
000000c0: d19b 203d 97c1 19c0 6917 eac0 cd63 63c0
000000d0: 927e 79c0 f0dd 65c0 d8a2 ebc0 ff9a 6bc0
000000e0: 3aa7 24c0 f10b 95c0 2dfe 75c0 8543 f5bf
000000f0: d1bc e8bf cbc7 4dc0 cf78 26c0 cdfb 1fc0
-0.5167973 -1.9886887 -4.5946445 -5.5875664 -3.0166302 -4.493434 -4.503927 -1.966536
-5.918082 -2.9638398 -2.945632 -3.3784137 1.0804324 -4.0859485 -2.5643232 -1.6966001
-6.4752173 -4.1484647 -2.7311335 -0.12014963 -4.5942025 -4.7641826 -5.0193686 -7.042696
1.558101 -5.269832 -5.935252 -2.5438519 -3.9560876 -2.7457368 -3.0717132 -5.7001605
-5.020342 -3.2490184 -2.6388552 -4.903113 -3.739691 -4.664821 -5.223449 -4.045521
-5.4137344 -3.4984946 -4.769071 -4.2358937 -4.3019223 -7.0508432 -1.8579262 -4.870867
0.039211098 -2.4024408 -7.3153577 -3.5529664 -3.8983502 -3.591671 -7.3636284 -3.6813352
-2.5727067 -4.6577077 -3.8436387 -1.916123 -1.8182622 -3.2153194 -2.6011236 -2.4997437

layer3.1.running_var f4 [64]
00000000: 6365 ba40 ab75 c640 55c3 3f41 a27d aa41
00000010: f70c a141 78b8 2241 1617 8841 62d8 4741
00000020: 6499 6a41 8648 3e41 2056 6541 ce4a f940
00000030: ebb4 da40 aca0 3741 4a73 d740 84d2 1041
00000040: 1db2 6741 6c76 7a41 f4d4 0041 ba6e 0641
00000050: 9e99 6141 5342 9441 00eb 3341 99f4 7941
00000060: d82a e540 93e1 1e41 2239 8d41 3ca0 3a41
00000070: c102 7741 7dfc 2841 baac 3c41 07e7 b541
00000080: 3827 d540 ab17 5941 07ee 0241 0495 9c41
00000090: 3358 8641 50cd b241 22fd 8241 082f a841
000000a0: 7b99 ce41 506a 0341 1290 2541 06d7 8941
000000b0: c8ef 1641 9e28 9841 635b 3741 d2a1 7441
000000c0: 5358 eb40 6928 8041 f6dd a841 d3e2 6a41
000000d0: 9bbf 1e41 b12c 7541 f48a a341 d241 6741
000000e0: 1d1d 5441 86d5 3941 1ed0 ce40 283a 1241
000000f0: d3d8 0b41 d869 8841 0e37 3441 e3b6 3241
5.8248763 6.201864 11.9851885 21.311344 20.13133 10.170036 17.011272 12.490328
14.662449 11.892706 14.333527 7.7903814 6.8345847 11.476727 6.7328234 9.051395
14.480985 15.653912 8.0519905 8.402033 14.100004 18.532385 11.244873 15.622216
7.16148 9.930072 17.652897 11.66412 15.438172 10.561643 11.79217 22.737806
6.6610374 13.568278 8.183112 19.572762 16.793066 22.35025 16.3736 21.022964
25.824942 8.213455 10.347673 17.229992 9.43354 19.019833 11.459811 15.289507
7.354532 16.019732 21.10838 14.680377 9.921779 15.323411 20.442848 14.453569
13.257108 11.61463 6.462905 9.139198 8.740436 17.051682 11.263441 11.16965

layer4.0.weight f4 [64, 64, 3, 3]
00000000: 369e 9cbb 8f0f 33be 60e7 65be 1a9e bb3c
00000010: 0af4 1dbe da4b 21be 700b 2bbd 769e 89bd
00000020: cfe7 4fbd be8b b5bc a3f8 563e 2d77 503e
00000030: 9775 673b 76fa 41bc 692f efbb e2b6 003d
00000040: 703d fdbd 599e d9bd 7d30 853b 6d38 f23c
00000050: a82f 073d 271f 14be 3fe1 96bd 78f4 21bd
00000060: a497 c7bc f7e3 46be 2498 1ebe 4edf 103e
00000070: d5a8 8c3d affc 26be b5c7 c5bd 6cdf 713c
00000080: 2094 05bd eaf3 0dbc bfa0 4bbd b2bb 88be
00000090: 929d 7dbc ceec c43d d8f5 453e e77c 663e
000000a0: 7f4c 9a3e 24a6 043f caf1 1b3e fc1e 133e
000000b0: fdab a93e efa7 20be dd3f 04be 97f2 0fbe
000000c0: e628 7dbd 0f9e 7cbe 5b37 26be f8aa a33c
000000d0: b618 65be d87e 2bbe b1cb dabb f790 b93e
000000e0: 91c5 783e 028d 62be 1a56 00be 5d3f 20be
000000f0: 9575 ff3c 83e7 a0bd 01ca 543e b189 ddbd
00000100: 4591 43be de1c 09be 3cb5 8dbd c1d6 0abd
00000110: 1a7e 8e3d eaf0 edbd da05 f6bd 8e47 ce3b
00000120: 3062 f8bd 143c 03be f7a8 a7bd 8573 03be
00000130: c9d4 32be 9e47 6cbe 7c42 11bb 290f ecbd
00000140: 8ff7 25bd bbcf cb3d 7ea1 4bbc abbf b4bc
00000150: ccbb dd3d b58a fabc a323 213d d9c6 063e
00000160: eb4f b93c bebd 71bc 8007 23ba ffdf db3e
00000170: a899 d13e caba 40be 95ec 47bc 54ce 583b
00000180: 50de 46be f272 37be 89c3 83bd f80d 39be
00000190: e448 5fbe 830b 89be 071d 40be 7126 09be
000001a0: dfd4 54be 4914 8dbe 3b97 d7bd bc0f c6bd
000001b0: ae00 81be 06f5 2b3d 1797 cfbd a94b 663d
000001c0: 28ed 1e3e 0adc a23d 4662 ca3d 3e62 ff3d
000001d0: 8d83 4f3e 1d09 28bd 3cab 4ebe 6056 853d
000001e0: 1fe5 833d 8911 a4bc 512f eebd 2cff bfbd
000001f0: a0c0 e23d 518c f53c 6a3e acbd a10d acbd
00000200: 92fd 743b a8a3 4abe 6234 59be fde3 a4bd
00000210: 7e74 b2bc bad8 873d f744 433e 2ef1 fcbc
00000220: 36ed bd3d e2c5 993d 1061 13be 79e2 24be
00000230: 7b70 2bbe 326c dabc 3e99 27be 78e9 7e3d
00000240: 4aca 5bbd 7649 fdbd 3e13 a6bc d2c7 423d
00000250: cc06 4dbe ecdf 7abd ce66 403e 91b9 72bd
00000260: e0ab 0d3b d79e 84bd 59fb ed3c fef9 e7bd
00000270: 9eff 053e 2509 0f3e e7cf 4c3e e73f 07bc
00000280: 2502 c8bd c200 653d 0eff d3bd 6630 82bd
00000290: 0b54 f7bd 0a37 6c3d 1e7f af3d cd3c 773d
000002a0: fbbc 8fbd 626b 86bd 2b86 f3bd 0655 43bd
000002b0: c223 313d 0d69 3fbd 1027 2f3c 9ff9 e1bd
000002c0: e493 61bd 2bcb acbd 3363 e7bd 7d98 9dbd
000002d0: 7936 1bbb be68 abbd 752c 7ebc ecc6 f8bc
000002e0: cd6e 23be 9525 7c3d ab89 f73d 34eb a0bd
000002f0: 4e81 703d 2eb7 a4bd 43ee 47be f9a8 e4bd
00000300: 6a42 b73c 1c89 5bbe 6546 ebbb 8502 393d
00000310: 174a 45be 7d69 f4bd b791 e2bd 2a5d 973d
00000320: a885 07bc 6f36 f1bd b8d9 ac3b d192 c3bc
00000330: 487f 83bd bfa2 29be 937e 2cbd 5d52 f9bd
00000340: 10ce 8f3d d784 723d 7908 21be b101 d7bd
00000350: fa13 8b3d ee3c 913d 38e2 b43c 1d19 9e3d
00000360: 65a7 79be 23f7 a9be e4cb b0be 0f2b 373d
00000370: 4779 c8bd 9cc8 eebd 709e f33d b35f c83c
00000380: 8619 6f3d e32b 243d ee90 5d3e 1e95 803e
00000390: b53e 1dbe df0f 2f3d 93d2 d8bc 84db 70bd
000003a0: 247e 07be 9c06 41bd a784 91bc 7872 77bd
000003b0: ae9e b6bc 47be f83d 8f76 233d 8e75 2f3d
000003c0: 1e39 1e3d 478e b4bc 4ef7 04be 8dbf 263d
000003d0: f742 653c 3d45 8a3c d868 773d cba7 dc3d
000003e0: 6a29 e43c 7d1e 333d a08f 023e b530 443d
000003f0: b5df b23e def9 9c3d 7f05 3aba dd27 503d
-0.0047796024 -0.17486404 -0.22451544 0.022902537 -0.15425125 -0.15751591 -0.041758955 -0.06719677
-0.05075818 -0.02216136 0.20993285 0.20357962 0.0035317892 -0.0118395 -0.007299353 0.03142441
-0.12365234 -0.106259055 0.004064618 0.029567922 0.033004433 -0.14465009 -0.07367181 -0.039539784
-0.0243643 -0.19422899 -0.15487725 0.14147684 0.0686814 -0.16307329 -0.09657232 0.014762741
-0.032611966 -0.008664111 -0.049713846 -0.267057 -0.015479462 0.096154794 0.19332063 0.22508584
0.30136487 0.5181601 0.15228954 0.14367288 0.3313903 -0.15689062 -0.12914987 -0.14057384
-0.061806582 -0.2466967 -0.16232054 0.019978985 -0.22372708 -0.16747606 -0.006677114 0.36243412
0.24294116 -0.22124103 -0.12532845 -0.15649171 0.031183997 -0.07856657 0.20780183 -0.10817278
-0.19098385 -0.13389918 -0.06919333 -0.03389621 0.06957646 -0.11618216 -0.12012835 0.006295151
-0.12128103 -0.12815887 -0.08186524 -0.12837036 -0.17463984 -0.23074195 -0.0022164872 -0.11526329
-0.040519293 0.09951731 -0.012428639 -0.02206405 0.10826835 -0.030583719 0.039340626 0.13161792
0.022621116 -0.014754711 -0.0006219074 0.42944333 0.40937543 -0.18821254 -0.012202402 0.0033081966
-0.19420743 -0.17914942 -0.0643378 -0.18071735 -0.2180515 -0.26766595 -0.18761073 -0.1339357
-0.20784329 -0.2755454 -0.10526892 -0.0967097 -0.2519583 0.04198172 -0.1013624 0.0562245
0.15520155 0.07952125 0.098820254 0.1246991 0.20265026 -0.041024316 -0.20182508 0.06510615
0.06440186 -0.020027893 -0.11630119 -0.09374842 0.110718966 0.029974135 -0.08410342 -0.08401037
0.0037382585 -0.19788992 -0.21211389 -0.08051298 -0.021784063 0.06633134 0.19069277 -0.030876722
0.0927376 0.07508446 -0.14392495 -0.16102017 -0.16742127 -0.02666292 -0.16367051 0.062234372
-0.053659715 -0.12367527 -0.020272847 0.047553845 -0.20022124 -0.061248705 0.18789217 -0.059259
0.0021617338 -0.06475609 0.029050516 -0.11326979 0.13085791 0.13968332 0.20001183 -0.008254982
-0.09766034 0.055908926 -0.10351382 -0.063568875 -0.12076577 0.057669677 0.085691676 0.06036072
-0.07018467 -0.065634504 -0.11890825 -0.047688507 0.043246992 -0.046731044 0.010690466 -0.110339396
-0.05507268 -0.08437189 -0.112982176 -0.076951005 -0.0023683591 -0.08369587 -0.015513529 -0.03036829
-0.15960236 0.06155928 0.12086805 -0.078573614 0.058717065 -0.08042751 -0.19524483 -0.111650415
0.022370536 -0.21439022 -0.0071800225 0.04516842 -0.19266544 -0.11934183 -0.11062949 0.073908165
-0.008271612 -0.117779605 0.0052749775 -0.023873718 -0.06420761 -0.16565989 -0.042112898 -0.12173913
0.07021725 0.059208717 -0.15725888 -0.104983695 0.067909196 0.070916995 0.022080526 0.07719634
-0.24380262 -0.33196363 -0.34530556 0.0447188 -0.09788757 -0.11659357 0.11895454 0.024459695
0.05837395 0.040080916 0.21637318 0.25113767 -0.15355952 0.042739745 -0.026467597 -0.058803096
-0.13231713 -0.047125444 -0.017763449 -0.0604119 -0.022292461 0.121456675 0.03990799 0.04283672
0.03862869 -0.0220405 -0.12984964 0.04071002 0.013993016 0.016878719 0.06040272 0.107741915
0.027851779 0.043730248 0.12750101 0.047898013 0.349363 0.07664846 -0.0007096156 0.050819267

layer4.0.bias f4 [64]
00000000: be2c 843c cd7f 033b b3ee 643b 4308 3dbc
00000010: b2e1 7cbc 66f0 91bc 6b05 bd3b 6d43 d8bb
00000020: 6b2f 53bc 2504 22bc 6cb1 053c 6029 2d3c
00000030: b7d8 16bc 097e 23bc 207d 3bbc 0f0a 13bb
00000040: 660a 8f3c 1718 35bc 65fb 413a 9db0 4abc
00000050: 315d 2a3c db25 00bc 050d 5cbc 1db3 453b
00000060: 2e72 d7ba cd5a 843c 2b60 063c 2b2e 3dbc
00000070: 55ab 413c 1af1 933c 4141 04bc cdf4 bdbb
00000080: 4931 103c dae6 423b 6c9c dc37 d3eb 193c
00000090: e352 a1bb 66cd 1a3c b2f2 723b 5b0d 19bc
000000a0: fae0 593c 9c41 233b 8623 09bc c36a 0f3c
000000b0: 9cbe 0b3c d706 313c 9270 c23b 77b8 92bc
000000c0: e249 1f3c 490e 043c dbff 8fbc cd53 c2bb
000000d0: 6491 86bc e002 ebbb 1770 1a3b c536 8fbc
000000e0: 560d fb3b 5122 59bc 0f8e d63b 2170 a63b
000000f0: bb76 92bc 9c6b 613c b6b2 06bc 2ca7 7c3c
0.016134616 0.002006519 0.0034932315 -0.011537614 -0.015434669 -0.017814826 0.005768468 -0.0065998347
-0.012889723 -0.009888683 0.008159976 0.010568947 -0.009206942 -0.00997878 -0.011443406 -0.0022436415
0.017461013 -0.011053107 0.00073998264 -0.012371209 0.010398195 -0.007821525 -0.0134308385 0.0030166574
-0.0016437226 0.016156578 0.008201639 -0.011546652 0.011820634 0.018059302 -0.008072198 -0.005797005
0.008800813 0.002973965 2.6298883e-05 0.009394604 -0.004923211 0.009448385 0.0037070927 -0.009341563
0.0132982675 0.0024910932 -0.008370286 0.008753481 0.008529332 0.010804853 0.0059338296 -0.017910225
0.009722205 0.0080600465 -0.017578056 -0.0059304 -0.01642675 -0.0071719736 0.0023565346 -0.01748217
0.007661502 -0.013252811 0.0065476964 0.005079285 -0.01787888 0.013758566 -0.008221319 0.015420716
