results/RENet-dataset-Conv64F-5-5-Jan-08-2024-20-55-23/checkpoints/emb_func_00060.pth (torch, 463459 bytes, 24 tensors)

layer1.0.weight f4 [64, 3, 3, 3]
0	0x3f0a05c1	0.5391503
1	0x3e5e3638	0.2170037
2	0xbe4473b5	-0.19184764
3	0xbf682cb2	-0.906932
4	0xbf4cd87a	-0.8001782
5	0xbea46390	-0.3210721
6	0x3eab5948	0.33466554
7	0x3f3df5d7	0.74203247
8	0x3f56f8f6	0.83973634
9	0x3f1e0084	0.61719537
10	0x3d7614dd	0.06007849
11	0xbeaefd16	-0.34177464
12	0xbfb92bc1	-1.4466478
13	0xbfae113e	-1.3599012
14	0xbf3c9c52	-0.73676026
15	0x3e1621a1	0.14661266
16	0x3f41fa2c	0.75772357
17	0x3f598ead	0.8498333
18	0x3f676f4d	0.90404207
19	0x3e991456	0.29898328
20	0xbdf81871	-0.12114037
21	0xbf5a0f11	-0.8517924
22	0xbf66adac	-0.9010875
23	0xbec4ce8d	-0.38438836
24	0x3e8bb2dc	0.27284896
25	0x3f52c747	0.82335323
26	0x3f60c426	0.877993
27	0xbe477377	-0.1947764
28	0xbe3d2b24	-0.18473488
29	0xbe4cbfa7	-0.19994985
30	0xbe64dcf7	-0.22349916
31	0xbe0efd24	-0.13963753
32	0xbe6f916f	-0.23395322
33	0xbdb280d9	-0.08715982
34	0xbd8d4960	-0.06898761
35	0xbdbf661e	-0.09345649
36	0xbd5eda99	-0.05440769
37	0x3b7e1f60	0.0038776025
38	0xbd2d0775	-0.04224344
39	0xbd02a0b9	-0.03189156
40	0x3c6e1583	0.014531496
41	0xbd5e3f14	-0.054259375
42	0x3d50f758	0.051017135
43	0x3d85fca2	0.065423265
44	0x3d55b63c	0.052175745
45	0x3d4fa3e9	0.050693426
46	0x3dc94d81	0.09829236
47	0x3d69fffa	0.057128884
48	0x3d625b8c	0.055263087
49	0x3e02ace7	0.1276127
50	0x3dbde197	0.092715435
51	0x3e1fb18e	0.15595075
52	0x3e4379c9	0.19089426
53	0x3e217095	0.15765603
54	0x3db98857	0.09059208
55	0xbd455ab2	-0.048182197
56	0x3c29b826	0.010358846
57	0xbe7d17f9	-0.24716176
58	0xbebc79f4	-0.36811793
59	0xbecc5298	-0.39906764
60	0xbe4b2e0d	-0.19841786
61	0xbe53dc2a	-0.20689455
62	0xbe5d0577	-0.21584116
63	0x3ee08a73	0.43855628
64	0x3ebb358b	0.36564288
65	0x3eda01a7	0.42579386
66	0x3e4aa319	0.1978878
67	0x3e02a603	0.12758641
68	0x3dee9f51	0.11651481
69	0xbd6d4f37	-0.057936873
70	0xbdcab910	-0.09898579
71	0xbd958485	-0.07300667
72	0x3e433ebc	0.190669
73	0x3e13b84a	0.1442577
74	0x3e605009	0.21905531
75	0x3dab24e2	0.08356644
76	0x3c5b1f84	0.013374213
77	0xbd6026de	-0.054724567
78	0xbe5fd576	-0.21858773
79	0xbe6748a5	-0.22586305
80	0xbe6caac5	-0.23112018
81	0x3f3e24d9	0.74274975
82	0x3f2f8d9f	0.6857547
83	0x3f3810bb	0.7190053
84	0xbd9634f6	-0.0733432
85	0xbe8a4ee9	-0.2701333
86	0xbecdd5b1	-0.40202096
87	0xbe8ff7cd	-0.28118744
88	0xbf314d80	-0.6925888
89	0xbf51d634	-0.81967473
90	0x3f4043b1	0.7510329
91	0x3f3a7327	0.7283196
92	0x3f68bbf3	0.9091179
93	0x3d1c2f19	0.038130853
94	0xbe0fb914	-0.14035445
95	0xbe52af71	-0.20574738
96	0xbe551b7e	-0.20811269
97	0xbf32b04a	-0.69800246
98	0xbf481866	-0.7816223
99	0x3ec1a673	0.37822303
100	0x3edbb496	0.42911214
101	0x3f1a32b6	0.6023363
102	0xbc8b6560	-0.017016113
103	0xbde91679	-0.113812394
104	0xbe4c6417	-0.19960056
105	0xbd4e695c	-0.050393447
106	0xbf07b593	-0.53011435
107	0xbf1398c4	-0.57654977
108	0x3eb72034	0.35766757
109	0x3ea55779	0.322933
110	0x3e8dcc89	0.2769511
111	0x3e262d64	0.16228253
112	0xbd3e501a	-0.04646311
113	0x3d57e4a3	0.05270828
114	0xbdeb4b3f	-0.114889614
115	0xbef09b7d	-0.46993628
116	0xbeab8d20	-0.33506107
117	0x3e62be11	0.22142817
118	0x3e58e20e	0.21179983
119	0x3e753bde	0.23948619
120	0x3dc596bf	0.09647893
121	0xbd52193f	-0.051293608
122	0x3ce67241	0.028130652
123	0x3d75a0b5	0.059967715
124	0xbe618087	-0.22021686
125	0xbd8d0bad	-0.068869926
126	0x3ddecb41	0.10878611
127	0x3dcdbd6f	0.10045897
128	0x3e20541a	0.15657082
129	0xbd4792c9	-0.04872397
130	0xbe0824fb	-0.13295357
131	0xbc498076	-0.012298694
132	0xbddcbd3e	-0.107782826
133	0xbe93eccf	-0.28891608
134	0xbdff0541	-0.12452174
135	0x3dc289d6	0.09498946
136	0x3dc46e72	0.09591378
137	0x3d8bf39d	0.06833575
138	0x3df54553	0.11976113
139	0x3e404746	0.18777189
140	0x3e5a7c57	0.21336494
141	0x3e26207e	0.16223332
142	0x3e49e267	0.19715272
143	0x3e1f1cc9	0.15538324
144	0xbe57afe4	-0.2106319
145	0xbe5f0a79	-0.21781339
146	0xbe58130f	-0.2110102
147	0xbeb51105	-0.35364547
148	0xbeb12f9a	-0.3460663
149	0xbeb08ca9	-0.34482315
150	0xbeb8ed4d	-0.36118546
151	0xbeb99aae	-0.36250824
152	0xbeaff694	-0.34367812
153	0x3ecc37f5	0.39886442
154	0x3ec3a716	0.38213414
155	0x3e97762a	0.2958234
156	0x3e602fd4	0.21893245
157	0x3e45bb2d	0.19309683
158	0x3e5beeb2	0.21477774
159	0x3e1dfd90	0.15428758
160	0x3e14df03	0.14538197
161	0x3e0e3ad4	0.13889629
162	0xbf46ef23	-0.77708644
163	0xbe210a14	-0.15726501
164	0x3efdf3aa	0.49599963
165	0xbf3212cb	-0.69559926
166	0x3e148b70	0.14506316
167	0x3ec189ae	0.37800354
168	0xbe622207	-0.22083293
169	0x3dd48254	0.103764206
170	0x3e512ce9	0.20427288
171	0xbf1a6092	-0.60303605
172	0x3e019ff3	0.12658672
173	0x3f3fdb5c	0.7494409
174	0xbf3697f6	-0.71325624
175	0x3ebe48a7	0.37164804
176	0x3f120cdd	0.5705088
177	0xbeae5632	-0.34050137
178	0x3dd2e2af	0.10297143
179	0x3e1821c5	0.14856632
180	0xbef7300e	-0.4827885
181	0x3d5117a3	0.051047932
182	0x3f1753b0	0.5911207
183	0xbf2b29be	-0.6686057
184	0x3e5f10e0	0.21783781
185	0x3ec690f1	0.38782457
186	0xbecc5e33	-0.39915618
187	0xbdb79774	-0.08964434
188	0xbc99fea0	-0.018798172
189	0x3f651400	0.8948364
190	0x3f8cd28b	1.1001753
191	0x3f8f7742	1.120827
192	0xbf1fc8a6	-0.6241554
193	0xbf685648	-0.90756655
194	0xbf0edd76	-0.5580667
195	0xbea6dbfe	-0.32589716
196	0xbe843a45	-0.25825706
197	0xbee04cce	-0.43808597
198	0x3e35e5df	0.1776347
199	0x3eda9239	0.42689684
200	0x3eee07a2	0.46490198
201	0xbf0bcb57	-0.54607147
202	0xbf77fd8b	-0.9687125
203	0xbf1c289a	-0.60999453
204	0x3ebcd2e0	0.36879635
205	0x3f030cb4	0.5119126
206	0x3deaaf94	0.1145927
207	0xbe1c36cc	-0.15255278
208	0x3d3cbc15	0.046077807
209	0x3db35309	0.08756072
210	0xbe97483e	-0.29547304
211	0xbf23a828	-0.6392846
212	0xbeab3f43	-0.33446702
213	0x3f229686	0.6351093
214	0x3f49768a	0.786965
215	0x3eda788e	0.426701
216	0xbf805ea8	-1.0028887
217	0xbf6e8ace	-0.9318055
218	0xbeb22427	-0.34793207
219	0xbf06183a	-0.52380717
220	0x3ea5c059	0.32373312
221	0x3f530897	0.8243498
222	0x3e6e792a	0.23288408
223	0x3ec6acd6	0.38803738
224	0x3eaf1130	0.341928
225	0xbf5077a3	-0.8143255
226	0xbf791d2c	-0.9731014
227	0xbec3f4c7	-0.38272688
228	0xbe7f635a	-0.24940243
229	0x3f26483a	0.6495396
230	0x3f8b4839	1.0881416
231	0x3eee57fa	0.46551496
232	0x3f1c8268	0.61136484
233	0x3f07547f	0.52863306
234	0xbefb9cd7	-0.49143097
235	0xbf4478eb	-0.76747006
236	0xbeaa932c	-0.33315408
237	0xbe8e7a1e	-0.27827543
238	0x3ee203f6	0.44143647
239	0x3f4668e1	0.7750378
240	0x3d742f39	0.059615348
241	0x3e4c65b0	0.19960666
242	0x3cdea62c	0.027178846
243	0xbd72f913	-0.059319567
244	0xbd889862	-0.0666969
245	0xbe17a6b6	-0.14809689
246	0xbd33182e	-0.04372423
247	0xbde73278	-0.11288923
248	0xbd7fa105	-0.06240942
249	0xbd4e55d2	-0.050374813
250	0xbd9dbb7d	-0.07701776
251	0xbd329013	-0.04359443
252	0xbd77cb2f	-0.060496505
253	0xbddd4357	-0.1080386
254	0xbe103c2a	-0.14085451
255	0xbd9f599d	-0.07780764

layer1.0.bias f4 [64]
0	0x3c1b9102	0.009495022
1	0xbcca5065	-0.024696538
2	0x3b9e1a3c	0.0048249047
3	0x3ccf609f	0.025314627
4	0x3ca9bc53	0.020719683
5	0x3cd791dd	0.02631467
6	0x3c8843c7	0.016633881
7	0xbb268d6d	-0.0025413886
8	0x3c037359	0.0080231065
9	0xbc525f26	-0.012840068
10	0x3cd5ac2b	0.026083073
11	0x3c7c151f	0.015385895
12	0xbcb83e73	-0.022490716
13	0x3cd9a875	0.026569584
14	0xb9ef1472	-0.00045600865
15	0xbab30564	-0.0013658223
16	0xbc09c9c8	-0.008409925
17	0xbc04d5a5	-0.008107577
18	0x3ac99579	0.0015379629
19	0xbc75c844	-0.01500136
20	0xbcea28d1	-0.028583916
21	0xbc81aae6	-0.015828561
22	0xbbc85f22	-0.0061148563
23	0x3cbe1721	0.023204388
24	0x3cb92f3e	0.022605535
25	0xbc96d29c	-0.018410973
26	0xba9aa9fe	-0.0011799929
27	0xbc114b27	-0.008868015
28	0xbc86aa33	-0.01643858
29	0xbbb10f11	-0.0054034074
30	0xbc2eafab	-0.010662
31	0x3c8cb3d2	0.017175589
32	0xbc79ae3a	-0.015239293
33	0x3b9aeba8	0.0047277994
34	0xbc8e0d9f	-0.01734048
35	0xbc1d21e0	-0.009590596
36	0x3cc62a69	0.024190145
37	0xbc772a5a	-0.015085781
38	0xbaf22ecb	-0.001847708
39	0x3cf069bd	0.029347295
40	0x3c2c5095	0.010517259
41	0xbc802129	-0.015640812
42	0xbc972312	-0.01844934
43	0xbc308c67	-0.010775662
44	0xbc1da83c	-0.00962263
45	0x3c5b32bc	0.013378795
46	0xbbdfdc51	-0.0068316837
47	0x3cd44d9e	0.025915917
48	0xbc8a1e52	-0.016860161
49	0xbc1d6eae	-0.009608908
50	0x3c374c40	0.011187613
51	0x3cc90b76	0.024541598
52	0x3cf0ccd2	0.029394541
53	0x3ba126eb	0.0049179695
54	0x3aa9c387	0.0012951948
55	0xbc6190f4	-0.01376747
56	0x3c8e3b32	0.01736221
57	0xbc91e9b2	-0.01781163
58	0xbc0454a7	-0.008076823
59	0xbcd264fd	-0.02568292
60	0xbcf1ff2e	-0.029540624
61	0x3c8cb3fa	0.017175663
62	0x3b08cf3d	0.0020875477
63	0x3cc8ab89	0.024495857

layer1.1.weight f4 [64]
0	0x3f80e3e6	1.0069549
1	0x3ed8b063	0.42322072
2	0x3ea678d8	0.3251407
3	0x3f486617	0.78280777
4	0x3f329561	0.69759184
5	0x3eddb6a2	0.433034
6	0x3f5b06fa	0.8555752
7	0x3f543844	0.82898355
8	0x3f6c2b0e	0.92253196
9	0x3e53a2b0	0.20667529
10	0x3f4b2d8c	0.79366374
11	0x3c92a866	0.017902564
12	0xbdda9fb3	-0.106749915
13	0x3edb922b	0.42884955
14	0x3e4e4790	0.20144486
15	0x3f1ff407	0.6248173
16	0x3ee3ec51	0.44516233
17	0x3f5d5013	0.8645031
18	0x3f11b06d	0.5690983
19	0x3f0d89d9	0.55288464
20	0x3e971e32	0.29515225
21	0x3e7ae349	0.24500765
22	0x3f7f51bd	0.997341
23	0x3cd71325	0.026254246
24	0x3ed78ac3	0.42098054
25	0x3ed7f0d9	0.4217594
26	0x3e77ff36	0.24218449
27	0x3f7d6cf1	0.98994356
28	0x3fa2c2d4	1.2715707
29	0x3ea260e8	0.3171456
30	0x3de4209f	0.111390345
31	0x3ee494cd	0.44644776
32	0x3f6b5a3a	0.9193455
33	0x3f489bbc	0.7836263
34	0x3eb0c5a9	0.34525803
35	0x3ef02759	0.4690502
36	0x3e48b14a	0.1959888
37	0x3f75973f	0.9593391
38	0x3ecca0e8	0.39966512
39	0x3ed79103	0.42102823
40	0x3e5b991c	0.21445125
41	0x3ebdac64	0.37045586
42	0x3eb2d228	0.34925961
43	0x3e8ce953	0.27521762
44	0x3f06f1ea	0.5271288
45	0x3e5b883e	0.21438691
46	0x3ee781e6	0.45216292
47	0x3f80f388	1.007432
48	0x3ec64bf3	0.3872982
49	0x3d8d01bb	0.06885096
50	0x3dbf9d79	0.093562074
51	0x3f975321	1.1822244
52	0x3eb60746	0.35552424
53	0x3f1d2383	0.6138231
54	0x3f15889c	0.58411574
55	0x3e7ea17d	0.2486629
56	0x3f08349c	0.53205276
57	0x3f26ee0d	0.65206987
58	0x3eee0df0	0.46495008
59	0x3f30f5ee	0.6912526
60	0x3f2fb267	0.68631595
61	0x3ef8ba21	0.48579505
62	0x3ea23eca	0.3168853
63	0x3ee46f79	0.44616297

layer1.1.bias f4 [64]
0	0x3dd788a2	0.105241075
1	0xbeb0fbe6	-0.34567183
2	0x3e8a1a91	0.26973394
3	0x3e397485	0.18110855
4	0xbf5ab468	-0.8543153
5	0xbe3c5b70	-0.18394256
6	0x3efad918	0.48993754
7	0x3e3ffefc	0.18749613
8	0x3e66bfd5	0.22534116
9	0xbec8e21a	-0.39235002
10	0x3ecdfebb	0.40233406
11	0xbd94acf5	-0.072595514
12	0x3d043eb8	0.032286376
13	0xbdaff0ea	-0.085908726
14	0x3e699a7b	0.22812836
15	0xbf0e913e	-0.5569037
16	0x3da7f546	0.08201079
17	0x3e029134	0.12750703
18	0xbf0cd54b	-0.5501296
19	0xbee3d440	-0.4449787
20	0xbea688fe	-0.32526392
21	0x3ddf67a4	0.1090844
22	0xbf794c27	-0.97381824
23	0xbdaf363a	-0.08555265
24	0xbe9ae83c	-0.30255306
25	0xbd960879	-0.07325835
26	0x3c8711fb	0.016488066
27	0x3f34001c	0.70312667
28	0x3cbdda7d	0.023175472
29	0x3ec71030	0.38879538
30	0x3d28696b	0.04111616
31	0xbecc0b08	-0.39852166
32	0x3e9347d2	0.28765732
33	0x3e700379	0.23438825
34	0xbe41d48d	-0.18928738
35	0xbefce3ea	-0.49392635
36	0x3c9b0e2a	0.018927652
37	0x3e6a6b06	0.22892389
38	0xbedc76de	-0.43059438
39	0x3d1943be	0.03741812
40	0x3ba7d487	0.005121771
41	0xbda1d4c8	-0.07901913
42	0x3d4155c9	0.04720095
43	0xbeb1b5b0	-0.3470893
44	0x3e8f94cd	0.28043213
45	0x3ebb57c8	0.3659041
46	0xbe9bbcf2	-0.3041759
47	0x3ee37ace	0.4442963
48	0xbe0ba5fe	-0.1363754
49	0xbe86dd8e	-0.26340908
50	0x3e40ed98	0.18840635
51	0xbfb3d150	-1.4048252
52	0x3e9729b6	0.2952401
53	0x3ea1c65d	0.31596652
54	0xbef07336	-0.469629
55	0x3e8ad9ea	0.2711938
56	0xbebd5297	-0.36977074
57	0xbf6f05dc	-0.93368316
58	0xbcdb795a	-0.026791263
59	0x3eaba260	0.3352232
60	0x3e6cc23f	0.23120974
61	0x3dbb4804	0.09144595
62	0xbe98302b	-0.2972425
63	0xbf04c5bc	-0.5186422

layer1.1.running_mean f4 [64]
0	0x3df991eb	0.12186035
1	0xbec21576	-0.37906998
2	0xbeb39eed	-0.35082188
3	0xbd8af4ac	-0.06784949
4	0x3debd799	0.11515731
5	0x3ec00bc9	0.3750899
6	0xbdc50967	-0.09620934
7	0xbc8bee5a	-0.017081428
8	0xbe0ee4c9	-0.13954462
9	0xbe819d15	-0.25315157
10	0x3d15d90a	0.036583938
11	0x3c586377	0.013207308
12	0xbe3738ed	-0.17892809
13	0xbd424863	-0.047432315
14	0x3eb67558	0.356364
15	0x3eba11bf	0.36341664
16	0xbf1d6d2e	-0.6149472
17	0xbd79de75	-0.061003167
18	0xbebd32fa	-0.36952955
19	0xbe07a611	-0.13246943
20	0x3cda4a29	0.02664669
21	0x3e26c579	0.16286267
22	0x3d1bbe92	0.03802354
23	0x3ddf5498	0.10904807
24	0xbe8515d9	-0.2599323
25	0xbf042a83	-0.5162737
26	0x3e2a4e5a	0.16631451
27	0x3dca7ce1	0.098871
28	0xbd5bb0bd	-0.053635348
29	0xbf114e04	-0.5675967
30	0x3d8b7cb8	0.068108976
31	0xbe948611	-0.29008535
32	0xbe56161a	-0.20906869
33	0xbdffce6a	-0.12490542
34	0xbe62011b	-0.22070734
35	0xbec267f8	-0.37969947
36	0xbcfbf4ce	-0.03075638
37	0xbd95747a	-0.07297607
38	0x3ddb968f	0.10722076
39	0x3e89826b	0.26857314
40	0xbe0e21e5	-0.13880117
41	0xbdb42c18	-0.08797473
42	0xbee369b3	-0.4441658
43	0x3d6f1a0b	0.058374446
44	0x3e2cd985	0.16879852
45	0xbda4e08f	-0.08050644
46	0xbeb893f2	-0.36050373
47	0xbdc4eaae	-0.09615074
48	0xbd96c883	-0.07362463
49	0xbdd1e56f	-0.10248839
50	0x3e188c09	0.14897169
51	0x3ddbf4be	0.1074004
52	0x3dda6889	0.1066447
53	0xbe9a9067	-0.30188295
54	0xbecd1e14	-0.4006201
55	0x3c170aa2	0.009218844
56	0xbed4d505	-0.4156877
57	0x3d781086	0.060562633
58	0xbe55d2cc	-0.20881194
59	0x3df6a4f9	0.12043185
60	0xbde71230	-0.11282766
61	0xbf2a8407	-0.6660771
62	0x3d7c8d83	0.061658394
63	0xbd16ac34	-0.03678532

layer1.1.running_var f4 [64]
0	0x403fd2eb	2.9972484
1	0x3f59dbc6	0.8510097
2	0x3f82ae6f	1.0209483
3	0x40c92408	6.2856483
4	0x3f7b40a6	0.9814552
5	0x3f136d74	0.5758889
6	0x405a8fea	3.4150338
7	0x3fc250d6	1.5180919
8	0x40c1a8a8	6.051838
9	0x3f8b6ff7	1.0893544
10	0x4020bef0	2.511654
11	0x3dfef1b7	0.12448447
12	0x3ef51800	0.47869873
13	0x3f01883c	0.505985
14	0x3f0ce846	0.5504192
15	0x401193bf	2.2746427
16	0x402766f7	2.6156595
17	0x401af061	2.4209216
18	0x3f9f1486	1.2428138
19	0x3ff69018	1.9262724
20	0x3e3a8cc6	0.18217763
21	0x3f1cb708	0.61216784
22	0x3f8fe105	1.1240546
23	0x3eef6f19	0.46764448
24	0x3f115616	0.5677198
25	0x4001a8e3	2.025933
26	0x3f72b883	0.9481279
27	0x411e6e1a	9.90188
28	0x411f2a23	9.947787
29	0x3fee50c6	1.86184
30	0x3e5cfe5e	0.21581408
31	0x3f370419	0.7149063
32	0x400eddd9	2.2322905
33	0x40a23eca	5.0701647
34	0x3f2060b5	0.62647563
35	0x3f8afbd5	1.0858103
36	0x3eded46d	0.43521443
37	0x40aed758	5.463787
38	0x3ee6fbf5	0.45114103
39	0x4004adc9	2.073107
40	0x3ecdb697	0.40178367
41	0x3e8024ff	0.25028226
42	0x3f8f3337	1.1187505
43	0x3e9c7d62	0.3056441
44	0x405a8b4a	3.4147515
45	0x3f462b2c	0.77409625
46	0x3f81c684	1.0138707
47	0x40952ae6	4.6614866
48	0x3e8b6fac	0.27233636
49	0x3f8864d8	1.0655775
50	0x3e9b8157	0.30372116
51	0x3fe30a83	1.7737583
52	0x3f9f10ce	1.2427003
53	0x3fdd2392	1.727648
54	0x3faa8564	1.3321958
55	0x3f500fef	0.8127431
56	0x3fb57571	1.4176465
57	0x3f6de095	0.9292081
58	0x3fdbb48b	1.7164472
59	0x4076672d	3.8500473
60	0x4006a9b9	2.104109
61	0x4073017c	3.7969656
62	0x3eafdf83	0.34350213
63	0x3e8d9434	0.27652133

layer2.0.weight f4 [64, 64, 3, 3]
0	0x3d2d0bcf	0.04224759
1	0x3d8a486b	0.06752094
2	0xbb29adc1	-0.002589092
3	0xbd483fca	-0.04888896
4	0xbd8ed95a	-0.0697505
5	0xbd924159	-0.0714137
6	0x3e18a279	0.14905728
7	0x3de48b21	0.11159349
8	0x3db99111	0.09060872
9	0x3bc1708a	0.0059033083
10	0xba454951	-0.00075258786
11	0xbbad8ed5	-0.005296568
12	0x3cc3c5d4	0.023898043
13	0x3cf9022c	0.030396543
14	0x3c816d18	0.01579909
15	0x3c8fd81e	0.017559107
16	0x3c5b5bc3	0.013388577
17	0x3c5856a8	0.013204254
18	0xbdec4cc4	-0.115380794
19	0xbdc0f80d	-0.09422312
20	0xbda50a96	-0.0805866
21	0x3d4603ce	0.048343472
22	0x3d2c3378	0.042041272
23	0x3cdeb4bb	0.027185788
24	0x3d6ffef2	0.058592744
25	0x3da2c22a	0.0794719
26	0x3da3e5aa	0.08002789
27	0xbe0d9708	-0.13827145
28	0xbddd36d6	-0.10801475
29	0xbd9207db	-0.071304046
30	0x3ce31709	0.027720945
31	0xbd773247	-0.060350683
32	0xbdd0d998	-0.10197753
33	0x3b35cb6c	0.0027739657
34	0x3c68a059	0.014198386
35	0x3d192ffd	0.03739928
36	0xbc8d5d1d	-0.017256314
37	0xbc470f31	-0.012149618
38	0xbc977935	-0.018490413
39	0xbd341ee9	-0.04397479
40	0xbd806457	-0.06269138
41	0xbd7a93ad	-0.06117599
42	0xbd14d652	-0.036337204
43	0xbd34be59	-0.044126842
44	0xbd0f2c70	-0.03495449
45	0xbc89ce03	-0.016821867
46	0xbd004dfb	-0.031324368
47	0xbca722b0	-0.020402282
48	0xbd57466b	-0.05255739
49	0xbd803cd6	-0.062616035
50	0xbd770802	-0.06031037
51	0xbd281115	-0.041031916
52	0xbd79047e	-0.0607953
53	0xbd4bbd50	-0.04974109
54	0xbdc594cc	-0.096475214
55	0xbc85ac63	-0.016317552
56	0xbd8f3989	-0.06993396
57	0xbd62aa25	-0.055338044
58	0xbc115b2c	-0.008871835
59	0xbdb817c1	-0.08988906
60	0xbb39dcb1	-0.0028360302
61	0x3d5c3c5c	0.0537685
62	0xbd80ae64	-0.06283262
63	0x3d5864bb	0.05283044
64	0x3d7e91ab	0.06215064
65	0x3cbc2b2f	0.02296981
66	0x3d1614f2	0.03664107
67	0xbd150295	-0.036379416
68	0xbd4bcb0b	-0.049754184
69	0x3dab5ee3	0.083677076
70	0x3d1c3b4b	0.038142484
71	0xbcb40c37	-0.02197848
72	0x3e02eaaa	0.1278483
73	0x3df09277	0.11746686
74	0x3d8cc7f6	0.06874077
75	0xbd1cf5f9	-0.038320515
76	0x3c62964b	0.013829778
77	0xbd5cd604	-0.05391504
78	0x3d8733f1	0.06601704
79	0x3d9d8f95	0.07693402
80	0xbc1070f0	-0.008815989
81	0xbc5a010c	-0.013305914
82	0xbc8ea78f	-0.017413883
83	0xbcb41e51	-0.021987112
84	0xbc976dd9	-0.018484997
85	0xbcf84234	-0.030305006
86	0xbcbcb03c	-0.023033254
87	0xbc9874e1	-0.01861042
88	0xbc47463f	-0.012162744
89	0xbc9c4e94	-0.019080438
90	0xbd90b357	-0.07065456
91	0xbe10c3ce	-0.14137194
92	0xbe3f088f	-0.18655609
93	0x3d0ea81a	0.034828283
94	0x3c843fec	0.016143762
95	0xbc940f6f	-0.018073766
96	0x3e660e44	0.2246638
97	0x3e194f0e	0.14971563
98	0x3e1af5cd	0.15132828
99	0x3c0686e8	0.008210875
100	0x3bd07fe7	0.0063629034
101	0xba86bf08	-0.001028032
102	0xbbdaf7cd	-0.006682372
103	0xbb8d30bd	-0.0043087886
104	0xbbb10ff9	-0.0054035154
105	0xbaced33d	-0.0015779507
106	0x3a77517f	0.0009434446
107	0x3acb609a	0.001551646
108	0xbc52882b	-0.012849848
109	0xbc303b94	-0.010756392
110	0xbc97eddb	-0.018546036
111	0xba11745d	-0.00055486505
112	0x3ba6c94c	0.0050899144
113	0xbb12fe7a	-0.0022429512
114	0x3af151e1	0.0018411243
115	0x3c1fcc59	0.00975331
116	0x3b08e2da	0.0020887167
117	0xbce208df	-0.02759212
118	0xbd53205d	-0.051544536
119	0xbd5cd8af	-0.053917583
120	0xbdacd14c	-0.08438358
121	0xbdf97414	-0.12180343
122	0xbded0c3b	-0.115745984
123	0xbd9ddd99	-0.07708282
124	0xbde6deeb	-0.11272987
125	0xbdcd72d3	-0.100316666
126	0xbc7bc9a2	-0.015367897
127	0xbc869799	-0.01642971
128	0xbcadd99f	-0.021221934
129	0xbd527050	-0.05137664
130	0xbd3f027a	-0.04663322
131	0xbd2ac319	-0.041689966
132	0xbd0a8478	-0.03381774
133	0xbcf66270	-0.030076236
134	0xbcf72770	-0.030170172
135	0xbd938968	-0.072039425
136	0xbd9a018c	-0.07519826
137	0xbd8b978f	-0.06816017
138	0xbdb42c9e	-0.087975726
139	0xbdb9507c	-0.09048554
140	0xbd9ec3dc	-0.07752201
141	0xbd59b9f9	-0.053155873
142	0xbd58b421	-0.05290616
143	0xbd5a15b1	-0.053243343
144	0xbd0f4b29	-0.034983788
145	0xbca92d04	-0.020651348
146	0xbcfb3592	-0.030665193
147	0x3d9fd556	0.078043625
148	0x3dc71688	0.09721094
149	0x3dbadc35	0.091240324
150	0x3d9d4449	0.0767904
151	0x3dcf5fd4	0.101257
152	0x3dabe5ae	0.08393417
153	0x3d1957cc	0.037437245
154	0xbd056179	-0.03256366
155	0xbca6c1f7	-0.020356162
156	0x3bed66e6	0.0072449325
157	0xbd92bd7f	-0.0716505
158	0xbb5e0935	-0.003388
159	0x3e302e91	0.17205264
160	0x3d555406	0.052082084
161	0x3df84d6f	0.12124144
162	0xbd2304a9	-0.039799366
163	0xbd156476	-0.03647276
164	0xbc9f8c5f	-0.019476114
165	0xbc83b92a	-0.016079504
166	0xbbf906c8	-0.0075996853
167	0x3afd39b2	0.0019319563
168	0xbc353a9e	-0.011061339
169	0xbc6df257	-0.01452311
170	0xbc7eb7bc	-0.015546735
171	0xbce5aba8	-0.028035954
172	0xbd4dfabf	-0.05028796
173	0xbd72ca22	-0.0592748
174	0xbdae49dc	-0.08510181
175	0xbdd9ade9	-0.10628874
176	0xbdda0129	-0.106447525
177	0xbd9faafe	-0.07796286
178	0xbdc87187	-0.097872786
179	0xbdb6a31f	-0.08917832
180	0xbcb53b4e	-0.022123005
181	0xbcf9b3f6	-0.03048132
182	0xbcb14d08	-0.021643177
183	0xbceba4f9	-0.028765189
184	0xbcfd0c2d	-0.030889595
185	0xbcdd1868	-0.026989177
186	0xbc940413	-0.018068349
187	0xbce8fa38	-0.028439626
188	0xbd057ee3	-0.03259171
189	0xbd4bca2c	-0.049753353
190	0xbd576cce	-0.052594
191	0xbd37566a	-0.044760145
192	0xbc971ee3	-0.018447345
193	0xbd60fd16	-0.05492886
194	0xbd905365	-0.07047156
195	0xbc4533fd	-0.012036321
196	0xbc157ca7	-0.009123958
197	0xbc284936	-0.010271361
198	0xbd9c3275	-0.076268114
199	0xbd8e62a2	-0.069524065
200	0xbd858f38	-0.065214574
201	0xbd785f3c	-0.060637698
202	0xbdb3ef48	-0.08785874
203	0xbdb25ef8	-0.0870952
204	0xbd66d502	-0.056355484
205	0xbda9cbe7	-0.082908444
206	0xbd40e33b	-0.047091704
207	0x399a2f5d	0.00029408457
208	0xbc00d42f	-0.0078630885
209	0xbc93c444	-0.018037923
210	0xbb87c78a	-0.00414366
211	0xbc2d32cd	-0.010571194
212	0xbc5bc492	-0.013413565
213	0xbca69b4e	-0.020337727
214	0xbcbe8352	-0.023255978
215	0xbc89727b	-0.016778221
216	0xbc5bde0d	-0.01341964
217	0xbc36528a	-0.011128077
218	0xbd13b82a	-0.036064304
219	0xbbf45147	-0.007455978
220	0xbd0bf79a	-0.034171678
221	0xbd09bb18	-0.033625692
222	0xbb574e5b	-0.00328531
223	0xbcde549b	-0.027139952
224	0xbd16917d	-0.036759842
225	0xbd55b52a	-0.052174725
226	0xbd314fbf	-0.043288942
227	0xbd167a95	-0.036737997
228	0x3d413aeb	0.04717533
229	0x3d5c7e7a	0.053831555
230	0x3d566928	0.05234638
231	0x3d361f0f	0.044463214
232	0x3d88514e	0.06656133
233	0x3d4fb975	0.050713975
234	0xbbca89a4	-0.006180959
235	0xbc7216d3	-0.0147759495
236	0xbc22939c	-0.009922888
237	0xbce4033a	-0.02783357
238	0xbcc5aca8	-0.02413018
239	0xbce50a29	-0.027958946
240	0x3c1c8a5f	0.009554475
241	0x3b4bc218	0.003109103
242	0xbadf829e	-0.0017052477
243	0x3e847f9e	0.25878614
244	0x3e578637	0.21047293
245	0x3e25b6ba	0.16182986
246	0x3d3555a3	0.044271123
247	0x3d8d40af	0.06897103
248	0xbbd3fa03	-0.0064690127
249	0x3e159a32	0.14609602
250	0x3dc8b6e0	0.09800506
251	0x3cb41cfe	0.02198648
252	0xbdd0e015	-0.1019899
253	0xbb192825	-0.0023369875
254	0xbd7607f1	-0.060066167
255	0xbd900605	-0.07032398

layer2.0.bias f4 [64]
0	0xb9813478	-0.0002464389
1	0x3b8ea08c	0.004352635
2	0xbbd180a1	-0.0063935076
3	0xbb08dcb2	-0.0020883498
4	0x3b61e90f	0.003447119
5	0xbac53e88	-0.0015048543
6	0x3b8cf370	0.004301481
7	0x3b160eb3	0.0022896945
8	0x3a9682c5	0.0011483064
9	0xba6ff20f	-0.0009153196
10	0xbad2905a	-0.0016064749
11	0xbab51a52	-0.0013817048
12	0xba1bc9c4	-0.0005942846
13	0xbb6b0752	-0.0035862518
14	0xbaf85230	-0.0018945392
15	0x3b782226	0.003786215
16	0x3b984dd1	0.0046479483
17	0x3a9fcf99	0.0012192606
18	0x3a85ad32	0.0010198711
19	0xbbbad2da	-0.005701405
20	0x3ab1dd5c	0.0013569999
21	0x3bb5eba0	0.0055517703
22	0xbb3c8e6a	-0.0028771409
23	0xbad92710	-0.0016567428
24	0x3bd39751	0.0064572473
25	0x3a83b601	0.0010048748
26	0x3baab270	0.0052092597
27	0xbaec8649	-0.0018045391
28	0xbbc47424	-0.0059952904
29	0x3a16de01	0.0005755127
30	0xbba88eb1	-0.0051439633
31	0xbb3bca00	-0.0028654337
32	0x3b176ef9	0.0023106916
33	0xbbc9921c	-0.006151451
34	0x3b6ca49f	0.0036108864
35	0x3bc82509	0.0061079306
36	0x3bcc461e	0.0062339446
37	0xbbbd54a6	-0.005777913
38	0xbbd80854	-0.0065927897
39	0xbb2eca75	-0.0026670967
40	0x3a08e508	0.00052221166
41	0xbb558b95	-0.0032584418
42	0x3b9928d6	0.0046740575
43	0x3bc6a8d6	0.0060626073
44	0x3ae641f4	0.0017567263
45	0xba8258e4	-0.0009944704
46	0xbbc73a6e	-0.0060799634
47	0x3b83edae	0.0040261364
48	0xba7dcaed	-0.00096814224
49	0x3b953c6f	0.0045543234
50	0x3b267ba0	0.0025403276
51	0x3a91c82d	0.0011122279
52	0xbba19349	-0.004930888
53	0x3b8d118e	0.004305071
54	0x3aa71503	0.0012747351
55	0x3baac30f	0.005211241
56	0x3ba48117	0.0050202715
57	0xbb657787	-0.003501387
58	0xbba6cdf1	-0.005090468
59	0xbbcd9eb8	-0.0062750243
60	0xbb1330f5	-0.00224596
61	0xbb1453a0	-0.0022632852
62	0x39e2fcfa	0.0004329456
63	0x3b66b2dd	0.0035201826

layer2.1.weight f4 [64]
0	0x3f103213	0.5632641
1	0x3f830f74	1.0239091
2	0x3ef95e39	0.487047
3	0x3f36140c	0.7112434
4	0x3f0c1b9a	0.54729617
5	0x3f690225	0.910189
6	0x3f8eb3a3	1.1148571
7	0x3f319a58	0.69376135
8	0x3f84a722	1.0363505
9	0x3f77e206	0.9682926
10	0x3f6429e6	0.8912643
11	0x3f7eb074	0.99487996
12	0x3f3294db	0.69758385
13	0x3f28c627	0.65927356
14	0x3f7d61a8	0.98977137
15	0x3f540681	0.82822424
16	0x3f776dd5	0.96651965
17	0x3f3c2e72	0.7350837
18	0x3f5ddd7b	0.8666608
19	0x3f571b2b	0.8402583
20	0x3f09770e	0.5369729
21	0x3f7042c0	0.9385185
22	0x3fa45b31	1.284033
23	0x3f860d79	1.0472862
24	0x3f59bf2e	0.8505734
25	0x3f19ca06	0.6007389
26	0x3f1fb9dc	0.62392974
27	0x3f60295a	0.875631
28	0x3f31fc61	0.69525725
29	0x3f599203	0.8498842
30	0x3e9d8a46	0.30769557
31	0x3f436ef4	0.76341176
32	0x3f967152	1.1753333
33	0x3f4c718f	0.79860777
34	0x3f4c1bf4	0.79730153
35	0x3f77ec18	0.96844625
36	0x3f193f4e	0.5986222
37	0x3f3b6362	0.7319852
38	0x3f89e3c0	1.0772629
39	0x3f4a77df	0.7908916
40	0x3f8b1a12	1.0867331
41	0x3f79fd57	0.9765219
42	0x3f36d8f0	0.7142477
43	0x3f1b3628	0.6062951
44	0x3f704405	0.9385379
45	0x3f5dc955	0.86635333
46	0x3f3e7c50	0.74408436
47	0x3f806db1	1.0033475
48	0x3f85207f	1.0400542
49	0x3f6db364	0.92851853
50	0x3f68cb54	0.90935254
51	0x3f60542d	0.8762844
52	0x3f61fafb	0.8827359
53	0x3f508d23	0.8146536
54	0x3f660000	0.8984375
55	0x3f39cb15	0.72575504
56	0x3f869d19	1.0516692
57	0x3f56f741	0.8397103
58	0x3f7de310	0.99174595
59	0x3f878658	1.0587873
60	0x3f461872	0.7738105
61	0x3f73e679	0.9527355
62	0x3f0dde2f	0.5541715
63	0x3f61efb6	0.88256395

layer2.1.bias f4 [64]
0	0xbeb224bb	-0.34793648
1	0xbee0fac1	-0.4394131
2	0x3de3afe3	0.11117532
3	0xbf75e994	-0.96059537
4	0xbe3fda9b	-0.18735735
5	0xbe8a2b9d	-0.269864
6	0xbecdcdda	-0.40196115
7	0xbe917fc5	-0.28417793
8	0xbeedb4cc	-0.46427
9	0xbe810f26	-0.2520687
10	0xbec9682e	-0.39337295
11	0xbea69191	-0.32532933
12	0xbecf6f99	-0.4051483
13	0xbcab0edf	-0.020881115
14	0xbe3414d6	-0.17586073
15	0xbee980a0	-0.45605946
16	0xbebfcb82	-0.37459952
17	0xbf029d50	-0.5102129
18	0xbea6d2df	-0.32582757
19	0xbf2f3d5e	-0.68453014
20	0xbd8c84ff	-0.068613045
21	0xbf07683c	-0.52893424
22	0xbf15b3b6	-0.5847734
23	0xbef06586	-0.46952456
24	0xbd2bb178	-0.041917294
25	0xbe745d47	-0.23863707
26	0xbeb302b7	-0.3496301
27	0xbe96f4ee	-0.29483742
28	0xbec241f2	-0.37940937
29	0xbe93a4f7	-0.28836796
30	0x3e221c79	0.15831174
31	0xbe59429f	-0.2121682
32	0xbf0ef365	-0.5584014
33	0xbe728a52	-0.23685578
34	0xbedf83dd	-0.4365529
35	0xbf0e2ac7	-0.55534023
36	0xbcff4ace	-0.0311636
37	0xbf230d89	-0.6369253
38	0xbef712ab	-0.4825643
39	0x3b623f79	0.0034522696
40	0xbf312009	-0.69189507
41	0xbe9ec7b9	-0.3101175
42	0x3d90b0f7	0.07065003
43	0xbda91074	-0.08255091
44	0xbed7f316	-0.42177647
45	0xbf2f306c	-0.6843326
46	0xbebb5f7e	-0.36596292
47	0xbf0210cd	-0.50806886
48	0xbf04f435	-0.5193513
49	0xbf03e4df	-0.51521105
50	0xbe67f26f	-0.22651075
51	0xbec81814	-0.3908087
52	0xbe6556f1	-0.22396447
53	0xbea206a2	-0.31645685
54	0xbf80a816	-1.0051296
55	0x3e7d8dbc	0.24761099
56	0xbeb0aa8f	-0.34505126
57	0xbecf052f	-0.40433642
58	0xbf086d0f	-0.5329141
59	0xbeaade77	-0.33372852
60	0xbdd5971d	-0.10429213
61	0xbe916836	-0.2839982
62	0xbdd17df5	-0.102291025
63	0xbe8738f7	-0.26410648

layer2.1.running_mean f4 [64]
0	0xbfd26620	-1.6437416
1	0xbfaa0993	-1.3284172
2	0xc006d8eb	-2.1069896
3	0xbea4dbe0	-0.32199
4	0x3e919d64	0.28440392
5	0xbfa02d67	-1.2513856
6	0xc080653d	-4.012358
7	0xbf232d5c	-0.6374109
8	0xc04874ea	-3.1321359
9	0xc06c71e9	-3.6944525
10	0xc051f32d	-3.2804673
11	0xc088be8d	-4.2732606
12	0xbf836242	-1.0264361
13	0xbf8f1a80	-1.1179962
14	0xc0323134	-2.7842531
15	0xc0a7fa95	-5.2493386
16	0xc04e1d87	-3.2205522
17	0xc0387216	-2.8819633
18	0xc092a37b	-4.582456
19	0xbffcd77e	-1.9753263
20	0xbdfcc93b	-0.12343069
21	0xbfe13ed7	-1.7597302
22	0xc09a88ce	-4.8292
23	0xc0945c32	-4.6362543
24	0xc0eec7a4	-7.46187
25	0xbfb2bb72	-1.3963454
26	0xc01b91ac	-2.430766
27	0xc0733cf6	-3.8005958
28	0xbfef8958	-1.8713789
29	0xc0354c39	-2.8327773
30	0xbfc44f3b	-1.5336679
31	0xc02e9460	-2.727806
32	0xc05e3866	-3.4721923
33	0xc051ed59	-3.2801116
34	0xbf5d2248	-0.86380434
35	0xbfbd6245	-1.4795614
36	0xc03dfb1b	-2.9684513
37	0xc0311330	-2.766796
38	0xc105d6a9	-8.364907
39	0xc065369b	-3.5814579
40	0xc1165dd0	-9.397903
41	0xc031dbb1	-2.779034
42	0xbf8d1762	-1.1022761
43	0xbf746063	-0.95459574
44	0xc045ad60	-3.088707
45	0xbfc84fb0	-1.5649319
46	0xbe79c328	-0.24390852
47	0xc0620718	-3.531683
48	0xc07d6d51	-3.9597971
49	0xc02816d4	-2.6263933
50	0xc0433c90	-3.0505714
51	0xc0272e90	-2.612217
52	0xc0589fe5	-3.3847592
53	0xc0206ca2	-2.5066304
54	0x3e1a4046	0.15063581
55	0xc0a39bdb	-5.1127753
56	0xc089cfd4	-4.3066196
57	0xc03be808	-2.936037
58	0xc08e80fa	-4.453244
59	0xc08e575f	-4.4481654
60	0xc028feec	-2.6405592
61	0xbffe057d	-1.9845425
62	0xbfa598bf	-1.293724
63	0xc0038c21	-2.0554278

layer2.1.running_var f4 [64]
0	0x409f2b45	4.974032
1	0x412f44c8	10.954292
2	0x40e90fc0	7.2831726
3	0x40c0ba65	6.0227532
4	0x409c6fbd	4.88864
5	0x414accd8	12.675011
6	0x415815d6	13.505331
7	0x4074f9b3	3.8277404
8	0x410b4ac3	8.705752
9	0x4146d2a8	12.42643
10	0x41600552	14.001299
11	0x417bacb3	15.729663
12	0x408441a8	4.1330147
13	0x40f8d5b5	7.7760873
14	0x41b2372b	22.276937
15	0x41025001	8.144532
16	0x416bfe74	14.749622
17	0x4075963d	3.8372948
18	0x417e29af	15.885177
19	0x41013f54	8.077961
20	0x40b03094	5.50593
21	0x411b0da8	9.690834
22	0x418ee9d2	17.86417
23	0x412b5584	10.708378
24	0x418f6aa4	17.92707
25	0x40ea4403	7.320802
26	0x40b004c7	5.500583
27	0x4188ab62	17.083683
28	0x408a0f1e	4.3143454
29	0x412bc519	10.73562
30	0x40a0db12	5.026742
31	0x40fc16a6	7.8777647
32	0x415b029c	13.688137
33	0x4126269a	10.384424
34	0x414abc03	12.670901
35	0x40ade87a	5.4346285
36	0x410c218a	8.758188
37	0x40bc915f	5.8927455
38	0x41945e2d	18.545984
39	0x41063a0e	8.3891735
40	0x41a07995	20.059366
41	0x4154c81e	13.298857
42	0x41666c70	14.401474
43	0x40b4d969	5.6515393
44	0x416aef20	14.68338
45	0x40a8eab1	5.278649
46	0x40f45029	7.634785
47	0x4110eafb	9.057368
48	0x419ee69c	19.862602
49	0x41110920	9.064728
50	0x4183fa21	16.497133
51	0x41522a15	13.135274
52	0x4175e3f9	15.368157
53	0x411d004f	9.812575
54	0x40eb0ff5	7.345698
55	0x413669a2	11.400789
56	0x4146c52e	12.42314
57	0x414cc8e3	12.799045
58	0x413b0aab	11.6901045
59	0x413c74df	11.778533
60	0x4120e9de	10.0570965
61	0x418ba757	17.456709
62	0x417377bd	15.216733
63	0x41894b0d	17.161646

layer3.0.weight f4 [64, 64, 3, 3]
0	0xbd3b8700	-0.045783043
1	0xbc062b33	-0.00818901
2	0xbcca707c	-0.02471184
3	0x3dea5e40	0.11443758
4	0x3e6f7761	0.23385383
5	0x3e90e41b	0.2829903
6	0x3df69024	0.120392114
7	0x3e277e3b	0.16356747
8	0x3e105407	0.14094554
9	0xbe229e77	-0.15880762
10	0xbdd7d8d5	-0.10539404
11	0x3e133783	0.14376645
12	0xbdbad03f	-0.09121751
13	0xbcb5d899	-0.022198008
14	0xbe4524c0	-0.192523
15	0xbdc60f9d	-0.09670947
16	0xbe195c80	-0.14976692
17	0xbe3df7ff	-0.18551634
18	0xbda03848	-0.07823235
19	0xbd882d75	-0.06649295
20	0xbd923bb5	-0.071402945
21	0xbe547daa	-0.20751062
22	0xbe6329df	-0.22183941
23	0xbe71de3b	-0.2361993
24	0xbe777aac	-0.2416789
25	0xbe82440a	-0.25442535
26	0xbe7401e5	-0.23828848
27	0xbcbfd7a7	-0.02341826
28	0xbda6aa68	-0.08137971
29	0xbdc81052	-0.09768738
30	0x3dd032e5	0.10165957
31	0xbd083671	-0.033255044
32	0xbd31e76c	-0.04343359
33	0xbe016c94	-0.12639076
34	0xbdd21b2a	-0.102590874
35	0xbe239e63	-0.15978388
36	0x3cef5a24	0.029217787
37	0xbc400d98	-0.011721991
38	0x3d982c08	0.07430273
39	0x3bb3d03c	0.00548747
40	0x3c51c853	0.012804109
41	0x3c56c27b	0.013107891
42	0xbcd34535	-0.025789836
43	0xbd89e462	-0.06733014
44	0xbe0a284c	-0.13491935
45	0xbd5b82cf	-0.053591546
46	0x3c6e6450	0.014550284
47	0xbdf15848	-0.117844164
48	0x3ae1adff	0.0017217993
49	0xbd46dd79	-0.048551057
50	0xbe06f1a5	-0.13178118
51	0xbda22208	-0.07916647
52	0xbc5fecd1	-0.013667301
53	0x3c73e740	0.014886677
54	0xbe4b9c25	-0.19883783
55	0xbdae7b7f	-0.08519649
56	0x3ddc93a0	0.10770345
57	0xbdfbec06	-0.12300877
58	0x3d33790b	0.043816607
59	0x3da5c80c	0.080947965
60	0xbd3c93b5	-0.046039302
61	0x3d34c852	0.044136353
62	0x3d672712	0.056433745
63	0xbcdd369d	-0.02700358
64	0x3d3e07ae	0.046394043
65	0x3e096946	0.13419065
66	0x3cf7ef09	0.030265348
67	0x3dc1929c	0.09451792
68	0x3e30d491	0.17268588
69	0xbc61ddf7	-0.013785831
70	0xbe0aba33	-0.13547592
71	0xbe1ca758	-0.15298212
72	0xbc54951b	-0.012975003
73	0x3ba45345	0.0050148093
74	0xbd9cb5a5	-0.076518334
75	0x3bba84f6	0.0056921197
76	0x3cd455b3	0.02591977
77	0xbe0a5be3	-0.13511615
78	0x3e133c3a	0.14378443
79	0x3e3e9562	0.18611673
80	0xbd86e985	-0.06587509
81	0xbdf03552	-0.1172892
82	0xbccb758a	-0.02483632
83	0xbd8e7cd1	-0.069574006
84	0xbdd16940	-0.10225153
85	0x3d87e367	0.066351704
86	0x3db61e0e	0.08892451
87	0x3db0cf9b	0.086333476
88	0x3dd2b43b	0.102882825
89	0xbc86befa	-0.016448487
90	0xbdc2945b	-0.09500953
91	0x3d1f8501	0.0389452
92	0x3da60860	0.08107066
93	0x3d4f5d19	0.050625894
94	0xbb044487	-0.0020182447
95	0x3e1399f4	0.14414197
96	0x3e2a57ba	0.16635028
97	0x3e1b64f3	0.15175228
98	0x3e490687	0.19631396
99	0xbdcf6679	-0.10126967
100	0xbdb7f436	-0.089821264
101	0xbe2645d9	-0.16237582
102	0x3e3eafec	0.18621796
103	0x3d937b0b	0.07201203
104	0xbc00f349	-0.007870504
105	0x3c1f7767	0.009733058
106	0xbd116902	-0.035500534
107	0xbd6c77ce	-0.057731442
108	0xbd0b5213	-0.03401382
109	0x3d137282	0.035997875
110	0x3deb9ba6	0.11504297
111	0x3dc0edd8	0.09420365
112	0x3e0e59b6	0.1390141
113	0xbceea973	-0.029133534
114	0x3d9325d6	0.07184951
115	0x3d80be7f	0.06286334
116	0xbdcb22cf	-0.099187486
117	0x3d271214	0.040788725
118	0x3ce28f4e	0.027656224
119	0x3d9ba335	0.07599489
120	0x3d978369	0.073981114
121	0xbd66288d	-0.056191016
122	0xbd18379f	-0.03716242
123	0x3d4b35c2	0.049611814
124	0xbda27eee	-0.07934366
125	0xbd9bdcac	-0.07610449
126	0xbc4b82cf	-0.012421324
127	0xbddf9d6d	-0.109186985
128	0xbe180b5e	-0.14848086
129	0xbddff354	-0.10935083
130	0xbe13299d	-0.14371343
131	0xbd92245b	-0.071358405
132	0xbdf5aa92	-0.11995424
133	0xbdd306f1	-0.10304058
134	0xbdaf7f8d	-0.0856925
135	0xbce3e027	-0.027816845
136	0xbd38fe94	-0.04516466
137	0x3c8b1cb1	0.016981455
138	0xbe0466de	-0.12929866
139	0xbe12c49c	-0.14332813
140	0xbdc3f6e8	-0.09568578
141	0xbe08145d	-0.13289018
142	0xbd7ef872	-0.062248655
143	0xbdde861c	-0.10865423
144	0xbe2467e1	-0.16055252
145	0x3d68e82b	0.056862038
146	0x3eb3758e	0.35050625
147	0xbd0eb6d4	-0.034842327
148	0x3d9bef26	0.07613973
149	0x3d9bbc6d	0.07604299
150	0x3dfda8c5	0.12385706
151	0xbd2e3a98	-0.042536348
152	0xbe335df9	-0.17516316
153	0xbdd0c9e0	-0.101947546
154	0xbe000575	-0.12502082
155	0xbb8668f2	-0.004101866
156	0xbcfe3a4d	-0.03103366
157	0xbd280671	-0.041021768
158	0xbc6d84b8	-0.014496975
159	0xbccc7f38	-0.024963006
160	0x3bdd7acc	0.0067590233
161	0xbca8022a	-0.020508844
162	0xbd73ab74	-0.059489682
163	0x3d42de75	0.047575433
164	0xbd7c1576	-0.061543904
165	0x3da1daa0	0.079030275
166	0x3dc65c3d	0.09685562
167	0xbc75a70e	-0.014993442
168	0x3e3c0365	0.1836067
169	0x3e698b3c	0.2280702
170	0x3da4de4b	0.080502115
171	0x3e2beacf	0.16788791
172	0x3d867d6f	0.06566893
173	0x3d32f02c	0.043686077
174	0x3cb80053	0.022461092
175	0x3d259103	0.040421497
176	0xbdd7d98e	-0.10539542
177	0xbe13e02c	-0.14440984
178	0xbe04cb5c	-0.129682
179	0xbe09d712	-0.13460949
180	0xbe12903c	-0.14312834
181	0xbcedbc3f	-0.029020427
182	0xbd9c5759	-0.07633848
183	0xbd1b2542	-0.03787733
184	0xbc8bd368	-0.01706858
185	0xbd25c30c	-0.040469214
186	0xbd785480	-0.06062746
187	0xbe0d4390	-0.13795304
188	0xbe275f06	-0.16344842
189	0x3dcb762d	0.099346496
190	0xbba850c2	-0.00513658
191	0xbdac5e12	-0.0841638
192	0x3d03ee55	0.032209713
193	0xbcca5582	-0.024698976
194	0x3d3e6ac8	0.046488553
195	0xbd9f2a96	-0.077717945
196	0xbdd9e24d	-0.106388666
197	0xbe3417b8	-0.17587173
198	0x3dbf9ac6	0.093556926
199	0x3e0ace69	0.13555302
200	0x3d0fd78a	0.035117663
201	0xbe21932d	-0.157788
202	0xbdda9e21	-0.10674692
203	0xbe01f2c4	-0.12690264
204	0xbe503112	-0.20331219
205	0xbe0cf3e7	-0.13764916
206	0xbe4e0f46	-0.20123014
207	0xbb022b26	-0.0019862144
208	0xbd1dd59f	-0.038533803
209	0xbe04a62d	-0.12954016
210	0xbd63bd7b	-0.055600625
211	0xbd1a402d	-0.03765886
212	0xbdb7b330	-0.08969724
213	0x3d28062a	0.041021504
214	0xbce1c533	-0.027559852
215	0xbdccab2f	-0.09993588
216	0xbdeca42e	-0.11554752
217	0xbd3a98a4	-0.045555726
218	0x3d0d8793	0.03455312
219	0xbd7c901e	-0.06166088
220	0xbe0538ad	-0.13009901
221	0x3c1c3923	0.009535107
222	0x3e440de8	0.1914593
223	0x3e17e3c2	0.14832976
224	0x3e3f7386	0.18696412
225	0x3d0d8e37	0.034559455
226	0xbd137c61	-0.03600729
227	0xbc7c0f07	-0.015384442
228	0x3da4c3fe	0.08045195
229	0xbcf1697c	-0.029469244
230	0xbe19bb4b	-0.15012853
231	0xbde9e778	-0.11421102
232	0xbe02a4ae	-0.12758133
233	0xbe45a701	-0.19301988
234	0xbd84c8a5	-0.064835824
235	0x3c9427fe	0.018085476
236	0x3dac0bdb	0.08400699
237	0x3cb3c2db	0.0219435
238	0x3df5af76	0.11996357
239	0x3de43c67	0.11144333
240	0x3ce11015	0.027473489
241	0x3cbe8a6b	0.023259362
242	0xbd61cc17	-0.055126276
243	0x3d43b5f9	0.047780965
244	0x3d92a388	0.07160097
245	0x3ab31132	0.0013661741
246	0x3dc45784	0.09587005
247	0x3e02399a	0.12717286
248	0x3cde1b89	0.02711274
249	0xbd43ed2b	-0.047833603
250	0xbd20f8eb	-0.039299887
251	0xbdc2cecc	-0.095120996
252	0x3d86e406	0.06586461
253	0xbdd8aade	-0.10579465
254	0xbde370e8	-0.111055195
255	0x3cfbe1aa	0.030747253

layer3.0.bias f4 [64]
0	0xba0fd86e	-0.00054872676
1	0xb902f18c	-0.0001248775
2	0xbba862d3	-0.005138734
3	0xbb8ab90e	-0.004233486
4	0xbbbab299	-0.00569756
5	0xb916b92f	-0.00014374101
6	0xbb9ce9aa	-0.004788597
7	0x3792d4da	1.7503673e-05
8	0xbb433304	-0.0029785046
9	0xbb0dad42	-0.0021618162
10	0x3bc7a30c	0.0060924347
11	0xbbb9ab75	-0.005666191
12	0xbb34e5b5	-0.0027602736
13	0x3a017ad3	0.00049392617
14	0xbb0224af	-0.001985829
15	0x3b2166c7	0.002462791
16	0x3bce0231	0.0062868823
17	0x3b5cea7a	0.0033709095
18	0x3b5a15e8	0.0033277217
19	0xba19fb90	-0.00058739726
20	0xba9a4248	-0.0011769021
21	0x3aeebaeb	0.0018213665
22	0x3b679e2e	0.0035342085
23	0x3b8b2b0b	0.0042470745
24	0x3b22920f	0.0024806296
25	0x3b65cbea	0.003506417
26	0x3ac20846	0.0014803491
27	0xb8f594e8	-0.00011710246
28	0xbaaa0f36	-0.0012974504
29	0xbba73849	-0.0051031453
30	0xbbd72188	-0.0065652765
31	0xbbd0cbf7	-0.0063719708
32	0x3ba92d0a	0.00516284
33	0x3ada550d	0.0016657427
34	0x3bc5d00d	0.0060367645
35	0xbba3b69b	-0.0049961335
36	0x3bb7183f	0.005587607
37	0xbbd47f46	-0.0064848987
38	0xba9ed2f8	-0.0012117317
39	0x3b430082	0.0029754941
40	0xbbc99123	-0.006151335
41	0x3b909afb	0.0044130064
42	0xbbc7895c	-0.0060893726
43	0x3b8f68a5	0.0043764883
44	0x3bb3aced	0.005483261
45	0x3ba62a3b	0.0050709522
46	0x391ae2f4	0.00014771131
47	0x3b7d9f17	0.0038699561
48	0x3b429891	0.0029692987
49	0x3bad45cd	0.005287862
50	0xbbcdd238	-0.0062811635
51	0xbbd03d6d	-0.006354979
52	0xbb90cff4	-0.004419321
53	0x3bc0b1a1	0.00588055
54	0x3b0fe840	0.00219585
55	0xba09bec0	-0.0005254559
56	0xbac7f4d6	-0.0015255462
57	0x3b8d3a63	0.0043099388
58	0x3b980ced	0.0046402127
59	0xbba4ec0f	-0.005033023
60	0xba8468c9	-0.0010102029
61	0x3b8e11db	0.0043356246
62	0xbb968992	-0.0045940364
63	0x3b927ca5	0.004470425

layer3.1.weight f4 [64]
0	0x3f613654	0.87973523
1	0x3f462332	0.77397454
2	0x3f8cae5e	1.0990713
3	0x3f8896a8	1.0670977
4	0x3fa25faa	1.2685444
5	0x3f903b47	1.126809
6	0x3f858668	1.0431643
7	0x3f90c0b5	1.130881
8	0x3f8b2b51	1.0872594
9	0x3eea0d4a	0.45713264
10	0x3f6a302a	0.9147974
11	0x3f8f1688	1.1178751
12	0x3f39bd73	0.725547
13	0x3f7eef09	0.9958349
14	0x3f8dbd61	1.1073419
15	0x3f752770	0.957633
16	0x3fa2ba63	1.2713131
17	0x3f93cb9d	1.1546513
18	0x3f7479ae	0.9549817
19	0x3f3d9e74	0.74069905
20	0x3fa39c3e	1.2782056
21	0x3f86b47f	1.0523833
22	0x3f8887dd	1.0666462
23	0x3f7d9f5b	0.9907128
24	0x3f27c710	0.6553812
25	0x3f8ce847	1.1008385
26	0x3f831db7	1.0243443
27	0x3f861a73	1.0476822
28	0x3f84920b	1.0357069
29	0x3f5e8dd9	0.8693519
30	0x3f8a7f49	1.0820094
31	0x3f80bfcc	1.0058532
32	0x3f74b3f7	0.95587105
33	0x3f32b8e0	0.69813347
34	0x3f5acff7	0.8547358
35	0x3f970aeb	1.1800207
36	0x3f76e1d1	0.9643832
37	0x3fa16886	1.2610023
38	0x3f4c674e	0.7984513
39	0x3f98f165	1.1948668
40	0x3f9d4f69	1.2289859
41	0x3f5f1311	0.8713847
42	0x3f687397	0.90801376
43	0x3f7968a2	0.9742528
44	0x3f8b87c0	1.0900803
45	0x3f871b6a	1.0555241
46	0x3f458239	0.7715183
47	0x3f9a5de2	1.2059901
48	0x3f7849f6	0.96987855
49	0x3f82f1ba	1.0230019
50	0x3f9d171a	1.2272675
51	0x3f6b9e6f	0.92038625
52	0x3f584fcc	0.8449676
53	0x3f8daf9e	1.1069219
54	0x3f950f69	1.1645328
55	0x3f608ccf	0.87714857
56	0x3f4c8546	0.7989086
57	0x3f74b539	0.95589024
58	0x3f9a2d65	1.2045103
59	0x3f7342db	0.9502389
60	0x3f6c03c0	0.9219322
61	0x3f7a9def	0.9789724
62	0x3f4898cf	0.7835817
63	0x3f3b232d	0.7310055

layer3.1.bias f4 [64]
0	0xbf162747	-0.5865368
1	0xbe82e103	-0.25562295
2	0xbf469eb6	-0.77585924
3	0xbf05b469	-0.5222841
4	0xbf75d0a8	-0.9602151
5	0xbf536586	-0.8257679
6	0xbf447cf7	-0.7675318
7	0xbf562326	-0.8364738
8	0xbf5bd944	-0.85878396
9	0x3f319174	0.6936257
10	0xbf20b5f0	-0.62777615
11	0xbf497ba1	-0.7870427
12	0xbeee91aa	-0.46595508
13	0xbf109f2e	-0.5649289
14	0xbf58f7ef	-0.84753317
15	0xbf37e744	-0.7183726
16	0xbf81deb4	-1.0146089
17	0xbf7f64c4	-0.9976313
18	0xbf4bc8e1	-0.7960339
19	0xbeb51333	-0.3536621
20	0xbf42fe7b	-0.76169556
21	0xbf6ad83e	-0.9173621
22	0xbf62ac6e	-0.88544357
23	0xbf19e184	-0.60109735
24	0xbe859a62	-0.26094347
25	0xbfa558ba	-1.2917702
26	0xbe9770ed	-0.29578343
27	0xbf3d2fb8	-0.7390094
28	0xbf22e3f0	-0.63629055
29	0xbec812f0	-0.39076948
30	0xbf25a7eb	-0.6470935
31	0xbf7c5773	-0.98570937
32	0xbf0b6e7a	-0.5446545
33	0xbe941b16	-0.28926915
34	0xbefca6eb	-0.49346098
35	0xbf61f466	-0.8826355
36	0xbf13940a	-0.57647765
37	0xbf3d4857	-0.73938507
38	0xbeaa1623	-0.33220014
39	0xbf401055	-0.7502492
40	0xbf58147e	-0.8440627
41	0xbed87543	-0.42276964
42	0xbef34691	-0.47514775
43	0xbecce5c3	-0.40019044
44	0xbf219c31	-0.63128954
45	0xbee7ec6f	-0.45297572
46	0xbea967ce	-0.3308701
47	0xbf560e8a	-0.83615935
48	0xbf3048f4	-0.6886132
49	0xbf2d2ac3	-0.67643374
50	0xbf28f53a	-0.65999186
51	0xbf0c28b8	-0.5474963
52	0xbeb79703	-0.358574
53	0xbf410b1d	-0.7540758
54	0xbefad441	-0.48990062
55	0xbf2f5b7b	-0.68498963
56	0xbed381df	-0.4131002
57	0xbf28c99a	-0.6593262
58	0xbf555255	-0.83328754
59	0xbe9fc202	-0.31202704
60	0xbf3fdd68	-0.74947214
61	0xbf082246	-0.531773
62	0xbeb15164	-0.3463241
63	0xbefa4b80	-0.48885727

layer3.1.running_mean f4 [64]
0	0xbfad527d	-1.3540798
1	0xc033a42d	-2.8068955
2	0xc0627589	-3.5384238
3	0xc0501fc0	-3.2519379
4	0xc03aa6c7	-2.9164293
5	0xc0454bd2	-3.0827527
6	0xc080a0fc	-4.0196514
7	0xbfe7892a	-1.8088734
8	0xc09d7aa3	-4.9212203
9	0xc01e48a4	-2.4731836
10	0xc022bf41	-2.5429232
11	0xc047d0ee	-3.122127
12	0xbf3eb398	-0.7449279
13	0xc0416f99	-3.0224364
14	0xc084c626	-4.149188
15	0xbfb082f6	-1.3789966
16	0xc099dd7b	-4.808286
17	0xc040be6b	-3.0116222
18	0xbfff1f48	-1.9931421
19	0xbfa45cec	-1.2840858
20	0xc0795117	-3.8955743
21	0xc06b9ba5	-3.6813748
22	0xc0342269	-2.8146002
23	0xc0a9e039	-5.308621
24	0x3fd5f49c	1.6715274
25	0xc0842101	-4.129029
26	0xc080d930	-4.026512
27	0xc02019dd	-2.5015786
28	0xc045ddc7	-3.0916612
29	0xc000d7f1	-2.01318
30	0xc0365a72	-2.8492703
31	0xc04651b1	-3.098736
32	0xc08e4cd7	-4.44688
33	0xc04ca004	-3.1972666
34	0xbfa670ad	-1.3003136
35	0xc05c3a37	-3.4410532
36	0xc01864cd	-2.3811524
37	0xc0711b7a	-3.767302
38	0xbffbde81	-1.9677278
39	0xc04960d5	-3.1465352
40	0xc059226d	-3.3927262
41	0xc05f2d1d	-3.4871285
42	0xc0824e01	-4.072022
43	0xc025d7b6	-2.591291
44	0xc031b8a9	-2.7768958
45	0xc051d589	-3.2786582
46	0xbdb7c579	-0.08973212
47	0xc07480f0	-3.8203697
48	0xbf10e359	-0.56596905
49	0xbfd9418f	-1.6973132
50	0xc03c444f	-2.9416692
51	0xbfc3184b	-1.5241789
52	0xc06edaed	-3.7321122
53	0xc0809aac	-4.018881
54	0xc089bb38	-4.304104
55	0xc016a889	-2.3540366
56	0xc014b84e	-2.323749
57	0xc08727cf	-4.2236094
58	0xc062e702	-3.5453496
59	0xbfe1c07b	-1.7636865
60	0xbfe98642	-1.8244097
61	0xc0861b5c	-4.19084
62	0xc028ecb9	-2.6394484
63	0xbfa223e5	-1.2667204

layer3.1.running_var f4 [64]
0	0x408f48b2	4.477624
1	0x40c9788f	6.2959666
2	0x40e3dfed	7.1210847
3	0x413e1136	11.879202
4	0x4128ff19	10.56228
5	0x40b77b83	5.733827
6	0x41100d31	9.003221
7	0x40f541aa	7.6642656
8	0x4107de81	8.491822
9	0x40c277e5	6.0771356
10	0x4101fa22	8.123568
11	0x40b67fc2	5.7030954
12	0x4080e394	4.0277805
13	0x40df1357	6.971111
14	0x40e4a0b5	7.1446176
15	0x40bd8245	5.922152
16	0x40dca709	6.89539
17	0x40d2da37	6.5891376
18	0x4097c02a	4.7422075
19	0x408bbb91	4.3666463
20	0x413798ac	11.474773
21	0x40dad11a	6.838025
22	0x40ecaaf0	7.3958664
23	0x4102f0c4	8.183781
24	0x4080449a	4.008374
25	0x40ca27e2	6.3173685
26	0x41098a17	8.596213
27	0x40eaf614	7.342539
28	0x40f9016d	7.781424
29	0x40b3d1de	5.6193686
30	0x40d2b1da	6.5842104
31	0x4123be87	10.234015
32	0x409607b4	4.6884403
33	0x40ae56c3	5.448091
34	0x409f1ed1	4.972512
35	0x41153b31	9.326951
36	0x410cb96d	8.79527
37	0x416d1ad1	14.819047
38	0x40ec60be	7.3868093
39	0x414813ef	12.504867
40	0x4130e052	11.054766
41	0x40ad614d	5.4181275
42	0x40d939d7	6.7883105
43	0x411d4a27	9.830604
44	0x41079386	8.473516
45	0x41198af7	9.596427
46	0x40c660ac	6.199301
47	0x4112a2ca	9.164743
48	0x40e9af3d	7.3026414
49	0x40ea7999	7.3273435
50	0x413cc9c7	11.799262
51	0x411d2645	9.821843
52	0x40bc272b	5.8797812
53	0x4142266b	12.134379
54	0x41265fa8	10.398354
55	0x40ccab0e	6.3958807
56	0x40b00ba7	5.5014224
57	0x40efee4c	7.497839
58	0x40ceb60c	6.4597225
59	0x40dbb882	6.866273
60	0x408b8e1a	4.3610964
61	0x41070a3d	8.44
62	0x40bc8064	5.8906727
63	0x40a7bec2	5.242036
