results/RENet-dataset-Conv64F-5-5-Jan-08-2024-20-55-23/checkpoints/emb_func_00030.pth (torch, 463459 bytes, 24 tensors)

layer1.0.weight f4 [64, 3, 3, 3]
0	0x3f0953e5	0.5364364
1	0x3e88f12e	0.26746505
2	0x3ce7f7c8	0.028316393
3	0xbf86c9cc	-1.0530334
4	0xbf327c7f	-0.69721216
5	0xbe9403d9	-0.28909186
6	0x3eae0924	0.3399135
7	0x3f3ae28f	0.7300195
8	0x3f52a1e5	0.8227828
9	0x3ea3f6e8	0.32024312
10	0xbe8def6f	-0.27721736
11	0xbec9d7a0	-0.3942232
12	0xbfc6212b	-1.5478872
13	0xbfa135f8	-1.2594595
14	0xbf40a6ad	-0.7525433
15	0x3e82cbaf	0.25546023
16	0x3f44b004	0.7683108
17	0x3f6b1657	0.9183096
18	0x3f450760	0.7696438
19	0x3e3a08a1	0.18167354
20	0x3d6cf0e8	0.057846934
21	0xbf490360	-0.78520775
22	0xbf2c6cd2	-0.67353547
23	0xbe5a8b0c	-0.21342105
24	0x3ede9108	0.43470025
25	0x3f5fc296	0.8740629
26	0x3f82ab6f	1.0208567
27	0xbe6cc028	-0.23120177
28	0xbe463c76	-0.19359002
29	0xbe3ac98c	-0.18240947
30	0xbe84be3c	-0.25926387
31	0xbe1e1168	-0.15436327
32	0xbe932d0f	-0.28745314
33	0xbdcf6218	-0.10126132
34	0xbdbfbe1f	-0.093624346
35	0xbe09ddfe	-0.1346359
36	0xbda4fcb4	-0.08056012
37	0x3d3508c5	0.044197816
38	0xbbe6a61d	-0.007038845
39	0xbccd5546	-0.025065076
40	0xba713916	-0.0009201927
41	0xbda9904c	-0.082794756
42	0x3d8722e4	0.06598452
43	0x3d5701d6	0.052491985
44	0x3d16c255	0.036806423
45	0xbb059400	-0.0020382404
46	0x3dd5b490	0.1043483
47	0x3d8d7627	0.069073014
48	0x3c99534a	0.018716473
49	0x3dca0a95	0.098652996
50	0x3dbfbe97	0.09362524
51	0x3e3334e6	0.17500648
52	0x3e4f53dc	0.20246834
53	0x3e23bcac	0.15989941
54	0x3dc05df8	0.09392923
55	0xbd03aacd	-0.03214531
56	0x3c8037b1	0.015651556
57	0xbe910649	-0.28325108
58	0xbeb03647	-0.3441641
59	0xbec6a0aa	-0.38794452
60	0xbe5df369	-0.21674885
61	0xbe7edda4	-0.24889237
62	0xbea6fdda	-0.32615548
63	0x3eea2c81	0.4573708
64	0x3ee5bba7	0.4486973
65	0x3ee093ca	0.43862754
66	0x3e76e7ec	0.24111909
67	0x3e66fa1f	0.22556351
68	0x3e453cf1	0.19261529
69	0x3afc6e9b	0.0019259037
70	0xbe0c590c	-0.13705844
71	0xbe0e1e6b	-0.13878791
72	0x3e80c82b	0.25152716
73	0x3e87a4da	0.2649296
74	0x3e920abc	0.28523815
75	0x3e5cc611	0.21559931
76	0x3e1de680	0.1541996
77	0x3c727482	0.014798285
78	0xbdf989b5	-0.12184469
79	0xbe54e2c9	-0.20789637
80	0xbe8554a1	-0.2604113
81	0x3f5089a1	0.81460005
82	0x3f5eccf7	0.870315
83	0x3f4d51db	0.80203027
84	0xbd11f974	-0.035638288
85	0xbe8cc32e	-0.2749266
86	0xbed48c4e	-0.41513294
87	0xbe8b886a	-0.27252513
88	0xbf46074c	-0.77354884
89	0xbf721abe	-0.94572055
90	0x3f3a000f	0.7265634
91	0x3f5a42a2	0.85257924
92	0x3f7fba4c	0.9989364
93	0x3d91a690	0.071118474
94	0xbe47ab63	-0.19498973
95	0xbe8093e9	-0.25112846
96	0xbdcd77bb	-0.100326024
97	0xbf43d440	-0.7649574
98	0xbf6502ea	-0.8945757
99	0x3e97d18e	0.29652065
100	0x3f088fad	0.5334423
101	0x3f2dc1ae	0.67873657
102	0xbbf62584	-0.0075117964
103	0xbe0ff607	-0.14058696
104	0xbe7417f8	-0.23837268
105	0x3d85d738	0.0653519
106	0xbf155f0e	-0.58348167
107	0xbf23c137	-0.639667
108	0x3e9079c2	0.28217894
109	0x3e83148c	0.25601614
110	0x3e2cdd22	0.1688123
111	0x3e4fa5c0	0.20278072
112	0xbd79c84e	-0.06098204
113	0x3d829dfb	0.06377789
114	0x3d99ea91	0.07515443
115	0xbea8965a	-0.3292721
116	0xbe80d30a	-0.2516101
117	0x3e44e6ef	0.19228719
118	0x3e3bd93d	0.18344589
119	0x3e32e6cd	0.17470856
120	0x3df90911	0.121599324
121	0xbd6dff19	-0.05810461
122	0xbc60dad4	-0.013724048
123	0x3debf596	0.11521451
124	0xbe710642	-0.23537543
125	0xbe020bfc	-0.12699884
126	0x3d8269b9	0.06367821
127	0x3d2a79e5	0.041620154
128	0x3d637cac	0.05553882
129	0xbda20bb0	-0.079123855
130	0xbe2f95c4	-0.17146975
131	0xbd6f95bf	-0.05849242
132	0xbd9acd20	-0.07558656
133	0xbe86c1b5	-0.26319662
134	0xbdfccde5	-0.12343959
135	0x3e255ccc	0.1614868
136	0x3e079a79	0.1324252
137	0x3d90d373	0.07071581
138	0x3dcd2356	0.100165054
139	0x3de2b4ee	0.11069666
140	0x3dccb722	0.09995867
141	0x3d99b9b5	0.07506124
142	0x3db9c220	0.090702295
143	0x3d0d3c93	0.034481596
144	0xbda3885e	-0.07984994
145	0xbde5ded3	-0.11224141
146	0xbddff665	-0.10935668
147	0xbe76a444	-0.240861
148	0xbea8d842	-0.32977492
149	0xbec676e4	-0.3876258
150	0xbe9ddc2a	-0.30832034
151	0xbeac71a9	-0.33680466
152	0xbe8fe2a1	-0.28102592
153	0x3ed6a4d3	0.41922626
154	0x3eb4358c	0.35197103
155	0x3e43efc5	0.19134434
156	0x3e50a76c	0.20376366
157	0x3d1569a8	0.036477715
158	0x3cb65dcf	0.022261528
159	0x3dd7e4cd	0.10541687
160	0x3d5dc33c	0.054141268
161	0x3d673009	0.056442294
162	0xbf3ae315	-0.7300275
163	0xbded0268	-0.115727246
164	0x3edfac84	0.43686306
165	0xbf386dc3	-0.72042483
166	0x3e11027b	0.14161102
167	0x3f18da1c	0.5970781
168	0xbeaac554	-0.33353674
169	0x3e03a2ab	0.12855022
170	0x3ec12b83	0.3772851
171	0xbf0d998f	-0.55312437
172	0x3df781fa	0.12085338
173	0x3f156f6f	0.5837316
174	0xbf3353b5	-0.700496
175	0x3eae9655	0.3409907
176	0x3f2c58a4	0.67322755
177	0xbe9de47c	-0.30838382
178	0x3e3398ef	0.17538808
179	0x3e7e4fb1	0.24835087
180	0xbee3d853	-0.4450098
181	0x3ca366ed	0.01994654
182	0x3efb47ce	0.4907822
183	0xbf2539ea	-0.64541495
184	0x3e4b5180	0.19855309
185	0x3f08ee5f	0.53488725
186	0xbec533fd	-0.38516226
187	0xbd376753	-0.044776272
188	0x3d9c97b9	0.07646126
189	0x3f5462df	0.82963365
190	0x3f63e12c	0.8901546
191	0x3f88e2f3	1.069426
192	0xbf247c57	-0.6425223
193	0xbf4b5194	-0.79421353
194	0xbf2ff5f2	-0.6873466
195	0xbeee0357	-0.46486923
196	0xbe977a38	-0.29585433
197	0xbeb707a0	-0.35748005
198	0x3da9ce3d	0.0829129
199	0x3e499341	0.19685079
200	0x3ed919d3	0.42402515
201	0xbf061075	-0.5236886
202	0xbf50ecad	-0.8161114
203	0xbf2be1ec	-0.67141604
204	0xbc36662c	-0.011132758
205	0x3e8db914	0.27680266
206	0x3cdcd9e9	0.026959376
207	0xbdb366c8	-0.08759838
208	0xbd01e6c9	-0.031714235
209	0x3e05cc69	0.13066258
210	0xbe5020e8	-0.20325053
211	0xbebc59d1	-0.36787274
212	0xbe891150	-0.2677102
213	0x3eb29d5e	0.34885687
214	0x3f1a9414	0.603822
215	0x3ed8fa28	0.42378354
216	0xbf7d2243	-0.98880404
217	0xbf66db36	-0.9017824
218	0xbea0d22e	-0.31410354
219	0xbf12f4ca	-0.5740477
220	0x3eab33fb	0.33438095
221	0x3f5f7c7d	0.8729933
222	0x3e0d363b	0.13790219
223	0x3eb54b6d	0.35409108
224	0x3f003d0a	0.5009314
225	0xbf618987	-0.88100475
226	0xbf93b5c7	-1.1539849
227	0xbf182119	-0.59425503
228	0xbe841db0	-0.258039
229	0x3f196402	0.59918225
230	0x3f84f531	1.0387326
231	0x3f06511a	0.524675
232	0x3f2f0707	0.683701
233	0x3f5271aa	0.8220469
234	0xbf0ddf72	-0.55419075
235	0xbf75de2a	-0.9604212
236	0xbf09610d	-0.5366371
237	0xbe93ad73	-0.2884327
238	0x3ec27e95	0.379872
239	0x3f3ffb62	0.74992955
240	0x3dbf1b76	0.0933141
241	0x3e88ba2a	0.26704532
242	0x3e755d5b	0.23961394
243	0x3c19a7c2	0.0093783755
244	0x3b416d4f	0.0029514616
245	0xbdf3aa57	-0.11897724
246	0x3d0ea78a	0.034827746
247	0xbdc6606d	-0.096863605
248	0xbcc798b9	-0.024364816
249	0x3c634047	0.013870305
250	0xbccc18d6	-0.024914186
251	0x3ca6d7e3	0.020366615
252	0x3c6ed2c9	0.014576622
253	0xbd96bc0d	-0.073600866
254	0xbde1bc6c	-0.11022267
255	0xbd1a9af5	-0.037745435

layer1.0.bias f4 [64]
0	0x3c9a05f1	0.018801661
1	0xbd4850cd	-0.048905183
2	0x3c1c8a11	0.009554402
3	0x3d4d53c9	0.050128732
4	0x3d280eff	0.041029926
5	0x3d557098	0.05210933
6	0x3d06eb62	0.032939322
7	0xbba4f721	-0.005034343
8	0x3c822626	0.015887331
9	0xbcd04b0b	-0.025426408
10	0x3d538fbe	0.051650755
11	0x3cf9976e	0.030467715
12	0xbd366c90	-0.044537127
13	0x3d5781ce	0.052614026
14	0xba6cb957	-0.00090303033
15	0xbb314287	-0.002704771
16	0xbc886d35	-0.016653636
17	0xbc838571	-0.01605484
18	0x3b4797d2	0.0030455482
19	0xbcf35a43	-0.029706126
20	0xbd67d85c	-0.05660282
21	0xbd0062a7	-0.031344082
22	0xbc4664bb	-0.012108977
23	0x3d3c365a	0.04595027
24	0x3d375ad6	0.044764362
25	0xbd155521	-0.03645814
26	0xbb1920cb	-0.0023365493
27	0xbc8fdca8	-0.017561272
28	0xbd055646	-0.03255298
29	0xbc2f5034	-0.010700274
30	0xbcacf5da	-0.021113325
31	0x3d0b5006	0.034011863
32	0xbcf7366c	-0.030177318
33	0x3c1962c5	0.009361927
34	0xbd0ca664	-0.03433837
35	0xbc9b942d	-0.018991554
36	0x3d443518	0.047902197
37	0xbcf4b93c	-0.029873483
38	0xbb6fc9dd	-0.0036588826
39	0x3d6e09c0	0.058114767
40	0x3caa9cf1	0.020826789
41	0xbcfdb9cb	-0.030972382
42	0xbd15a4dd	-0.03653418
43	0xbcaecded	-0.021338427
44	0xbc9c1978	-0.019055113
45	0x3cd907dd	0.026493007
46	0xbc5da62c	-0.013528388
47	0x3d523503	0.051320087
48	0xbd08c0e6	-0.033387087
49	0xbc9be05c	-0.019027881
50	0x3cb57caf	0.02215418
51	0x3d470ea0	0.04859793
52	0x3d6e6bbc	0.058208212
53	0x3c1f91ff	0.009739398
54	0x3b2816ff	0.0025648472
55	0xbcdf56a6	-0.027262997
56	0x3d0cd375	0.03438135
57	0xbd1078c5	-0.035271425
58	0xbc8305e7	-0.015994025
59	0xbd505096	-0.050858103
60	0xbd6f9adb	-0.05849729
61	0x3d0b500e	0.034011893
62	0x3b8775cc	0.0041339155
63	0x3d46b016	0.048507772

layer1.1.weight f4 [64]
0	0x3f8e9627	1.1139573
1	0x3ed23e7e	0.41063303
2	0x3eac2f8f	0.33630034
3	0x3f7e39b8	0.9930682
4	0x3ee88c3a	0.45419484
5	0x3ee2de84	0.4431039
6	0x3f697d93	0.91207236
7	0x3f42b0a9	0.7605081
8	0x3f997db3	1.1991485
9	0x3eaa36b8	0.33244872
10	0x3f6e2200	0.9302063
11	0x3d170b51	0.036876027
12	0x3e187660	0.14888906
13	0x3ef1e4c0	0.47244835
14	0x3e48227e	0.19544408
15	0x3f2cce5e	0.6750239
16	0x3efc16b0	0.4923606
17	0x3f7fe7b7	0.99962944
18	0x3ee1ccea	0.4410165
19	0x3f0c5283	0.548134
20	0x3e8724af	0.26395175
21	0x3ed9b896	0.4252364
22	0x3f4b6145	0.79445297
23	0x3d5fac5c	0.054607734
24	0x3f0a1845	0.5394328
25	0x3ef1f9cd	0.47260895
26	0x3e9de03b	0.30835137
27	0x3fa0e906	1.2571113
28	0x3fd195c5	1.6373831
29	0x3ec32bf3	0.38119468
30	0x3dbbfe16	0.091793224
31	0x3ecd4415	0.40091005
32	0x3f84091d	1.0315281
33	0x3f6ce538	0.9253726
34	0x3f084d9d	0.5324343
35	0x3f07dcfb	0.53071564
36	0x3e2d6dd5	0.16936429
37	0x3f8690fd	1.0512997
38	0x3ebf0204	0.37306225
39	0x3f059e8c	0.5219505
40	0x3ecfa19e	0.40552992
41	0x3ebfd45a	0.374667
42	0x3ef231ee	0.47303718
43	0x3e980652	0.29692322
44	0x3f5c5b62	0.8607694
45	0x3e891b90	0.2677884
46	0x3eacfb61	0.33785537
47	0x3f7f0a96	0.9962553
48	0x3f05caef	0.5226278
49	0x3f055712	0.52085984
50	0x3ddc99b6	0.107715055
51	0x3f3b7de5	0.73238975
52	0x3eec888e	0.46197933
53	0x3f2b1ae0	0.66837883
54	0x3ef76f7c	0.48327243
55	0x3e9992f5	0.29994932
56	0x3f094a09	0.53628594
57	0x3f06dc3f	0.5267982
58	0x3f277486	0.65412176
59	0x3f708a94	0.93961453
60	0x3f445ce4	0.7670424
61	0x3f1519fd	0.5824278
62	0x3e3baef8	0.18328464
63	0x3eb2f2e3	0.34950933

layer1.1.bias f4 [64]
0	0x3e83763b	0.2567614
1	0xbeb1e34f	-0.34743735
2	0x3e860c7b	0.26181397
3	0x3f06f0e1	0.527113
4	0xbef0d32d	-0.47036114
5	0xbec371d2	-0.38172776
6	0x3f0cf970	0.5506811
7	0x3e87ffbb	0.26562294
8	0x3ee1525c	0.44008148
9	0xbed473a2	-0.4149447
10	0x3f1506f5	0.5821374
11	0xbe12dd22	-0.14342168
12	0x3df80607	0.121105246
13	0xbd9f4c87	-0.07778268
14	0x3e783713	0.24239759
15	0xbef2b0f3	-0.47400627
16	0x3e2ae7b2	0.16689947
17	0x3ece8d30	0.40342093
18	0xbee763be	-0.45193285
19	0xbea072e0	-0.31337643
20	0xbe8e376a	-0.27776653
21	0x3e20a408	0.15687573
22	0xbf48ab3a	-0.7838627
23	0xbe2ca85e	-0.16861102
24	0xbec9e31c	-0.39431083
25	0xbcccaadf	-0.024983821
26	0xbc6bcced	-0.01439212
27	0x3f383a50	0.7196398
28	0xbe274676	-0.16335472
29	0x3ed8720b	0.42274508
30	0x3da44d4c	0.08022556
31	0xbebafa23	-0.36518964
32	0x3ec122e3	0.3772193
33	0x3f06612f	0.5249204
34	0xbe0833b3	-0.13300972
35	0xbef0ecdc	-0.4705571
36	0x3d215271	0.039385263
37	0x3d9ad7cc	0.07560691
38	0xbef79195	-0.48353258
39	0x3d54fa79	0.05199668
40	0xbd03bf34	-0.032164767
41	0xbd2a26a6	-0.041540764
42	0x3d0813d4	0.033222035
43	0xbe843c3d	-0.25827208
44	0x3eb3fa23	0.35151777
45	0x3eb6475f	0.35601327
46	0xbe217fb1	-0.15771367
47	0x3efa65be	0.48905748
48	0xbdf64a64	-0.12025908
49	0xbe896286	-0.2683298
50	0x3e105fc8	0.14099038
51	0xbf6801f3	-0.90627974
52	0x3ec29ff6	0.38012666
53	0x3ed0b3fd	0.4076232
54	0xbed7b888	-0.42132974
55	0x3e6f166a	0.23348394
56	0xbeb74a45	-0.3579885
57	0xbf0289f6	-0.5099176
58	0x3d52fad5	0.051508743
59	0x3e8e50d5	0.27796045
60	0x3eacef31	0.3377624
61	0x3dd5bb5e	0.10436128
62	0xbe35d42a	-0.17756715
63	0xbec5b810	-0.3861699

layer1.1.running_mean f4 [64]
0	0x3e7427a1	0.23843242
1	0xbee35525	-0.44400898
2	0xbe9e171c	-0.30877006
3	0xbd1bc05f	-0.038025256
4	0x3e11a337	0.14222418
5	0x3e8ef8aa	0.2792409
6	0x3cb1f58b	0.02172353
7	0xbe4b16f6	-0.19832978
8	0xbe33bf57	-0.17553459
9	0x3c1341b3	0.008987832
10	0x3dd0fa79	0.10204024
11	0x3d055c07	0.032558467
12	0xbd0a3c13	-0.033748697
13	0xbd91c02d	-0.07116733
14	0x3eea7bb3	0.457975
15	0x3ec6774a	0.38762885
16	0xbeeb940b	-0.46011385
17	0xbd31682f	-0.043312248
18	0xbe8d558d	-0.27604333
19	0xbe331a92	-0.17490605
20	0x3df4bfbc	0.11950633
21	0x3e6581cc	0.22412795
22	0xbd952ede	-0.0728433
23	0x3e5e3908	0.21701443
24	0xbe964755	-0.29351297
25	0xbf1a8e52	-0.60373414
26	0x3e7a53e5	0.24446066
27	0xbd8b35e7	-0.067973904
28	0xbdd35fd9	-0.10321016
29	0xbf120648	-0.57040834
30	0x3d9d1534	0.0767006
31	0xbe6bfa96	-0.2304481
32	0xbe6c875b	-0.23098509
33	0xbe4d889d	-0.20071645
34	0xbe7f7878	-0.24948299
35	0xbedf3626	-0.43596
36	0x3cbe2b06	0.023213875
37	0xbe046426	-0.12928829
38	0x3e1bae6a	0.15203252
39	0x3ea77d05	0.3271257
40	0xbe3c58c3	-0.18393235
41	0xbe87029b	-0.26369175
42	0xbf1b4ab8	-0.60660887
43	0x3dfe75c3	0.12424805
44	0x3e61e7e6	0.22061118
45	0xbccac954	-0.024754204
46	0xbe8fac0d	-0.28060952
47	0xbda72444	-0.08161214
48	0xbe0e36bd	-0.13888068
49	0xbeefc6b3	-0.46831283
50	0x3df413ff	0.119178765
51	0x3ddbf55e	0.107401595
52	0x3e0a98b8	0.1353482
53	0xbe58f625	-0.21187647
54	0xbebda2bf	-0.37038228
55	0x3ba216bc	0.004946558
56	0xbee83546	-0.45353144
57	0x3e0b98f4	0.13632566
58	0xbe44ae4e	-0.19207117
59	0x3e07bd56	0.1325582
60	0xbdb14c85	-0.08657173
61	0xbf161a03	-0.5863344
62	0x3d6aa34d	0.057284642
63	0xbc8326f0	-0.016009778

layer1.1.running_var f4 [64]
0	0x4060cc0c	3.512454
1	0x3f92a764	1.1457334
2	0x3ff39c4e	1.9032075
3	0x41009ac9	8.037789
4	0x3f19f1ba	0.6013447
5	0x3ec164c5	0.37772194
6	0x407a1953	3.9077957
7	0x4036cda1	2.8563006
8	0x41097f27	8.593543
9	0x3f0a132d	0.5393551
10	0x4091849b	4.547437
11	0x3f020a08	0.50796556
12	0x3ea49245	0.32142845
13	0x3fdcf5aa	1.7262471
14	0x3f926575	1.1437212
15	0x40223f5a	2.5351167
16	0x40263693	2.597081
17	0x406b3158	3.6748867
18	0x3f745c46	0.954533
19	0x4006f14f	2.1084783
20	0x3fb08afb	1.3792413
21	0x3f820115	1.015658
22	0x3f95226b	1.1651129
23	0x3ff2696c	1.8938422
24	0x3f2f3c56	0.6845144
25	0x401e731e	2.4757762
26	0x3fc88ec5	1.566857
27	0x4144c1d4	12.297321
28	0x41634ae3	14.205783
29	0x4005d439	2.091078
30	0x3f07b0f1	0.53004366
31	0x3f2323c6	0.6372646
32	0x4061c9ad	3.5279343
33	0x40c8fc4b	6.2807975
34	0x3fb979fd	1.4490353
35	0x3f947b2c	1.1600089
36	0x3f1c8d4e	0.61153114
37	0x40c6ef07	6.216678
38	0x3f031d34	0.51216435
39	0x3ff7edbe	1.9369428
40	0x3f83a09f	1.0283393
41	0x3f48ff7f	0.78514856
42	0x402874dd	2.6321328
43	0x3f99132d	1.1958977
44	0x40961b0a	4.6908007
45	0x3f782f0f	0.96946806
46	0x3fb02385	1.376084
47	0x40bc5be8	5.886219
48	0x3f48808e	0.7832116
49	0x3fd1cb8c	1.6390243
50	0x3e9861a0	0.29761982
51	0x3f88c4d9	1.0685073
52	0x3fd6d31a	1.6783173
53	0x3fea1ec1	1.8290635
54	0x3fad4825	1.3537642
55	0x3f843758	1.032939
56	0x3ff90bcc	1.9456725
57	0x3f3003bb	0.6875569
58	0x400a7ae7	2.1637514
59	0x4096f655	4.71757
60	0x4049810e	3.1485019
61	0x408698fa	4.206174
62	0x3e8cedb2	0.27525097
63	0x3e7cf72d	0.24703665

layer2.0.weight f4 [64, 64, 3, 3]
0	0x3dbd8524	0.0925391
1	0x3da65775	0.0812215
2	0x3d88c218	0.066776454
3	0xbd0d609e	-0.03451597
4	0xbce04e1e	-0.027381
5	0xbd324a35	-0.0435278
6	0x3d8982e5	0.06714419
7	0x3d4d4112	0.050110884
8	0x3bb8c81d	0.0056390897
9	0x3bfee688	0.0077789463
10	0xbbd74ed6	-0.0065706773
11	0xbbe1f98b	-0.006896203
12	0x3bba2a46	0.005681309
13	0x3c5b8489	0.013398298
14	0xbc0cccda	-0.008593762
15	0x39125d4f	0.00013958405
16	0xbb8b061f	-0.004242673
17	0x3ba59021	0.005052582
18	0xbd89a6cb	-0.06721266
19	0xbd1898b6	-0.03725501
20	0xbd259f7f	-0.04043531
21	0x3d5e18ad	0.05422275
22	0x3d61ab28	0.055094868
23	0x3d65c541	0.05609632
24	0x3da36ca6	0.079797074
25	0x3d8f648f	0.07001602
26	0x3d9fc61b	0.078014575
27	0xbdd19666	-0.10233764
28	0xbd9c8a5c	-0.076435775
29	0xbd876e30	-0.066128135
30	0x3a98d726	0.0011660799
31	0xbd06e2a6	-0.032930993
32	0xbd9931fc	-0.07480237
33	0x3c6e570d	0.014547122
34	0xbc86e32a	-0.016465742
35	0x3c0a7403	0.008450511
36	0xbd07cbeb	-0.033153456
37	0xbcbcdae4	-0.023053594
38	0xbd378fc8	-0.044814855
39	0xbd42decc	-0.047575757
40	0xbd819d9c	-0.0632889
41	0xbd82178c	-0.063521475
42	0xbd1f9dbb	-0.038968783
43	0xbd8d0750	-0.068861604
44	0xbd2f9a69	-0.042871866
45	0xbb8fa566	-0.0043837307
46	0xbccf7b38	-0.02532731
47	0xbc84e9ff	-0.01622486
48	0xbd68d322	-0.056841977
49	0xbd88839d	-0.06665728
50	0xbd8a4959	-0.06752271
51	0xbd49a464	-0.04922904
52	0xbdb0c680	-0.08631611
53	0xbda42cd9	-0.080163665
54	0xbd830218	-0.06396884
55	0xbd88961d	-0.06669257
56	0xbd25feb2	-0.0405261
57	0xbd5c03c9	-0.053714547
58	0xbd91e858	-0.07124394
59	0xbd5f8401	-0.054569248
60	0x3d018dfa	0.03162954
61	0xbd255188	-0.040360957
62	0xbd5cdba2	-0.053920396
63	0xbd506c00	-0.050884247
64	0xbd5a50db	-0.053299766
65	0xbdd28aab	-0.10280355
66	0x3c7d298a	0.015451798
67	0x3ca0d20d	0.01963141
68	0xbd0cbc70	-0.034359396
69	0x3d0ffc4a	0.03515271
70	0xbc81f9fd	-0.015866274
71	0xbd5d840a	-0.054081
72	0x3d9f17dd	0.077682234
73	0x3d7b11fb	0.061296444
74	0x3d2d4de4	0.04231061
75	0xbd024579	-0.031804536
76	0xbcb23539	-0.021753894
77	0xbd4c3227	-0.049852517
78	0x3d275330	0.04085082
79	0x3ce854fa	0.028360832
80	0xbd10e3c0	-0.03537345
81	0x3c4bb814	0.012434024
82	0x3bd32368	0.0064434297
83	0xbba260c2	-0.004955382
84	0x39db1358	0.00041785347
85	0xbcd7cb13	-0.02634195
86	0xbc43021f	-0.011902361
87	0xbc3f6ebf	-0.011684119
88	0xbb00c92d	-0.001965116
89	0xbc8f87d1	-0.017520817
90	0xbd5d1d8b	-0.053983252
91	0xbdeded60	-0.11617541
92	0xbe1e4fb3	-0.1546009
93	0x3c92066b	0.017825326
94	0xbca85b4d	-0.020551348
95	0xbdb4f639	-0.08836026
96	0x3e14f199	0.14545287
97	0x3e131519	0.14363517
98	0x3e0de857	0.13858162
99	0x3c853643	0.016261226
100	0x3c4e7a19	0.012602353
101	0xbb0545e7	-0.0020335854
102	0xbc58c15f	-0.013229697
103	0xbc0bbc6d	-0.008528811
104	0xbc2f4167	-0.0106967455
105	0xbb4c954f	-0.0031216925
106	0x3af550a5	0.001871605
107	0x3b497c3e	0.003074422
108	0x3c1ae1c8	0.0094532445
109	0x3c4b8732	0.01242237
110	0x3b104a06	0.0022016778
111	0x3ccac38b	0.024751445
112	0x3d04d1b1	0.03242654
113	0x3cc65d32	0.02421436
114	0x3cc6e280	0.024277925
115	0x3d078659	0.03308711
116	0x3cab56bb	0.02091538
117	0xbd24a9ab	-0.04020087
118	0xbd89214d	-0.06695805
119	0xbd90436d	-0.070441104
120	0xbdb6dd13	-0.08928885
121	0xbe093c7a	-0.13401976
122	0xbe056777	-0.1302775
123	0xbdbd7ce3	-0.09252336
124	0xbe11f5e5	-0.14253958
125	0xbe0aabe9	-0.13542141
126	0xbc483bab	-0.012221257
127	0xbc24d41f	-0.010060339
128	0xbcb0a373	-0.021562314
129	0xbd34e370	-0.044162214
130	0xbd19f74f	-0.037589367
131	0xbccb04ed	-0.024782622
132	0xbcdd6e95	-0.027030269
133	0xbc9364b5	-0.017992357
134	0xbcba6728	-0.022754267
135	0xbd2ab489	-0.041676078
136	0xbd378349	-0.044802938
137	0xbd237a8a	-0.039911784
138	0xbd9b2843	-0.07576039
139	0xbd9dd06f	-0.07705771
140	0xbd7340af	-0.05938786
141	0xbd46cdd0	-0.04853612
142	0xbd47b321	-0.048754815
143	0xbd5536e9	-0.05205432
144	0x3b59922e	0.0033198702
145	0x3c562fa9	0.0130728865
146	0xbc2673c3	-0.010159436
147	0x3d993615	0.074810185
148	0x3dbadf1e	0.091245875
149	0x3dbdf0e3	0.09274461
150	0x3da19a06	0.07890706
151	0x3dcbcb3b	0.099508725
152	0x3db433ba	0.087989286
153	0xbd272aeb	-0.040812414
154	0xbdb341df	-0.08752798
155	0xbde90508	-0.11377913
156	0x3a0e219f	0.000542188
157	0xbd8840c6	-0.066529796
158	0xbd96485f	-0.073380224
159	0x3cb7da23	0.022442883
160	0x3d3b1a7f	0.045679566
161	0x3d976a5c	0.07393333
162	0xbc01775c	-0.007901993
163	0xbc2e0361	-0.010620923
164	0x3c3cce21	0.011523754
165	0xba4422f3	-0.00074820145
166	0x3b09fa1f	0.0021053625
167	0x3c980fe8	0.018562272
168	0x3c2981e7	0.010345913
169	0xb89c97cd	-7.466935e-05
170	0x38ad4a83	8.263162e-05
171	0xbccdb3e0	-0.025110185
172	0xbd5fa53a	-0.05460093
173	0xbd7d476b	-0.061835688
174	0xbdc150bc	-0.09439227
175	0xbde8935f	-0.11356234
176	0xbdf51470	-0.11966789
177	0xbda74722	-0.081678644
178	0xbde9b544	-0.11411527
179	0xbde1376b	-0.10996898
180	0xbc47e6a7	-0.012200988
181	0xbcf328c1	-0.029682519
182	0xbc831402	-0.016000751
183	0xbcdc9ab8	-0.026929244
184	0xbcec1d97	-0.028822703
185	0xbcb62f9f	-0.022239504
186	0xbccf1f8c	-0.025283597
187	0xbd27df94	-0.040984705
188	0xbd472ecf	-0.048628625
189	0xbd48d24e	-0.049028687
190	0xbd3d137e	-0.046161167
191	0xbd55c420	-0.052188993
192	0xbcaceb17	-0.021108193
193	0xbd69301e	-0.056930654
194	0xbd764d9c	-0.060132608
195	0xbc82d1d4	-0.015969194
196	0xbd166332	-0.036715694
197	0xbcacc219	-0.021088647
198	0xbd911480	-0.07083988
199	0xbd6c3f6c	-0.05767767
200	0xbc89db5f	-0.016828237
201	0xbd0a08e0	-0.03369987
202	0xbd31423a	-0.04327605
203	0xbbd55bcc	-0.006511187
204	0xbd5884bc	-0.05286096
205	0xbd4e103e	-0.05030846
206	0xbc6169b0	-0.013758108
207	0x3a18db4b	0.0005831017
208	0xbc7f1b60	-0.015570492
209	0xbd124e87	-0.03571942
210	0xbc066e34	-0.008204985
211	0xbcab7ca7	-0.020933462
212	0xbcd99778	-0.026561484
213	0xbd24f62a	-0.040273823
214	0xbd3ca15a	-0.046052314
215	0xbd081692	-0.03322465
216	0x3a9dfef7	0.0012054135
217	0x3c400f43	0.011722389
218	0xbcbab55e	-0.02279156
219	0x3bcb4052	0.006202736
220	0xbceac591	-0.02865866
221	0xbcb3c578	-0.021944746
222	0x3b8d10ce	0.004304982
223	0xbcecb32e	-0.028894033
224	0xbcf8cfc5	-0.03037251
225	0x3ac7fa7e	0.0015257148
226	0xbab46bfb	-0.0013765091
227	0xbb6bbcf6	-0.0035970784
228	0x3d802735	0.06257478
229	0x3d91019d	0.07080386
230	0x3da127a8	0.07868892
231	0x3d80d8cc	0.06291351
232	0x3daceaa5	0.084431924
233	0x3d98c380	0.07459164
234	0x3c5c2ad9	0.01343795
235	0x39f5793e	0.00046820374
236	0x3c29c8be	0.010362802
237	0xbc21e342	-0.009880843
238	0xbcb36f26	-0.021903586
239	0xbc9684e5	-0.018373916
240	0x3c3d243d	0.011544284
241	0x3c49f89a	0.012327338
242	0x3bcd0bbf	0.0062575038
243	0x3e3bd5db	0.18343298
244	0x3e0b48c4	0.13601977
245	0x3d9a7193	0.07541194
246	0x3d93cb01	0.07216454
247	0x3cf7e5be	0.030260917
248	0xbd45e01f	-0.04830944
249	0x3dbbd378	0.09171194
250	0x3df067f2	0.11738576
251	0x3d11fb4e	0.035640053
252	0xbd7b37c2	-0.06133247
253	0xbd89192a	-0.06694253
254	0xbc864a78	-0.016392931
255	0xbd83c4d2	-0.06434025

layer2.0.bias f4 [64]
0	0xb9ffd1d5	-0.00048793727
1	0x3c0d36ee	0.008619053
2	0xbc4f6e50	-0.012660578
3	0xbb87827d	-0.0041354285
4	0x3bdfad7c	0.006826101
5	0xbb4349b1	-0.0029798562
6	0x3c0b8f3c	0.008518036
7	0x3b949373	0.004534179
8	0x3b15099d	0.0022741326
9	0xbaed9fdb	-0.0018129306
10	0xbb507a66	-0.0031811236
11	0xbb334de6	-0.0027359664
12	0xba9a3e16	-0.0011767771
13	0xbbe8b4bb	-0.007101623
14	0xbb75dd6d	-0.0037516013
15	0x3bf5af26	0.007497686
16	0x3c16cc31	0.009203956
17	0x3b1e3b67	0.0024144293
18	0x3b04592a	0.0020194747
19	0xbc38fa5d	-0.01129016
20	0x3b301dd3	0.0026873245
21	0x3c341ffa	0.010993952
22	0xbbbab112	-0.005697378
23	0xbb56ffc1	-0.003280625
24	0x3c5180c0	0.012787044
25	0x3b0267fc	0.0019898405
26	0x3c290223	0.010315451
27	0xbb6a3446	-0.0035736724
28	0xbc428374	-0.011872161
29	0x3a95637b	0.0011397445
30	0xbc26e515	-0.010186453
31	0xbbb9edc4	-0.005674096
32	0x3b95f1bc	0.004575936
33	0xbc479395	-0.012181182
34	0x3bea4da5	0.007150369
35	0x3c462b35	0.012095262
36	0x3c4a40d3	0.012344557
37	0xbc3b759f	-0.011441617
38	0xbc55e60e	-0.013055338
39	0xbbad11a3	-0.0052816435
40	0x3a878b0a	0.001034112
41	0xbbd36de3	-0.0064523085
42	0x3c17a59b	0.009255792
43	0x3c44b38f	0.012005701
44	0x3b63fac1	0.0034786912
45	0xbb010f3f	-0.0019692925
46	0xbc4542ef	-0.012039884
47	0x3c02a076	0.007972827
48	0xbafb4e50	-0.0019173119
49	0x3c13c259	0.009018504
50	0x3ba4d488	0.0050302185
51	0x3b10556d	0.0022023574
52	0xbc1ffa43	-0.009764257
53	0x3c0bac7b	0.008525009
54	0x3b256deb	0.0025242518
55	0x3c291315	0.010319491
56	0x3c22e1a0	0.0099414885
57	0xbbe331ca	-0.0069334256
58	0xbc252871	-0.010080443
59	0xbc4b965b	-0.012425984
60	0xbb91bba6	-0.0044474183
61	0xbb92dc22	-0.0044818083
62	0x3a60bf25	0.00085734046
63	0x3be46c52	0.0069709206

layer2.1.weight f4 [64]
0	0x3f10a582	0.56502545
1	0x3f81ab83	1.0130466
2	0x3f08cbb5	0.5343583
3	0x3f53cc44	0.8273356
4	0x3ef8d2a3	0.48598203
5	0x3f60340e	0.8757943
6	0x3f87c6d5	1.0607554
7	0x3f3eeb2c	0.74577594
8	0x3f87aa78	1.0598898
9	0x3f996d25	1.1986433
10	0x3f6a81a4	0.91604066
11	0x3fa4243d	1.2823559
12	0x3f09fa32	0.5389739
13	0x3f34e947	0.7066845
14	0x3f8bfde3	1.0936855
15	0x3f64e2df	0.8940868
16	0x3f91c6a8	1.138875
17	0x3f405a9d	0.75138265
18	0x3f7931f9	0.9734188
19	0x3f661aa7	0.8988442
20	0x3ed61678	0.41814017
21	0x3f8d6fc5	1.1049734
22	0x3fab92ac	1.3404136
23	0x3f83242e	1.0245416
24	0x3f8e674e	1.1125276
25	0x3f2d1f89	0.67626244
26	0x3f383223	0.719515
27	0x3f6f519b	0.93483895
28	0x3f14be30	0.58102703
29	0x3f606a26	0.8766197
30	0x3ebffbc1	0.3749676
31	0x3f50433e	0.81352603
32	0x3f91f7fa	1.1403801
33	0x3f4f9ae1	0.810957
34	0x3f53c217	0.8271803
35	0x3f9ab9ce	1.2087953
36	0x3f335328	0.7004876
37	0x3f501555	0.8128255
38	0x3fabf8e1	1.3435327
39	0x3f6923ed	0.91070443
40	0x3fa13bc6	1.2596366
41	0x3f8e3829	1.1110889
42	0x3f74a818	0.9556899
43	0x3f40cd6c	0.7531345
44	0x3f80ce0f	1.0062884
45	0x3f49197c	0.7855451
46	0x3f41a8cd	0.75648195
47	0x3f76d2f0	0.96415615
48	0x3f9c0237	1.2188176
49	0x3f605802	0.8763429
50	0x3f956be6	1.1673553
51	0x3f68c5bd	0.90926725
52	0x3f8a1e8f	1.0790576
53	0x3f6015ed	0.87533456
54	0x3f70985d	0.9398249
55	0x3f648e61	0.8927975
56	0x3f8c1802	1.0944827
57	0x3f84dd88	1.0380106
58	0x3f79368b	0.9734885
59	0x3f88061e	1.0626867
60	0x3f38a998	0.7213378
61	0x3f69156b	0.91048306
62	0x3f20a166	0.62746274
63	0x3f864c9c	1.0492129

layer2.1.bias f4 [64]
0	0xbea36a15	-0.31916872
1	0xbeb41bf8	-0.35177588
2	0x3e475207	0.19464885
3	0xbf804f13	-1.0024132
4	0xbe8468bc	-0.25861156
5	0xbecbce3f	-0.3980579
6	0xbedd9c3b	-0.43283257
7	0xbde240a3	-0.11047485
8	0xbee192b1	-0.4405723
9	0xbeb5e1fd	-0.35523978
10	0xbea47be6	-0.32125777
11	0xbef0d0c9	-0.4703429
12	0xbecb9040	-0.39758492
13	0x3bd42cc7	0.0064750644
14	0xbea5146c	-0.32242143
15	0xbe9f6fa4	-0.31139863
16	0xbe8719f7	-0.26386997
17	0xbead01df	-0.3379049
18	0xbe095b81	-0.13413812
19	0xbf17c6b9	-0.592876
20	0x3cb48919	0.02203803
21	0xbf0017ac	-0.5003612
22	0xbf032db3	-0.51241606
23	0xbed0c5bd	-0.40775862
24	0xbd82f21f	-0.06393837
25	0xbdd7aaef	-0.1053065
26	0xbf06d290	-0.5266504
27	0xbe7b53ec	-0.24543732
28	0xbe40b396	-0.18818507
29	0xbe5191a3	-0.20465712
30	0x3e980609	0.29692104
31	0xbe9e9bf6	-0.30978364
32	0xbef33b14	-0.4750601
33	0xbe9425c3	-0.2893506
34	0xbeb8cf4f	-0.36095664
35	0xbf0c0eeb	-0.54710263
36	0x3de68424	0.112556726
37	0xbef5d813	-0.48016414
38	0xbf0970d6	-0.536878
39	0xbc22b3c8	-0.0099305585
40	0xbf2e9344	-0.6819346
41	0xbe61ae3a	-0.22039118
42	0xbd003a48	-0.03130558
43	0x3cb15c81	0.021650555
44	0xbeb4095c	-0.3516339
45	0xbf11ad3e	-0.5690497
46	0xbea875a6	-0.3290226
47	0xbef0e875	-0.4705235
48	0xbee1eb15	-0.44124666
49	0xbed87a57	-0.42280838
50	0xbe26ec88	-0.16301167
51	0xbe9a4a65	-0.30134884
52	0xbe6c55ac	-0.23079556
53	0xbea035bc	-0.31290996
54	0xbf8f9d46	-1.1219871
55	0x3e254bca	0.16142192
56	0xbea77a49	-0.32710484
57	0xbee636bc	-0.44963634
58	0xbf04fb62	-0.5194608
59	0xbe578f42	-0.21050742
60	0xbd828d1d	-0.063745715
61	0xbe6b0395	-0.22950585
62	0x3ce1c9e4	0.02756209
63	0xbe753fee	-0.23950168

layer2.1.running_mean f4 [64]
0	0xc0271d42	-2.6111608
1	0xbfd436a7	-1.6579179
2	0xc03fc1be	-2.9962
3	0x4049cea7	3.153238
4	0x3fe6cb00	1.8030701
5	0xbe99d602	-0.30046088
6	0xc0b4898c	-5.6417904
7	0xbf229ebc	-0.6352346
8	0xc0c72cbd	-6.224211
9	0xc0bb1bd3	-5.8471465
10	0xc0a8f01f	-5.2793117
11	0xc092315b	-4.568525
12	0x3f2db9b4	0.67861485
13	0xbf961f95	-1.1728388
14	0xc0965a5c	-4.69853
15	0xc0e7d07a	-7.244199
16	0xc0a7d2ac	-5.244467
17	0xc022a44b	-2.5412776
18	0xc0cf5855	-6.4795327
19	0xc02bd94e	-2.6851382
20	0x3f461b88	0.7738576
21	0xc062488d	-3.5356781
22	0xc0bfaefa	-5.9901094
23	0xc09fb5b8	-4.9909325
24	0xc12af3b2	-10.684496
25	0xbebe9d68	-0.37229466
26	0xc080ead5	-4.028666
27	0xc081e413	-4.059091
28	0xbfcc2758	-1.5949507
29	0xc077eb66	-3.8737426
30	0xbfc3cddd	-1.52972
31	0xc0241572	-2.563809
32	0xc09e6a2c	-4.9504604
33	0xc06470d5	-3.5693867
34	0xbf53d9b9	-0.82754093
35	0xc00ff632	-2.2494016
36	0xc06050ad	-3.504924
37	0xc073f032	-3.8115354
38	0xc1484696	-12.517233
39	0xc07cab3d	-3.9479516
40	0xc1507da4	-13.030674
41	0xc0478158	-3.1172695
42	0xbfe1a6a8	-1.7628984
43	0xbee1218c	-0.43970907
44	0xc08561b9	-4.168179
45	0xc0160de9	-2.344599
46	0xbe6f3d10	-0.23363137
47	0xc0a62930	-5.192528
48	0xc0e56dcd	-7.1696534
49	0xc05989e5	-3.3990414
50	0xc080a6f3	-4.0203795
51	0xc03ba63e	-2.9320216
52	0xc085294d	-4.1612916
53	0xc0477719	-3.1166441
54	0x406c6c53	3.6941116
55	0xc11c5ef6	-9.773184
56	0xc0e66af1	-7.2005544
57	0xc0981a36	-4.7531996
58	0xc0c02ec3	-6.005708
59	0xc0e55add	-7.1673417
60	0xc0674acd	-3.6139405
61	0xc0030eba	-2.0477738
62	0xbfc77fae	-1.558584
63	0xc0618eb3	-3.5243347

layer2.1.running_var f4 [64]
0	0x40d6cbf3	6.712396
1	0x418761fc	16.922844
2	0x415e5373	13.895373
3	0x41416830	12.087936
4	0x40e46efe	7.138549
5	0x41584137	13.515922
6	0x41aa6882	21.30103
7	0x40d8f3c1	6.779755
8	0x41804ec6	16.038464
9	0x41ae8e4e	21.819485
10	0x41e630dd	28.773859
11	0x41dd3252	27.64957
12	0x4096236f	4.6918254
13	0x41653cbd	14.327329
14	0x422bf99d	42.993763
15	0x418700b7	16.875349
16	0x4222742c	40.61345
17	0x40d5bf95	6.6796365
18	0x41ca03e2	25.251896
19	0x414faec0	12.980164
20	0x40c90e87	6.2830234
21	0x41863c30	16.779388
22	0x41da7264	27.305855
23	0x4160a480	14.040161
24	0x41fabf84	31.343513
25	0x41862b24	16.771065
26	0x4106d44e	8.426832
27	0x41f46402	30.548832
28	0x40b64935	5.6964364
29	0x41b41495	22.51005
30	0x41443707	12.263434
31	0x4118ab0e	9.541761
32	0x41a42072	20.515842
33	0x4133e4b1	11.243333
34	0x418f358e	17.90115
35	0x412f1bb7	10.944266
36	0x417b72f1	15.715562
37	0x4117010d	9.437757
38	0x421c2bbd	39.042713
39	0x415158c0	13.0841675
40	0x420b3641	34.802982
41	0x41b60764	22.753609
42	0x41c369da	24.426685
43	0x4132a22d	11.164594
44	0x4207040d	33.753956
45	0x40b7cf21	5.7440343
46	0x4116b6da	9.4196415
47	0x418c6da7	17.553541
48	0x4235c0b8	45.4382
49	0x41600f9d	14.003812
50	0x41f6dfa2	30.859196
51	0x41bec317	23.845259
52	0x41ec433e	29.532833
53	0x41530ec2	13.191103
54	0x4153db44	13.241032
55	0x41c01d5d	24.014338
56	0x41bd9a23	23.700262
57	0x41cb8900	25.441895
58	0x419418da	18.512135
59	0x417df038	15.871147
60	0x4152b32f	13.168746
61	0x41b4dcfd	22.607904
62	0x4215aec3	37.420666
63	0x41d111ff	26.133787

layer3.0.weight f4 [64, 64, 3, 3]
0	0xbd66083b	-0.056160193
1	0xbce40f65	-0.027839372
2	0xbd20489e	-0.039131753
3	0x3db1fa77	0.086903505
4	0x3e435fde	0.19079539
5	0x3e2ef7e4	0.1708675
6	0x3dca62ea	0.098821476
7	0x3de6e69f	0.11274456
8	0x3dc88cc5	0.09792475
9	0xbe055414	-0.13020355
10	0xbe131574	-0.14363652
11	0x3d308d61	0.04310358
12	0xbe6a2ced	-0.228687
13	0xbd29e36f	-0.041476663
14	0xbe0b807b	-0.1362323
15	0xbdd0f1fd	-0.102024056
16	0xbe308e3c	-0.17241758
17	0xbe4b2b43	-0.19840722
18	0xbd7a45e2	-0.0611018
19	0xbda6261b	-0.08112737
20	0xbd171402	-0.036884315
21	0xbe359f48	-0.17736542
22	0xbe6c5581	-0.23079492
23	0xbe570c56	-0.210008
24	0xbe6405be	-0.22267815
25	0xbe7d1baf	-0.24717592
26	0xbe8745a0	-0.26420307
27	0x3d32d5a9	0.043660793
28	0xbd2f247f	-0.042759415
29	0xbd4162e2	-0.047213443
30	0x3dd288c0	0.10279989
31	0x3caa9124	0.020821162
32	0xbc8d8c11	-0.017278703
33	0xbd800f37	-0.06252902
34	0xbdc4a65d	-0.09602044
35	0xbe100a66	-0.14066467
36	0x3c64f36d	0.013974053
37	0xbc212d37	-0.00983744
38	0x3da1c338	0.07898563
39	0x3c7e5a09	0.015524396
40	0x3d4fcd7f	0.050733086
41	0x3ce59183	0.028023487
42	0xbd47ec06	-0.048809074
43	0xbd55216c	-0.052033827
44	0xbe04d334	-0.12971193
45	0x3cad80dc	0.021179609
46	0x3bbbda32	0.005732798
47	0xbdbc3f39	-0.09191746
48	0x3d26b6f7	0.040701833
49	0xbcbf3bce	-0.023343947
50	0xbd6f504f	-0.058426198
51	0xbe0fe54e	-0.14052317
52	0xbdbc2506	-0.09186749
53	0xbd7a850d	-0.061162043
54	0xbe02819d	-0.12744756
55	0xbdcc03d1	-0.099616654
56	0x3daba6f8	0.08381456
57	0xbe1a2b69	-0.15055622
58	0xbd11e0de	-0.03561484
59	0x3def54fb	0.116861306
60	0x3d18db2d	0.037318397
61	0x3c37a84a	0.011209557
62	0x3d02b2a6	0.031908654
63	0xbd62dc1b	-0.05538569
64	0xbd8196c7	-0.063275866
65	0x3bb10607	0.00540233
66	0x3d9c47f6	0.07630913
67	0x3d4945eb	0.049138945
68	0x3e36b2a2	0.1784158
69	0xbd466a93	-0.04844148
70	0xbd1dfda3	-0.038571965
71	0xbdabedc8	-0.083949625
72	0xbadcf63f	-0.0016858055
73	0x3d330a7a	0.043711163
74	0xbd9bfd69	-0.076166935
75	0x3dda99a9	0.106738396
76	0x3cad757c	0.021174185
77	0xbe240084	-0.16015822
78	0x3e6f1cab	0.2335078
79	0x3def5ead	0.1168798
80	0xbd94b29a	-0.07260628
81	0xbe425230	-0.18976665
82	0xbdb32529	-0.08747322
83	0x3de368d0	0.11103976
84	0xbe06cbf4	-0.1316374
85	0x3bbefc53	0.0058284192
86	0x3dfe5c40	0.12419939
87	0x3dc29dc8	0.09502751
88	0x3d92afd3	0.07162442
89	0xbd0aeea6	-0.033919
90	0xbdf143a2	-0.11780478
91	0x3c1562ee	0.009117825
92	0x3d896efb	0.06710621
93	0xbcfb5630	-0.030680746
94	0xbdc06aff	-0.09395408
95	0x3d5c7756	0.053824745
96	0x3e13f1bc	0.14447683
97	0x3d5de894	0.054176882
98	0x3ddb4a5f	0.107075445
99	0xbd0304f6	-0.031987153
100	0xbd05ed96	-0.032697283
101	0xbdfa4d58	-0.122217834
102	0x3da08fe4	0.07839945
103	0xbd66798d	-0.056268264
104	0xbcffc8fd	-0.031223768
105	0xbd46a6a0	-0.04849875
106	0xbde869d0	-0.11348307
107	0xbe09ef7b	-0.13470261
108	0x3ccbd1c0	0.02488029
109	0x3d87dad1	0.06633533
110	0x3e05a881	0.1305256
111	0x3e21308d	0.15741177
112	0x3e2be142	0.16785148
113	0x3d21fac2	0.039545782
114	0x3e2f43ce	0.17115709
115	0x3dc0674f	0.093947046
116	0xbd5996d8	-0.05312237
117	0x3d2df1d6	0.04246696
118	0xb98a1685	-0.0002633819
119	0x3d8c2920	0.068437815
120	0x3d372811	0.044715945
121	0xbd06554b	-0.032796185
122	0xbc39936f	-0.011326655
123	0x3bc61df0	0.0060460493
124	0xbdeceb18	-0.11568278
125	0xbd3be871	-0.04587597
126	0x3daed618	0.08536929
127	0xbdaf2068	-0.08551103
128	0xbd282b78	-0.04105708
129	0xbdf99c0d	-0.121879674
130	0xbe2191f1	-0.15778328
131	0xbdd4163d	-0.10355804
132	0xbe07251e	-0.13197753
133	0xbe44eb24	-0.19230324
134	0x3c315ffc	0.010826107
135	0xbd1db814	-0.03850563
136	0xbd3789ad	-0.044809032
137	0x3cbf8b44	0.023381837
138	0xbd9e094f	-0.07716619
139	0xbde9bf49	-0.11413438
140	0xbd1cbc04	-0.038265243
141	0xbd739d18	-0.05947599
142	0xbd190210	-0.037355483
143	0xbbc862ee	-0.006115309
144	0xbe0b4bb9	-0.13603105
145	0x3d6be4d8	0.05759129
146	0x3eab64f4	0.3347546
147	0xbd5f1610	-0.0544644
148	0x3d185e23	0.03719915
149	0x3db1f82e	0.08689915
150	0x3dfe084c	0.12403926
151	0xbc247110	-0.010036722
152	0xbe50b670	-0.20382094
153	0xbda9ea65	-0.0829666
154	0xbdb411cb	-0.08792456
155	0xbd05a0a4	-0.032623902
156	0xbd53d979	-0.05172107
157	0xbda2b434	-0.07944527
158	0xbd2bbb90	-0.04192692
159	0xbd22f9ac	-0.039788887
160	0xbcede2c6	-0.029038798
161	0xbc6862d0	-0.014183715
162	0xbc9d2b95	-0.01918582
163	0x3d42bb88	0.047542125
164	0xbd1594db	-0.036518913
165	0x3df86803	0.12129214
166	0x3df59fcb	0.11993369
167	0x3cc39b4c	0.023877762
168	0x3e379cbe	0.17930886
169	0x3e9c4514	0.30521452
170	0x3e1acaa8	0.1511637
171	0x3dc266ef	0.09492289
172	0x3d0cb08d	0.03434806
173	0xbcebed1b	-0.028799584
174	0x3befc03b	0.007316617
175	0x3dcfaa14	0.10139862
176	0x3d3845bb	0.044988375
177	0xbdbf7cdc	-0.09349987
178	0xbdd65ef1	-0.104673274
179	0xbe1b83e7	-0.15187036
180	0xbd99b50c	-0.07505235
181	0xbd937bce	-0.07201348
182	0xbdb0c523	-0.08631351
183	0x3d3b2877	0.045692887
184	0x3d0df4d0	0.0346573
185	0xbc9c50c1	-0.019081475
186	0xbad608cd	-0.0016329527
187	0xbd60c21f	-0.05487263
188	0xbe46a822	-0.19400075
189	0x3e17cdc0	0.14824581
190	0xbb104a41	-0.0022016915
191	0x3d6cb448	0.057789117
192	0x3de8475b	0.11341735
193	0x3dc6b6ba	0.09702821
194	0x3d0c7552	0.034291573
195	0xbdc2b93a	-0.095079854
196	0xbe1f05bb	-0.1552953
197	0xbe4be711	-0.19912364
198	0x3d2f5f32	0.042815395
199	0x3dd44017	0.10363787
200	0x3da386eb	0.07984718
201	0xbe0fd935	-0.14047702
202	0xbdb096a9	-0.08622486
203	0xbe0647e0	-0.13113356
204	0xbe043a8b	-0.12912957
205	0xbdd41c85	-0.10357002
206	0xbe05b9ea	-0.13059202
207	0xbd47f976	-0.04882189
208	0xbc9f306e	-0.019432273
209	0xbd60cdc3	-0.05488373
210	0xbd48af7f	-0.04899549
211	0xbd7706c1	-0.060309175
212	0xbd9596e0	-0.07304168
213	0x3d4088df	0.04700553
214	0xbd926304	-0.07147792
215	0xbe0379fb	-0.128395
216	0xbdad98d5	-0.08476416
217	0xbd6a943b	-0.05727027
218	0xbc53488a	-0.012895713
219	0xbd3fffd9	-0.046874855
220	0xbe2ec57b	-0.1706752
221	0xbcb5689d	-0.02214461
222	0x3dc1b146	0.0945764
223	0x3ce46fbf	0.027885316
224	0x3dad4096	0.084595844
225	0x3c8a5707	0.016887201
226	0xbd6679f1	-0.056268636
227	0xbdb3c88c	-0.08778486
228	0x3c98920e	0.018624332
229	0xbd6f6720	-0.058447957
230	0xbe00af1c	-0.12566799
231	0xbdeca67c	-0.11555192
232	0xbe42b56e	-0.19014522
233	0xbe7d55af	-0.24739717
234	0xbd88d215	-0.06680695
235	0xbd442517	-0.047886934
236	0xbc9008b8	-0.017582282
237	0x3dc94643	0.098278545
238	0x3df167a3	0.11787345
239	0x3db33512	0.08750357
240	0x3bd558b5	0.006510819
241	0x3d1e5a07	0.038660076
242	0x3c0f1aa9	0.008734384
243	0x3d0da530	0.034581363
244	0x3c73be31	0.014876888
245	0xbaebca85	-0.0017989433
246	0x3d5e914a	0.054337777
247	0x3dd122cc	0.10211715
248	0x3d4d8c7c	0.050182804
249	0xbd1983b8	-0.037479132
250	0xbbdaa59d	-0.0066725747
251	0xbdda0736	-0.106459066
252	0x3d2d590f	0.04232126
253	0xbce195f6	-0.027537327
254	0xbcb85a2f	-0.02250394
255	0x3c637a6a	0.013884166

layer3.0.bias f4 [64]
0	0xba8e6cf0	-0.0010866206
1	0xb981c457	-0.00024751082
2	0xbc26b96c	-0.010176044
3	0xbc095a80	-0.008383393
4	0xbc38da9b	-0.011282588
5	0xb995244d	-0.0002844654
6	0xbc1b5d0e	-0.009482635
7	0x38110b11	3.4581e-05
8	0xbbc146a3	-0.005898313
9	0xbb8c4617	-0.0042808163
10	0x3c45aa3d	0.012064514
11	0xbc37d676	-0.011220565
12	0xbbb31c1e	-0.0054659983
13	0x3a802fdd	0.0009779889
14	0xbb80dc4b	-0.003932511
15	0x3b9fcf80	0.004877031
16	0x3c4bf930	0.012449548
17	0x3bdabb2a	0.0066751437
18	0x3bd7ee0b	0.006589656
19	0xba9878a5	-0.0011632635
20	0xbb18bb19	-0.0023304878
21	0x3b6c608e	0.0036068293
22	0x3be553ff	0.0069985385
23	0x3c09ca19	0.00841
24	0x3ba0f5df	0.0049121226
25	0x3be384be	0.0069433143
26	0x3b401e61	0.0029314982
27	0xb973224b	-0.00023187061
28	0xbb286475	-0.0025694643
29	0xbc25917e	-0.010105489
30	0xbc5500b3	-0.013000655
31	0xbc4ebbbd	-0.0126180025
32	0x3c2780e2	0.010223599
33	0x3b582e7f	0.0032986698
34	0x3c43dc29	0.011954346
35	0xbc221965	-0.00989375
36	0x3c354974	0.011064876
37	0xbc52669a	-0.012841845
38	0xbb1d4250	-0.0023995824
39	0x3bc113af	0.005892239
40	0xbc47939e	-0.012181191
41	0x3c0f2c94	0.008738656
42	0xbc4590dd	-0.012058464
43	0x3c0dfe06	0.008666521
44	0x3c31e635	0.010858108
45	0x3c248632	0.01004176
46	0x39994024	0.00029230223
47	0x3bfb1ec2	0.0076635787
48	0x3bc0ad37	0.005880024
49	0x3c2b8f83	0.010471228
50	0xbc4bc9e5	-0.012438272
51	0xbc4e2ec6	-0.012584394
52	0xbc0f6121	-0.008751185
53	0x3c3ec9ef	0.011644824
54	0x3b8e7a79	0.004348096
55	0xba8860a4	-0.0010404778
56	0xbb45f92b	-0.003020833
57	0x3c0bd54f	0.008534743
58	0x3c168ba7	0.009188569
59	0xbc234b07	-0.009966618
60	0xbb031c69	-0.0020005947
61	0x3c0ca9ab	0.008585374
62	0xbc150c45	-0.009097164
63	0x3c1109b4	0.008852411

layer3.1.weight f4 [64]
0	0x3f54f773	0.8319008
1	0x3f695df4	0.91158986
2	0x3f94fa8d	1.1638962
3	0x3fa9a90b	1.3254713
4	0x3fc41f93	1.5322136
5	0x3faa315e	1.3296316
6	0x3f992c13	1.1966575
7	0x3f8e4d5c	1.1117358
8	0x3f976303	1.1827091
9	0x3f14fb4e	0.5819596
10	0x3f65e780	0.89806366
11	0x3faef72a	1.3669178
12	0x3f24344f	0.64142317
13	0x3f8a4b92	1.0804312
14	0x3f8c8234	1.0977235
15	0x3f972eea	1.1811192
16	0x3fbf5a71	1.4949476
17	0x3fad3228	1.3530931
18	0x3f84065f	1.0314444
19	0x3f6770f1	0.9040671
20	0x3fac1ed0	1.3446903
21	0x3fa7444f	1.3067721
22	0x3f7ff6df	0.9998607
23	0x3f8dc462	1.1075556
24	0x3f432dbd	0.76241666
25	0x3fa6724c	1.3003631
26	0x3f7c0e21	0.9845906
27	0x3f901641	1.1256791
28	0x3f8fa32b	1.122167
29	0x3f944524	1.15836
30	0x3f9649de	1.1741292
31	0x3f990eb1	1.1957608
32	0x3f722157	0.9458212
33	0x3f3ea782	0.74474347
34	0x3f55abab	0.8346507
35	0x3f94fe76	1.1640155
36	0x3f89c75a	1.0763962
37	0x3fbd3ac3	1.4783558
38	0x3f49c216	0.78811777
39	0x3fb4a063	1.4111446
40	0x3fb8c8ae	1.4436243
41	0x3f860dd7	1.0472974
42	0x3f7e82f3	0.9941856
43	0x3f7d61b1	0.9897719
44	0x3f8f3582	1.1188204
45	0x3f90e4d0	1.1319828
46	0x3f3e800d	0.7441414
47	0x3fa8ee56	1.3197734
48	0x3f83e2c9	1.0303584
49	0x3f962ef7	1.1733083
50	0x3facdec5	1.3505484
51	0x3f86bec5	1.0526968
52	0x3f7db0a5	0.99097663
53	0x3f947ff4	1.1601548
54	0x3fa6a7fd	1.3020016
55	0x3f9016f6	1.1257007
56	0x3f5f885d	0.8731745
57	0x3f84d6c8	1.0378046
58	0x3f881238	1.063056
59	0x3f4be475	0.7964547
60	0x3f87df1f	1.0614966
61	0x3f805041	1.0024492
62	0x3f5075ab	0.8142955
63	0x3f3ec678	0.7452159

layer3.1.bias f4 [64]
0	0xbf3b65fb	-0.73202485
1	0xbed82b4e	-0.4222054
2	0xbf260a72	-0.6485969
3	0xbf20a60a	-0.62753356
4	0xbf766c20	-0.96258736
5	0xbf6e2646	-0.9302715
6	0xbf2d2734	-0.67637944
7	0xbf58d9ea	-0.8470751
8	0xbf397ab1	-0.7245284
9	0x3ebd8ff7	0.370239
10	0xbf06c60e	-0.5264596
11	0xbf5e088b	-0.86731786
12	0xbed66fca	-0.41882163
13	0xbf250ee7	-0.64475864
14	0xbf484d09	-0.78242546
15	0xbf3b9cce	-0.7328614
16	0xbf8fbe78	-1.1230001
17	0xbf712d5c	-0.9420984
18	0xbf629f97	-0.88524765
19	0xbe9f273a	-0.31084615
20	0xbf6a181f	-0.91443056
21	0xbf5d32f2	-0.8640586
22	0xbf587957	-0.8456015
23	0xbf0a9e57	-0.5414786
24	0xbe7d8890	-0.24759126
25	0xbf7f094d	-0.99623567
26	0xbe291bde	-0.16514537
27	0xbf28adae	-0.65890014
28	0xbf0eb011	-0.55737406
29	0xbf2b1760	-0.6683254
30	0xbf21a878	-0.6314769
31	0xbf83f230	-1.0308285
32	0xbf08e521	-0.5347462
33	0xbe47d9ac	-0.19516629
34	0xbeb536b0	-0.35393286
35	0xbf60e81b	-0.87854165
36	0xbf1f716c	-0.62282443
37	0xbf73beab	-0.9521281
38	0xbebaaabc	-0.36458385
39	0xbf49a762	-0.7877103
40	0xbf82dcbc	-1.0223613
41	0xbf06e159	-0.52687603
42	0xbede11d4	-0.43372977
43	0xbea8b596	-0.3295104
44	0xbef3f851	-0.47650388
45	0xbefe5352	-0.49672943
46	0xbee6b459	-0.4505947
47	0xbf70fc63	-0.9413511
48	0xbf4449ea	-0.76675284
49	0xbf4291c6	-0.7600368
50	0xbf2b7733	-0.6697876
51	0xbf3a365c	-0.72739196
52	0xbe809f58	-0.2512157
53	0xbf497734	-0.78697515
54	0xbeea200e	-0.4572758
55	0xbf25f344	-0.6482432
56	0xbe9b50ff	-0.30335233
57	0xbf370f4b	-0.7150771
58	0xbf1cc99e	-0.61245143
59	0xbe8b6a07	-0.2722933
60	0xbf2f06c6	-0.6836971
61	0xbefddbcc	-0.49581754
62	0xbe91013e	-0.2832126
63	0xbf159c48	-0.5844159

layer3.1.running_mean f4 [64]
0	0xbfb0e175	-1.3818804
1	0xc048b292	-3.135899
2	0xc090facc	-4.530615
3	0xc0855f33	-4.167871
4	0xc0aaae73	-5.333795
5	0xc062f5a4	-3.5462427
6	0xc0b65f9c	-5.699171
7	0xc030c7b9	-2.76219
8	0xc0b9f7ca	-5.8114977
9	0xc067fadc	-3.6246862
10	0xc08398e1	-4.112412
11	0xc0767589	-3.8509238
12	0xbfd2133f	-1.6412123
13	0xc09e031a	-4.9378786
14	0xc060fdc3	-3.5154884
15	0xbfc11659	-1.5084945
16	0xc0d00802	-6.5009775
17	0xc0735f8b	-3.8027065
18	0xc02743cf	-2.6135137
19	0xbf89fd90	-1.0780506
20	0xc09cb390	-4.8969193
21	0xc07e2f7d	-3.9716485
22	0xc0a4aabb	-5.145841
23	0xc1017fe9	-8.093728
24	0x3fa9bb3c	1.3260264
25	0xc0e53dc9	-7.163792
26	0xc0e374b4	-7.107996
27	0xc03adfee	-2.9199176
28	0xc06d1b63	-3.7047966
29	0xc0598ce5	-3.3992245
30	0xc05c29d6	-3.4400535
31	0xc0a16ee4	-5.0447865
32	0xc08960ed	-4.2930818
33	0xc0751be1	-3.8298266
34	0xbfe570c9	-1.7925044
35	0xc0afbe9c	-5.4920177
36	0xc082a562	-4.0826883
37	0xc08ce8f8	-4.4034386
38	0xc0529c49	-3.290789
39	0xc0860131	-4.1876454
40	0xc0a852b7	-5.260097
41	0xc09770fe	-4.732543
42	0xc0aa1990	-5.3156204
43	0xc0495613	-3.1458786
44	0xc081c179	-4.0548673
45	0xc0ccab5b	-6.3959174
46	0xc020fe2f	-2.5155141
47	0xc0a5f8e1	-5.1866307
48	0x3fc7120d	1.5552384
49	0xc03bff52	-2.9374585
50	0xc0a04853	-5.0088286
51	0xc02277b0	-2.5385551
52	0xc080a897	-4.02058
53	0xc09bf29b	-4.873365
54	0xc0c3e589	-6.1217694
55	0xc01c052d	-2.437816
56	0xc035caed	-2.8405106
57	0xc0923690	-4.5691605
58	0xc04273b5	-3.0383122
59	0xc00a4846	-2.1606612
60	0xc0085fdb	-2.1308506
61	0xc09b0f1b	-4.845594
62	0xc053f284	-3.311677
63	0xbf994844	-1.1975179

layer3.1.running_var f4 [64]
0	0x40eb51b4	7.3537235
1	0x410639cd	8.3891115
2	0x41556601	13.337403
3	0x41b4bbfb	22.591787
4	0x41b6a0ee	22.828579
5	0x41591dbc	13.569759
6	0x41af5435	21.916117
7	0x4161b728	14.107216
8	0x41844007	16.531263
9	0x416bdb33	14.741015
10	0x416aa18c	14.66444
11	0x4123197a	10.19372
12	0x40e11db8	7.034878
13	0x41585c9f	13.522613
14	0x41355ce9	11.335183
15	0x41389380	11.536011
16	0x417a35c1	15.6381235
17	0x41341104	11.254154
18	0x412f0e84	10.941044
19	0x4128bdb3	10.546313
20	0x41a145bc	20.15905
21	0x416b6daa	14.714273
22	0x415fa8b5	13.978688
23	0x4187b030	16.96103
24	0x40f96541	7.79361
25	0x415f2652	13.946856
26	0x419f87e4	19.941353
27	0x41529750	13.161942
28	0x41693f5a	14.577967
29	0x414892a4	12.535801
30	0x41533a5e	13.20175
31	0x41a9a103	21.203619
32	0x40d20afa	6.56384
33	0x41689131	14.535447
34	0x4101aa71	8.104112
35	0x419fa02b	19.953207
36	0x41b6182f	22.761808
37	0x41cb6ed5	25.429117
38	0x416d745c	14.840908
39	0x41c011d2	24.008701
40	0x41cfde86	25.983654
41	0x413b0646	11.689032
42	0x41483a09	12.514169
43	0x419224dd	18.268
44	0x41616a76	14.088491
45	0x4196ede1	18.866152
46	0x413651ec	11.395
47	0x4192939a	18.322071
48	0x412bd6f8	10.739983
49	0x418703e3	16.876898
50	0x41aab862	21.34003
51	0x4176cfcd	15.425733
52	0x412fae54	10.980061
53	0x419e26d6	19.768963
54	0x418ff31c	17.993706
55	0x416a8cde	14.659391
56	0x415ec62e	13.923384
57	0x4152b565	13.169286
58	0x41083341	8.512513
59	0x41337023	11.214877
60	0x4128c733	10.548633
61	0x4192a30f	18.329618
62	0x41378e40	11.472229
63	0x411ae47a	9.68078
