results/RENet-dataset-Conv64F-5-5-Jan-08-2024-20-55-23/checkpoints/emb_func_00070.pth (torch, 463459 bytes, 24 tensors)

layer1.0.weight f4 [64, 3, 3, 3]
0.47433594 0.19133206 -0.20954525 -0.8794106 -0.8141146 -0.28903267 0.2893985 0.7020051
0.83346575 0.6282346 0.11057185 -0.2948541 -1.3401897 -1.3120816 -0.6451107 0.13519524
0.7426255 0.8591417 0.8387366 0.27639893 -0.14762598 -0.8394199 -0.92549413 -0.36333957
0.20435998 0.7616669 0.8328498 -0.18617542 -0.17441571 -0.19063555 -0.21616223 -0.13341692
-0.22388282 -0.07820861 -0.06279444 -0.09428538 -0.046188634 0.008307943 -0.035233974 -0.030492824
0.019425817 -0.04772546 0.057226554 0.07068086 0.05012844 0.04458461 0.08913343 0.05032887
0.041589987 0.11526776 0.078787245 0.14480808 0.17756456 0.13921341 0.08267579 -0.045703933
0.024781939 -0.23792867 -0.34980863 -0.3677816 -0.2021013 -0.19898178 -0.2049798 0.41100937
0.34063646 0.41841692 0.19163762 0.1254937 0.12636478 -0.055425074 -0.08102148 -0.057905592
0.17933227 0.13421704 0.22378144 0.07906226 0.017228562 -0.03278888 -0.20737101 -0.20157707
-0.20599054 0.7187577 0.6687533 0.7180337 -0.04041067 -0.2194044 -0.35347077 -0.26886135
-0.6460963 -0.7829082 0.6998088 0.6780447 0.86501753 0.058168873 -0.10555928 -0.1802344
-0.19140738 -0.6445169 -0.7438391 0.3529527 0.39803806 0.57658863 0.0067078443 -0.080789536
-0.16804618 -0.040823914 -0.48182413 -0.5438994 0.32145405 0.29826197 0.24745171 0.10376901
-0.07760264 0.020214805 -0.15787807 -0.49674812 -0.33512655 0.1753377 0.17178336 0.18696001
0.030336494 -0.10100667 -0.025496244 0.004135304 -0.2598346 -0.08890657 0.11088686 0.10602632
0.14593159 -0.05876803 -0.13455503 -0.028713698 -0.122884825 -0.30095676 -0.12554453 0.026946092
0.033035245 0.013043993 0.06984197 0.13340473 0.15192057 0.12648977 0.14597353 0.09623992
-0.23578581 -0.24432875 -0.23817427 -0.36920327 -0.37030756 -0.3785124 -0.36986852 -0.39218304
-0.3909926 0.3652861 0.3499866 0.27406734 0.20061862 0.17416237 0.18755831 0.14508465
0.11996492 0.098783046 -0.75117517 -0.170506 0.4573398 -0.6362648 0.17673165 0.37312764
-0.16574919 0.14196366 0.23440227 -0.57408607 0.11422888 0.715919 -0.65696025 0.39026514
0.56130505 -0.29697475 0.11858346 0.16767046 -0.4387347 0.052491866 0.5689242 -0.60284734
0.24269949 0.38177097 -0.3509495 -0.07292696 -0.0004662912 0.8340617 1.1021551 1.1311758
-0.61223704 -0.8457252 -0.49528638 -0.38898277 -0.29383993 -0.5066254 0.11682193 0.40966472
0.4696348 -0.54832166 -0.92975 -0.5598701 0.30207312 0.4717449 0.043974884 -0.22560129
0.013899299 0.06846509 -0.32177553 -0.6405781 -0.32890356 0.55250674 0.71810293 0.3248676
-0.9579786 -0.9086494 -0.32805142 -0.51187366 0.30693537 0.7903124 0.22148477 0.34278226
0.28325784 -0.76537323 -0.93329257 -0.34150776 -0.2378013 0.6280958 1.0500921 0.4454018
0.54850143 0.455149 -0.48354343 -0.75667626 -0.31443158 -0.28320304 0.41141495 0.73105055
0.060106426 0.15606168 -0.02492313 -0.05294781 -0.05970638 -0.13281207 -0.039017607 -0.10126747
-0.05584765 -0.045050353 -0.06909979 -0.03895754 -0.054502763 -0.0973158 -0.1267615 -0.0700389
00000000: 29dc f23e 8dec 433e 0893 56be 0e21 61bf
00000010: d069 50bf 17fc 93be 0a2c 943e 9bb6 333f
00000020: 035e 553f fcd3 203f 7e73 e23d 1ef7 96be
00000030: 568b abbf 4af2 a7bf fa25 25bf 9f70 0a3e
00000040: b41c 3e3f b6f0 5b3f 71b7 563f 2984 8d3e
00000050: 442b 17be 39e4 56bf 2fed 6cbf a507 babe
00000060: be43 513e 9afc 423f a535 553f c5a4 3ebe
00000070: 089a 32be f735 43be a259 5dbe 729e 08be
00000080: 8a41 65be d62b a0bd 5f9a 80bd b118 c1bd
00000090: 4b30 3dbd 0a1e 083c 8051 10bd 16cc f9bc
000000a0: e422 9f3c c67b 43bd 6466 6a3d 20c1 903d
000000b0: 7b53 4d3d 5a9e 363d 968b b63d a525 4e3d
000000c0: 435a 2a3d 8111 ec3d 355b a13d 9248 143e
000000d0: 7cd3 353e f68d 0e3e ed51 a93d 0c34 3bbd
000000e0: 7e03 cb3c 93a3 73be 1e1a b3be df4d bcbe
000000f0: a5f3 4ebe e1c1 4bbe 3ae6 51be d26f d23e
00000100: e767 ae3e be3a d63e a73c 443e 6c81 003e
00000110: c565 013e 6705 63bd 97ee a5bd 6a2e 6dbd
00000120: e1a2 373e 3170 093e f626 653e 65eb a13d
00000130: ea22 8d3c a24d 06bd 1159 54be 386a 4ebe
00000140: 2fef 52be 8100 383f 6b33 2b3f 0ed1 373f
00000150: a985 25bd 8cab 60be 1ffa b4be 32a8 89be
00000160: 9166 25bf ac6c 48bf ab26 333f 5694 2d3f
00000170: ca71 5d3f 7c42 6e3d 772f d8bd 5e8f 38be
00000180: 4c00 44be 0fff 24bf 3d6c 3ebf 37b6 b43e
00000190: a5cb cb3e 509b 133f 7acd db3b fc74 a5bd
000001a0: 4c14 2cbe fa36 27bd a7b1 f6be fe3c 0bbf
000001b0: a095 a43e cbb5 983e fb63 7d3e d984 d43d
000001c0: 22ee 9ebd 8599 a53c caaa 21be c555 febe
000001d0: b595 abbe ba8b 333e fae7 2f3e 7272 3f3e
000001e0: 3d84 f83c 96dc cebd 80dd d0bc 7281 873b
000001f0: 0a09 85be a614 b6bd a618 e33d 5424 d93d
00000200: 176f 153e bfb6 70bd cbc8 09be fd38 ebbc
00000210: 0aab fbbd 0117 9abe bf8e 00be 0dbe dc3c
00000220: f74f 073d 79b6 553c 4f09 8f3d 409b 083e
00000230: 1191 1b3e 8986 013e 167a 153e 6f19 c53d
00000240: d671 71be 5131 7abe f5e3 73be 3608 bdbe
00000250: f498 bdbe 61cc c1be 685f bdbe 37cc c8be
00000260: 2f30 c8be c806 bb3e 7231 b33e 8e52 8c3e
00000270: f86e 4d3e 9f57 323e 490f 403e 1291 143e
00000280: 2bb0 f53d c44e ca3d 044d 40bf 2099 2ebe
00000290: 7128 ea3e 40e2 22bf 24f9 343e 960a bf3e
000002a0: 28ba 29be ec5e 113e 2607 703e 4ef7 12bf
000002b0: d5f0 e93d 7846 373f 8c2e 28bf d5d0 c73e
000002c0: b0b1 0f3f 130d 98be e3db f23d ceb1 2b3e
000002d0: d6a1 e0be b601 573d 04a5 113f 3454 1abf
000002e0: 3786 783e 7c77 c33e a7af b3be bb5a 95bd
000002f0: 8c78 f4b9 1185 553f 6b13 8d3f 5eca 903f
00000300: 91bb 1cbf 7281 58bf 2d96 fdbe c028 c7be
00000310: 3072 96be 34b2 01bf 5640 ef3d 93bf d13e
00000320: f973 f03e cf5e 0cbf 1904 6ebf a653 0fbf
00000330: 54a9 9a3e 8c88 f13e 021f 343d 0604 67be
00000340: e3b9 633c 6d37 8c3d c3bf a4be edfc 23bf
00000350: 0c66 a8be 1571 0d3f 98d5 373f 0c55 a63e
00000360: 163e 75bf 3f9d 68bf 5bf6 a7be 270a 03bf
00000370: a226 9d3e ea51 4a3f e7cc 623e 2881 af3e
00000380: 2c07 913e 80ef 43bf 43ec 6ebf 1bda aebe
00000390: 2f82 73be e3ca 203f 6b69 863f b40b e43e
000003a0: 976a 0c3f 4a09 e93e 0193 f7be 89b5 41bf
000003b0: 2dfd a0be fdff 90be fba4 d23e 2126 3b3f
000003c0: 2832 763d a2ce 1f3e 982b ccbc cedf 58bd
000003d0: ad8e 74bd e3ff 07be edd0 1fbd 5265 cfbd
000003e0: 81c0 64bd b886 38bd 3184 8dbd f191 1fbd
000003f0: 4a3e 5fbd 824d c7bd c4cd 01be 8e70 8fbd

layer1.0.bias f4 [64]
0.008532285 -0.022192225 0.0043356624 0.0227475 0.018618667 0.02364632 0.014947214 -0.002284081
0.0072094346 -0.011538046 0.023438113 0.013825714 -0.020210091 0.02387537 -0.00040979302 -0.0012273259
-0.0075571258 -0.007285292 0.0013820064 -0.013480175 -0.025685407 -0.014223476 -0.0054947915 0.020851381
0.02031327 -0.016544042 -0.0010603501 -0.007968781 -0.0147718 -0.004855443 -0.009580831 0.015433921
-0.013693871 0.0042484268 -0.015582086 -0.008618097 0.021737158 -0.0135559505 -0.0016603592 0.026371364
0.009450783 -0.014054758 -0.016578486 -0.009682954 -0.008646893 0.012022182 -0.00613893 0.023287905
-0.015150526 -0.008634534 0.010053152 0.022053003 0.026413808 0.0044192444 0.0011638609 -0.012371345
0.015601614 -0.01600547 -0.0072578466 -0.023078566 -0.026545115 0.015433979 0.0018758468 0.022011893
00000000: ffca 0b3c 78cc b5bc 2c12 8e3b f758 ba3c
00000010: 2d86 983c edb5 c13c 29e5 743c 85b0 15bb
00000020: 1f3d ec3b 130a 3dbc 4901 c03c 3f85 623c
00000030: a28f a5bc 4896 c33c 7dd9 d6b9 39de a0ba
00000040: c4a1 f7bb 75b9 eebb 7124 b53a f4db 5cbc
00000050: 346a d2bc 9509 69bc a70d b4bb 84d0 aa3c
00000060: 0468 a63c 5f87 87bc 72fb 8aba 7d8f 02bc
00000070: 6b05 72bc 681a 9fbb ebf8 1cbc 8ede 7c3c
00000080: 425c 60bc 6336 8b3b 014c 7fbc eb32 0dbc
00000090: 2012 b23c c719 5ebc 69a0 d9ba c208 d83c
000000a0: 75d7 1a3c ed45 66bc 9bcf 87bc 41a5 1ebc
000000b0: b3ab 0dbc b0f8 443c 1429 c9bb 47c6 be3c
000000c0: e939 78bc dc77 0dbc fab5 243c 80a8 b43c
000000d0: c561 d83c 4fcf 903b b18c 983a 2fb1 4abc
000000e0: e99d 7f3c e71d 83bc 3bd3 edbb 430f bdbc
000000f0: 2475 d9bc cdde 7c3c f9de f53a 4952 b43c

layer1.1.weight f4 [64]
0.8833428 0.4066103 0.27337202 0.782455 0.657473 0.4519589 0.8428237 0.73342955
0.9021674 0.17230755 0.662068 0.016154526 -0.093553305 0.4085385 0.16228585 0.57668984
0.40544236 0.8365793 0.5880832 0.54551476 0.27915767 0.19320607 0.99877757 0.023535788
0.46457118 0.42110023 0.25106123 0.8600748 1.2136769 0.3341361 0.10358085 0.43540046
0.80351824 0.72013026 0.36129144 0.47571453 0.17728624 0.95448774 0.3426087 0.45711073
0.21113352 0.4064989 0.3515158 0.30192667 0.5047866 0.20144543 0.41412517 0.8966208
0.37773192 0.056495965 0.1393997 1.1530545 0.32106417 0.5886026 0.54831743 0.2509839
0.507324 0.6770452 0.50061506 0.61526465 0.6578329 0.46729198 0.328598 0.45245767
00000000: c122 623f 3a2f d03e 6bf7 8b3e f94e 483f
00000010: 2750 283f 2867 e73e 4bc3 573f 0ac2 3b3f
00000020: 71f4 663f 6471 303e 4a7d 293f 7f56 843c
00000030: e098 bfbd f52b d13e 432e 263e f2a1 133f
00000040: 2496 cf3e 102a 563f 9f8c 163f dba6 0b3f
00000050: c1ed 8e3e d0d7 453e e3af 7f3f 20ce c03c
00000060: 46dc ed3e 739a d73e 198b 803e dd2d 5c3f
00000070: c459 9b3f e313 ab3e 3222 d43d cfec de3e
00000080: 5fb3 4d3f 755a 383f 31fb b83e db90 f33e
00000090: 868a 353e 4f59 743f 686a af3e 6b0a ea3e
000000a0: 6333 583e a020 d03e e1f9 b33e 2296 9a3e
000000b0: b239 013f b647 4e3e 3708 d43e f188 653f
000000c0: 1466 c13e 5068 673d ccbe 0e3e 4a97 933f
000000d0: 8662 a43e a9ae 163f 885e 0c3f f680 803e
000000e0: fcdf 013f d652 2d3f 4f28 003f fc81 1d3f
000000f0: bd67 283f e540 ef3e ff3d a83e 88a8 e73e

layer1.1.bias f4 [64]
0.004393195 -0.32869455 0.28098628 0.11891931 -0.8521235 -0.15035301 0.42035174 0.17806762
0.17163353 -0.35923234 0.33849666 -0.06521807 0.05166235 -0.09936116 0.27975085 -0.57164955
0.055440653 0.14206699 -0.50680035 -0.3658903 -0.34510034 0.07474945 -0.97706276 -0.07689457
-0.25505874 -0.118445225 0.0010227937 0.6380086 0.0011287304 0.32895336 0.050473537 -0.37756404
0.24672441 0.14670926 -0.17656888 -0.4718534 0.04925398 0.28588903 -0.41486156 0.011827353
0.01256861 -0.08046927 0.060326274 -0.32859504 0.3114155 0.36827523 -0.27642864 0.36801416
-0.15389825 -0.23793638 0.15291166 -1.3566091 0.30913374 0.29498217 -0.43600124 0.27016047
-0.3655847 -0.89835405 -0.009907436 0.33763498 0.20595686 0.04367016 -0.32849035 -0.53192866
00000000: caf4 8f3b a74a a8be 6fdd 8f3e f88b f33d
00000010: c424 5abf 24f6 19be 5838 d73e 5c57 363e
00000020: b3c0 2f3e 4ded b7be 6f4f ad3e 0d91 85bd
00000030: e69b 533d dd7d cbbd 813b 8f3e a057 12bf
00000040: bd15 633d 027a 113e abbd 01bf f955 bbbe
00000050: feb0 b0be 3d16 993d c920 7abf e67a 9dbd
00000060: 0f97 82be 6993 f2bd 430f 863a 8854 233f
00000070: e8f1 933a 936c a83e 57bd 4e3d 1350 c1be
00000080: 53a5 7c3e f43a 163e 79ce 34be c596 f1be
00000090: 8bbe 493d 0c60 923e bc68 d4be 84c7 413c
000000a0: 92ec 4d3c 13cd a4bd af18 773d 9c3d a8be
000000b0: da71 9f3e 928e bc3e 0e88 8dbe 5a6c bc3e
000000c0: 8197 1dbe 98a5 73be e094 1c3e 5ea5 adbf
000000d0: c746 9e3e e707 973e 8e3b dfbe 7952 8a3e
000000e0: eb2d bbbe 88fa 65bf cc52 22bc 7ede ac3e
000000f0: 5be6 523e 7bdf 323d e32f a8be 7a2c 08bf

layer1.1.running_mean f4 [64]
0.07631384 -0.36135367 -0.32313442 -0.015944224 -0.063862875 0.17808339 -0.0548554 -0.048403654
-0.19143605 -0.25080058 0.013482417 0.024681935 -0.17913185 -0.0307421 0.3063101 0.36813018
-0.5167851 -0.04154929 -0.256613 -0.19944826 -0.000112877555 0.16473275 -0.07577229 0.11761067
-0.21994291 -0.40565088 0.13700244 0.094061956 -0.019001303 -0.56240207 0.08235213 -0.21243712
-0.121739976 -0.20620027 -0.21814604 -0.3613087 0.020709034 -0.025501532 0.14646098 0.21303587
-0.14419061 -0.10107352 -0.47074923 -0.011361734 0.20143935 -0.04780072 -0.25498155 -0.08221073
-0.10878906 -0.052645545 0.14077996 0.03231218 0.07506038 -0.21890709 -0.31555095 0.016782751
-0.40233928 -0.0010811767 -0.21116146 0.12667188 -0.01995979 -0.5517716 0.07425257 -0.0072932253
00000000: 6e4a 9c3d 5903 b9be e071 a5be 769d 82bc
00000010: 8aca 82bd 7e5b 363e 0eb0 60bd e942 46bd
00000020: d007 44be ef68 80be 5be5 5c3c c531 ca3c
00000030: 576e 37be dbd6 fbbc add4 9c3e 8f7b bc3e
00000040: 074c 04bf 972f 2abd c762 83be 2a3c 4cbe
00000050: adb8 ecb8 b4af 283e 812e 9bbd dddd f03d
00000060: b738 61be 79b1 cfbe 5e4a 0c3e 8ea3 c03d
00000070: 9fa8 9bbc 95f9 0fbf 3ca8 a83d 1e89 59be
00000080: cf52 f9bd 2a26 53be ad61 5fbe 74fd b8be
00000090: fea5 a93c 97e8 d0bc def9 153e 1326 5a3e
000000a0: b4a6 13be a2ff cebd 0b06 f1be 9126 3abc
000000b0: 1e46 4e3e b0ca 43bd f18c 82be 195e a8bd
000000c0: cccc debd dba2 57bd 9f28 103e c759 043d
000000d0: 42b9 993d 2e29 60be e58f a1be fb7b 893c
000000e0: 6aff cdbe 45b6 8dba b63a 58be 46b6 013e
000000f0: b782 a3bc e740 0dbf bb11 983d 02fc eebb

layer1.1.running_var f4 [64]
2.7819958 0.7175547 0.91845465 5.6556945 0.90553236 0.46101934 3.0679536 1.5244035
5.3936734 0.84844047 2.168094 0.101554155 0.36991987 0.3395186 0.31048656 1.6376281
2.1481926 2.1374004 0.85202545 2.16636 0.101570345 0.5239298 1.1728405 0.37356055
0.3396948 1.8802327 0.50182927 9.042199 9.1380005 1.7193973 0.20546626 0.54055226
2.0010262 4.4004555 0.5738636 0.8442712 0.45242864 5.1093554 0.2418562 1.7139211
0.35102707 0.27357456 1.3177837 0.0817682 3.044856 0.72039026 0.8053821 4.3106923
0.47986123 0.8753461 0.23428892 1.6343687 1.1517681 1.4398981 1.0495936 0.71940726
1.2427651 0.6998537 1.4474845 3.487261 1.9468042 3.1676857 0.31915614 0.26272765
00000000: 380c 3240 aab1 373f d81f 6b3f 73fb b440
00000010: f8d0 673f ba0a ec3e 5a59 4440 a71f c33f
00000020: f998 ac40 6533 593f 0dc2 0a40 a0fb cf3d
00000030: 2366 bd3e 62d5 ad3e 18f8 9e3e cc9d d13f
00000040: fd7b 0940 2bcb 0840 571e 5a3f a4a5 0a40
00000050: 1d04 d03d 4320 063f a31f 963f 5443 bf3e
00000060: 7aec ad3e 77ab f03f e277 003f d9ac 1041
00000070: 4035 1241 3615 dc3f bf65 523e a261 0a3f
00000080: d010 0040 88d0 8c40 bae8 123f 2822 583f
00000090: baa4 e73e d77f a340 27a9 773e c461 db3f
000000a0: d2b9 b33e f711 8c3e 23ad a83f 1676 a73d
000000b0: ecde 4240 7f6b 383f 852d 4e3f 31f1 8940
000000c0: 5fb0 f53e af16 603f 6fe9 6f3e fe32 d13f
000000d0: 236d 933f 954e b83f 1559 863f 132b 383f
000000e0: ed12 9f3f 9d29 333f 2c47 b93f 492f 5f40
000000f0: e130 f93f 5dbb 4a40 6f68 a33e 3d84 863e

layer2.0.weight f4 [64, 64, 3, 3]
0.016156163 0.05808206 -0.019549161 -0.02777628 -0.026439877 -0.018514447 0.122546665 0.09523731
0.0722412 0.004256778 -0.0032069394 -0.006093369 0.026038494 0.029541852 0.019930357 0.014861992
0.011883217 0.013171219 -0.120020844 -0.105272844 -0.0884672 0.044530116 0.044270515 0.026098069
0.04677008 0.06965879 0.07197547 -0.1297336 -0.113967314 -0.08141249 0.03628992 -0.03825335
-0.090062946 -0.009235011 0.004827166 0.033243604 -0.011555279 -0.006121347 -0.019915668 -0.041026585
-0.052151915 -0.051271513 -0.034405705 -0.042566918 -0.03123941 -0.006054703 -0.022248326 -0.015520612
-0.03268294 -0.04404294 -0.042834338 -0.0286 -0.045433626 -0.029583046 -0.1252638 -0.030055923
-0.100758 -0.06796824 -0.00871602 -0.09531127 -0.03347175 0.05329973 -0.062430844 0.05179805
0.04541189 0.02175755 0.06511692 0.004745566 -0.023150446 0.04133334 -0.008545172 -0.03566334
0.11042714 0.11582938 0.06734572 -0.03441815 0.01736877 -0.02430021 0.052315768 0.09738229
0.012148847 -0.011882005 -0.015593503 -0.019731961 -0.016600074 -0.027237576 -0.020708155 -0.01668098
-0.010889942 -0.017091429 -0.07052264 -0.13216811 -0.1690378 0.053909317 0.017710527 -0.00023335
0.20845993 0.1438569 0.13929544 0.0073784417 0.005717898 -0.0009235466 -0.0060045905 -0.003871646
-0.0048553753 -0.0014178279 0.00084794476 0.0013944678 -0.014312092 -0.012735343 -0.02055868 -0.0017154497
0.0041376054 -0.0027749056 0.0010067874 0.009094686 0.0024862671 -0.026696127 -0.050417542 -0.050706152
-0.07681611 -0.11040234 -0.10721219 -0.07605641 -0.106933564 -0.09683498 -0.012433838 -0.014339473
-0.019561721 -0.044529025 -0.04266496 -0.037815575 -0.024938753 -0.023691319 -0.024657957 -0.07217159
-0.0764678 -0.070836045 -0.083472885 -0.086140536 -0.07287766 -0.04697122 -0.047328357 -0.050099574
-0.037042502 -0.023728758 -0.031171035 0.07944747 0.101908796 0.094844274 0.072527155 0.09785109
0.08343654 0.033036713 -0.03241857 0.002354638 0.018888826 -0.07279783 -0.005125315 0.14314358
0.041219443 0.101237945 -0.028146764 -0.021407137 -0.0068608206 -0.0027109187 0.0076051094 0.017238494
0.00075443205 -0.0014920989 -0.0019467032 -0.024579713 -0.043691333 -0.053640787 -0.07832789 -0.09428857
-0.09479453 -0.07129537 -0.08998985 -0.08029646 -0.02156995 -0.029007472 -0.024158934 -0.028667917
-0.030483657 -0.026521744 -0.018112293 -0.028507154 -0.033600055 -0.04682192 -0.04983005 -0.047442626
-0.011891954 -0.042485025 -0.062015813 -0.007612197 -0.007939299 -0.0055506537 -0.06493532 -0.046882458
-0.047255144 -0.050105598 -0.06710921 -0.07065129 -0.051481027 -0.06833275 -0.030177953 0.00026427006
-0.007065742 -0.0162088 -0.0037236807 -0.00949955 -0.012053517 -0.018275425 -0.020897763 -0.015076849
-0.010634583 -0.009163366 -0.033668745 -0.00332226 -0.023907673 -0.02420508 -0.0041888645 -0.025488017
-0.033582814 -0.05312808 -0.04489189 -0.038897477 0.046506226 0.056199316 0.051646806 0.04057461
0.06360893 0.050228808 -0.0054250252 -0.010758254 -0.006949476 -0.025979662 -0.022207785 -0.020224802
0.01153978 0.0074378233 0.0011125846 0.2527809 0.21573682 0.17892429 0.055296835 0.06322852
0.028274229 0.14296906 0.109103285 0.02567976 -0.1258736 0.0034610606 -0.08920334 -0.09431907
00000000: ee59 843c 74e7 6d3d 9025 a0bc 158b e3bc
00000010: 7198 d8bc 9cab 97bc bff9 fa3d c70b c33d
00000020: 32f3 933d 717c 8b3b 842b 52bb e2aa c7bb
00000030: ae4e d53c c101 f23c fd44 a33c b67f 733c
00000040: d3b1 423c 19cc 573c 7dcd f5bd 4a99 d7bd
00000050: 4b2e b5bd 3665 363d 0055 353d 9ecb d53c
00000060: fc91 3f3d 45a9 8e3d e067 933d e3d8 04be
00000070: b267 e9bd 97bb a6bd bda4 143d 8baf 1cbd
00000080: ec72 b8bd 724e 17bc 342d 9e3b 722a 083d
00000090: 5a52 3dbc 9595 c8bb 2f26 a3bc 7e0b 28bd
000000a0: 3f9d 55bd 1402 52bd ffec 0cbd a65a 2ebd
000000b0: cbe9 ffbc 8866 c6bb 1f42 b6bc 2a4a 7ebc
000000c0: 8cde 05bd 5f66 34bd 0f73 2fbd 8c4a eabc
000000d0: 9c18 3abd 2558 f2bc 2745 00be d737 f6bc
000000e0: 365a cebd ef32 8bbd a3cd 0ebc 8e32 c3bd
000000f0: ac19 09bd d150 5a3d 7cb7 7fbd 312a 543d
00000100: d101 3a3d e43c b23c 055c 853d b180 9b3b
00000110: 01a6 bdbc 264d 293d 0d01 0cbc b913 12bd
00000120: a027 e23d f437 ed3d 8eec 893d 0cfa 0cbd
00000130: f348 8e3c 3c11 c7bc 0f49 563d 5e70 c73d
00000140: f50b 473c beac 42bc e47b 7fbc eca4 a1bc
00000150: e1fc 87bc 5621 dfbc 26a4 a9bc 8da6 88bc
00000160: ba6b 32bc 5303 8cbc 2d6e 90bd 1457 07be
00000170: 3f18 2dbe 04d0 5c3d ab15 913c 6aaf 74b9
00000180: 8576 553e 394f 133e 77a3 0e3e dbc6 f13b
00000190: 345d bb3b 2a1a 72ba 28c2 c4bb 71bb 7dbb
000001a0: d719 9fbb 69d6 b9ba 9c48 5e3a 93c6 b63a
000001b0: 447d 6abc e6a7 50bc ad6a a8bc f1d8 e0ba
000001c0: c094 873b 31db 35bb 2ef6 833a e101 153c
000001d0: a4f0 223b d6b1 dabc a082 4ebd 41b1 4fbd
000001e0: c451 9dbd 9f1a e2bd 1192 dbbd 77c3 9bbd
000001f0: fcff dabd 6b51 c6bd 4cb7 4bbc 1cf0 6abc
00000200: e73f a0bc 1164 36bd 74c1 2ebd 81e4 1abd
00000210: 5b4c ccbc 4c14 c2bc 7cff c9bc b3ce 93bd
00000220: 269b 9cbd 7d12 91bd d5f3 aabd 736a b0bd
00000230: e240 95bd e564 40bd 61db 41bd 3635 4dbd
00000240: e1b9 17bd d062 c2bc 665a ffbc 5bb5 a23d
00000250: 8fb5 d03d b73d c23d 1e89 943d 2766 c83d
00000260: c7e0 aa3d 8151 073d 56c9 04bd 4550 1a3b
00000270: bdbc 9a3c 0717 95bd 42f2 a7bb 3b94 123e
00000280: b8d5 283d d755 cf3d 0b94 e6bc 055e afbc
00000290: bcd0 e0bb aba9 31bb 4834 f93b be37 8d3c
000002a0: 14c5 453a 8892 c3ba 8528 ffba 655b c9bc
000002b0: aff5 32bd 71b6 5bbd 5f6a a0bd 5e1a c1bd
000002c0: a223 c2bd 4f03 92bd 994c b8bd 7872 a4bd
000002d0: 77b3 b0bc 14a1 edbc f5e8 c5bc fbd8 eabc
000002e0: ddb8 f9bc 2144 d9bc 3b60 94bc d687 e9bc
000002f0: 36a0 09bd 57c8 3fbd 981a 4cbd 3353 42bd
00000300: 78d6 42bc c704 2ebd 4b04 7ebd bd6f f9bb
00000310: d513 02bc 42e2 b5bb cffc 84bd d207 40bd
00000320: 9c8e 41bd 873b 4dbd 8e70 89bd a0b1 90bd
00000330: c5dd 52bd 0af2 8bbd c137 f7bc ba8d 8a39
00000340: bd87 e7bb 51c8 84bc ff08 74bb 00a4 1bbc
00000350: 1d7c 45bc 58b6 95bc c931 abbc e304 77bc
00000360: ad3c 2ebc f121 16bc 3de8 09bd 46ba 59bb
00000370: 06da c3bc bb49 c6bc be42 89bb 3fcc d0bc
00000380: 228e 09bd d49c 59bd 8fe0 37bd f652 1fbd
00000390: 507d 3e3d 4131 663d 9a8b 533d 9031 263d
000003a0: 6645 823d b9bc 4d3d 69c4 b1bb 6343 30bc
000003b0: 6eb8 e3bb 4dd3 d4bc 1aed b5bc 7cae a5bc
000003c0: 5811 3d3c fcb8 f33b 25d4 913a 806c 813e
000003d0: 1dea 5c3e ee37 373e ef7e 623d f47d 813d
000003e0: 5b9f e73c 7b66 123e 8b71 df3d 5c5e d23c
000003f0: 02e5 00be f6d2 623b 3eb0 b6bd 5b2a c1bd

layer2.0.bias f4 [64]
-0.00022145601 0.0039112475 -0.0057451697 -0.0018765958 0.0030975698 -0.0013522586 0.0038653552 0.0020575253
0.0010318541 -0.0008225536 -0.0014435624 -0.0012415935 -0.00053402793 -0.0032226054 -0.0017024805 0.0034022466
0.004176625 0.0010956076 0.00091642473 -0.0051232814 0.0012193694 0.0049888166 -0.002585378 -0.001488759
0.0058024772 0.0009029792 0.0046810214 -0.0016215576 -0.005387333 0.00051716075 -0.004622346 -0.0025748608
0.0020763997 -0.005527713 0.0032447164 0.0054885424 0.0056018024 -0.005192015 -0.0059242337 -0.002396657
0.00046925034 -0.0029279736 0.004200085 0.0054478766 0.001578561 -0.00089362654 -0.005463434 0.0036178313
-0.00086997764 0.004092516 0.0022827438 0.0009994477 -0.0044308407 0.0038685165 0.0011454581 0.0046827896
0.0045112073 -0.0031463604 -0.004574284 -0.0056387233 -0.002018233 -0.0020337813 0.00038901067 0.003163264
00000000: a536 68b9 ec29 803b fa41 bcbb 1bf8 f5ba
00000010: 9900 4b3b 453e b1ba e651 7d3b 8cd7 063b
00000020: 473f 873a a3a0 57ba eb35 bdba f7bc a2ba
00000030: 02fe 0bba 5932 53bb c425 dfba 3af8 5e3b
00000040: 12dc 883b 7e9a 8f3a 393c 703a 33e1 a7bb
00000050: 3fd3 9f3a 3a79 a33b 726f 29bb 7622 c3ba
00000060: b522 be3b e9b5 6c3a 4163 993b 728a d4ba
00000070: 3a88 b0bb 1292 073a 0c77 97bb ffbe 28bb
00000080: 3514 083b d121 b5bb 4fa5 543b 3bd9 b33b
00000090: 538f b73b c721 aabb 1320 c2bb 3b11 1dbb
000000a0: b705 f639 3fe3 3fbb dea0 893b 1a84 b23b
000000b0: b8e7 ce3a 4342 6aba 9b06 b3bb 2319 6d3b
000000c0: 360f 64ba 831a 863b 169a 153b e6ff 823a
000000d0: 9630 91bb f086 7d3b 3223 963a 1672 993b
000000e0: c0d2 933b 2b33 4ebb e0e3 95bb 0ac5 b8bb
000000f0: 5544 04bb 3049 05bb 21f4 cb39 c34e 4f3b

layer2.1.weight f4 [64]
0.6567221 0.9252527 0.47588775 0.6724223 0.56393176 0.8773711 1.0085791 0.6046962
0.97252774 0.8999636 0.79262364 0.9028849 0.6980699 0.58782166 0.8117557 0.78350955
0.8617694 0.75915176 0.89312637 0.7906559 0.5038919 0.95255226 1.1778141 1.0180025
0.86320674 0.61446524 0.66613555 0.8320417 0.6933215 0.7569121 0.29321334 0.7049995
1.0935752 0.80977374 0.86378926 0.97699666 0.5547583 0.7332259 1.0719019 0.84875494
1.1161666 0.85982156 0.59322447 0.5677072 0.80221635 0.85704046 0.8303077 0.9606341
0.9489409 0.87992203 0.85081095 0.7667995 0.78312963 0.7797818 0.8692178 0.6567796
0.9528802 0.79791754 0.95769984 0.94294125 0.67360854 0.80724365 0.5178435 0.83885133
00000000: f11e 283f 5cdd 6c3f 8fa7 f33e de23 2c3f
00000010: d55d 103f 649b 603f 1f19 813f 5fcd 1a3f
00000020: 94f7 783f 0464 663f 62e9 4a3f 7723 673f
00000030: b5b4 323f 7b7b 163f 39cf 4f3f 1594 483f
00000040: eb9c 5c3f c557 423f eea3 643f 6d68 4a3f
00000050: 0fff 003f 77da 733f 9dc2 963f e84d 823f
00000060: 1efb 5c3f 984d 1d3f dc87 2a3f af00 553f
00000070: 857d 313f fec4 413f 0f20 963e d97a 343f
00000080: 46fa 8b3f 554d 4f3f 4b21 5d3f 741c 7a3f
00000090: a404 0e3f b1b4 3b3f 1534 893f 0148 593f
000000a0: 8cde 8e3f 441d 5c3f 8fdd 173f 4255 113f
000000b0: 0d5e 4d3f 0167 5b3f 0c8f 543f 1eec 753f
000000c0: caed 723f 9242 613f bfce 593f f94c 443f
000000d0: 2f7b 483f c89f 473f 0f85 5e3f b522 283f
000000e0: f5ef 733f 5344 4c3f d12b 753f 9964 713f
000000f0: 9c71 2c3f 85a7 4e3f 6491 043f f6be 563f

layer2.1.bias f4 [64]
-0.35514426 -0.44949377 0.069440685 -0.8873499 -0.24807255 -0.3049337 -0.42167693 -0.35160553
-0.4769125 -0.29509422 -0.32917303 -0.35948423 -0.39750665 -0.06929088 -0.18391658 -0.38779902
-0.3795881 -0.4662339 -0.29760247 -0.6217751 -0.058385883 -0.50477064 -0.4882971 -0.5144474
-0.08782749 -0.22343126 -0.35564238 -0.28019282 -0.32900307 -0.23433325 0.18351331 -0.22898763
-0.5737567 -0.18342108 -0.3150914 -0.48556644 0.04376645 -0.62630516 -0.46215558 -0.08512276
-0.6238207 -0.32039464 0.009224123 -0.121344745 -0.4152268 -0.653626 -0.31986248 -0.54568994
-0.5470375 -0.5748039 -0.25590658 -0.41360947 -0.31921485 -0.34571475 -0.94883835 0.28519955
-0.3085128 -0.4205199 -0.5215107 -0.3696745 -0.081545286 -0.21954817 0.0008027717 -0.29684323
00000000: 78d5 b5be 0c24 e6be eb36 8e3d 5d29 63bf
00000010: bb06 7ebe 4520 9cbe 0ae6 d7be a405 b4be
00000020: e02d f4be 9716 97be 5e89 a8be 510e b8be
00000030: fe85 cbbe 60e8 8dbd a154 3cbe 988d c6be
00000040: 5f59 c2be 36b6 eebe 5a5f 98be a72c 1fbf
00000050: 0926 6fbd a638 01bf 1402 fabe d3b2 03bf
00000060: e6de b3bd 2acb 64be c216 b6be 6f75 8fbe
00000070: 1773 a8be 0ef5 6fbe eaea 3b3e bc7b 6abe
00000080: b8e1 12bf bcd2 3bbe a953 a1be 2a9c f8be
00000090: 7344 333d 8955 20bf a89f ecbe d754 aebd
000000a0: b7b2 1fbf c40a a4be c720 173c 9883 f8bd
000000b0: 9b98 d4be 0954 27bf 04c5 a3be 56b2 0bbf
000000c0: a60a 0cbf 5926 13bf 3006 83be 9fc4 d3be
000000d0: 2170 a3be 8601 b1be 12e7 72bf ad05 923e
000000e0: 64f5 9dbe 624e d7be ba81 05bf fa45 bdbe
000000f0: 3701 a7bd 3cd1 60be 1971 523a d6fb 97be

layer2.1.running_mean f4 [64]
-1.36396 -1.7053024 -2.0349207 0.13954775 0.45996588 -1.0131065 -3.1767387 -0.6984897
-3.0976958 -2.9634268 -3.0230706 -3.735155 -1.0818723 -0.82470256 -2.915339 -4.684346
-2.5729015 -2.8902316 -3.4763248 -2.5367785 -0.4077013 -1.5580165 -4.3098025 -3.7634032
-6.229337 -0.5441827 -2.3513713 -2.5949626 -1.4873886 -2.553354 -1.1706686 -2.791456
-2.695652 -3.0621886 -1.233438 -2.0623462 -2.5966713 -1.9451568 -7.165371 -2.7816532
-8.187439 -3.1426399 -1.1183841 -0.9184674 -2.5426426 -1.3247422 -0.909232 -3.2088823
-3.5121326 -2.2567677 -2.7271712 -2.6132555 -2.4308856 -2.5740986 -0.4472537 -4.4511294
-4.1539865 -2.226454 -3.9191375 -3.8386614 -2.0520847 -0.7868314 -0.8977261 -1.8535277
00000000: 3e96 aebf 5947 dabf 243c 02c0 9be5 0e3e
00000010: a680 eb3e 79ad 81bf b04f 4bc0 39d0 32bf
00000020: a640 46c0 c9a8 3dc0 fd79 41c0 c80c 6fc0
00000030: cb7a 8abf b51f 53bf ea94 3ac0 2ae6 95c0
00000040: 6baa 24c0 8ef9 38c0 1b7c 5ec0 945a 22c0
00000050: 3abe d0be 166d c7bf e7e9 89c0 99db 70c0
00000060: bb56 c7c0 8f4f 0bbf de7c 16c0 de13 26c0
00000070: c062 bebf 276a 23c0 78d8 95bf 37a7 32c0
00000080: 9085 2cc0 e6fa 43c0 4ce1 9dbf 7bfd 03c0
00000090: dd2f 26c0 e6fa f8bf b84a e5c0 9b06 32c0
000000a0: c0ff 02c1 0321 49c0 3627 8fbf ae20 6bbf
000000b0: a8ba 22c0 2791 a9bf 6ec3 68bf 545e 4dc0
000000c0: c8c6 60c0 e26e 10c0 f989 2ec0 943f 27c0
000000d0: a193 1bc0 08be 24c0 70fe e4be a76f 8ec0
000000e0: 75ed 84c0 397e 0ec0 26d3 7ac0 a1ac 75c0
000000f0: 5b55 03c0 c86d 49bf 61d1 65bf 6540 edbf

layer2.1.running_var f4 [64]
3.9313428 9.670665 5.993388 4.933364 4.1976957 10.129392 9.211476 3.3813033
7.8076067 8.90748 10.99056 12.469997 3.7997968 5.8483896 19.290123 7.067731
11.86598 3.6322966 11.954275 6.8673944 3.9423747 7.4386163 13.8430605 7.398468
12.029923 4.6823335 4.3918624 11.721081 3.1780722 8.289999 3.6103733 6.3323436
11.0027075 8.782574 9.820538 4.8599315 6.7397394 4.51885 14.271744 6.3508115
16.30711 10.733471 11.366549 4.510059 10.793076 4.1590004 6.480183 6.8809032
14.770962 7.253795 12.669323 10.4906645 11.339936 8.525275 5.6568575 8.78427
10.507822 8.847214 8.970891 9.030241 8.10813 14.489975 10.313763 13.942487
00000000: 1f9b 7b40 0bbb 1a41 d6c9 bf40 1ede 9d40
00000010: 8653 8640 fd11 2241 3562 1341 4667 5840
00000020: ead7 f940 0a85 0e41 55d9 2f41 1c85 4741
00000030: df2f 7340 0226 bb40 2c52 9a41 da2a e240
00000040: 0edb 3d41 8c77 6840 b644 3f41 b2c1 db40
00000050: de4f 7c40 2509 ee40 2d7d 5d41 40c0 ec40
00000060: 917a 4041 add5 9540 238a 8c40 8c89 3b41
00000070: 8965 4b40 d6a3 0441 5b10 6740 8fa2 ca40
00000080: 170b 3041 6c85 0c41 ec20 1d41 8f84 9b40
00000090: f2ab d740 6b9a 9040 1059 6441 d939 cb40
000000a0: f674 8241 4cbc 2b41 62dd 3541 6752 9040
000000b0: 70b0 2c41 8816 8540 a95d cf40 5c30 dc40
000000c0: dc55 6c41 171f e840 8cb5 4a41 c3d9 2741
000000d0: 6170 3541 8767 0841 fa04 b540 5f8c 0c41
000000e0: 0a20 2841 308e 0d41 c588 0f41 de7b 1041
000000f0: e7ba 0141 f0d6 6741 2c05 2541 6d14 5f41

layer3.0.weight f4 [64, 64, 3, 3]
-0.036373444 -0.0047375523 -0.023755351 0.12208211 0.23501806 0.2687403 0.114057235 0.15454127
0.13158764 -0.14452173 -0.068153575 0.11817461 -0.08225218 -0.03533032 -0.17643231 -0.10293661
-0.13396256 -0.1884084 -0.0790543 -0.07175543 -0.08396038 -0.19394682 -0.2122545 -0.23727289
-0.22930074 -0.24737357 -0.23171054 -0.0088428715 -0.08283397 -0.104763284 0.047137648 -0.07179305
-0.0651741 -0.1140908 -0.09496394 -0.15559621 0.025199367 -0.011401124 0.06992296 -0.0021387676
0.022602407 0.014499977 -0.02144342 -0.05551497 -0.10890002 -0.048432343 0.009942695 -0.1418003
-0.014899512 -0.027271315 -0.14229895 -0.097676806 -0.048860148 0.0022194234 -0.19168878 -0.06175134
0.09597505 -0.11520426 0.032036856 0.088355556 -0.030818304 0.055333756 0.028354352 -0.032818064
0.009228568 0.12730557 0.003303077 0.08329459 0.15372191 -0.010716629 -0.13517417 -0.13128199
-0.01081762 0.011181678 -0.06623056 -0.010201914 0.049323857 -0.08691791 0.113844104 0.18364012
-0.03240915 -0.11682744 -0.04386635 -0.045276947 -0.07829016 0.06364152 0.10719697 0.08199205
0.10742034 0.0025396387 -0.07381132 0.0076269796 0.036298208 0.003914974 -0.03953489 0.117649145
0.15806827 0.15211314 0.18289445 -0.07997301 -0.06656806 -0.144253 0.17352417 0.07572074
-0.009180148 0.020896727 -0.026322788 -0.026974766 -0.0117972195 0.048997063 0.101481594 0.0844944
0.12498956 -0.016833248 0.04636275 0.05936875 -0.09150125 0.041972242 0.034824643 0.050565906
0.055449776 -0.08253914 -0.060444374 0.033638105 -0.06067948 -0.06060225 -0.0028785376 -0.13577154
-0.1660489 -0.11226715 -0.13620229 -0.07931552 -0.15780047 -0.09506261 -0.08228274 -0.026276473
-0.045626774 0.025410213 -0.11037974 -0.13115087 -0.10791989 -0.11783253 -0.05153418 -0.11170464
-0.12996744 0.06565457 0.30341056 0.0011801261 0.07389833 0.06571482 0.140456 -0.05320662
-0.13732915 -0.097561434 -0.12292786 -0.019863784 -0.053609543 -0.05544609 -0.029310197 -0.018636687
0.0141583495 -0.033591397 -0.065632515 0.045269914 -0.041512035 0.056565244 0.104629986 -0.015663723
0.16948155 0.20329238 0.06313251 0.15699868 0.08297173 0.04573491 0.033210494 0.035288274
-0.08692175 -0.12610929 -0.108682945 -0.11564665 -0.106177785 -0.025937002 -0.09526061 0.008994158
-0.007768194 -0.054516718 -0.046429668 -0.12823343 -0.15622774 0.09997844 -0.010613504 -0.11256717
0.010565821 -0.03664848 0.017537484 -0.12307645 -0.103644006 -0.16759823 0.07442471 0.12880528
0.043744314 -0.1309512 -0.08847788 -0.11031195 -0.19090357 -0.09059812 -0.16991177 0.008681332
-0.051297672 -0.13373397 -0.037140746 -0.020198973 -0.079662964 0.021479364 -0.018460952 -0.08037142
-0.12527062 -0.06537324 0.0035851444 -0.06056038 -0.11017249 0.009175359 0.19355246 0.14127007
0.154908 0.049538165 -0.020794919 -0.022429986 0.03026889 -0.06426148 -0.16913754 -0.10090224
-0.13268423 -0.1854905 -0.03339909 0.030649183 0.08855506 0.027212199 0.1250332 0.1175187
0.03157684 0.016934259 -0.049297173 0.06327621 0.07700465 -0.01269903 0.06663839 0.115303874
0.0061275847 -0.04772585 -0.048217073 -0.11171771 0.047819667 -0.143123 -0.1472293 -0.006973814
00000000: 52fc 14bd 783d 9bbb 959a c2bc 2f06 fa3d
00000010: 93a8 703e 5498 893e d796 e93d 1140 1e3e
00000020: e9be 063e 81fd 13be 1a94 8bbd 8805 f23d
00000030: d573 a8bd 87b6 10bd acaa 34be 6ed0 d2bd
00000040: 7b2d 09be 22ee 40be 39e7 a1bd 83f4 92bd
00000050: 6bf3 abbd ff99 46be 3e59 59be aaf7 72be
00000060: d0cd 6abe 7f4f 7dbe 8745 6dbe b1e1 10bc
00000070: dba4 a9bd 228e d6bd 6813 413d 3c08 93bd
00000080: 007a 85bd 70a8 e9bd 747c c2bd 9d54 1fbe
00000090: e76e ce3c c8cb 3abc c533 8f3d 912a 0cbb
000000a0: af28 b93c 5091 6d3c 1caa afbc aa63 63bd
000000b0: f906 dfbd fe60 46bd afe6 223c 1934 11be
000000c0: 151d 74bc 1868 dfbc d1b6 11be c70a c8bd
000000d0: 9421 48bd bf73 113b 104a 44be f9ee 7cbd
000000e0: 918e c43d 36f0 ebbd 1439 033d c2f3 b43d
000000f0: ab76 fcbc a6a5 623d 6347 e83c 3c6c 06bd
00000100: 6b33 173c 645c 023e 7078 583b 5b96 aa3d
00000110: 4769 1d3e cd94 2fbc 196b 0abe c96e 06be
00000120: 633c 31bc 5b33 373c e3a3 87bd ee25 27bc
00000130: d007 4a3d 0402 b2bd 1927 e93d 280c 3c3e
00000140: 75bf 04bd 3a43 efbd 34ad 33bd 5274 39bd
00000150: 9756 a0bd 7c56 823d 168a db3d 73eb a73d
00000160: 32ff db3d 1170 263b 642a 97bd beeb f93b
00000170: 6ead 143d 2f49 803b 56ef 21bd 09f2 f03d
00000180: a6dc 213e 8cc3 1b3e af48 3b3e e4c8 a3bd
00000190: d654 88bd 0fb7 13be 52b0 313e 7a13 9b3d
000001a0: 5568 16bc 9d2f ab3c e3a2 d7bc 2ffa dcbc
000001b0: 2049 41bc 25b1 483d 95d5 cf3d 660b ad3d
000001c0: 87fa ff3d e1e5 89bc dee6 3d3d a52c 733d
000001d0: 0265 bbbd 16eb 2b3d 49a4 0e3d 321e 4f3d
000001e0: 4e1f 633d 480a a9bd 8594 77bd 1cc8 093d
000001f0: 0c8b 78bd 113a 78bd d9a5 3cbb b207 0bbe
00000200: b908 2abe 52ec e5bd 9d78 0bbe 2d70 a2bd
00000210: 7296 21be 30b0 c2bd da83 a8bd c241 d7bc
00000220: 24e3 3abd 1429 d03c c60e e2bd 6a4c 06be
00000230: 1a05 ddbd 2e52 f1bd 8115 53bd 67c5 e4bd
00000240: 2f16 05be e775 863d a158 9b3e 76ae 9a3a
00000250: 0258 973d 7e95 863d b3d3 0f3e 2fef 59bd
00000260: 03a0 0cbe 4ace c7bd 9ac1 fbbd 60b9 a2bc
00000270: ae95 5bbd 701b 63bd f01b f0bc f7ab 98bc
00000280: 6cf8 673c 2297 09bd 576a 86bd f26c 393d
00000290: 8608 2abd f5b0 673d 3f48 d63d 3551 80bc
000002a0: 928c 2d3e e12b 503e 9e4b 813d 43c4 203e
000002b0: 15ed a93d 8754 3b3d ba07 083d 708a 103d
000002c0: 0804 b2bd cb22 01be 2a95 debd 27d8 ecbd
000002d0: bd73 d9bd d679 d4bc ff17 c3bd 3c5c 133c
000002e0: 568c febb ec4c 5fbd 092d 3ebd a04f 03be
000002f0: 2afa 1fbe 7fc1 cc3d 43e4 2dbc 9e89 e6bd
00000300: 441c 2d3c b71c 16bd c5aa 8f3c 810f fcbd
00000310: 4f43 d4bd df9e 2bbe fb6b 983d 88e5 033e
00000320: 3d2d 333d 1218 06be e433 b5bd 3beb e1bd
00000330: 3a7c 43be 828b b9bd 5afd 2dbe 253c 0e3c
00000340: 821d 52bd 8ff1 08be e520 18bd 5178 a5bc
00000350: 5626 a3bd 7ef5 af3c 6c3b 97bc c599 a4bd
00000360: f146 00be 68e2 85bd bef4 6a3b 290e 78bd
00000370: 1da2 e1bd 3f54 163c 9e32 463e 1aa9 103e
00000380: 34a0 1e3e 88e8 4a3d 1b5a aabc 17bf b7bc
00000390: 77f6 f73c 869b 83bd 6432 2dbe d5a5 cebd
000003a0: 60de 07be 39f1 3dbe 7ccd 08bd ff13 fb3c
000003b0: 5b5c b53d 1eec de3c b408 003e a5ad f03d
000003c0: b756 013d b7b9 8a3c d5eb 49bd f596 813d
000003d0: 9db4 9d3d 980f 50bc b579 883d 7024 ec3d
000003e0: e8c9 c83b 2e7c 43bd 447f 45bd 41cc e4bd
000003f0: 8ede 433d d68e 12be 47c3 16be 9884 e4bb

layer3.0.bias f4 [64]
-0.0004930769 -0.000112243266 -0.004617633 -0.0038041943 -0.005119832 -0.00012917572 -0.004303015 1.5731963e-05
-0.002676496 -0.0019426496 0.0054746615 -0.0050916206 -0.0024803858 0.00044384593 -0.0017844345 0.0022130606
0.0056493906 0.003029069 0.002990274 -0.0005278288 -0.0010575475 0.0016366503 0.0031758049 0.0038163962
0.002229102 0.0031507935 0.0013302609 -0.000105212304 -0.0011659104 -0.004585688 -0.0058995374 -0.005725814
0.0046393643 0.0014968312 0.00542463 -0.004489489 0.0050209886 -0.005827309 -0.0010888965 0.0026738218
-0.0055275443 0.0039655506 -0.005471835 0.0039326805 0.004927246 0.004556717 0.00013273096 0.0034775254
0.002668197 0.0047516776 -0.0056442446 -0.0057105226 -0.003971191 0.0052842437 0.0019731969 -0.0004722093
-0.0013708754 0.0038728823 0.0041696588 -0.0045226715 -0.00090774614 0.0038959938 -0.0041281655 0.0040171086
00000000: d541 01ba 2564 ebb8 834f 97bb ca4f 79bb
00000010: 44c4 a7bb 5873 07b9 4e00 8dbb 22f8 8337
00000020: 2768 2fbb 81a0 feba ca64 b33b 9cd7 a6bb
00000030: f88d 22bb feb3 e839 b0e3 e9ba ff08 113b
00000040: 861e b93b 5883 463b 79f8 433b fe5d 0aba
00000050: 689d 8aba df84 d63a 2a21 503b 811c 7a3b
00000060: 2016 123b 8b7d 4e3b 265c ae3a 6da5 dcb8
00000070: 76d1 98ba 8a43 96bb e850 c1bb 9c9f bbbb
00000080: cf05 983b 5231 c43a 18c1 b13b 901c 93bb
00000090: 1b87 a43b 03f3 bebb 4eb9 8eba 493b 2f3b
000000a0: 6720 b5bb 73f1 813b 144d b3bb b7dd 803b
000000b0: bc74 a13b 8350 953b b22d 0b39 32e7 633b
000000c0: ebdc 2e3b f6b3 9b3b 5bf3 b8bb 561f bbbb
000000d0: c420 82bb 7327 ad3b c050 013b dc92 f7b9
000000e0: f2ae b3ba 2fd0 7d3b a2a1 883b eb32 94bb
000000f0: d0f5 6dba ee53 7f3b 9045 87bb f3a1 833b

layer3.1.weight f4 [64]
0.81694585 0.74347717 0.9810913 1.098986 1.2672966 1.0365715 1.0064787 1.0275352
1.0538235 0.4872484 0.8318815 1.0454614 0.7169523 0.92403215 1.0180075 0.9048692
1.1697559 1.1054726 0.90553135 0.72571206 1.117437 1.0340037 1.0857586 0.95194423
0.668738 1.1062201 0.97620136 1.0442402 0.9620688 0.91526407 0.99712414 1.0267584
0.9279933 0.61236644 0.7463864 1.1057776 0.8633252 1.1717408 0.7679399 1.1606656
1.1038574 0.85411704 0.86387783 0.86792475 1.1065437 1.029654 0.70816123 1.1296604
0.9199402 0.96741384 1.165617 0.98142153 0.844188 1.0904931 1.0804088 0.8089482
0.6915867 0.87668496 1.1203867 0.9010081 0.9383708 0.94027126 0.7394269 0.6580932
00000000: 5d23 513f 8554 3e3f cd28 7b3f 93ab 8c3f
00000010: c636 a23f 60ae 843f 4bd4 803f 4686 833f
00000020: b0e3 863f 9f78 f93e 30f6 543f aed1 853f
00000030: 308a 373f 5f8d 6c3f 124e 823f 82a5 673f
00000040: 90ba 953f 2080 8d3f e7d0 673f 44c8 393f
00000050: 2d08 8f3f 3c5a 843f 23fa 8a3f 9eb2 733f
00000060: 6a32 2b3f 9f98 8d3f 55e8 793f aaa9 853f
00000070: 244a 763f bf4e 6a3f 8743 7f3f d26c 833f
00000080: f890 6d3f 0cc4 1c3f 2e13 3f3f 1f8a 8d3f
00000090: e102 5d3f 9afb 953f b697 443f b190 943f
000000a0: 334b 8d3f 6aa7 5a3f 1927 5d3f 5130 5e3f
000000b0: 39a3 8d3f b4cb 833f 0e4a 353f b698 903f
000000c0: 3381 6b3f 6fa8 773f f032 953f 713e 7b3f
000000d0: b41c 583f 4795 8b3f d64a 8a3f 3b17 4f3f
000000e0: d30b 313f 6d6e 603f d568 8f3f 78a8 663f
000000f0: 1239 703f 9eb5 703f 154b 3d3f cc78 283f

layer3.1.bias f4 [64]
-0.56615853 -0.23740235 -0.69116193 -0.48479652 -0.7985308 -0.7595098 -0.7016115 -0.8246437
-0.7836484 0.68404585 -0.65071976 -0.79288846 -0.44116414 -0.51061076 -0.7455159 -0.6721486
-0.96244866 -0.8616475 -0.7676616 -0.37216827 -0.6852927 -0.801144 -0.81283927 -0.61195964
-0.28415272 -1.1569285 -0.3033057 -0.7428115 -0.6498835 -0.36176538 -0.724092 -0.96415955
-0.51307994 -0.24584603 -0.45415732 -0.895171 -0.5639677 -0.7211887 -0.30935866 -0.68584865
-0.7913105 -0.34496146 -0.5084181 -0.3179141 -0.55070233 -0.4354536 -0.34121123 -0.79298395
-0.6386561 -0.61055565 -0.5968473 -0.49679366 -0.24974295 -0.7154159 -0.41167352 -0.6100184
-0.37886736 -0.6496993 -0.8724209 -0.43069628 -0.6913437 -0.5259986 -0.2797075 -0.41503313
00000000: c4ef 10bf 9a19 73be fdef 30bf 4037 f8be
00000010: 846c 4cbf 3c6f 42bf d09c 33bf d91b 53bf
00000020: 2e9d 48bf a11d 2f3f 9295 26bf bdfa 4abf
00000030: 44e0 e1be 63b7 02bf 21da 3ebf ee11 2cbf
00000040: 0963 76bf ee94 5cbf 7885 44bf d78c bebe
00000050: 586f 2fbf c617 4dbf 3c16 50bf 63a9 1cbf
00000060: 777c 91be 3c16 94bf e24a 9bbe e528 3ebf
00000070: c45e 26bf 5039 b9be 185e 39bf 29d3 76bf
00000080: 3559 03bf 10bf 7bbe 4f87 e8be ed29 65bf
00000090: 3060 10bf d39f 38bf 4264 9ebe c793 2fbf
000000a0: 5393 4abf ca9e b0be b027 02bf a3c5 a2be
000000b0: d4fa 0cbf c6f3 debe 3db3 aebe ff00 4bbf
000000c0: f77e 23bf 604d 1cbf fcca 18bf bd5b febe
000000d0: 9ebc 7fbe 7f25 37bf dfc6 d2be 2a2a 1cbf
000000e0: e7fa c1be b152 26bf fa56 5fbf 3984 dcbe
000000f0: e7fb 30bf d8a7 06bf d235 8fbe 397f d4be

layer3.1.running_mean f4 [64]
-1.0703839 -2.042011 -3.051341 -2.9972188 -2.1522062 -1.6487128 -2.769691 -1.3522242
-4.3436675 -1.9535567 -1.7335064 -2.4448402 -1.2063711 -2.6770868 -2.6523118 -1.3664223
-3.8195214 -1.9491273 -1.768177 -0.69714093 -3.2526062 -2.7609074 -2.4760015 -4.156951
1.3243425 -3.135642 -3.7297688 -2.06988 -2.9561114 -1.6753643 -2.0414941 -2.6807811
-3.4780226 -2.7049775 -0.8498928 -2.547696 -2.4522665 -3.2117581 -1.77916 -2.3900874
-2.829682 -3.4727898 -3.6466174 -1.7716213 -2.5424716 -3.0137045 -0.96299726 -3.5738647
-0.2083915 -1.5980748 -2.8996968 -1.6545746 -3.2036772 -2.6464205 -3.7063966 -1.9689333
-1.7663815 -3.4526923 -2.9516363 -1.3839419 -2.0336823 -2.772377 -2.1125412 -0.6356138
00000000: 5702 89bf 4fb0 02c0 2c49 43c0 6fd2 3fc0
00000010: bfbd 09c0 0509 d3bf 9e42 31c0 af15 adbf
00000020: 53ff 8ac0 250e fabf 8ae3 ddbf 4378 1cc0
00000030: 5e6a 9abf 6455 2bc0 7abf 29c0 ede6 aebf
00000040: 0a73 74c0 017d f9bf a053 e2bf d477 32bf
00000050: b32a 50c0 b5b2 30c0 cf76 1ec0 be05 85c0
00000060: 0e84 a93f 5cae 48c0 88b4 6ec0 ea78 04c0
00000070: ee30 3dc0 5672 d6bf d7a7 02c0 eb91 2bc0
00000080: ec97 5ec0 5a1e 2dc0 9392 59bf 740d 23c0
00000090: eff1 1cc0 728d 4dc0 84bb e3bf 31f7 18c0
000000a0: 8319 35c0 3042 5ec0 2e62 69c0 7dc4 e2bf
000000b0: dbb7 22c0 89e0 40c0 fd86 76bf 33ba 64c0
000000c0: 9564 55be b78d ccbf a294 39c0 1ac9 d3bf
000000d0: 0c09 4dc0 f45e 29c0 9a35 6dc0 0206 fcbf
000000e0: ca18 e2bf e9f8 5cc0 9ce7 3cc0 0225 b1bf
000000f0: da27 02c0 a06e 31c0 e033 07c0 96b7 22bf

layer3.1.running_var f4 [64]
3.4786553 4.402647 4.9585085 8.574414 7.5979695 4.3174014 5.891827 5.682827
6.3320956 4.1627526 5.4091024 4.242127 2.6619258 4.879191 4.9285192 3.9493313
5.47612 4.6732063 3.620996 2.9077594 8.483782 5.342396 5.3767653 5.5719934
2.760813 4.507726 5.554993 5.4224267 4.924014 4.075182 4.3960323 7.817343
3.1501343 3.6049194 3.501738 6.557075 5.948364 10.013231 4.970731 8.601642
7.667316 3.9970002 4.5844283 6.434386 6.1366363 6.1345015 4.855384 7.4394584
4.6700788 5.602997 7.6693664 6.760125 4.0786424 9.017029 7.590799 4.4605594
4.107929 5.5499105 4.6666665 5.635468 3.4548037 5.11687 3.961141 3.4929674
00000000: 4aa2 5e40 7ce2 8c40 1aac 9e40 cd30 0941
00000010: 9122 f340 2728 8a40 d989 bc40 b8d9 b540
00000020: 87a0 ca40 4535 8540 5e17 ad40 81bf 8740
00000030: fe5c 2a40 5522 9c40 6eb6 9d40 d8c1 7c40
00000040: 603c af40 e88a 9540 66be 6740 bb18 3a40
00000050: 92bd 0741 e8f4 aa40 760e ac40 c54d b240
00000060: 29b1 3040 4b3f 9040 81c2 b140 8584 ad40
00000070: 8691 9d40 e467 8240 4cac 8c40 ad27 fa40
00000080: cd9b 4940 00b7 6640 7a1c 6040 8fd3 d140
00000090: ff58 be40 3236 2041 3a10 9f40 53a0 0941
000000a0: a75a f540 dace 7f40 a3b3 9240 7de6 cd40
000000b0: 535f c440 d64d c440 4e5f 9b40 0b10 ee40
000000c0: 4971 9540 c04b b340 736b f540 f252 d840
000000d0: 3d84 8240 c045 1041 d3e7 f240 e7bc 8e40
000000e0: 2874 8340 de98 b140 5555 9540 c155 b440
000000f0: 811b 5d40 66bd a340 5683 7d40 c78c 5f40

layer4.0.weight f4 [64, 64, 3, 3]
-0.051221956 -0.0057205525 -0.045209903 -0.082150824 -0.21933606 -0.28320366 -0.08729448 -0.17733307
-0.14186934 -0.12942001 0.1259468 0.10210696 -0.18852796 -0.02959226 0.10286714 0.030325513
-0.09930812 0.046212144 0.0039647087 0.2047232 -0.07480387 -0.19883779 -0.076312736 -0.00080986466
-0.03449985 -0.100638576 -0.07111796 0.14969976 0.2454132 -0.16999942 -0.1890307 -0.025015615
-0.1686674 0.062305294 -0.061617028 -0.2000995 0.08908873 0.16456065 -0.041034233 0.24796131
0.14631306 0.40194702 0.2157022 -0.03687527 0.105874054 -0.037279736 -0.12598825 -0.03501326
0.013375628 -0.22924164 0.011320037 -0.12839678 -0.10480456 -0.13038535 0.055346325 0.22866195
0.2685796 -0.27479574 -0.17552875 -0.17985469 -0.044420525 -0.13947369 -0.02484101 -0.0065783896
-0.110051565 -0.06902789 -0.0910471 -0.08380654 -0.0068687773 -0.1735164 -0.24597009 -0.060305048
-0.29480356 -0.11564847 -0.13786122 -0.1610893 -0.2854973 -0.22717857 0.11406324 -0.10287494
-0.12598254 0.12719546 -0.021806803 0.039811276 0.09737803 -0.0896919 -0.016071994 0.06957088
0.04842956 0.00024175907 -0.041378643 0.32902968 0.4372234 -0.24309357 0.022181354 0.00881326
-0.3290159 -0.100158975 -0.002742824 -0.18663324 -0.24572045 -0.20828243 -0.17816305 -0.24039495
-0.09739985 -0.11135336 -0.15094617 -0.17319512 0.05819234 0.21466383 -0.037000496 -0.035300884
-0.023735544 0.11068097 0.06935877 0.0056116497 -0.037146695 0.15956832 0.013746488 0.07674939
0.08945889 -0.035256352 -0.12577151 -0.17030576 0.01829447 -0.04147128 0.018695476 0.079696245
0.13339047 -0.026407277 0.030450735 -0.07787059 -0.06373591 0.03441533 0.06662057 0.013523991
-0.066818275 0.03955654 -0.13886888 -0.17767079 0.055779874 0.022633662 -0.16213858 0.12163241
0.09584168 -0.057781726 0.09596371 0.07416045 -0.19084978 0.0012408269 0.05037319 -0.018330485
0.022051997 0.09448018 0.109982975 0.06824584 0.04905239 0.21272749 0.18336846 -0.10454375
0.0007637097 0.17005233 -0.16098998 -0.08010074 -0.12170121 -0.094794296 -0.07579532 -0.0038971957
0.04625277 0.021185081 -0.021979725 0.14531225 0.115766495 0.008752588 0.021696882 -0.200866
-0.2540395 0.03125455 0.012191473 -0.12603737 0.19311304 -0.0683805 -0.17915627 -0.10014704
-0.2529369 0.109662704 0.2048636 0.0017793378 0.19757569 0.013557466 -0.054083902 -0.036009066
-0.023438685 -0.26607284 -0.15698849 -0.11728033 -0.118953474 -0.12521966 -0.11890963 0.11772089
0.049351636 -0.26685977 0.033973835 0.06626903 -0.23429747 -0.0940307 0.029276231 -0.05574338
0.07495429 -0.008079233 0.03992966 -0.056389753 0.0644612 0.07946738 0.15580001 0.13809916
-0.18207917 -0.4315534 -0.25684234 0.12955739 -0.069504395 -0.06946292 0.20591098 0.21405935
0.19953236 0.008155482 0.087113194 0.17441161 -0.101644315 0.13430575 -0.07799407 -0.08347209
0.1444396 0.10883511 -0.18652666 -0.109597184 -0.06204708 -0.04190241 -0.046500634 -0.035194483
0.005443525 -0.0068862904 -0.0422404 -0.17193186 -0.14731199 -0.0045029013 0.13101935 0.02435374
-0.07774316 0.072863266 0.04747711 -0.13276531 0.10909649 0.030127347 0.040274467 0.10569163
00000000: 1dce 51bd 7973 bbbb 052e 39bd b13e a8bd
00000010: a299 60be 1200 91be 73c7 b2bd cd96 35be
00000020: 3246 11be ae86 04be 33f8 003e 741d d13d
00000030: 790d 41be 786b f2bc 02ac d23d 366d f83c
00000040: 0e62 cbbd f248 3d3d 63ea 813b f5a2 513e
00000050: c532 99bd 229c 4bbe da49 9cbd 194d 54ba
00000060: b74f 0dbd 991b cebd 4ba6 91bd e54a 193e
00000070: 994d 7b3e 5414 2ebe 4491 41be 8ced ccbc
00000080: 26b7 2cbe d633 7f3d 2362 7cbd e2e6 4cbe
00000090: 2774 b63d 9682 283e 8313 28bd 92e9 7d3e
000000a0: 17d3 153e 00cc cd3e 0ae1 5c3e 860a 17bd
000000b0: 7fd4 d83d a3b2 18bd 1003 01be 106a 0fbd
000000c0: 7325 5b3c 52be 6abe ad77 393c 727a 03be
000000d0: c6a3 d6bd bd83 05be d4b2 623d 5c26 6a3e
000000e0: 4483 893e 07b2 8cbe cfbd 33be d42b 38be
000000f0: 4cf2 35bd 31d2 0ebe 607f cbbc 888f d7bb
00000100: b762 e1bd 7f5e 8dbd e776 babd c3a2 abbd
00000110: 7b13 e1bb 48ae 31be 95df 7bbe 6d02 77bd
00000120: 7ef0 96be 1bd9 ecbd 7e2b 0dbe 98f4 24be
00000130: b42c 92be 80a1 68be fd99 e93d 19b0 d2bd
00000140: 9101 01be 873f 023e 2ea4 b2bc 2611 233d
00000150: 226e c73d 63b0 b7bd 6aa9 83bc 2d7b 8e3d
00000160: 135e 463d b580 7d39 a77c 29bd 9476 a83e
00000170: bfdb df3e 85ed 78be acb5 b53c 7e65 103c
00000180: c674 a8be 2620 cdbd f3c0 33bb c91c 3fbe
00000190: 249e 7bbe fd47 55be 6070 36be 182a 76be
000001a0: 9379 c7bd 3b0d e4bd a291 1abe 105a 31be
000001b0: 175b 6e3d d6d0 5b3e d58d 17bd a997 10bd
000001c0: 0b71 c2bc b4ac e23d f90b 8e3d eee1 b73b
000001d0: 2227 18bd e165 233e f338 613c c92e 9d3d
000001e0: 3936 b73d f768 10bd 3fca 00be a264 2ebe
000001f0: 49de 953c cadd 29bd 4127 993c c937 a33d
00000200: 8397 083e 1354 d8bc d273 f93c 9e7a 9fbd
00000210: f987 82bd 17f7 0c3d 5e70 883d bb93 5d3c
00000220: 05d8 88bd 0a06 223d a533 0ebe 55ef 35be
00000230: 7079 643d 3b6a b93c a807 26be 6a1a f93d
00000240: a548 c43d 88ac 6cbd 9f88 c43d 6fe1 973d
00000250: 206e 43be 3ea3 a23a 1e54 4e3d d029 96bc
00000260: 64a6 b43c d37e c13d c13e e13d 7ac4 8b3d
00000270: 29eb 483d 3cd5 593e f1c4 3b3e 091b d6bd
00000280: b133 483a 3322 2e3e 8fda 24be db0b a4bd
00000290: 7c3e f9bd 8323 c2bd 943a 9bbd 1868 7fbb
000002a0: 8b73 3d3d 568c ad3c d30e b4bc bccc 143e
000002b0: fc16 ed3d 0467 0f3c a9bd b13c d1af 4dbe
000002c0: 7711 82be c504 003d bebe 473c f10f 01be
000002d0: 6dbf 453e 130b 8cbd be74 37be e419 cdbd
000002e0: f280 81be d796 e03d c3c7 513e ab38 e93a
000002f0: 4851 4a3e 2220 5e3c 1587 5dbd 3e7e 13bd
00000300: 7c02 c0bc b33a 88be 97c1 20be ab30 f0bd
00000310: e19d f3bd 9539 00be e486 f3bd a617 f13d
00000320: f124 4a3d d8a1 88be 2628 0b3d 0fb8 873d
00000330: adeb 6fbe 2b93 c0bd b5d4 ef3c 2c53 64bd
00000340: a381 993d c25e 04bc 488d 233d f1f8 66bd
00000350: 3c04 843d cbbf a23d 0a8a 1f3e de69 0d3e
00000360: f672 3abe 91f4 dcbe d780 83be b1aa 043e
00000370: 5258 8ebd 9342 8ebd 54da 523e 6032 5b3e
00000380: 3652 4c3e 929e 053c 6768 b23d f598 323e
00000390: e52a d0bd 7287 093e 5bbb 9fbd 6af3 aabd
000003a0: f9e7 133e f1e4 de3d d800 3fbe 7d74 e0bd
000003b0: 1425 7ebd dda1 2bbd 7377 3ebd 1728 10bd
000003c0: 995f b23b 64a6 e1bb 4504 2dbd e80e 30be
000003d0: f4d8 16be 138d 93bb f029 063e 7f81 c73c
000003e0: ce37 9fbd 5639 953d 5c77 423d a1f3 07be
000003f0: fb6d df3d a0cd f63c d7f6 243d da74 d83d

layer4.0.bias f4 [64]
0.005212067 0.0006481991 0.001128462 -0.0037269848 -0.004985951 -0.005754745 0.001863351 -0.0021319187
-0.004163825 -0.003194359 0.0026359383 0.0034142218 -0.0029740825 -0.00322345 -0.0036965555 -0.00072481565
0.005640412 -0.0035703527 0.00023899441 -0.0039962893 0.0033591902 -0.002526525 -0.0043387306 0.0009745516
-0.00053098705 0.005219209 0.0026492244 -0.0037300189 0.0038184682 0.005833656 -0.0026075128 -0.0018726372
0.002842973 0.00096058263 8.659271e-06 0.003034777 -0.0015903349 0.0030521513 0.0011975276 -0.0030176123
0.0042957505 0.00080467825 -0.002703829 0.0028275407 0.00275533 0.0034901921 0.0019168619 -0.0057856156
0.0031406423 0.0026036315 -0.0056783096 -0.0019157543 -0.0053062495 -0.0023168004 0.00076132716 -0.00564716
0.002475066 -0.0042810887 0.0021152114 0.0016407924 -0.0057754107 0.0044442783 -0.0026557075 0.004981353
00000000: fdc9 aa3b e8eb 293a e7e8 933a 6e40 74bb
00000010: 3061 a3bb 4d92 bcbb af3b f43a a9b7 0bbb
00000020: b270 88bb 7358 51bb b5bf 2c3b 23c1 5f3b
00000030: d3e8 42bb 8440 53bb e941 72bb 8e01 3eba
00000040: 35d3 b83b 94fc 69bb 939a 7a39 4ef3 82bb
00000050: dc25 5c3b 0e94 25bb e92b 8ebb 0d79 7f3a
00000060: f031 0bba e605 ab3b 9c9e 2d3b 5573 74bb
00000070: 443f 7a3b 4128 bf3b cee2 2abb 4773 f5ba
00000080: 2c51 3a3b 9ccf 7b3a 4947 1137 1ce3 463b
00000090: c972 d0ba 9a06 483b 5cf6 9c3a 22c3 45bb
000000a0: 5ec3 8c3b 0bf1 523a b932 31bb 434e 393b
000000b0: c492 343b b5bb 643b 363f fb3a 4395 bdbb
000000c0: 3cd3 4d3b b0a1 2a3b 1d11 babb 0c1a fbba
000000d0: 0ce0 adbb 76d5 17bb cd93 473a d00b b9bb
000000e0: b834 223b 6048 8cbb 5c9f 0a3b db0f d73a
000000f0: a83f bdbb 4fa1 913b 610b 2ebb 9e3a a33b
