results/RENet-dataset-Conv64F-5-5-Jan-08-2024-20-55-23/checkpoints/model_best.pth (torch, 909355 bytes, 69 tensors)

emb_func.layer1.0.weight f4 [64, 3, 3, 3]
000000 1f 48 f4 3e c0 ea 39 3e 95 4a 72 be c6 0b 5b bf
       0.47711274 0.18155956 -0.23661263 -0.8556484
000010 d6 87 52 bf 5f e1 99 be e5 06 90 3e f0 41 2d 3f
       -0.8223852 -0.30054757 0.2813026 0.6767874
000020 a6 09 4e 3f f5 75 23 3f 7d bc fb 3d 2b d2 98 be
       0.8048347 0.63851863 0.12291811 -0.29847845
000030 d7 fc a4 bf f8 c1 a4 bf 63 bd 1f bf 7c 0b 15 3e
       -1.2889661 -1.2871695 -0.62398356 0.14555162
000040 03 50 3c 3f b2 79 58 3f 7c d8 59 3f 30 90 98 3e
       0.7355959 0.8456069 0.85095954 0.29797506
000050 7b 0f 0e be 08 de 4a bf 8d 4c 65 bf e3 ec a9 be
       -0.13873093 -0.7924504 -0.8956993 -0.33188543
000060 90 99 62 3e 6e fd 43 3f b8 43 55 3f d3 5d 41 be
       0.22128892 0.7655858 0.83306456 -0.18883447
000070 65 40 34 be 80 ea 45 be 84 93 60 be 03 71 0b be
       -0.1760269 -0.19327736 -0.21931273 -0.1361733
000080 9c 54 65 be 4a 02 af bd 8f bb 8b bd 31 da c5 bd
       -0.22395557 -0.085453585 -0.06822883 -0.09660757
000090 f7 e1 58 bd 1d 8a 76 3a 0a a1 30 bd f1 2d 20 bd
       -0.052949872 0.0009404736 -0.04312233 -0.039106313
0000a0 9d 83 3f 3c f7 0b 5c bd dd 53 36 3d 53 3c 74 3d
       0.011689094 -0.053722348 0.044513572 0.059627842
0000b0 49 90 2a 3d 3c 13 12 3d 68 4d a2 3d a4 d1 23 3d
       0.041641507 0.035662875 0.0792492 0.03999485
0000c0 93 4a fc 3c 23 4a d6 3d e8 b0 8d 3d 9d 0e 04 3e
       0.030797279 0.10463359 0.06918508 0.128962
0000d0 26 04 27 3e b6 01 03 3e f1 69 a8 3d 51 3d 47 bd
       0.16310176 0.12793621 0.08223332 -0.04864246
0000e0 aa 66 96 3c 53 54 68 be 98 07 b0 be 09 76 bc be
       0.0183595 -0.22688417 -0.34380794 -0.36808804
0000f0 c3 bb 47 be 5a f0 48 be 2a f3 52 be b4 aa cf 3e
       -0.19505219 -0.19622937 -0.20600572 0.40559924
000100 2d fe a9 3e e4 c4 d0 3e 50 9a 47 3e 8b 03 fd 3d
       0.33201733 0.40775216 0.1949246 0.123541914
000110 6d 24 f2 3d 3c 27 4d bd c8 b3 9d bd e2 8c 6e bd
       0.11823354 -0.050086245 -0.07700306 -0.058239825
000120 af 8a 32 3e a0 13 02 3e cf a8 5b 3e b1 cb a1 3d
       0.17435716 0.12702799 0.21451114 0.07900179
000130 9f 38 5a 3c 63 6d 29 bd a9 56 53 be 39 6e 4e be
       0.013319164 -0.041364085 -0.20638527 -0.20159234
000140 1e 38 56 be f2 88 2f 3f 41 2e 21 3f 54 db 2b 3f
       -0.20919845 0.68568337 0.629612 0.67131543
000150 7d 24 78 bd df a4 77 be 7e b0 c1 be ee fc 89 be
       -0.060581673 -0.24183987 -0.37829965 -0.26950783
000160 87 06 27 bf 50 40 4c bf c1 6c 2d 3f f8 61 26 3f
       -0.65244335 -0.79785633 0.6774407 0.6499324
000170 e2 81 54 3f ec 38 26 3d 1b 4c 00 be 1c 2c 4b be
       0.83010685 0.04058163 -0.12529032 -0.19841045
000180 9f c6 43 be 0f 77 25 bf 30 81 40 bf d5 6f b0 3e
       -0.19118737 -0.64634794 -0.75197124 0.3446032
000190 1d 8a c5 3e b8 f4 0e 3f 7f 97 7f bb 39 37 bd bd
       0.38581935 0.5584216 -0.003900021 -0.092390485
0001a0 37 43 35 be 37 24 2d bd 24 6c f6 be 37 ab 0c bf
       -0.17701422 -0.042270865 -0.4812938 -0.54948753
0001b0 cf 8b a3 3e 4f fc 99 3e 48 27 7e 3e 47 1f d8 3d
       0.31942603 0.3007531 0.24819672 0.10552841
0001c0 0a 0a 95 bd 1e 8d d6 3c f4 d1 1a be 01 c0 f9 be
       -0.072773054 0.026190337 -0.15119153 -0.487793
0001d0 96 95 a3 be 92 47 3e 3e a6 f8 40 3e 85 dc 4d 3e
       -0.31950063 0.1858199 0.18844852 0.20103653
0001e0 a4 ce 34 3d 81 bd a9 bd 70 b0 f4 bb f0 81 aa 3c
       0.04414238 -0.08288098 -0.007467322 0.020813912
0001f0 77 14 78 be c6 c1 85 bd 25 86 03 3e d1 89 05 3e
       -0.24226557 -0.065311 0.12844141 0.13040854
000200 7a 8d 2b 3e a7 77 1f bd 63 e3 e2 bd 4a 75 9e bb
       0.16753188 -0.03893247 -0.11078527 -0.0048357593
000210 59 8a ce bd 00 73 8f be ad 6d cc bd ec 69 f4 3c
       -0.100849815 -0.28017426 -0.099818565 0.029835664
000220 6a 59 14 3d 17 2e 9d 3c 1c 35 a7 3d c9 9f 11 3e
       0.036218084 0.019187016 0.08164427 0.1422111
000230 cc 3b 26 3e b9 54 11 3e d4 0e 20 3e 5e 9c e2 3d
       0.16233748 0.14192475 0.15630656 0.11064981
000240 d9 54 74 be 5d 34 7d be 31 45 75 be 9e 8a ba be
       -0.23860492 -0.24727006 -0.23952176 -0.36433882
000250 d8 d9 bb be 2f cc be be ca f0 b9 be 6a d9 c7 be
       -0.3668964 -0.37265155 -0.3631652 -0.3903306
000260 66 05 c6 be ec ac b1 3e 1a 75 aa 3e 9c 2e 86 3e
       -0.38675994 0.3470224 0.33292466 0.26207435
000270 07 9f 44 3e 3e 94 2a 3e 7e 5e 3b 3e b1 04 0f 3e
       0.19201289 0.16658112 0.18297765 0.13966633
000280 75 03 e5 3d 21 3a c2 3d 5c 63 3c bf db 1b 25 be
       0.111823 0.094837435 -0.7358911 -0.16123907
000290 b3 3b ee 3e 83 dc 1b bf 79 3b 48 3e 83 85 c3 3e
       0.46529922 -0.6088335 0.19553937 0.381878
0002a0 ab 4b 16 be ef 34 21 3e 27 c2 77 3e 5b dc 12 bf
       -0.14677303 0.15742849 0.24195157 -0.57367486
0002b0 ec 5e d5 3d 55 64 33 3f 3d a0 24 bf 43 07 c8 3e
       0.104184955 0.7007497 -0.64307004 0.3906804
0002c0 42 05 0c 3f 55 7f 93 be aa 69 ef 3d 99 99 1e 3e
       0.5469552 -0.28808084 0.11690076 0.1548828
0002d0 41 86 e3 be d5 84 25 3d 99 d1 0c 3f 87 5f 17 bf
       -0.44438365 0.04040988 0.5500732 -0.5913014
0002e0 98 7d 79 3e 59 83 bc 3e ac 0a ae be ad 0d 8f bd
       0.24364316 0.3681896 -0.33992517 -0.0698503
0002f0 a1 30 19 bc bb 31 55 3f e4 d1 8b 3f 53 ab 8c 3f
       -0.009349973 0.8327901 1.0923429 1.0989784
000300 c4 b6 14 bf ef 91 52 bf 67 11 fe be 03 c8 ac be
       -0.5809138 -0.82253927 -0.49622652 -0.33746347
000310 75 d4 86 be b2 f2 ff be 32 83 cc 3d 0a 82 c7 3e
       -0.26333967 -0.4998985 0.09985961 0.389664
000320 ac 66 df 3e 42 59 0c bf ba 33 6e bf bc 9e 13 bf
       0.4363302 -0.54823697 -0.9304768 -0.57664084
000330 ef 80 a5 3e 6e 96 f4 3e ea 46 f3 3c e3 c4 66 be
       0.3232493 0.4777102 0.0296969 -0.22536044
000340 75 a0 94 3c c4 72 78 3d 5c 0e 9f be 36 6e 20 bf
       0.018142918 0.060656324 -0.31065643 -0.6266817
000350 27 3b a8 be b3 3b 13 3f f9 26 3b 3f ab 55 a4 3e
       -0.3285763 0.5751297 0.7310634 0.3209661
000360 10 66 6e bf 13 13 64 bf 38 61 a3 be 1c be fd be
       -0.93124485 -0.89091605 -0.3191011 -0.49559104
000370 2f 1c a0 3e 55 77 4a 3f c8 98 64 3e f1 4a b1 3e
       0.31271502 0.79088336 0.22323906 0.34627488
000380 cd 76 93 3e c2 f1 3f bf 9c db 6d bf bd 3f b4 be
       0.28801575 -0.7497827 -0.9291322 -0.35204878
000390 64 13 6d be cb a0 1d 3f ec 44 83 3f 36 45 de 3e
       -0.23151928 0.61573476 1.0255408 0.4341218
0003a0 4d a4 07 3f 31 b9 db 3e e5 3c f2 be 5a f7 40 bf
       0.5298508 0.42914727 -0.47312084 -0.7537743
0003b0 22 4c a4 be 8d ef 8d be e9 fb cc 3e 03 06 36 3f
       -0.32089335 -0.27721825 0.40035942 0.71102923
0003c0 a9 3b 57 3d 5c bc 0c 3e 22 31 41 bd 0a cb 52 bd
       0.05254713 0.13743728 -0.047165997 -0.051463164
0003d0 89 c4 6d bd ff 39 04 be b2 50 1b bd af a6 c9 bd
       -0.05804876 -0.12912749 -0.037918754 -0.098462455
0003e0 aa 54 5e bd 4d 5f 33 bd 80 a7 89 bd 5a 00 1b bd
       -0.05427996 -0.043792058 -0.06721401 -0.037842132
0003f0 72 ce 58 bd 4b ad c1 bd ab 54 fc bd b4 54 8b bd
       -0.052931257 -0.09456881 -0.12320837 -0.06803265

emb_func.layer1.0.bias f4 [64]
000000 62 eb 07 3c fd c2 b0 bc 51 22 8a 3b 10 2f b5 3c
       0.008295866 -0.021577353 0.0042155166 0.022117168
000010 55 4c 94 3c f5 57 bc 3c 34 1c 6e 3c 88 89 11 bb
       0.018102804 0.02299116 0.014533091 -0.002220722
000020 b2 b1 e5 3b 3e cd 37 bc 64 af ba 3c 90 3e 5c 3c
       0.0070097083 -0.011218367 0.02278871 0.01344265
000030 4e f9 a0 bc ff 2a be 3c 26 e6 d0 b9 34 69 9c ba
       -0.019650128 0.023213862 -0.00039844326 -0.0011933208
000040 69 c5 f0 bb 2b 1c e8 bb 97 1f b0 3a 78 bd 56 bc
       -0.007347752 -0.007083436 0.0013437149 -0.013106696
000050 c5 95 cc bc b4 94 62 bc 6b 10 af bb f3 14 a6 3c
       -0.02497376 -0.013829399 -0.0053425333 0.020273661
000060 c3 cb a1 3c 19 c6 83 bc 8d 21 87 ba ee e2 fd bb
       0.019750481 -0.016085671 -0.0010309682 -0.0077479994
000070 c5 50 6b bc 10 b2 9a bb 89 9f 18 bc f3 dc 75 3c
       -0.014362519 -0.0047209337 -0.00931538 0.015006292
000080 07 25 5a bc bf 5a 87 3b 32 39 78 bc 6b 49 09 bc
       -0.013314492 0.004130691 -0.015150355 -0.008379321
000090 15 23 ad 3c 93 f2 57 bc 9c 98 d3 ba 74 0c d2 3c
       0.021134892 -0.013180393 -0.0016143504 0.025640704
0000a0 35 8d 16 3c 9b e4 5f bc 48 0c 84 bc f9 3f 1a bc
       0.00918894 -0.013665344 -0.016119137 -0.009414666
0000b0 cc be 09 bc 90 83 3f 3c 30 96 c3 bb 15 7d b9 3c
       -0.008407306 0.011689082 -0.0059688315 0.022642652
0000c0 48 59 71 bc 6f 8c 09 bc c4 25 20 3c 0e a7 af 3c
       -0.014730759 -0.008395298 0.009774629 0.021441963
0000d0 0a 63 d2 3c 46 cc 8c 3b d9 52 94 3a 87 13 45 bc
       0.025681991 0.004296812 0.0011316194 -0.012028581
0000e0 e7 88 78 3c ca f7 7e bc 8b 3c e7 bb 43 d2 b7 bc
       0.015169359 -0.015562007 -0.007056778 -0.022439128
0000f0 be 6e d3 bc 3c dd 75 3c 1d 0f ef 3a 4f 53 af 3c
       -0.025809642 0.01500636 0.0018238757 0.02140203

emb_func.layer1.1.weight f4 [64]
000000 44 be 52 3f 8a da ca 3e b8 9c 81 3e 9d 9b 3d 3f
       0.8232157 0.39619857 0.2531488 0.7406557
000010 31 cd 30 3f bd 45 cc 3e 40 52 56 3f 51 5c 3b 3f
       0.690631 0.39896956 0.83719254 0.7318774
000020 13 0f 5f 3f b7 4a 2c 3e a8 8e 2d 3f 5c 94 80 3c
       0.87132376 0.16825376 0.677958 0.015695743
000030 7c c9 c4 bd 0b 3a dd 3e 14 83 f1 3d d6 2c 18 3f
       -0.096087426 0.43208346 0.11792579 0.59443414
000040 37 84 bd 3e 15 a6 4a 3f af 9c 14 3f df 39 0d 3f
       0.37014934 0.7915967 0.5805158 0.5516643
000050 ab 5d 90 3e 4f 87 73 3e c7 b1 82 3f 43 6d bb 3c
       0.28196463 0.23782085 1.0210503 0.022879248
000060 9b b5 d8 3e e9 44 db 3e e6 d2 66 3e 60 56 51 3f
       0.42326054 0.42826012 0.22541389 0.8177242
000070 65 1b 92 3f 8c 87 8c 3e 53 96 c9 3d 03 46 d7 3e
       1.141461 0.27447164 0.09843125 0.42045602
000080 e0 e7 4e 3f a2 3d 35 3f 6f e2 ae 3e 5c c7 f7 3e
       0.80822563 0.7079717 0.3415713 0.48394287
000090 bd bc 3b 3e 51 a3 6b 3f 3f fc a4 3e fe 38 e0 3e
       0.18333717 0.92046076 0.32223698 0.43793482
0000a0 97 d3 4d 3e 68 4a c4 3e 6a 4a 9d 3e 39 d4 8c 3e
       0.20100246 0.38338017 0.30720836 0.27505663
0000b0 5f 5e 03 3f b3 d4 74 3e 14 fa d2 3e 6e 79 5c 3f
       0.51315874 0.23909263 0.4120642 0.86122787
0000c0 48 e0 c4 3e 4f fa 5e 3d 8f 14 e9 3d a3 d4 8b 3f
       0.38452363 0.05443793 0.11380874 1.0924267
0000d0 a2 ae a3 3e d2 2b 0d 3f f8 c7 0b 3f 92 de 54 3e
       0.31969172 0.5514499 0.54602003 0.20788029
0000e0 9d 51 01 3f 45 c3 3c 3f 17 65 02 3f 7c 98 21 3f
       0.50515157 0.7373546 0.509355 0.631233
0000f0 58 f9 1f 3f 4a 5a e8 3e f8 67 a4 3e f5 25 e1 3e
       0.62489843 0.45381385 0.32110572 0.4397427

emb_func.layer1.1.bias f4 [64]
000000 10 99 17 3e ff 56 aa be 62 6c 8f 3e 31 62 fa 3d
       0.14804482 -0.33269498 0.28012377 0.1222576
000010 a7 7d 5a bf ff 07 21 be 2a 89 d6 3e 71 84 69 3e
       -0.8534798 -0.15725707 0.41901523 0.22804429
000020 b2 2e 14 3e f6 bb b2 be 14 fe b0 3e 20 df 81 bd
       0.14470938 -0.34909028 0.34568846 -0.06341386
000030 94 34 3c 3d fc 4b 79 bd d5 2a 90 3e c2 78 0c bf
       0.04594858 -0.06086348 0.28157678 -0.5487176
000040 55 59 ed 3c 73 00 e9 3d 73 c0 01 bf 6d 86 ba be
       0.02897326 0.11377039 -0.5068428 -0.36430684
000050 5d f6 ad be ca 3c b3 3d b2 66 72 bf 86 1e 99 bd
       -0.33977023 0.08751829 -0.9468795 -0.07476525
000060 62 90 91 be 2b be d4 bd 8b e8 10 bd 68 59 1e 3f
       -0.28430468 -0.10387834 -0.03537802 0.61855173
000070 66 14 36 3d bc 28 a6 3e 88 6a 2c 3d bc 59 c3 be
       0.044453047 0.32452953 0.042093784 -0.381544
000080 f5 41 89 3e 91 d3 06 3e 00 1f 35 be 99 be f2 be
       0.26808134 0.13166644 -0.17687607 -0.4741104
000090 fb a3 57 3d 4d 98 8f 3e c0 c6 d6 be f7 ac c5 3c
       0.05264662 0.28045884 -0.4194851 0.024130328
0000a0 98 75 dd 3b f9 75 cc bd eb d9 d9 3c 84 e5 ac be
       0.006758403 -0.09983439 0.02659317 -0.33768857
0000b0 7c 6a a0 3e 35 fa ba 3e 2d e1 85 be 58 36 a7 3e
       0.3133124 0.36519018 -0.26148358 0.32658648
0000c0 74 f2 0a be ff 01 6d be 5f f9 19 3e 0e 5e b1 bf
       -0.13569051 -0.23145293 0.15036534 -1.3856828
0000d0 78 d1 95 3e 2b 40 94 3e 78 ef d5 be 09 d6 8c 3e
       0.29261374 0.28955206 -0.41784263 0.27507046
0000e0 8b 5b b7 be a9 ca 60 bf 01 24 a2 bc c2 24 a9 3e
       -0.3581203 -0.87809235 -0.019792559 0.33035856
0000f0 10 f9 3c 3e 82 c6 b2 3c 95 5f aa be 6a c4 0a bf
       0.18454385 0.021823172 -0.33276048 -0.54205954

emb_func.layer1.1.running_mean f4 [64]
000000 97 96 5b 3d 86 e3 c5 be 71 94 aa be 76 40 d8 bd
       0.05361041 -0.3865015 -0.33316377 -0.1055917
000010 dc 16 1a 3c 2b 3c 3d 3e d3 25 03 bd a7 83 a2 bb
       0.009404864 0.18479984 -0.032018494 -0.004959542
000020 a1 36 2e be de 84 63 be 4f 47 e6 bb bc ac 21 3c
       -0.17013027 -0.22218654 -0.0070275436 0.009867843
000030 ea 59 09 be b4 8f 09 bd 86 41 a9 3e dc 81 a3 3e
       -0.13413206 -0.03358431 0.33057803 0.31935012
000040 da 4a 08 bf fe 56 00 bd 40 84 92 be 17 6a 08 be
       -0.53239214 -0.031332962 -0.28616524 -0.1332172
000050 d5 0e 87 bc 7b b0 30 3e 3e f8 d7 bc 8d 31 c0 3d
       -0.016486565 0.17254822 -0.026363488 0.09384451
000060 b4 84 78 be a5 7c e4 be ac bd 16 3e 48 52 8c 3d
       -0.24269372 -0.44626346 0.14720792 0.068516314
000070 37 37 1b bc 1e 1d 18 bf cb 43 64 3d cc ea 4e be
       -0.009473613 -0.5941943 0.055728715 -0.20206755
000080 ef 63 ce bd 4c 9b 71 be 48 f6 4d be 72 88 b5 be
       -0.100776546 -0.23594397 -0.2011348 -0.35455662
000090 86 f4 9c bc 8c 9e 1b bd c9 f6 de 3d 99 43 9d 3e
       -0.019159567 -0.037993 0.10886914 0.30715635
0000a0 76 69 05 be cc 88 0c be c6 24 dd be 97 dd 89 bc
       -0.13028511 -0.13724059 -0.43192118 -0.016829295
0000b0 be 35 45 3e 96 fa b9 bd b1 ac 85 be fd cc 8b bd
       0.19258782 -0.090809986 -0.26108316 -0.06826208
0000c0 b1 bb ce bd e8 ec c2 bd b8 46 19 3e a9 16 7e 3d
       -0.10094393 -0.095178425 0.14968383 0.06203333
0000d0 ff bb b7 3d 89 93 85 be 99 06 bc be 62 a7 6f 3b
       0.08971404 -0.26089123 -0.36723784 0.0036568274
0000e0 48 36 c7 be 6e d5 a8 3c e1 8e 40 be 89 69 0a 3e
       -0.389086 0.020609584 -0.18804504 0.13516821
0000f0 e8 3f 8a bd f0 49 12 bf a3 3f 06 3d 6f fe 2a bd
       -0.067504704 -0.5714407 0.032775532 -0.041746553

emb_func.layer1.1.running_var f4 [64]
000000 0f 1f 2d 40 c9 9d 67 3f 48 8d 69 3f 7f 3d b4 40
       2.7050207 0.90475136 0.91231203 5.632507
000010 57 b6 3b 3f da eb 05 3f 21 64 3c 40 7d b8 b4 3f
       0.73325104 0.52313006 2.9436114 1.4118801
000020 07 35 a8 40 c5 fd 50 3f ee 4d 09 40 6a e9 c6 3d
       5.256473 0.8163722 2.1453815 0.09712489
000030 66 9b a5 3e 9d 55 de 3e de d9 d9 3e 9c 3f bd 3f
       0.32345122 0.43424693 0.42549032 1.4785037
000040 35 1f 0e 40 0f ae ff 3f 93 d5 65 3f 0c 7f 07 40
       2.2206547 1.9974993 0.89779013 2.1171293
000050 f7 23 b9 3d 37 a2 08 3f c0 66 84 3f 88 8e b6 3e
       0.09040063 0.5337252 1.0343857 0.35655618
000060 f2 5f 0d 3f 55 af f9 3f d8 43 30 3f d8 1d 0f 41
       0.55224526 1.9506632 0.6885352 8.944786
000070 2c e6 0c 41 ad 4b ec 3f 55 76 44 3e f7 b7 17 3f
       8.806194 1.8460594 0.19185765 0.59265083
000080 7c 71 00 40 f4 0c 8d 40 31 04 2e 3f d0 8d 7c 3f
       2.0069265 4.407831 0.67975146 0.9865389
000090 ec 15 d9 3e 14 98 9d 40 7a 99 98 3e 24 71 cc 3f
       0.42399538 4.924814 0.29804593 1.5972028
0000a0 5c c6 d9 3e f1 ae 01 3f 8e 7f 96 3f 9a 44 d3 3d
       0.4253415 0.50657564 1.1757677 0.10315819
0000b0 ff 03 3f 40 4e d4 1b 3f 69 1d 57 3f b0 bc 82 40
       2.984619 0.60870826 0.8402925 4.085533
0000c0 55 64 01 3f 88 b5 59 3f 50 22 8c 3e 99 59 d1 3f
       0.5054372 0.8504262 0.27369928 1.6355468
0000d0 83 df 8b 3f 7b 33 b8 3f 44 52 92 3f 92 99 34 3f
       1.0927585 1.439071 1.1431355 0.7054683
0000e0 65 5d a0 3f 75 cd 34 3f f5 5f ad 3f 6a cd 5a 40
       1.2528502 0.70626 1.3544909 3.4187875
0000f0 c5 e6 e8 3f 62 06 54 40 aa e7 71 3e 74 5d 7d 3e
       1.8195425 3.3128896 0.23623529 0.24742681

emb_func.layer2.0.weight f4 [64, 64, 3, 3]
000000 2e e2 6c 3c 31 22 6c 3d 41 a0 6a bc b9 15 f3 bc
       0.014458222 0.057649795 -0.014320434 -0.029673444
000010 db 22 cd bc 94 da 9f bc 9a f1 07 3e dc 82 e0 3d
       -0.025041034 -0.019513406 0.13275757 0.109624594
000020 90 13 c0 3d 65 37 23 3b 16 29 c1 bb bb b2 13 bc
       0.09378731 0.0024904844 -0.0058947904 -0.009014781
000030 fb 22 c2 3c 17 18 d1 3c 0c 26 82 3c 5c 5a 40 3c
       0.02369832 0.025524182 0.015887283 0.011740293
000040 dc 73 0d 3c fd 32 28 3c 18 0c f1 bd 26 a3 d6 bd
       0.00863358 0.010266063 -0.11769885 -0.10480337
000050 76 0e b4 bd a9 0c 2d 3d c4 9a 2c 3d 86 3b d5 3c
       -0.08791821 0.0422484 0.042139784 0.02602936
000060 e0 4d 38 3d 3e de 8b 3d 9b 6c 90 3d 16 43 f0 bd
       0.044996142 0.06829499 0.07051965 -0.117315456
000070 99 b6 ce bd 8d db 8b bd 9a 3c 06 3d de e1 26 bd
       -0.100934215 -0.06828985 0.032772638 -0.040742747
000080 89 91 a5 bd c0 1f b0 bb d8 65 07 3c 8f b9 2b 3d
       -0.08084399 -0.0053748786 0.008264028 0.04192501
000090 62 ef 1b bc a4 6b 74 bb ef 5d 84 bc e1 85 41 bd
       -0.0095175225 -0.0037295604 -0.016158072 -0.047246817
0000a0 22 49 6b bd 28 57 5c bd 74 12 0e bd 94 3d 36 bd
       -0.05744279 -0.053794056 -0.034685567 -0.04449232
0000b0 68 82 ff bc cd ca 29 3a 36 be 93 bc ff 21 52 bc
       -0.031190112 0.0006477058 -0.018035036 -0.012825488
0000c0 d4 c8 d8 bc 73 a7 20 bd 7c 6d 1f bd 05 0d d0 bc
       -0.02646295 -0.039222192 -0.03892277 -0.025396833
0000d0 1b 4d 2f bd 5e 38 d1 bc 00 9d ef bd 1c 5d f3 bb
       -0.042798143 -0.025539573 -0.11699867 -0.007426871
0000e0 61 5a b5 bd 2e 0c 52 bd d5 b4 96 3c e3 05 ae bd
       -0.08855129 -0.051281147 0.018396774 -0.084972166
0000f0 0f b7 d2 bc 62 02 96 3d 36 6a 7b bd 2f c3 77 3d
       -0.025722055 0.07324673 -0.061380588 0.060488876
000100 ec 77 5d 3d b6 1c 11 3d 23 dc 7a 3d 39 c4 3f 3b
       0.054069445 0.03542777 0.061245095 0.0029261245
000110 c3 76 7b bc a0 1d 38 3d b2 3b f0 bb 67 f1 c9 bc
       -0.015348139 0.044950128 -0.007331335 -0.024651242
000120 a5 93 de 3d 7e ac 06 3e b3 99 aa 3d 70 f9 ad bc
       0.10868005 0.13151738 0.08330097 -0.021237105
000130 8a 12 1e 3d 08 5b 53 bc 93 5c 6c 3d 2e 0b e8 3d
       0.0385919 -0.0129001215 0.057705473 0.11330257
000140 14 ab de 3c 78 0b 3e bc b9 eb 78 bc 7d 4f 9d bc
       0.027181186 -0.011599414 -0.015192919 -0.019202942
000150 c0 8a 84 bc 32 28 d9 bc 08 12 a5 bc 1e 1c 85 bc
       -0.016179442 -0.026508424 -0.0201502 -0.016248759
000160 ca b9 2d bc 49 38 88 bc a7 76 8b bd c0 90 fb bd
       -0.010603378 -0.016628401 -0.068097405 -0.12283468
000170 f1 55 20 be 59 b2 57 3d 3a 2e bc 3c b9 7f b9 3b
       -0.15657784 0.05266032 0.022971261 0.0056609777
000180 9d 40 52 3e 0f 0e 13 3e 9d 9c 1b 3e d7 13 eb 3b
       0.2053246 0.14360832 0.15196462 0.007173996
000190 13 2c b6 3b 04 66 6b ba ad 4e bf bb 04 b4 76 bb
       0.0055594533 -0.000897974 -0.0058382363 -0.0037643919
0001a0 7b b1 9a bb bb b0 b4 ba 17 1f 58 3a c8 b5 b1 3a
       -0.0047208644 -0.001378558 0.0008244379 0.0013558203
0001b0 8b 28 7c bc 7c f5 5a bc 23 9a ab bc c7 b2 1f bb
       -0.015390526 -0.013364192 -0.020947522 -0.0024368034
0001c0 79 7c 89 3b 34 81 1e bb ba 49 95 39 67 cc 1c 3c
       0.0041957465 -0.0024185898 0.00028474425 0.009570218
0001d0 05 bc 58 3b a2 47 e1 bc 2f 75 59 bd be f8 55 bd
       0.0033071053 -0.027499977 -0.05309027 -0.052239172
0001e0 44 23 a2 bd 31 7f e5 bd 8d da d8 bd 28 9e 9a bd
       -0.07916883 -0.112059005 -0.1058856 -0.07549697
0001f0 a8 30 d8 bd ad 94 bc bd 52 28 6a bc 0e 7b 76 bc
       -0.105561554 -0.09208045 -0.01429184 -0.015043987
000200 1f f5 9c bc 58 54 3d bd 6b 38 31 bd 17 81 1c bd
       -0.019159852 -0.046223015 -0.043266695 -0.038209047
000210 73 2c e0 bc 81 30 ce bc bd 44 d0 bc 08 0e 98 bd
       -0.027364945 -0.025169613 -0.025423402 -0.07424551
000220 df 81 a0 bd 95 52 92 bd 36 20 ac bd a8 68 b0 bd
       -0.07837271 -0.071446575 -0.08404581 -0.086137116
000230 c3 e1 94 bd ba 8e 45 bd 3d 84 43 bd 47 ca 4d bd
       -0.07269623 -0.048231818 -0.047733534 -0.050241735
000240 f3 1a 0f bd 65 42 c6 bc 64 60 08 bd 82 70 a5 3d
       -0.03493781 -0.024201581 -0.03329505 0.080781
000250 28 e2 d1 3d 7e 2d c0 3d 6e a4 94 3d d6 88 c9 3d
       0.10248214 0.09383677 0.07257925 0.098405525
000260 4e 23 ab 3d a9 c4 3a 3d ac 5c 8b bc b0 66 86 3c
       0.08356343 0.045597706 -0.017011963 0.016406387
000270 5f d6 46 3c 8d c2 87 bd 50 46 0c 3b c2 06 08 3e
       0.012136071 -0.066289045 0.0021404214 0.13283828
000280 2a 8e ea 3c 97 83 db 3d 6c f6 d5 bc 63 62 a1 bc
       0.028632242 0.10718458 -0.02611848 -0.019700235
000290 31 ed 06 bc 9d b6 14 bb b7 22 03 3c 73 3b 79 3c
       -0.008235262 -0.0022691854 0.008003882 0.015211928
0002a0 c8 e3 4c b9 ac 63 e6 ba ce ed 63 bb d0 ad d2 bc
       -0.00019539811 -0.0017577312 -0.0034779194 -0.025717646
0002b0 31 ea 34 bd d6 b8 5d bd f2 2a 9f bd d0 55 bf bd
       -0.044168655 -0.05413135 -0.07771863 -0.09342539
0002c0 a3 21 bf bd a1 44 92 bd f1 78 b4 bd cf aa a1 bd
       -0.093325876 -0.07141996 -0.0881213 -0.07893907
0002d0 b7 0e b9 bc 9c 61 ef bc 78 ef cb bc c2 ef f4 bc
       -0.022590024 -0.029221348 -0.024894461 -0.029899482
0002e0 09 98 fc bc a4 20 dc bc fa 09 a9 bc 0a 2c e7 bc
       -0.030834215 -0.026871033 -0.02063464 -0.028219242
0002f0 e7 e4 0a bd bf 32 28 bd 78 31 34 bd 18 48 31 bd
       -0.033909705 -0.04106402 -0.04399249 -0.043281645
000300 84 0d 41 bc 56 9c 23 bd 4a 7f 71 bd 04 12 e9 bb
       -0.0117830075 -0.039944015 -0.058959283 -0.0071127433
000310 a6 66 d3 bb 13 b9 0c bc 57 54 69 bd 1c ff 24 bd
       -0.0064514456 -0.008589047 -0.0569652 -0.040282354
000320 28 2d 0b bd a9 8b 62 bd 05 06 85 bd ce 83 6e bd
       -0.03397861 -0.05530897 -0.06495289 -0.058231167
000330 e5 23 61 bd 21 36 8f bd 14 07 75 bc dd b6 86 39
       -0.054965872 -0.06992746 -0.014955301 0.00025694715
000340 94 1d e1 bb 7b 1a 81 bc 67 45 6d bb 25 54 17 bc
       -0.006869981 -0.015759697 -0.0036204697 -0.00923637
000350 55 03 40 bc 7f 90 91 bc 89 73 a6 bc c3 2c 70 bc
       -0.011719544 -0.017769096 -0.020318763 -0.0146591095
000360 c5 4b 43 bc 03 bc 20 bc 34 1f 14 bd 16 f0 9a bb
       -0.01191992 -0.0098104505 -0.03616257 -0.0047283275
000370 ec 9f c4 bc 04 b0 d8 bc f5 9f d9 bb 5a e5 d8 bc
       -0.024002038 -0.026451118 -0.006641383 -0.02647655
000380 bd 50 0e bd 77 8e 49 bd 91 76 29 bd d6 34 19 bd
       -0.034744967 -0.04920813 -0.04137284 -0.037403904
000390 1e 08 44 3d ee e3 6e 3d 39 67 55 3d 57 4e 28 3d
       0.047859304 0.05832284 0.052100394 0.041090336
0003a0 86 d7 87 3d 1f 48 50 3d f2 b1 03 bc 89 49 34 bc
       0.06632905 0.05085003 -0.008038031 -0.01100386
0003b0 f0 fe d3 bb 8f a9 e5 bc e2 9b af bc 21 18 9f bc
       -0.0064696 -0.028034953 -0.021436635 -0.019420685
0003c0 30 61 24 3c 83 15 0a 3c 81 65 71 3b bf ce 7c 3e
       0.010032937 0.00842798 0.0036834183 0.24688242
0003d0 61 03 63 3e 9f 7d 42 3e 69 ff 5a 3d 5a de 90 3d
       0.22169258 0.18993233 0.053466234 0.0707366
0003e0 8c 24 1d 3d f2 14 12 3e 48 4f ee 3d 38 e4 33 3d
       0.038364932 0.14265803 0.116362154 0.04391882
0003f0 d6 58 d7 bd 45 89 1b 3d cc f3 8c bd 18 0d 95 bd
       -0.10514991 0.037972707 -0.06882438 -0.07277888

emb_func.layer2.0.bias f4 [64]
000000 2c c7 61 b9 8a 39 79 3b ba 0a b7 bb 65 27 ef ba
       -0.0002153187 0.003802868 -0.0055859955 -0.0018245993
000010 b9 60 45 3b 66 55 ac ba 37 4d 76 3b 10 1b 03 3b
       0.0030117466 -0.0013148009 0.0037582645 0.0020005144
000020 a9 7f 83 3a f6 a4 51 ba 10 f8 b7 ba db 39 9e ba
       0.0010032553 -0.00079972984 -0.001403572 -0.0012071686
000030 6c 1c 08 ba 62 58 4d bb d0 f6 d8 ba ce ca 58 3b
       -0.00051922235 -0.0031333198 -0.0016553048 0.0033079865
000040 3e 11 85 3b af 9f 8b 3a 81 94 69 3a 76 3a a3 bb
       0.0040608933 0.0010652448 0.00089103734 -0.0049813343
000050 cc 65 9b 3a a7 f1 9e 3b b5 bd 24 bb 5b ba bd ba
       0.0011855899 0.0048505845 -0.0025137488 -0.0014475094
000060 18 de b8 3b 18 28 66 3a 47 23 95 3b cf a6 ce ba
       0.00564171 0.0008779778 0.0045513245 -0.0015766266
000070 ff a3 ab bb a8 d0 03 3a af 44 93 bb 34 12 24 bb
       -0.0052380557 0.00050283456 -0.0044942717 -0.0025035264
000080 fd 4e 04 3b 1f 1d b0 bb 05 c1 4e 3b 95 dd ae 3b
       0.0020188682 -0.0053745653 0.0031548154 0.005336473
000090 3e 79 b2 3b 01 6b a5 bb 17 bf bc bb 10 b7 18 bb
       0.005446582 -0.0050481563 -0.0057600844 -0.0023302473
0000a0 c7 31 ef 39 21 92 3a bb b7 d0 85 3b ba 91 ad 3b
       0.0004562272 -0.0028468447 0.0040837186 0.005296913
0000b0 b0 2b c9 3a d3 c4 63 ba cb 10 ae bb 87 87 66 3b
       0.0015348103 -0.0008688692 -0.0053120605 0.0035175995
0000c0 12 bd 5d ba 72 63 82 3b 20 75 11 3b 51 bd 7e 3a
       -0.00084586546 0.00397914 0.0022195056 0.00097175414
0000d0 b1 2a 8d bb ec 80 76 3b 6c fa 91 3a d6 31 95 3b
       -0.0043080677 0.0037613465 0.0011137254 0.00455306
0000e0 49 ba 8f 3b 7b 7c 48 bb b3 bc 91 bb 8d a6 b3 bb
       0.0043862206 -0.0030591774 -0.0044475435 -0.005482501
0000f0 2a 9a 00 bb b6 97 01 bb 37 4f c6 39 81 90 49 3b
       -0.001962314 -0.0019774265 0.00037824523 0.0030756297

emb_func.layer2.1.weight f4 [64]
000000 bb 81 30 3f e1 73 74 3f 59 d4 f4 3e 34 29 30 3f
       0.68947953 0.9548932 0.47818258 0.6881287
000010 bf 91 04 3f 46 24 5a 3f 4d f1 76 3f 6a 23 25 3f
       0.5178489 0.852116 0.96461946 0.6450716
000020 07 16 75 3f c6 2a 5b 3f 41 16 54 3f 58 14 63 3f
       0.95736736 0.8561214 0.82846457 0.8870292
000030 72 4b 2f 3f 5f 15 1d 3f 65 9a 46 3f 7f a4 46 3f
       0.68474495 0.61360735 0.7757934 0.7759475
000040 cc aa 52 3f 2e a5 3a 3f c7 23 5d 3f 0a ca 4c 3f
       0.82291865 0.72908294 0.86382717 0.7999579
000050 e6 b4 e8 3e 03 cc 6a 3f 22 cc 94 3f 2d 0f 81 3f
       0.45450515 0.9171755 1.1624796 1.0082756
000060 b2 e0 53 3f 98 9d 12 3f 5b d4 20 3f eb e7 4a 3f
       0.8276473 0.5727172 0.6282403 0.7926013
000070 f5 e7 35 3f 86 41 3b 3f d8 4e ab 3e 95 7e 2f 3f
       0.71057063 0.73146856 0.3345859 0.68552524
000080 86 35 86 3f 67 c4 49 3f f6 ca 3f 3f e7 ad 73 3f
       1.0485084 0.7881531 0.7491907 0.9518723
000090 bb b4 0b 3f 55 1f 45 3f d3 ac 81 3f ca 86 52 3f
       0.5457265 0.77000934 1.0130867 0.8223692
0000a0 ef 5b 85 3f 4a bd 58 3f 5f cc 0d 3f 07 2b 17 3f
       1.0418681 0.8466383 0.5538997 0.5905003
0000b0 c5 f2 4a 3f 1d 45 60 3f f8 27 3f 3f 83 7e 6b 3f
       0.79276687 0.8760546 0.7467036 0.91989917
0000c0 fb 61 73 3f d9 0d 63 3f 48 d0 52 3f b6 76 3c 3f
       0.9507138 0.88693005 0.8234906 0.7361864
0000d0 fe c9 3d 3f e2 ec 43 3f be 1e 57 3f 13 bf 22 3f
       0.7413634 0.7653333 0.84031284 0.63572806
0000e0 12 de 74 3f 81 de 42 3f fe 44 64 3f 27 4c 77 3f
       0.9565135 0.76120764 0.89167774 0.96600574
0000f0 d5 3d 21 3f 4d 71 4d 3f 3f 89 fe 3e 01 76 58 3f
       0.62984973 0.8025101 0.49714085 0.8455506

emb_func.layer2.1.bias f4 [64]
000000 fe 96 b8 be 7f e0 ed be 89 07 01 3e a8 8e 61 bf
       -0.36052698 -0.4646034 0.1260053 -0.881083
000010 aa 82 82 be b6 1f aa be d3 1f d8 be 37 8f 93 be
       -0.25490314 -0.3322732 -0.4221178 -0.28820202
000020 c6 7a ec be e1 1d 95 be 0d df ae be e4 18 b3 be
       -0.4618742 -0.29124358 -0.3415455 -0.34979928
000030 2c 05 d4 be 5d 2c 61 bd fe 72 66 be b5 12 da be
       -0.41410196 -0.05497395 -0.22504804 -0.42592397
000040 fb ac ad be 98 16 fb be ce e3 a8 be 5b 98 1c bf
       -0.33921036 -0.49040675 -0.329863 -0.61169976
000050 de 88 87 bd 87 03 f6 be 61 f7 f6 be 10 10 fc be
       -0.06617902 -0.48049566 -0.4823561 -0.49231005
000060 e3 bc fd bd 9c ff 70 be 74 bb c5 be 10 fd 79 be
       -0.12389543 -0.23535007 -0.38619578 -0.24412942
000070 13 87 a0 be 1b 53 59 be 15 da 3d 3e 4a 11 88 be
       -0.31353053 -0.21223108 0.18540223 -0.2657569
000080 50 c3 10 bf 54 fc 3e be 68 6c bf be 7a 32 02 bf
       -0.56548023 -0.18650943 -0.37387395 -0.5085827
000090 e6 d0 60 3d fb b1 14 bf 57 db fc be d2 e7 c5 bd
       0.05488672 -0.58084077 -0.49386093 -0.09663357
0000a0 3c 06 28 bf fc 29 b7 be 13 bb c1 3b 05 5e cc bd
       -0.6563451 -0.3577422 0.0059121936 -0.0997887
0000b0 e8 c0 c9 be fd 38 2a bf 28 04 ac be 60 b2 12 bf
       -0.39404988 -0.6649321 -0.3359692 -0.5730343
0000c0 4f 4d 0c bf 34 5a 0f bf 41 12 93 be 32 7f c3 be
       -0.54805464 -0.55997014 -0.28724864 -0.3818298
0000d0 44 72 a1 be cc b5 b8 be 45 9e 70 bf 2b 3a 95 3e
       -0.3153249 -0.360762 -0.939915 0.2914594
0000e0 da cf 9e be 7f d1 c6 be 75 0c 0c bf 32 c2 aa be
       -0.31017953 -0.38831708 -0.5470651 -0.33351284
0000f0 80 73 e0 bd 2c 6f 55 be b0 ea 04 bd 6e af 81 be
       -0.1095953 -0.2084319 -0.032450378 -0.25329155

emb_func.layer2.1.running_mean f4 [64]
000000 05 08 3a bf c8 65 f4 bf 9a 4d c9 bf 17 68 bd 3e
       -0.72668487 -1.9093561 -1.5726807 0.36993477
000010 8f e9 19 3f a7 ac 63 bf 4e bc 61 c0 f5 a8 43 bf
       0.6012201 -0.8893532 -3.5271182 -0.7642968
000020 df 46 4e c0 f6 82 5e c0 2c 9e 26 c0 37 b9 65 c0
       -3.2230756 -3.4767432 -2.603404 -3.5894296
000030 49 f0 82 bf cc ff 46 bf 9d f6 2c c0 b7 73 84 c0
       -1.0229579 -0.77734065 -2.702552 -4.1391253
000040 f9 55 1c c0 a4 55 30 c0 5a ec 77 c0 10 96 0d c0
       -2.4427474 -2.755227 -3.8738008 -2.212284
000050 47 30 5a be ad 65 b3 bf 16 a9 8e c0 eb 7f 77 c0
       -0.21307479 -1.4015404 -4.4581404 -3.8671825
000060 1c 7e c2 c0 75 e5 15 bf 98 aa f1 bf 3b e2 32 c0
       -6.077894 -0.5855325 -1.8880186 -2.795058
000070 9c 80 d4 bf 04 da 16 c0 bb 53 73 bf 5d 5e 1b c0
       -1.6601748 -2.3570566 -0.9504964 -2.4276345
000080 7c 95 46 c0 f3 21 45 c0 f2 ba 97 bf cf ca 00 c0
       -3.1028738 -3.080197 -1.1853926 -2.0123785
000090 e7 36 0e c0 9b 4e 14 c0 c0 d9 d8 c0 d9 55 24 c0
       -2.222101 -2.3172977 -6.776581 -2.5677397
0000a0 75 82 ff c0 d8 fa 15 c0 0b d2 87 bf 23 51 2d bf
       -7.984675 -2.3434353 -1.0610975 -0.6770193
0000b0 fd 63 2b c0 51 a8 fa bf 2a b8 49 bf de 3b 34 c0
       -2.6779778 -1.9582616 -0.7879664 -2.816154
0000c0 cd fb 63 c0 cc 01 00 c0 eb 36 10 c0 d6 e4 18 c0
       -3.5622437 -2.0001097 -2.253352 -2.388967
0000d0 0d 79 1c c0 0e fc 0e c0 a9 d2 67 bf b9 97 8c c0
       -2.4448884 -2.2341342 -0.90555817 -4.393521
0000e0 86 1f 7c c0 d7 5f 00 c0 b5 7b 6c c0 2d 09 69 c0
       -3.939424 -2.0058496 -3.6950505 -3.641185
0000f0 09 c8 0f c0 db 1b ac bf 87 7d 90 bf 6e 63 fd bf
       -2.2465842 -1.3446001 -1.1288308 -1.9795969

emb_func.layer2.1.running_var f4 [64]
000000 08 9c 56 40 32 c6 08 41 c8 a3 a2 40 5e a1 8e 40
       3.3532734 8.548388 5.082493 4.457198
000010 05 b5 66 40 5f a5 0c 41 f1 5a 09 41 8d fa 3b 40
       3.6047986 8.790374 8.5847025 2.9371674
000020 86 ea ef 40 0f b2 11 41 3c c8 15 41 8e 6b 27 41
       7.4973783 9.105971 9.361385 10.463758
000030 65 aa 61 40 a8 84 a3 40 f0 19 86 41 34 47 b5 40
       3.526025 5.1099434 16.762665 5.664942
000040 51 b0 2a 41 9b 46 58 40 48 32 33 41 d9 6f c4 40
       10.668046 3.3793094 11.199776 6.1386533
000050 a1 0b 72 40 97 b7 ce 40 c4 49 4c 41 ba b3 e4 40
       3.7819598 6.459911 12.768009 7.1469393
000060 dd 57 31 41 b1 e3 8d 40 44 69 69 40 fa 2f 2b 41
       11.083951 4.4340444 3.64705 10.699213
000070 e2 19 4a 40 c9 d0 f8 40 cd 09 58 40 3c bb b4 40
       3.1578298 7.7754865 3.3755982 5.6478558
000080 a8 58 22 41 79 a1 01 41 89 a1 10 41 1b 3a 8d 40
       10.146645 8.101922 9.039437 4.413343
000090 63 e7 b9 40 91 c1 85 40 5f 6f 48 41 3c 2f b1 40
       5.8094954 4.1798787 12.52719 5.537016
0000a0 a4 ef 68 41 c2 09 13 41 29 10 26 41 77 36 85 40
       14.558506 9.189882 10.378945 4.1628985
0000b0 e8 b7 25 41 b2 78 84 40 bb a2 b4 40 d5 a0 ab 40
       10.357399 4.1397333 5.6448646 5.363383
0000c0 38 cd 55 41 88 a5 cb 40 30 61 2f 41 3d ed 12 41
       13.362602 6.3639565 10.961227 9.1829195
0000d0 6e 8b 23 41 03 12 ea 40 ac 2c a9 40 aa 86 f3 40
       10.22154 7.3146987 5.286703 7.6101885
0000e0 ed 07 12 41 17 4e 01 41 89 5c fe 40 19 9d 00 41
       9.126935 8.081565 7.948796 8.038354
0000f0 52 45 ed 40 21 72 53 41 af 4a 1b 41 06 3f 4a 41
       7.414712 13.2153635 9.705733 12.640387

emb_func.layer3.0.weight f4 [64, 64, 3, 3]
000000 37 c5 31 bd e0 de 40 bc d8 99 ea bc ff 9c e3 3d
       -0.04340097 -0.011771888 -0.028637812 0.11113929
000010 ce 9f 69 3e eb 21 87 3e 31 cc d2 3d db 51 13 3e
       0.22814867 0.26393065 0.10292853 0.14386694
000020 1f 4c fb 3d 89 a8 0a be 16 ba 60 bd 11 79 f6 3d
       0.12270378 -0.13540854 -0.054864965 0.1203481
000030 68 7b 89 bd a5 f3 04 bd ed 50 30 be 78 1c d5 bd
       -0.06712991 -0.03245892 -0.1721837 -0.104058206
000040 88 9a 03 be af 05 36 be d5 f9 9f bd 0b a6 8c bd
       -0.12851918 -0.17775606 -0.078113236 -0.06867608
000050 4c 72 a4 bd c9 77 40 be 77 18 54 be 52 9c 6c be
       -0.08029613 -0.18795694 -0.20712458 -0.23106506
000060 fd a6 68 be b4 37 79 be 10 e3 6b be ee 49 a9 bc
       -0.22719951 -0.24337655 -0.23035836 -0.020665135
000070 f1 f9 bb bd 36 db d2 bd 90 e8 22 3d 65 65 a0 bd
       -0.09178532 -0.102957174 0.03977257 -0.078318395
000080 4d eb 88 bd a9 b1 e2 bd fb 6c c2 bd 6b 59 1e be
       -0.06685505 -0.11069042 -0.094934426 -0.15463798
000090 19 c6 bd 3c 03 8c e6 bb 25 01 a8 3d 2d 5b 99 bb
       0.02316575 -0.0070357337 0.08203343 -0.0046800585
0000a0 37 60 35 3c 84 d3 72 3c 25 19 b4 bc 80 8a 4a bd
       0.011070303 0.014820937 -0.021984646 -0.04944849
0000b0 1e 32 db bd e8 9d 1a bd 96 29 c2 3c c8 e2 04 be
       -0.107029185 -0.037748247 0.02370147 -0.12977135
0000c0 c4 8b 75 3a 3d 9a 55 bb 15 a8 07 be 1b d3 bb bd
       0.0009366835 -0.0032593154 -0.13247712 -0.091711245
0000d0 6e ef 19 bd 3e b0 89 3c 5c d3 3c be 7a 27 83 bd
       -0.037581854 0.016807672 -0.18440002 -0.06404014
0000e0 bf a9 c9 3d b6 11 ee bd 2c 3c 93 3c 88 07 b6 3d
       0.098468296 -0.11624472 0.017973028 0.08888155
0000f0 58 30 e1 bc b8 22 59 3d 62 1a 20 3d 1c 24 e7 bc
       -0.027488872 0.053011626 0.03908766 -0.02821546
000100 27 8f ea 3c 6e 6b 11 3e 07 86 4a 3c c8 81 bd 3d
       0.028632713 0.14201137 0.012361056 0.092532694
000110 0d 4c 25 3e 4c a7 39 bc 23 0a 0b be 55 3b 04 be
       0.16142292 -0.011331391 -0.13578086 -0.12913258
000120 3a a3 06 3a f1 7b 81 3c 33 6a 77 bd 22 2b 89 bb
       0.0005136017 0.01580617 -0.060404014 -0.00418605
000130 83 b2 3d 3d 99 b3 a7 bd 93 29 ee 3d 68 ee 39 3e
       0.04631282 -0.081885524 0.116290234 0.18157351
000140 a7 b7 14 bd df 34 f5 bd 23 d5 64 bd 92 80 40 bd
       -0.036307957 -0.11972975 -0.055867326 -0.046997614
000150 82 d9 a0 bd a2 e2 37 3d a3 2e b5 3d b6 b9 91 3d
       -0.07853986 0.04489387 0.08846786 0.071155
000160 b2 7d d3 3d 69 7e 77 bc d3 18 86 bd 31 3a 86 3c
       0.10326709 -0.015105822 -0.065477036 0.01638517
000170 97 85 26 3d 71 b1 f9 3a 96 0d 20 bd 22 3f f5 3d
       0.040654745 0.0019050074 -0.039075457 0.11974932
000180 1b 70 1d 3e 7b e7 12 3e f6 78 31 3e ae d4 94 bd
       0.15374796 0.14346115 0.17331299 -0.07267128
000190 28 9f 8a bd 30 e6 14 be db 1e 26 3e 07 38 96 3d
       -0.06768638 -0.14540935 0.16222708 0.07334905
0001a0 ed ab 24 3c a8 83 64 3c a4 d0 14 bd f9 7c f1 bc
       0.010050756 0.013947405 -0.036331788 -0.029478537
0001b0 0e 1b 44 bc 53 c2 5c 3d 71 74 f0 3d d0 e4 a6 3d
       -0.011969341 0.05389626 0.117409594 0.08149111
0001c0 81 7e fd 3d 32 96 c2 bb d6 27 4d 3d 1a f0 7c 3d
       0.12377644 -0.005938315 0.05008682 0.061752416
0001d0 08 51 ce bd c4 d4 36 3d 4f 7c 20 3d f5 bf 5f 3d
       -0.10074049 0.044636503 0.03918105 0.054626424
0001e0 b5 ab 52 3d 3e d1 9b bd a5 a4 78 bd 19 63 3e 3d
       0.051433284 -0.07608269 -0.060703892 0.046481226
0001f0 09 be 50 bd e3 f3 82 bd bb d1 16 bc be 20 02 be
       -0.05096248 -0.06394174 -0.009205277 -0.12707803
000200 8f 0d 18 be 91 3a d3 bd 5d 4e e6 bd 66 e4 89 bd
       -0.14848922 -0.10313905 -0.11245415 -0.06733017
000210 99 9b 12 be cd ae bc bd 02 37 9d bd 24 bb ff bc
       -0.14317168 -0.09213028 -0.076765075 -0.031217165
000220 21 0d 5c bd 8e 52 80 3c 0f f7 df bd 21 29 09 be
       -0.05372346 0.015664365 -0.109357946 -0.13394596
000230 cc 64 e2 bd 8d 47 fb bd 0f 44 76 bd 6f 87 f1 bd
       -0.11054382 -0.122695066 -0.0601235 -0.1179341
000240 a2 52 05 be 55 1a 83 3d 2b 16 96 3e 39 79 db bb
       -0.13019803 0.06401507 0.29313788 -0.0066978005
000250 98 50 6a 3d 84 ae 95 3d 06 aa 0b 3e 06 90 3e bd
       0.057205766 0.07308677 0.13639078 -0.04652407
000260 b2 3f 06 be 4c d1 bb bd ce 98 f7 bd ed 0d 47 bc
       -0.13110235 -0.091707796 -0.12089692 -0.012149316
000270 7f 79 27 bd f8 45 33 bd f8 cb 9f bc f6 c3 08 bc
       -0.040887352 -0.0437679 -0.01950644 -0.008347502
000280 92 57 51 3c 98 a9 10 bd f8 62 4d bd 6b 06 34 3d
       0.012777226 -0.035317987 -0.050143212 0.043951433
000290 0a f8 1b bd f2 24 4e 3d 3c cf cd 3d f0 1c 5a bc
       -0.038078345 0.050328203 0.100492924 -0.013312563
0002a0 c5 d7 21 3e d9 70 45 3e be 82 a7 3d 85 05 18 3e
       0.15804966 0.19281329 0.08179234 0.14845856
0002b0 7c b1 88 3d 12 62 45 3d 98 0e 0c 3d 6f 1e 33 3d
       0.066744775 0.04818923 0.034193605 0.043730196
0002c0 d6 f5 93 bd 93 72 f3 bd 55 d0 d3 bd 7f f8 ee bd
       -0.07224624 -0.11887088 -0.103424706 -0.116684906
0002d0 b1 ac c7 bd 95 82 60 bc 3f 13 ab bd 23 d7 83 3b
       -0.09749735 -0.013703008 -0.0835328 0.004023449
0002e0 94 a7 1d bc 0b 05 73 bd 15 c5 5a bd 83 26 05 be
       -0.009622473 -0.05933098 -0.05341061 -0.13002972
0002f0 b4 8b 18 be 08 2f c7 3d 1f a6 83 bc 1e cf f7 bd
       -0.14897043 0.097257674 -0.016070424 -0.12100051
000300 1b a5 d3 3b bb d4 3d bd ba b3 82 3c 2e 32 d7 bd
       0.006458891 -0.046345454 0.01595484 -0.10507618
000310 c4 9f bc bd aa e4 1e be 03 ef 98 3d 92 44 01 3e
       -0.092101604 -0.15516916 0.07467463 0.12623814
000320 7a 41 53 3d 4c 19 fa bd 4e 93 b5 bd 4d f7 ce bd
       0.051576115 -0.12211856 -0.08865987 -0.10105763
000330 19 17 3a be ba e9 b8 bd f8 1d 2a be 0d b7 51 3c
       -0.18172874 -0.09028955 -0.16612995 0.01279999
000340 4c bb 57 bd c3 b4 00 be 91 2a 10 bd 78 2a bc bc
       -0.052668855 -0.12568955 -0.035196844 -0.02296947
000350 32 83 ab bd 9f 3a 63 3c 3e 70 ee bb d9 7b ab bd
       -0.08374633 0.013868957 -0.007276564 -0.083732314
000360 fc 7d fb bd ae fd 81 bd 57 5a c8 3b d4 a1 76 bd
       -0.12279889 -0.06347214 0.006114285 -0.060212925
000370 62 b8 df bd d4 50 df 3b a7 cb 42 3e f9 3b 06 3e
       -0.1092384 0.0068150554 0.19023 0.13108815
000380 a9 43 17 3e f5 3b 3a 3d 89 77 e4 bc 00 4f b1 bc
       0.14771904 0.045467336 -0.02788903 -0.021644115
000390 4a ba c6 3c de 0b 6c bd bc 35 18 be dd 8c cd bd
       0.024258751 -0.057628505 -0.14864248 -0.10036633
0003a0 23 4a 0c be 5f 55 3e be 40 fc 1b bd 5f a3 c8 3c
       -0.13700156 -0.18587254 -0.03808236 0.024491964
0003b0 e8 2a b0 3d c6 51 b5 3c e3 a5 f8 3d f2 64 fd 3d
       0.08601934 0.02213372 0.121410154 0.123727694
0003c0 d6 12 b4 3c 7b 7f c0 3b a5 ac 47 bd 92 89 8d 3d
       0.021981638 0.005874572 -0.04874863 0.06911005
0003d0 06 b6 a5 3d 32 14 01 3b 1f ad 87 3d e5 a9 eb 3d
       0.08091359 0.0019695875 0.06624817 0.11507014
0003e0 23 83 85 3b 0f 07 4d bd 0f f6 3b bd 4c ee d7 bd
       0.0040744706 -0.05005556 -0.045888957 -0.105434984
0003f0 b3 52 84 3d eb d5 02 be 4e a8 0a be b4 e7 47 3a
       0.06461086 -0.12776916 -0.13540766 0.0007625774

emb_func.layer3.0.bias f4 [64]
000000 0f 59 fb b9 7c dd e4 b8 62 1e 93 bb 85 67 72 bb
       -0.00047940805 -0.00010913142 -0.004489706 -0.0036987972
000010 3d 1e a3 bb 0b b1 03 b9 29 18 89 bb 40 65 80 37
       -0.00497797 -0.00012559087 -0.0041837883 1.5305937e-05
000020 2e 8c 2a bb dd 91 f7 ba 76 6c ae 3b 4f 38 a2 bb
       -0.0026023495 -0.0018888075 0.005322988 -0.00495056
000030 e4 0c 1e bb 05 43 e2 39 1f 69 e3 ba 4f 04 0d 3b
       -0.002411657 0.00043156013 -0.0017350054 0.002151746
000040 a4 fd b3 3b 62 03 41 3b 93 8a 3e 3b 03 88 06 ba
       0.005492883 0.002945148 0.0029074296 -0.00051319617
000050 81 c6 86 ba 8c 93 d0 3a ea 5c 4a 3b 84 2e 73 3b
       -0.0010282547 0.0015913113 0.0030878135 0.0037106583
000060 fa 09 0e 3b 0d c5 48 3b ca 87 a9 3a 60 89 d6 b8
       0.0021673427 0.003063503 0.0012934145 -0.00010229903
000070 03 96 94 ba b6 19 92 bb c8 f5 bb bb c1 6c b6 bb
       -0.0011336211 -0.0044586314 -0.0057360865 -0.0055671637
000080 9c cf 93 3b f2 c1 be 3a 62 d4 ac 3b 3d 09 8f bb
       0.004510833 0.001455365 0.0052743414 -0.004365115
000090 11 f8 9f 3b 98 a8 b9 bb bd c4 8a ba 52 60 2a 3b
       0.0048818667 -0.00566585 -0.0010587197 0.0025997353
0000a0 a2 1b b0 bb 68 af 7c 3b 65 55 ae bb 64 97 7a 3b
       -0.005374388 0.0038556699 -0.0053202384 0.0038237209
0000b0 8b fb 9c 3b 78 2d 91 3b 7a 54 07 39 ba 96 5d 3b
       0.0047907284 0.004430469 0.00012906073 0.0033811764
0000c0 8c 04 2a 3b a2 63 97 3b 6c d3 b3 bb 1c f0 b5 bb
       0.0025942652 0.0046200315 -0.00548785 -0.005552305
0000d0 64 0b 7d bb 35 5b a8 3b 19 77 fb 3a d6 b6 f0 b9
       -0.0038611526 0.005137826 0.0019185274 -0.0004591259
0000e0 23 b4 ae ba c4 c7 76 3b 8a d8 84 3b cf 17 90 bb
       -0.0013328831 0.003765569 0.004054134 -0.0043973695
0000f0 0f 5d 67 ba d0 40 78 3b 2c 86 83 bb 92 f8 7f 3b
       -0.00088258175 0.0037880428 -0.0040137973 0.0039058072

emb_func.layer3.1.weight f4 [64]
000000 dd aa 49 3f 38 ae 35 3f 3c 38 7f 3f f8 57 86 3f
       0.7877634 0.7096896 0.9969518 1.0495596
000010 eb 58 99 3f 24 f0 82 3f 07 36 84 3f 0d df 80 3f
       1.1980261 1.0229535 1.0328988 1.006807
000020 a6 4a 81 3f 71 ec f2 3e 17 b9 54 3f e9 af 81 3f
       1.0100906 0.47446015 0.83094925 1.0131809
000030 0e a6 31 3f a5 52 6d 3f 05 09 78 3f 18 22 72 3f
       0.69394004 0.9270423 0.9688876 0.9458327
000040 7b 17 90 3f 66 c5 8b 3f 91 6d 5d 3f 07 5f 2e 3f
       1.1257166 1.0919616 0.8649531 0.6811375
000050 fd 18 95 3f 07 90 82 3f 49 e7 81 3f be bd 6c 3f
       1.1648251 1.0200204 1.0148708 0.92477024
000060 62 a1 16 3f 60 b2 87 3f e2 d8 69 3f 47 5b 80 3f
       0.5884 1.0601311 0.9134656 1.0027856
000070 83 0e 7a 3f 15 18 53 3f d1 2b 79 3f 7c 1c 7f 3f
       0.97678393 0.8245862 0.97332484 0.9965284
000080 c2 91 66 3f fe 71 25 3f df 49 4b 3f 43 ea 89 3f
       0.9006616 0.64627063 0.79409593 1.0774616
000090 cc a1 60 3f 8c c1 98 3f 90 31 3c 3f 2f d8 8d 3f
       0.8774688 1.1934066 0.73513126 1.1081599
0000a0 e2 d8 8b 3f b8 3b 4e 3f 5d 44 5b 3f 97 d7 4f 3f
       1.0925562 0.80559874 0.8565119 0.8118834
0000b0 39 6e 89 3f d1 41 7c 3f 51 05 3d 3f f0 39 89 3f
       1.0736762 0.9853793 0.7383624 1.0720806
0000c0 b0 2b 60 3f 82 6b 77 3f 46 03 93 3f 29 cd 6f 3f
       0.8756666 0.9664842 1.1485374 0.93672425
0000d0 0d a5 4f 3f 3a fc 85 3f b8 99 87 3f 42 ac 57 3f
       0.8111122 1.0467598 1.0593786 0.8424722
0000e0 7c ca 33 3f 97 d6 62 3f 8d 2e 91 3f f7 47 6d 3f
       0.7023084 0.8860869 1.1342331 0.92687935
0000f0 4a ad 65 3f 1f 34 6d 3f 44 cb 2e 3f 4d 47 2c 3f
       0.89717543 0.92657655 0.6827891 0.67296296

emb_func.layer3.1.bias f4 [64]
000000 50 4f 11 bf bc 05 86 be 98 c0 2f bf 97 9a ff be
       -0.56761646 -0.2617625 -0.6865325 -0.4992263
000010 e0 d6 4e bf eb d0 3d bf 58 ca 30 bf f9 99 4c bf
       -0.80796623 -0.7414691 -0.6905875 -0.79922444
000020 99 72 43 bf cc 8f 36 3f 09 03 23 bf 61 ae 45 bf
       -0.7634674 0.71313167 -0.63676506 -0.77219206
000030 0c 07 e9 be 9c d5 ff be f8 89 3d bf 13 f4 28 bf
       -0.4551319 -0.4996766 -0.7403865 -0.6599743
000040 fe e3 72 bf 1c a2 5e bf 47 06 4e bf 4b 8a c5 be
       -0.9487914 -0.8696611 -0.8047833 -0.38582072
000050 2b 6a 1b bf 34 c6 4a bf ec 15 54 bf b5 d7 1b bf
       -0.60708874 -0.79208684 -0.8284595 -0.6087602
000060 1c ba 95 be d9 fb 93 bf aa 9c 99 be d9 36 40 bf
       -0.29243553 -1.1561233 -0.30002338 -0.7508369
000070 cb 41 1e bf 0c 8a d1 be 1f ba 32 bf f5 3f 69 bf
       -0.6181914 -0.40925634 -0.6981525 -0.91113216
000080 e8 ae 02 bf ea c1 66 be 6b 91 e4 be 95 c2 5d bf
       -0.51048136 -0.2253491 -0.44642195 -0.86625034
000090 04 09 0c bf 2c 7b 31 bf b2 6e 90 be aa b0 30 bf
       -0.54701257 -0.6932857 -0.28209454 -0.6901957
0000a0 80 2f 40 bf 12 cd a7 be 42 e5 f7 be 8f 2a 97 be
       -0.7507248 -0.32773644 -0.48417097 -0.29524657
0000b0 94 24 0e bf 62 2f db be 86 d7 b5 be 32 3c 4f bf
       -0.55524564 -0.42809588 -0.35515994 -0.80951226
0000c0 dc ff 1c bf 55 b3 15 bf 6b 98 1a bf 95 e7 fa be
       -0.6132791 -0.58476764 -0.6038882 -0.49004808
0000d0 e9 ca 4e be f3 52 37 bf 8c 8a d8 be 47 e5 19 bf
       -0.20194592 -0.71610945 -0.42293203 -0.60115474
0000e0 77 fd c5 be 04 80 1f bf 8a 58 53 bf d7 e4 cb be
       -0.3866994 -0.6230471 -0.82556975 -0.39823028
0000f0 b9 72 2e bf 9d cc f5 be 1e 93 ad be a1 f7 c0 be
       -0.681438 -0.4800767 -0.33901304 -0.37688926

emb_func.layer3.1.running_mean f4 [64]
000000 0f ac 74 bf 3d f1 00 c0 24 d7 2c c0 64 24 29 c0
       -0.9557504 -2.014724 -2.7006311 -2.642846
000010 47 00 07 c0 12 45 ed bf 92 17 2a c0 c8 12 a0 bf
       -2.109392 -1.8536704 -2.6576886 -1.2505732
000020 89 15 78 c0 c7 48 e5 bf e3 aa b3 bf ff 45 0f c0
       -3.8763144 -1.7912835 -1.4036525 -2.2386472
000030 9f 4e 90 bf 24 d6 1f c0 1b 9d 32 c0 11 9f 90 bf
       -1.1273993 -2.497445 -2.790839 -1.1298543
000040 3b 54 6e c0 f0 b5 03 c0 3c 76 c1 bf 9a 98 27 bf
       -3.723891 -2.0579796 -1.5114207 -0.65467227
000050 e3 1e 2e c0 80 a8 21 c0 37 de 05 c0 ee 03 7a c0
       -2.7206352 -2.5259094 -2.091688 -3.9064898
000060 6b 79 7c 3f c1 de 4d c0 62 99 5a c0 03 ee e3 bf
       0.9862277 -3.2167208 -3.4156117 -1.780701
000070 59 77 3d c0 c0 f4 c8 bf b3 85 02 c0 eb 01 13 c0
       -2.9604094 -1.5699692 -2.0394104 -2.296992
000080 48 41 52 c0 56 49 1c c0 00 89 58 bf 32 6c 37 c0
       -3.2852345 -2.441976 -0.84584045 -2.8659787
000090 12 c7 13 c0 6b b7 42 c0 b4 0c e5 bf be 26 1c c0
       -2.3090253 -3.042445 -1.7894502 -2.4398646
0000a0 25 69 34 c0 7a 58 50 c0 4b 24 57 c0 91 3b fb bf
       -2.8189175 -3.2554002 -3.3615901 -1.9627553
0000b0 4b b3 14 c0 a8 07 36 c0 ca 61 12 bf 9a 49 66 c0
       -2.3234432 -2.8442173 -0.57180464 -3.5982423
0000c0 ce 18 9c be d8 30 b5 bf e2 d3 25 c0 ff b8 a4 bf
       -0.30487674 -1.4155531 -2.5910573 -1.2868956
0000d0 10 94 4c c0 b3 d2 36 c0 93 b0 54 c0 d2 da ee bf
       -3.196537 -2.85661 -3.3232772 -1.8660529
0000e0 22 09 ba bf 05 02 51 c0 24 e4 2c c0 57 7f bb bf
       -1.4534037 -3.2657483 -2.7014246 -1.4648236
0000f0 f5 1f 00 c0 9f f3 28 c0 1c 2c 0f c0 71 22 21 bf
       -2.0019505 -2.6398695 -2.2370672 -0.6294318

emb_func.layer3.1.running_var f4 [64]
000000 e6 10 50 40 76 08 78 40 59 47 8f 40 af 69 ed 40
       3.2510314 3.8755164 4.4774594 7.419151
000010 5e c0 d0 40 d8 a6 5d 40 43 69 a5 40 87 25 91 40
       6.5234823 3.4633083 5.1690993 4.535831
000020 59 11 a3 40 a0 59 72 40 58 cb 9e 40 e9 3f 63 40
       5.0958676 3.7867203 4.962322 3.5507758
000030 7d 14 19 40 f5 b0 8f 40 87 35 8c 40 94 c4 5e 40
       2.3918755 4.490351 4.381534 3.4807482
000040 52 f1 8f 40 73 e2 70 40 b4 25 4b 40 6d fb 26 40
       4.498208 3.7638214 3.1741762 2.6090958
000050 1a a2 e7 40 fa 25 86 40 7e d1 90 40 67 00 9e 40
       7.238538 4.192136 4.525573 4.937549
000060 39 fd 11 40 c7 3e 84 40 91 bf 9b 40 f0 e0 8a 40
       2.2810805 4.1326632 4.8671346 4.339958
000070 6a 55 99 40 ba 57 69 40 0c 95 75 40 7a e5 c5 40
       4.7916765 3.6459794 3.837222 6.1842623
000080 ab 01 38 40 f6 8a 4e 40 d6 ba 43 40 bb 58 b1 40
       2.8751018 3.2272315 3.0582786 5.5420814
000090 84 ee a9 40 8b 1b 03 41 90 c5 8e 40 de b4 dd 40
       5.3103657 8.194224 4.4616165 6.9283285
0000a0 5d 56 e2 40 3e ee 5c 40 1a b7 81 40 33 e5 bd 40
       7.0730424 3.4520411 4.0536013 5.9342284
0000b0 aa 90 ab 40 3b 63 b3 40 ce 84 78 40 0a fd bd 40
       5.361409 5.605863 3.8831058 5.9371386
0000c0 96 8b 7a 40 67 1a 99 40 c0 7e d9 40 40 71 af 40
       3.9147696 4.784473 6.7967224 5.4825745
0000d0 c7 16 5c 40 73 1b ec 40 f3 44 c3 40 5b 9b 6e 40
       3.4388902 7.3783507 6.1021667 3.7282321
0000e0 15 3b 64 40 c4 a1 91 40 a0 96 71 40 b2 80 99 40
       3.566106 4.550997 3.7748184 4.79696
0000f0 1a ca 43 40 b0 1b 97 40 1a 0d 5f 40 11 d9 50 40
       3.0592103 4.72213 3.4851747 3.2632487
