results/RENet-dataset-Conv64F-5-5-Jan-08-2024-20-55-23/checkpoints/model_00090.pth (torch, 909453 bytes, 69 tensors)

emb_func.layer1.0.weight f4 [64, 3, 3, 3]
000000 7d 57 e1 3e 0d dd 2a 3e a8 0a 71 be 33 d5 4f bf
       0.4401206 0.16685887 -0.23539221 -0.8118469
000010 00 eb 48 bf c5 3e 87 be e8 75 8f 3e ed ba 29 3f
       -0.7848358 -0.26415077 0.28019643 0.6630085
000020 73 79 4c 3f fd fe 1b 3f 77 5c ff 3d ef 6c 91 be
       0.79872817 0.60935956 0.12468808 -0.28403422
000030 76 95 9e bf 9a 06 9f bf 14 db 13 bf 7b ce 06 3e
       -1.2389362 -1.242389 -0.5775616 0.13164704
000040 1d 21 35 3f c9 7e 54 3f 0d 4e 4b 3f c2 ca 8d 3e
       0.7075365 0.8300596 0.7941597 0.27693754
000050 2e 5c 13 be d9 55 47 bf 75 29 61 bf 80 5d 9e be
       -0.14390633 -0.7786537 -0.87953883 -0.3093071
000060 4d 88 4c 3e 59 d3 3c 3f 6c 81 51 3f 46 14 36 be
       0.1997387 0.7375999 0.8183811 -0.17781171
000070 d1 0b 28 be de 00 38 be 68 a8 55 be d1 82 00 be
       -0.16410758 -0.17969081 -0.20865023 -0.12549902
000080 00 f4 54 be dc c1 a8 bd 0d ad 80 bd 1a ab b1 bd
       -0.20796204 -0.08240101 -0.06283007 -0.08675213
000090 b2 73 3b bd c0 d8 ce 3b 5f 4f 12 bd da 14 0f bd
       -0.045764633 0.0063124597 -0.035720225 -0.034931995
0000a0 e1 6c 86 3c 42 b3 3a bd 3b 3d 35 3d 86 b9 78 3d
       0.01640934 -0.04558111 0.044247847 0.060723804
0000b0 64 45 3b 3d 83 97 26 3d 47 f9 a9 3d ed a6 3a 3d
       0.045720473 0.040671837 0.08299499 0.04556935
0000c0 8b cb 0a 3d 4e 6e db 3d 40 06 96 3d 25 30 03 3e
       0.03388552 0.10714398 0.07325411 0.12811334
0000d0 57 45 26 3e fe ea 04 3e 38 6c a4 3d fa 0e 48 bd
       0.16237389 0.12980267 0.080284536 -0.048842408
0000e0 e8 f3 a2 3c 6f 9c 5d be 45 3c a8 be cc e1 b2 be
       0.019891694 -0.21641706 -0.32858482 -0.34937894
0000f0 f3 64 40 be ff 26 3e be 24 1e 49 be 1c f9 c9 3e
       -0.18788509 -0.18569563 -0.19640404 0.39447868
000100 5d 72 a2 3e 8e 2c ca 3e 87 36 47 3e 35 24 fd 3d
       0.31727877 0.39487118 0.19454394 0.123604216
000110 23 39 f5 3d 56 61 22 bd b9 81 82 bd 0c ba 47 bd
       0.119737886 -0.039643608 -0.06372399 -0.048761413
000120 4c f6 2d 3e e4 e6 f2 3d 22 3e 53 3e ac 85 9f 3d
       0.16988486 0.11860445 0.2062917 0.07789168
000130 c4 a7 57 3c f7 a9 1b bd ef ff 47 be 8a 32 41 be
       0.013162557 -0.038003888 -0.19531225 -0.18866935
000140 9b a3 4b be 04 c1 2a 3f e5 92 1d 3f 5a 1c 2a 3f
       -0.1988663 0.6670077 0.6155227 0.6644951
000150 7e 98 50 bd 9a 69 5b be 6f 10 ae be d5 ed 82 be
       -0.050926678 -0.21427003 -0.33996913 -0.25572076
000160 59 a4 1e bf 1e 6a 43 bf b7 ea 24 3f 2f 79 1d 3f
       -0.61969525 -0.76333797 0.64420646 0.61513036
000170 f9 f6 4b 3f fd b9 0f 3d f5 84 f4 bd 69 f9 3e be
       0.79673725 0.03508948 -0.11939422 -0.1864983
000180 a5 70 3d be 6e 7e 1f bf e4 e9 3a bf 91 ba a6 3e
       -0.18500002 -0.6230229 -0.7301314 0.32564214
000190 e8 da b9 3e 59 c0 08 3f 18 9f 00 bc 18 d6 b4 bd
       0.36299825 0.534185 -0.007850431 -0.08829898
0001a0 67 63 2c be 2e 7f 38 bd 41 b7 ef be 23 30 0a bf
       -0.16834794 -0.045043163 -0.468195 -0.539797
0001b0 40 79 a1 3e 2e 4a 9a 3e 57 61 80 3e 5c 85 d0 3d
       0.3153782 0.3013472 0.25074264 0.10181686
0001c0 57 a7 8f bd fa 7c fe 3c 06 3a 11 be 3b 53 f1 be
       -0.070143394 0.031065453 -0.1418229 -0.47133812
0001d0 e4 5f 99 be 71 58 27 3e 56 4b 30 3e 84 c1 3f 3e
       -0.2995597 0.16342331 0.17216238 0.18726164
0001e0 6a fb d3 3c 3a b7 bd bd 5a 94 4a bc 99 31 9c 3c
       0.02587672 -0.09263463 -0.012364471 0.019066619
0001f0 7d e8 72 be d0 2a 6c bd b7 11 d6 3d c9 fb e4 3d
       -0.237215 -0.057658017 0.104525976 0.11180837
000200 89 ad 19 3e 5f 44 69 bd 92 a9 fb bd 4e d5 59 bc
       0.15007605 -0.05694997 -0.12288202 -0.013295485
000210 29 5b d4 bd 1b 41 8f be 23 f3 bf bd 42 f4 c9 3c
       -0.1036895 -0.2797936 -0.093725465 0.024652604
000220 68 e0 08 3d d8 55 b2 3c ec 7a a7 3d a3 b1 11 3e
       0.033417135 0.02176945 0.08177742 0.1422792
000230 e7 86 29 3e 7b 88 0c 3e 8d f7 1b 3e 52 68 ea 3d
       0.16555367 0.13723938 0.15231152 0.11445679
000240 63 e1 62 be cf f0 69 be b3 2b 60 be 91 0f ad be
       -0.2215629 -0.22845767 -0.2189167 -0.3380094
000250 47 a9 ad be df ac ae be 39 cb ad be aa 87 bb be
       -0.3391821 -0.34116265 -0.3394411 -0.3662694
000260 fb b1 b7 be 1e ea b2 3e 91 f0 ac 3e e7 91 8b 3e
       -0.35877976 0.34944242 0.33777288 0.27259752
000270 d9 2d 53 3e 46 bb 3d 3e f4 af 51 3e 8a db 1d 3e
       0.20622958 0.1852847 0.20477277 0.15415779
000280 55 08 04 3e 95 bd f1 3d 65 11 3b bf 28 66 2f be
       0.12893803 0.11803738 -0.73073417 -0.17128813
000290 f3 4b dd 3e 0a c4 17 bf f6 1b 3b 3e 04 94 af 3e
       0.43222007 -0.59283507 0.18272385 0.34292614
0002a0 e9 f8 0f be 9b ef 14 3e 91 1c 55 3e 67 7b 12 bf
       -0.14059795 0.14544527 0.20811678 -0.5721955
0002b0 6d 94 b7 3d 00 59 2b 3f 66 db 1f bf 2e 7a c1 3e
       0.08963857 0.6693268 -0.6244415 0.37788528
0002c0 7b 54 03 3f cb fa 8b be 5c 2b e7 3d 67 56 0d 3e
       0.5130078 -0.27339777 0.11287567 0.13802491
0002d0 b8 06 e1 be ee d5 14 3d a5 a5 07 3f dc 12 11 bf
       -0.43950438 0.03633683 0.5298713 -0.566694
0002e0 d6 83 79 3e 09 e8 b0 3e 9d 49 a1 be 8d 31 7b bd
       0.24366698 0.3455203 -0.31501475 -0.061326552
0002f0 6d 51 8c bc 73 16 4f 3f ee 00 88 3f e2 55 89 3f
       -0.01712867 0.8089363 1.0625284 1.0729334
000300 52 ca 0e bf 25 00 4b bf fb 1e ec be 16 94 af be
       -0.55777466 -0.79297096 -0.46117386 -0.34292668
000310 65 10 8b be 9e 10 ff be 58 49 fb 3d 08 3d cb 3e
       -0.27160946 -0.49817365 0.122698486 0.39695
000320 f1 96 e0 3e 39 74 04 bf 31 d7 65 bf c6 5f 0b bf
       0.4386516 -0.5173984 -0.8978148 -0.54443014
000330 1f 1a 9c 3e e2 f8 e5 3e fa c2 3c 3c 74 44 4f be
       0.3048868 0.44916445 0.011521095 -0.20240957
000340 9b 63 e4 3c 3e eb 80 3d 90 e7 95 be ac 11 1c bf
       0.027879527 0.06294869 -0.2927823 -0.60964465
000350 b6 ad a2 be fe bf 0b 3f 10 18 31 3f 58 96 92 3e
       -0.31773156 0.5458983 0.6917734 0.28630328
000360 1c 33 63 bf 79 f5 5b bf ce bc 9b be 3a 2d f3 be
       -0.8874986 -0.85921437 -0.30417484 -0.47495443
000370 1e 1d 99 3e dd 52 44 3f c7 1e 67 3e dc 9c ac 3e
       0.29905027 0.7668894 0.22570334 0.33713424
000380 7e 90 87 3e 6f 2a 35 bf b9 98 64 bf 30 d5 a9 be
       0.26477426 -0.70767874 -0.89295536 -0.33170462
000390 dd e0 62 be b4 d8 17 3f 91 f7 7e 3f ae 08 d6 3e
       -0.22156091 0.5931504 0.99596506 0.41803497
0003a0 6c 42 01 3f f7 eb c9 3e 94 1d e4 be 7a 59 39 bf
       0.50491977 0.3943784 -0.44553816 -0.72402155
0003b0 7a 61 99 be 01 46 88 be b0 15 c8 3e 4e ce 32 3f
       -0.2995718 -0.2661591 0.39079046 0.69846046
0003c0 80 fc 50 3d a4 30 07 3e fc f4 6a bd 3a 67 48 bd
       0.051022053 0.13202149 -0.05736254 -0.04892657
0003d0 21 d9 61 bd a2 6e fb bd e7 a2 13 bd 1e af bf bd
       -0.05513871 -0.12276961 -0.036044028 -0.09359573
0003e0 87 53 53 bd c3 91 2a bd 0c ce 82 bd 87 44 13 bd
       -0.05159333 -0.041642915 -0.063869566 -0.035954025
0003f0 20 12 4e bd 69 0b b8 bd 41 dd ef bd db 69 84 bd
       -0.050310254 -0.08986551 -0.11712123 -0.06465503

emb_func.layer1.0.bias f4 [64]
000000 c4 49 01 3c c2 22 a8 bc bf 64 83 3b dc 57 ac 3c
       0.007891122 -0.020524386 0.0040098126 0.021037988
000010 d0 0f 8d 3c fb 26 b3 3c 81 7d 62 3c 64 6f 0a bb
       0.017219454 0.021869173 0.013823868 -0.0021123523
000020 64 7c da 3b f2 d4 2e bc 10 93 b1 3c 2e 7f 51 3c
       0.0066676605 -0.010670887 0.02167657 0.01278667
000030 3d 1e 99 bc 41 e3 b4 3c 72 b4 c6 b9 71 c7 94 ba
       -0.018691177 0.02208102 -0.00037899945 -0.0011350942
000040 ae 05 e5 bb 6e c8 dc bb 44 87 a7 3a da 42 4c bc
       -0.0069892025 -0.0067377603 0.0012781401 -0.0124671105
000050 0a 9a c2 bc 0b 86 57 bc 79 85 a6 bb 48 fa 9d 3c
       -0.023755092 -0.013154517 -0.005081829 0.019284382
000060 c9 e6 99 3c 44 b0 7a bc 4f 89 80 ba 8e 7f f1 bb
       0.018786805 -0.015300814 -0.0009806546 -0.007369942
000070 31 d5 5f bc 7f 25 93 bb de 2c 11 bc 62 dd 69 3c
       -0.013661669 -0.004490554 -0.008860795 0.014273973
000080 42 80 4f bc 20 c0 80 3b 73 1c 6c bc 17 96 02 bc
       -0.012664856 0.003929153 -0.01441108 -0.0079703545
000090 34 b0 a4 3c 17 69 4d bc 76 45 c9 ba 7c cc c7 3c
       0.020103551 -0.012537262 -0.0015355784 0.024389498
0000a0 5d 34 0f 3c 90 f7 54 bc 55 35 7b bc 37 b9 12 bc
       0.008740512 -0.012998477 -0.01533254 -0.0089552915
0000b0 2d 06 03 bc 36 2b 36 3c cd 0a ba bb bd 6f b0 3c
       -0.007997078 0.011118701 -0.005677557 0.021537656
0000c0 3e 92 65 bc 2e d6 02 bc 49 55 18 3c c8 14 a7 3c
       -0.014011918 -0.007985635 0.009297677 0.020395651
0000d0 c8 1e c8 3c 60 ed 85 3b 16 16 8d 3a c3 75 3b bc
       0.02442874 0.004087135 0.0010764028 -0.011441651
0000e0 14 68 6c 3c a3 86 72 bc 0a f4 db bb d1 d9 ae bc
       0.014429111 -0.014802608 -0.0067124413 -0.021344097
0000f0 da 1d c9 bc a4 dd 69 3c bf 64 e3 3a ec c4 a6 3c
       -0.024550367 0.014274035 0.001734875 0.020357572

emb_func.layer1.1.weight f4 [64]
000000 34 9d 53 3f 48 57 c8 3e f3 0b 82 3e 8d 06 36 3f
       0.8266175 0.3912909 0.25399742 0.71103746
000010 92 06 2f 3f 8e 30 df 3e 0f 25 4c 3f 6d 2d 3c 3f
       0.683694 0.43591732 0.79744047 0.73506814
000020 fd 20 53 3f c8 a6 26 3e e7 36 1a 3f b2 34 74 3c
       0.8247221 0.1627456 0.60240024 0.014905142
000030 fa 53 9e bd e9 a0 cd 3e 3c 36 03 3e 28 87 17 3f
       -0.07730861 0.40161827 0.12813658 0.5919061
000040 90 bb c7 3e b6 8b 3e 3f 3c 11 13 3f 4e c3 05 3f
       0.39010286 0.7443193 0.5744817 0.52251136
000050 64 02 94 3e 35 76 5a 3e f5 35 81 3f 1a 81 b2 3c
       0.28908074 0.21334155 1.0094591 0.021790076
000060 2a 22 cc 3e cf 14 de 3e b6 0c 65 3e 3a 18 4c 3f
       0.39869815 0.4337525 0.2236813 0.79724467
000070 7c dc 86 3f 13 34 9c 3e 6d 99 94 3d 73 81 d8 3e
       1.0536036 0.3050848 0.07255826 0.42286262
000080 21 46 47 3f 95 81 29 3f 85 bb 9b 3e ef 13 e1 3e
       0.77841383 0.6621335 0.30416504 0.4396052
000090 c0 3e 2b 3e a5 d7 58 3f 69 0f ae 3e 59 be d9 3e
       0.16723156 0.8470405 0.33996132 0.42528036
0000a0 90 22 3f 3e ad 66 d2 3e c3 0c 93 3e 3d a5 95 3e
       0.18665528 0.4109396 0.28720674 0.2922763
0000b0 9a 46 ee 3e b5 ae 66 3e 12 21 c9 3e 92 01 4e 3f
       0.4653824 0.22527583 0.39283043 0.80471146
0000c0 b0 35 b9 3e eb 9b 4c 3d 16 82 ed 3d df fd 8d 3f
       0.36173773 0.049953382 0.115970775 1.10931
0000d0 fc 02 99 3e 5d 4b 08 3f b1 5d 02 3f 9a b3 58 3e
       0.2988509 0.53239995 0.5092421 0.21162263
0000e0 64 98 03 3f 97 90 31 3f d1 03 fa 3e d5 a3 0b 3f
       0.51404405 0.6936125 0.48831037 0.5454686
0000f0 29 06 1a 3f 13 91 e7 3e 43 a9 a4 3e 0a b3 ea 3e
       0.6016565 0.4522787 0.32160386 0.4583972

emb_func.layer1.1.bias f4 [64]
000000 54 c0 e6 3d ab c4 9f be 2e 0c 87 3e db c1 c2 3d
       0.112671524 -0.31204733 0.2637648 0.09509631
000010 46 b5 4f bf 39 24 c7 bd 3a 4b bb 3e 76 38 36 3e
       -0.81135976 -0.09723706 0.3658083 0.17794976
000020 cc 5e 0c 3e 3e 63 a9 be 73 19 a2 3e 92 17 77 bd
       0.13708037 -0.33083528 0.3166004 -0.060325213
000030 95 00 2a 3d 2c d2 ab bd 83 c4 94 3e 6d 5a 0c bf
       0.04150446 -0.083896965 0.29056177 -0.5482548
000040 b0 6b 30 3c 26 e5 7e 3d f5 db ff be a0 03 b7 be
       0.010767862 0.06223025 -0.499725 -0.35744953
000050 3b 2d ab be 27 8e 94 3d 73 ec 69 bf 96 a1 91 bd
       -0.33432946 0.07253676 -0.9137642 -0.07110898
000060 33 57 90 be 0d 7f be bd 27 12 2e bb c3 53 15 3f
       -0.28191528 -0.09301577 -0.0026561113 0.58330935
000070 b2 b3 c0 3c 65 74 96 3e 19 81 41 3d c5 49 bd be
       0.023523185 0.29385677 0.047242258 -0.36970344
000080 7e 83 85 3e 13 f9 e2 3d 45 25 48 be 57 b6 f7 be
       0.26076883 0.110826634 -0.19545467 -0.48381302
000090 8e c4 57 3d fe 43 7a 3e 6f 6d c7 be 2c 48 4c 3d
       0.052677684 0.2444 -0.3895068 0.049873516
0000a0 0d 29 12 3c f1 2d a0 bd d2 cc 2a 3c 06 75 a4 be
       0.00892092 -0.07821263 0.0104248095 -0.32120532
0000b0 5f fe a2 3e ca 73 ae 3e a7 ab 76 be 6a 58 9e 3e
       0.31834695 0.34072715 -0.24088918 0.3092683
0000c0 18 50 12 be 32 d6 61 be 0a b3 17 3e d6 82 a6 bf
       -0.14288366 -0.22054365 0.14814392 -1.3008678
0000d0 d2 6d 9c 3e 1b 22 70 3e 4b 08 db be f5 40 87 3e
       0.30552536 0.2345051 -0.42779765 0.26416746
0000e0 1d 35 9f be 38 ad 5c bf bb 6f 94 bc 2d 4e ac 3e
       -0.3109521 -0.8620181 -0.018119683 0.33653393
0000f0 f4 98 26 3e bf a6 33 3d f9 5e a7 be f2 ab 03 bf
       0.16269284 0.043860193 -0.32689646 -0.5143424

emb_func.layer1.1.running_mean f4 [64]
000000 2f 70 99 3d b7 be b1 be f2 34 9e be 7a 35 80 bd
       0.074921004 -0.34715816 -0.3089977 -0.062602
000010 dd c9 b9 3b 58 7d 5b 3e 7a 22 85 bd 51 b5 ed 3a
       0.005669816 0.21434534 -0.065007165 0.0018135702
000020 8f 79 25 be 31 52 54 be 60 82 1d bd 87 eb 16 3c
       -0.16159652 -0.20734479 -0.038454413 0.0092114275
000030 1f 8c f7 bd 63 22 d4 bc 51 bd a0 3e 7c 72 97 3e
       -0.12087273 -0.025895303 0.31394437 0.29579532
000040 ad aa 02 bf a1 52 c8 3b 13 95 88 be 09 4c a1 bd
       -0.5104168 0.0061133658 -0.26676235 -0.07875831
000050 71 9d 9a bc bf fa 29 3e 4d f8 ac bc 2a 74 b4 3d
       -0.018873902 0.16599558 -0.021114493 0.08811219
000060 f9 ee 5a be f4 86 e4 be 89 c4 e3 3d c4 53 c1 3d
       -0.21380223 -0.4463421 0.111214705 0.09439805
000070 77 6f ea 3c da f5 0e bf f3 8b 47 3d 3b 23 61 be
       0.028617604 -0.5584389 0.04871745 -0.21986096
000080 03 79 06 be 25 4f 36 be 94 b6 3c be 7f a7 ab be
       -0.131321 -0.17803629 -0.18429023 -0.33526227
000090 b6 44 5c bc 07 38 1e bd 6a 7c 9c 3d 49 16 81 3e
       -0.013444116 -0.03862765 0.076409176 0.25212315
0000a0 11 7f db bd 6d 95 c9 bd 8c 0e cb be bc 54 ce bc
       -0.10717595 -0.09842954 -0.39659536 -0.025186889
0000b0 3f aa 3b 3e c1 be a3 bd 32 88 8e be 81 49 9e bd
       0.18326662 -0.07995368 -0.27838284 -0.077288635
0000c0 9e 4d 9a bd 23 c7 b6 bd af 7e 0a 3e 1f 8a 97 3c
       -0.075343356 -0.08924701 0.13524888 0.018498478
0000d0 2b 8e e9 3d e9 f2 7b be 62 d0 ab be 97 5e 89 bc
       0.114040695 -0.24604382 -0.3355742 -0.016768737
0000e0 18 75 b5 be 3d 8c 05 3d a3 e6 44 be 7d 5d 49 3d
       -0.35440898 0.032604445 -0.19228606 0.049161423
0000f0 ce 09 aa bd 40 98 11 bf 6c d9 3c 3d 5a 53 cc bb
       -0.08302651 -0.5687294 0.046105787 -0.006235522

emb_func.layer1.1.running_var f4 [64]
000000 6f 95 25 40 6a f8 32 3f 38 51 59 3f 7c d2 a9 40
       2.5872457 0.699103 0.84889555 5.306944
000010 0d 69 34 3f d2 55 a5 3e 93 a4 31 40 00 04 b2 3f
       0.70472795 0.32292038 2.7756698 1.3907471
000020 fd ea 9c 40 77 bf 3a 3f 38 c3 01 40 74 f8 b1 3d
       4.903685 0.729484 2.0275402 0.08689967
000030 ca 7b 81 3e 38 a2 c6 3e e0 28 cd 3e d7 ea b3 3f
       0.25289756 0.38795638 0.40070248 1.4056042
000040 00 e1 fc 3f 2c 31 ed 3f 8e 7d 4d 3f f8 b8 b2 3f
       1.9756165 1.8530631 0.80269706 1.3962698
000050 cf f5 82 3d 51 58 06 3f df 46 7c 3f b0 b9 a4 3e
       0.063945405 0.5247851 0.9854564 0.32172918
000060 1f b3 bd 3e 55 1b dc 3f 74 6a fb 3e e8 2c 08 41
       0.3705072 1.7195841 0.49104655 8.510963
000070 cb ae 04 41 67 8a d2 3f f3 24 2a 3e bf 72 00 3f
       8.292674 1.6448487 0.16615658 0.5017509
000080 8d 81 ee 3f 07 b5 83 40 cc ac 15 3f ab a6 60 3f
       1.8633286 4.115848 0.5846679 0.87754315
000090 93 f2 b9 3e 83 5e 96 40 da 95 bc 3e 63 4b c0 3f
       0.36317882 4.699037 0.36833078 1.5023006
0000a0 99 3d 9b 3e d3 08 97 3e 59 3d 70 3f 30 56 87 3d
       0.30320433 0.2949892 0.9384361 0.06608236
0000b0 fd 96 35 40 34 90 17 3f 2f 33 3e 3f 16 63 78 40
       2.8373406 0.5920441 0.7429685 3.8810477
0000c0 c3 03 94 3e 7a 64 41 3f b8 c7 6b 3e 3c 22 c6 3f
       0.2890912 0.7554394 0.23025405 1.5479198
0000d0 89 31 84 3f 56 b0 a7 3f 40 79 80 3f a9 09 1c 3f
       1.0327617 1.3100688 1.0037003 0.6095224
0000e0 25 b9 85 3f 80 7b 2d 3f 22 16 aa 3f 11 b0 4d 40
       1.0447127 0.6776657 1.3288004 3.2138712
0000f0 8c ae d7 3f a3 ed 3b 40 3a 25 83 3e 46 d3 6c 3e
       1.6850142 2.9363792 0.2561434 0.2312747

emb_func.layer2.0.weight f4 [64, 64, 3, 3]
000000 ef 41 25 3b 39 b0 41 3d c4 f0 72 bc 45 69 9e bc
       0.0025216301 0.0472872 -0.014827911 -0.019337306
000010 fd 82 a0 bc f0 a8 ab bc 92 60 ee 3d 72 6f eb 3d
       -0.01959371 -0.02095458 0.11639513 0.11495866
000020 ac 2d cd 3d 8c ed 62 bb a5 02 48 bc a8 08 7b bc
       0.10018477 -0.0034626452 -0.012207662 -0.015321888
000030 07 a0 98 3c b1 19 94 3c a3 6c 1b 3c 74 33 01 3c
       0.018630994 0.018078657 0.00948635 0.007885803
000040 b3 0f 81 3b 2a 92 b1 3b e1 6b f0 bd 71 5c d9 bd
       0.003938639 0.0054190354 -0.11739326 -0.10613335
000050 cc 56 b7 bd 53 2c 0f 3d 7a ba 07 3d 8d 7b 9a 3c
       -0.08952102 0.03495438 0.033136822 0.018857742
000060 bd 35 24 3d 02 26 81 3d a2 62 89 3d b8 a0 eb bd
       0.04009031 0.063060775 0.06708266 -0.11505264
000070 85 e1 c8 bd 88 ae 7d bd a8 f1 f7 3c 91 8a 36 bd
       -0.098086394 -0.061934024 0.030266598 -0.04456574
000080 88 22 97 bd 1a 53 07 bc 43 71 f9 3b 96 8f 61 3d
       -0.07379633 -0.008259559 0.007612379 0.055068575
000090 2a 11 35 bc 2b 2c d7 bb 35 b3 8d bc 60 af 3b bd
       -0.0110514555 -0.0065665445 -0.017297367 -0.045821548
0000a0 b0 aa 6d bd 96 3b 58 bd c7 f9 17 bd 39 cb 37 bd
       -0.05802411 -0.0527912 -0.03710344 -0.044871543
0000b0 5b e5 ea bc 7e 7a c2 bb e6 a8 be bc 2e 31 7b bc
       -0.028673818 -0.0059350124 -0.023273896 -0.01533155
0000c0 d0 c5 fb bc 9a f2 2a bd 9f a5 22 bd 59 38 f1 bc
       -0.030733973 -0.04173527 -0.03970873 -0.029445814
0000d0 75 eb 39 bd 77 58 dc bc e0 4d e9 bd fc 95 58 ba
       -0.045390565 -0.026897652 -0.113918066 -0.00082620955
0000e0 78 d6 a9 bd c5 f7 40 bd 1b 52 c1 3c 6d eb ac bd
       -0.0829286 -0.04711129 0.023598721 -0.084433414
0000f0 eb 83 a7 bc 28 9e 9e 3d e9 ad 90 bd 5a 71 42 3d
       -0.020448646 0.0774501 -0.07064421 0.04747138
000100 61 36 44 3d 66 32 18 3d 06 66 8c 3d e2 b9 53 3c
       0.047903422 0.03715744 0.06855397 0.012922736
000110 40 e8 2b bc d8 ec 23 3d 43 12 01 ba 35 5c 8e bb
       -0.010492384 0.040020794 -0.00049236807 -0.004344488
000120 31 5a dd 3d a4 f8 06 3e 65 b1 ab 3d 78 27 c2 bc
       0.10808218 0.13180786 0.08383445 -0.02370046
000130 82 42 17 3d a7 20 aa bc e5 3d 7b 3d f7 98 da 3d
       0.03692866 -0.020767523 0.061338324 0.10673707
000140 6f 5b 95 3c 39 c1 35 bc ec 9e 6d bc 75 f8 95 bc
       0.018232075 -0.011093431 -0.014503222 -0.01830695
000150 5b 33 7d bc 86 e4 ce bc 1b 35 9d bc e7 1a 7e bc
       -0.015454139 -0.025255453 -0.019190362 -0.015509344
000160 e7 a8 25 bc f9 b3 81 bc 4e 52 89 bd f5 f1 ed bd
       -0.01011107 -0.015832888 -0.067051515 -0.11618415
000170 38 97 24 be 83 9e 45 3d 71 75 9e 3c 4e 74 b9 bb
       -0.1607331 0.04824687 0.01934311 -0.0056596166
000180 37 71 53 3e 68 a0 0f 3e 3b 04 13 3e 7b 9b df 3b
       0.20648657 0.14026034 0.14357083 0.0068239546
000190 d0 48 ad 3b 9d e4 5f ba 6c f8 b5 bb a8 a9 6a bb
       0.005288221 -0.0008540841 -0.005553296 -0.003580669
0001a0 ba 24 93 bb 49 de ab ba eb 96 4d 3a 8b 0b a9 3a
       -0.004490462 -0.0013112511 0.0007842618 0.0012897117
0001b0 25 3d 87 bc 93 fe 6b bc ab 69 ad bc 2e a6 7c bb
       -0.016508648 -0.014403957 -0.02116855 -0.00385512
0001c0 6f 42 32 3b 5d 95 64 bb bb a9 62 ba 7e d3 04 3c
       0.0027200242 -0.0034879067 -0.00086465076 0.008107064
0001d0 6e 64 0c 3b 34 bd c5 bc df f8 51 bd 90 f1 45 bd
       0.0021422165 -0.02413807 -0.051262733 -0.048326075
0001e0 7f 36 99 bd af 80 db bd d8 92 c9 bd 8a 8c 92 bd
       -0.074810974 -0.10717904 -0.09842461 -0.07155712
0001f0 f8 c5 cc bd 85 cd aa bd 3e 20 59 bc a3 10 5e bc
       -0.09998697 -0.08339981 -0.013252316 -0.013553771
000200 98 77 8e bc 60 a1 38 bd 2d 5c 29 bd 29 fb 17 bd
       -0.017391011 -0.045075774 -0.04134767 -0.03710476
000210 49 a0 d3 bc b3 1e c1 bc 81 b1 c8 bc 70 ac 9a bd
       -0.025833266 -0.023574209 -0.024498703 -0.07552421
000220 44 8f a1 bd e6 f0 92 bd f8 7f ac bd 9c bf ac bd
       -0.07888654 -0.07174854 -0.084228456 -0.08434984
000230 c1 6c 91 bd 57 c5 3f bd 77 90 3e bd b6 88 4d bd
       -0.07100821 -0.046819057 -0.04652449 -0.050179206
000240 fe 48 25 bd b9 35 fb bc 7d ab 1f bd 45 9d 94 3d
       -0.040352814 -0.030665265 -0.038981903 0.07256559
000250 19 a6 bc 3d 02 ba aa 3d 6b 67 8d 3d 44 13 bc 3d
       0.09211368 0.083362594 0.06904491 0.09183362
000260 fa 1b 9e 3d a9 a0 13 3d df cf 7f bc a5 39 a8 3b
       0.0772018 0.03604189 -0.015613525 0.005133825
000270 27 c6 32 3c 7d db 7f bd dd a6 f4 bb 95 b5 11 3e
       0.010911501 -0.06246518 -0.0074661807 0.14229424
000280 ba 94 24 3d d1 84 f2 3d dd e5 08 bd b1 06 d9 bc
       0.0401809 0.11841739 -0.03342234 -0.026492449
000290 08 5d 7c bc 93 0e 1f bc 56 5a 50 ba 2d 49 d1 3b
       -0.01540304 -0.009708065 -0.00079480314 0.006386897
0002a0 b7 6f de bb 59 80 0a bc 4c 2b 2c bc e8 08 ac bc
       -0.00678822 -0.008453452 -0.01050837 -0.02100034
0002b0 d3 cb 20 bd cb fa 49 bd 4b 32 94 bd cc 6c b2 bd
       -0.039256882 -0.04931144 -0.07236155 -0.087121576
0002c0 ca 83 b4 bd 5f 6a 89 bd 24 c3 a9 bd 2a dd 97 bd
       -0.08814199 -0.06709742 -0.08289173 -0.074152306
0002d0 3c 5d c5 bc 43 d1 ee bc fc a8 c7 bc 44 4c f4 bc
       -0.02409231 -0.029152518 -0.02437257 -0.029821523
0002e0 ec 71 fe bc 74 8b dc bc 0f 54 a9 bc 5c 01 eb bc
       -0.031060182 -0.026921965 -0.020669965 -0.028687172
0002f0 d0 d2 0a bd c2 8e 20 bd 52 6f 28 bd a4 e1 25 bd
       -0.033892453 -0.039198644 -0.04112179 -0.04049839
000300 df 4b 54 bc 8e 23 22 bd 69 1d 70 bd 58 85 07 bc
       -0.012957542 -0.03958469 -0.058621798 -0.008271538
000310 64 e1 d8 bb 49 31 1a bc 56 6f 6d bd 1a 34 2d bd
       -0.0066186655 -0.009411165 -0.057967506 -0.042286016
000320 26 c9 0e bd b6 84 61 bd 97 2b 8c bd 97 81 63 bd
       -0.0348598 -0.055058204 -0.068442516 -0.05554351
000330 aa 57 67 bd 3c 65 88 bd 42 ef 27 bc 3c 23 80 39
       -0.056480087 -0.06659934 -0.010249915 0.00024440314
000340 47 21 d6 bb 91 9b 75 bc ac b1 61 bb c6 f1 0f bc
       -0.0065347287 -0.014990703 -0.0034438176 -0.008785671
000350 af a4 36 bc 4d 76 8a bc 2f 54 9e bc 77 74 64 bc
       -0.011147662 -0.016902113 -0.019327251 -0.013943783
000360 db 44 45 bc 80 30 1b bc 4d 12 13 bd 8e cd 65 bb
       -0.012040342 -0.0094720125 -0.035906125 -0.0035065147
000370 f2 d4 b1 bc 33 5b d3 bc c9 d0 a4 bb 8d c5 bd bc
       -0.021707986 -0.025800323 -0.005029772 -0.023165489
000380 c8 e9 06 bd 6e 31 5b bd eb 83 40 bd b5 71 2b bd
       -0.032937795 -0.053513937 -0.047000807 -0.041856486
000390 eb b8 2b 3d f9 5d 4b 3d 42 95 2c 3d 41 46 22 3d
       0.0419244 0.049650166 0.04213453 0.03961778
0003a0 31 23 7e 3d 7a 01 40 3d f0 91 d2 bb 14 5d 10 bc
       0.06204528 0.04687641 -0.0064260885 -0.008811254
0003b0 ba b2 a9 bb f1 60 dd bc 29 9f a9 bc 36 69 a4 bc
       -0.0051787766 -0.027023764 -0.020705776 -0.0200697
0003c0 23 0d 4c 3c 6a 46 0e 3c 2f d8 2f 3b a8 11 76 3e
       0.012454304 0.00868378 0.0026831736 0.24030173
0003d0 2a 27 5d 3e 3a 51 39 3e 01 af 35 3d 76 d8 80 3d
       0.21596971 0.18097392 0.04435635 0.06291287
0003e0 34 75 c2 3c 0a b8 19 3e 51 79 ed 3d 84 c0 14 3d
       0.023737527 0.15011612 0.11595405 0.03631641
0003f0 fe 50 d8 bd af 5a 28 3d 6a 1d 7f bd 0b 2e 88 bd
       -0.10562323 0.041102108 -0.06228391 -0.06649407

emb_func.layer2.0.bias f4 [64]
000000 70 c1 56 b9 76 10 6d 3b f1 1b ae bb eb 7b e3 ba
       -0.00020480691 0.0036173142 -0.0053133895 -0.0017355656
000010 e7 be 3b 3b 4a ec a3 ba 19 48 6a 3b 6e 6a f9 3a
       0.0028647722 -0.0012506333 0.003574854 0.0019028911
000020 f2 29 7a 3a 40 69 47 ba 79 fd ae ba 7d 81 96 ba
       0.00095429935 -0.0007606931 -0.0013350687 -0.0011482682
000030 4e 78 01 ba 06 53 43 bb 4e 60 ce ba a4 36 4e 3b
       -0.0004938886 -0.0029804124 -0.0015745254 0.0031465674
000040 aa 25 7d 3b 37 d0 84 3a 31 2e 5e 3a 39 43 9b bb
       0.0038627186 0.0010132854 0.0008475511 -0.004738238
000050 a5 d0 93 3a 3e 30 97 3b 79 b3 1c bb a7 77 b4 ba
       0.0011277391 0.004613905 -0.0023910685 -0.0013768569
000060 9e d8 af 3b 32 ec 5a 3a e5 db 8d 3b 44 91 c4 ba
       0.005366399 0.0008351236 0.004329192 -0.0014996906
000070 21 44 a3 bb 89 c2 fa 39 e5 14 8c bb a4 10 1c bb
       -0.004982487 0.00047828656 -0.0042749518 -0.002381363
000080 01 b4 fb 3a 10 85 a7 bb 61 aa 44 3b 37 55 a6 3b
       0.0019203426 -0.005112298 0.003000878 0.0050760764
000090 96 c3 a9 3b 77 58 9d bb 55 89 b3 bb ae 43 11 bb
       0.0051807864 -0.0048018056 -0.0054790177 -0.0022165584
0000a0 cc 84 e3 39 92 77 31 bb 59 92 7e 3b c9 19 a5 3b
       0.00043395755 -0.0027079326 0.0038844554 0.005038474
0000b0 62 5a bf 3a 62 a7 58 ba 26 92 a5 bb 7d 47 5b 3b
       0.001459908 -0.0008264688 -0.0050528226 0.0033459358
0000c0 dc ea 52 ba 32 0d 78 3b 42 5c 0a 3b e0 4e 72 3a
       -0.0008045861 0.0037849662 0.002111212 0.00092433207
0000d0 1c 47 86 bb b3 79 6a 3b 23 db 8a 3a df e9 8d 3b
       -0.0040978324 0.0035778105 0.0010593872 0.004330858
0000e0 98 b6 88 3b 2c b4 3e bb 08 a0 8a bb 4c e2 aa bb
       0.0041721575 -0.002909909 -0.004230503 -0.005214965
0000f0 83 a7 f4 ba 50 89 f6 ba 42 a1 bc 39 5b ba 3f 3b
       -0.0018665645 -0.0018809233 0.000359783 0.0029255364

emb_func.layer2.1.weight f4 [64]
000000 40 25 25 3f c4 34 5c 3f a9 67 e1 3e f6 e0 2b 3f
       0.64509964 0.86018014 0.440244 0.6714014
000010 41 e4 01 3f 6f dc 57 3f b6 c4 6b 3f d1 fd 15 3f
       0.5073891 0.8432073 0.9209703 0.5859042
000020 6b 1a 69 3f 1a b5 4d 3f b4 1d 49 3f f6 07 4a 3f
       0.91055936 0.80354464 0.7856095 0.789184
000030 ca 47 2d 3f df 8b 15 3f be f0 3c 3f cb df 42 3f
       0.67687666 0.5841655 0.73804843 0.7612273
000040 df b1 41 3f bc 69 37 3f 85 a8 58 3f fb a3 44 3f
       0.75662035 0.7164571 0.8463214 0.76812714
000050 5e 3e e1 3e 9f 1e 67 3f e6 11 88 3f dc c4 77 3f
       0.43992895 0.902811 1.0630462 0.9678476
000060 3d df 43 3f 19 8d 0b 3f c5 c1 1f 3f aa 26 3a 3f
       0.7651251 0.5451217 0.62405044 0.72715247
000070 d7 b4 31 3f 74 ba 2e 3f 91 8a 9f 3e a8 d5 2f 3f
       0.69416565 0.68253255 0.31160405 0.6868539
000080 d3 ad 80 3f 84 53 43 3f fe ec 45 3f e2 5f 5c 3f
       1.0053047 0.7629931 0.77314746 0.86083806
000090 b6 3b 05 3f 5c 2f 45 3f d5 8e 74 3f 64 66 3d 3f
       0.52044237 0.7702539 0.95530444 0.7398436
0000a0 b1 1b 84 3f 7a 08 4d 3f b5 76 0e 3f 01 bc 12 3f
       1.0320951 0.8009106 0.5564988 0.5731812
0000b0 35 29 41 3f 67 35 5d 3f ce 63 3c 3f 54 8d 66 3f
       0.754535 0.8640961 0.7358979 0.900594
0000c0 c5 b6 6b 3f 4a c4 5e 3f 20 7c 47 3f db 2c 36 3f
       0.9207576 0.87018263 0.77923775 0.71162194
0000d0 c3 40 3a 3f 22 bf 40 3f 4f e0 52 3f 23 21 1a 3f
       0.7275507 0.75291646 0.8237352 0.6020681
0000e0 d9 16 6a 3f 03 3c 3d 3f b7 54 62 3f b5 dc 69 3f
       0.9144111 0.73919696 0.88410515 0.913524
0000f0 2c 0a 22 3f f6 7b 4a 3f 8a ab f9 3e b8 c9 4f 3f
       0.6329677 0.790954 0.48763686 0.81167173

emb_func.layer2.1.bias f4 [64]
000000 be dd ab be 5a ec ed be 23 f3 85 3d 02 30 55 bf
       -0.33567613 -0.46469384 0.06540515 -0.8327638
000010 15 69 6d be 4c 0f a0 be 62 ea c6 be 74 db 96 be
       -0.23184617 -0.3126167 -0.38850695 -0.29464304
000020 a1 4a f1 be 9a db 9e be d2 87 ab be 80 f7 b7 be
       -0.4712725 -0.31026918 -0.3350206 -0.35931015
000030 fd 70 bf be a3 ca 84 bd b0 f5 6b be 95 b6 c3 be
       -0.3739089 -0.064839624 -0.23042941 -0.38225237
000040 0b 29 a2 be 56 bf e6 be 48 f1 b0 be ea 19 1d bf
       -0.31671938 -0.45067853 -0.34559083 -0.61367667
000050 d2 23 99 bd d8 bb ee be ba f1 f4 be be f4 f1 be
       -0.07477535 -0.46627688 -0.47840673 -0.47257036
000060 9d 98 fc bd 9c 71 84 be 14 12 b9 be a0 1a 96 be
       -0.12333796 -0.25867927 -0.36146605 -0.29317188
000070 ce 9c a0 be f9 71 74 be f5 d2 3e 3e 57 b9 6a be
       -0.31369632 -0.23871602 0.18635161 -0.22922264
000080 51 33 0c bf e8 99 38 be eb 31 a5 be 17 26 fd be
       -0.547658 -0.1802746 -0.32264647 -0.49443123
000090 c6 2e 52 3d 38 2e 0f bf 74 84 09 bf 02 a6 f4 bd
       0.051314138 -0.559299 -0.5371773 -0.11945726
0000a0 91 91 1c bf a7 0a a8 be c5 c1 43 b9 ee ff 01 be
       -0.61159617 -0.32820627 -0.00018668834 -0.12695286
0000b0 f8 30 d7 be a1 3d 26 bf 2e 47 ac be 6c 30 0b bf
       -0.42029548 -0.6493779 -0.33648056 -0.5437076
0000c0 ab 98 01 bf fa b6 03 bf 4c ed 86 be 19 3e aa be
       -0.5062358 -0.51451075 -0.26352918 -0.33250502
0000d0 06 dd 99 be 72 7b aa be 42 26 65 bf f9 e8 9c 3e
       -0.3005144 -0.33297306 -0.895115 0.30646494
0000e0 48 ae ae be be 71 b1 be 51 78 0c bf f5 45 bc be
       -0.3411734 -0.3465709 -0.5487109 -0.36772123
0000f0 3f 7c ce bd 7c 68 5a be 08 c2 89 bb 14 94 80 be
       -0.10082292 -0.2132892 -0.0042040385 -0.25112975

emb_func.layer2.1.running_mean f4 [64]
000000 6c de 3f bf 2f 04 de bf bb bd bb bf ca 7a a9 bc
       -0.74948764 -1.7345027 -1.4667276 -0.020688433
000010 8b fe 8a 3e 41 32 8e bf 78 bc 3b c0 b8 c6 0f bf
       0.27147326 -1.1109086 -2.9333782 -0.56162596
000020 47 26 35 c0 22 fb 2e c0 23 ed 1a c0 86 09 37 c0
       -2.8304613 -2.734078 -2.4207237 -2.8599563
000030 ad 4a 52 bf dd 33 4a bf 6e ae 08 c0 77 09 6e c0
       -0.82145196 -0.7898539 -2.1356463 -3.7193277
000040 5f 8e 08 c0 6f 8e 0c c0 2e 3e 5d c0 36 16 e1 bf
       -2.1336896 -2.1961935 -3.4569201 -1.7584903
000050 d5 92 fb bc d4 2e cc bf 47 86 78 c0 57 6d 44 c0
       -0.030709663 -1.5951791 -3.8831956 -3.0691736
000060 ab c6 ac c0 c9 84 49 bf 6d 0b d2 bf 26 30 24 c0
       -5.3992515 -0.7871824 -1.6409737 -2.5654387
000070 f2 49 c2 bf 69 40 1a c0 b6 52 70 bf f0 7c 11 c0
       -1.5178816 -2.4101813 -0.93876207 -2.2732506
000080 5a f2 1d c0 67 f3 15 c0 45 87 40 bf 97 68 b5 bf
       -2.467917 -2.342981 -0.75206405 -1.4172543
000090 f7 23 e9 bf 80 9f 00 c0 e9 ce c0 c0 eb ec 10 c0
       -1.8214101 -2.009735 -6.0252576 -2.2644603
0000a0 78 82 e0 c0 4e 47 ff bf 76 83 6c bf 81 e8 08 bf
       -7.0159264 -1.9943635 -0.92388093 -0.5347977
0000b0 c3 67 16 c0 ab 71 93 bf 49 a8 2e bf 37 89 31 c0
       -2.350083 -1.1519064 -0.6822553 -2.774
0000c0 5f 14 45 c0 c4 73 02 c0 73 7c 0f c0 85 af ea bf
       -3.0793684 -2.0383158 -2.2419708 -1.8334814
0000d0 bd 4d 19 c0 4f ca f1 bf 44 f4 1a bf 65 31 6f c0
       -2.3953698 -1.8889865 -0.6052897 -3.7373898
0000e0 02 63 52 c0 b0 ef ec bf 49 c6 46 c0 7f 8e 4f c0
       -3.287293 -1.8510647 -3.1058524 -3.2430723
0000f0 be 8c 0d c0 85 70 83 bf ca 91 62 bf de 2f d9 bf
       -2.2117152 -1.0268713 -0.88503706 -1.6967733

emb_func.layer2.1.running_var f4 [64]
000000 f2 f6 2b 40 fe f1 e6 40 30 db 89 40 16 9c 5f 40
       2.6869473 7.21704 4.3080063 3.4939017
000010 d0 51 37 40 6a 7c f2 40 18 9f dd 40 69 ee 13 40
       2.8643684 7.5776873 6.9256706 2.3114264
000020 15 81 bc 40 56 3f e5 40 89 77 ff 40 a8 b5 0a 41
       5.890757 7.1639814 7.9833417 8.66935
000030 f3 93 34 40 8f a7 83 40 ae bc 52 41 48 82 a0 40
       2.82153 4.114204 13.171064 5.0159035
000040 73 ce 09 41 74 3d 1e 40 af 99 0d 41 23 3e 9a 40
       8.612903 2.4725008 8.85002 4.820085
000050 58 54 3e 40 ae a3 b6 40 da f6 23 41 7a 8d a7 40
       2.973898 5.7074804 10.2477665 5.23602
000060 10 97 13 41 3b f0 6c 40 eb 3f 38 40 96 88 0e 41
       9.2243805 3.7021625 2.8789012 8.908346
000070 e8 cf 1d 40 f3 a7 d5 40 af d4 39 40 33 71 98 40
       2.4658146 6.6767516 2.9036062 4.7638183
000080 28 64 02 41 30 35 ca 40 88 43 e5 40 c6 8c 58 40
       8.149452 6.3189926 7.1644936 3.3835921
000090 e3 41 95 40 ae 81 45 40 9a 4c 1e 41 ce fd 98 40
       4.664293 3.08604 9.893702 4.780982
0000a0 c4 93 3c 41 1c f7 fa 40 7c 87 09 41 b7 04 5d 40
       11.786076 7.8426647 8.595577 3.4534128
0000b0 28 6b 03 41 21 2f 47 40 b7 4f 99 40 4c 54 99 40
       8.213661 3.1122515 4.790981 4.79154
0000c0 bd 9f 2c 41 b7 db af 40 df 5e 11 41 46 a9 e7 40
       10.788999 5.4955707 9.085662 7.2394133
0000d0 a4 e3 0a 41 6b d5 bf 40 b3 a5 8a 40 71 6b c7 40
       8.680576 5.994802 4.332727 6.2318654
0000e0 e0 32 e2 40 44 e6 d3 40 6f 4f cc 40 1f 27 d5 40
       7.0687103 6.6218586 6.3846965 6.6610255
0000f0 e2 d7 bc 40 e9 92 24 41 a6 87 f6 40 01 75 1e 41
       5.901353 10.285867 7.7040586 9.903565

emb_func.layer3.0.weight f4 [64, 64, 3, 3]
000000 35 e4 55 bd 75 14 c9 bc 4a e9 2f bd 85 b7 d2 3d
       -0.05221959 -0.024545887 -0.04294709 0.1028891
000010 fd ab 4f 3e 5b 4c 71 3e f1 70 b9 3d ba 4e f3 3d
       0.20280452 0.23564284 0.09054745 0.1188025
000020 15 f2 da 3d 1c f0 00 be 33 fe b2 bd 5f e3 f3 3d
       0.10690705 -0.12591594 -0.08739891 0.11908602
000030 bb d2 94 bd c2 35 e1 bc 46 1d 1d be 89 09 c9 bd
       -0.07266756 -0.027491454 -0.15343198 -0.09816272
000040 79 4f c6 bd 3c d3 28 be 8e 05 97 bd 76 9b 86 bd
       -0.09683127 -0.1648683 -0.07374106 -0.065726206
000050 5e 5d 8f bd ac cd 36 be 49 35 4f be ac b5 62 be
       -0.0700023 -0.17851895 -0.2023517 -0.22139615
000060 00 3e 65 be 8c 09 73 be 4a 21 63 be 11 7a f3 bc
       -0.22386932 -0.2373411 -0.22180668 -0.029721292
000070 0b af c2 bd 68 80 db bd 68 bd 2d 3d 96 a9 96 bd
       -0.09506043 -0.10717851 0.04241696 -0.07356565
000080 fd 5c 62 bd 45 5a f1 bd 3f 2c c8 bd 65 f1 17 be
       -0.05526446 -0.11784796 -0.09774064 -0.14838178
000090 92 dc 8c 3c 01 d8 8c bc f4 f4 95 3d 01 69 3f bc
       0.01719502 -0.017192842 0.07322112 -0.01168275
0000a0 82 27 20 3c d9 24 db 3c b0 a1 df bc 5c bf 59 bd
       0.009775044 0.026750969 -0.027298778 -0.05316101
0000b0 9c 1c d6 bd da 05 1b bd a4 22 96 3c 4f 58 0b be
       -0.104546756 -0.037847377 0.018327065 -0.13607906
0000c0 53 6d 90 bb 15 c8 c6 bb bd cd 11 be cb 87 c6 bd
       -0.0044075637 -0.006066332 -0.14238639 -0.09693869
0000d0 fe b3 2b bd f0 36 a5 3c f3 3c 45 be d1 e9 9a bd
       -0.0419197 0.020167798 -0.19261532 -0.07564128
0000e0 99 4b c6 3d e5 04 ef bd 66 7a 19 3d be cf e4 3d
       0.09682388 -0.116708554 0.037470244 0.11172436
0000f0 8b 7d 44 bc 86 0e 82 3d f7 5c 1c 3d df 73 17 bd
       -0.011992822 0.063504264 0.038174596 -0.036975738
000100 05 76 25 3c a3 1c fd 3d 8a 30 a8 3b 68 0b 8a 3d
       0.010098939 0.12358978 0.0051327394 0.06740457
000110 fb f9 0d 3e 3a b8 ba bc 0e d2 06 be 71 88 fe bd
       0.13864891 -0.022792924 -0.13166067 -0.12428368
000120 ea ef b6 ba ad b7 04 3c 04 cd 78 bd ea 69 fb bb
       -0.0013956998 0.008100432 -0.060742393 -0.007672538
000130 a1 38 4d 3d 56 7c ac bd 69 70 b3 3d e8 37 34 3e
       0.050102834 -0.08422153 0.08761675 0.17599452
000140 6b f0 14 bd 34 b8 fd bd a6 0a 70 bd 3b 2b 48 bd
       -0.036362093 -0.123886496 -0.058603905 -0.048869353
000150 92 7b a1 bd 9f b0 64 3d 16 e2 bb 3d 17 a8 8a 3d
       -0.07884897 0.0558325 0.09173982 0.06770342
000160 3e 0d c0 3d b9 da bc bb 32 9e 93 bd 35 71 aa 3b
       0.09377526 -0.0057633785 -0.07207908 0.0052014836
000170 1f 67 14 3d be b8 54 3b 9e d4 07 bd 32 9a ff 3d
       0.036231156 0.0032458748 -0.033161752 0.12480582
000180 8f 68 0c 3e ba 35 07 3e 01 cd 2c 3e fd 74 89 bd
       0.13711761 0.13204089 0.16875078 -0.06711767
000190 20 71 6c bd 34 5d 16 be ad 0e 28 3e 41 f7 8b 3d
       -0.057725072 -0.14683992 0.16411848 0.06834269
0001a0 c4 e0 17 bc ee fe 08 3c 19 ee 02 bd 27 5f 81 bc
       -0.009269897 0.008361561 -0.03196535 -0.015792442
0001b0 12 af a5 bc 8f e3 20 3d f2 bd d9 3d c2 a7 9a 3d
       -0.020225082 0.039279517 0.10631932 0.075515285
0001c0 84 c1 ef 3d 8c 04 4f bb de 4a 1d 3d ed c1 7d 3d
       0.11706832 -0.0031588404 0.038401477 0.06195252
0001d0 fd 48 b9 bd cc 7e 0d 3d 2a da f5 3c 27 9f 30 3d
       -0.090471245 0.03454475 0.030011255 0.04312053
0001e0 ab 7b 70 3d 14 74 92 bd 41 e4 65 bd 1e f9 28 3d
       0.05871169 -0.071510464 -0.056125883 0.0412532
0001f0 27 6f 4c bd ee 66 81 bd 4b c1 68 bb 23 0b f2 bd
       -0.04991069 -0.063184604 -0.0035515602 -0.118185304
000200 70 af 12 be 10 b2 bb bd d1 98 de bd 24 a7 48 bd
       -0.14324737 -0.09164822 -0.10868991 -0.048987523
000210 65 f8 fd bd 15 b6 bc bd b9 d5 84 bd e5 81 d5 bc
       -0.12400893 -0.09214417 -0.06486077 -0.026062915
000220 7d f7 51 bd 89 9f a0 3c 29 09 d7 bd 16 22 06 be
       -0.051261414 0.019607322 -0.10499794 -0.1309894
000230 39 f1 da bd c9 90 f1 bd 9a 9a 74 bd 04 73 f2 bd
       -0.10690541 -0.11795194 -0.059717752 -0.11838344
000240 22 17 02 be e9 5b 57 3d d8 e4 90 3e a7 b6 93 ba
       -0.12704137 0.052577887 0.28299594 -0.0011269645
000250 3c e4 67 3d cc 00 a3 3d a0 73 11 3e a3 a6 45 bd
       0.056614146 0.07959136 0.14204264 -0.04825462
000260 1a 39 ef bd 79 24 c6 bd 39 97 f7 bd 6e b9 6f bc
       -0.11680813 -0.09674925 -0.1208939 -0.014631612
000270 8f 9c 0d bd 4b 29 39 bd 4d da 95 bc 0e 6e 03 bc
       -0.034573134 -0.045205396 -0.01829257 -0.008021845
000280 9a d3 49 3c 0f 54 f7 bc aa 60 75 bd ec 06 3b 3d
       0.012318516 -0.03019145 -0.05990664 0.045660898
000290 72 4e 00 bd eb 84 23 3d 75 63 d9 3d 77 d7 5a bc
       -0.03132481 0.039921682 0.10614673 -0.013357035
0002a0 d1 44 14 3e 96 4c 33 3e c0 e8 94 3d c9 e2 22 3e
       0.14479376 0.17509684 0.07270956 0.15906824
0002b0 50 a2 8f 3d 3e c6 40 3d 9e 8d 02 3d ce 50 18 3d
       0.070133805 0.04706406 0.031873338 0.037186436
0002c0 da cd 9d bd 62 25 f1 bd a3 e7 c8 bd 44 d4 e7 bd
       -0.07705279 -0.11774708 -0.09809806 -0.11319783
0002d0 46 b4 99 bd 8d 9e b8 3a 39 e3 a3 bd 24 58 fb 3b
       -0.075050876 0.0014085338 -0.08002324 0.0076704193
0002e0 50 13 1c 3b a6 90 4d bd 46 4a 73 bd f7 0b 03 be
       0.0023815222 -0.050186776 -0.059397005 -0.12797533
0002f0 d3 32 0c be 40 6d c0 3d c6 91 02 bc 78 b3 f4 bd
       -0.13691263 0.09395838 -0.007969325 -0.119482934
000300 af e9 46 3c a0 11 2e bd 04 09 ad 3c 53 a0 db bd
       0.012140675 -0.042497277 0.021122463 -0.10723939
000310 ee d9 b2 bd 3b 04 24 be 96 29 3f 3d 8b b1 d8 3d
       -0.08732973 -0.16017239 0.04667052 0.10580739
000320 26 88 64 3d e6 17 00 be 1b 93 aa bd ec 82 c0 bd
       0.055793904 -0.12509117 -0.083288394 -0.09399971
000330 a1 59 34 be f1 63 c8 bd d0 4e 2e be e5 8a 95 3c
       -0.17612316 -0.09784687 -0.17022252 0.018254707
000340 fb ba 82 bd 4e 48 01 be cb a0 17 bd 8a bf d6 bc
       -0.0638332 -0.12625238 -0.03701858 -0.02621438
000350 74 32 a2 bd a7 ee 97 3a 9d ac 79 bb b2 5b a5 bd
       -0.079197794 0.001159151 -0.003809727 -0.0807413
000360 6c b1 f9 bd ae 5b 89 bd fb 7c c6 3b 84 2c 7f bd
       -0.12192044 -0.0670694 0.0060573793 -0.062298313
000370 48 5f cc bd ce 30 7f 3c fd 58 3b 3e 2c ee 08 3e
       -0.09979111 0.015575601 0.18295665 0.13372105
000380 e8 80 14 3e 93 e6 80 3d 71 49 09 bc c5 73 c6 bc
       0.14502299 0.062939785 -0.008379326 -0.024225125
000390 d7 90 b8 3c fd 1b 88 bd 9e 63 24 be 7b 8b d5 bd
       0.022530003 -0.06645963 -0.16053626 -0.104269944
0003a0 29 12 0b be 3c 92 34 be 23 18 2c bd 50 04 7f 3c
       -0.13581146 -0.17633909 -0.042015206 0.015564993
0003b0 05 5a 9a 3d 62 35 da 3c d9 5e e1 3d cd 58 eb 3d
       0.07536701 0.026636783 0.11004419 0.11491547
0003c0 d2 7e c2 3c 09 df a0 ba 34 57 4c bd 11 79 a7 3d
       0.023742113 -0.0012273501 -0.04988785 0.081773885
0003d0 e7 77 b8 3d 85 a0 6f 3b 1e 5c 69 3d ef dc d7 3d
       0.090072446 0.0036564183 0.056972615 0.105401866
0003e0 99 ac e5 bb 86 07 3a bd 8a c0 10 bd 6b 49 b3 bd
       -0.0070091006 -0.04541733 -0.03533987 -0.08754238
0003f0 65 fc 4c 3d 9b b9 fb bd 35 7a 13 be b2 27 e5 bb
       0.05004539 -0.12291261 -0.14402087 -0.0069932574

emb_func.layer3.0.bias f4 [64]
000000 f9 14 ef b9 71 b0 d9 b8 79 f0 8b bb 51 93 66 bb
       -0.00045601258 -0.00010380231 -0.00427061 -0.0035183022
000010 49 28 9b bb c3 82 fa b8 6b 67 82 bb 1f 27 74 37
       -0.004735027 -0.00011945285 -0.0039796135 1.4552642e-05
000020 cc 39 22 bb d6 7c eb ba 82 e9 a5 3b a1 4d 9a bb
       -0.0024753688 -0.0017966281 0.0050632367 -0.004708961
000030 4d 56 16 bb 0c 39 d7 39 69 50 d8 ba c2 22 06 3b
       -0.0022939623 0.000410505 -0.0016503456 0.0020467495
000040 42 35 ab 3b 4d 98 37 3b 61 3e 35 3b 5f ef ff b9
       0.0052248547 0.0028014362 0.002765559 -0.00048815735
000050 e8 32 80 ba a6 65 c6 3a ce 7c 40 3b ab 50 67 3b
       -0.0009780796 0.0015136495 0.0029371264 0.0035295885
000060 8f 1b 07 3b 23 f9 3e 3b aa 42 a1 3a 6a 0c cc b8
       0.0020615791 0.0029140196 0.0012303193 -9.72979e-05
000070 9c 55 8d ba c6 f8 8a bb 08 ca b2 bb 21 86 ad bb
       -0.001078296 -0.004241082 -0.005456213 -0.0052955304
000080 6c 99 8c 3b dc 72 b5 3a 45 65 a4 3b 21 0e 88 bb
       0.0042907503 0.0013843435 0.005016955 -0.004152075
000090 8e 29 98 3b 63 99 b0 bb 3e ff 83 ba 10 10 22 3b
       0.0046436256 -0.005389379 -0.0010070575 0.0024728812
0000a0 d5 83 a7 bb ba 5a 70 3b ce d3 a5 bb 09 5d 6e 3b
       -0.005112151 0.003667517 -0.0050606495 0.0036371371
0000b0 80 52 95 3b ed 17 8a 3b d4 b8 00 39 bb c6 52 3b
       0.004556954 0.004214278 0.00012275885 0.003216191
0000c0 88 b8 21 3b 58 00 90 3b 2b 0d ab bb 25 0f ad bb
       0.002467664 0.004394572 -0.0052200756 -0.0052813464
0000d0 5e b2 70 bb 3f 24 a0 3b e9 31 ef 3a 3f f9 e4 b9
       -0.003672741 0.0048871334 0.0018249127 -0.00043673252
0000e0 70 2d a6 ba cd bc 6a 3b 1f ba 7c 3b 99 0f 89 bb
       -0.0012678336 0.00358181 0.0038563085 -0.0041827676
0000f0 62 13 5c ba 6a 23 6c 3b ef 35 7a bb 35 7b 73 3b
       -0.0008395222 0.003603185 -0.003817912 0.0037152295

emb_func.layer3.1.weight f4 [64]
000000 4d 08 40 3f 16 2c 35 3f 68 04 72 3f 63 cd 7f 3f
       0.75012666 0.70770395 0.94537973 0.9992277
000010 32 42 8c 3f 3b 27 7d 3f a0 91 72 3f 11 c8 78 3f
       1.0957701 0.98887986 0.94753456 0.9718028
000020 8e bc 7f 3f e2 78 f9 3e 96 d0 4e 3f 87 c2 7b 3f
       0.99897087 0.4872504 0.80787027 0.983437
000030 a2 82 1e 3f 66 a3 5d 3f 83 fe 6e 3f 35 ae 66 3f
       0.6191808 0.8657745 0.93357104 0.9010957
000040 14 88 8b 3f 0a 1b 86 3f 79 37 5a 3f e9 6a 31 3f
       1.0900903 1.0477002 0.85240895 0.69303757
000050 e6 50 8a 3f 00 ff 80 3f 10 5e 78 3f 20 88 66 3f
       1.0805938 1.007782 0.9701853 0.9005146
000060 77 d7 1d 3f f3 f8 80 3f 7b 23 63 3f 1c 92 80 3f
       0.616569 1.0075973 0.88726014 1.0044589
000070 b1 0b 73 3f 94 4f 52 3f 43 54 74 3f de c0 6e 3f
       0.94939715 0.82152677 0.95441073 0.9326304
000080 9a a3 60 3f 44 d2 10 3f 48 9e 3f 3f 67 c5 7c 3f
       0.87749636 0.5657084 0.74850893 0.9873871
000090 ba 27 5f 3f 79 7e 92 3f be 3b 3b 3f 00 dc 85 3f
       0.8716999 1.1444846 0.73138034 1.0457764
0000a0 6b 00 87 3f 3b 81 43 3f b5 a2 4a 3f ee 62 52 3f
       1.0547003 0.76369065 0.7915452 0.82182205
0000b0 57 24 86 3f 8b 0d 7c 3f d3 e1 3f 3f 26 88 84 3f
       1.047984 0.98458165 0.74953955 1.0354049
0000c0 8d 59 5c 3f 6f 20 5d 3f 95 55 91 3f 1d 1b 5e 3f
       0.86074144 0.86377615 1.1354243 0.8676012
0000d0 3f 96 35 3f cc 53 7e 3f 58 c3 7e 3f 2b 58 4e 3f
       0.7093238 0.99346614 0.9951682 0.80603284
0000e0 9b da 29 3f 51 c0 5c 3f 52 68 89 3f f5 07 66 3f
       0.6634919 0.8623095 1.0734961 0.8985589
0000f0 27 46 57 3f 67 dd 62 3f bd d7 2d 3f 5f 80 29 3f
       0.8409142 0.88619083 0.67907315 0.66211504

emb_func.layer3.1.bias f4 [64]
000000 3d 0f 08 bf ee 97 79 be cd d2 23 bf c2 9f e7 be
       -0.5314825 -0.24374363 -0.6399353 -0.45239073
000010 e9 24 4b bf 71 9f 35 bf b4 ce 34 bf 45 a8 44 bf
       -0.79353195 -0.70946413 -0.70627904 -0.7681926
000020 e9 f9 38 bf bf 06 2c 3f 6d 50 1a bf f5 9d 33 bf
       -0.7225633 0.67197794 -0.6027897 -0.701629
000030 26 5e ec be 94 8b 01 bf d9 d3 40 bf 4a 04 24 bf
       -0.4616558 -0.50603604 -0.75323254 -0.64069045
000040 6d 5c 70 bf f9 6e 4b bf 03 52 49 bf 53 85 b4 be
       -0.9389103 -0.79466206 -0.78640765 -0.35257968
000050 7c cb 17 bf 1a cd 40 bf 83 fc 4f bf c6 ec 0a bf
       -0.5929487 -0.7531296 -0.8124468 -0.5426754
000060 75 b5 7c be d1 d3 8e bf 68 4a 8b be 11 2f 32 bf
       -0.24678595 -1.1158391 -0.27205205 -0.6960307
000070 fb b8 11 bf 2f 10 ca be 2a b1 24 bf 18 93 5d bf
       -0.5692288 -0.39465472 -0.6433283 -0.8655257
000080 3e 6a fe be 22 c2 43 be 45 81 cd be b1 c8 53 bf
       -0.4969043 -0.19117025 -0.40137687 -0.82728106
000090 9f 7a fe be 96 44 2c bf 11 e2 82 be 2e 35 29 bf
       -0.49702927 -0.67292154 -0.255631 -0.6609677
0000a0 58 35 33 bf 37 5e a7 be 5f 2b e9 be 17 fd 8b be
       -0.7000327 -0.32689068 -0.45540902 -0.2734153
0000b0 46 ca 10 bf d6 87 dc be a1 78 af be 3b 57 4a bf
       -0.56558645 -0.43072385 -0.3427172 -0.79039353
0000c0 ba 3a 0d bf ee 3f 14 bf ac 18 0f bf 0a 65 f5 be
       -0.55167735 -0.5791005 -0.5589702 -0.4792865
0000d0 f1 31 67 be 47 24 29 bf 14 d7 de be 18 a2 19 bf
       -0.22577645 -0.6607098 -0.43523467 -0.6001296
0000e0 f3 d2 bc be 13 09 18 bf 13 35 51 bf d6 86 d1 be
       -0.3687969 -0.59388846 -0.8172161 -0.40923184
0000f0 3d a7 28 bf 6d 6a f2 be ec 0c a5 be 59 15 c3 be
       -0.65880185 -0.4734682 -0.3223642 -0.38102224

emb_func.layer3.1.running_mean f4 [64]
000000 de d7 4d bf 4e 7c d4 bf 53 9d 1e c0 1e ba 20 c0
       -0.8040751 -1.6600435 -2.4783523 -2.5113597
000010 17 5a 10 c0 6c bc ce bf 4a ad 24 c0 c3 ae 91 bf
       -2.2554986 -1.6151252 -2.5730767 -1.1381458
000020 eb bb 62 c0 f1 31 c4 bf e8 be a4 bf cb cc fe bf
       -3.5427196 -1.5327741 -1.287076 -1.9906248
000030 55 4f 43 bf 08 94 12 c0 61 e6 1a c0 26 8f 64 bf
       -0.76292926 -2.290285 -2.4203112 -0.8928093
000040 77 b4 43 c0 ca 3d dd bf 99 81 92 bf b0 eb 41 bf
       -3.0578897 -1.7284482 -1.14458 -0.75750256
000050 dc 5d 22 c0 ce 0e 0e c0 2c ec 0a c0 a9 b0 65 c0
       -2.5369787 -2.2196536 -2.1706648 -3.5889075
000060 71 22 6e 3f 53 cc 3a c0 a3 7e 51 c0 a1 51 d3 bf
       0.93021303 -2.918721 -3.2733543 -1.6509286
000070 f4 66 1d c0 bd b5 c5 bf 79 91 e1 bf 28 40 0a c0
       -2.4594088 -1.5446087 -1.762252 -2.1601658
000080 27 50 40 c0 6a 30 17 c0 f0 9f 29 bf 79 da 18 c0
       -3.004892 -2.36233 -0.6625967 -2.3883345
000090 08 4d 01 c0 49 bd 2f c0 c3 05 c9 bf 9f c1 02 c0
       -2.0203266 -2.745928 -1.5704883 -2.0430677
0000a0 e5 1a 1e c0 3e bd 36 c0 1f a7 33 c0 99 31 e6 bf
       -2.4703915 -2.8553004 -2.8070753 -1.7983886
0000b0 b3 55 05 c0 f3 08 26 c0 0e ec 4e bf 7f 0a 4a c0
       -2.0833557 -2.5942962 -0.8082894 -3.1568906
0000c0 50 59 45 3d 35 4e 94 bf f5 17 14 c0 b1 00 92 bf
       0.04818088 -1.1586367 -2.3139622 -1.1406461
0000d0 62 13 30 c0 03 a8 1f c0 6e a2 43 c0 41 4b d6 bf
       -2.751183 -2.4946296 -3.056789 -1.6741716
0000e0 0c c0 bb bf a5 20 33 c0 39 83 0b c0 8d 52 b5 bf
       -1.4667983 -2.7988675 -2.1798842 -1.4165817
0000f0 18 df d6 bf 29 bb 0f c0 62 e0 d2 bf 01 97 06 bf
       -1.6786833 -2.2457983 -1.6474726 -0.52574164

emb_func.layer3.1.running_var f4 [64]
000000 43 c0 24 40 24 6a 4c 40 b1 1e 65 40 22 8f c1 40
       2.5742347 3.1939783 3.5799983 6.0487223
000010 6f 06 b8 40 8c 2d 35 40 95 24 85 40 fa b1 6c 40
       5.7507854 2.830905 4.1607156 3.6983628
000020 7b 32 85 40 63 2e 42 40 48 49 7f 40 08 d9 34 40
       4.162412 3.0340812 3.9888477 2.8257465
000030 33 5b f6 3f 7f 8c 6d 40 b0 7a 59 40 17 81 26 40
       1.9246582 3.7117002 3.3981133 2.601629
000040 89 ec 4b 40 2a a9 56 40 15 7d 1c 40 77 63 0a 40
       3.186312 3.354075 2.4451344 2.1623209
000050 27 69 b8 40 c2 f6 57 40 33 e2 74 40 1c af 87 40
       5.762836 3.374436 3.826306 4.2401257
000060 ed bc fb 3f 31 38 50 40 17 11 81 40 5a b2 65 40
       1.966703 3.2534297 4.033336 3.5890107
000070 77 8a 6a 40 63 b0 3d 40 7a 08 43 40 16 c8 9f 40
       3.6647012 2.9638908 3.0473924 4.9931746
000080 60 16 15 40 28 0c 1f 40 79 35 2d 40 19 5c 94 40
       2.3294907 2.485117 2.7063887 4.6362424
000090 1a 5b 83 40 35 5d d2 40 c6 fe 65 40 ca 58 ba 40
       4.104871 6.573878 3.5936751 5.8233385
0000a0 55 c6 b8 40 d8 d0 31 40 b0 c3 50 40 5a 0d 91 40
       5.7742105 2.7783718 3.2619438 4.53288
0000b0 e8 0e 8c 40 f4 b1 96 40 6c 20 51 40 45 bd 9b 40
       4.3768196 4.709223 3.2676039 4.866854
0000c0 38 e2 4f 40 2e 2d 7d 40 ba c4 b4 40 22 82 94 40
       3.2481823 3.9558825 5.6490145 4.6408854
0000d0 50 d0 3c 40 de 51 b1 40 5a f7 ab 40 74 52 46 40
       2.9502144 5.5412436 5.3739443 3.0987825
0000e0 0e 62 27 40 e8 a1 72 40 d1 5c 3e 40 34 9d 73 40
       2.6153598 3.791132 2.974415 3.80647
0000f0 a1 e5 20 40 79 f0 70 40 ae 10 3e 40 f4 4b 26 40
       2.5140154 3.7646773 2.969768 2.5983858
