results/RENet-dataset-Conv64F-5-5-Jan-08-2024-20-55-23/checkpoints/model_00010.pth (torch, 909453 bytes, 69 tensors)

emb_func.layer1.0.weight f4 [64, 3, 3, 3]
00000000: c663 a6be 44dd 95be 25fc 94be def7 d1be
00000010: d744 1fbe 614e 183e d456 823e f6c9 1f3f
00000020: 80be 353f 5d8c cabe d0fc 24bf 1a0e dfbe
00000030: 1096 1dbf b809 e9be 4861 30be 22fc 603e
00000040: 7cbc 063f 78eb 363f 90b8 12be 7af7 a7be
00000050: fe57 b0bd 12fb b2bd c629 16be 5e3d 2e3e
00000060: 55de 8b3e 0139 043f 17ef 3d3f f01b 40be
00000070: 0de1 4dbe a304 38be 0ab8 69be a90f a8bd
00000080: d589 8abe 560d 2abe eac4 33be 9325 3fbe
00000090: ca63 8ebd d477 ad3d 9143 55bc 1f0f b33c
000000a0: e6e5 63bc 2cbc ccbd d6e9 063d edec 53bd
000000b0: a536 9fbc 24cf 12bd cb7f bf3d ef0f 113d
000000c0: 3e25 a3bc 1b33 833d 4d1d 023e 0bf5 503e
000000d0: 8e23 4a3e 8c33 283e 6afd 143e 7481 1bbd
000000e0: cc0e 593d 31ba 85be 0834 89be 8011 80be
000000f0: fd7c 7bbe 89dd 95be cef6 d4be 4e20 b83e
00000100: 9a5c c33e 0643 983e b7de 343e bfd5 4f3e
00000110: c91b 773e 7443 403d 82ba 63be a537 34be
00000120: 601a 0e3e ff1e 443e 674c 4b3e 54b4 253e
00000130: 9e3d a93d 74ee 83bd 6054 d2bd a3d3 74be
00000140: 25be 8ebe 44a7 063f 944e 2b3f efaa f83e
00000150: f067 cb3d 3d06 19be c9ec 11be 19e6 94be
00000160: 4879 1dbf 11f7 49bf a019 d23e 1fc7 253f
00000170: ee03 413f e246 263e 6a2c 63be 23e9 16be
00000180: 98af 0bbd 8aa2 15bf 6862 43bf 0de9 343d
00000190: a95c d63e 158c f13e f4e6 9c3d fb0f 07be
000001a0: 2a45 3ebe ed92 353e 3bcb d7be 0aae f2be
000001b0: 687f 543e 3b40 423e afe2 ab3d 42e1 713e
000001c0: d59b 01be 461b f03d 3aee 2e3e 9d78 9bbe
000001d0: 45aa 0fbe 8882 293e eb8f 143e fa7a 163e
000001e0: 908a 3f3e 39cd 73bd f1cf 38bd 2854 453e
000001f0: bf60 88be 5866 d0bd 8510 e83b 165c 57bd
00000200: 19ed fbbc 0d61 88bd e502 31be ce73 0abd
00000210: a5bd c7bc dcf9 4dbe a228 693c 9cb9 be3d
00000220: 2ba2 393d 8a93 fabb 73b2 e23d ef6d 3b3d
00000230: 598a 613d af8e ba3d c4a6 8a3d c508 6cbd
00000240: ec25 0cbe 27c8 21be ddc4 49bd eb59 dfbd
00000250: 9d88 9cbe 4d27 b8be bc82 86be f529 a9be
00000260: 648f 74be 18a3 863e 846e 403e 07c9 e5bc
00000270: a173 3b3e 10fc 07be c090 aabd e399 993c
00000280: de36 3fbd 6f20 2dbd 9d16 09bf a05a 0ebe
00000290: 47b4 783e 98fb 00bf c6ce 833c b480 f53e
000002a0: d80f d3be 1482 ba3d ae5f ea3e f2ad c8be
000002b0: 6e97 fc3d 43c8 a33e dd26 1cbf fba4 1a3e
000002c0: f9a1 cd3e aa55 b4be 9842 3c3e 5f81 573e
000002d0: ba9c 9abe be7f 27bd 421f a53e 6678 f9be
000002e0: 53e7 253d 697a b73e ab13 cabe 3845 86bd
000002f0: 53bf 8e3d 4338 b33e f35b c63e 7a85 033f
00000300: 46fe b4be c6c8 7abe f813 8cbe 182f f8be
00000310: 719c 9dbe 82d8 33be 691d 8abc bca5 9e3d
00000320: 43aa 623e 859a 09be ef63 8fbe 1c0b 68be
00000330: 4b5d c7be 5a02 0ebd d41f 23be 3f02 1f3e
00000340: 127a f43d 670e 4e3e 43a9 5b3d d4b0 923d
00000350: eb9b 0a3e d1ba 1d3d 4f0c 893e a87d 8d3e
00000360: 2495 3fbf 2bf5 2abf 6e08 45be 6519 cbbe
00000370: 00a3 963d 6c2c ec3e 7f2e b83d 1153 b23e
00000380: f50f ea3e 29a0 00bf 6f4e 42bf 25f4 c3be
00000390: b23e 5abe 1084 dd3d e4cd bf3e 199f e43e
000003a0: c410 1d3f 42dc 593f 19f8 b8be 4f6a 35bf
000003b0: e370 aebe 42f4 9abe 9625 98bd 77b2 453e
000003c0: 4029 1b3e bda3 c23e 7596 ab3e c277 b23d
000003d0: 66ea 1a3d f31d 38be 5ffb 983d b02c 53be
000003e0: c73f f9bd 06e9 d7bc 6dc0 0bbe b99e 69bd
000003f0: db94 413e 32bd f6bc fc10 94bd e354 babb
-0.32497996 -0.29270375 -0.2909862 -0.4100942 -0.15553604 0.14873649 0.2545687 0.6241754
0.70993805 -0.39560214 -0.6444826 -0.43565446 -0.615571 -0.45515227 -0.1722461 0.21971181
0.52631354 0.71453047 -0.14328218 -0.32805997 -0.08610533 -0.08739294 -0.14664373 0.17015597
0.27318063 0.5164948 0.7419295 -0.18760657 -0.20105381 -0.17970519 -0.22824112 -0.08206112
-0.27058282 -0.1660665 -0.17555586 -0.18666677 -0.06952627 0.08470121 -0.013016597 0.021857796
-0.0139097925 -0.099968284 0.032937847 -0.051739622 -0.019435236 -0.035842076 0.093505464 0.035415586
-0.01991522 0.06406232 0.1270649 0.20405976 0.19740126 0.16425914 0.14549795 -0.037965253
0.052992627 -0.26118615 -0.2679751 -0.2501335 -0.24559398 -0.2927058 -0.41594547 0.35962147
0.38156587 0.29738635 0.17663084 0.20296381 0.24131693 0.04693933 -0.22239116 -0.17599352
0.13877249 0.19152449 0.19853364 0.16182071 0.08263706 -0.06441966 -0.102699995 -0.23908858
-0.27879444 0.5259898 0.66916776 0.48567912 0.09931934 -0.14943786 -0.14250483 -0.290818
-0.61513186 -0.7889262 0.41035175 0.6475696 0.7539662 0.16237977 -0.22184911 -0.14737372
-0.034103006 -0.5845114 -0.7632203 0.044167567 0.4186757 0.47177187 0.07661238 -0.1318969
-0.18581071 0.17731829 -0.4214724 -0.47398406 0.20751727 0.18969814 0.08392846 0.23621085
-0.12657101 0.11723952 0.17083064 -0.30365458 -0.14029796 0.165537 0.14508025 0.1469535
0.18705201 -0.059521887 -0.045120183 0.19270384 -0.2663631 -0.101757705 0.0070820474 -0.052578054
-0.030752705 -0.06659136 -0.1728626 -0.033801846 -0.024382422 -0.20114845 0.014230879 0.09312746
0.04532067 -0.0076469826 0.11069193 0.045759138 0.05506358 0.09109246 0.06770089 -0.05762555
-0.13686341 -0.15799008 -0.04926001 -0.10905822 -0.30572978 -0.35967484 -0.26271617 -0.33039823
-0.23882824 0.26296306 0.18792158 -0.028049959 0.18305828 -0.13279748 -0.0832839 0.018750137
-0.046683185 -0.04226726 -0.5355013 -0.13901758 0.2428752 -0.503839 0.016089808 0.47949755
-0.41223025 0.09106842 0.45776123 -0.3919521 0.123335704 0.31988725 -0.609968 0.15101998
0.40162638 -0.35221606 0.18384778 0.21045445 -0.30197698 -0.04089331 0.3225041 -0.4872467
0.04050381 0.3583558 -0.3946813 -0.06556171 0.06970086 0.35003862 0.38742027 0.51375544
-0.35350245 -0.24490651 -0.27358985 -0.4847343 -0.30783418 -0.1756306 -0.016859727 0.07746455
0.22135262 -0.13437851 -0.2800593 -0.22660488 -0.38938364 -0.03467021 -0.1593011 0.155282
0.119373456 0.20122682 0.053628217 0.071626335 0.1353604 0.03850824 0.26767203 0.2763493
-0.74836946 -0.66780347 -0.19241497 -0.39667812 0.073553085 0.4612764 0.089932434 0.34829
0.457153 -0.50244385 -0.7590093 -0.38272205 -0.21312979 0.108162045 0.3746177 0.44652632
0.6135371 0.8510171 -0.36126783 -0.7086534 -0.340705 -0.3026448 -0.07429044 0.1930636
0.15152454 0.38015547 0.33513227 0.08714248 0.037821196 -0.17980175 0.0746982 -0.20622516
-0.12170368 -0.026356231 -0.13647623 -0.057036135 0.1890444 -0.030119512 -0.07229802 -0.005686389

emb_func.layer1.0.bias f4 [64]
00000000: 5bcf 1d3d 573d cdbd e062 a03c ef5f d23d
00000010: a330 ac3d d2af da3d 913c 8a3d 2706 29bc
00000020: 6959 053d c069 55bd ecc2 d83d 03ba 7f3d
00000030: 94e8 babd e2cd dc3d 2f86 f2ba 139f b5bb
00000040: a9c7 0bbd 92c0 06bd de7f cc3b a455 79bd
00000050: 5f8b edbd 828a 83bd 3e45 cbbc c1d6 c03d
00000060: c8dc bb3d fb00 99bd e5e3 9cbb 0568 13bd
00000070: 279d 88bd 1e9f b3bc 4e36 31bd ccbc 8e3d
00000080: a44a 7dbd f727 9d3c 861b 90bd 3567 1fbd
00000090: fb07 c93d 0ebd 7abd b2ae f5bb 5be3 f33d
000000a0: 9cce 2e3d 4afb 81bd a452 99bd f719 33bd
000000b0: c7ef 1fbd de5d 5e3d e218 e3bc e85f d73d
000000c0: 811d 8cbd 42b5 1fbd c4f2 393d 3ef3 cb3d
000000d0: 4a48 f43d 717e a33c 0639 ac3b c1d3 64bd
000000e0: 9b49 903d fd05 94bd 8d3e 06bd 656f d5bd
000000f0: f07e f5bd d5bc 8e3d 99ca 0a3c 7792 cb3d
0.038527828 -0.10021465 0.019578397 0.10272204 0.08407714 0.10678066 0.067498334 -0.010316408
0.03255597 -0.052102804 0.105840534 0.062433254 -0.09126392 0.107814565 -0.0018503125 -0.0055426448
-0.034125958 -0.032898493 0.006240829 -0.06087269 -0.115988486 -0.06422903 -0.02481329 0.09415961
0.0917297 -0.0747089 -0.0047879093 -0.035987873 -0.066705994 -0.021926459 -0.04326468 0.06969604
-0.06183876 0.019184096 -0.070365 -0.038916785 0.09815975 -0.061215453 -0.007497632 0.11908599
0.042677507 -0.06346758 -0.074864656 -0.043725934 -0.03904703 0.054288737 -0.027721826 0.105163395
-0.06841565 -0.03899122 0.045397535 0.09958504 0.119278505 0.019957753 0.005255821 -0.055866007
0.07045289 -0.07227705 -0.032774497 -0.104216374 -0.11987102 0.069696106 0.008471155 0.09940045

emb_func.layer1.1.weight f4 [64]
00000000: b432 8e3f bda8 153f 50ff fe3e 2149 8b3f
00000010: 650d da3e 71fd fd3e 44ce 543f b124 423f
00000020: e3e6 a83f f4ab 893e 1cc3 863f 49c2 593e
00000030: a725 553e f21e e83e 9346 8a3e 49a9 fb3e
00000040: bb47 003f 5acb 4e3f 7890 053f ffb8 003f
00000050: 3362 ca3e 9307 da3e 4593 0c3f 014e e03e
00000060: fb3c 103f 3685 0d3f cfd1 8d3e 583b af3f
00000070: bdb4 cc3f 0dff f03e 033a 903e 642d dd3e
00000080: 673f 953f 59b3 8f3f aabd cc3e 3de3 1b3f
00000090: db6b 893e 8793 473f df2e 043f ed8d 303f
000000a0: 771a da3e 2df0 f33e 158e e83e 0076 803e
000000b0: 1018 5c3f c9a0 c03e d022 0f3f c4cd 7a3f
000000c0: e0da ed3e 2f19 353f f54e 423e 980e b93e
000000d0: da54 d33e b80d 2d3f 459b 233f 4528 b03e
000000e0: 5450 253f 1b51 c53e a0f2 303f db2e 7d3f
000000f0: 152c 413f 8b79 113f 8f83 9f3e 0dec 8f3e
1.1109223 0.584606 0.49804163 1.0881692 0.42588344 0.49607423 0.83127236 0.75837237
1.3195461 0.26889002 1.0528293 0.2126552 0.20815144 0.4533611 0.2700697 0.49152592
0.5010945 0.8077904 0.52173567 0.5028228 0.39528045 0.42583904 0.54912215 0.43809512
0.5634305 0.5528139 0.27699134 1.3689985 1.5992657 0.47069588 0.2816926 0.43198693
1.1659974 1.1226608 0.39988452 0.60893613 0.268401 0.77959484 0.5163402 0.6896656
0.42598316 0.47644177 0.454209 0.25090027 0.85974216 0.3762267 0.55912495 0.97970223
0.4645605 0.7074155 0.18975432 0.36143947 0.41275674 0.6759906 0.639088 0.34405723
0.64575696 0.3853844 0.69120216 0.9889962 0.7545789 0.56826085 0.3115506 0.2810978

emb_func.layer1.1.bias f4 [64]
00000000: 7100 083f 933a b5be cf2c 833e 25c3 123f
00000010: 02a3 61be e76a b6be 8a87 723e 446c ae3d
00000020: 6471 0f3f 29e3 bdbe 75cc be3e 7250 48be
00000030: e024 743e 6df7 debd 90c0 943e 818e cdbe
00000040: 3760 d7bd 24e3 973e 2a64 acbe e42d a9be
00000050: d240 5ebe 6363 d23d 867b b9be 9df8 853c
00000060: 9ae4 d6be d58c 7bbd ae25 c73d e5a2 3a3f
00000070: 1b1a 3dbd 2dad 873e a5ac 23bd 995e 5fbe
00000080: c2d3 273f 722f 1c3f df3b 3fbe 995d b8be
00000090: f0eb c93d 776a 233e 207f d3be 2e1c 83be
000000a0: e71b 64be 23e6 66bd 26bd b23d 17f4 74be
000000b0: 08c6 003f 7971 be3d 5f3e 48be 3f71 033f
000000c0: fc7d 95be a0d7 c1be 42e5 493e 7140 76be
000000d0: 9ca5 7c3e 5395 873e f230 b8be d3e5 1e3e
000000e0: 0c2c 96be e59f 6dbe 46ca 123e 2f8b 9b3e
000000f0: c890 d43e 2e75 ce3d 09c2 b9bd f8a6 71be
0.53125674 -0.3539625 0.25620124 0.57329017 -0.22034839 -0.35628435 0.23684517 0.08516744
0.56032395 -0.37087372 0.37265363 -0.19561937 0.23842192 -0.108870365 0.29053164 -0.40147784
-0.105163984 0.29665482 -0.3367017 -0.33042824 -0.21704414 0.10272863 -0.36227053 0.0163539
-0.41971284 -0.061413605 0.09723984 0.7290481 -0.046167474 0.2649931 -0.03995957 -0.2181343
0.6555749 0.61009896 -0.18675183 -0.3600891 0.09859455 0.15958582 -0.41307926 -0.25607437
-0.22276269 -0.05637182 0.087274835 -0.23921238 0.5030217 0.09298987 -0.19555043 0.51344675
-0.2919768 -0.3785982 0.19716361 -0.2404802 0.2467255 0.26481113 -0.35974842 0.15517358
-0.2933048 -0.23205526 0.14334974 0.30379626 0.4151671 0.10080944 -0.090702124 -0.2359885

emb_func.layer1.1.running_mean f4 [64]
00000000: 502c ce3d bc34 07bf 1c35 abbe c356 213d
00000010: 96d1 363e 5355 3f3e 1ebf 8fbd c016 47be
00000020: 6d0d 02be 6c38 eebd 130b ae3c d7f1 babc
00000030: 3309 393b bd96 c43c 6bf3 d53e af05 e43e
00000040: c8f2 60be 15ee ddbd b1f8 85be aa85 acbd
00000050: fcce 50be c601 d93d 834d c1be fd63 afbe
00000060: 3c16 26be 7937 17bf 9643 3c3e 0fb3 0a3d
00000070: 66d8 95bd 9329 cebe f72a e73d 913b 3cbe
00000080: 7e34 8dbe 4d7e 38be e457 c6be 5b1c fdbe
00000090: ceb4 483e 2a76 43be f81b fe3d 3917 6d3e
000000a0: dc8e 62be 812c a6be 696f fbbe 7fda 4c3e
000000b0: 6d54 113e 910e 0a3b 8f54 f2be 8557 1e3d
000000c0: 3694 03be 0c9b 0abf 7f27 983e 4f33 943e
000000d0: f97d 133e 3be3 f5bd d76d e6be f161 b7bb
000000e0: 9037 d1be c160 533e f709 4ebe acf1 b5bd
000000f0: e3db dfbd 6326 bfbe 3470 163e 7c8f 6fbe
0.10067046 -0.5281484 -0.33438957 0.039389383 0.17853388 0.18684892 -0.070188746 -0.19442272
-0.12700434 -0.11631855 0.021245515 -0.022820396 0.0028234243 0.023997659 0.41787276 0.44535586
-0.21967614 -0.10836426 -0.261663 -0.08423932 -0.20391458 0.105960414 -0.3775445 -0.34255973
-0.16219419 -0.5906902 0.18385157 0.03386217 -0.07316665 -0.40266094 0.11287492 -0.18382098
-0.2757911 -0.1801693 -0.3873893 -0.49435696 0.19600222 -0.19088045 0.12407678 0.2315339
-0.22124809 -0.3245583 -0.49108437 0.20005225 0.14192362 0.002106581 -0.47330138 0.038657684
-0.12849507 -0.5414283 0.29717633 0.28945395 0.14403524 -0.120062314 -0.45005676 -0.0055963923
-0.40862703 0.20642377 -0.20120989 -0.08883986 -0.10930612 -0.37333974 0.1469124 -0.23394579

emb_func.layer1.1.running_var f4 [64]
00000000: 8f6e 7440 b0b0 d33f 5245 9b3f 1096 8240
00000010: 2275 b93e 5341 a53f 47d9 3840 2915 a73f
00000020: c75d a840 9c4d 583f 9a07 3840 3395 f03f
00000030: b2ea b43f ee02 3040 5363 a53f 1add 4940
00000040: b80c 3640 159e 0540 1054 4e3f bcb7 b33f
00000050: ce8e 863e 5cce 483f 72fb b13f 0129 c240
00000060: dda3 353f 6a3b bb3f 2ce7 703f 4e91 bc40
00000070: 614b 0341 8195 973f b773 1c40 acec 4a3f
00000080: f3d0 3540 c57c 4040 e0ea fb40 fdd4 e13f
00000090: d0f2 de3f c354 0a40 e052 de3f 70a0 8a3f
000000a0: 0f3b 8c40 7a56 713f 46bc 0240 e942 a640
000000b0: e65f 3d40 0020 3e3f c480 b63f b0e8 2640
000000c0: d8c2 f53f e39a dd3f ebc1 7f3f 26fe 0e40
000000d0: 0541 873f e905 923f 5681 ad3f b1b8 463f
000000e0: bb7a f03f ef77 423f 1f62 993f 8243 2d40
000000f0: 8817 e73f b8bf 2840 5a9d e63f 4b3b 863f
3.819248 1.6538296 1.213053 4.080818 0.36222178 1.291056 2.8882616 1.3053333
5.2614474 0.8449342 2.875464 1.8795532 1.4134123 2.7501788 1.2920936 3.15412
2.8445263 2.0877736 0.8059702 1.4040446 0.26280826 0.7843988 1.390486 6.0675054
0.7095316 1.4627507 0.9410274 5.8927374 8.205903 1.18425 2.4445627 0.7926738
2.8408782 3.0076153 7.8724213 1.7643124 1.741785 2.1614234 1.7369041 1.0830212
4.3822093 0.9427258 2.0427413 5.1956677 2.9589782 0.7426758 1.4258046 2.607952
1.9200087 1.7312893 0.9990527 2.234262 1.0566717 1.1408054 1.3555095 0.77625567
1.8787454 0.75964254 1.1983069 2.7072453 1.8054056 2.6367016 1.801677 1.0486845

emb_func.layer2.0.weight f4 [64, 64, 3, 3]
00000000: 8c33 be3d 3ac1 d93d 1b8b e63d 0bb2 b23c
00000010: 5b56 a43c dceb 69bc c54c db3c db44 9cbc
00000020: 3c7a 28bd 5b10 343c c431 57bc 9767 373b
00000030: 1667 24bc d217 333c 51d3 9dbc 9f65 d4b9
00000040: 1224 6ebc 61d5 843c e3dc 54ba 3fa7 953c
00000050: 0860 8a3c 7aaa 413d 7a3c 213d 2e44 4d3d
00000060: 1650 4b3d 4700 133d b137 5b3d 690e 32bd
00000070: a7d4 31bd 5746 2ebd 3501 a9bc 808b 29bd
00000080: e6f6 99bd daad c6bc b9b7 76bc dedf e83b
00000090: 0b01 67bd 38ae 26bd ba57 a2bd fd45 91bd
000000a0: 8004 aebd 99b5 93bd 3dba 12bd 4670 a4bd
000000b0: 4090 23bd 19b7 963a 31e4 24bd 80b9 b1bc
000000c0: a3c1 7cbd 3bf5 94bd d135 9dbd 8f93 38bd
000000d0: baa2 a5bd be1f b8bd 1cfd 843c 6575 88bb
000000e0: 344c bb3c ac91 9f3c c7f6 b23b eb83 00bd
000000f0: b660 143d 7145 9dbc 5b95 c23a c77b 503d
00000100: f510 2e3d 0213 223c 1d09 833d 246d 973d
00000110: dbda ba3b 7632 aa3d c29e 603d ba34 3e3d
00000120: e8ed 5c3d 066f 9f3d daad cb3d e904 253d
00000130: 5182 1c3d 221e b4ba a049 763d 4b7e 75bc
00000140: f43b 07bd 2331 5b3d bd41 2b3d d0df 7c3c
00000150: 1bc7 1b3d fbdd d9bb 7720 663c 6657 4a3c
00000160: 539e 0c3d 0684 b3bb 1ba6 aebc e9d1 e7bc
00000170: 5d8e 88bb 0874 44bd 6cad 19bd 3e8d afbd
00000180: c01a 8bbc 5774 c6bc 3345 d4bc 2ee4 113d
00000190: 3fd6 eb3c 7156 4dba 3b28 c1bc 22c2 5abc
000001a0: 554b 93bc 1f69 26bb 3fc3 fe3b 8a0c 213c
000001b0: c90e bf3c df4a d13c 1ba0 b13b 0db2 693c
000001c0: 0a07 e13c ab45 8e3c 5a9f d13b 1255 8f3c
000001d0: 85b4 c3ba e003 33bd 6a6a 9bbd da6b a3bd
000001e0: f6df 3ebd 4938 e2bd 1316 bfbd cbe8 34bd
000001f0: 5833 cbbd 9d2c c0bd 0a60 b0bb 9253 123c
00000200: 2b9c 9dbc 4676 1fbd 051c 95bc 916b 133c
00000210: aef2 96bc 9335 973b e375 28bc 66d7 67bd
00000220: 490f 55bd 56cb 3ebd 3d7c b7bd 8a35 a2bd
00000230: aaa2 4ebd 8ddd 20bd 2baf 1dbd 3f40 4fbd
00000240: a692 fe3c b336 c93c 822b bcbc 687d 773c
00000250: 5dd6 a93c 2b42 ef3c 983b 093c f660 0b3d
00000260: 1ac2 ea3c f0bc 22bb 245c a5bc 38c8 c5bb
00000270: 0847 093b fea8 66bd 3a1f 6dbd 1123 a7bc
00000280: 13e4 19bc 4a85 24bd a6fb 983c 6f82 1f3c
00000290: 7985 4e3d c6ae 873c 4077 993c cf54 333d
000002a0: 0f62 463d ea34 a23c 4ee5 313c 4403 d5ba
000002b0: 3445 44bd de29 3ebd f37f 80bd f821 abbd
000002c0: 4ac8 c7bd 1f9f 8dbd 28b2 cbbd a887 a9bd
000002d0: 8ebd be3a fba7 16bd 655a dcbb f1ec e9bc
000002e0: 789e b0bc 0eba 98bb f44a f1bc c54c 42bd
000002f0: 13ef 5abd 171f 39bd 00c5 04bd d210 39bd
00000300: 9fdd 46bc eb8a 27bd ae43 e3bc a37c 8cbd
00000310: 9ba6 e8bc d798 213b 0368 71bc 2efd 82bc
00000320: 5364 003d f640 5f3c 8685 6d3b a232 4c3d
00000330: 83e6 85ba c4bf 05bb 5d79 3c3c c331 d9bb
00000340: ab85 11bd d14e 81bd dc47 bbbc cefa 1dbd
00000350: b18e 1fbd d48c 88bd 7c58 86bd 8ed5 2abd
00000360: 2d86 743c 6b6e 263d f611 48bc 20da 263d
00000370: fd35 b4bc cb20 cc3b f45e f83c 74c7 1cbc
00000380: c82f 7cbb 069c 833d f0bf ea3c ae6a 883c
00000390: 029a 503d 4cb6 523d e5b8 903d 6686 0c3d
000003a0: 4cb3 893d 7ea6 783d 1c32 103c 4850 e6ba
000003b0: 3672 cc3c f9e7 c6bb eb21 91bc 7329 a43b
000003c0: 3e84 54ba 230b 33bc 797b 20bc b068 ba3d
000003d0: d807 f13d 629d c03d 1696 003d 4512 973c
000003e0: 0fda fcbc 192f c53c f03a e63c 15c7 cebb
000003f0: 523d e93c 440c ccbc 8a2b d3bc 41c9 2a3d
0.092871755 0.10632558 0.11257001 0.021813413 0.020060709 -0.014277425 0.026770005 -0.019075802
-0.041132197 0.010990228 -0.013134424 0.0027985328 -0.010034343 0.010930972 -0.019265803 -0.00040511505
-0.014534967 0.016215028 -0.0008120073 0.018268226 0.016891494 0.04728172 0.039364316 0.05011385
0.049636923 0.035888936 0.05351991 -0.043470774 -0.04341569 -0.04254755 -0.020630458 -0.041392803
-0.07517795 -0.02425282 -0.015058451 0.007106765 -0.05639748 -0.04069349 -0.07926889 -0.07093427
-0.08496952 -0.072123714 -0.035822142 -0.08029227 -0.03993249 0.0011498659 -0.040256683 -0.021694899
-0.061708104 -0.072733365 -0.0767628 -0.045062598 -0.08087678 -0.08990429 0.016233973 -0.004164385
0.022863485 0.019478641 0.005461547 -0.031375807 0.036225043 -0.019198151 0.0014845537 0.050899293
0.04249664 0.009892227 0.063982226 0.07393864 0.005702359 0.08310406 0.054838903 0.046437003
0.053937823 0.07784848 0.09945269 0.040287886 0.038210217 -0.001374189 0.060128808 -0.014983724
-0.03301616 0.053513657 0.04181074 0.01543422 0.03803168 -0.0066487766 0.014045826 0.012349939
0.034330677 -0.005478385 -0.02131944 -0.028298335 -0.0041673617 -0.04796222 -0.037518904 -0.08571862
-0.016980529 -0.024225397 -0.025911903 0.035618 0.028788684 -0.000783301 -0.023578754 -0.013351949
-0.017980257 -0.0025392247 0.00777474 0.00982965 0.02332248 0.025548397 0.0054206974 0.014263642
0.027469177 0.017367205 0.00639717 0.01749662 -0.0014931118 -0.043704867 -0.07588656 -0.079795554
-0.046600305 -0.11045892 -0.09330382 -0.04416732 -0.099219024 -0.09383509 -0.0053825425 0.0089310575
-0.019239506 -0.038931154 -0.018201837 0.008997814 -0.018426266 0.004614541 -0.010282013 -0.056601904
-0.05201653 -0.046580635 -0.089592434 -0.07920368 -0.050448097 -0.039273787 -0.03849713 -0.05059838
0.031075787 0.024562215 -0.022969965 0.015105583 0.0207321 0.029206356 0.008376025 0.034028016
0.028657008 -0.0024831854 -0.020185538 -0.006035831 0.002094688 -0.056313507 -0.057891108 -0.020402463
-0.009392756 -0.040166177 0.018674683 0.009735688 0.05042026 0.01656283 0.01873362 0.04378205
0.04843336 0.019800622 0.010857893 -0.0016251584 -0.04791756 -0.046426646 -0.062744044 -0.083560884
-0.09754999 -0.069151156 -0.0994609 -0.082778275 0.0014552341 -0.036781292 -0.006724643 -0.028555365
-0.021559939 -0.0046608513 -0.029454686 -0.047436494 -0.053450655 -0.045195665 -0.032414436 -0.045182057
-0.0121377995 -0.040903967 -0.027742233 -0.0685971 -0.028399756 0.002465775 -0.014734271 -0.015989866
0.031345677 0.013626328 0.0036242916 0.049852975 -0.0010215793 -0.002040849 0.011503545 -0.0066282465
-0.035527866 -0.06313861 -0.022861414 -0.038569264 -0.03895444 -0.06667486 -0.06559846 -0.041707568
0.014924568 0.040632647 -0.0122113135 0.040735364 -0.0219984 0.006229495 0.030318715 -0.009569038
-0.0038480628 0.064262435 0.028655976 0.016652431 0.050928123 0.051443383 0.07066516 0.03430786
0.06723651 0.060705654 0.0088010095 -0.0017571533 0.024956804 -0.0060701338 -0.017716369 0.005009824
-0.0008106864 -0.010927948 -0.009795063 0.09101999 0.11769074 0.094050184 0.031393133 0.018441329
-0.030865697 0.02407031 0.028104275 -0.0063103535 0.028471623 -0.024908192 -0.025777597 0.041695837

emb_func.layer2.0.bias f4 [64]
00000000: 8a0f 83ba c1af 903c a387 d4bc 34d7 0abc
00000010: fa2c 653c 8715 c8bb b2fd 8e3c a63a 183c
00000020: 4fb3 983b 6779 73bb 9699 d5bb 47b7 b7bb
00000030: 0609 1ebb ee6c 6ebc 79eb fbbb c8b8 7b3c
00000040: 5781 9a3c b61f a23b ef9a 873b 9286 bdbc
00000050: f472 b43b d98d b83c 0f48 3fbc 0448 dcbb
00000060: 21a7 d63c 0c9b 853b 9829 ad3c 7cf7 efbb
00000070: 7c4b c7bc 9e12 193b 42ff aabc 427f 3ebc
00000080: 3ca1 193c 597b ccbc 430f 703c 000a cb3c
00000090: 033a cf3c 7611 c0bc 8428 dbbc 5353 31bc
000000a0: abdd 0a3b 0aa0 58bc 835f 9b3c a389 c93c
000000b0: ec93 e93b 4f3c 84bb 081c cabc 4ed6 853c
000000c0: 6dbf 80bb 4e64 973c d8e1 283c e3e1 933b
000000d0: 7de8 a3bc 591b 8f3c a27f a93b 5c3b ad3c
000000e0: bce2 a63c e4c6 68bc c837 a9bc 7197 d0bc
000000f0: 8250 15bc d678 16bc b73b e63a 840a 6a3c
-0.0009999138 0.017661931 -0.025943583 -0.00847416 0.013987774 -0.006106082 0.017454956 0.009291327
0.004660047 -0.003715122 -0.006518553 -0.005606565 -0.0024114265 -0.014552338 -0.0076879826 0.0153638795
0.018860502 0.004947628 0.0041383426 -0.023135457 0.0055068675 0.022528576 -0.011674895 -0.006722452
0.02620274 0.004077321 0.021137998 -0.0073232036 -0.024327986 0.0023357044 -0.02087367 -0.01162702
0.00937682 -0.02496116 0.014652076 0.024785042 0.025296217 -0.023445826 -0.026752718 -0.010823089
0.0021189253 -0.01322175 0.018966442 0.024601763 0.0071282294 -0.0040355097 -0.02467157 0.01633754
-0.0039290697 0.018480446 0.010307752 0.004513012 -0.02000832 0.017469095 0.0051726857 0.021146469
0.020371787 -0.0142075755 -0.020656481 -0.025462838 -0.009113433 -0.009184083 0.0017565404 0.014284734

emb_func.layer2.1.weight f4 [64]
00000000: 2b64 db3e d1fb 1f3f b105 493f c7d1 1d3f
00000010: fcc6 e23e c89d 1b3f 3e63 643f 53e3 f53e
00000020: 7aed 6a3f 1a19 f53e 8b36 613f 105e 973f
00000030: 216d c73e 069a 0e3f b8ef 8c3f 6758 273f
00000040: 6e0d 913f f856 033f a1db 313f 0377 2e3f
00000050: 52e4 383f 1915 1e3f 9e8a 733f 2020 313f
00000060: b746 493f 23c9 383f b432 123f 6bc6 463f
00000070: a1dd 0b3f 6b55 4e3f 2e60 143f ce57 1f3f
00000080: 74d9 1f3f 5525 133f 9732 2d3f 2821 853f
00000090: 824a 283f 0c95 0d3f 8b36 793f 7e7b 423f
000000a0: 1620 5a3f 56c1 1c3f c612 403f 5341 393f
000000b0: d494 873f 9527 dc3e e415 d33e e8c6 493f
000000c0: f898 a23f 2af0 2f3f f4f8 763f 6c1f 4e3f
000000d0: bbc9 923f 0179 283f f044 393f 18be 283f
000000e0: ec56 603f 5ab2 783f c4bb 563f 421e 1a3f
000000f0: b5ac d03e 1664 233f 1fb1 743f 8981 513f
0.4284986 0.62493616 0.7852431 0.6164822 0.44292438 0.6078763 0.8921393 0.48024997
0.9176861 0.47870713 0.8797385 1.1825581 0.38950446 0.5570377 1.1010656 0.65369266
1.1332223 0.5130458 0.6947575 0.6815035 0.7222339 0.6175094 0.9513339 0.69189644
0.7862353 0.7218191 0.57108617 0.7764651 0.54635054 0.8059909 0.5795926 0.62243354
0.6244118 0.5747884 0.6765532 1.0400743 0.6573869 0.5530555 0.9734885 0.75969684
0.8520521 0.6123251 0.75028646 0.723653 1.0592294 0.4299895 0.4122764 0.7881913
1.2702932 0.68725836 0.9647362 0.80516696 1.1467813 0.6580964 0.72370815 0.6591506
0.8763263 0.9714714 0.8388026 0.6020242 0.40756765 0.63824594 0.95582765 0.8183828

emb_func.layer2.1.bias f4 [64]
00000000: 7507 16be 7a08 5cbb cf2e 243d fbdf eebe
00000010: 1fa6 bbbd 9bbf 3dbe 8077 cdbd aa3f 93bc
00000020: 5d6e eebe 150e 473c b4e8 7cbd f52c 56be
00000030: a72b 63be f033 103d 14ae 1dbe c3cb 5ebe
00000040: 18a6 a6bd 7fcc 8ebe 241f c3bc d8fa 72be
00000050: b9c3 9a3d c2a6 433d a917 8dbe 9825 5ebd
00000060: 166f 263c cc5e ad3c 7aae a6be 4640 67bd
00000070: ce3c 94be 106c ab3c 8324 343e 5b03 73be
00000080: 70fd 53be db9f 4cbd 17eb 72b9 63ef a7be
00000090: 5bcc c13e f2ec 9cbd f781 62be 189d 303e
000000a0: ddcf 8bbe b9fc 0cbe 2ed9 87bd c3ee eabd
000000b0: 7202 51be e5d9 b5be 5e43 8fbd 1e25 b5be
000000c0: c139 eebe 08c9 3ebe 2ab4 d7bd 2665 103d
000000d0: 7b4a aa3d c529 80bd a0a2 0bbf 4a17 153e
000000e0: 47c2 05be a28f 8bbe d274 47be 9776 0bbe
000000f0: b13a a2bd f311 033c 1b1f 8abd 7666 7abd
-0.14651282 -0.0033574388 0.040083703 -0.4665526 -0.091625445 -0.18530123 -0.100325584 -0.017974693
-0.46568576 0.0121493535 -0.06174536 -0.20915587 -0.22184621 0.03520578 -0.15398437 -0.21757416
-0.081371486 -0.27890393 -0.02381856 -0.23728502 0.075568624 0.047766455 -0.27557114 -0.05423507
0.010158321 0.021163367 -0.3255499 -0.05645778 -0.2895264 0.020925552 0.17592053 -0.23731749
-0.20702147 -0.049957138 -0.00023166496 -0.32799825 0.37851223 -0.07662381 -0.2211989 0.17247427
-0.27307025 -0.13768281 -0.066332206 -0.114713214 -0.20411089 -0.35517803 -0.06995271 -0.3537988
-0.46528438 -0.18631375 -0.105324104 0.035252713 0.08314987 -0.06257967 -0.5454502 0.14559665
-0.13062392 -0.2725802 -0.19478157 -0.13619457 -0.07921351 0.007999885 -0.06744214 -0.06113287

emb_func.layer2.1.running_mean f4 [64]
00000000: 0380 eebf 0bc6 3d40 dad4 bdbf 1949 d840
00000010: 0b6e df3f ee54 f33f 742d 22bf e509 2f40
00000020: 99c7 b5c0 cd6b 5bbf 5c0f dcbf b91d 5ec0
00000030: 91f5 073f 7cfb b9bf 47d4 cdbf 4d20 98c0
00000040: f226 33c0 d7c8 48c0 660d 6dc0 8c6b 173f
00000050: 3fca 98bf 5a7e 64be 72ce 92c0 41fc 78c0
00000060: 7afe ecc0 f8fa bbbf 797e c5bf 139c 72bf
00000070: 7ad0 7ebe 1dd3 49c0 3644 24c0 bded cebf
00000080: 0cf6 fbbf f162 53c0 d2b3 50bd 091d 8ebf
00000090: 6dec 79c0 fec0 09c0 6bfc 24c1 4d95 92c0
000000a0: 0111 09c1 b855 8a3c 783a c0bf 751b f83e
000000b0: 4147 14c0 e0f1 cabe 8caa 1140 15cf 3ac0
000000c0: 2c67 80c0 44c7 ad3e 8b8f 14c0 5976 b0bf
000000d0: 4059 4abf 0839 18bf f017 ad40 785e ffc0
000000e0: 540f c8c0 11b1 4bc0 3c85 2ec0 ba11 4dc0
000000f0: 3e29 f73f 16dc d4bf 1960 b8bf 511e 01bf
-1.8632816 2.9652126 -1.4830582 6.758923 1.7455457 1.9010293 -0.63350606 2.734979
-5.680615 -0.85711366 -1.7192187 -3.4705641 0.5310908 -1.4529872 -1.6080407 -4.753943
-2.799252 -3.1372583 -3.7039428 0.5914848 -1.1936721 -0.22313824 -4.587701 -3.8903964
-7.406064 -1.4685965 -1.5429221 -0.947694 -0.24884215 -3.1535103 -2.5666633 -1.6166302
-1.9684463 -3.302914 -0.05095274 -1.1102611 -3.9050553 -2.1524043 -10.3116255 -4.580725
-8.566651 0.016886577 -1.5017843 0.48458448 -2.316849 -0.3963766 2.2760344 -2.9188893
-4.012594 0.3394109 -2.3212612 -1.3786117 -0.79042435 -0.5946202 5.409172 -7.980282
-6.251871 -3.1826823 -2.726882 -3.204207 1.9309461 -1.6629665 -1.4404327 -0.50436884

emb_func.layer2.1.running_var f4 [64]
00000000: ae77 9c40 5ad4 2441 111f 2a41 fae8 e040
00000010: ea71 8840 3850 a540 1448 1b41 1863 9440
00000020: bc88 f740 5368 4440 14b7 7441 04bb 0f42
00000030: 67be f53f 705e 1741 d98f 4e41 2a0d cd40
00000040: c2b7 a641 abea 5040 6243 d940 33af c440
00000050: d90b 5741 ba16 1241 459c 3241 0f56 cd40
00000060: 0f08 5141 3fbe 8d41 3e1e 9c40 bb31 9441
00000070: d833 1d40 e1a8 8341 6173 5c41 22e8 8e40
00000080: 4009 8c40 f9f2 ef40 8cb9 0641 aeaf a140
00000090: feb4 2a41 576e 7a40 df2e 9e41 66b5 2041
000000a0: 52ed 4e41 7ffa ac40 32b8 4441 f4e8 9440
000000b0: 9e38 d841 aa4e 5640 2efe 6440 f58d 2741
000000c0: 9c9a d341 17c0 bc40 385a 3541 b652 8641
000000d0: d1b6 e541 9878 9a40 3653 ff40 28c8 5141
000000e0: 7680 3641 56fb 6741 ad9e 1f41 3738 9740
000000f0: b11e b740 ac39 d040 e85f e641 52fe 0741
4.8896093 10.301844 10.632585 7.0284395 4.2639055 5.1660423 9.705097 4.6370964
7.735441 3.0688674 15.294697 35.932632 1.9198731 9.460556 12.910119 6.407857
20.839725 3.264323 6.7894754 6.1463866 13.4403925 9.1305485 11.163152 6.416755
13.064467 17.717894 4.8786917 18.524282 2.4562893 16.45746 13.778169 4.4658365
4.376129 7.4984097 8.4203 5.0526953 10.669188 3.9129846 19.772886 10.044287
12.93294 5.405578 12.29497 4.6534367 27.027645 3.3485513 3.578014 10.4721575
26.450493 5.8984485 11.334526 16.790386 28.714266 4.827221 7.9789076 13.111366
11.406363 14.498861 9.976239 4.725612 5.7224965 6.50704 28.79683 8.49959

emb_func.layer3.0.weight f4 [64, 64, 3, 3]
00000000: bf51 a639 1078 96bb bb5a a8bc c775 a03d
00000010: b486 6c3d f3d5 903d e29f eb3c 1d43 163d
00000020: d1f2 8f3d 115b dbbd f2ac 9cbd d741 2cbc
00000030: ec0a ddbd 98e4 84bc 77a7 7dbd 0281 b2bd
00000040: 10cf 4abd 1695 dbbd c262 a3bd 671b e5bd
00000050: bbd2 37bd 2cd9 9bbd 01fc e8bd 7f06 d5bd
00000060: ee94 9dbd 1524 f9bd 1dfb e8bd 3a48 36bd
00000070: 20c7 1fbd 9153 bebc 0810 b2bb c9b2 17b9
00000080: acac 74bc 671b 2abd 000d abbc 6837 f6bb
00000090: 1f60 2ebd acb1 8bbc 1b9f f63c b406 d5bb
000000a0: 4297 b3bc f48f 48bd 2a68 ddbd e22c b1bd
000000b0: 8a1b aebd ee30 87bb 4b16 903c deb7 f4bb
000000c0: 605a 2f3d 0c8f 143d 7d28 053d 38f1 f7bc
000000d0: 057f 32bd 2851 74bd 1f94 49bd d5cd 1fbd
000000e0: 690e 4abc 43d7 2cbd 28d0 51bb f87d 61bc
000000f0: 16cd 27bc ba3e 4bbd 23b8 4539 e732 a73c
00000100: a2b9 4f3b eaae 263d 3a08 253d e860 333d
00000110: 0ce4 843d 80da 90bd bb56 3abc c8bd 61bc
00000120: 8fbf a13b f2ca 7b3d f9e5 aa3c 6479 243d
00000130: fa04 543d 5d29 153d bcc5 4f3d 08f6 193d
00000140: e688 153d 64cd 00bd d508 2e3c 3955 0cbd
00000150: 1106 243d bc77 083d 9c7d 893d 8be7 4a3d
00000160: 0058 953d 33f0 373d 4c21 0dbe 0883 b5bd
00000170: 94f7 0fbe d55c 14bd d3ba 09bd 113d 0ebd
00000180: 0de1 e23c 2461 c83c 4c12 333d 4f7c 9cbb
00000190: 2efb 99bb 0507 22bd 4d8c ba3d 0f3d 813d
000001a0: 0b2b ed3c a346 92bd 870f 54bd 313b b8bd
000001b0: 12c5 1f3d a1e1 283d b3ef 213d 1289 a83d
000001c0: 3cfc d53d c0a6 a53d 6478 743d 2c73 8b3d
000001d0: 1133 b33b 7ce9 ecbb 872b 97bd e799 0cbd
000001e0: e463 5bbd d19e 38bd 561c 5bbd 757d 42bd
000001f0: 1d9f b4bd 4e8d 71bd cb02 38bd 683c 06bd
00000200: aae5 c73c 1f73 5cbd c895 3a3d 098e 7f3d
00000210: 4521 63bd 222a 953a 7224 073d 1f8a 233a
00000220: 0115 683a ef57 b73c c2f5 5439 de83 5bbd
00000230: adfa 9f3c 557e e2bc fc08 4dbd 26f7 c93c
00000240: b50e 86bd f87c a33b e9a6 703d d483 77bd
00000250: f8da 5ebb bb59 ce3d 1b57 533d 30f8 e43d
00000260: fef0 063e 70ce 47bc 75aa a439 76d5 f8bc
00000270: 4248 d8bc fd70 55bd 298a 7fbc 1294 09bd
00000280: f87f 273c 4b12 91bc 3fdb 9a3b 5531 12bc
00000290: 7d53 5cbc 1387 893d ab5a 193d f1a9 443d
000002a0: c53f a03d d119 683c c61e 703c 72a5 033d
000002b0: 7314 3c3d a885 6db9 6547 ebbc 2828 80bb
000002c0: f5ac 16bc e2ec 80bd dfe0 81bd 54c2 9bbd
000002d0: e7f5 99bc f2d6 bc3b 7742 933c 26fd 4bbc
000002e0: 607b ee3c 0aff 403b cfde 6ebc b6f9 f9bc
000002f0: 3600 e1bd a5d7 8a3d 648e aa3d dca5 413d
00000300: c90d c43d d1a3 f83d da58 4a3d 3d53 253d
00000310: 77f9 a93c 0151 173d 9f08 93bb 7410 a03c
00000320: 7aed b23c a5b9 5abc ff2c 0e3c 1b07 06bd
00000330: e504 03bd bb54 febc a3f3 ecbc 3f33 88bd
00000340: 6471 47bd bf50 08bd 6dab eabc 1d87 7cbd
00000350: 2043 4dbd e119 c03c deee 25bd 1372 05bd
00000360: 6e45 17bd 8741 0dbd 2a76 91bb a2ca 37bd
00000370: fe6b 00bd 9b10 a0bc 7b40 043c 5b17 f8bc
00000380: 2fe0 06bc b4bc c1bc 7afa 5fbd 06d5 0abd
00000390: 5e01 e93b 5fb5 8b3c d92c 6cbd d617 89bd
000003a0: 3e5e 82bd ef81 b5bd 48db 13bd 5a45 86bc
000003b0: 0f88 98bc 46b4 e73c 4da7 263d 1c5e 113d
000003c0: dff8 44bd f57d d63b 4407 363b 50ed 973d
000003d0: 6e70 6c3d 7495 463d 012c 683d da27 b93d
000003e0: 855e 2d3d 7584 01bd 1ac1 963c 6a05 5cbd
000003f0: eacc 3c3d 918d 8a3c 59d7 343d 8c88 4d3c
0.00031722893 -0.0045919493 -0.020551076 0.07834964 0.05774565 0.070720576 0.028762762 0.036685098
0.070287354 -0.10710729 -0.07650174 -0.010513744 -0.10793099 -0.016222283 -0.061927285 -0.087160125
-0.049513876 -0.10721795 -0.07977821 -0.11186867 -0.044878703 -0.076097816 -0.11376191 -0.1040163
-0.07694422 -0.12165085 -0.11376021 -0.044502474 -0.03900826 -0.023233207 -0.00543404 -0.00014467085
-0.014933746 -0.04153004 -0.020880222 -0.007513929 -0.042572137 -0.017052494 0.030105164 -0.006501043
-0.021922711 -0.04896541 -0.10810883 -0.08651139 -0.085013464 -0.004125706 0.017588755 -0.0074682077
0.042810798 0.036269233 0.032509316 -0.03026639 -0.043578167 -0.05964771 -0.049213525 -0.039014656
-0.012332537 -0.042197477 -0.003201494 -0.013762943 -0.010241767 -0.049620368 0.0001885598 0.020410014
0.003169634 0.040694155 0.04029105 0.04379359 0.06488809 -0.070729256 -0.011373217 -0.0137781575
0.0049361656 0.06147284 0.020861613 0.04015483 0.05176256 0.0364164 0.050725684 0.03758815
0.03650751 -0.031445876 0.010622223 -0.034260962 0.040044848 0.033317313 0.06713411 0.049537223
0.07292175 0.044906806 -0.13782233 -0.08862883 -0.14059287 -0.036221344 -0.033625435 -0.034726206
0.027695203 0.024460383 0.04371862 -0.004775561 -0.0046991324 -0.039557476 0.091087915 0.06310474
0.028951189 -0.07142379 -0.05177262 -0.08995665 0.0390063 0.0412308 0.039535236 0.08229269
0.104485005 0.08088446 0.059685126 0.06809077 0.005468734 -0.007229982 -0.07381349 -0.03432646
-0.05356206 -0.045073334 -0.05349382 -0.047482926 -0.08819411 -0.05897265 -0.04492454 -0.03277245
0.024401505 -0.053820726 0.045553 0.062391315 -0.05545165 0.0011380354 0.03299374 0.0006238538
0.00088532275 0.022380797 0.00020309447 -0.053592555 0.019528711 -0.02764813 -0.050057396 0.024653982
-0.06545774 0.0049892627 0.058752928 -0.060428455 -0.0034005027 0.100757085 0.051596742 0.111801505
0.13177869 -0.012195215 0.00031407518 -0.030375224 -0.026401643 -0.052109707 -0.015596905 -0.033588476
0.010223381 -0.017708918 0.004725843 -0.0089228945 -0.0134476395 0.067152165 0.037439983 0.04801363
0.07824663 0.014166311 0.014655774 0.032140203 0.04591794 -0.00022651872 -0.028720567 -0.003911037
-0.00919651 -0.06295182 -0.06341719 -0.076054245 -0.018794013 0.005762928 0.017976029 -0.012450492
0.029111564 0.002944889 -0.014579489 -0.03051458 -0.10986368 0.06779412 0.0832794 0.047277316
0.09572942 0.121406205 0.04940114 0.040362585 0.020748837 0.036942486 -0.0044871117 0.019539095
0.021841753 -0.013349925 0.00867772 -0.03272162 -0.03198709 -0.031046262 -0.028924769 -0.066503994
-0.048692122 -0.03328013 -0.028646195 -0.06165229 -0.050112844 0.02344984 -0.040511005 -0.032579493
-0.036931448 -0.03448632 -0.004439135 -0.04487098 -0.03135299 -0.019539168 0.008072014 -0.030284574
-0.0082321605 -0.023649551 -0.054682232 -0.03389456 0.0071107587 0.017054258 -0.057659958 -0.066939995
-0.063656315 -0.088626735 -0.036097795 -0.016390491 -0.018619565 0.028284203 0.040686894 0.03549014
-0.048088904 0.006545777 0.0027775327 0.07418311 0.05772441 0.048482373 0.05668259 0.09040804
0.04232647 -0.03162046 0.018402625 -0.0537161 0.04609386 0.016913207 0.044150684 0.012544762

emb_func.layer3.0.bias f4 [64]
00000000: b9ee 11bb 79f6 04ba cad2 aabc b5ba 8cbc
00000010: 0466 bdbc cce5 18ba 4d2e 9fbc c87c 9438
00000020: 3907 46bc 76b9 0fbc 8086 ca3c be5b bcbc
00000030: f183 37bc d956 033b 1d07 04bc d8bd 233c
00000040: 54fc d03c fb1a 603c b63c 5d3c 0e39 1cbb
00000050: 2f7d 9cbb 7230 f23b b4f6 6a3c 2c2d 8d3c
00000060: 10eb 243c 9c1c 693c 41d7 c43b f41f f9b9
00000070: 0889 acbb 60a3 a9bc 113d dabc d4d0 d3bc
00000080: 039f ab3c 337e dd3b dcac c83c 0e16 a6bc
00000090: 11be b93c 7592 d7bc 2b1f a1bb ded1 453c
000000a0: 4d7b ccbc 79b1 923c b96b cabc 9a7b 913c
000000b0: ed45 b63c d691 a83c d8f3 1c3a 77a5 803c
000000c0: 8e69 453c 85c7 af3c becc d0bc 1240 d3bc
000000d0: 84e7 92bc 957a c33c 5ffb 113c 49b9 0bbb
000000e0: 93d7 cabb 3745 8f3c cd3e 9a3c 564e a7bc
000000f0: 3d54 86bb a91e 903c 21b6 98bc a99a 943c
-0.0022267534 -0.00050721277 -0.020852465 -0.017178873 -0.023119934 -0.0005832582 -0.019431258 7.080432e-05
-0.012086683 -0.008772245 0.024722338 -0.022992965 -0.011200891 0.002004078 -0.008058337 0.009993993
0.025510944 0.013678308 0.013503244 -0.0023837718 -0.0047756652 0.007391029 0.014341045 0.017233454
0.010065809 0.014228012 0.0060071056 -0.00047516788 -0.005265359 -0.020707786 -0.026640447 -0.025856413
0.020949846 0.006759429 0.024496488 -0.020274188 0.022673639 -0.026314953 -0.0049170456 0.012073962
-0.024961138 0.017906891 -0.02470957 0.017759133 0.02225014 0.020577352 0.0005987263 0.0157039
0.012049092 0.021457443 -0.025488254 -0.025787387 -0.01793266 0.023862163 0.008910029 -0.0021320155
-0.006190249 0.017489059 0.018828774 -0.020423096 -0.0040993975 0.017592745 -0.018641533 0.018140154

emb_func.layer3.1.weight f4 [64]
00000000: c0dd d83e a9b8 d53e 571d 403f 67d0 683f
00000010: 4840 913f 40c6 6e3f 2e4b 763f c731 5c3f
00000020: 8719 6a3f af8e fb3e 5d33 343f b559 433f
00000030: b30b 193f aad9 383f 0012 f33e 08a8 0d3f
00000040: b8bc 873f 4b0b 9a3f 18df fc3e 95b2 0e3f
00000050: 80c3 4f3f e7a2 8f3f 3882 133f 3e6e 4f3f
00000060: 5578 093f 6088 123f e783 2c3f 8c6e 2a3f
00000070: fd9d 5c3f c7cc 183f 4e7f 503f bf52 803f
00000080: fb1c 1a3f c4d1 493f 35e6 1b3f aa03 9c3f
00000090: b3aa 623f 75d6 913f 1657 823f ee82 7c3f
000000a0: 9721 ad3f 7c83 1e3f f748 063f e2e9 233f
000000b0: 43fc 253f 1d10 6c3f 5d71 d83e add9 493f
000000c0: 9a77 153f aa06 6b3f d4c8 6f3f d7bb 3b3f
000000d0: a501 453f 1a5a 4b3f 3af0 833f 674a 4c3f
000000e0: 12c4 393f 1f65 373f e972 043f 91ea 143f
000000f0: 6303 053f 292a 893f e035 3f3f d009 2a3f
0.42356682 0.41742447 0.7504477 0.90942997 1.1347742 0.93271255 0.96208465 0.86013454
0.914452 0.49132296 0.70390874 0.7630876 0.59783477 0.7220713 0.4747467 0.5533452
1.0604467 1.2034696 0.49388957 0.55741245 0.81157684 1.1221589 0.57620573 0.8102759
0.5369924 0.5723934 0.67388767 0.6657493 0.8617857 0.59687465 0.8144425 1.0025252
0.6020047 0.788357 0.60898143 1.2188618 0.88541716 1.1393572 1.0182827 0.9863728
1.3525876 0.6191938 0.52455086 0.6402875 0.64838046 0.92212087 0.4227399 0.7884777
0.5838562 0.91807044 0.93665814 0.73333496 0.76955634 0.7943436 1.0307686 0.7980103
0.72564805 0.71638674 0.5173784 0.5817042 0.5195829 1.0715991 0.7469158 0.6642122

emb_func.layer3.1.bias f4 [64]
00000000: 760c e7be bc26 0dbe 9053 8abe dd14 fabd
00000010: fe57 15bf 2dca 2ebf 7314 8dbe 36ce 0cbf
00000020: 932e 01bf c091 e63d 224e 54be 549d bbbe
00000030: 5bc0 f3bc bb3c c8be 5bd4 c0be 3a8b 9dbe
00000040: e5c4 10bf 316b 23bf 170f 93be 909e 82be
00000050: c4e5 8bbe e9f1 66bf cd4f 9ebe 1fc1 88be
00000060: 31ef a9be 21f7 53be 2ea1 803d 6674 56be
00000070: 850b 33be cd36 85be 8169 bdbe 7dee 1bbf
00000080: 91b0 f4be 2d9f efbd fdf1 90be b4ea 03bf
00000090: 2a4b d1be 1e03 34bf c557 87be 5fd2 fbbe
000000a0: 9b68 50bf 3311 62be 4f9a 2e3d 2742 56be
000000b0: 68c6 55be 9648 19be d012 34be 4b98 0abf
000000c0: d3f6 22bf 8c16 13bf 44d9 bebe 8435 ddbe
000000d0: 68a7 ffbd aa3e e6be 8fb4 c9be 38bd 23bf
000000e0: 92d8 63bd f441 95be 55b0 73be c8a6 40be
000000f0: d284 cbbe bfa4 e3be f7c5 1cbe 90e3 a9be
-0.45126694 -0.13784307 -0.27016878 -0.122110106 -0.5833739 -0.68277246 -0.27554664 -0.5500215
-0.5046169 0.11258268 -0.2073293 -0.3664347 -0.029754808 -0.39108834 -0.37662014 -0.30770284
-0.5655044 -0.63835436 -0.2872245 -0.255116 -0.27323735 -0.90212876 -0.30920258 -0.2670984
-0.331903 -0.20699741 0.062807426 -0.2094284 -0.17484863 -0.26018372 -0.36994556 -0.6091078
-0.4779096 -0.11700282 -0.28309622 -0.51530004 -0.40877658 -0.70317256 -0.2643415 -0.49183938
-0.81409615 -0.22076873 0.04262763 -0.20923673 -0.20876467 -0.14969096 -0.17585301 -0.5413863
-0.63657874 -0.5745628 -0.37275136 -0.43204892 -0.12483102 -0.44969684 -0.39395568 -0.639606
-0.05562646 -0.2915188 -0.23797734 -0.18813622 -0.3974977 -0.4446163 -0.15309893 -0.3318143

emb_func.layer3.1.running_mean f4 [64]
00000000: 544e 0f3f 7b2f 0cc0 2169 96c0 9b51 67c0
00000010: 9de6 d0bf 1da2 a1c0 c98a 64c0 9539 03c0
00000020: a8b8 88c0 0395 67c0 35f7 07c0 8ce4 13c0
00000030: d6eb 0f40 99b3 6bc0 dcf8 d7bf 802b f4bf
00000040: af94 a7c0 ca2b 13c0 8904 34bf d9f0 25bf
00000050: 37b8 10c0 d5cf 33c0 3066 dcbf 2673 c5c0
00000060: 05ec 3a3f 66d7 32c0 3792 9ac0 5ff5 6bbf
00000070: 6282 3ac0 b722 f1bf b1cf 2fc0 86df 11c0
00000080: 9849 77c0 455d a2c0 d0b9 d5bf bd39 8cc0
00000090: 3d2e 62c0 1ece 77c0 9135 3ec0 7759 a5bf
000000a0: 8abf 87c0 7eb4 60c0 7645 78c0 dc26 93bf
000000b0: e68b 7dc0 a62e bdc0 7ef5 dcbf c5c5 53c0
000000c0: 935e a13e ed77 05c0 4cb7 a2c0 0924 e6bf
000000d0: 651a 6ac0 86a3 bcbf 9611 cfc0 6ecb 46c0
000000e0: 5094 dabf d43d 47c0 1e7e 10c0 e8f6 debf
000000f0: 27be 16c0 d6ec adbf f2cc 25bf d397 c1bf
0.55978894 -2.190398 -4.700333 -3.6143558 -1.6320378 -5.051039 -3.5709708 -2.0503895
-4.272541 -3.61847 -2.1244633 -2.3108244 2.2487693 -3.6828368 -1.6872821 -1.9075775
-5.2369 -2.2995477 -0.7031942 -0.6482063 -2.2612436 -2.80956 -1.7218685 -6.170306
0.7301639 -2.7943969 -4.8303485 -0.9217128 -2.914208 -1.8838719 -2.7470515 -2.2792678
-3.8638668 -5.0738854 -1.669733 -4.382048 -3.5340722 -3.8719554 -2.9720194 -1.2917928
-4.242131 -3.5110164 -3.8792396 -1.1496234 -3.9616637 -5.9119444 -1.7262418 -3.308946
0.31517467 -2.0854447 -5.084875 -1.7979747 -3.657861 -1.4737403 -6.4708967 -3.1061664
-1.7076511 -3.1131487 -2.2576976 -1.74191 -2.355356 -1.3587902 -0.64765847 -1.5124458

emb_func.layer3.1.running_var f4 [64]
00000000: e187 4240 766f 9140 b163 1341 9d32 2041
00000010: 268f 3a41 6eb2 1541 1f44 3441 f023 2141
00000020: f4a4 3b41 5e83 3841 a454 ff40 840d ae40
00000030: 7f42 b440 972f 2041 fbd7 5a40 1bc3 9e40
00000040: 4efd 4841 a524 1141 8657 4b40 b4a5 8940
00000050: 84ec 0041 45a6 8041 41e5 5340 c160 3841
00000060: 9036 8e40 3b14 d440 5636 3941 3449 da40
00000070: 2c1d 5f41 fe38 a940 a1d3 be40 b6ca 2641
00000080: 3dae 8b40 b07f 7b41 f634 8340 6f19 9241
00000090: 04ae 7441 b3a6 3f41 d0e6 2941 253c 1341
000000a0: 4a44 a141 4d31 9c40 6ebe a840 ba7c 3f41
000000b0: a77b c740 c76c 2341 bf22 9540 57b8 2841
000000c0: 92a1 6e40 8c85 4441 8019 8241 0190 0641
000000d0: 8abb cd40 a8d6 3141 605c 9441 ac50 2941
000000e0: 5482 5541 de6b a440 7326 9040 ba35 a440
000000f0: ee37 9540 1da4 5041 8f0c 7c41 0388 0141
3.0395434 4.544856 9.211839 10.012357 11.659948 9.356062 11.266631 10.071274
11.727772 11.532072 7.979082 5.43915 5.633117 10.011619 3.4194324 4.9613166
12.561842 9.071446 3.177217 4.3014774 8.057743 16.081186 3.3108675 11.523622
4.4441605 6.6274695 11.575766 6.821436 13.944622 5.288207 5.9633336 10.42449
4.3650193 15.718674 4.100215 18.262419 15.292484 11.978198 10.618851 9.202184
20.158344 4.881018 5.273246 11.967951 6.2338443 10.214057 4.6604915 10.545005
3.7286115 12.282604 16.262451 8.410157 6.429143 11.114906 18.545105 10.582195
13.344318 5.1381674 4.5046935 5.1315584 4.6630774 13.040067 15.753066 8.095706

emb_func.layer4.0.weight f4 [64, 64, 3, 3]
00000000: 0aa8 90bd f774 dbbd 4344 debd c295 903d
00000010: 187b 58bd 6240 1abd 8d3d 403d 7efa a3bd
00000020: 00ab 443c adba cbbd bb73 89bc 742e 34bd
00000030: 045c 72bd caec a0bd 275e 4abd 3b2c c9bc
00000040: ce79 4fbd ade2 9ebd f070 adbc 5f67 9cbc
00000050: 3b73 06bd bc3b ccbd 63cf 5cbe aeed f1bd
00000060: b6b2 73bd 69f4 2fbe 094f 69b9 7182 5f3d
00000070: 00dc fabc 9c35 cabd 0f6f 593d cac2 d8bc
00000080: d656 babb 1ade 92bc dc93 a2bd b3fe 25be
00000090: 2d27 87bd 2fa0 513d 7574 4a3d 68b9 f93d
000000a0: db4a ba3d 4f26 aa3d 08ad 323e 3e70 fb3d
000000b0: 3035 3f3e ab98 dcbd e9f9 ebbd 6acd abbd
000000c0: df9d 9e3c c1b9 8dbd c919 80bd 6a9d 5f3c
000000d0: 7826 acbd ef2a 9b3a a927 babd 01f7 053d
000000e0: a702 623c 9623 62bd 8581 9dbd ae5f 953d
000000f0: 7f3c da3c 59c8 21bd f0fa c93d 36e2 9ebd
00000100: f3d1 99bd 7241 0fbd 50db 83bd 4f93 0cbd
00000110: ecfb 50bd cb03 7a3d 82d0 1c3d 6f29 4cbd
00000120: 4d37 69bd e36f a5bd b0a9 6ebc dde5 033d
00000130: 94ab 88bd 3b0e 77bc 8b40 293c 3e57 b0bc
00000140: 3a95 cf3d 8239 5ebd e405 c9bd 5c45 f8bd
00000150: 2770 f93c 04e4 3b3c 623b 76bd 4bdf 823d
00000160: 4b40 f83b 95d7 bfbb 20ee 153e cb4f a13e
00000170: 4c47 943e d4be fc3d f735 893d e49b 083e
00000180: 7fbd 2ebd 54f1 a8bd d729 f0ba c72c cabd
00000190: 7c72 f4bd 356e 7ebd 9d2e f4bd e428 e8bd
000001a0: fbef acbd 57d7 a1bd 379a 8abd 8a4f d2bc
000001b0: e869 2f3c 2c69 2e3d b58c 45bc 4982 273e
000001c0: 98b5 b63d 8c8d 3b3e 1f63 063e 4443 903c
000001d0: 0499 303e 8d6a abbd bf19 59be ba23 87bd
000001e0: 745d aabd a3ac d9bd 9d7a 09be 8a78 e4bc
000001f0: e778 88bd c224 4f3c be66 cabd 8b24 efbd
00000200: 0bb2 95bd cf27 cdbd 691f 35be 6435 adbd
00000210: 61f9 c5bc b17b 06bd 2da9 7c3d 14f9 22bd
00000220: bc85 a13d 3d50 5f3d 197d 89bd 0ddd 9cbd
00000230: 3fb4 6abd 7a38 b0bc a82a eb3a cc9e ddbc
00000240: 911a dcbd 21ae 25be 01ab b0bd 9a07 193d
00000250: aba4 81bd edee 31bc babd b53d 0987 05bd
00000260: 5972 7e3c 9149 443d 6899 e63c b19e 61be
00000270: eaa5 7c3c cd5e 8bbd 8e67 1abe ecad bfbc
00000280: ae2a dfbd 319b 92bd 4802 9fbd 2591 a6bd
00000290: 5147 80bd 3c3d cc3c a1ca 90bb 20a0 db3c
000002a0: 07d1 2dbd 56fa 8ebd 3dd9 06bd 136d ccbd
000002b0: f6f5 63bd 1aef 22be d0bc 8b3d 9c1f 743d
000002c0: 8406 233c 0308 de3c 170e b43c 2637 7d3b
000002d0: 851c 04be 1aed 2abe 39d1 74bd 3f5f 99bd
000002e0: d64f b7bd 6dd0 10bd 08a0 b13c c432 a0bc
000002f0: fa60 cd3c 0bf6 92bd 6c8e 0ebe 3f62 afbd
00000300: f0d2 b53d f827 7d3d 169d 12bc 0548 00bc
00000310: 6a4c f7bd 9d68 23be f176 a7bd 88a3 3bbd
00000320: 1d9a 00bd 6b35 a8bd a45c 31be 60b8 f3bc
00000330: 7b87 93bd 38a5 eebd b46f 5f3c fd64 28bd
00000340: d39f 243d d5a6 df3b 88b4 bcbc 37c7 90bd
00000350: 2ce1 abbd 5c83 963d db8a 513d 6b8d f73c
00000360: 582d 25be 241f cabd 8bb3 0dbe ddfd 61bc
00000370: 1fb6 81bd 1ed1 97bd e8bd 65bc 240d 97bd
00000380: 0ce3 6ebc 2f28 b9bc 0f8a 1cbd d1e6 5a3b
00000390: 4fbc 59bd 086b 84bd 013c 613d ad12 9bbc
000003a0: 0e7d ab3c efd4 f83d 751a d2bd b976 25be
000003b0: 4063 18be 81d1 a03c 0a96 923d c19e 1cbd
000003c0: 990c b83c 4535 873c dda7 81bd ba10 ae3d
000003d0: 76c6 393d 8ddb c83c 6c67 043e 8850 e43d
000003e0: 305c 1dbc f40c ba3d 8876 cd3d dc2e 0fbc
000003f0: 745e 293e d2e6 243d 426d bf3d 86d5 12bb
-0.07063301 -0.10715669 -0.10852864 0.07059814 -0.052851766 -0.037659056 0.0469337 -0.08006762
0.01200366 -0.09947715 -0.016778817 -0.043989614 -0.059169784 -0.07857664 -0.049406197 -0.024557224
-0.05065327 -0.07758079 -0.021172017 -0.01909226 -0.032824736 -0.09972331 -0.21563487 -0.11812912
-0.059496604 -0.17183079 -0.00022250054 0.054567758 -0.030622482 -0.098735064 0.05308443 -0.02646007
-0.005686621 -0.017928172 -0.07938358 -0.16210441 -0.06599269 0.051178154 0.04942747 0.121935666
0.09096309 0.08308088 0.17448819 0.12277268 0.18672633 -0.107713066 -0.11522276 -0.08388789
0.019362388 -0.06920195 -0.06254918 0.01364837 -0.08405775 0.0011838357 -0.09089596 0.032706264
0.013794578 -0.05520972 -0.076907195 0.0729364 0.026640175 -0.039497707 0.09862316 -0.0775799
-0.07510748 -0.034974523 -0.06438315 -0.034320172 -0.0510215 0.061038774 0.038284786 -0.0498442
-0.056937505 -0.08077981 -0.014566824 0.032201637 -0.06673351 -0.015079076 0.01033033 -0.021525975
0.101358846 -0.054254062 -0.09815577 -0.12122604 0.030448986 0.011467937 -0.060115226 0.06390246
0.0075760237 -0.005854557 0.14641619 0.3150619 0.28960645 0.12341085 0.06699746 0.13340718
-0.042661186 -0.08249155 -0.0018323016 -0.09871822 -0.11935899 -0.06211682 -0.11922953 -0.11335924
-0.0844421 -0.07902401 -0.067676954 -0.025672693 0.010706402 0.04258077 -0.012057473 0.16358294
0.08921355 0.18315715 0.13123749 0.0176102 0.17245871 -0.08369932 -0.21201228 -0.06598611
-0.08318606 -0.10628631 -0.1342568 -0.027889509 -0.06663685 0.012643041 -0.09882878 -0.11676892
-0.073093496 -0.100173585 -0.17687763 -0.08457449 -0.024166765 -0.032832805 0.061684776 -0.03978832
0.07886836 0.05451988 -0.067133136 -0.076593496 -0.057300802 -0.021511305 0.001794179 -0.02705326
-0.10747255 -0.16179706 -0.086263664 0.037360765 -0.06330236 -0.010860187 0.08874078 -0.032599483
0.015530192 0.04792172 0.028149322 -0.22033192 0.015420416 -0.06805191 -0.15078565 -0.023398362
-0.108968124 -0.07158507 -0.07764107 -0.08133153 -0.062636025 0.024931543 -0.0044186865 0.026809752
-0.042435672 -0.069813415 -0.03292202 -0.09981742 -0.05565449 -0.15911523 0.068231225 0.059600458
0.009950284 0.02710343 0.021979375 0.0038637607 -0.12901504 -0.1669201 -0.059769843 -0.0748887
-0.08950774 -0.03535502 0.021682754 -0.019555457 0.025070656 -0.07175835 -0.13921517 -0.08563661
0.08878124 0.061805695 -0.008948585 -0.007829671 -0.12075122 -0.15957876 -0.08176983 -0.045810252
-0.031396974 -0.08213314 -0.17320496 -0.029751003 -0.07203575 -0.11652607 0.013637472 -0.041111935
0.040191483 0.006825308 -0.023035303 -0.07069247 -0.083925575 0.073492736 0.051157814 0.0302188
-0.16130579 -0.09869221 -0.13838021 -0.013793436 -0.06333565 -0.07412933 -0.014022328 -0.07375553
-0.014580499 -0.022602169 -0.0382176 0.0033401737 -0.0531581 -0.06465727 0.054988865 -0.018929804
0.020933654 0.12149989 -0.102589525 -0.1615857 -0.14881611 0.01963115 0.07157524 -0.038237337
0.022466945 0.016504893 -0.063308455 0.08499284 0.045355283 0.024518752 0.12930077 0.111481726
-0.009604499 0.09084502 0.10032374 -0.0087391995 0.16539937 0.04025919 0.09347011 -0.0022405102

emb_func.layer4.0.bias f4 [64]
00000000: b7ce c03c c7d2 3f3b f0fa a63b 33e0 89bc
00000010: 6571 b8bc b7e2 d4bc badd 093c 70bc 1dbc
00000020: e207 9abc 3656 6cbc 9405 433c b098 7c3c
00000030: 240b 5cbc ef7d 6ebc 56bf 88bc ea7d 56bb
00000040: 02a8 d03c b215 84bc 5584 8d3a 90d5 93bc
00000050: b183 783c 05f0 3abc dc7f a0bc d531 903b
00000060: f221 1dbb ec11 c13c 1a04 443c f9fb 89bc
00000070: a641 8d3c c6ce d73c 4cec 40bc e78b 0abc
00000080: 4b56 523c 2c27 8e3b 10ae 2038 5887 603c
00000090: b453 ebbb b1d0 613c 0535 b13b d042 5fbc
000000a0: 55ea 9e3c 8021 6e3b 170d 48bc 4c35 513c
000000b0: e8d8 4b3c 881e 813c abd0 0d3c 4006 d6bc
000000c0: 065d 683c 82a2 403c a80e d2bc 36bd 0dbc
000000d0: 5d4c c4bc 5a69 2bbc e948 613b 21e9 d0bc
000000e0: 2f1b 373c cd5e 9ebc 5e7d 1c3c 4cc6 f23b
000000f0: 9ba6 d5bc 8f69 a43c 9c7d 44bc ba46 b83c
0.02353607 0.002926992 0.005095832 -0.01683054 -0.022515008 -0.025987012 0.00841468 -0.0096274465
-0.018802587 -0.014424851 0.011903185 0.015417263 -0.0134303905 -0.014556392 -0.016692799 -0.003272886
0.025470737 -0.016123626 0.0010796884 -0.01804617 0.015168116 -0.011409764 -0.019592218 0.0044004717
-0.0023976532 0.023568116 0.0119638685 -0.016843783 0.017243218 0.026343714 -0.011775088 -0.008456207
0.012837957 0.0043381657 3.830908e-05 0.013704143 -0.007181609 0.013782666 0.0054079317 -0.013626769
0.019398848 0.0036335886 -0.012210152 0.012769055 0.012441851 0.015761629 0.008655707 -0.026126027
0.014182335 0.011757495 -0.025641754 -0.008651068 -0.023962194 -0.0104621295 0.0034375733 -0.02550179
0.011175915 -0.019332314 0.009551374 0.0074088927 -0.02608042 0.020069866 -0.011992838 0.022494663
